src/Backend-Information/Clod-weather_predict/Anhui_lstm_model.pth (torch, 208379 bytes, 11 tensors)

lstm.weight_ih_l0 f4 [256, 3]
0	0x3dd2883c	0.10279891
1	0x3deca020	0.11553979
2	0xbd5f7008	-0.0545502
3	0x3e0b2456	0.1358808
4	0xbe099c97	-0.1343864
5	0x3c7d5ac0	0.015463531
6	0x3e070159	0.13184108
7	0xbd5f14f0	-0.054463327
8	0x3d9fdfb2	0.07806338
9	0x3d3b5f44	0.04574515
10	0x3d812331	0.0630554
11	0xbdb0e94c	-0.08638248
12	0xbcf2b5fc	-0.029627793
13	0x3d5e025e	0.054201476
14	0xbc2dd0c0	-0.010608852
15	0xbdbb3dd9	-0.09142656
16	0xbcf52c50	-0.029928356
17	0x3c024490	0.007950917
18	0xbe13c745	-0.14431484
19	0x3c9036a9	0.017604189
20	0x3dc13960	0.094347715
21	0xbabc0e9a	-0.0014347613
22	0x3dcb124d	0.099156
23	0xbc93e198	-0.018051907
24	0xbe1d2054	-0.15344363
25	0x3dec20b0	0.11529672
26	0x3d962f56	0.07333247
27	0xbddc9ab1	-0.107716925
28	0x3e199d1e	0.15001342
29	0xbdfa8c62	-0.12233807
30	0xbe10a5c6	-0.14125738
31	0xbba0b790	-0.004904695
32	0x3ce396f8	0.027781948
33	0x3c8f6219	0.017502831
34	0x3e0de11b	0.13855402
35	0xbda5c6ae	-0.08094536
36	0xbd3ba0be	-0.045807593
37	0xbd77a275	-0.060457665
38	0xbd793f40	-0.060851336
39	0x3dea6df2	0.11446752
40	0xbc5933fa	-0.013257021
41	0x3ddb4d78	0.10708135
42	0x3d9c159a	0.07621308
43	0xbda77771	-0.081770785
44	0xb96dc800	-0.00022676587
45	0xbd3d9696	-0.046286188
46	0x3d643359	0.05571303
47	0xbd7940fc	-0.06085299
48	0xbe0e9363	-0.13923411
49	0xbd1d1ca9	-0.03835741
50	0x3d4e5ab0	0.050379455
51	0x3c4d8154	0.012543041
52	0x3ced1fc6	0.028945815
53	0x3dbeefd0	0.09323084
54	0x3dc2a4dc	0.09504101
55	0x3ce8f1f9	0.028435694
56	0xbc790870	-0.015199766
57	0x3dcb173d	0.09916542
58	0xbd655ea6	-0.055998467
59	0xbdbfd31c	-0.09366438
60	0xbd77963c	-0.06044601
61	0xbd54d5a7	-0.051961567
62	0x3bc5dac0	0.00603804
63	0x3e06ecab	0.13176219
64	0x3c6011af	0.013676091
65	0x3d4f7778	0.050651044
66	0x3da87661	0.08225704
67	0x3d640ad1	0.055674378
68	0xb7370000	-1.090765e-05
69	0xbcb322c8	-0.02186717
70	0xbd571375	-0.05250879
71	0x3d8029f0	0.06257999
72	0xbc33284c	-0.0109349005
73	0xbd544390	-0.051822245
74	0xbd184078	-0.037170857
75	0x3db27651	0.08713973
76	0xbd5ac475	-0.053410012
77	0xbdc415d4	-0.09574476
78	0x3da14073	0.07873621
79	0x3d74aa5e	0.059732787
80	0xbd8c41fc	-0.06848523
81	0xbcb4149d	-0.021982485
82	0xbc82f70f	-0.015986947
83	0xbce46df0	-0.027884454
84	0xbe002083	-0.12512402
85	0x3d539dde	0.051664226
86	0xbd3a264c	-0.04544668
87	0x3de6f29e	0.11276744
88	0x3c0bebb7	0.0085400855
89	0xbd61d54c	-0.055135056
90	0xbe04bf86	-0.12963685
91	0x3d940096	0.07226674
92	0x3db718a8	0.0894025
93	0xbd803e22	-0.06261851
94	0xbd0d46cd	-0.03449135
95	0x3de7e5c0	0.11323118
96	0xbc6cd2bf	-0.014454543
97	0x3d60aaad	0.05485027
98	0xbddb62de	-0.10712217
99	0x3e162d98	0.1466583
100	0xbd99437b	-0.07483574
101	0xbcf266e0	-0.02959007
102	0x3cfe72fe	0.031060692
103	0x3d060693	0.032721113
104	0x3cd1ebf8	0.025625214
105	0x3d20ac1a	0.03922663
106	0x3cb505fd	0.022097582
107	0xbdf908b2	-0.121598616
108	0x3e149ced	0.14512987
109	0x3d30091e	0.042977445
110	0xbd4d0838	-0.050056666
111	0xbd6ee23f	-0.058321234
112	0x3d7914a2	0.060810693
113	0x3dd97a7a	0.10619064
114	0x3ccf6c0e	0.02532008
115	0x3ddea1c9	0.10870702
116	0xbb5a4e00	-0.0033310652
117	0xbc48e521	-0.01226166
118	0x3dd2bc50	0.10289824
119	0x3d395768	0.045249373
120	0xbaf57d3b	-0.0018729338
121	0x3c72b50a	0.014813671
122	0xbdbb9c3e	-0.0916066
123	0x3b454626	0.0030101626
124	0xbcdb1101	-0.026741507
125	0xbdb663e4	-0.089057714
126	0xbdcc279d	-0.09968493
127	0x3dd7e907	0.10542493
128	0x3ddc1e5c	0.10747978
129	0xbd8bf667	-0.06834107
130	0xbd55905d	-0.05213963
131	0x3cdffef8	0.027343258
132	0xbcf5cd0a	-0.030004997
133	0xbd8ce779	-0.068800874
134	0x3d8d6db6	0.06905691
135	0x3da0a6be	0.078443035
136	0x3e1f411f	0.15552185
137	0x3cd195d8	0.025584146
138	0x3de8a6cc	0.11359939
139	0xbdb146a0	-0.08656049
140	0x3de08010	0.10961926
141	0x3da7afdc	0.081878394
142	0x3de7ca1e	0.11317848
143	0xbcd14f30	-0.025550455
144	0xbce1dd78	-0.027571425
145	0x3bd50b03	0.006501557
146	0xbd9a40f4	-0.0753192
147	0x3cfc2b0c	0.030782245
148	0xbd5a0db3	-0.05323572
149	0x3d8428d0	0.06453097
150	0xbdedbebe	-0.11608647
151	0x3e12587e	0.1429157
152	0xbb494d40	-0.003071621
153	0x3dfafe03	0.1225548
154	0xbe0636e3	-0.13106875
155	0xbd66edac	-0.056379005
156	0xbd858c1d	-0.06520865
157	0xbe1f5813	-0.15560941
158	0xbde6da7c	-0.11272141
159	0x3e17be27	0.14818631
160	0xbdda55a8	-0.10660869
161	0x3b157600	0.002280593
162	0x3b098bdf	0.002098791
163	0x3d4b92b2	0.049700446
164	0xbd902fc2	-0.07040359
165	0x3e1b6e1a	0.15178719
166	0x3cac492e	0.021030989
167	0x3c237d70	0.009978637
168	0xbdd0dcd0	-0.10198367
169	0x3d25495b	0.04035316
170	0x3cf07d70	0.029356688
171	0x3d3c0eee	0.045912676
172	0x3deba44f	0.11505949
173	0x3df40936	0.11915819
174	0x3e0bcd7c	0.13652605
175	0x3d92b700	0.07163811
176	0x3d824d5e	0.06362413
177	0xbdab6c13	-0.08370223
178	0x3d360bcc	0.044444844
179	0xbd25dda0	-0.04049456
180	0x3ddbd1bc	0.10733363
181	0xbe04e8bd	-0.12979408
182	0xbcfc9c00	-0.030836105
183	0xbd6866f9	-0.056738827
184	0x3dac279b	0.08405992
185	0x3d7ebf34	0.062194064
186	0x3d0c6afb	0.034281712
187	0x3d4d08ea	0.05005733
188	0x3dae39b8	0.08507103
189	0x3dc4135c	0.09574005
190	0x3de1079a	0.10987778
191	0x3dd736a8	0.10508472
192	0x3c297457	0.010342679
193	0xbd860ba7	-0.06545191
194	0xbde8ae0e	-0.11361323
195	0x3e155fb8	0.14587295
196	0xbd5bbeb8	-0.05364868
197	0x3d0b9034	0.03407307
198	0xbde71b6e	-0.11284529
199	0x3de2d8fd	0.110765435
200	0x3d9500d2	0.07275547
201	0xbe054bbd	-0.13017173
202	0x3d224eb3	0.039625835
203	0x3d9f4994	0.07777706
204	0x3d0aac33	0.03385563
205	0xbc97c337	-0.018525703
206	0xbdf3d592	-0.1190597
207	0xbd95c814	-0.073135525
208	0xbdd9bd26	-0.1063178
209	0xbcd952c8	-0.026528731
210	0xbc2011a3	-0.00976983
211	0xbcae5665	-0.02128143
212	0x3cc85ef8	0.024459347
213	0xbc9f3046	-0.019432198
214	0x3d1acd1c	0.037793264
215	0x3dc74e8e	0.0973178
216	0x3d96e15a	0.07367201
217	0xbbe6b3a3	-0.0070404573
218	0x3c9cfd40	0.019163728
219	0xbe0f720c	-0.14008349
220	0x3c626d0b	0.013819943
221	0x3d76d528	0.060261875
222	0x3d9333a5	0.07187585
223	0xba284b13	-0.00064198783
224	0xbd226438	-0.039646357
225	0xbdb78ec6	-0.08962779
226	0x3d94fa78	0.072743356
227	0x3dca4aee	0.09877573
228	0xbca4c80c	-0.020114921
229	0x3cf099de	0.029370245
230	0xbbea3bc0	-0.007148236
231	0x3cbaaba2	0.022786919
232	0xbd13af7a	-0.03605602
233	0x3dac9d94	0.08428493
234	0xbd2081a7	-0.039186146
235	0x3dd92310	0.10602391
236	0xbdec3752	-0.11533989
237	0xbe116065	-0.14196928
238	0x3da5ea85	0.08101372
239	0xbdff40d0	-0.12463534
240	0x3a5d1776	0.0008433977
241	0x3d6e8976	0.05823656
242	0x3cb123a8	0.021623448
243	0xbda2e3f9	-0.079536386
244	0x3d025f55	0.031829197
245	0x3d82ea28	0.06392318
246	0xbd8503b7	-0.06494849
247	0x3da9d6d2	0.08292927
248	0xbdb0cbcc	-0.08632621
249	0x3d867bb3	0.065665625
250	0x3d6e7df7	0.0582256
251	0x3dc77860	0.097397566
252	0x3da0e8e9	0.07856924
253	0xbd8164a6	-0.06318025
254	0x3df5c3c4	0.1200023
255	0x3e1a4f19	0.15069236

lstm.weight_hh_l0 f4 [256, 64]
0	0x3cb794fd	0.02240991
1	0x3d5dcf82	0.054152973
2	0x3dbd21b5	0.09234945
3	0x3d5f9cfd	0.054593075
4	0xbdafd3a6	-0.085852906
5	0x3a9b3025	0.001183991
6	0xbdf5dc2f	-0.12004887
7	0x3dec45fc	0.11536786
8	0x3db0004e	0.08593808
9	0x3cab5402	0.020914081
10	0xbcb103a0	-0.021608174
11	0xbc820409	-0.015871065
12	0x3ddf9ee6	0.10918979
13	0x3d945fa9	0.07244808
14	0x3da09727	0.0784133
15	0xbc0982b6	-0.00839298
16	0x3e00fae5	0.12595709
17	0xbd8eb495	-0.06968037
18	0x3decafa7	0.115569405
19	0x3ddafcbe	0.10692738
20	0xbd920b89	-0.071311064
21	0x3dde9609	0.10868461
22	0xbd98f0b7	-0.07467788
23	0x3b2036ff	0.0024446843
24	0x3d67f1f7	0.05662724
25	0x3d8c7d73	0.06859865
26	0xbd0ca96e	-0.03434127
27	0x3db9de75	0.090756334
28	0x3b412f3f	0.0029477624
29	0x3d9aef1e	0.07565139
30	0x3d989eae	0.07452141
31	0xbd949f74	-0.07256976
32	0x3ce118f7	0.027477724
33	0xbdbffafa	-0.09374042
34	0x3debd543	0.11515286
35	0xbdcfe7f6	-0.10151665
36	0x3df52423	0.11969783
37	0xbd98993c	-0.07451102
38	0xbd4e1c0a	-0.05031971
39	0x3e00060c	0.12502307
40	0xbdd2ae16	-0.102871105
41	0x3d5d81a0	0.0540787
42	0x3d352379	0.044223282
43	0x3dd3d73d	0.10343788
44	0x3d09a3f6	0.03360363
45	0x3c8ec429	0.01742752
46	0xbdf393d7	-0.118934326
47	0xbd256c11	-0.040386263
48	0xbdc3e5d9	-0.09565324
49	0xbcdae241	-0.026719214
50	0x3c2b4ccb	0.010455321
51	0xbd71ece3	-0.059063803
52	0x3d96636a	0.073431805
53	0x3dc42f08	0.09579283
54	0x3df6c226	0.120487496
55	0xbd98030d	-0.07422457
56	0xbdcc0d56	-0.09963481
57	0x3daf8fd5	0.08572356
58	0xbd7c6830	-0.0616228
59	0xbcec00ae	-0.028808918
60	0x3cfd7cba	0.030943263
61	0xbdc60e28	-0.09670669
62	0xbdedbaab	-0.1160787
63	0x3ddfcd39	0.10927815
64	0x3c623ffb	0.013809199
65	0x3be2f638	0.006926324
66	0x3cbbdfe3	0.022933906
67	0xbe022cce	-0.12712404
68	0x3d0c0b93	0.034190726
69	0xbd98f28d	-0.07468138
70	0xbdd599b1	-0.10429705
71	0xbdbf2eb6	-0.09335081
72	0xbd10de7a	-0.03536842
73	0xbdaeec72	-0.08541192
74	0xbd92c36f	-0.07166182
75	0x3dbdf33c	0.09274909
76	0x3d62215c	0.055207595
77	0xbcbe5f88	-0.023238912
78	0xbd92bdf0	-0.07165134
79	0xbd467787	-0.048453834
80	0xbd35dba1	-0.044398908
81	0xbdd0b510	-0.10190785
82	0xbc90c414	-0.017671622
83	0xbc9537f1	-0.018215152
84	0x3d95fc28	0.073234856
85	0xbd9e6aea	-0.07735236
86	0x3db856d1	0.09000934
87	0xbd979f5b	-0.074034415
88	0x3d4f3f15	0.05059727
89	0xbdaf6503	-0.08564188
90	0x3d89ca12	0.06727995
91	0x3db924f6	0.09040253
92	0x3e1be76f	0.15225004
93	0x3d85e505	0.06537823
94	0x3d3e6b4f	0.046489056
95	0x3bb41ae6	0.0054963706
96	0x3dea0a15	0.11427704
97	0xbe0061a4	-0.12537247
98	0xbdafa851	-0.08577026
99	0x3d6457dc	0.05574785
100	0x3c8c4a2d	0.017125214
101	0xbdda03a8	-0.106452286
102	0x3e285a81	0.16440775
103	0x3db7ceb6	0.08974974
104	0xbcd80a2e	-0.026372042
105	0x3d2e8a31	0.04261226
106	0x3db2f913	0.087389134
107	0xbd89aa3d	-0.067219235
108	0xbc624596	-0.013810536
109	0x3dc6a2bb	0.09699007
110	0x3df48e8a	0.1194125
111	0xbd82b349	-0.06381852
112	0xbdb3efcc	-0.08785972
113	0xbcc9dbb3	-0.024640894
114	0x3d840f70	0.06448257
115	0x3dfa85f3	0.1223258
116	0x3d8c5842	0.06852771
117	0xbcf4f365	-0.029901216
118	0xbd199746	-0.03749778
119	0xbd16f81b	-0.036857706
120	0x3df5bb21	0.11998583
121	0x3d10d978	0.035363644
122	0x3d2e0611	0.042486254
123	0x3dad2c51	0.08455718
124	0x3dab6473	0.083687685
125	0x3dcced70	0.10006225
126	0x3df65614	0.12028137
127	0xbdf29fb8	-0.1184687
128	0x3d830808	0.06398016
129	0xbdcc7088	-0.09982401
130	0xbd994519	-0.074838825
131	0x39b27db4	0.00034044462
132	0x3e0d8fcf	0.1382439
133	0x3e012372	0.12611178
134	0xbd233fa1	-0.039855603
135	0x3b920ba6	0.004456955
136	0xbccd9052	-0.025093231
137	0xbc108a18	-0.008821987
138	0x3d0da4d7	0.03458103
139	0xbd5c4b4d	-0.05378275
140	0xbdbddb99	-0.092704006
141	0x3c88db1c	0.016706042
142	0x3d960cb8	0.07326645
143	0x3dae50ab	0.0851148
144	0x3cbbbb75	0.022916535
145	0xbd20a786	-0.039222263
146	0xbd6bc9a4	-0.057565346
147	0xbd487d22	-0.04894746
148	0x3d46bb16	0.048518263
149	0x3d1ebda9	0.038755093
150	0x3c854d41	0.01627219
151	0x3d7650d2	0.06013567
152	0xbdff6ef5	-0.12472335
153	0x3d448ad4	0.04798396
154	0xbe1f8eec	-0.15581864
155	0xbdcd225f	-0.100163214
156	0x3debb42b	0.11508974
157	0x3e1e0967	0.15433274
158	0xbd4cce6a	-0.05000154
159	0xbe0a5686	-0.13509569
160	0x3d83dc46	0.06438498
161	0xbd6e7867	-0.058220293
162	0x3d9281db	0.07153674
163	0x3d871ddd	0.06597493
164	0xbe05dcc5	-0.13072498
165	0xbdd38c95	-0.10329548
166	0x3db5f527	0.0888465
167	0xbd81d85d	-0.06340096
168	0x3da2915b	0.079378806
169	0xbdde54b9	-0.10856003
170	0x3db793d8	0.08963746
171	0xbe033cbe	-0.1281614
172	0x3d843cb8	0.06456894
173	0xbc8d7146	-0.017265927
174	0x3d9ce272	0.076603785
175	0xbd73bfc7	-0.059509065
176	0x3d014875	0.03156324
177	0x3d9708d0	0.07374728
178	0x3de22096	0.110413715
179	0x3dccf6d2	0.10008015
180	0xbdc391c0	-0.09549284
181	0xbc962e44	-0.018332608
182	0x3d8f0f34	0.06985322
183	0xbd8643be	-0.065558895
184	0xbd8e3cdb	-0.06945201
185	0xbcb994ba	-0.022653926
186	0x3dbd2f7e	0.09237574
187	0xbda255ac	-0.07926497
188	0x3d895596	0.06705777
189	0x3ca1a0e9	0.019730048
190	0xbd55039f	-0.052005406
191	0x3d07060e	0.03296476
192	0xbc34fbaa	-0.0110463295
193	0xbd39af1a	-0.045333005
194	0xbc1bd529	-0.009511271
195	0x3d70df09	0.058806453
196	0x3d59e74a	0.05319909
197	0x3db30afc	0.087423295
198	0x3c6c7dbb	0.014434273
199	0x3d8a8a38	0.067646444
200	0x3c5fb2d9	0.01365348
201	0xbdab5301	-0.08365441
202	0x3e063f05	0.13109978
203	0xbd4e791c	-0.050408468
204	0x3d92450b	0.07142075
205	0xbd7db2ad	-0.061937977
206	0xbd8c7ed1	-0.06860126
207	0xbe0b80f8	-0.13623416
208	0xbe21dfbe	-0.15808007
209	0xbddaae88	-0.106778204
210	0x3d8d3969	0.06895716
211	0x3dc03ccf	0.09386598
212	0x3d9712ae	0.0737661
213	0x3dc2fbdf	0.09520697
214	0x3e034be3	0.12821917
215	0x3e21f141	0.15814687
216	0x3d83dc87	0.06438547
217	0x3a507344	0.0007951746
218	0x3db55925	0.088548936
219	0xbdbbe70e	-0.091749296
220	0x3d7dcd5e	0.06196343
221	0xbcd1a0b0	-0.025589317
222	0x3d1de0c9	0.03854445
223	0xbe0df482	-0.13862804
224	0x3dc20c9d	0.09475062
225	0xbd632cc1	-0.055462603
226	0xbd8560f6	-0.065126345
227	0xbd8abe6c	-0.06774601
228	0xbdf2ffe4	-0.118652135
229	0xbdb4f63c	-0.08836028
230	0xbc9d72a3	-0.019219702
231	0x3b85099c	0.0040599834
232	0x3d5ca5cb	0.05386905
233	0x3d260cb2	0.04053945
234	0xbe06c4f2	-0.13161066
235	0xbdd8bdaa	-0.105830505
236	0x3d14606c	0.036224768
237	0xbd285df7	-0.041105237
238	0xbd6c3056	-0.057663284
239	0xbde6556f	-0.11246764
240	0xbc893bdc	-0.016752176
241	0xbd916567	-0.07099419
242	0xbcbd01d7	-0.023072166
243	0x3d4e7b1f	0.050410386
244	0x3cbfa140	0.02339232
245	0xbd3a5009	-0.045486484
246	0xbd889efc	-0.06670949
247	0x3e067ed2	0.13134316
248	0x3d993b9f	0.07482075
249	0x3d1b42ff	0.03790569
250	0xbba29499	-0.004961562
251	0xbd9f0129	-0.07763893
252	0xbcfb3a06	-0.030667316
253	0x3d858453	0.065193795
254	0xbd13ca0e	-0.036081366
255	0xbdb82787	-0.08991914

lstm.bias_ih_l0 f4 [256]
0	0xbc9b87cd	-0.018985653
1	0x3d3284a4	0.043583527
2	0xbdbd0210	-0.09228909
3	0xbd5c06cd	-0.053717423
4	0xbda515c1	-0.0806079
5	0x3e13cc3d	0.1443338
6	0xbd05ba85	-0.032648582
7	0x3dd846aa	0.10560353
8	0xbce9a7f1	-0.028522464
9	0x3dd6b99f	0.10484623
10	0x3dffcb34	0.1248993
11	0x3d87db63	0.066336416
12	0x3e1aad48	0.15105164
13	0x3cb11a89	0.021619098
14	0xbd93dcb9	-0.07219834
15	0x3bf8e280	0.0075953603
16	0xbd806207	-0.06268697
17	0xbd2efd2b	-0.04272191
18	0x3e0a1e28	0.13488066
19	0x3dcc2a34	0.09968987
20	0xbce7ec86	-0.028311025
21	0x3db2a5ee	0.08723055
22	0xbc2f59a9	-0.010702529
23	0xbdc4b52d	-0.09604869
24	0x3daad0e7	0.08340626
25	0x3d1e14bd	0.038593996
26	0x3d17ff51	0.037108723
27	0x3af9b01e	0.0019049679
28	0x3df4eae3	0.119588636
29	0x3e001e88	0.12511647
30	0xbdfaf696	-0.12254064
31	0x3d089d61	0.033353213
32	0x3d4a7bfe	0.049434654
33	0x3d89f6b6	0.067365095
34	0xbda5f38e	-0.08103095
35	0xbbbca1f5	-0.0057566115
36	0xbd1311cc	-0.035905644
37	0xbdb1a4d2	-0.08674015
38	0xbbd87ad0	-0.0066064373
39	0x3db893f3	0.09012594
40	0x3d2384a0	0.039921403
41	0xbdc6fdff	-0.09716415
42	0x3d8be283	0.06830313
43	0xbcab6845	-0.020923743
44	0x3dfc24c7	0.12311702
45	0x3d6ffc80	0.058590412
46	0xbdb3d1e7	-0.0878027
47	0x3da10226	0.07861738
48	0xbd9b4a98	-0.07582587
49	0x3dbcda62	0.09221341
50	0x3c79c797	0.01524534
51	0x3dd0b2ae	0.101903304
52	0xbd4d489a	-0.050118066
53	0x3c8fa4b5	0.017534593
54	0xbdaf7927	-0.0856803
55	0x3cf77f33	0.03021202
56	0xbd258d33	-0.04041786
57	0x3df0ad0b	0.11751755
58	0xbd6cd583	-0.05782081
59	0x3c0f50d2	0.008747296
60	0xbb266463	-0.0025389425
61	0xbc70d13b	-0.014698322
62	0xbd79171c	-0.060813054
63	0xbb9b52e0	-0.004740104
64	0xbdfb305f	-0.122650854
65	0x3ddc922d	0.10770068
66	0x3de13cda	0.10997935
67	0x3dbbe63d	0.09174774
68	0xbcfa0e1d	-0.030524308
69	0x3dd1806a	0.10229571
70	0x3b799fbb	0.0038089592
71	0x3dd0df56	0.10198848
72	0x3d0c6b4a	0.034282006
73	0xbc30a06e	-0.010780437
74	0xbd03f7a8	-0.032218605
75	0xbdba3843	-0.09092762
76	0xbdd0368d	-0.10166655
77	0x3d1a6d8b	0.037702125
78	0x3d3dd050	0.04634124
79	0xbd06d6d2	-0.032919712
80	0xbda47db6	-0.0803179
81	0x3c109448	0.0088244155
82	0x3d9d27ec	0.0767363
83	0x3de90ea2	0.11379744
84	0x3e0ef901	0.13962175
85	0xbd898db9	-0.067164846
86	0xbde3e111	-0.111269124
87	0x3d16bf98	0.03680381
88	0x3ca8839f	0.020570574
89	0x3dae62d6	0.08514945
90	0xbcdcbbe2	-0.026945058
91	0x3d8db6d7	0.069196396
92	0x3c5f96f9	0.0136468345
93	0x3d0a133d	0.033709753
94	0xbe0d79a5	-0.13815935
95	0xbd9ceb62	-0.07662083
96	0xbc322ac9	-0.010874459
97	0x3c65ea5d	0.014032927
98	0x3dae9503	0.085245155
99	0xbd321aa7	-0.04348245
100	0x3e0a3dfc	0.13500208
101	0x3dccbfa8	0.09997493
102	0xbc0f205a	-0.008735741
103	0x3ddb8fa1	0.107207544
104	0xbd41f4a7	-0.04735246
105	0xbc9d86cf	-0.01922932
106	0xbd1d7f41	-0.038451437
107	0xbcb88f24	-0.022529192
108	0xbd89ea8e	-0.06734191
109	0xbd72df32	-0.059294887
110	0x3db5f521	0.08884645
111	0x3d8c05ac	0.06837019
112	0x3e16c360	0.14722967
113	0x3ca9326d	0.020653928
114	0x3dc43974	0.09581271
115	0xbcf57155	-0.029961267
116	0xbd61bd8e	-0.055112414
117	0xbd92e1d9	-0.07171983
118	0x3d48c38d	0.049014617
119	0xbcb789c7	-0.022404565
120	0xbd64da85	-0.05587246
121	0xbda23666	-0.07920532
122	0x3d5c83e5	0.053836722
123	0x3d951a7f	0.07280444
124	0xbdae8348	-0.08521134
125	0xbb90845d	-0.00441031
126	0x3dff00e8	0.12451345
127	0x3c7e61da	0.015526259
128	0x3d5151ce	0.051103406
129	0xbd16b921	-0.036797646
130	0xba4b46ab	-0.0007754366
131	0xbd43feb5	-0.04785033
132	0x3d80b1f0	0.06283939
133	0x3d75b9a0	0.05999148
134	0xbd34a84f	-0.044105824
135	0xbdcf4453	-0.10120454
136	0xbe06c087	-0.13159381
137	0x3e136946	0.14395627
138	0x3dce5a90	0.10075867
139	0x3dcbe549	0.09955842
140	0xbc76b119	-0.015056872
141	0x3d9cbe51	0.076534875
142	0x3dc4d77b	0.09611412
143	0xbcdd9077	-0.027046425
144	0xbe0a2ff7	-0.1349486
145	0x3da51948	0.08061463
146	0x3cefbdf7	0.029265387
147	0x3de739ba	0.11290307
148	0xbe044d31	-0.12920071
149	0x3d82b6e5	0.063825406
150	0x3d8f0364	0.069830686
151	0x3d9f185e	0.077683195
152	0x3d99cc58	0.075096786
153	0xbd7a2f21	-0.061080102
154	0x3d38a142	0.045075662
155	0xbe093513	-0.13399152
156	0x3dd43d04	0.103632
157	0xbd9c2adf	-0.076253645
158	0x3dc1cab1	0.094624884
159	0xbe02e030	-0.12780833
160	0x3d3e9a58	0.046533912
161	0x3d8bdde6	0.06829433
162	0x3dbc2335	0.09186403
163	0xbd1442f1	-0.036196653
164	0x3c322fe5	0.010875677
165	0xbded3a1c	-0.11583349
166	0x3db84418	0.08997363
167	0xbda26746	-0.07929854
168	0xbb9b8479	-0.0047460166
169	0xbceb97c5	-0.028758893
170	0xbdca9b7d	-0.09892938
171	0xbdb28ad8	-0.087178886
172	0xbc00c226	-0.007858789
173	0x3de369ee	0.11104189
174	0x3c8ccbd8	0.017187044
175	0xbc2ebc93	-0.010665077
176	0x3df27d2b	0.1184028
177	0x3d43e5da	0.047826625
178	0x3e165e5b	0.14684431
179	0x3e07f28d	0.1327612
180	0xbda2a32c	-0.07941279
181	0x3c9f1385	0.019418487
182	0xbdf71582	-0.12064649
183	0x3e1ad750	0.15121198
184	0x3de5fcce	0.11229859
185	0xbde167be	-0.110061154
186	0x3dca6fc2	0.09884597
187	0xbd969b67	-0.073538594
188	0xbe092273	-0.13392048
189	0x3ce8bb29	0.028409557
190	0xbbd1e895	-0.0064058998
191	0x3c929427	0.01789291
192	0x3d4d37de	0.050102107
193	0x3d898684	0.0671511
194	0xbdc5b06b	-0.0965279
195	0xbd5b806c	-0.05358927
196	0xbc57fe22	-0.013183149
197	0x3e0546a2	0.13015226
198	0x3d861073	0.06546106
199	0x3e13bb55	0.1442693
200	0xbd4e9a64	-0.050440207
201	0x3d14b5a2	0.03630603
202	0x3d8f124c	0.06985912
203	0xbc9463ef	-0.018114058
204	0xbd368a80	-0.044565678
205	0x3d222779	0.039588425
206	0x3da0697d	0.0783262
207	0xbd867400	-0.06565094
208	0x3e01fe39	0.12694634
209	0xbd91ec24	-0.071251184
210	0x3c8341da	0.016022611
211	0xbdced22b	-0.1009868
212	0x3e0fe9aa	0.1405398
213	0xbd2c03c8	-0.041995794
214	0x3c4c421f	0.012466936
215	0xbdb16d6e	-0.0866345
216	0x3d47953c	0.048726305
217	0x3dca7daf	0.098872535
218	0x3c5d24be	0.01349753
219	0x3d177efd	0.03698634
220	0x3dcc8bc9	0.099875994
221	0x3d8545e1	0.06507469
222	0x3ba2ad14	0.00496448
223	0xbdc3da88	-0.09563166
224	0x3d76c7b3	0.06024904
225	0x3df9325e	0.1216781
226	0x3e0714e1	0.13191558
227	0x3ccc5495	0.024942676
228	0xbd933d1e	-0.071893916
229	0x3deff12e	0.11715923
230	0xbdab4f2f	-0.083647124
231	0x3ca3abd0	0.019979388
232	0xbcc3cf6c	-0.023902617
233	0xbcf04ce5	-0.029333541
234	0xbd229e8a	-0.039701976
235	0xbd864059	-0.06555242
236	0xbc7ed594	-0.015553851
237	0x3e0ee4f5	0.13954528
238	0xbd9255cb	-0.0714527
239	0x3ce07553	0.027399695
240	0x3d23ef19	0.040022943
241	0x3dd1c681	0.1024294
242	0xbd2bbc3f	-0.041927572
243	0xbccbc0d5	-0.024872223
244	0x3dfbd32c	0.12296137
245	0xbd5dda65	-0.054163355
246	0xbd1f3a1d	-0.03887378
247	0x3de29679	0.11063857
248	0xbdc3b420	-0.095558405
249	0xbcc1a0d6	-0.023636263
250	0x3c740ca4	0.014895592
251	0x3cfbc863	0.0307352
252	0x3c810f3f	0.01575434
253	0xbce648f1	-0.028110953
254	0xbd632d5b	-0.055463176
255	0xbdee9cda	-0.11651011

lstm.bias_hh_l0 f4 [256]
0	0xbd037ab3	-0.032099437
1	0x3d625bd6	0.055263363
2	0xbda22d7e	-0.07918833
3	0xbd0a6776	-0.033790074
4	0xbd4dcf63	-0.050246608
5	0xbd9c9416	-0.07645433
6	0x3e01b3cd	0.12666245
7	0x3ac8772c	0.0015294305
8	0xbca67d01	-0.020323278
9	0xbda38c7e	-0.07985781
10	0x3c81500b	0.015785238
11	0x3d4f7fb7	0.050658908
12	0x3bd68662	0.0065467814
13	0x3d90a496	0.07062642
14	0x3d765d0b	0.060147326
15	0x3ae8b1ac	0.0017753146
16	0xbdada5d4	-0.08478895
17	0xbd4c5dcf	-0.04989415
18	0x3df3602a	0.11883576
19	0x3c0e7a53	0.008696157
20	0x3db35fab	0.087584816
21	0x3c17dbeb	0.009268741
22	0x3cf4a170	0.029862136
23	0x3da6fdfb	0.08153912
24	0xbd895cc0	-0.06707144
25	0x3d93de91	0.072201855
26	0xbd2c80c0	-0.042114973
27	0x3de5e7c5	0.11225847
28	0x3db13c24	0.08654049
29	0x3e1c790a	0.15280548
30	0xbc3348c8	-0.010942645
31	0x3db5a297	0.08868902
32	0x3e18ad63	0.14909892
33	0xbbf5112e	-0.0074788546
34	0x3df034ea	0.117288426
35	0x3dc865c7	0.097850375
36	0x3cdbd088	0.026832834
37	0x3e1aed54	0.15129596
38	0x3e151aa6	0.14560947
39	0x3d8ed524	0.06974247
40	0xbd8d8d59	-0.069117256
41	0xbd00888c	-0.03138022
42	0xbd9afab0	-0.07567346
43	0xbd94916c	-0.072542995
44	0x3e12546d	0.14290018
45	0xbd2d2157	-0.042268123
46	0x3d103f4a	0.035216607
47	0xbbe9716a	-0.0071241157
48	0xbd309660	-0.04311216
49	0x3d5ee073	0.05441327
50	0xbbc275ce	-0.0059344536
51	0x3da0bd07	0.07848554
52	0x3d672161	0.056428317
53	0xbd88f6a1	-0.06687666
54	0xbdcb9fbc	-0.09942576
55	0xbc5bdfc8	-0.013420053
56	0xbd704a92	-0.058664866
57	0xbb1ff4a4	-0.0024407292
58	0x3dbdd0ac	0.092683166
59	0x3e233cff	0.15941237
60	0x3e1b0860	0.15139914
61	0xbb4a8f0e	-0.003090802
62	0x3dea70a2	0.11447264
63	0x3da1396e	0.07872282
64	0xbde5fdef	-0.112300746
65	0xbd81b52e	-0.063333854
66	0xbb2d695e	-0.0026460509
67	0xbd8abf89	-0.06774814
68	0xbd182203	-0.03714181
69	0x3e14d10c	0.1453287
70	0xbcfd918a	-0.030953187
71	0xbd14cbfb	-0.036327343
72	0xbc097613	-0.0083899675
73	0x3d7d4898	0.06183681
74	0x3df82c2e	0.121178016
75	0xbc2af2ec	-0.010433894
76	0x3dedb0b4	0.11605969
77	0x3c47ebab	0.012202184
78	0x3d5520bd	0.052033175
79	0x3d900d27	0.070337586
80	0x3d5f86a4	0.054571763
81	0x3dd7ca1e	0.10536598
82	0x3dfbf216	0.123020336
83	0x3cdfc7a2	0.027316872
84	0x3e15c02d	0.1462409
85	0xbd9d031c	-0.07666609
86	0x3d92c76d	0.07166944
87	0xbd4b243c	-0.049595103
88	0x3de996a6	0.11405687
89	0xbd1ac966	-0.037789725
90	0x3dbfeb21	0.09371019
91	0x3cfb1f09	0.030654447
92	0x3dc7dfd3	0.09759488
93	0xbd1e543e	-0.03865456
94	0xbd9183c9	-0.07105214
95	0x3db8b436	0.090187475
96	0xbd4a881d	-0.049446214
97	0xbd8a6076	-0.0675668
98	0xbda27057	-0.079315834
99	0x3e1009fd	0.1406631
100	0x3c962c7d	0.01833176
101	0xbd9d254a	-0.07673128
102	0xbdd054ef	-0.1017245
103	0x3e224426	0.15846309
104	0xbdb6cc30	-0.089256644
105	0xbd9733ba	-0.07382913
106	0xbda3df4b	-0.08001574
107	0x3d14e1da	0.0363482
108	0x3da1d386	0.07901673
109	0x3d6cbea1	0.057798985
110	0xbd88fb3c	-0.06688544
111	0x3df9ee8a	0.12203701
112	0x3e181433	0.14851455
113	0xbcfc71af	-0.030815927
114	0xbd0d95ba	-0.03456662
115	0xbc85de3b	-0.01634132
116	0x3ddf69ff	0.10908889
117	0x3d05c35a	0.032657005
118	0x3c2845cc	0.010270547
119	0xbcb319bd	-0.021862859
120	0xbda9dce3	-0.08294084
121	0x3d1149a9	0.03547064
122	0x3cc96ab2	0.02458701
123	0x3ca98ac5	0.020696053
124	0xbd413f26	-0.047179364
125	0xbdaec11d	-0.08532927
126	0xb8c2bf4f	-9.286275e-05
127	0x3df16431	0.11786688
128	0x3cc21781	0.023692848
129	0xbc143180	-0.009045005
130	0xbc83c59e	-0.016085442
131	0xbd948c78	-0.07253355
132	0x3da1c17b	0.078982316
133	0x3db487d1	0.088149674
134	0xbdc28f11	-0.09499944
135	0x3dae0a3d	0.084980465
136	0xbb8a68ad	-0.004223904
137	0xbc604cc9	-0.013690182
138	0x3d9d5cbe	0.07683705
139	0x3d429e59	0.047514293
140	0x3df36a40	0.118855
141	0x3dbe04c6	0.09278254
142	0x3cab12cc	0.020882986
143	0xbc88f846	-0.016719949
144	0xbdb6663c	-0.089062184
145	0xbe04fdf9	-0.12987508
146	0xbd47460b	-0.048650783
147	0xbd29fda9	-0.041501675
148	0x3da164ce	0.07880555
149	0xbd0c612f	-0.03427237
150	0xbc2357f7	-0.009969703
151	0x3dff6a88	0.12471491
152	0xbdcb8ece	-0.09939347
153	0x3df2a6c7	0.118482165
154	0xbe16d474	-0.14729482
155	0x3dbb560a	0.0914727
156	0x3dc41d2e	0.09575878
157	0x3d6827ed	0.0566787
158	0x3bb22c6b	0.005437424
159	0xbd6b6371	-0.05746788
160	0x3d82fbcd	0.063956834
161	0xbddaea40	-0.10689211
162	0xbd449649	-0.047994886
163	0x3df22340	0.1182313
164	0xbd74038e	-0.059573703
165	0xbdaf7c58	-0.085686386
166	0x3c829815	0.015941659
167	0x3dcbe698	0.09956092
168	0xbd88ea96	-0.06685369
169	0xbcc4229f	-0.02394229
170	0x3ca160ca	0.019699473
171	0xbcd4fa22	-0.025998179
172	0xbcdd5751	-0.027019175
173	0xbdc6194e	-0.09672795
174	0x3defee66	0.11715393
175	0xbe128b9a	-0.14311066
176	0x3d8bd1f6	0.06827156
177	0xbe00746a	-0.12544408
178	0x3cb9889e	0.022648152
179	0x3dda4bf7	0.106590204
180	0x3d31d6d0	0.04341775
181	0x3de6dcc0	0.112725735
182	0x3d55960a	0.05214504
183	0x3cb6f364	0.022332855
184	0xbdb57706	-0.088605925
185	0xbe09d6c9	-0.1346084
186	0x3cb26f51	0.021781595
187	0x3d8bcc20	0.06826043
188	0xbd45f35b	-0.048327785
189	0x3d9264d5	0.071481384
190	0x3d96ac9a	0.0735714
191	0xbd8ef33f	-0.06979989
192	0xbe01219a	-0.12610474
193	0x3d9d36f7	0.07676499
194	0xbd8f29e6	-0.06990413
195	0xbda0fd77	-0.078608446
196	0x3dde2afc	0.10848042
197	0x3d998f1e	0.074980006
198	0xbd7f0645	-0.06226184
199	0xbd8c57d8	-0.06852692
200	0x3cf0bb66	0.029386234
201	0x3de09c73	0.1096734
202	0x3b5bb812	0.0033526463
203	0x3dae38dc	0.08506939
204	0xbdaf4cf7	-0.08559602
205	0xbc0a361e	-0.008435754
206	0x3cd6a153	0.026199972
207	0xbd9933bd	-0.074805714
208	0x3c71737a	0.014737004
209	0xbd85ced9	-0.06533594
210	0x3d8aca70	0.06776893
211	0x3dd1079b	0.10206529
212	0x3d6fb14e	0.0585187
213	0x3dfed871	0.12443627
214	0x3cf6443a	0.03006183
215	0xbdaf4878	-0.08558744
216	0x3dfb07ff	0.122573845
217	0xbd1066af	-0.035254177
218	0x3be8bddf	0.0071027125
219	0xbd3653ac	-0.04451339
220	0x3de5a59d	0.11213229
221	0x3d275c81	0.040859703
222	0xbcb3e014	-0.021957435
223	0x3de99678	0.11405653
224	0xbd06e06f	-0.03292888
225	0xbdb0db42	-0.0863557
226	0x3e166387	0.14686404
227	0xbd9a9648	-0.07548195
228	0xbd29559e	-0.041341417
229	0x3e0fbd13	0.1403697
230	0x3c4f056f	0.012635573
231	0x3dd3dde2	0.10345055
232	0x3cc4a1cf	0.024002938
233	0xbd8cd481	-0.068764694
234	0x3da91404	0.08255771
235	0x3b3e9f34	0.0029086592
236	0x3c932d91	0.017966064
237	0x3deef7a9	0.11668331
238	0x3d58ed97	0.05296096
239	0x3deb9ce8	0.11504537
240	0xbdb78cee	-0.08962427
241	0x3c069180	0.008213401
242	0xbccb8d5e	-0.024847683
243	0xbcf4263c	-0.029803388
244	0xbd5dc584	-0.054143444
245	0x3c866dec	0.016409837
246	0xbd9830e7	-0.074312024
247	0x3c85abf4	0.016317345
248	0x3d50e6b2	0.05100126
249	0x3ddd1d52	0.10796608
250	0xbda81675	-0.08207408
251	0xbd5a4c92	-0.05329568
252	0x3daa4ee3	0.08315828
253	0x3dab887d	0.083756424
254	0xbd8ecb61	-0.06972385
255	0xbd0bf864	-0.03417243

lstm.weight_ih_l1 f4 [256, 64]
0	0xbdf0f537	-0.11765521
1	0x3de7c69b	0.11317178
2	0x3d821bad	0.06352935
3	0x3da3e70d	0.08003054
4	0xbdc953cb	-0.09830435
5	0xbd1e0dd9	-0.038587425
6	0xbd1ce785	-0.03830673
7	0x3c89048d	0.016725803
8	0x3dda94c8	0.10672909
9	0xbd9e0581	-0.077158935
10	0x3dcbf777	0.099593095
11	0x3dbb733b	0.09152838
12	0x3e0ff326	0.14057598
13	0xbd948cbc	-0.072534055
14	0xba8cc7ac	-0.0010740659
15	0xbd78bd8d	-0.060727645
16	0xbcfb23cc	-0.030656718
17	0xbdc9d1d8	-0.09854478
18	0x3c88cb9d	0.016698653
19	0xbacdadde	-0.0015692075
20	0x3de6495e	0.112444624
21	0x3d926d58	0.07149762
22	0x3bbda948	0.005788002
23	0xbc8644a1	-0.016390147
24	0x3ddfc11d	0.10925505
25	0xbd6d5e35	-0.05795117
26	0x3dc96553	0.09833779
27	0xbd9115a4	-0.07084206
28	0x3db93af1	0.09044445
29	0xbda94999	-0.08265991
30	0xbd4a7e5b	-0.04943691
31	0xbc5b0a0c	-0.013369095
32	0x3d91d102	0.07119943
33	0x3d0d577c	0.03450726
34	0x3d51b834	0.05120106
35	0x3dd1ae62	0.10238339
36	0xbce0f384	-0.027459867
37	0x3da302c9	0.079595156
38	0x3db7873d	0.089613415
39	0xbe045d01	-0.12926103
40	0x3dc18405	0.09449009
41	0x3db4728e	0.08810912
42	0x3caaf694	0.02086953
43	0xbdd6d25c	-0.104893416
44	0x3d2e9a75	0.04262777
45	0xbd8649d4	-0.0655705
46	0xbdc24187	-0.094851546
47	0x3dc45e26	0.0958827
48	0xbd19bbaa	-0.037532486
49	0xbdadd464	-0.08487776
50	0xbd3eede6	-0.046613596
51	0x3d29dd94	0.04147108
52	0xbdf1cd1b	-0.11806699
53	0x3c190f71	0.00934206
54	0x3d960c7f	0.07326602
55	0xbc907744	-0.017634995
56	0x3e03afaa	0.1285998
57	0x3aa8e02f	0.0012884195
58	0x3de97781	0.11399747
59	0x3d593394	0.053027704
60	0x3d70cf2e	0.058791332
61	0xbdca0e11	-0.09865964
62	0xbac8bf4b	-0.0015315799
63	0x3bd5ab0a	0.0065206336
64	0xbdbe6580	-0.09296703
65	0xbe1dc9b5	-0.15408976
66	0xbd986021	-0.0744021
67	0x3d1859e4	0.0371951
68	0x3d7659aa	0.060144104
69	0x3d712540	0.058873415
70	0x3d3c352d	0.04594915
71	0x3dc35a04	0.095386535
72	0xbd6750b3	-0.056473445
73	0xbb76279a	-0.0037560225
74	0x3dab4b7c	0.08364007
75	0x3d9520d9	0.07281656
76	0x3deb875a	0.11500426
77	0xbd25d640	-0.040487528
78	0x3cd31bc5	0.025770077
79	0xbd146b99	-0.036235426
80	0x3daf9a87	0.085743956
81	0x3dca136e	0.09866987
82	0x3d046398	0.032321543
83	0x3d9b2468	0.07575303
84	0xbd88a9b1	-0.06672991
85	0x3da07155	0.07834116
86	0x3dfc7014	0.12326065
87	0xbcec1fef	-0.02882382
88	0xbe071a8b	-0.13193719
89	0xbba258db	-0.00495444
90	0x3ceffa09	0.02929403
91	0xbdf29261	-0.11844326
92	0x3df24b28	0.11830741
93	0x3db3ddbf	0.08782529
94	0x3d917996	0.07103269
95	0x3d9f33c0	0.077735424
96	0x3d97c8dd	0.074113585
97	0x3d404998	0.046945184
98	0xbdced224	-0.10098675
99	0x3ce49314	0.027902164
100	0xbc9f5c19	-0.019453095
101	0xbc9937b3	-0.018703317
102	0x3e0b74c1	0.13618757
103	0x3d4632ca	0.04838828
104	0xbd9a6a4d	-0.075398065
105	0x3c462b7e	0.01209533
106	0x3d9bed10	0.076135755
107	0xbd58bc96	-0.052914225
108	0xbe033ef2	-0.1281698
109	0xbd32f087	-0.043686416
110	0x3d6c6cc6	0.057720922
111	0xbd312095	-0.043243963
112	0x3caee2fe	0.021348473
113	0xbdc59a75	-0.09648601
114	0x3e142202	0.14466098
115	0xbd232a9a	-0.03983555
116	0xbc78b511	-0.015179888
117	0xbb801942	-0.003909261
118	0x3e13cc1d	0.14433332
119	0x3e166f43	0.1469088
120	0x3d5f9fbf	0.054595705
121	0x3d99867a	0.074963525
122	0xbc8b5582	-0.017008547
123	0xbe0479f4	-0.12937146
124	0x3d85366e	0.06504522
125	0x3e1d0e3c	0.15337461
126	0x3dcafc3b	0.099113904
127	0x3d838200	0.0642128
128	0xbc49b830	-0.01231198
129	0xbd12a7d5	-0.03580459
130	0xbce6f0e8	-0.028191045
131	0xbc8bfcf4	-0.01708839
132	0x3da14ffc	0.07876584
133	0xbd86355d	-0.06553147
134	0x3cfdb158	0.030968353
135	0xbc85d4b9	-0.016336786
136	0x3be19c3b	0.006885079
137	0x3e1f5bea	0.15562406
138	0x3d9c8f12	0.07644476
139	0x3e07cbb9	0.13261308
140	0xbdaa61c0	-0.083194256
141	0xbc8fa43e	-0.017534371
142	0x3cef5a7e	0.029217955
143	0xbe078a01	-0.13236238
144	0xbe03448e	-0.1281912
145	0xbd2a0b5a	-0.041514732
146	0x3d5b0c56	0.05347856
147	0xbcbe4676	-0.023226958
148	0x3e06836f	0.13136075
149	0x3c397639	0.01131969
150	0xbb45bfd9	-0.0030174165
151	0xbced053f	-0.028933166
152	0xbd611cc6	-0.05495908
153	0x3d6518fd	0.055932034
154	0x3b1c019a	0.0023804666
155	0x3d7f0a05	0.062265415
156	0x3dd7d62d	0.10538898
157	0xbdf9c8db	-0.12196513
158	0x3c8533cc	0.01626005
159	0xbd8edef3	-0.06976118
160	0x3d63b920	0.05559647
161	0x3e2b4455	0.16725285
162	0xbc65cacc	-0.014025401
163	0x3d6428d1	0.055702988
164	0x3c63e851	0.013910369
165	0xbd921dc7	-0.07134586
166	0xbd88aa11	-0.066730626
167	0xbdb08039	-0.086182065
168	0x3de42272	0.111393824
169	0xbc8f0016	-0.017456096
170	0xbd536998	-0.051614374
171	0x3dfa63d9	0.12226076
172	0x3c9fca04	0.019505508
173	0x3d3a775d	0.04552399
174	0xbd5f490a	-0.054513015
175	0xbb8a8a16	-0.004227887
176	0xbdd242ca	-0.10266645
177	0xbc9a74ac	-0.018854462
178	0x3dbad8ef	0.09123408
179	0xbd8c9596	-0.06864469
180	0x3d639006	0.055557273
181	0x3d2855e7	0.041097548
182	0xbe1aabdf	-0.15104626
183	0x3c307f92	0.010772603
184	0x3da97bd5	0.08275572
185	0x3d72bdb1	0.059262935
186	0xbd818052	-0.06323303
187	0x3d00be77	0.03143164
188	0xbb58d9bb	-0.0033088762
189	0xbcd5a0cc	-0.02607765
190	0xbd042cbd	-0.03226923
191	0xbe05d968	-0.13071215
192	0xbe1548b4	-0.14578515
193	0x3cd4b0cc	0.02596321
194	0x3d0fa6cf	0.03507119
195	0x3d873379	0.066016145
196	0xbdd27bb9	-0.102775045
197	0x3c41b0d0	0.011821941
198	0xbda83ef9	-0.08215136
199	0x3ca7e57b	0.020495167
200	0xbdd1b41d	-0.10239432
201	0xbbeae33c	-0.0071682017
202	0xbbe17813	-0.006880769
203	0xbd4869cb	-0.048929017
204	0xbd9520c1	-0.07281638
205	0x3d19bc1b	0.037532907
206	0x3dbdd2ac	0.09268698
207	0xbdc12040	-0.09429979
208	0xbd1ab59f	-0.037770864
209	0xbd9788d1	-0.073991425
210	0x3b0ab123	0.002116271
211	0xbba2e7b3	-0.0049714684
212	0xbe149f1d	-0.14513822
213	0xbd61361e	-0.05498325
214	0x3d3f791f	0.04674637
215	0xbd863f99	-0.06555099
216	0xbdc7dadb	-0.0975854
217	0x3d8ef271	0.06979836
218	0x3d4154f1	0.047200147
219	0xbd268781	-0.04065657
220	0xbc6306e3	-0.013856622
221	0x3d8a31fc	0.06747815
222	0x3c090e24	0.008365188
223	0xbcb93ce3	-0.02261204
224	0xbd60c0f3	-0.05487151
225	0xbd706d12	-0.058697768
226	0x3d46f4da	0.048573352
227	0xbcf1d28f	-0.029519347
228	0xbd74f20b	-0.059801143
229	0xbe0083ad	-0.1255023
230	0x3bffcf0f	0.0078066657
231	0x3d0ebffc	0.03485106
232	0x3c70da95	0.0147005515
233	0xbcdeb3ad	-0.027185285
234	0xbd6d2e7b	-0.057905655
235	0x3ce00bbc	0.027349345
236	0xbd69139a	-0.05690346
237	0x3ce7a16e	0.028275218
238	0xbcf7a3b6	-0.03022943
239	0xbcd096cc	-0.02546253
240	0x3dceafce	0.10092126
241	0xbbd975b3	-0.0066363453
242	0xbdd2a359	-0.10285062
243	0x3cc7ec73	0.02440474
244	0xbdcf1de6	-0.101131245
245	0xbd7044ab	-0.058659237
246	0x3db544e5	0.08851031
247	0xbcd91221	-0.026497902
248	0x3df61740	0.12016153
249	0xbde6a729	-0.11262352
250	0xbd84b664	-0.06480101
251	0xbc3dd20f	-0.011585726
252	0xbdcdd269	-0.10049898
253	0xbd0951ac	-0.033525154
254	0x3c881060	0.01660937
255	0x3cb74bbd	0.022374982

lstm.weight_hh_l1 f4 [256, 64]
0	0xbdf147d1	-0.11781276
1	0x3d6037a5	0.054740567
2	0x3dcb30eb	0.0992144
3	0xbe003db6	-0.12523541
4	0x3d6f62ac	0.05844371
5	0x3d936e0f	0.071987264
6	0xbdd7efbd	-0.10543773
7	0xbe08cbd9	-0.13359012
8	0xbd8ac3d0	-0.067756295
9	0xbd0810e0	-0.03321922
10	0xbd8cbc1b	-0.06871816
11	0xbd0f9c71	-0.035061304
12	0x3c88055d	0.01660412
13	0x3da6b512	0.08140005
14	0x3d758237	0.059938636
15	0x3df03cac	0.11730322
16	0xbdfd94d6	-0.12381904
17	0x3d983343	0.074316524
18	0x3d95bc76	0.07311337
19	0xbc5f309e	-0.013622431
20	0xbb426022	-0.002965935
21	0xbde2c0e9	-0.11071951
22	0x3d93551d	0.071939684
23	0xbd9eb515	-0.077493824
24	0xbdb8c37e	-0.09021662
25	0x3ce6371e	0.028102454
26	0x3e067f8e	0.13134596
27	0x3b7b1c2b	0.003831635
28	0xbde9be65	-0.11413268
29	0xbd39c8a0	-0.045357347
30	0x3cda01d4	0.0266122
31	0x3c434b9f	0.011919885
32	0x3d5befcf	0.053695496
33	0x3c7878f4	0.015165556
34	0xbde90fc4	-0.1137996
35	0x3d5966ce	0.053076558
36	0x3dd2492f	0.10267865
37	0xbdb4070d	-0.08790407
38	0x3dc33ee4	0.0953348
39	0x3d3dce30	0.046339214
40	0xbda5eef1	-0.08102215
41	0x3caf32d8	0.021386549
42	0x3d8fb4f7	0.07016938
43	0xbdb6b781	-0.08921719
44	0xbd21489b	-0.039375883
45	0xbdb515db	-0.08842059
46	0xbdee3ab7	-0.11632293
47	0xbc6eefb2	-0.014583515
48	0xbce24051	-0.02761856
49	0xbddf296a	-0.10896571
50	0x3de81282	0.11331655
51	0x3c9077fd	0.01763534
52	0x3ce4a46b	0.027910432
53	0xbda7a258	-0.081852615
54	0x3d8bca23	0.06825664
55	0xbca52215	-0.020157853
56	0xbca5e085	-0.02024866
57	0x3ddf6961	0.10908771
58	0xbd0c9e6b	-0.034330767
59	0x3dcc33d1	0.09970821
60	0x3dbb136a	0.09134562
61	0xbdae879b	-0.085219584
62	0xbe09ba12	-0.13449886
63	0x3d03a586	0.032140277
64	0x3cd70843	0.026249057
65	0x3d98ecb3	0.07467022
66	0xbd7152d8	-0.058916897
67	0x3d163019	0.036666963
68	0xbd8d0a0b	-0.06886681
69	0x3d157899	0.036491964
70	0x3d06d93c	0.032922015
71	0x3dbeb079	0.09311003
72	0xbc095811	-0.008382813
73	0xbc4a4524	-0.012345586
74	0xbd9feb4c	-0.07808551
75	0x3db8b65a	0.09019156
76	0xbe10d10a	-0.14142242
77	0x3df71802	0.12065126
78	0xbcdb3c12	-0.026762042
79	0x3dbcbc19	0.09215564
80	0xbdf1d777	-0.11808675
81	0x3c06f6f4	0.008237589
82	0x3d0d55a3	0.034505498
83	0xbe06c704	-0.13161856
84	0x3c964c3c	0.018346898
85	0xbcdba135	-0.026810268
86	0xbca12e38	-0.01967536
87	0xbdbb0add	-0.091329314
88	0x3c7721f6	0.0150837805
89	0xbe042ea7	-0.12908421
90	0xbb882458	-0.004154723
91	0xbc328e6e	-0.010898216
92	0x3c7607a8	0.015016474
93	0xbd85bb04	-0.06529811
94	0x3c7cb9d9	0.015425169
95	0xbd95f47e	-0.07322024
96	0x3c4392ca	0.011936853
97	0x3c583bb3	0.013197827
98	0xbc205f03	-0.009788278
99	0xbdcef2bd	-0.101048924
100	0xbd75cd1a	-0.060010053
101	0xbe034d3f	-0.12822436
102	0xbd987871	-0.074448474
103	0xbd1f9dc0	-0.0389688
104	0xbd0c98f0	-0.03432554
105	0xbb9be4ba	-0.004757491
106	0xbd1b174e	-0.037864022
107	0x3cb9574b	0.022624632
108	0xbd52ff16	-0.0515128
109	0xbdc3755e	-0.095438704
110	0x3e03daac	0.12876385
111	0x3cc74103	0.024322992
112	0x3cbcfc92	0.023069654
113	0xbcd3eb81	-0.025869133
114	0x3d0018eb	0.031273764
115	0x3c60ea13	0.013727683
116	0x3dd1eeea	0.10250647
117	0x3cdd428f	0.027009277
118	0x3e10bef0	0.14135337
119	0x3e238638	0.15969169
120	0x3d9a801f	0.075439684
121	0x3daeff6d	0.08544812
122	0xb7f72b18	-2.9464762e-05
123	0xbd9e0fad	-0.07717834
124	0xbc5d8d3f	-0.013522445
125	0x3dd826dd	0.105542876
126	0xbca0cf42	-0.019630078
127	0x3c62be61	0.013839335
128	0x3ca6ae5c	0.020346813
129	0xbdafca4b	-0.08583506
130	0xbca4a688	-0.02009894
131	0xbd5d2e26	-0.05399909
132	0xbd2b9756	-0.041892372
133	0x3da8ddff	0.082454674
134	0x3d768da7	0.060193684
135	0x3d1c91f9	0.038225148
136	0xbdc2621e	-0.094913706
137	0x3db53674	0.08848277
138	0x3d4de6d5	0.050268967
139	0x3dffda59	0.124928184
140	0xbdf640e1	-0.120240934
141	0x3d848301	0.064702995
142	0xbc3a73c0	-0.011380136
143	0x3e0a46cb	0.13503568
144	0x3d9c494d	0.076311685
145	0x3da332b6	0.07968657
146	0x3e093ecd	0.13402863
147	0xb9aaa1d2	-0.00032545492
148	0x3d8e9a72	0.06963052
149	0xbd034583	-0.032048713
150	0x3bbb9562	0.005724595
151	0xbdf06381	-0.11737729
152	0xbcda0c96	-0.02661733
153	0xbd9a3310	-0.07529271
154	0x3de62068	0.1123665
155	0x3df97c84	0.121819526
156	0x3d4868c8	0.048928052
157	0xbda2fa38	-0.07957882
158	0xbd045faf	-0.032317813
159	0xbd4412fa	-0.04786966
160	0xbd952408	-0.07282263
161	0x3dde5b37	0.108572416
162	0x3d442dd5	0.04789527
163	0x3ceae7ba	0.028674949
164	0x3d4f57f2	0.05062098
165	0x3dba9cca	0.091119364
166	0xbd85bc77	-0.065300874
167	0xbd9f410a	-0.07776077
168	0xbe0bd690	-0.13656068
169	0x3cba9903	0.02277804
170	0xbbe54434	-0.006996656
171	0xbded8a98	-0.115987
172	0x3d0f610e	0.035004668
173	0xbda4a011	-0.08038343
174	0xbc2ec6ce	-0.010667516
175	0x3d1579a5	0.036492962
176	0x3df37611	0.11887754
177	0x3d6fe48d	0.058567572
178	0xbbf97f96	-0.0076140864
179	0x3c7d5b05	0.015463595
180	0xbdc0d173	-0.09414949
181	0xbdc6799c	-0.09691164
182	0xbcea9777	-0.028636677
183	0xbd652f28	-0.055953175
184	0xbc20f7a6	-0.009824669
185	0xbd74d159	-0.059769962
186	0xbe02a6c9	-0.12758936
187	0xbda1df58	-0.079039276
188	0x3bccd4f4	0.006250972
189	0x3e152982	0.14566615
190	0x3df709b8	0.120624006
191	0xbd48c224	-0.049013272
192	0x3dfa8d9d	0.12234042
193	0x3dc13104	0.09433177
194	0x3bbf5bd5	0.0058398047
195	0x3dab2d3f	0.083582394
196	0x3d9729fe	0.07381056
197	0x3de3a2a2	0.11115004
198	0x3d0ed16e	0.034867696
199	0xbdeaa11a	-0.11456509
200	0xbd96aec8	-0.07357556
201	0xbd4d5719	-0.05013189
202	0xbda34c1f	-0.07973503
203	0xbd63dda2	-0.055631287
204	0x3d336092	0.04379327
205	0x3db5b450	0.088722825
206	0xbd25a5c3	-0.040441286
207	0xbd7c8747	-0.061652448
208	0xbdcff477	-0.1015405
209	0x3cd8d60c	0.026469253
210	0xbd9a4487	-0.07532602
211	0x3da35fe9	0.07977278
212	0xbcd90681	-0.02649236
213	0x3d70e8b8	0.058815688
214	0x3bbffb39	0.0058588055
215	0xbe0cb918	-0.13742483
216	0x3c9ecaa0	0.019383729
217	0xbd107af6	-0.035273515
218	0x3db112f2	0.08646192
219	0xbd4b760b	-0.04967312
220	0xbc302bb0	-0.010752603
221	0xbc50941a	-0.012730623
222	0x3c443687	0.011975891
223	0xbcf88ac9	-0.030339615
224	0x3dbe4696	0.09290807
225	0x3deecab4	0.11659756
226	0x3df13d62	0.11779286
227	0xbd1fb58f	-0.038991507
228	0x3cf13ad1	0.029446991
229	0xbcb69909	-0.02228977
230	0xbcd94685	-0.026522884
231	0x3d6dfd97	0.05810317
232	0x3da7bcdb	0.08190318
233	0xbd1423f9	-0.03616712
234	0x3c95a84e	0.01826873
235	0xbdfc9e11	-0.12334836
236	0x3dd4fa9e	0.10399364
237	0xbdde6bff	-0.10860442
238	0xbd9ae541	-0.07563258
239	0x3da852f0	0.08218944
240	0x3e03c975	0.12869819
241	0xbe030063	-0.12793116
242	0x3daf77e3	0.085677885
243	0xbdaa0a71	-0.08302773
244	0xbd109aca	-0.03530387
245	0xbd7bc101	-0.06146336
246	0x3de356c8	0.111005366
247	0x3db147fa	0.086563066
248	0x3d30afd1	0.04313642
249	0x3dd65f0d	0.10467348
250	0xbda36fa2	-0.07980277
251	0x3d46085f	0.048347827
252	0xbd3a6113	-0.045502733
253	0xbca6b640	-0.020350575
254	0xbd98db18	-0.07463664
255	0x3d1ddca3	0.038540494

lstm.bias_ih_l1 f4 [256]
0	0x3e02a49a	0.12758103
1	0xbd2f6eb9	-0.042830203
2	0xbc0622b1	-0.008186982
3	0x3d136a14	0.035989836
4	0x3db6b679	0.08921523
5	0x3ca9848e	0.02069309
6	0x3dd8c662	0.105847135
7	0xbd592e46	-0.053022645
8	0x3c8ab00b	0.016929647
9	0x3d8aa9d1	0.06770671
10	0x3e1331f2	0.14374521
11	0x3e2592e7	0.1616932
12	0xbd86d3fd	-0.06583402
13	0xbd23edd9	-0.04002175
14	0x3c8e9ba1	0.017408194
15	0x3cdc8f1c	0.026923709
16	0x3b8e15f6	0.004336114
17	0xbcbafd32	-0.022825811
18	0x3de8bfdf	0.113647215
19	0x3d471d19	0.048611734
20	0x3d485dc3	0.048917543
21	0xbd7bc321	-0.061465386
22	0xbc18d335	-0.009327699
23	0xbd8e41ae	-0.06946121
24	0xbd308426	-0.043094777
25	0xbd9aa0f6	-0.07550232
26	0xbd9eeafc	-0.077596635
27	0x3dd8253d	0.10553978
28	0xbd95f64a	-0.073223665
29	0xbdb45642	-0.08805515
30	0x3dd81b42	0.10552074
31	0xbd246831	-0.040138427
32	0xbdb14d12	-0.08657278
33	0x3db81fbd	0.089904286
34	0x3e02e8f5	0.12784179
35	0xbdaa464b	-0.083141886
36	0x3deddcb3	0.11614361
37	0x3d98c2af	0.07459008
38	0xbd3d2e83	-0.046186935
39	0x3d3ce7f0	0.04611963
40	0x3c9f5eb2	0.019454334
41	0x3bb45b94	0.005504081
42	0xbdbee7fb	-0.093215905
43	0x3ad714b8	0.0016409373
44	0xbcc9fe9f	-0.024657546
45	0x3df789dc	0.120868415
46	0x3e0f6678	0.14003932
47	0xbc40c8a0	-0.011766583
48	0x3d8c5239	0.0685162
49	0x3d5fcc26	0.05463805
50	0x3d817998	0.0632202
51	0x3d5ac721	0.05341256
52	0x3d3c31ef	0.045946058
53	0x3dc515e3	0.09623315
54	0xbdafbac8	-0.085805476
55	0xbb8861d7	-0.004162054
56	0xbd3929a4	-0.045205727
57	0xbc80d88f	-0.015728263
58	0x3e0ac075	0.13549979
59	0xbcc474bc	-0.023981445
60	0xbb09ba1b	-0.0021015469
61	0xbdb7bdc5	-0.089717425
62	0x3e0386d8	0.12844408
63	0x3dc8b000	0.09799194
64	0xbd9c8b95	-0.07643811
65	0xbcb78c73	-0.022405839
66	0x3daf4e7a	0.0855989
67	0x3d3ff7f1	0.046867315
68	0x3dca0477	0.09864133
69	0x3db2154c	0.08695468
70	0x3d2be425	0.041965622
71	0xbdb04916	-0.0860769
72	0x3dc96683	0.09834006
73	0x3d7d2dab	0.06181113
74	0xbd46ab3f	-0.048503157
75	0x3da876a3	0.08225753
76	0xbd644dcb	-0.05573825
77	0xbd236c00	-0.03989792
78	0x3d96ff64	0.07372931
79	0xbd726cfe	-0.059185974
80	0x3dff6f6d	0.12472425
81	0xbcba4dfa	-0.02274226
82	0xbdb03d8b	-0.086054884
83	0xbd6dc025	-0.05804457
84	0xbc1f925b	-0.009739484
85	0x3c7fd262	0.015614124
86	0xbcd04bc1	-0.025426747
87	0x3d5766e0	0.052588344
88	0x3d9f6498	0.077828586
89	0x3dfbdc00	0.12297821
90	0x3dcfb8b1	0.10142649
91	0x3b815545	0.0039469325
92	0xbd894330	-0.06702268
93	0x3cf463a3	0.029832667
94	0x3db0cf22	0.086332574
95	0xbd8eeb8d	-0.069785215
96	0x3e101a60	0.14072561
97	0x3d6fb27d	0.05851983
98	0xbd438ea1	-0.047743443
99	0xbdcbe152	-0.09955086
100	0x3d13b21d	0.036058534
101	0x3df8354b	0.1211954
102	0x3ca60e39	0.020270454
103	0xbd281ded	-0.041044164
104	0xbc851c4a	-0.01624884
105	0x3d84da26	0.06486921
106	0xbdd1ea70	-0.102497935
107	0x3d11fe87	0.035643127
108	0x3c1579a1	0.009123237
109	0x3c044682	0.008073451
110	0x3d82aee3	0.06381013
111	0xbc6cfb4e	-0.014464213
112	0xbdb9ab74	-0.09065905
113	0x3dc1ffe4	0.094726354
114	0xbc5d0e2a	-0.0134921465
115	0x3c36990a	0.011144886
116	0x3d08c985	0.03339531
117	0xbc9248fc	-0.017857067
118	0x3cff4267	0.031159593
119	0xbd26c5b9	-0.040715907
120	0x3d58930a	0.052874602
121	0xbd0e47f2	-0.03473658
122	0x3d018f80	0.031630993
123	0x3cc41686	0.023936521
124	0x3caf0cc0	0.021368384
125	0xbd8acb82	-0.06777097
126	0xbd86747f	-0.065651886
127	0x3d599ea5	0.05312981
128	0x3cd325c4	0.025774844
129	0xbcc86ae2	-0.024465028
130	0xbdf2414e	-0.11828862
131	0xbda1cf72	-0.07900895
132	0x3dec46c9	0.11536939
133	0x3dc169f0	0.09444034
134	0x3dbcec58	0.092247665
135	0xbdb1611c	-0.086611
136	0x3de1bb98	0.11022109
137	0xbbfec57c	-0.007775007
138	0xbd4401bc	-0.047853217
139	0xbd2e37d1	-0.0425337
140	0xbde30e76	-0.110867426
141	0x3c5958a8	0.013265766
142	0x3db07fbf	0.08618116
143	0x3d9be6e6	0.076124
144	0xbd7b5cb6	-0.061367713
145	0x3dea5c92	0.11443438
146	0x3ce5324f	0.02797809
147	0xbcccf7bb	-0.02502047
148	0xbd5bb798	-0.053641886
149	0xbde7240e	-0.11286174
150	0xbd3bcf89	-0.045852218
151	0xbd3f54b0	-0.046711624
152	0x3d2154f5	0.039387662
153	0xbd428c71	-0.047497217
154	0x3dd98194	0.10620418
155	0x3c8463fc	0.016160958
156	0xbc7232f4	-0.014782656
157	0x3c9224df	0.017839847
158	0xbd6e6804	-0.058204666
159	0xbd97fe9b	-0.07421609
160	0xbd25fc87	-0.040524032
161	0x3de6b9b3	0.11265888
162	0x3ca285f1	0.019839259
163	0xbde33353	-0.11093774
164	0x3d716650	0.058935463
165	0xbdc1f580	-0.094706535
166	0x3de53756	0.11192195
167	0xbdb51b87	-0.08843141
168	0xbdc1ad60	-0.09456897
169	0x3db26a69	0.087117024
170	0xbd994db2	-0.07485522
171	0xbdecb5a9	-0.115580864
172	0x3d9ea569	0.07746393
173	0x3d61b5b1	0.055104915
174	0x3dd27050	0.10275328
175	0x3e034dce	0.12822649
176	0x3e004d72	0.12529543
177	0xbbac7251	-0.005262651
178	0x3d0ec956	0.034859978
179	0x3d9e7b72	0.07738389
180	0x3de0a557	0.10969036
181	0xbdb67ada	-0.08910151
182	0x3dc75213	0.09732451
183	0x3d96d64e	0.07365094
184	0xbcad70fb	-0.021172037
185	0xbb7d879f	-0.0038685573
186	0xbdc733dd	-0.09726689
187	0xbd679633	-0.056539726
188	0xbde815ea	-0.11332305
189	0xbdb19bc0	-0.08672285
190	0x3dda40e4	0.10656908
191	0xbcc11d66	-0.023573589
192	0x3d011f81	0.031524185
193	0x3c1da81e	0.009622602
194	0x3d8e7a62	0.069569364
195	0xbdd1e3c8	-0.10248524
196	0x3ca5457d	0.020174736
197	0xbcd8236a	-0.026384074
198	0xbc0c5d9b	-0.008567239
199	0xbcf2ff0a	-0.029662628
200	0x3c7dc3a6	0.015488541
201	0x3c9f538e	0.019449022
202	0xbd60104f	-0.054703053
203	0x3d83ab85	0.06429199
204	0x3c4de494	0.012566704
205	0xbd262de7	-0.04057112
206	0xbd8a6ab7	-0.067586355
207	0xbd22844c	-0.03967695
208	0x3e1faefc	0.15594095
209	0x3d8aff2b	0.06786951
210	0x3bebd4f8	0.0071970187
211	0xbd0427e4	-0.032264605
212	0x3e08b19b	0.13349001
213	0x3d28e887	0.04123738
214	0x3d80f47c	0.06296632
215	0x3ddc750e	0.10764514
216	0x3de37370	0.11106002
217	0xbc3b3b42	-0.011427702
218	0xbd02c6a2	-0.031927712
219	0x3df65267	0.12027436
220	0x3cf92a4d	0.030415678
221	0x3db0e1c1	0.08636809
222	0xbd378fd2	-0.044814892
223	0x3d20fb90	0.03930241
224	0x3df5d482	0.12003423
225	0xbc1354a2	-0.008992346
226	0x3de47bcc	0.11156425
227	0xbdbe8549	-0.09302766
228	0x3bd5e756	0.0065278215
229	0xbdaa9504	-0.08329204
230	0x3d274ff8	0.04084775
231	0xbd3655f3	-0.04451556
232	0x3e23aa70	0.15982985
233	0x3dfc2ad0	0.12312853
234	0x3d76f055	0.060287792
235	0xbd6be9aa	-0.057595886
236	0x3cc796f3	0.02436397
237	0x3dcdafc9	0.10043294
238	0xbd8c38ad	-0.068467475
239	0x3cbc4f65	0.022987077
240	0x3bc548a5	0.006020623
241	0x3e0c367e	0.13692662
242	0x3dbc98c9	0.09208829
243	0xbd07bd5e	-0.03313958
244	0xbb800b6c	-0.0039076116
245	0x3d9dbb68	0.077017605
246	0xbdad7106	-0.08468823
247	0xbdaa853e	-0.08326195
248	0xbd3eb297	-0.046557035
249	0x3e0239fb	0.1271743
250	0x3d9e77aa	0.07737668
251	0xbda5fefb	-0.08105274
252	0x3dda5ec4	0.10662606
253	0xbd8d68d3	-0.06904759
254	0xbd0b6b8c	-0.03403811
255	0x3d0a749b	0.03380261
