src/Backend-Information/Clod-weather_predict/Beijing_lstm_model.pth (torch, 208379 bytes, 11 tensors)

lstm.weight_ih_l0 f4 [256, 3]
00000000: 4287 9b3d c774 1d3e 6e64 fbbd 063a 45bd
00000010: a88e a9bd e452 c2bd da15 533d ed15 30bd
00000020: 4c8a 7bbd 38e4 81bd 6212 f43d f4b3 f5bd
00000030: 89bc ffb9 6752 b7bd e4ae 343d 0e42 fabd
00000040: e3e7 3dbd 4083 d33b f167 8abc fac7 a5bd
00000050: c027 383b cbc2 13bd 766c 093e 5e31 cbbd
00000060: e434 873d 85f4 14be c8e7 86bd 4a93 333b
00000070: 5d2e 313d 1ef3 b73d f6e1 0bbe 669c 963c
00000080: 48ba 7c3d 3d56 1fbd 1555 a1bd b612 c6bd
00000090: 9720 7f3c b73b 553d 94e4 f5bd bec9 c0bc
000000a0: e80a e53b b80a 0c3d b76e 0cbe c0b7 fd3d
000000b0: aab6 de3d 256a 1cbe b8b7 5d3c 9c44 c13d
000000c0: 7f86 b7bd 8aeb 16bd ccc4 e0bd 9e25 353c
000000d0: b214 5b3d b0a5 f6bd 5f10 d2bd 7c16 79bd
000000e0: 366b bebd c22d bcbd a56d 6e3d 02dd b8bd
000000f0: d7f1 1a3d ff58 153d c06f 8d3c 378c fbbd
00000100: ef32 3a3b c804 c93d eda4 b4bd 483b afbd
00000110: 8230 ea3d fa5a 413d eeaf 0a3e 724a a83d
00000120: 391f 2e3c ecbb 003e 2075 213c 177d 0bbe
00000130: ce9d e63d e0aa 0d3d 5da4 923c 9764 1b3b
00000140: 18d4 eabc db1b 8cbd 90e2 cb3d bc86 a5bd
00000150: 9c3a d8bd dfdc acbd 98f3 c0bc 9231 b83c
00000160: 4c69 293d f08a fe3c 6dca ac3d 1b08 7fbd
00000170: d46e 603d 966f b3bd 778a aebc f23c dfbd
00000180: 181d c13d c7f0 cabd 2241 913d 1f0a 5ebd
00000190: 583f eb3d 8cae 563d 6fa1 e63c 7431 3cbd
000001a0: 6039 c03b 5e87 bfbc 03f6 ebbd 943b b33d
000001b0: 207d 2bbc 567f a9bc bcc7 49bd 6c59 073e
000001c0: efad 763d 1403 cb3d 7da3 66bd 647c debd
000001d0: 9c31 ee3d 778f 89ba 30a9 bfbd 02f4 aabd
000001e0: 7015 833d a75e a1bd 9c2a 6dbd f1f3 fcbc
000001f0: aa18 473d 4024 1cbc 6820 35bd 0b3a 993d
00000200: f442 10bd 46c1 e3bd d12c 80bc 940f 7fbd
00000210: 3385 00be 9a22 023e 0079 6eba f651 21bd
00000220: cd0e b93c 00e2 b9bc 16ef fcbd dd90 54bd
00000230: aa34 a9bd 4fb6 37bd 1068 79bd ac02 553d
00000240: 2864 b33d 7204 d0bd 7eaf d93d 7043 893c
00000250: 7a50 b23c 80e5 2e3d 0c62 88b9 c354 7fbc
00000260: 5066 c7bc 91a3 74bd 02c8 25bd 1269 bdbd
00000270: 925a 19be 8491 2ebd 881f cabd 879d 31bd
00000280: d69a 99bd 384a 58bd 247c 383d 5b27 4e3c
00000290: fa55 f23d e533 16be f781 6bbd 0081 01bc
000002a0: c3f8 d6bd 6b3c 063e 029a 8b3d 98c9 4a3d
000002b0: dd74 aabd 62f1 df3d fe06 f53c 1055 a8bd
000002c0: a0ff 53bc b500 dfbc 25b0 ba3d b86a 303d
000002d0: 4732 b73d 13e8 ce3d 6061 68bd 79dc ac3d
000002e0: 6a6a cebd a0ca 56bd 599f 83bd 268f ca3d
000002f0: cca3 603d aae1 253c 0236 c43d 12c7 823d
00000300: 02ff babd de11 3ebb 10cc f43c 3d46 f83c
00000310: 24d4 afbd c292 883d aa4e 2dbd 4740 08be
00000320: 40fb 24bb efe4 463d 56e9 833b 8a20 cfbd
00000330: 943e a53d cd74 883d 10fd db3c fbba 3fbd
00000340: cf72 d93d c427 ddbd 90fd 86bd 7021 cdbc
00000350: be3b e3bd 5b10 01be b54c 323d f043 ccbc
00000360: 5a04 77bd 4220 09be d25a e83d 985b 1ebe
00000370: 75a4 3bbd e66c e3bd e250 08be 0e7e 31bb
00000380: a47d 03bd 243d f1bb 4196 cebd 1a78 abbd
00000390: 1345 69bd 8d7f d0bc 64e2 c0bd cf52 9cbd
000003a0: b4ca 853d 96f2 a1bd 39ee babd 1e13 b03d
000003b0: dab9 e2bd 9465 d5bd 5dde 26bd d0fa 0a3c
000003c0: 41e4 90bd 7cdb e43d 32f9 b2bd 51a7 12be
000003d0: 1c22 9fbd 00d7 9c3b df57 c4bc 2524 1a3e
000003e0: d0ee 1a3d 8ce7 243d 949d 9abd 98c5 ea3c
000003f0: 74b0 733d 131c a6bb d865 f7bc 2439 cdbd
0.07594158 0.15376578 -0.12275015 -0.04815104 -0.08279163 -0.094884664 0.05153451 -0.04298966
-0.061411187 -0.063423574 0.11917569 -0.11997214 -0.0004877786 -0.08951264 0.0441121 -0.1221963
-0.046363723 0.006454855 -0.016895266 -0.08094783 0.0028099865 -0.03607444 0.13420281 -0.099215254
0.06601885 -0.14546402 -0.065871775 0.0027401024 0.043257106 0.08981918 -0.13660416 0.018385123
0.06170109 -0.038900603 -0.07877556 -0.096715376 0.015571735 0.0520589 -0.120064884 -0.023533698
0.0069898255 0.03418991 -0.1371411 0.12388563 0.10874684 -0.15274866 0.0135325715 0.09436914
-0.089612 -0.03684572 -0.10975036 0.011056332 0.053486533 -0.12043321 -0.10257029 -0.06081246
-0.092977926 -0.09188415 0.058210034 -0.09026529 0.037828293 0.036461826 0.0172652 -0.12282603
0.0028411706 0.09815365 -0.088205196 -0.08556229 0.114350334 0.047205903 0.13543674 0.08217324
0.010627561 0.12571687 0.009854585 -0.13621937 0.112605676 0.034586787 0.01790064 0.002371108
-0.028665587 -0.068412505 0.09955323 -0.08082339 -0.10558054 -0.08440565 -0.023553655 0.022484574
0.041360185 0.03107211 0.08437047 -0.06226359 0.054793194 -0.08761518 -0.02130626 -0.10900296
0.09429377 -0.09909206 0.07092501 -0.05420887 0.11486691 0.052412555 0.02815315 -0.0459456
0.0058662146 -0.023379978 -0.115215324 0.08751598 -0.010466844 -0.020690601 -0.049262747 0.13217705
0.06022447 0.099126965 -0.05630826 -0.108635694 0.11630556 -0.0010495026 -0.09358442 -0.08347322
0.06400573 -0.078793816 -0.057901964 -0.03087804 0.048607506 -0.009530127 -0.044220358 0.07481774
-0.0352201 -0.11120848 -0.01564637 -0.062270716 -0.12550811 0.12708512 -0.000909701 -0.039384805
0.022590065 -0.022690773 -0.123502895 -0.051895965 -0.08261998 -0.044851597 -0.060890257 0.0520045
0.08759338 -0.10157098 0.106291756 0.01675579 0.02176689 0.042699337 -0.00026012992 -0.015584174
-0.024340779 -0.0597263 -0.040473945 -0.09248556 -0.14975956 -0.042619243 -0.09869295 -0.04336312
-0.07500236 -0.052805156 0.045040265 0.012582625 0.11832805 -0.14668234 -0.05749699 -0.007904291
-0.10496666 0.13108985 0.06816484 0.04950866 -0.08323071 0.10934712 0.02991056 -0.082193494
-0.012939364 -0.027222017 0.09115628 0.043070525 0.089451365 0.101028584 -0.05673349 0.08440489
-0.100788906 -0.052439332 -0.064268775 0.09890585 0.05484371 0.010124603 0.09580614 0.06385626
-0.0913067 -0.002900235 0.02988246 0.03030693 -0.085853845 0.06668617 -0.042311348 -0.1330577
-0.002517417 0.04855817 0.0040256185 -0.10113628 0.080685765 0.06662903 0.026854068 -0.046809178
0.10617601 -0.107986 -0.06591332 -0.025040358 -0.11095379 -0.12603895 0.043530185 -0.024934739
-0.060306884 -0.13391212 0.113454476 -0.15464628 -0.045811135 -0.11104755 -0.13312104 -0.002708319
-0.032102242 -0.007362025 -0.100872524 -0.08372517 -0.05695064 -0.025451446 -0.094181806 -0.07632982
0.06532803 -0.07907598 -0.091274686 0.08597396 -0.110706046 -0.10419765 -0.040739406 0.00848265
-0.07074786 0.11174676 -0.087389365 -0.14321639 -0.07770178 0.004786372 -0.023967681 0.1505285
0.037825406 0.040259883 -0.07549587 0.028658673 0.05949445 -0.0050692647 -0.03019993 -0.10020664

lstm.weight_hh_l0 f4 [256, 64]
00000000: d5e2 6cbc d977 873d 4ac9 253d 231b 2cbd
00000010: 5d59 6d3d 3285 993d ee9b a0bd c9e4 903d
00000020: df23 82bd 02a0 99bd fa9c 24bd d58c 5fbd
00000030: c907 4d3d 34af 3b3d c13d 883c 296b 75bb
00000040: 5fb3 e6bd 152f a9bd 316b abbd a5c3 c63c
00000050: 7430 18bc 278a dfbd fa3c f03c 08a9 b4bd
00000060: a482 fdbc e7a4 0fbe 9f64 a6bd 4373 2d3d
00000070: 5ced 7abd 1f8d c6bd 63d3 aebc e6ab a63b
00000080: f509 0b3d 05b3 a3bd bce2 103d c144 703d
00000090: c58c fc3c 2062 f0bd 2eb7 1ebe 5057 853d
000000a0: 901f b6bd 9ccb b63d 422b 69bd 10e1 6c3c
000000b0: ff43 8cbd 1d44 873d d45d 0fbe 00b2 c93d
000000c0: 4ee9 b4bd 1110 b1bc ac45 773b 9f5b b23d
000000d0: e0d6 5a3d fae5 5ebc 1719 a73d 0665 c03d
000000e0: ab78 e2bd 835a 4b3d ea20 c73d 3eee b53d
000000f0: 7f85 b8bd f780 04bd ef6e fa3d 6417 813a
00000100: d2a2 ec3d 8a20 c8bd f32b 53bd ba57 863d
00000110: 2d51 9b3d cd4e af3d 713a d8bd 5322 9b3c
00000120: 78a6 eb3d aa21 efbd 22cf 9cbd 9d99 93bd
00000130: f724 48bd f04c 613d bfa2 89bd 2acb dfbd
00000140: e3f8 8d3d 7dcc 163d 4263 39ba 1cbf bc3d
00000150: 9677 31bd 61ae 5c3d 864c a33d 839e 403d
00000160: 0b1d 363d e208 95bd ff81 b4bd 2e59 87bd
00000170: 58e7 9dbd d3c6 dfbd 3c76 ef3d 296e 99bd
00000180: 5b5b aabd 29fe 0e3d 02f9 e8bc 7e81 e2bd
00000190: 3746 a6bd afdf a53d c343 a53d ec81 abbc
000001a0: de24 a3bd b57e a1bb 1bb9 183d bdca d23d
000001b0: 6f75 3f3d c45f f23c 23c4 c0bd 759f 89bd
000001c0: 54ef 3a3c 0282 62bd 3a00 073c 46e8 b6bc
000001d0: 678f 1c3d c646 a1bd f148 b3bd dc9e a2bd
000001e0: 6f00 a3bd 89a4 a2bd 4a21 9b3d 5414 f03d
000001f0: 26fb b63b 87b4 de3d a1ad 43bd 6a8e 09bd
00000200: 05be f1bc 2b5a 08be fae5 ecbd 0ae6 243d
00000210: 3aa8 d3bc a419 a13d 8dd3 e8bd b727 a63b
00000220: d239 b6bd e02b 593d 5264 f03c ed4b 4e3d
00000230: 9aaf 6a3c 8a3a 12be 1a00 5a3d b16b a6bd
00000240: 76e3 e13d 36be aebd ec75 a43b 1eac 533d
00000250: 3ddc fdbc b79b ce3d 3cda 47bd 40c5 bd3d
00000260: 1454 433d 6c1e 4a3c a199 0abe e7e2 94bd
00000270: a93e 9f3d 0c69 a4bd f324 1d3d ab41 a83d
00000280: 134c adbd 9d35 8d3d 1bbe a83d 20d1 8fbd
00000290: d622 94bd 4ce2 0f3e 220e 393b 334f ac3d
000002a0: 0e10 7f3c c85a f9bd 6616 d3bd 9a2c c63c
000002b0: 6b96 75bd ab51 84bd e623 f53d 8dce 433d
000002c0: a00d 47bd e452 c2bd a7e0 f0bd 684a 063d
000002d0: 422b 6a3d f0f1 aebd 7452 bfbc b7c1 14be
000002e0: ed77 b0bd a16c a13d 183e 19be 1342 8e3d
000002f0: 7f83 13bd c953 debc 7ece 15bd d89c 053e
00000300: 9c47 e03d 272b fdbc 4ee3 16bd 29c3 3d3d
00000310: 7451 e33c 2698 a73b 2f0e 5bbd 227b 16bd
00000320: b963 ad3d a1ac 04bd 1fd1 10bd 279b 973d
00000330: 463e a0bc 9075 ce3d f78d 733d d377 413d
00000340: 5f17 d1bd 51a7 863d e4e2 803b 24e0 553c
00000350: e154 c8bd c21b ce3d 7d9b 8c3d d415 5cbc
00000360: 0862 023e 9cf6 b03d 459d bfbd cd82 49bd
00000370: dff4 a53b 085d 4a3d cfda 62bc 5ad0 9c3d
00000380: 6fc1 5b3d 054d e03d 44b8 f4bc 1f1f c0bc
00000390: 5f9a 9f3d d0b2 813d 90f7 fb3d 93eb e4bd
000003a0: f3f6 a33a 9edf 1c3d 8c9b b3bc f345 dc3d
000003b0: f6f8 103c b6cd e9bd cfc9 a43d 1267 b8bd
000003c0: db35 46bd 1872 303c 4ff2 cdbc fa5b e43d
000003d0: fe24 8e3d a32e 21bc 7930 dd3d e6e2 4c3c
000003e0: 4a79 413d da5d f13d cd9c d3bd 97d2 203d
000003f0: 685d f3bd ceb0 48bd 3388 c13d f35b bf3d
-0.014458378 0.06614656 0.040475167 -0.042018067 0.05794655 0.07496108 -0.07842241 0.07074887
-0.06354498 -0.07501222 -0.040188767 -0.054577667 0.050056253 0.045821384 0.016631009 -0.0037447906
-0.11264681 -0.08260933 -0.083700545 0.024263212 -0.009288896 -0.10915022 0.02932595 -0.08821303
-0.030946083 -0.14027749 -0.08124661 0.04234625 -0.06126152 -0.096948855 -0.021341031 0.00508641
0.033945043 -0.0799313 0.03537248 0.05865932 0.030828843 -0.11737466 -0.15499565 0.06510794
-0.08892739 0.08925554 -0.05692602 0.014457956 -0.06848907 0.066047885 -0.14000636 0.09848404
-0.08833562 -0.021614106 0.0037730737 0.087088816 0.053427577 -0.013604635 0.081590824 0.09394269
-0.11058172 0.049646866 0.09723075 0.08883332 -0.09009837 -0.032349553 0.1222819 0.000984889
0.11554493 -0.09771831 -0.051555585 0.06559701 0.075838424 0.08559952 -0.10558022 0.018937266
0.11506361 -0.11676343 -0.07656695 -0.07207034 -0.048863377 0.055005014 -0.067204945 -0.10927422
0.06932237 0.03681611 -0.00070719805 0.09216139 -0.043326937 0.05387724 0.0797358 0.04702617
0.04446129 -0.07277085 -0.08813857 -0.066088066 -0.07710141 -0.109265946 0.11692473 -0.074917145
-0.08318206 0.034910355 -0.028439049 -0.11059855 -0.08118861 0.08099305 0.08069565 -0.020935975
-0.07966016 -0.0049284347 0.037285905 0.102925755 0.046742853 0.02958668 -0.0941241 -0.06719867
0.011409599 -0.055299766 0.0082398 -0.022327553 0.038222697 -0.07874827 -0.08754147 -0.07940456
-0.07959067 -0.07941539 0.07574709 0.11722627 0.0055841384 0.108742766 -0.047773007 -0.033583082
-0.029509554 -0.13315646 -0.11567302 0.040258445 -0.025837053 0.07866219 -0.11368475 0.0050706523
-0.08897747 0.053020358 0.029344711 0.050365377 0.014324093 -0.14280143 0.053222753 -0.08126009
0.11029713 -0.085323736 0.00501894 0.051677816 -0.030988807 0.10088294 -0.04879211 0.09266138
0.047687605 0.012336355 -0.13535167 -0.07269841 0.07775623 -0.080278486 0.038365316 0.0821565
-0.08461776 0.068949915 0.08239385 -0.07022309 -0.07233207 0.14051169 0.0028237184 0.084135436
0.015567793 -0.12175518 -0.103070065 0.02419119 -0.059957903 -0.064608894 0.11969738 0.047804404
-0.04859698 -0.094884664 -0.11761599 0.032785803 0.05717016 -0.0854224 -0.023354746 -0.14527021
-0.08616624 0.078820474 -0.14965093 0.069461964 -0.036014076 -0.027139561 -0.03657388 0.13048112
0.109511584 -0.030904366 -0.03683787 0.046328697 0.0277488 0.005114573 -0.053480323 -0.036738522
0.08466286 -0.032391194 -0.035355683 0.0740264 -0.019560944 0.10081017 0.05946156 0.047233414
-0.10209536 0.06574882 0.0039332975 0.013053928 -0.09781814 0.10063888 0.068655945 -0.013432939
0.12732708 0.08640787 -0.09356169 -0.049197007 0.0050645913 0.049405128 -0.013846113 0.076569274
0.05365127 0.1095219 -0.029873021 -0.02345234 0.07793116 0.06332934 0.12303078 -0.11177745
0.001250951 0.038299195 -0.021924756 0.10755529 0.008848419 -0.114161894 0.080463044 -0.09004034
-0.048391204 0.01076939 -0.025139956 0.11150356 0.069406494 -0.009837779 0.10800261 0.012505269
0.04723481 0.11785479 -0.10332642 0.039263334 -0.1188305 -0.04899674 0.09449806 0.0934371

lstm.bias_ih_l0 f4 [256]
00000000: ca0b 653a 3345 013e 0421 f4bd 16c9 eabd
00000010: c730 c5bd 9d43 ff3d b586 da3d 5422 f43d
00000020: 455d 683d 9a6d f43b 20cc 753d 8644 ca3d
00000030: 0839 23bd 26c5 37bc 9765 b43d 6fb3 a6bd
00000040: 6859 dbbd 394d cc3c cad1 d43d fbd9 e23c
00000050: 2994 793d 17c5 e33d 0b88 fd3d 651a 453d
00000060: f5b6 cabb 738d e1bd 0c8e 9a3c 1e12 543c
00000070: e96b c93d 3d8b fbbc 909d 573c 7069 8cbd
00000080: c14d 29bd 5cd3 a8bd 8636 d2bd cae3 2f3d
00000090: 456e b53c 3ec1 0fbd bfbc 7cbb 7427 b93d
000000a0: 094c 043e c167 eb3c decd 863b 5ec3 9f3c
000000b0: 5d37 583d 28d4 b6bd e045 ca3d 59d4 a3bd
000000c0: 735a 3bbd 8215 e93d fa48 ed3d 0200 883c
000000d0: 132f 983d 022a 81bd 6fba bcbd 525b 0a3d
000000e0: a9ac a83d 0bd5 033d e054 5bbd cb3b b9bc
000000f0: e7d1 9e3d e4fc ecbd 041f 12bd c5a3 863c
00000100: 6c51 cebb da22 12bd 6d96 87bd 8c9b bdbd
00000110: 88c2 a4bc 3a02 adbc 063e c6bd 0f76 4fbd
00000120: 23cf ea3c eadc 40bb c55d 923c e901 f43d
00000130: d549 473d 224c 6fbc b6d0 e8bc c6f7 8c3d
00000140: 36a6 583d b241 8ebd 8690 1abd f125 943c
00000150: 5b3a 97bd 7475 833d 75da e8bd 5b90 d93d
00000160: 6eca bc3d 6c70 b7bd f579 54bd d603 35bd
00000170: 84af 8bbd 8692 bc3d 4318 073c e117 6a3d
00000180: be77 c83d 0435 a23c bd4e 8b3c 302b b03d
00000190: 018e cabd 8c9d 93bd bb45 83bd 80de ba3d
000001a0: 6744 92bd c82a a6bd 5d63 03be a332 48bd
000001b0: aa8d b2bc c07f e43d ca44 12bb d856 a739
000001c0: 0a09 a8bd 3d35 29bd 76e8 623d 6905 86bd
000001d0: a636 04bc 0b10 a33d c4a1 88bd 3b1b 203d
000001e0: 9e01 b6bd 0c17 76bb 76bf 9c3d 2682 ab3d
000001f0: 583f f73c c3b2 dd3c 0df2 bb3d f5a1 103d
00000200: 155d b83d e1f6 003d d68a ee3d baab ae3d
00000210: 0d6c 073d d5c1 d03d d116 bebd e11b 27bd
00000220: ade2 7d3d ebc9 19bd b9dc 00bc 7dd1 113d
00000230: 9b5f b93c b937 02be 2780 763d 2b77 10bb
00000240: ff07 44bc c6f7 d3bc 1e2f 843d 10ae 293c
00000250: 7fe2 49bd a9ab cc3d 5845 673d 11af 823b
00000260: 5d4f 9e3c fee8 b13d 6bb1 b23c ed70 c7bd
00000270: b5b0 6dbd 2981 a23d ac61 dc3d 802b ccbc
00000280: a06f de3d f4ff b1bb eb37 f83b a2d8 72bd
00000290: f3f1 c0bd b81d c23c 2bae ac3d 312d acbc
000002a0: 0efc 24bd d18f bbbc 4216 b93d 3dae c5ba
000002b0: 2846 e3bc 70d6 8ebd 9518 d2bc f572 49bd
000002c0: 7db0 20bd 08f4 a2bc bb75 e13d 69cb 493d
000002d0: eece 9d3d 82bb 13bc 22bf b3bd a0b6 6e3d
000002e0: 38aa d83d 81dc 8d3b a3af 2f3d 0d0a 2a3d
000002f0: 262f 9fbd 5ea9 8dbd 9632 20bd 46ce 4bbd
00000300: d47a d5bd 53fa f5bc 4080 653d 21be 853d
00000310: fefa 31bd 1bfd 0d3e f7ba b9bd e912 8dbd
00000320: ceb9 923d 3794 d3ba cf4e 6d3d 17d9 a7bd
00000330: f728 c03d 88ff d6bd 0afa 4dbd 0634 013e
00000340: 8e8b 973d aa89 873d e03f 173e 85e9 38bd
00000350: ae2e c13d 393e af3b a262 543d 73b9 ea3d
00000360: 576c 063d de70 393d c572 413d 830b e0bb
00000370: cf47 053e aa41 92bd 1fa2 a8bd 4561 fabc
00000380: ac83 353d a820 d53d 9f3f 6ebc ac62 2fbc
00000390: 4de0 8fbd 7996 cf3d c2ea ef3d 4c26 ed3d
000003a0: 7007 85bb c49f b6bd aaa6 553c 04a1 8ebd
000003b0: 820d 0b3e 6e15 693d f601 103e 428f 94bd
000003c0: 0372 02bd bdcf 083d a41d 66bd 6e44 e03d
000003d0: eae2 2f3c 4d41 34bd 277b 673d b689 5bbd
000003e0: 5192 3bbb ed32 d93d e7e2 753d 9c8b 063e
000003f0: 7053 3abc efa9 bbbd ffbd 2dbc 57e3 debc
0.00087374134 0.12624054 -0.1192036 -0.11464135 -0.09628444 0.12464068 0.106702246 0.1192061
0.056729574 0.0074593546 0.060009122 0.09876351 -0.03984931 -0.011216437 0.08808439 -0.08139693
-0.10710412 0.024939166 0.103915766 0.027691832 0.060932312 0.11121576 0.12379464 0.048120875
-0.006186361 -0.110133074 0.018866561 0.012943773 0.09835035 -0.030706042 0.013160124 -0.06856048
-0.041333918 -0.082434386 -0.10264306 0.042941846 0.022147307 -0.0350964 -0.003856465 0.09040728
0.1291963 0.028735997 0.0041138967 0.019502338 0.052787174 -0.08927184 0.09876609 -0.079994865
-0.045740556 0.113810554 0.11586185 0.016601566 0.07430854 -0.063068405 -0.09215247 0.033778496
0.08236057 0.032185595 -0.05354774 -0.02261152 0.077548794 -0.115716726 -0.03567411 0.016435513
-0.0062963273 -0.03567777 -0.06620488 -0.09258184 -0.020112291 -0.021119226 -0.09679799 -0.0506497
0.028663224 -0.002942855 0.017866978 0.11914427 0.048654396 -0.014605554 -0.028419834 0.068831965
0.052892886 -0.06946124 -0.037735485 0.018084498 -0.07384177 0.06418887 -0.11369792 0.10623237
0.09218298 -0.0895699 -0.05187412 -0.04419311 -0.06820586 0.09207635 0.008245531 0.05715168
0.09788464 0.01980067 0.017005319 0.08601987 -0.09890366 -0.07207784 -0.064097844 0.0912447
-0.07141953 -0.081136286 -0.12830873 -0.048876416 -0.021796066 0.11157179 -0.0022318834 0.00031917426
-0.08204849 -0.041310538 0.055397473 -0.06544001 -0.00806967 0.07962044 -0.06671479 0.03908847
-0.08887027 -0.0037550358 0.07653706 0.08374433 0.030181572 0.02706278 0.09177027 0.035310704
0.09002129 0.031485442 0.116475746 0.08528848 0.03306203 0.101932205 -0.09281696 -0.04079807
0.061983753 -0.03754608 -0.007865124 0.035600174 0.022628596 -0.12716569 0.06018081 -0.0022043686
-0.011964797 -0.025874984 0.064542994 0.010356441 -0.04928827 0.09993679 0.056462616 0.0039881547
0.019324953 0.08687018 0.021813115 -0.09738336 -0.05802985 0.079347916 0.10760817 -0.024923086
0.108611345 -0.0054321233 0.0075750253 -0.05928863 -0.09421148 0.023695812 0.084316574 -0.021017643
-0.04027944 -0.022895725 0.090374485 -0.0015081834 -0.027743414 -0.069744945 -0.025646487 -0.049181897
-0.039230812 -0.019891754 0.110087834 0.049266253 0.07705484 -0.009016873 -0.0877669 0.058279634
0.10579342 0.0043292646 0.04289211 0.04151349 -0.07772665 -0.0691707 -0.039110743 -0.049757265
-0.10423818 -0.03002659 0.05603051 0.06530405 -0.043452255 0.13866083 -0.09068864 -0.068883725
0.07164346 -0.0016142194 0.057936486 -0.081957035 0.093828134 -0.104979575 -0.050287284 0.12617502
0.07399665 0.06618054 0.1477046 -0.045144577 0.094327316 0.0053479937 0.051851876 0.11461153
0.032818165 0.045273654 0.047228593 -0.00683731 0.13015674 -0.07141431 -0.08234047 -0.03056396
0.044315025 0.10406619 -0.014541536 -0.010704678 -0.07025204 0.10136122 0.117146984 0.1157957
-0.0040597245 -0.089171916 0.013040224 -0.06964305 0.13579372 0.056905203 0.14063248 -0.07253887
-0.03184701 0.03340124 -0.05618061 0.10950552 0.010735253 -0.04400759 0.05651393 -0.05359813
-0.0028621147 0.106054164 0.060030844 0.13139194 -0.011372432 -0.09163272 -0.010604381 -0.027208013

lstm.bias_hh_l0 f4 [256]
00000000: d16d 3c3d 72e0 003d 2073 b63d 63e4 ef3d
00000010: b17c 9dbd 8db0 b5ba cda5 093e 5f0d 7bbc
00000020: db94 fe3d 0b84 823d 2420 763d eda7 583d
00000030: 6b4e 673d f875 d53d 5d0e c73d 5956 74bb
00000040: b81d cd3d 34a4 8c3d 824e 353d f100 d8bd
00000050: 1a4d a0bd 1246 57bd e7ba bb3d bd5e c3bd
00000060: e1ec d33c c12c a8ba d9d9 d8bd 3b14 a93b
00000070: f109 9b3d 57bc 803c 5c88 c83c 4411 613d
00000080: 0e09 6fbd 2ff8 e73d 1cf6 163d fdc6 8dbc
00000090: 5e24 b1bd 239d cdbd 2339 873d d3ce 8c3d
000000a0: c6dc 983d 12f0 c2ba 45c1 26bb 803b 8e3d
000000b0: c672 013e 2c23 263c 097c f93d 74fa a5bd
000000c0: a9d1 3d3d 9386 503d da97 023e c850 95bd
000000d0: 895c ad3d 989a cd3b 7c9e 9abd 6f00 4d3d
000000e0: a5dd 2abd e227 0f3e 02f1 193b 2ba0 d1bd
000000f0: 6328 86bd faef fc3b d33d 7dbd 71e3 abbd
00000100: c816 01be df4d abbd b07b f53d d578 d1bc
00000110: b235 89bd 8532 163d 7e06 e1bd a225 c43c
00000120: be9c bcbc 7ec5 e83d aef4 9ebd 9cf8 c03c
00000130: e467 c5bd ad13 aebd 7cab dbbd e44d 84bd
00000140: 8c24 523c a8e5 bcbd f264 793d c1bd af3c
00000150: a453 8dbd c026 7f3c 518d b43d fb42 083e
00000160: f28f d93d 9336 a83d b316 5cbd 35d9 06bd
00000170: f5c7 1a3d 416c 6bbd fc59 523d 83d3 893a
00000180: 90f2 cbbd cdcd ec3d a6b2 b43c 9dee c73c
00000190: dfd7 d0bd 00b0 bcbd a808 cfbd f953 cd3c
000001a0: e2c5 7bbd 49fc 673d 654c 5e3c 4325 7dbd
000001b0: f883 af3d eda5 89bd 4e43 89bd f838 f3bc
000001c0: c41e 813d 27e1 983d b88f 81bc c5e8 973d
000001d0: 1079 8e3d 6f54 94bd c2ab 24bd e999 9fbd
000001e0: 8857 9dbd c222 ff3c 9b58 6a3d 0591 ffbc
000001f0: 6594 d6bd 4832 21bd e1bd 22bd 46b2 a03d
00000200: 65ae c13d 6fe4 08be 5ba5 033e f093 c1bd
00000210: 76ea e6bd 06ee c83d 54a6 f7bd 9a26 b4bd
00000220: c224 ba3d 551d afbd efb2 c73d 735a 503d
00000230: 5f33 ec3d 794a 933d cd14 ecbc 0e18 bb3c
00000240: 0db6 cf3d 8deb 383d 333b a23d 01a4 ba3d
00000250: 96d4 203d e344 67bd 00fc 1c3d 8ae4 01bd
00000260: 8bf3 e3bd eed5 c53d c549 90bd a72c d33d
00000270: acc0 bbbc 4102 a03d 2fd9 7fbd 8ec1 bf3c
00000280: 8350 fbbd 8127 023e cfc2 30bd f505 893d
00000290: dbf2 a9bd 77eb 713d 9536 1dbd 22d0 c43d
000002a0: 920f 35bc 1a75 27bd 3e15 ee3d 6d71 aebd
000002b0: 1268 ebbd a621 bcbc 290a 943d 3378 e0bd
000002c0: cdac c1bd 2ff3 873d 4854 153d abde 27bc
000002d0: 11dd d0bc b2ea 033d a4c1 a93d df67 28bd
000002e0: dad2 a13d 4df3 aabd 6e69 413d 1913 b13d
000002f0: 5dda da3d 9075 d93d 0685 1cbd 97a5 9a3c
00000300: c3d9 b0bc 7d8d 98bd 19c3 9fbd 7e16 873d
00000310: 5b76 b33d 804d 03bd b2e4 803d 07c3 7e3c
00000320: 38f2 80bd cb87 cbbb 1fad 54bb 72ae 0ebd
00000330: 5aa1 47bc 58a4 2ebc ae5a ce3d 3a85 b3bd
00000340: 2469 b0bd 1d20 1bbd e0cd 71bd 36ec 94bd
00000350: 31b2 a03b 2ab3 e23c 34b0 aa3d e195 59bc
00000360: 0292 c0bd da3e 913d 0792 023d 81c8 bcbd
00000370: ad01 d3bd 1be2 9cbd 8fb9 443c c5f8 b8bd
00000380: c8cb 0abd e343 52bd 8284 a93d f9fc 093d
00000390: 2997 83bd c603 9bbd 8991 893b 5ff2 4fbd
000003a0: e217 8ebd da99 943c 90b7 37bd ba43 6f3c
000003b0: 2a03 fd3d 61a4 d63d d8a3 1ebc a629 ef3d
000003c0: d50c b3bd 8d74 e8bd 454a 15bc 7248 fd3d
000003d0: 02f8 1a3d d134 50bd 5278 d8bd 4c59 dc3d
000003e0: 2550 6e3d 51fc 893d 233a 213d 8226 9abd
000003f0: c43b c63d c596 47bc 4deb c1bd 6a4b 38bd
0.046003167 0.031464048 0.08908677 0.11713483 -0.076897986 -0.001386182 0.13442154 -0.015323012
0.12430736 0.063728414 0.060089245 0.05289452 0.05647127 0.104228914 0.097195365 -0.0037282913
0.10015434 0.06867257 0.044264324 -0.105470546 -0.07827206 -0.05255706 0.09166508 -0.09539554
0.025869789 -0.001283072 -0.10588426 0.0051598824 0.075702555 0.015714807 0.024479084 0.054948106
-0.058358245 0.11326634 0.036855802 -0.0173068 -0.086495146 -0.10039737 0.06602695 0.06875386
0.07463984 -0.0014872572 -0.0025444787 0.069449425 0.12641439 0.010140222 0.12181861 -0.08104411
0.046342526 0.05090959 0.1275324 -0.072907984 0.08464915 0.0062745325 -0.0754976 0.05004924
-0.041715283 0.13980058 0.00234896 -0.10235628 -0.06550672 0.007719037 -0.06182654 -0.083929904
-0.12606347 -0.08364462 0.11986482 -0.025570313 -0.06699695 0.036669273 -0.109875664 0.023943726
-0.02302396 0.11365794 -0.07761513 0.023556046 -0.09638956 -0.084998466 -0.107260674 -0.06460169
0.012826096 -0.09223491 0.060887285 0.021452786 -0.06900719 0.015573204 0.088160165 0.13306801
0.106231585 0.08213534 -0.053732585 -0.03292199 0.03778835 -0.057476286 0.051355347 0.0010515306
-0.099583745 0.11562691 0.022057842 0.024405772 -0.10197424 -0.09213257 -0.10109073 0.025064455
-0.061468013 0.056637082 0.013568019 -0.061803114 0.08570093 -0.06721101 -0.067022905 -0.02969025
0.06304696 0.074648194 -0.0158156 0.07417444 0.069566846 -0.07242667 -0.040202864 -0.07793028
-0.07682711 0.031144504 0.057213407 -0.03119708 -0.10477523 -0.039354593 -0.039731864 0.07846503
0.09457091 -0.1336839 0.12856047 -0.09452045 -0.112751886 0.09811024 -0.120922714 -0.08796425
0.09089042 -0.085505165 0.09750926 0.05086751 0.11533236 0.07191939 -0.028818512 0.022838619
0.10142145 0.045146514 0.079214476 0.091133125 0.039265238 -0.05646218 0.038326263 -0.031712092
-0.111304365 0.096599445 -0.070453204 0.10311251 -0.022919022 0.0781293 -0.06246298 0.023407724
-0.12271216 0.12710382 -0.043154534 0.06690589 -0.08298274 0.059062447 -0.03838213 0.09610011
-0.0110510755 -0.04088316 0.116251454 -0.08517728 -0.11494459 -0.022965264 0.072285004 -0.10960426
-0.09456787 0.066381805 0.03645733 -0.010245959 -0.025496038 0.032206245 0.08288887 -0.041114684
0.07901545 -0.08347187 0.047219686 0.08646221 0.10686181 0.106181264 -0.0382128 0.018877788
-0.021588212 -0.07448862 -0.07800884 0.06596087 0.08762809 -0.03205633 0.0629362 0.015549428
-0.062961996 -0.006211256 -0.003245182 -0.034834333 -0.012184465 -0.0106593 0.100758895 -0.08765645
-0.08613804 -0.037872422 -0.05903423 -0.07271616 0.0049040546 0.027673323 0.08334389 -0.013280363
-0.09402849 0.07092066 0.031877544 -0.092179306 -0.10303054 -0.07660314 0.012007131 -0.09031824
-0.033885747 -0.051334273 0.08277227 0.03368852 -0.06425316 -0.07569079 0.0041982573 -0.050768252
-0.06938149 0.018139768 -0.044852793 0.01460355 0.12354119 0.104805715 -0.009682618 0.11677866
-0.08742682 -0.11350355 -0.0091119455 0.123673335 0.037834175 -0.05083162 -0.10569824 0.107592195
0.0581819 0.06737579 0.039362084 -0.07526876 0.09679368 -0.012181942 -0.09468708 -0.044993795

lstm.weight_ih_l1 f4 [256, 64]
00000000: 0b73 ad3d 2ce2 48bd c730 003e ae58 083d
00000010: 1131 183e 54bd d73d 8a30 b53b d666 1abe
00000020: 1f50 913d ee8e 92bd 1951 98bc 9a38 86bd
00000030: 3fb2 873d 7a3f 8ebd 3428 443d 5fb9 5cbc
00000040: 77ed 8b3d 9a96 813d 389f 6c3d 7a42 c0bc
00000050: fe11 ac3d 8209 943d 3158 49bd 001f ae3d
00000060: ac97 b5bd 15ad ee3b 0ad5 043e 93c8 34bd
00000070: e661 0e3e 250c 103d a11a 103e 2bae b2bd
00000080: e49e c23d d454 1cbd c823 e4bd 6637 7dbc
00000090: 139d d0bc e843 16be ba33 dd3c 1000 a3bd
000000a0: bde1 e9bd 9454 8a3c 3ec8 f53b dbdb 0abd
000000b0: 186b 033d cfb9 92bd 460e 5d3c 58e4 a9bb
000000c0: 35ab 233d 7c09 573d eda9 003e 96a1 d8bc
000000d0: 10b9 0ebd afda 51bc 420c 673b 7a62 0fbd
000000e0: 8f58 7cbd eb75 ab3a 3948 99bd 79e1 d5bd
000000f0: 197f a33b 4cdc cabc ed94 7a3c f085 2c3d
00000100: 11dc bcbd 2f8f 123d d4b3 93bd bbe6 6fbd
00000110: 06e6 d8bc 1243 463d ed48 c63d a64d 203d
00000120: a497 b7bd 5e06 d43c 5119 6e3c 44fb 30bc
00000130: f8fa b73c e041 ef3d e47e e33d af68 e6bd
00000140: 9c8c 2fbd d293 4ebd afb3 94bd e07d b9bb
00000150: b76f 273c 4fdc 6e3d 2863 8c3d 5d62 3dbd
00000160: ddb6 ab3d c07c 183d 8dff 69bd 1d26 ae3d
00000170: f2ad 0b3d 4165 23bd 424e 95bd b0a8 87b7
00000180: 5510 433d 66e8 1a3e 4f65 f53a 776f e1bd
00000190: aa4c 6c3d 7512 03bc 211f a43d c304 edbc
000001a0: ceaf 14bc 3446 8ebd c1e6 d3bd 2e76 7b3c
000001b0: 50ec 0bbe 0d2c 23be 95c3 9a3d ff22 92bd
000001c0: 3739 023d 8f8a 9abd f329 c5bd 8abc 8bbd
000001d0: ea4f 0b3e 6872 b8bc ce8a 6c3d e382 5a3c
000001e0: 1167 a3bc d207 ee3d 2f7e 49bd 1cdf 0f3e
000001f0: d585 3cbd 9626 4e3d a9e5 11bc 63e2 af3b
00000200: b600 123e 4b3d aabd 7492 b03c 2417 82bd
00000210: dcc0 09bd 3850 24bd bfa1 f23c 1fa1 dcbd
00000220: 0f72 f3bd 22bb 16be f491 ba3c e786 e83d
00000230: 7a87 8e3d 3cfa 3e3d c134 91bd 8e2c 00be
00000240: 3f90 bc3d ac9f bc3c 3880 afbd 35e4 dfbd
00000250: 2169 cabd 1a35 e7bd d8d4 29bd 6d2d db3d
00000260: df26 9e3b f37c 5f3c f1ab 313d 4f90 c43d
00000270: 0b53 df3d ee68 03be 1ef9 5d3d 968b c43d
00000280: 2095 c53d c6de 09ba 7752 a2bd b1f4 40bd
00000290: ad1a a73d 84fb df3c bffd 893d 502c 8a3d
000002a0: 1ddf adbc 26c7 013e ff18 823c 7f0c 893d
000002b0: 23fe d9bc f588 16be a4d6 24bb 4b3f 1e3b
000002c0: f59f 9c3d b110 0b3c ddf6 dfbd 1a59 51bd
000002d0: 9e9b e2bc a0d6 a63d ee6b 863d 6a42 4f3d
000002e0: 6c17 e23d cfc1 7b3d ae49 873d 7ed8 ab3d
000002f0: dbd7 24bd c074 b3bd 2862 3e3d e726 9a3d
00000300: b8a3 a43d 7f3d 06bd bb3d 1e3d 5a56 043d
00000310: e2b1 c03d 99e7 2d3d 06e9 173e 309a 523c
00000320: 62a2 893d 0ffe 02be 12a0 7b3c 5791 b13d
00000330: d19c 1e3d 51cc 573c 5671 573d db82 8cbd
00000340: 8062 02bc 9ddb 94bd 9d30 a1bd 996e 19be
00000350: c365 aabd c333 92bb 9faf 9c3d 929a f9bc
00000360: 2b98 893d c35f 88bd 5a68 bebd 30ee 01bd
00000370: 4cef db3c 621a 82bd d28a 35bb 100e 9dbc
00000380: 9826 c3bd e1ed 833b deed e4bb bfd5 f4bc
00000390: 8b9e f1bc 00d1 6537 43e5 2ebd bece 81bd
000003a0: 68f8 62bd 0c06 193e b648 8dbd 0274 f63c
000003b0: 77a6 adbd 7248 2fbd 5705 84bd e11f 09bb
000003c0: 210e 473b 7fe1 033e debc d23d 0970 9abc
000003d0: 8c9d 87bd 5b0e 083d e795 3dbd c257 44bd
000003e0: fcc4 a7bd a5ae a43d 6496 903d a6cd aa3d
000003f0: 68fe 49bd 3ce0 0cbd 3321 813d 622d b5bd
0.08469208 -0.04904382 0.12518607 0.033287697 0.14862467 0.10534158 0.005529468 -0.15078291
0.0709536 -0.07156168 -0.018593358 -0.06553765 0.066257946 -0.06945701 0.047889903 -0.01347193
0.06832402 0.06327553 0.05776903 -0.023469198 0.08401869 0.07228376 -0.04915637 0.085020065
-0.0886682 0.0072838166 0.12971893 -0.044136595 0.13904533 0.035167832 0.14072658 -0.08724626
0.09502962 -0.038166836 -0.11139637 -0.015455103 -0.025465524 -0.14674342 0.027002204 -0.07958996
-0.11420009 0.016886033 0.0075006774 -0.033901077 0.032084554 -0.071643464 0.013492173 -0.0051846914
0.039958198 0.05249928 0.12564822 -0.026444238 -0.034844458 -0.012808486 0.003525511 -0.035006024
-0.061607894 0.0013081407 -0.074844785 -0.10443396 0.0049895165 -0.024763249 0.015294296 0.04211992
-0.09221662 0.03578108 -0.07212034 -0.05856965 -0.026476871 0.048403807 0.09681878 0.03913655
-0.0896447 0.025881942 0.014532403 -0.010802094 0.022458538 0.116824865 0.11108187 -0.112504356
-0.042858705 -0.05043394 -0.072608344 -0.0056607574 0.010219506 0.05831557 0.0685485 -0.046236385
0.08384488 0.037228346 -0.057128478 0.08503363 0.034101434 -0.039891485 -0.07290317 -1.6171805e-05
0.047622997 0.15127715 0.0018722209 -0.11007588 0.0576903 -0.008000006 0.0801375 -0.028932935
-0.009075118 -0.06946984 -0.10346747 0.015348 -0.13664365 -0.15934773 0.075568356 -0.07135581
0.031792846 -0.07545959 -0.09627142 -0.0682307 0.13604704 -0.02251549 0.057749562 0.01333687
-0.019946607 0.11622585 -0.049192604 0.14049953 -0.04602607 0.050329767 -0.008904853 0.0053675636
0.14258084 -0.08312472 0.02155421 -0.0635207 -0.03363119 -0.040115565 0.029618142 -0.10772919
-0.11886989 -0.14719823 0.022774674 0.113538556 0.06959434 0.04662536 -0.0709014 -0.12516996
0.092072 0.023025356 -0.08569378 -0.10932199 -0.09883333 -0.11289425 -0.04146275 0.10702024
0.004826411 0.01364063 0.043376867 0.09597837 0.10904511 -0.12832996 0.054192655 0.095969364
0.09647584 -0.0005259331 -0.07925885 -0.047108356 0.08159385 0.027341612 0.06737851 0.06746733
-0.021224553 0.12673625 0.01588106 0.066918366 -0.02661044 -0.14700682 -0.002515235 0.0024146612
0.07647697 0.008487866 -0.10935757 -0.051110364 -0.027662095 0.08146405 0.06563555 0.050600447
0.110396236 0.061464127 0.0660585 0.08390902 -0.04024492 -0.08762503 0.046480328 0.07526951
0.080390394 -0.03277349 0.03863309 0.032308914 0.094089285 0.042457197 0.14834985 0.012854144
0.06720425 -0.12792228 0.015357988 0.086702995 0.03872377 0.013171271 0.05259832 -0.06860896
-0.007958055 -0.072684504 -0.078706004 -0.14983596 -0.08320191 -0.004461737 0.076506846 -0.030469213
0.06718477 -0.0665889 -0.09297247 -0.031721294 0.026847504 -0.06352688 -0.0027701152 -0.019171745
-0.095288455 0.00402616 -0.006986364 -0.029887078 -0.029494544 1.3698125e-05 -0.04269911 -0.06338261
-0.05541268 0.14943713 -0.06898634 0.030084614 -0.08479016 -0.0427937 -0.06446331 -0.0020923542
0.0030373412 0.12878989 0.1028993 -0.01885225 -0.066218466 0.033216815 -0.046285536 -0.047935255
-0.08191869 0.08041123 0.07059935 0.083400056 -0.049314886 -0.034393534 0.063051604 -0.08846547

lstm.weight_hh_l1 f4 [256, 64]
00000000: c0d7 00be 4b08 113e aba1 da3d b39c 06be
00000010: 2340 843d 18a0 cc3d f14a cc3d 360c c23d
00000020: ff19 d73d 8350 8c3d 145e 833c 7fdd 6cbc
00000030: 8dd8 9fbc 6d2f e43c fcd0 ffbc 70d4 6abd
00000040: 8d42 7fbd 77b6 9fbd 7744 ec3b 9c9a fcba
00000050: 8819 763d 94bc 60bc 2fa6 88bd a409 013e
00000060: d7dd d43c ca36 d5bd 1841 4ebd b01a 6abd
00000070: 9e94 acbd 53ac 89bd 9989 9a3d 47d7 2e3d
00000080: 8743 b63d d142 82bd 655c b5bd 8546 8c3d
00000090: 7de0 8a3d 7db6 d9bd 66d4 b5bd 74ec 183e
000000a0: 4ba0 3c3b 2b67 123e 8558 ddbb 23d8 853d
000000b0: 646d 3cbd 8b69 b9bc cc71 033b 3c7c 9f3d
000000c0: b82f 2cbb 14b4 cfbc a7fa e03d 91de e43d
000000d0: f207 ffbd 4606 863d 0729 c6bd de7c ca3d
000000e0: 6735 03be 379e 40bd fd3b 6f3c 1fe1 083e
000000f0: 57a7 d33d cea0 a73c ea2c cd3d 188e 433d
00000100: 1f2d c33d 19e0 ca3d 286c 4e3b 30bb b6bd
00000110: 6d00 ad3d 4c22 5c3d af41 de3d 550b e73b
00000120: 6403 37bd b0ea 9bbc 1d25 ae3d 2aec eabd
00000130: 9b05 7cbd 72f7 973d fb88 78bc 5b82 98bd
00000140: 9c9b 4fbc ba7b 623d 2215 ce3d f1da 52bc
00000150: 54be a53d e5c6 523d 2219 f33d bb0a 523c
00000160: dbae a03c 7072 0ebd e67f 9cbd 911e 973d
00000170: a819 9c3d df8e bc3d 59be eabd 9677 633d
00000180: 4942 1d3d f9ae 1b3d 6565 d2bd 82ce 2a3c
00000190: b6d8 50bd b22b 07bd b742 4ebd b9b9 893d
000001a0: 5718 f03c 33cc 72bd c0bc af3d 053c ea3c
000001b0: 707b acbc 321b 103e 33ad 05be f879 4c3d
000001c0: 62d4 bf3d f314 943d 4060 3b3c 83d3 f43c
000001d0: a9e5 8abd c770 7fbd 2531 eebb 5799 07be
000001e0: 7517 d7bd 5b01 cd3c 5e5e 53bd 4842 78bd
000001f0: 943c 7d3b 65b2 823d e50b 0b3e 0e23 893d
00000200: 08c0 2cbd daf3 2cbc a7c8 d1bd bb13 c2bd
00000210: cf21 993c 08ce 5a3d d32b 653c d877 95bd
00000220: 3e67 b4bc 8f30 093e bc12 1eb9 f203 063d
00000230: a049 d93c 41ec 593d c505 2e3d 994d a43d
00000240: 8ac8 8c3d 705d 403d 68c3 e0bc 51f4 983d
00000250: 629d fabd 5c8e 98ba 5b95 873d ea78 0b3e
00000260: b0e0 afba c60f e1bd 1904 c0bd 081f 9a3c
00000270: 884e 82bd 64e0 d1bd 2879 bebd 30c8 d2bd
00000280: 0b7f 4bbd 1471 88bc 3208 493d 2e8f 3a3d
00000290: 4806 253c dd36 de3d be18 303c 7ba3 40bd
000002a0: 95d0 0abd 3f08 4f3d e73f b3bd be85 7dbd
000002b0: 7c03 253d 9eea 81bd 2777 463d efb1 3dbd
000002c0: 93c8 35bd d6ee f23d a72b 4b3d d92c e8bd
000002d0: 8304 dc3c 5e9b a4bc 7dc4 a43c 1cf9 70bd
000002e0: 01a7 c13c b94b dc3b d540 913d 4fcf c63b
000002f0: 8acf 63bd 3322 d4bd 14e1 56bd 5a5d 75bd
00000300: d82c dbbd 0cc6 babd 0b4d b0bd 2dc1 a73d
00000310: b320 f13d 19f2 86bd 091f fa3d a6c0 db3d
00000320: f443 883c ca24 653d 4d9e db3d f1ea ba3d
00000330: 78ed 823b 3315 b0bd 63fd e73d 39f6 463d
00000340: 6c50 a23d ee9e 933d 0236 debc 9993 c03d
00000350: 0779 59bd 9c85 88bc 1184 743d 3afb 883d
00000360: 52a2 66bd 24a1 f63d 993e a6bd 96e3 03bd
00000370: ea0a dd3d 5078 9c3d 9a5c 2e3d 345e b2bc
00000380: 0444 d7bc 44d1 023e b99a 5f3d a051 c1bd
00000390: 8096 8ebc 0fb8 b53d adb4 b7bd 884a e7bc
000003a0: 9b5e 14bd 9bae d3bd f622 a2bd f682 bf3d
000003b0: 22d6 193d 055f 773d 3260 a73d 5375 103e
000003c0: cb5d b43d a06f 6fbd 29b5 f1bd 379b b13d
000003d0: c843 883d d514 9d3d 4cb9 9b3d 606c 85bd
000003e0: 4fdc 4cbc 1f48 d13d 43d5 3fbd 5959 61bd
000003f0: edfa 93bd f04d a3bd 22f3 a4bd 504e f83d
-0.12582302 0.1416332 0.10675367 -0.13145714 0.064575456 0.09991473 0.099752314 0.09474985
0.10503005 0.06851294 0.01603607 -0.014457106 -0.01951244 0.027854646 -0.031227581 -0.057331502
-0.062319327 -0.07798474 0.00721031 -0.0019272151 0.060082942 -0.0137168355 -0.06672322 0.12601334
0.025984688 -0.10410841 -0.050355047 -0.057154357 -0.08426784 -0.06722321 0.07545776 0.042685773
0.088995986 -0.063604005 -0.088555135 0.06849388 0.06781099 -0.1063051 -0.088784024 0.1493395
0.0028782065 0.14297168 -0.006754937 0.065353654 -0.04600276 -0.022633335 0.0020056842 0.07787368
-0.002627356 -0.025354423 0.10985308 0.11175264 -0.12452687 0.06544165 -0.09675794 0.09887098
-0.1281334 -0.047025885 0.014601705 0.13367127 0.10334652 0.02046242 0.10018332 0.047742933
0.095300905 0.099060245 0.0031497572 -0.08922422 0.08447347 0.053743646 0.10852372 0.0070509114
-0.044680968 -0.019032806 0.085031725 -0.11470826 -0.061528783 0.07420243 -0.015169377 -0.07446738
-0.0126713775 0.055293776 0.100626245 -0.0128695825 0.08092943 0.05145921 0.11870028 0.012819941
0.019614628 -0.034777105 -0.07641582 0.07378877 0.07622081 0.09206938 -0.11462087 0.055533968
0.038393293 0.038008664 -0.10273246 0.010425212 -0.05098792 -0.033000655 -0.050356593 0.06724877
0.029308481 -0.05927677 0.08580923 0.028593073 -0.021054953 0.14072874 -0.13054352 0.049921006
0.09366681 0.07230558 0.011436522 0.029886013 -0.067820854 -0.062363412 -0.007269042 -0.13242088
-0.10502521 0.02502506 -0.051603667 -0.060610086 0.0038640844 0.06381682 0.13578756 0.06696139
-0.042175323 -0.010556186 -0.102433495 -0.094764195 0.018692879 0.053419143 0.013987499 -0.07298249
-0.022021886 0.1339743 -0.00015075033 0.032718606 0.026524365 0.053203825 0.04248597 0.08022613
0.06874187 0.04696411 -0.027436927 0.07468475 -0.1223705 -0.0011639106 0.06620284 0.13620344
-0.0013418403 -0.10989337 -0.093757816 0.018813625 -0.06362635 -0.10247877 -0.093004525 -0.10292089
-0.049681704 -0.016655482 0.04908008 0.045546703 0.010072298 0.10850308 0.0107480865 -0.047030907
-0.033890326 0.050544973 -0.08752423 -0.061895125 0.040286526 -0.06343578 0.048453476 -0.04631227
-0.044380736 0.118619606 0.049602177 -0.11336679 0.02685762 -0.020093616 0.020113224 -0.05883132
0.023639204 0.006722894 0.07092444 0.0060671936 -0.055617847 -0.103580855 -0.052460745 -0.05990348
-0.10701913 -0.09119806 -0.08608445 0.08191142 0.11773815 -0.06589145 0.12212951 0.10730104
0.016633965 0.055943288 0.10723553 0.09126843 0.0039955936 -0.085977934 0.113276266 0.04857466
0.079254955 0.07208048 -0.027125362 0.09403152 -0.053093936 -0.016665272 0.05969626 0.06688543
-0.056307144 0.12042454 -0.08117408 -0.032199465 0.10793097 0.07640135 0.04256878 -0.021773435
-0.02627755 0.12775141 0.054590914 -0.09439397 -0.017405748 0.08872997 -0.08970008 -0.028233781
-0.036223035 -0.10336038 -0.079168245 0.09351151 0.03755773 0.060393352 0.08172645 0.14107256
0.08806952 -0.058456063 -0.11802132 0.08672183 0.06653553 0.07669989 0.07603702 -0.065148115
-0.012503698 0.10218834 -0.04683424 -0.05501685 -0.07225595 -0.0797385 -0.080541864 0.12124312

lstm.bias_ih_l1 f4 [256]
00000000: 5aaa 08ba c055 3f3d f132 513b 10d6 c53d
00000010: f9c1 d3bd 882f 10bc 8040 08be ce4f c73c
00000020: 78ac 003d cefd b3bd fd89 92bd 5621 523c
00000030: 9d01 8f3d 041f 293c 1113 a93d 557a 17bd
00000040: ea96 413c 24a9 cd3d 6a04 a73c a395 74bd
00000050: f549 87bd eda9 903d 7314 cd3d f997 06bd
00000060: a03a 8abd a110 bcbc d534 113d d99f 66bd
00000070: 721a ee3c 714c 793d 56f6 e33d 6be8 d83d
00000080: 23b2 923d 5c5d 6fbd d739 eabd de3f bfbd
00000090: 822b 66bd e067 8f3d 7c76 92bd 41cc e63d
000000a0: 8668 913b 4d77 ddbc bcec 053e dfd4 34bc
000000b0: ee96 eabd 93da 83bc 2568 54bd 190b 78bc
000000c0: d775 d1bc 28bd dcbd 4882 2c3c c833 d7bb
000000d0: 5220 fcbd 7a84 7bbb 0d9e b33d 4af1 8f3d
000000e0: 4485 e83d be4b 3bbd 452e a63c dfaa b1bd
000000f0: 3d30 75bd fa19 88bd a547 f4bd 48e5 ce37
00000100: c282 643d 842a c23d 717f cbbd da7f 83bd
00000110: 16ff 48bd 6064 e8bd dfef 0dbe d7f4 03be
00000120: 030c bbbd 4498 b93d 3c6d c5bd cac6 2abd
00000130: 0275 363c 3556 6f3c d34d afbd a31f c2bd
00000140: 3163 003e b269 53bd bc3d 0cbe aa95 bcbd
00000150: 3660 103d 9235 98bd 945d f0bb 824a f93c
00000160: 29f2 5f3d 3344 a3ba b4a1 6a3d 7349 3f3d
00000170: 926f 173d e830 8e3b c68c db3d 4a88 2a3c
00000180: 3ab5 413c 544f cf3d f386 603d 7bb6 6d3d
00000190: 0b82 0c3d 625b 2b3d 8c07 973d 6787 b5bd
000001a0: 7cbc 383d 4669 e7bb 8c49 a9bd c383 a6bd
000001b0: feb6 683c 9ce7 c53c e7de bf3c 8103 c9bd
000001c0: 4daa 10be 595c dd3c 067d 38bd 4006 efbb
000001d0: a7ac cf3d 202a 58bd 6f7f afbd c094 d7bc
000001e0: f6de 283d dcfe 3abd 488d 6f3d 5963 933d
000001f0: 6c2d ebbc 2cf9 b5bd 575a b63d 46ee 17bd
00000200: 4c5b 23bd 1e11 fbbc 56a2 9abd 3b9a 863b
00000210: 27da 973d b0b8 453d a75f 403d b462 c63d
00000220: 7134 903d 9caf b33d 5a09 d4bd 41a8 06be
00000230: a8d6 dc3d 763e 81bc 8abe e2bc de90 c13d
00000240: 410a 433d fe0f c9bd a61c 92bd d684 1e3d
00000250: 6589 69bd e957 12bd dd9c 4a3c b105 ba3c
00000260: de13 5d3d 5074 4abd c66c 2a3d f780 173d
00000270: 1a90 933d c876 91bd d853 8ebd 1923 ce3d
00000280: 6655 e8bd 855d 313c 3a95 bf3c 529e 3d3d
00000290: a141 d73d f089 03be aa92 813c 1bc5 063d
000002a0: 7cfc 7dbc 9875 b23b 3436 00be 6e35 08be
000002b0: feab b2bd 9533 573d 4910 05bc cfdc 103d
000002c0: ed75 f9bd f732 dc3d af76 d5bd 347f b23c
000002d0: 5eda 883d c5e2 3e3d 3763 17bd 9ada cfbb
000002e0: 62e2 963d a017 db3d e491 b83d aa8a d63c
000002f0: 049b 8b3d 8462 c0bc d478 ce3d 4da8 cd3d
00000300: 350a d33d c177 58bd e925 1bbd 224b 9cbd
00000310: c507 cc3d 214f 42bd 1a3f bbbd 512d 2cbc
00000320: f7bc 803d ce8f 1c3c e3bd 0b3b 7b61 d53d
00000330: 95b7 923b 0797 cebd b5db 9fbd d748 003e
00000340: 23e5 433d 37ad f8bc 1e55 9d3d 2687 43bd
00000350: 51d5 023e 5ca3 e83d 0aeb f93d c318 e0bc
00000360: be9c 62bd 2b28 79bd d787 ffbc ec2e fb3d
00000370: 76e0 b73d b45d 023e efc3 d6bd ab42 1f3b
00000380: c75b 1b3d a3cc 043d e180 b3bd d28f aebb
00000390: 187e 74bd f134 1b3d fd56 9bbd 17d6 8dbd
000003a0: 03eb 9d3c 0983 c03d 0117 5cbd f684 d93d
000003b0: ed1d 073d 112c c43d 0539 243d 4b2b be3c
000003c0: f6df d3bd 155c ac3c ef65 bc3d bff1 cfbc
000003d0: 9c9c c6bb 6b0f 2c3c eb44 cb3c 965d 7dbd
000003e0: 5d1f 9cbd 8b2d 1d3c a09b b2bd 5f31 7bbd
000003f0: 79ae 29bd 2f87 e83c 4a4c 9a3d f7a3 fd3c
-0.00052133726 0.046712637 0.0031921233 0.0965997 -0.10339732 -0.008800395 -0.13305855 0.024330046
0.03141448 -0.08788644 -0.071552254 0.012825331 0.069827296 0.010322336 0.0825559 -0.0369819
0.011815766 0.10042027 0.020387847 -0.059713017 -0.06605903 0.07063661 0.10013666 -0.032859776
-0.06749463 -0.022957148 0.035450775 -0.056304786 0.029065344 0.060863916 0.11130969 0.10591205
0.07162883 -0.058438644 -0.11436813 -0.093383536 -0.056193836 0.070022345 -0.07151505 0.11269427
0.004437509 -0.027034426 0.13078588 -0.011037081 -0.11454569 -0.016095435 -0.051857132 -0.015139365
-0.025568886 -0.10778266 0.010529108 -0.006567452 -0.12310852 -0.0038378523 0.0877038 0.07028444
0.113535434 -0.04572653 0.020285735 -0.08675169 -0.059860457 -0.0664558 -0.119277276 2.4663881e-05
0.055788763 0.094807655 -0.09936417 -0.0642087 -0.049071394 -0.1134727 -0.13861035 -0.12886368
-0.091331504 0.090622455 -0.096399754 -0.041693486 0.011136295 0.014607956 -0.08559766 -0.094786905
0.12537839 -0.05161447 -0.13695425 -0.09208234 0.035248004 -0.07432093 -0.007335374 0.030431036
0.0546743 -0.0012456238 0.05728312 0.046700906 0.036971636 0.004339326 0.1072021 0.01040847
0.011822993 0.101225525 0.054816198 0.058035355 0.034303706 0.041835196 0.07374486 -0.088637166
0.045101628 -0.00706211 -0.08265981 -0.081306 0.014203785 0.024158292 0.023421718 -0.098151214
-0.14127465 0.027021574 -0.045041107 -0.007294446 0.10140353 -0.05277455 -0.08569228 -0.026316047
0.041228257 -0.04565321 0.058484346 0.071966834 -0.028708182 -0.088854164 0.0890395 -0.03709247
-0.03988199 -0.03064781 -0.075504944 0.004107741 0.07414656 0.048271835 0.04696622 0.09686795
0.070412524 0.08773729 -0.10353346 -0.13150121 0.1078313 -0.015776854 -0.027678747 0.09451459
0.0476172 -0.098175034 -0.071343705 0.0387009 -0.057015795 -0.03572837 0.012366501 0.022707792
0.053974025 -0.04942733 0.04160764 0.036988225 0.072052196 -0.07102734 -0.06949586 0.10065288
-0.113444135 0.010825519 0.023386586 0.046293564 0.105105646 -0.12845588 0.015817005 0.03290282
-0.0155020915 0.005446147 -0.12520677 -0.13301632 -0.08724211 0.052539427 -0.008121558 0.03536683
-0.12180696 0.10751908 -0.10423028 0.02178917 0.06682275 0.046602983 -0.036959853 -0.006343198
0.07367398 0.106978655 0.090122014 0.026189167 0.06816676 -0.023484476 0.1008164 0.100418665
0.10304681 -0.05284858 -0.03787795 -0.07631518 0.099624194 -0.047438744 -0.09142895 -0.010508851
0.06286042 0.00955577 0.0021322898 0.104189835 0.004477451 -0.100874 -0.07805578 0.12527786
0.047825944 -0.030356033 0.076822504 -0.04773631 0.12776686 0.11359283 0.12203033 -0.027355557
-0.055325262 -0.060829323 -0.031192703 0.12264809 0.089783594 0.12731057 -0.1048659 0.0024301212
0.037929323 0.03242172 -0.08764816 -0.0053272033 -0.059690565 0.037892286 -0.07584951 -0.069256
0.019277101 0.09399993 -0.053732876 0.106210634 0.032987524 0.095787175 0.04009344 0.023214003
-0.103454515 0.021040002 0.0919913 -0.025383828 -0.0060611498 0.010501723 0.024813136 -0.06185683
-0.076231696 0.009593378 -0.08721089 -0.06132638 -0.041426156 0.028384773 0.07534082 0.030961974
