src/Backend-Information/Clod-weather_predict/Fujian_lstm_model.pth (torch, 208379 bytes, 11 tensors)

lstm.weight_ih_l0 f4 [256, 3]
-0.120837495 0.13602884 0.060009338 -0.08456621 -0.13195929 0.12259464 0.11563598 -0.08260141
-0.016420616 0.08654204 -0.060150936 -0.07076517 -0.036056355 -0.015490134 -0.08904797 0.07168822
0.13183406 -0.08895397 0.034735154 -0.046015583 -0.027956571 -0.11655753 0.13242804 -0.06822668
0.022809563 0.0003471594 0.006130809 0.07142095 0.040118117 -0.04027788 0.015058714 0.005201983
0.052427698 -0.020635031 -0.12116104 0.023449417 -0.081646346 0.1330573 0.06454592 0.13665651
-0.037251078 0.0058119986 -0.04112164 -0.08490158 0.07707583 -0.016135855 0.008150047 0.019049004
0.053455345 -0.075432524 0.096471906 -0.13954854 0.13293621 0.08027649 0.073097505 -0.094066605
-0.0018149891 0.0605068 -0.07158018 0.08250836 -0.07503861 -0.025137575 0.042779855 -0.050710574
-0.085071795 0.08821851 -0.1552243 0.12963308 0.084290765 -0.15155132 -0.07440889 -0.14627193
-0.057535138 -0.013936337 -0.044912994 -0.049847107 0.043676134 -0.08740401 -0.0022340065 -0.1556732
0.11728315 0.028369335 0.049593296 0.09127259 -0.018934017 0.112488575 -0.063687086 -0.116234556
-0.054042805 0.075251184 -0.1665164 0.12549694 -0.025411924 0.08325603 0.12658027 -0.0130626215
0.081491515 -0.06982347 -0.09061803 -0.05653553 -0.009755868 0.060768697 0.06819752 0.0084724305
-0.07413046 -0.10895638 0.056368046 -0.07940038 -0.07171429 0.004140497 -0.040935308 -0.08687446
0.047785003 0.06845347 -0.005465346 0.012518561 0.05697432 -0.11558161 0.085985675 -0.026419377
-0.059102185 -0.0018215686 -0.09309574 0.012323453 -0.15229002 0.010841085 0.08406759 -0.09698011
-0.05365679 0.15552208 0.04539921 0.077673964 0.081426 -0.059076663 0.082495734 0.027946468
0.02486568 -0.06738583 0.040006034 0.0020679252 -0.032561716 -0.109059654 -0.036505956 0.009083161
0.06609561 0.037063528 0.0036101 0.04545167 -0.007667268 -0.15631029 0.09149712 -0.025318852
-0.055268817 -0.12984753 0.009717185 -0.04117109 0.047009856 0.0995273 -0.12202143 0.033063885
-0.038157087 0.11437894 -0.07025286 0.061285354 0.033396237 0.15058225 0.0025134508 0.05403745
0.07776273 -0.017271174 -0.027661035 -0.108701624 0.06457949 0.040149853 0.032827657 0.001119478
0.14761321 -0.08222335 0.1062559 -0.027289357 -0.13364321 0.13908297 -0.028018903 0.019390687
-0.06903779 -0.117507905 -0.113796875 -0.062012043 -0.03738262 0.079643644 0.14105259 0.073328115
0.07332991 0.06752262 -0.032634933 -0.022219935 0.07134558 -0.09480378 0.08580297 0.033705093
0.13532586 0.104550436 -0.019762026 -0.012947703 -0.13620098 0.075079925 -0.10669843 0.05150291
0.089861184 -0.12497238 0.12669487 -0.027787734 -0.0152393 -0.0039427327 -0.022334257 -0.11303528
-0.014879994 0.0493326 0.10447462 0.07606966 -0.10030159 0.099491 0.019425629 0.07257767
-0.08498794 0.009650876 -0.16717064 0.001318037 -0.10204301 -0.038399793 -0.11225208 -0.057775307
0.008783995 0.11319807 -0.040886424 -0.13261342 0.121143825 -0.0593028 -0.022616716 0.088519454
0.12601393 -0.12341522 -0.008819823 -0.093607776 -0.06750342 -0.16412126 0.026041832 0.034291316
-0.001014097 -0.004831148 -0.12926798 -0.06901118 0.049841102 0.028562626 -0.14571579 0.04513381
00000000: a679 f7bd 254b 0b3e 5acc 753d 0d31 adbd
00000010: 5620 07be e612 fb3d 8fd2 ec3d ee2a a9bd
00000020: 8784 86bc f43c b13d d460 76bd 54ed 90bd
00000030: d4af 13bd 55ca 7dbc c85e b6bd 46d1 923d
00000040: 82ff 063e 802d b6bd 7346 0e3d d67a 3cbd
00000050: 2e05 e5bc b7b5 eebd 379b 073e 6eba 8bbd
00000060: 1fdb ba3c f202 b639 f4e4 c83b 2645 923d
00000070: e552 243d 6bfa 24bd d3b8 763c 6575 aa3b
00000080: 6dbe 563d cc0a a9bc 4823 f8bd fe18 c03c
00000090: 3336 a7bd 2c40 083e a730 843d afef 0b3e
000000a0: 9694 18bd 9472 be3b 2a6f 28bd e1e0 adbd
000000b0: efd9 9d3d 572f 84bc c687 053c a80c 9c3c
000000c0: fef3 5a3d 5e7c 9abd 1093 c53d d0e5 0ebe
000000d0: 6e20 083e 0068 a43d 25b4 953d fea5 c0bd
000000e0: eee4 edba fad5 773d a198 92bd 25fa a83d
000000f0: d8ad 99bd 51ed cdbc ee39 2f3d e4b5 4fbd
00000100: 1f3a aebd e8ab b43d 1ef3 1ebe 89be 043e
00000110: a3a0 ac3d 4530 1bbe b063 98bd 4fc8 15be
00000120: f7a9 6bbd 3c55 64bc b0f6 37bd 7b2c 4cbd
00000130: bfe5 323d e000 b3bd 6968 12bb cc68 1fbe
00000140: 2632 f03d cf66 e83c 5722 4b3d 20ed ba3d
00000150: 831b 9bbc 6960 e63d 606e 82bd 620c eebd
00000160: fd5b 5dbd 4b1d 9a3d 4683 2abe 4582 003e
00000170: ab2c d0bc 2382 aa3d 429e 013e 9b04 56bc
00000180: 06e5 a63d 9cff 8ebd f295 b9bd cd91 67bd
00000190: 14d7 1fbc 99e8 783d 24ab 8b3d f3cf 0a3c
000001a0: b6d1 97bd 8624 dfbd 2ee2 663d ab9c a2bd
000001b0: f1de 92bd 02ad 873b c8ab 27bd 3deb b1bd
000001c0: 35ba 433d 5531 8c3d a516 b3bb a71a 4d3c
000001d0: e85d 693d 0db6 ecbd 4219 b03d 736d d8bc
000001e0: 2215 72bd b3c1 eeba fba8 bebd 4fe8 493c
000001f0: eaf1 1bbe ce9e 313c a12b ac3d 829d c6bd
00000200: 39c7 5bbd 2e41 1f3e 86f4 393d 8713 9f3d
00000210: adc2 a63d 5ffa 71bd 86f3 a83d feef e43c
00000220: 1cb3 cb3c 9501 8abd 5edd 233d 0786 073b
00000230: 6f5f 05bd ab5a dfbd 4587 15bd 8ad1 143c
00000240: 235d 873d edcf 173d 6d97 6c3b 882b 3a3d
00000250: b53d fbbb ce0f 20be d862 bb3d 7b69 cfbc
00000260: 8e61 62bd c0f6 04be d434 1f3c 04a3 28bd
00000270: 688d 403d f8d4 cb3d 5fe6 f9bd ff6d 073d
00000280: 9b4a 1cbd 813f ea3d bbe0 8fbd 5a06 7b3d
00000290: 7eca 083d 3c32 1a3e b5b8 243b 6056 5d3d
000002a0: 1142 9f3d 477c 8dbc 6599 e2bc f59e debd
000002b0: 4042 843d 2c74 243d 4b76 063d 73bb 923a
000002c0: eb27 173e b764 a8bd b19c d93d ee8d dfbc
000002d0: c4d9 08be c46b 0e3e e687 e5bc 38d9 9e3c
000002e0: af63 8dbd fca7 f0bd 560e e9bd 5700 7ebd
000002f0: 851e 19bd 351c a33d 1770 103e 0d2d 963d
00000300: fe2d 963d 4d49 8a3d 35ac 05bd 9506 b6bc
00000310: a21d 923d 7c28 c2bd 78b9 af3d 5a0e 0a3d
00000320: dd92 0a3e 8a1e d63d f9e3 a1bc 9a22 54bc
00000330: 4578 0bbe 81c3 993d b584 dabd b7f4 523d
00000340: 2409 b83d 85f1 ffbd 4dbc 013e 1aa3 e3bc
00000350: 42ae 79bc 0a32 81bb 55f6 b6bc 0a7f e7bd
00000360: 38cb 73bc fb10 4a3d caf6 d53d 69ca 9b3d
00000370: ec6a cdbd f0c1 cb3d 7f22 9f3c 9aa3 943d
00000380: 280e aebd b51e 1e3c c82e 2bbe fcc1 ac3a
00000390: edfb d0bd 1a49 1dbd 6be4 e5bd cda5 6cbd
000003a0: bfea 0f3c 64d4 e73d 8678 27bd d0cb 07be
000003b0: 411a f83d 7ee7 72bd b146 b9bc b049 b53d
000003c0: cc09 013e 1ec1 fcbd 0581 10bc 6fb5 bfbd
000003d0: 3c3f 8abd 670f 28be ae55 d53c 0d75 0c3d
000003e0: 73eb 84ba 9b4e 9ebb d35e 04be bc55 8dbd
000003f0: 2f26 4c3d 2bfc e93c 8536 15be 3bde 383d

lstm.weight_hh_l0 f4 [256, 64]
0.039185453 -0.12279024 -0.09228948 0.07624045 0.16574925 0.060047183 -0.08863322 -0.052070152
0.044763133 -0.1533679 -0.15964063 0.053617418 -0.059600916 -0.13772738 -0.13938454 0.13060711
0.07401398 0.059403494 -0.122409485 0.095216006 -0.0039845915 -0.09724112 0.063813075 0.1290456
-0.103580415 0.093004525 0.023867978 0.15108797 -0.08726265 0.021493578 0.032152258 -0.14044231
-0.02101758 0.07402665 -0.0136086345 -0.03120153 0.11222193 -0.020706234 0.120765336 0.09431106
0.07895964 -0.04439258 -0.113312356 0.0920205 0.10600612 -0.06600264 0.06474503 -0.0060660695
0.11056821 -0.119091995 -0.03835988 -0.12095212 -0.045289345 -0.0715215 0.009364921 -0.018943151
-0.11145442 0.14972624 -0.00017396573 0.1319339 0.07950678 -0.12452098 -0.013323855 0.043800943
-0.051854726 0.0763533 0.024614114 -0.020045245 0.06599354 0.07776744 -0.07829715 0.14289014
-0.067349054 -0.06872267 -0.10029798 0.13012314 0.0795279 0.060172644 0.08502548 -0.00164523
0.011936672 -0.0123684695 -0.050994236 -0.030403517 -0.049695693 -0.017494485 0.017166212 0.15080723
0.06949029 -0.025054561 -0.033031806 0.12012669 0.018284533 0.05086003 0.030148348 -0.028182779
-0.0115708625 -0.034615435 0.051941812 0.045336355 -0.04384066 0.003632814 -0.026162451 -0.060880307
-0.060656644 0.05991195 -0.12323551 -0.035949808 -0.019987438 -0.07187011 -0.094666466 -0.04879979
-0.08609085 0.029313935 -0.06372351 -0.030550739 0.10188324 0.06375451 -0.075255856 -0.048448287
-0.12823425 0.121976145 -0.007325685 -0.07336091 -0.08717632 -0.037628468 -0.0038438155 -0.052036136
0.07055578 0.0026524537 -0.06706438 0.032869082 0.019385612 0.087360114 0.069585755 0.0800472
0.12183453 -0.10765493 -0.045617446 -0.019288007 0.0697239 -0.09323909 -0.08196541 0.11650029
-0.018999198 0.024472613 -0.03438575 0.028900443 0.047536336 0.040630866 0.04355876 -0.028701045
-0.15558286 0.051974826 -0.015082247 0.151719 -0.0611689 0.10816546 -0.1590806 -0.06805232
-0.056342714 -0.0883059 0.016018007 0.100374505 0.048697196 0.005447757 0.14128666 0.100487895
-0.13457085 0.016175337 -0.0715728 0.07767914 0.018875508 0.013385097 0.07486241 -0.04691803
0.0071118264 0.028180385 0.018738432 0.04954715 0.16456552 0.014085725 -0.1159495 -0.061406534
-0.014481281 -0.031662155 -0.10406536 -0.001012044 0.11131735 -0.11162867 0.074245006 0.050525486
-0.049185704 0.03282458 -0.040109124 -0.09657353 0.018943349 0.0016544159 -0.100237474 -0.07556295
0.10839885 -0.036405165 0.08657969 0.054760154 -0.0025991064 -0.020579208 -0.022795165 -0.046995502
0.009961591 -0.03936794 -0.09419276 -0.006481465 -0.074874476 0.015585153 -0.038840547 0.012896447
0.032329507 -0.059286088 -0.1376593 0.07135324 -0.055914808 -0.021238634 -0.022429109 -0.04746287
0.019331025 -0.09552699 0.024393633 -0.05413897 0.11487665 -0.049691718 0.102196515 0.07426443
-0.011534778 -0.06135298 -0.0066993544 0.032837648 -0.0145588005 0.09645167 0.067462154 0.03696796
0.14582433 -0.046898965 0.056951467 0.059649482 0.027240418 -0.06578948 0.037420046 0.02023831
0.085242674 0.048084788 0.023488594 0.039603475 -0.058067877 -0.061913773 0.119795844 0.143226
00000000: ed80 203d 7379 fbbd 4402 bdbd f423 9c3d
00000010: 2cba 293e 09f4 753d 5585 b5bd 8347 55bd
00000020: 8c59 373d 7a0c 1dbe d578 23be f09d 5b3d
00000030: 1720 74bd 6808 0dbe d2ba 0ebe dfbd 053e
00000040: a494 973d 1451 733d d3b1 fabd 9c00 c33d
00000050: 2d91 82bb 5a26 c7bd 6eb0 823d 8824 043e
00000060: f821 d4bd 2879 be3d c786 c33c ceb6 1a3e
00000070: c3b6 b2bd 4d13 b03c 16b2 033d 1cd0 0fbe
00000080: 0f2d acbc 499b 973d c0f6 5ebc 5a9a ffbc
00000090: 9cd4 e53d 1fa0 a9bc d153 f73d 2826 c13d
000000a0: 97b5 a13d fed4 35bd 4f10 e8bd 3e75 bc3d
000000b0: bd19 d93d 642c 87bd 0b99 843d e1c5 c6bb
000000c0: 9671 e23d 81e6 f3bd 401f 1dbd bfb5 f7bd
000000d0: 5281 39bd dd79 92bd 536f 193c ab2e 9bbc
000000e0: 3742 e4bd d651 193e 926a 36b9 ae19 073e
000000f0: 73d4 a23d db04 ffbd 4c4c 5abc 9e68 333d
00000100: 9f65 54bd 1e5f 9c3d 8aa3 c93c ed35 a4bc
00000110: 9f27 873d 8944 9f3d 425a a0bd cb51 123e
00000120: 4dee 89bd 79be 8cbd 0769 cdbd 003f 053e
00000130: 86df a23d 9777 763d d721 ae3d c2a4 d7ba
00000140: 0892 433c 1fa5 4abc 55df 50bd cc10 f9bc
00000150: b68d 4bbd 9850 8fbc 28a0 8c3c 366d 1a3e
00000160: ed50 8e3d 393f cdbc 5c4c 07bd fb04 f63d
00000170: 72c9 953c 9b52 503d abf9 f63c 92df e6bc
00000180: b793 3dbc eac8 0dbd f0c0 543d 9db2 393d
00000190: 4492 33bd 8114 6e3b a352 d6bc a15d 79bd
000001a0: 1a73 78bd 3c66 753d e662 fcbd 1b40 13bd
000001b0: b2bc a3bc a330 93bd 7ee0 c1bd 4ae2 47bd
000001c0: 6650 b0bd c723 f03c 7981 82bd 8b45 fabc
000001d0: 29a8 d03d b991 823d be1f 9abd b671 46bd
000001e0: d74f 03be a1ce f93d 4d0c f0bb 3f3e 96bd
000001f0: 8089 b2bd 4f20 1abd 86e8 7bbb d823 55bd
00000200: 8c7f 903d cad4 2d3b 0d59 89bd bba1 063d
00000210: 93ce 9e3c dce9 b23d fa82 8e3d c9ef a33d
00000220: 6284 f93d 307a dcbd 5cd9 3abd e201 9ebc
00000230: 67cb 8e3d 23f4 bebd 7bdd a7bd b497 ee3d
00000240: 35a4 9bbc ca7a c83c 12d8 0cbd 9fc0 ec3c
00000250: 76b5 423d 8d6c 263d ac6a 323d 741e ebbc
00000260: 1d51 1fbe 8ee3 543d 871b 77bc 3a5c 1b3e
00000270: 3e8c 7abd da85 dd3d 06e6 22be 045f 8bbd
00000280: 9ec7 66bd b9d9 b4bd 3238 833c 2691 cd3d
00000290: b676 473d 1983 b23b 73ad 103e 99cc cd3d
000002a0: f1cc 09be 2482 843c c394 92bd 3e16 9f3d
000002b0: cfa0 9a3c 2a4d 5b3c 7751 993d 1f2d 40bd
000002c0: 530a e93b 8dda e63c 5781 993c f4f1 4a3d
000002d0: dd83 283e d0c7 663c ee76 edbd 6b85 7bbd
000002e0: e542 6dbc 2db0 01bd 3820 d5bd 90a6 84ba
000002f0: 5afa e33d 929d e4bd c40d 983d d0f3 4e3d
00000300: f376 49bd 1173 063d 7749 24bd 58c8 c5bd
00000310: 152f 9b3c fcd8 d83a 4e49 cdbd bfc0 9abd
00000320: 3700 de3d 951d 15bd b150 b13d 2f4c 603d
00000330: c555 2abb ba95 a8bc edbc babc 5b7e 40bd
00000340: f135 233c 4740 21bd 22e8 c0bd 7862 d4bb
00000350: ca57 99bd df58 7f3c 4417 1fbd 9f4b 533c
00000360: f26b 043d f8d5 72bd 8ff6 0cbe a621 923d
00000370: ed06 65bd a5fc adbc 40bd b7bc 6d68 42bd
00000380: 195c 9e3c a8a3 c3bd 28d5 c73c d3c0 5dbd
00000390: 7344 eb3d 8b89 4bbd 684c d13d f317 983d
000003a0: 5efc 3cbc 434d 7bbd 4286 dbbb c580 063d
000003b0: 0988 6ebc 7488 c53d 9929 8a3d b76b 173d
000003c0: f952 153e 2119 40bd f145 693d 0453 743d
000003d0: 4c27 df3c a3bc 86bd c345 193d d0ca a53c
000003e0: b693 ae3d 8ef4 443d 276b c03c 4137 223d
000003f0: 95d8 6dbd 4c99 7dbd 8657 f53d d6a9 123e

lstm.bias_ih_l0 f4 [256]
0.0060695657 0.079011574 -0.06876924 0.09607634 0.075816736 0.116707936 0.057400316 0.024680963
0.01576975 0.004128428 0.08953001 0.08367755 -0.010902856 -0.03183351 -0.039681043 0.0785467
0.115904965 0.013339202 0.07972706 -0.07930351 -0.013307209 0.103494965 8.982356e-05 0.05338665
0.11551546 0.09242901 0.101378866 -0.0058490695 -0.037264064 0.07300645 0.14616212 0.06842294
0.02605427 0.10598747 0.063932925 -0.042458583 0.00070462935 0.114436395 -0.07973488 -0.043948255
-0.06436626 0.111975096 0.086561896 -0.039435294 0.01656083 0.0024176522 0.0060115578 -0.0052552195
0.04896293 0.16615456 0.056317553 0.08673053 -0.055717744 0.10104082 -0.0022312896 0.07475884
0.1335993 -0.06186758 0.0027999345 -0.001800319 -0.05879645 0.08060336 0.031475555 -0.016423505
0.09805439 0.05791016 -0.037853967 0.043495856 0.13042398 -0.089568615 -0.052512404 0.073545426
0.14036338 0.057277463 -0.016487163 0.14047009 -0.0695742 -0.008098435 0.015451576 0.09514705
0.06354676 0.13096651 -0.008384274 0.06309779 0.09289087 0.08205295 0.06125383 0.106909364
-0.05352781 -0.06778873 -0.07298054 -0.04451632 0.0129553145 -0.049445923 0.08964961 0.05941337
0.06083304 -0.075669244 -0.012044339 0.08265159 -0.070473604 -0.081601694 0.032094017 0.09088299
0.016339371 0.016120987 0.06481411 0.0104377335 -0.040441763 -0.11592491 0.10470041 -0.09710497
0.07689093 0.091731936 0.059705928 0.12135161 -0.099253446 0.15945591 0.114083104 0.050906647
0.03245346 -0.09175619 0.052379265 0.10952027 -0.113101415 0.04059319 -0.03641522 0.13413234
-0.1205043 0.12304566 -0.059407502 -0.02038245 0.11276134 0.13620226 -0.13245134 0.11918695
0.10748224 -0.02760811 -0.12081659 0.045831088 0.1262536 0.014648398 0.09512396 0.013674381
0.07487311 -0.07624812 -0.15264505 -0.090271406 0.10418865 0.12162081 -0.1317491 0.015521135
-0.028319681 -0.047672063 0.069978185 0.13019244 -0.02410878 0.045486044 -0.06384175 -0.1256772
0.079479575 -0.11980433 -0.031166099 0.0139132645 -0.011758484 -0.13388754 0.12202239 0.06712018
-0.04871681 -0.07054998 -0.07454254 0.039559532 -0.10210879 0.121168226 -0.021728033 -0.025218384
0.09999679 0.026409067 0.04401808 -0.020498803 0.10113692 0.13247207 0.024520943 -0.03170187
-0.11507274 0.113997295 0.0684177 0.018029138 0.020416185 0.014953557 0.032338478 0.11519304
-0.04184865 -0.05257122 -0.053649656 -0.01012854 -0.07265894 -0.085836716 -0.04914369 0.07928808
0.1511938 -0.108951576 0.12863046 0.07476884 0.10753433 -0.08621945 0.124387726 0.06705238
0.07646251 0.06775617 0.093914986 0.13171376 -0.07817015 0.05759389 -0.06970002 0.05401077
0.030303158 0.04748315 -0.019748826 0.030849343 -0.013583582 -0.095514216 -0.014764202 0.052991826
0.16246222 0.060057122 0.06040891 0.049748246 0.052477453 -0.008738063 -0.0029809598 -0.07818444
0.13555051 -0.08000656 -0.08615925 -0.06486737 0.075386345 -0.05728752 -0.045492873 0.004814651
0.017784031 -0.03903399 0.0046471762 0.08484357 0.061302 -0.06996205 -0.078813806 0.113758564
-0.030365447 -0.06962108 0.09340734 0.069689475 0.025159888 -0.0154262185 -0.009606944 0.0011303043
00000000: 35e3 c63b d2d0 a13d e3d6 8cbd acc3 c43d
00000010: ce45 9b3d 9204 ef3d 981c 6b3d bb2f ca3c
00000020: 902f 813c c447 873b 835b b73d 235f ab3d
00000030: e4a1 32bc db63 02bd 9788 22bd 18dd a03d
00000040: 955f ed3d ab8c 5a3c f147 a33d e169 a2bd
00000050: 7b06 5abc 2bf5 d33d a85f bc38 f6ab 5a3d
00000060: 5f93 ec3d 6c4b bd3d b99f cf3d 8da9 bfbb
00000070: 34a2 18bd 6884 953d 86ab 153e 5421 8c3d
00000080: c46f d53c f50f d93d 44ef 823d 0de9 2dbd
00000090: e0b6 383a a15d ea3d 0a4c a3bd 1603 34bd
000000a0: 75d2 83bd 3353 e53d 5d47 b13d e786 21bd
000000b0: 94aa 873c 7971 1e3b 9afc c43b fa33 acbb
000000c0: 5a8d 483d 6c24 2a3e 3cad 663d c79f b13d
000000d0: 4a38 64bd 7dee ce3d d43a 12bb 2a1b 993d
000000e0: 41ce 083e dc68 7dbd 1b7f 373b aef8 ebba
000000f0: 8cd4 70bd 6013 a53d 83ec 003d 968a 86bc
00000100: bdd0 c83d 3433 6d3d c30c 1bbd b628 323d
00000110: dd8d 053e c06f b7bd 3f17 57bd fc9e 963d
00000120: 6bbb 0f3e c69b 6a3d 1610 87bc 64d7 0f3e
00000130: eb7c 8ebd 4caf 04bc 9b28 7d3c 75dc c23d
00000140: ce24 823d 161c 063e 325e 09bc 6a39 813d
00000150: 923d be3d 610b a83d 4ce5 7a3d 4cf3 da3d
00000160: fa3f 5bbd d1d4 8abd d276 95bd bf56 36bd
00000170: 8742 543c cf87 4abd 379a b73d 6f5b 733d
00000180: 112c 793d 7af8 9abd 9f55 45bc 3d45 a93d
00000190: 7754 90bd ca1e a7bd 0475 033d dc20 ba3d
000001a0: 25da 853c 2910 843c 43bd 843d 0703 2b3c
000001b0: 43a6 25bd 0a6a edbd 2b6d d63d f8de c6bd
000001c0: fe78 9d3d f4dd bb3d 348e 743d 3187 f83d
000001d0: 6445 cbbd 6948 233e 67a4 e93d 7d83 503d
000001e0: ebed 043d abea bbbd a48b 563d 2a4c e03d
000001f0: b7a1 e7bd 0b45 263d 2028 15bd fd59 093e
00000200: f5ca f6bd 5dff fb3d 4855 73bd 19f9 a6bc
00000210: 6bef e63d 9b78 0b3e 53a1 07be 4a18 f43d
00000220: a61f dc3d 672a e2bc b06e f7bd 61b9 3b3d
00000230: a048 013e d6ff 6f3c 5ad0 c23d 830a 603c
00000240: 1357 993d f927 9cbd fc4e 1cbe 37e0 b8bd
00000250: dc60 d53d 5514 f93d 3ce9 06be 5c4c 7e3c
00000260: adfe e7bc c843 43bd b950 8f3d 2b51 053e
00000270: c77f c5bc 934f 3a3d 77bf 82bd 86b1 00be
00000280: 30c6 a23d f95b f5bd 0c50 ffbc 76f4 633c
00000290: a8a6 40bc d119 09be e0e6 f93d 4e76 893d
000002a0: 478b 47bd 827c 90bd c2a9 98bd 2d09 223d
000002b0: 6a1e d1bd 0c27 f83d fdfe b1bc c996 cebc
000002c0: 1ecb cc3d d457 d83c 4d4c 343d 1bed a7bc
000002d0: e020 cf3d c2a6 073e 25e0 c83c d2d9 01bd
000002e0: 42ab ebbd 6a77 e93d 941e 8c3d d8b1 933c
000002f0: d83f a73c c4ff 743c 5a75 043d 54ea eb3d
00000300: 7d69 2bbd eb54 57bd bebf 5bbd 2df2 25bc
00000310: 36ce 94bd 29cb afbd e54a 49bd ca61 a23d
00000320: 8cd2 1a3e 0122 dfbd b4b7 033e 6820 993d
00000330: f53a dc3d d393 b0bd febe fe3d c252 893d
00000340: 6098 9c3d bfc3 8a3d 8056 c03d f9df 063e
00000350: ac17 a0bd 92e7 6b3d e2be 8ebd 663a 5d3d
00000360: 543e f83c b17d 423d 4ac8 a1bc c3b7 fc3c
00000370: ac8d 5ebc f59c c3bd 8de5 71bc f50d 593d
00000380: 7f5c 263e 75fe 753d 556f 773d d1c4 4b3d
00000390: 99f2 563d 182a 0fbc 355c 43bb 2a1f a0bd
000003a0: c1cd 0a3e 7bda a3bd 4374 b0bd 2fd9 84bd
000003b0: 2864 9a3d 52a6 6abd bc56 3abd 38c4 9d3b
000003c0: d1af 913c 1be2 1fbd 5747 983b 77c2 ad3d
000003d0: ce17 7b3d 4348 8fbd 2269 a1bd 40fa e83d
000003e0: f5c0 f8bc 7f95 8ebd 594c bf3d 5bb9 8e3d
000003f0: 1c1c ce3c 40be 7cbc 7266 1dbc b826 943a

lstm.bias_hh_l0 f4 [256]
0.037598155 -0.06928611 0.098986365 -0.065913625 0.043714304 -0.07123634 0.10869853 0.03281694
-0.026296366 -0.044275355 0.051797464 -0.036178406 0.1357567 0.056549307 0.055562712 -0.025112247
0.075559616 0.04675359 -0.037462506 -0.09451718 -0.018404532 -0.082117654 0.13500737 0.02561899
0.07881478 -0.10243108 0.014999113 0.06557285 -0.020791871 0.03101765 0.09005621 0.04757559
0.11294572 -0.043110892 -0.072120205 0.12302791 0.083990924 -0.0986331 -0.05135541 -0.07599954
0.08113482 -0.021903729 0.010421051 -0.055029407 0.15249857 -0.08493195 -0.027728138 0.09885946
-0.07858922 0.15117906 0.061129693 0.14348172 -0.015567555 0.1352002 0.026428774 0.11123944
0.020683337 -0.04551468 0.11524852 -0.023142204 0.03650354 0.026019089 -0.08167873 0.066935875
0.045552496 0.0029997425 -0.026550008 0.09132111 0.08813791 -0.090784416 -0.023576995 -0.09989297
0.056124162 0.009395045 0.027323177 -0.05948109 0.101803325 -0.09163199 -0.028374154 0.023352884
0.002466188 0.12583196 -0.051589336 0.040669266 0.108467765 0.0890592 -0.086556874 0.02147382
0.07667682 -0.0480343 0.04931653 0.03959389 0.019089185 0.15483546 0.11052916 0.10036165
0.08963669 -0.064811505 -0.08183543 0.11036164 0.12743497 0.063131966 0.04716924 -0.06846978
0.002681208 -0.07356823 0.045277722 0.022090955 -0.013903715 0.05876166 0.05306594 0.13155487
-0.01963474 0.0972241 0.08122693 0.09517139 0.051835157 -0.07491843 0.0075764954 0.103732444
0.10000922 0.12130988 0.014757341 -0.07459359 0.07998704 0.024974372 -0.041741673 0.075820535
0.057699848 -0.07556622 0.09027211 0.0923274 0.04110999 0.088284396 0.020505857 -0.014129951
-0.11606756 -0.056484472 -0.08473071 0.056906637 0.017977392 -0.122702956 -0.03552802 -0.008994031
-0.07282479 -0.110765405 -0.09011428 0.09470586 0.10344311 -0.06450403 0.05822831 0.054098316
-0.097059995 0.1159612 -0.11410751 -0.078244686 -0.09711288 -0.008097822 -0.05907819 0.06509913
-0.00031175357 0.09316218 0.09522151 0.09692836 0.036746565 -0.07655503 -0.058552388 0.0016976317
-0.116989344 -0.06735929 -0.037967872 0.12756692 -0.020645818 0.020449141 0.081850275 0.079543464
0.05097833 -0.099171676 -0.08219325 -0.12894751 0.13028847 -0.031325717 -0.10565226 0.12890306
-0.028837312 0.025392082 -0.105545714 0.042523235 0.038831614 -0.09873425 0.097271025 0.038213044
0.115537435 0.15728691 0.0381255 0.0770027 0.10679574 0.032328144 0.007046328 0.15189172
0.16449517 -0.052751124 0.13012289 -0.008098592 -0.04720496 0.11986754 0.09795293 0.15396437
0.08883079 -0.028488243 0.034527745 0.04033557 0.0051731146 0.070515685 0.08187991 0.14828254
0.15749113 0.04736607 0.053397924 0.08932452 -0.01313516 0.0789945 0.13458006 0.093611985
0.032464664 -0.062493704 0.069229834 -0.080858976 0.15950736 0.08635352 -0.08631587 0.14889733
-0.032455772 0.111070134 -0.050387945 0.0055194143 -0.02983094 0.0076149986 0.038233306 0.017489368
0.103224516 -0.07552107 -0.025048392 0.11766449 0.036807287 0.15217927 -0.08501852 -0.06724262
0.08868351 0.07856442 -0.078990705 -0.10577445 -0.017502494 0.050479982 -0.029471803 0.08792933
00000000: 8600 1a3d e0e5 8dbd 5db9 ca3d b9fd 86bd
00000010: c50d 333d 5ce4 91bd 569d de3d 0e6b 063d
00000020: 7a6b d7bc 135a 35bd 9429 543d cf2f 14bd
00000030: ce03 0b3e 3fa0 673d ba95 633d 33b8 cdbc
00000040: 00bf 9a3d b180 3f3d 4972 19bd 3992 c1bd
00000050: 1ac5 96bc 4d2d a8bd 5f3f 0a3e ebde d13c
00000060: a569 a13d 63c7 d1bd d7be 753c 0f4b 863d
00000070: b753 aabc ba18 fe3c 646f b83d 9fde 423d
00000080: 1650 e73d 0c95 30bd c2b3 93bd 0ff6 fb3d
00000090: 6f03 ac3d 2700 cabd 0d5a 52bd a6a5 9bbd
000000a0: 032a a63d 736f b3bc 0ebd 2a3c 8466 61bd
000000b0: 9628 1c3e cdf0 adbd 1f26 e3bc d476 ca3d
000000c0: 63f3 a0bd afce 1a3e 2163 7a3d dfec 123e
000000d0: 0f0f 7fbc ec71 0a3e 2881 d83c 81d1 e33d
000000e0: 1a70 a93c 9a6d 3abd 6b07 ec3d b894 bdbc
000000f0: bc84 153d fc25 d53c 2e47 a7bd ad15 893d
00000100: 4195 3a3d 5497 443b 677f d9bc 9006 bb3d
00000110: a681 b43d 2eed b9bd 8b24 c1bc af94 ccbd
00000120: 73e2 653d aded 193c dbd4 df3c 72a2 73bd
00000130: 437e d03d 8ea9 bbbd ea70 e8bc 8c4e bf3c
00000140: c59f 213b 18da 003e 574f 53bd d194 263d
00000150: 5924 de3d ab64 b63d bb44 b1bd dde9 af3c
00000160: bd08 9d3d 9dbf 44bd 2100 4a3d 342d 223d
00000170: ec60 9c3c 308d 1e3e 1d5d e23d 698a cd3d
00000180: 7193 b73d e5bb 84bd 5599 a7bd 4905 e23d
00000190: 507e 023e 554b 813d 8834 413d e239 8cbd
000001a0: 35b7 2f3b f1aa 96bd 2275 393d 17f8 b43c
000001b0: 68cc 63bc 11b0 703d ac5b 593d 52b6 063e
000001c0: 09d9 a0bc 6e1d c73d 4e5a a63d 38e9 c23d
000001d0: 1a51 543d d56e 99bd 4044 f83b ad71 d43d
000001e0: a2d1 cc3d 5071 f83d c6c8 713c 86c4 98bd
000001f0: 3fd0 a33d 0e97 cc3c 51f9 2abd cc47 9b3d
00000200: ad56 6c3d 76c2 9abd 96e0 b83d 2616 bd3d
00000210: f362 283d 73ce b43d e6fb a73c 4f81 67bc
00000220: d4b4 edbd 435c 67bd 4b87 adbd ef16 693d
00000230: 5345 933c b04b fbbd d485 11bd b35b 13bc
00000240: 2a25 95bd f9d8 e2bd d68d b8bd 25f5 c13d
00000250: fbd9 d33d b01a 84bd cf80 6e3d 3296 5d3d
00000260: 64c7 c6bd 117d ed3d 33b1 e9bd c03e a0bd
00000270: 1ee3 c6bd baac 04bc f9fb 71bd b152 853d
00000280: db72 a3b9 d0cb be3d 7f03 c33d 6082 c63d
00000290: 9183 163d e2c8 9cbd a1d4 6fbd 1183 de3a
000002a0: 1c98 efbd abf3 89bd 3384 1bbd e7a0 023e
000002b0: 6b21 a9bc f584 a73c 1ea1 a73d afe7 a23d
000002c0: a7ce 503d 851a cbbd ef54 a8bd d10a 04be
000002d0: 576a 053e 654f 00bd 3660 d8bd 2aff 033e
000002e0: 3a3c ecbc 0e03 d03c 5a28 d8bd d82c 2e3d
000002f0: e60d 1f3d 2f35 cabd 0836 c73d 4885 1c3d
00000300: e49e ec3d d20f 213e 7c29 1c3d 97b3 9d3d
00000310: bab7 da3d 846a 043d e2e4 e63b 8189 1b3e
00000320: 6c71 283e 9011 58bd ef3e 053e f5af 04bc
00000330: fd59 41bd 1d7d f53d 8c9b c83d d6a8 1d3e
00000340: ebec b53d 2d60 e9bc f76c 0d3d e936 253d
00000350: 3b83 a93b 876a 903d a7b0 a73d 61d7 173e
00000360: 5b45 213e ed02 423d c8b7 5a3d c6ef b63d
00000370: db34 57bc dec7 a13d 5bcf 093e a4b7 bf3d
00000380: abf9 043d 66f9 7fbd 5fc8 8d3d 6499 a5bd
00000390: e655 233e 1dda b03d 60c6 b0bd 8b78 183e
000003a0: 58f0 04bd bd78 e33d 9763 4ebd 34dc b43b
000003b0: 0460 f4bc 3d87 f93b 879a 1c3d dd45 8f3c
000003c0: 6067 d33d caaa 9abd 4932 cdbc 15fa f03d
000003d0: 3dc3 163d e2d4 1b3e 311e aebd 80b6 89bd
000003e0: b39f b53d 62e6 a03d e1c5 a1bd 46a0 d8bd
000003f0: 6461 8fbc 19c4 4e3d da6e f1bc 4b14 b43d

lstm.weight_ih_l1 f4 [256, 64]
-0.054895006 -0.0559943 -0.059394572 0.07551461 0.10048911 -0.029081188 0.06048562 0.14942957
0.10963225 -0.044624627 -0.14153497 0.054865696 0.081805676 0.103049845 0.096876085 0.042247538
-0.1135998 -0.029315814 -0.06493717 0.05077034 0.04502393 0.061021186 0.0018753242 -0.08723977
0.06272437 0.09638124 0.03979679 0.13881409 -0.10186531 0.006992534 0.06706439 0.08210206
-0.0593134 -0.15459713 0.049984362 0.06752149 0.08170032 0.05519606 0.15703796 0.03886025
-0.11767451 0.03715138 -0.06676377 0.051247712 -0.013324852 0.15889373 -0.06178695 -0.02889392
0.08651732 -0.04974597 -0.069148004 0.031839535 0.10596086 -0.01773467 -0.010200916 -0.07097082
-0.013697315 0.068251185 -0.032762486 0.022945678 -0.04311744 0.11563375 0.068663836 -0.04192255
0.008081107 0.14721014 0.06350259 -0.11641021 0.032327697 0.10722111 -0.039497066 0.08373051
0.025173225 -0.00018828543 -0.12096981 0.05804654 -0.011287809 -0.013647267 -0.060224187 -0.07664974
-0.0021330873 0.07667361 -0.13173372 -0.034616973 0.11680611 -0.016173298 0.07182062 0.11251781
-0.029088875 -0.1608514 -0.042004533 0.003951882 -0.00015145696 -0.088652626 -0.030651553 -0.0054318965
-0.053912308 0.041367963 0.07927079 0.048944965 -0.1195935 -0.09731416 0.10567917 -0.058337357
0.023841709 -0.052725684 -0.030250544 0.020636356 -0.051736522 0.04033372 0.047401216 0.06831366
0.01924648 -0.04111351 0.053048912 -0.15844396 -0.073287666 0.0136489635 -0.03678697 0.045644056
0.042587735 0.15001994 -0.12944776 0.07160845 -0.020573338 -0.09152877 0.074298345 0.14606456
-0.029950738 -0.106207676 -0.0042945645 -0.066387184 0.005184861 -0.032194495 -0.03599087 -0.07100283
0.038175724 -0.0754509 5.3998927e-05 0.13980699 -0.007149834 0.055866506 -0.044133905 -0.03869086
0.004606074 -0.05823965 -0.12800553 -0.03147893 0.035192415 0.104332924 -0.07408217 0.080229916
-0.10006825 -0.004319753 -0.08762432 0.038125057 0.029263318 0.16620913 -0.112853594 -0.026949884
0.034085028 -0.016025273 -0.04755956 -0.041849103 -0.01934038 -0.02739109 -0.03748034 0.011892249
-0.08354095 -0.16131203 0.03965849 0.11962647 -0.055908356 0.12661274 0.04145242 0.11519081
-0.018454932 -0.00038681438 -0.109121 0.008307336 0.029344965 0.024816865 0.056232333 0.09730437
0.04306351 0.1387995 -0.035642106 0.07518597 0.08168652 -0.13240744 0.13942866 0.015395615
-0.08737595 0.042496532 -0.05540469 -0.005176983 0.15071502 0.07791883 0.014687874 0.027574774
-0.059898853 0.04275294 -0.039245516 0.12911485 0.04706946 -0.033082295 -0.0807241 0.0057293084
-0.022739125 0.013226145 0.03505163 -0.09786776 0.022849835 0.12113913 -0.086461835 0.05022834
0.08714966 -0.120990396 0.029084453 0.1459858 0.01114566 0.047393627 0.031035013 0.05880576
0.07264164 0.0033208304 0.11765883 0.1309774 0.037367564 -0.03151445 0.15583675 0.098006986
0.06457926 -0.031328186 0.041306797 0.028798701 0.038289167 0.1092756 0.030529244 0.05379646
0.14147237 -0.016136281 -0.03596929 0.04944099 -0.06220561 -0.04044121 0.041108817 0.043517966
0.069370106 0.1134827 0.012163606 -0.031479977 0.12193479 -0.09422298 0.12090998 0.07001909
00000000: 96d9 60bd 475a 65bd b947 73bd 67a7 9a3d
00000010: 3ccd cd3d ac3b eebc c5bf 773d 1104 193e
00000020: e086 e03d 50c8 36bd 8bee 10be daba 603d
00000030: bc89 a73d cc0b d33d f866 c63d c10b 2d3d
00000040: 03a7 e8bd b827 f0bc c7fd 84bd 8ff4 4f3d
00000050: 036b 383d 5af1 793d 70cd f53a c4aa b2bd
00000060: a275 803d 8763 c53d f501 233d 4825 0e3e
00000070: c29e d0bd a021 e53b 0e59 893d 2025 a83d
00000080: 9cf2 72bd b64e 1ebe 67bc 4c3d b548 8a3d
00000090: 7f52 a73d 4415 623d 8fce 203e ed2b 1f3d
000000a0: 55ff f0bd 0c2c 183d 72bb 88bd 1fe9 513d
000000b0: 7b50 5abc 0ab5 223e 5014 7dbd f1b2 ecbc
000000c0: fe2f b13d 6ec2 4bbd 789d 8dbd 2c6a 023d
000000d0: 0202 d93d 4c48 91bc be21 27bc 2659 91bd
000000e0: b46a 60bc 47c7 8b3d f531 06bd 93f8 bb3c
000000f0: ea9b 30bd 63d1 ec3d a09f 8c3d fbb6 2bbd
00000100: 9f66 043c 41be 163e a50d 823d 7a68 eebd
00000110: 0c6a 043d be96 db3d adc7 21bd e77a ab3d
00000120: 1438 ce3c 7c6e 45b9 05bf f7bd 35c2 6d3d
00000130: 81f0 38bc c998 5fbc a3ad 76bd 8afa 9cbd
00000140: 44cb 0bbb 0e07 9d3d 34e5 06be 87ca 0dbd
00000150: 0b38 ef3d dd7d 84bc b016 933d bd6f e63d
00000160: cb4b eebc 3bb6 24be f20c 2cbd ca7e 813b
00000170: 6bd0 1eb9 828f b5bd f718 fbbc 0dfe b1bb
00000180: 27d3 5cbd 7471 293d b958 a23d 847a 483d
00000190: 70ed f4bd a54c c7bd 526e d83d 27f3 6ebd
000001a0: b04f c33c e3f6 57bd fdcf f7bc 930d a93c
000001b0: ade9 53bd f934 253d c727 423d 08e8 8b3d
000001c0: cbaa 9d3c a466 28bd d149 593d 223f 22be
000001d0: d817 96bd e79f 5f3c efad 16bd 43f5 3a3d
000001e0: 7a70 2e3d d49e 193e f48d 04be 73a7 923d
000001f0: 6b89 a8bc 7073 bbbd bb29 983d f391 153e
00000200: 405b f5bc 6983 d9bd 6bb9 8cbb 01f6 87bd
00000210: c4e5 a93b 60de 03bd 2a6b 13bd ef69 91bd
00000220: 265e 1c3d 0086 9abd e87c 6238 9029 0f3e
00000230: 2849 eabb 47d4 643d c1c5 34bd 4f7a 1ebd
00000240: 8dee 963b b38c 6ebd e213 03be 0df0 00bd
00000250: ec25 103d 80ac d53d 65b8 97bd 954f a43d
00000260: 95f0 ccbd b78c 8dbb 6174 b3bd 0529 1c3d
00000270: a0b9 ef3c ba32 2a3e c91f e7bd 01c6 dcbc
00000280: be9c 0b3d 6f47 83bc d0cd 42bd f769 2bbd
00000290: b76f 9ebc 4763 e0bc fc84 19bd b5d7 423c
000002a0: 8517 abbd fb2e 25be f170 223d b9fe f43d
000002b0: 2900 65bd c5a6 013e 03ca 293d 29e9 eb3d
000002c0: cc2e 97bc 59cd cab9 d57a dfbd 7e1b 083c
000002d0: da64 f03c bd4c cb3c e053 663d 8347 c73d
000002e0: 5d63 303d 7521 0e3e 75fd 11bd 1afb 993d
000002f0: 434b a73d d195 07be 63c6 0e3e e43d 7c3c
00000300: 29f2 b2bd d810 2e3d 07f0 62bd aea3 a9bb
00000310: 0a55 1a3e e893 9f3d 69a5 703c 7ee4 e13c
00000320: 8058 75bd b51d 2f3d e8bf 20bd af36 043e
00000330: e8cb 403d 4d81 07bd ad52 a5bd ecbc bb3b
00000340: 6747 babc 79b2 583c 4c92 0f3d e46e c8bd
00000350: 942f bb3c cb17 f83d e712 b1bd 3bbc 4d3d
00000360: 857b b23d d0c9 f7bd 8542 ee3c 4d7d 153e
00000370: 499c 363c d21f 423d 243d fe3c 4fde 703d
00000380: 24c5 943d 4aa2 593b 1df7 f03d f11e 063e
00000390: bb0e 193d 4c15 01bd ab93 1f3e e3b7 c83d
000003a0: 2242 843d fc51 00bd 5131 293d 41eb eb3c
000003b0: 1ad5 1c3d e3cb df3d 7718 fa3c ad59 5c3d
000003c0: 22de 103e 3c30 84bc 8954 13bd a382 4a3d
000003d0: 4fcb 7ebd afa5 25bd b861 283d e53f 323d
000003e0: ea11 8e3d 9e69 e83d dc49 473c 26f1 00bd
000003f0: f2b8 f93d faf7 c0bd a79f f73d 2b66 8f3d

lstm.weight_hh_l1 f4 [256, 64]
0.112623386 0.021938644 0.10366826 0.14229707 0.1124908 0.095194384 0.020059425 -0.009813111
-0.054300662 -0.049691554 0.13086033 -0.00029851764 -0.084972456 -0.054371674 0.11917408 0.01815487
-0.06718688 -0.03658392 -0.0952985 -0.04661045 -0.11333162 -0.001421369 -0.029092954 0.032757167
-0.09581709 -0.013798969 0.021147586 0.0033897127 0.08110067 -0.112022124 0.059873458 -0.1493604
0.097931884 -0.12038235 0.09084362 -0.111164704 -0.06789892 -0.029097542 -0.12353991 0.06077501
-0.025382055 -0.11099405 -0.14474244 0.12497039 0.06956702 -0.1469925 -0.06533653 0.056864373
-0.0135621885 -0.024937896 -0.060247246 -0.0031927705 0.031006042 -0.012595856 0.089044824 0.12893745
0.14160301 -0.026065929 0.0010484176 0.15062436 -0.0731039 0.054197438 0.0829862 -0.056893624
-0.08256973 0.0758788 0.010805353 0.09040583 -0.057485938 -0.021355698 0.14007463 0.12787864
-0.107152514 0.10114284 0.010976438 -0.113734365 0.08431573 0.021714618 0.12200002 -0.082145065
-0.11688695 -0.0006873424 0.019687241 -0.11398745 -0.061816704 -0.02729836 -0.08080069 0.038295418
0.11418623 0.047132295 0.03764262 -0.13745494 -0.086454876 0.02393898 0.019213488 0.050175827
0.10270753 -0.12816864 0.06894001 0.0452523 0.043907635 -0.088644356 -0.03099177 0.012312559
-0.04009921 0.04666507 0.060441032 -0.11554751 -0.103511624 0.04770818 -0.00018120256 0.09630793
-0.005198353 -0.02524081 -0.008542231 0.0035569954 -0.029408751 -0.031346336 -0.13675554 0.06661265
-0.0044951914 0.06657776 -0.0026086816 0.08215618 -0.01419308 -0.12037721 -0.009183085 -0.052522212
-0.10309035 0.10592517 0.07149667 -0.032160897 0.14174776 -0.08348094 0.066235155 0.06963822
-0.051705703 -0.0006068712 0.1279011 -0.054104786 -0.15821521 -0.11706479 0.10996608 -0.08494544
-0.112646 0.1040149 0.04562327 -0.09558112 -0.16298287 0.123809524 -0.09787204 0.013093739
-0.04805452 -0.15308633 0.013109296 0.063385054 -0.0044564763 -0.16410942 -0.05588026 0.028586252
0.061707 -0.102879345 -0.10491067 0.07340879 -0.11499163 0.09694068 -0.056351945 -0.119353816
-0.01422599 -0.12189275 0.01336998 0.003435724 -0.030502921 -0.028521009 0.024520935 0.15806517
-0.10617056 0.06443661 -0.058106806 -0.02767662 0.08381735 -0.13832207 -0.152444 0.03233218
-0.062478222 0.06925441 -0.06690752 0.0022567087 -0.07632539 -0.11239794 -0.029808145 0.022581106
-0.09010305 0.025527272 0.08694103 0.03209613 0.15391608 -0.041307237 0.04981865 0.09794956
-0.052953687 0.01097233 -0.04943533 0.021986593 -0.07013995 0.08360835 -0.020351563 0.033856995
-0.12972131 -0.0075362483 -0.1618618 0.052811038 -0.007317722 0.009997822 0.0027731264 0.067603365
0.08737126 0.0047198916 0.087143525 -0.06689249 -0.01508681 -0.06892286 0.054242708 -0.041411728
-0.1250398 -0.12741065 -0.103399016 -0.023528932 -0.061651208 0.08749302 -0.10884184 -0.060596183
-0.012846809 -0.11946033 -0.0990096 -0.089036584 -0.016841963 -0.09445152 -0.0768192 0.09425543
-0.12051069 0.007794407 -0.06333814 -0.1137216 0.11965795 -0.030692793 -0.040902175 0.022208204
-0.007166582 0.023503158 -0.025409583 -0.087563686 -0.08617508 -0.07714918 -0.060217056 0.086356945
00000000: 17a7 e63d acb8 b33c 0650 d43d 53b6 113e
00000010: 9461 e63d 46f5 c23d aa53 a43c 2cc7 20bc
00000020: 5f6a 5ebd 5f89 4bbd 4000 063e 5c82 9cb9
00000030: 0a06 aebd d5b4 5ebd 8a11 f43d 86b9 943c
00000040: 4699 89bd 05d9 15bd dc2b c3bd 99ea 3ebd
00000050: 691a e8bd 3b4d baba 5954 eebc 612c 063d
00000060: c03b c4bd 1215 62bc b43d ad3c f125 5e3b
00000070: 1c18 a63d db6b e5bd df3d 753d eff1 18be
00000080: 8390 c83d 068b f6bd 380c ba3d 52aa e3bd
00000090: 970e 8bbd f85d eebc 7e02 fdbd 38ef 783d
000000a0: 07ee cfbc d950 e3bd 5d37 14be 7af0 ff3d
000000b0: 2779 8e3d 3485 16be 29cf 85bd 9eea 683d
000000c0: f133 5ebc 8f4a ccbc d1c5 76bd cd3d 51bb
000000d0: 6200 fe3c d95e 4ebc 225d b63d 2e08 043e
000000e0: 6100 113e 3788 d5bc 0f6b 893a 463d 1a3e
000000f0: 7fb7 95bd 22fe 5d3d abf4 a93d 4a09 69bd
00000100: 521a a9bd 5866 9b3d ef08 313c b126 b93d
00000110: 6076 6bbd 25f2 aebc b96f 0f3e 9ef2 023e
00000120: c772 dbbd fa23 cf3d 85d6 333c 90ed e8bd
00000130: baad ac3d dbe2 b13c 26db f93d ac3b a8bd
00000140: 6d62 efbd c52e 34ba 2347 a13c 4172 e9bd
00000150: 8333 7dbd cfa0 dfbc d57a a5bd a8db 1c3d
00000160: 78da e93d cb0d 413d 262f 1a3d fdc0 0cbe
00000170: 410f b1bd ae1b c43c 9b65 9d3c 2b85 4d3d
00000180: 5358 d23d a43e 03be 6c30 8d3d 7a5a 393d
00000190: 7ed8 333d 2c8b b5bd 74e2 fdbc 9eba 493c
000001a0: 123f 24bd df23 3f3d 0491 773d 2ca4 ecbd
000001b0: e7fd d3bd a769 433d 3101 3eb9 183d c53d
000001c0: f256 aabb d1c5 cebc b7f4 0bbc 7b1c 693b
000001d0: 9fea f0bc 0465 00bd a509 0cbe 376c 883d
000001e0: 664c 93bb ec59 883d 6af6 2abb 8041 a83d
000001f0: 188a 68bc 5488 f6bd a674 16bc 8821 57bd
00000200: 0921 d3bd 4cef d83d d96c 923d 25bb 03bd
00000210: 5326 113e 0ef8 aabd 4ca6 873d 7c9e 8e3d
00000220: 5cc9 53bd 7016 1fba 82f8 023e fb9c 5dbd
00000230: 2b03 22be aabf efbd e535 e13d e0f7 adbd
00000240: f2b2 e6bd c405 d53d 77df 3a3d 09c0 c3bd
00000250: fbe4 26be d98f fd3d 2371 c8bd 1f87 563c
00000260: d1d4 44bd aac2 1cbe 5fc8 563c 06d0 813d
00000270: a207 92bb 4d0c 28be b3e2 64bd b72d ea3c
00000280: 7bc0 7c3d 68b2 d2bd 68db d6bd 5957 963d
00000290: bb80 ebbd d688 c63d 4cd1 66bd c66f f4bd
000002a0: 2014 69bc e8a2 f9bd c30d 5b3c e229 613b
000002b0: 43e1 f9bc e4a4 e9bc 21e0 c83c d6db 213e
000002c0: f36f d9bd 57f7 833d 6701 6ebd 14ba e2bc
000002d0: 6ea8 ab3d 4da4 0dbe 481a 1cbe bf6e 043d
000002e0: 2ae9 7fbd 42d5 8d3d cf06 89bd 4ae5 133b
000002f0: 7c50 9cbd e430 e6bd 3630 f4bc 03fc b83c
00000300: f387 b8bd 921e d13c 240e b23d 3b77 033d
00000310: 2d9c 1d3e c731 29bd a40e 4c3d c799 c83d
00000320: f7e5 58bd 4ac5 333c b37c 4abd 3a1d b43c
00000330: 89a5 8fbd db3a ab3d 52b8 a6bc a2ad 0a3d
00000340: aad5 04be a2f2 f6bb 1abf 25be 6350 583d
00000350: 80c9 efbb e8cd 233c 57bd 353b a273 8a3d
00000360: b4ef b23d 52a9 9a3b 4e78 b23d eefe 88bd
00000370: ab2e 77bc 6e27 8dbd 9a2d 5e3d 589f 29bd
00000380: 6f0a 00be f077 02be ddc2 d3bd bfbf c0bc
00000390: fa85 7cbd 8a2f b33d 78e8 debd b433 78bd
000003a0: 6c7b 52bc 9ea7 f4bd 8cc5 cabd d058 b6bd
000003b0: 28f8 89bc cc6f c1bd 6253 9dbd fe08 c13d
000003c0: 4fce f6bd 3a68 ff3b 6db7 81bd dfe6 e8bd
000003d0: 3a0f f53d 746f fbbc 0a89 27bd fbed b53c
000003e0: a6d5 eabb b289 c03c c227 d0bc 9754 b3bd
000003f0: 8f7c b0bd 6400 9ebd 29a6 76bd e9db b03d

lstm.bias_ih_l1 f4 [256]
-0.0694435 0.06876022 -0.05442499 0.14345334 -0.116426125 -0.06790399 0.0458734 0.14764763
-0.05395781 -0.021407945 0.028238853 -0.0023634785 0.0842036 0.03499641 -0.026218029 0.14470036
0.07242211 -0.03610296 -0.04810405 -0.054968644 0.1459631 0.09299335 0.07395221 0.12661153
0.039677065 -0.06535266 -0.049411576 0.080761254 0.15831095 -0.0628853 0.10053281 -0.012106849
-0.07173206 0.021223491 -0.016141599 -0.1213823 -0.016457349 0.12855774 -0.021851247 -0.08220858
0.12708272 0.07662289 -0.0037601285 -0.008271464 0.018685129 -0.05455645 0.06545114 0.016163297
0.0076911612 -0.024418788 0.08785243 -0.056814574 -0.041374896 0.11986552 0.031395715 -0.006672551
-0.058724575 0.1594803 0.07278249 -0.012947022 -0.06364796 0.055957403 0.07320044 -0.051975187
-0.021350343 -0.010156967 0.03798251 0.04663482 -0.08250928 0.031401396 -0.085626915 -0.035860285
-0.09693301 0.10478684 -0.0451068 0.0683577 -0.06295166 0.012635951 0.022728711 0.07612548
-0.019393066 -0.07561144 -0.08176332 0.009569068 0.045046642 -0.015847221 -0.053564213 -0.052177474
0.06617952 -0.0138568245 0.02879815 -0.10596079 0.07203773 0.082879774 -0.07640951 0.07065357
0.08466048 0.15511103 -0.00097320904 0.052945547 0.06578477 -0.0034948755 0.10337297 0.14296801
0.05813011 -0.057130005 0.04495327 0.0680683 0.0124434475 -0.100989185 0.009407901 0.09166255
0.041430626 -0.03780036 0.03562331 0.10459883 0.123832375 0.13275602 0.05228469 -0.047897138
-0.09561667 0.08609825 -0.00047518918 -0.11320359 -0.010642354 0.12871024 -0.097018056 0.12992755
-0.025493981 0.109139115 -0.10585666 0.031680487 0.04588709 -0.09891434 -0.08408669 0.07599319
0.09527654 0.08401808 -0.050184134 -0.040314615 -0.04329712 0.021771701 -0.09930554 -0.06084028
0.062366683 -0.009698375 0.03466134 -0.077009596 0.11276835 0.117269315 -0.036332197 -0.08277826
0.045055304 0.06938324 -0.05733601 0.11181265 -0.075802706 0.023626802 0.00412596 -0.09346487
0.093853496 -0.06913976 -0.08718025 0.02065221 -0.045809187 0.041112795 -0.07913938 0.06925715
-0.029069263 -0.032411356 -0.063537724 -0.085121505 0.0066748206 -0.09211072 -0.039465357 0.039663237
-0.026780207 -0.047324244 0.09109895 -0.016081743 0.105422415 0.081596926 -0.11918534 0.0245509
-0.095361434 -0.04062537 -0.12203152 -0.012323301 0.08481181 -0.08839142 -0.014350931 0.13191563
-0.038112562 -0.011626133 0.029488286 0.02996284 0.022431595 -0.08158933 0.034114573 -0.043061633
0.099558994 -0.035358444 0.09080357 0.103166334 0.04868498 0.08782055 0.018613318 0.04798562
-0.087185755 0.107950054 0.037768733 0.0336278 0.13333903 0.087698646 0.06128443 0.091536984
-0.062524766 0.11180929 0.10002362 0.12562776 0.12321109 -0.034981392 0.059422668 0.13073197
0.0662636 -0.02588075 -0.0932744 0.10024612 -0.09846772 0.032837346 0.005087437 0.1437102
0.08982756 0.001222983 0.102743335 0.12647615 -0.061057106 -0.04236027 0.024441808 0.07854382
0.054374024 -0.05232187 0.005391308 0.004667337 0.10428275 0.069400296 -0.036714103 0.07513547
-0.11350704 0.06558064 0.12428691 -0.062888145 -0.040008795 0.12880127 0.11805032 -0.070925705
00000000: 6538 8ebd 29d2 8c3d bdec 5ebd 6fe5 123e
00000010: d270 eebd 3f11 8bbd bfe5 3b3d f130 173e
00000020: dd02 5dbd b75f afbc 2b55 e73c 97e4 1abb
00000030: f072 ac3d 6558 0f3d 31c7 d6bc 552c 143e
00000040: 0b52 943d b3e0 13bd c108 45bd cd26 61bd
00000050: 5a77 153e 4c73 be3d 4274 973d 74a6 013e
00000060: 6b84 223d 9ed7 85bd cb63 4abd 2866 a53d
00000070: 441c 223e 02ca 80bd 25e4 cd3d ce5b 46bc
00000080: 42e8 92bd e3dc ad3c 633b 84bc 4997 f8bd
00000090: 90d1 86bc a4a4 033e 6301 b3bc f95c a8bd
000000a0: f921 023e 76ec 9c3d 7d6c 76bb 0985 07bc
000000b0: 8e11 993c 9676 5fbd 3f0b 863d e468 843c
000000c0: 2306 fc3b e909 c8bc faeb b33d 66b6 68bd
000000d0: b978 29bd 0e7c f53d cb98 003d 6aa5 dabb
000000e0: 2e89 70bd ce4e 233e fc0e 953d bf1f 54bc
000000f0: dd59 82bd 9733 653d 1dea 953d efe3 54bd
00000100: eae6 aebc 6869 26bc 8c93 1b3d 2704 3f3d
00000110: a0fa a8bd c09e 003d 2a5d afbd 3ce2 12bd
00000120: d084 c6bd 7c9a d63d e8c1 38bd 1fff 8b3d
00000130: cdec 80bd 0507 4f3c 9031 ba3c ade7 9b3d
00000140: 35de 9ebc 2cda 9abd 8773 a7bd 95c7 1c3c
00000150: d482 383d 08d2 81bc 2666 5bbd 0cb8 55bd
00000160: 2189 873d bc07 63bc 19ea eb3c f801 d9bd
00000170: 8488 933d dfbc a93d 977c 9cbd d2b2 903d
00000180: 7962 ad3d 6dd5 1e3e f41e 7fba 6edd 583d
00000190: 2aba 863d 480a 65bb 35b5 d33d 3566 123e
000001a0: d719 6e3d 2701 6abd ec20 383d 6567 8b3d
000001b0: 9adf 4b3c 6bd3 cebd 9923 1a3c 93b9 bb3d
000001c0: 29b3 293d 8dd4 1abd bfe9 113d e937 d63d
000001d0: d49b fd3d 32f1 073e 7928 563d ca2f 44bd
000001e0: acd2 c3bd 4754 b03d d022 f9b9 49d7 e7bd
000001f0: 455d 2ebc 9ecc 033e 67b1 c6bd ba0b 053e
00000200: c1d8 d0bc 5484 df3d 60cb d8bd 66c3 013d
00000210: 1af4 3b3d 9a93 cabd a435 acbd 51a2 9b3d
00000220: 5920 c33d ac11 ac3d e18d 4dbd f020 25bd
00000230: 5258 31bd 915a b23c b460 cbbd a833 79bd
00000240: 3574 7f3d efe5 1ebc 0df9 0d3d 35b7 9dbd
00000250: 18f3 e63d e52a f03d 12d1 14bd a687 a9bd
00000260: e98b 383d cd18 8e3d 2ad9 6abd 08fe e43d
00000270: 733e 9bbd ff8c c13c 1033 873b 826a bfbd
00000280: 4336 c03d 2699 8dbd 8f8b b2bd d32e a93c
00000290: 6aa2 3bbd e465 283d d413 a2bd b1d6 8d3d
000002a0: aa22 eebc c5c1 04bd 1120 82bd 2f54 aebd
000002b0: 74b8 da3b 8ca4 bcbd 6da6 21bd eb75 223d
000002c0: 2a62 dbbc 11d7 41bd 1692 ba3d dcbd 83bc
000002d0: b5e7 d73d 4a1c a73d 7217 f4bd f81e c93c
000002e0: db4c c3bd ca66 26bd a9eb f9bd ace7 49bc
000002f0: d0b1 ad3d 9006 b5bd 2b20 6bbc e414 073e
00000300: eb1b 1cbd 897b 3ebc 6b91 f13c a174 f53c
00000310: 77c2 b73c 4f18 a7bd b9bb 0b3d 6561 30bd
00000320: 96e5 cb3d 04d4 10bd 39f7 b93d df48 d33d
00000330: e769 473d 43db b33d f57a 983c 928c 443d
00000340: 728e b2bd eb14 dd3d 63b3 1a3d 4ebd 093d
00000350: 078a 083e 599b b33d 6205 7b3d be77 bb3d
00000360: fc0c 80bd 45fc e43d 2fd9 cc3d 90a4 003e
00000370: 1956 fc3d a648 0fbd 2f65 733d 9ade 053e
00000380: 36b5 873d de03 d4bc a606 bfbd d64d cd3d
00000390: 72a9 c9bd 7480 063d 84b4 a63b c428 133e
000003a0: 83f7 b73d 804c a03a 196b d23d f782 013e
000003b0: 0417 7abd f681 2dbd 303a c83c 95db a03d
000003c0: 4cb7 5e3d 754f 56bd 92a9 b03b 76f0 983b
000003d0: 3292 d53d be21 8e3d 8761 16bd a0e0 993d
000003e0: 6176 e8bd 254f 863d 238a fe3d 80cb 80bd
000003f0: 43e0 23bd 7be4 033e 5ec4 f13d 7f41 91bd
