src/Backend-Information/Clod-weather_predict/Gansu_lstm_model.pth (torch, 208379 bytes, 11 tensors)

lstm.weight_ih_l0 f4 [256, 3]
0.08828654 -0.076776765 -0.10626556 -0.03007112 0.08816239 0.066395625 -0.040012825 0.07262271
-0.032432735 -0.09502999 0.123132646 -0.12189597 -0.06348961 -0.023992674 -0.11288205 -0.11495371
0.034150332 0.09231442 0.022899166 0.056062825 -0.1155214 0.048577644 0.10100124 -0.110002965
-0.015084547 0.044930108 0.061755016 0.09919004 0.059449177 0.111327514 0.07432089 -0.02977331
0.031166911 0.04646864 -0.028713282 -0.010276616 -0.015364292 0.092683114 -0.1197501 -0.043131623
-0.017852714 -0.10484415 -0.09316035 0.0049039237 0.11210592 0.077894695 0.1421925 0.06155534
0.031322133 -0.12956163 -0.07644774 -0.16436172 0.06626741 -0.01769714 0.04798912 0.14768791
0.121972516 -0.069302745 0.08402655 -0.005355686 0.08484386 -0.101579614 0.05971317 0.07539175
-0.11628791 -0.03926082 -0.13450547 0.13510978 0.050695717 0.12181084 0.07587469 -0.053442612
-0.09989027 0.09734994 -0.10554598 -0.10029913 0.09489404 0.034827888 -0.061113562 -0.10466618
0.11594887 0.0036126259 0.031465657 0.12135485 -0.017713428 0.059579823 0.102489024 -0.0139821395
0.11370395 -0.10055502 -0.005345002 0.061020162 -0.12245716 -0.07781343 0.11273421 -0.109429866
-0.083324395 -0.049114954 -0.09331685 0.04606464 0.041758098 0.088829294 0.045856886 0.0013902172
0.08423622 0.14167264 -0.020110274 0.08826958 -0.08547581 -0.13089684 -0.11726226 0.09114499
-0.10756877 -0.10458337 -0.128446 0.09954882 0.106892854 -0.13132381 0.00351105 -0.009069875
0.044086512 0.12720865 0.04173094 -0.11967042 -0.0452727 -0.062082827 -0.07568172 0.050890714
0.10146935 -0.0991831 0.004249684 -0.017273307 -0.04023423 0.056387316 -0.07490943 -0.10257006
0.10352307 -0.06881018 0.11001049 0.10421886 -0.030895412 0.103246175 0.034311324 0.08167195
-0.04025684 0.15667333 -0.0070521683 0.14409523 -0.046789948 -0.058650956 0.04271152 0.050176606
0.031393394 0.04293217 -0.018635007 -0.09094019 -0.14324155 0.06752158 0.019542396 -0.00022615102
-0.08582153 0.09472713 0.008188748 -0.0475097 0.067340404 -0.014244075 0.08612303 -0.11838873
-0.025252437 0.0048076506 0.11826739 -0.090278156 -0.109578654 -0.095413 -0.05885174 -0.03819076
-0.016749308 0.16474663 0.022340218 0.10934973 0.09004376 -0.12884028 -0.009214014 -0.17921546
-0.041685864 0.028252855 0.030313468 0.10343869 0.07454708 0.08690373 -0.15098046 0.066153735
-0.08054581 0.09306227 -0.06439176 -0.10750213 -0.008566527 -0.038415402 -0.033360407 -0.1013591
0.027171433 0.05548907 0.007002451 -0.032861233 0.014650236 -0.11045234 -0.09426284 -0.066759676
-0.047970466 0.12446733 0.051745962 -0.044371642 -0.06024836 -0.0030606024 0.028240718 0.057848275
0.083685175 -0.11134554 0.009554058 0.0630745 0.040020693 -0.124398485 -0.013390894 0.07155362
-0.040342733 -0.07854708 -0.03656482 -0.038556874 -0.070868455 0.03057136 -0.021340743 -0.028949734
-0.09110318 0.10508928 -0.11041788 -0.078328885 0.10717967 -0.047038443 0.12752657 -0.0886406
0.13131544 -0.021170342 0.02093558 -0.018069519 0.017093789 -0.035570502 -0.061738882 0.0201133
-0.06946315 -0.019771146 -0.00075642904 -0.08279824 0.08674445 0.0370698 -0.055359006 -0.06389486
00000000: 93cf b43d 233d 9dbd c2a1 d9bd b657 f6bc
00000010: 7c8e b43d 6efa 873d 7de4 23bd 37bb 943d
00000020: 30d8 04bd 159f c2bd f82c fc3d 98a4 f9bd
00000030: d706 82bd 498c c4bc b42e e7bd da6c ebbd
00000040: 38e1 0b3d 580f bd3d 0897 bb3c 22a2 653d
00000050: 7c96 ecbd 5af9 463d bdd9 ce3d 3c49 e1bd
00000060: 2d25 77bc a208 383d d4f2 7c3d 2624 cb3d
00000070: fb80 733d aeff e33d 8d35 983d 28e7 f3bc
00000080: c051 ff3c e755 3e3d 1e38 ebbc 405f 28bc
00000090: 83ba 7bbc a5d0 bd3d 8a3f f5bd c9aa 30bd
000000a0: db3f 92bc 88b8 d6bd dbca bebd 18b1 a03b
000000b0: ca97 e53d 4187 9f3d e99a 113e 7421 7c3d
000000c0: a34b 003d ceab 04be a290 9cbd 704e 28be
000000d0: 35b7 873d 98f9 90bc 3d90 443d 803b 173e
000000e0: bacc f93d 99ee 8dbd 1d16 ac3d c07e afbb
000000f0: 9ec2 ad3d f908 d0bd cc95 743d fd66 9a3d
00000100: 5b28 eebd f4cf 20bd cdbb 09be 385a 0a3e
00000110: 50a6 4f3d f677 f93d 3164 9b3d a4e6 5abd
00000120: 4593 ccbd 685f c73d 7e28 d8bd a169 cdbd
00000130: ce57 c23d b0a7 0e3d 3752 7abd 395b d6bd
00000140: 9a76 ed3d cec1 6c3b 22e2 003d e488 f83d
00000150: c01b 91bc f909 743d c4e5 d13d 5815 65bc
00000160: 9edd e83d caef cdbd 2025 afbb 47f0 793d
00000170: d2ca fabd a65c 9fbd 32e1 e63d c41c e0bd
00000180: fba5 aabd c32c 49bd e81c bfbd 47ae 3c3d
00000190: 8a0a 2b3d 22ec b53d 6ed4 3b3d f337 b63a
000001a0: 0a84 ac3d a212 113e 4dbe a4bc aec6 b43d
000001b0: f10d afbd d209 06be 3227 f0bd 39aa ba3d
000001c0: 044d dcbd ce2f d6bd 5987 03be 40e0 cb3d
000001d0: a4ea da3d c079 06be a519 663b d099 14bc
000001e0: 0f94 343d fc42 023e 10ee 2a3d c415 f5bd
000001f0: de6f 39bd 904a 7ebd 05ff 9abd c872 503d
00000200: 2acf cf3d 8220 cbbd ef40 8b3b c080 8dbc
00000210: a6cc 24bd 63f6 663d 1e6a 99bd 4010 d2bd
00000220: e703 d43d 5aec 8cbd 2e4d e13d b370 d53d
00000230: 6018 fdbc bb72 d33d 088a 0c3d a043 a73d
00000240: 5be4 24bd f96e 203e e015 e7bb b38d 133e
00000250: d1a6 3fbd fc3b 70bd 46f2 2e3d fc85 4d3d
00000260: 5c96 003d a5d9 2f3d 71a8 98bc da3e babd
00000270: eaad 12be c148 8a3d 6017 a03c f422 6db9
00000280: 33c3 afbd 4c00 c23d 192a 063c 8899 42bd
00000290: c4e9 893d fb5f 69bc 4561 b03d ca75 f2bd
000002a0: 33de cebc 7f89 9d3b 2c36 f23d c1e3 b8bd
000002b0: c66a e0bd e467 c3bd 860e 71bd ea6d 1cbd
000002c0: d835 89bc 57b3 283e d502 b73c c0f2 df3d
000002d0: dd68 b83d b5ee 03be 60f6 16bc 4284 37be
000002e0: ccbe 2abd 8872 e73c f353 f83c aad7 d33d
000002f0: 24ac 983d 95fa b13d 9f9a 1abe 9c7b 873d
00000300: 34f5 a4bd 6e97 be3d d4df 83bd 142a dcbd
00000310: 9e5a 0cbc 7859 1dbd eca4 08bd 5c95 cfbd
00000320: a096 de3c 8248 633d d174 e53b 8099 06bd
00000330: 8b07 703c d634 e2bd e00c c1bd 4cb9 88bd
00000340: ae7c 44bd bae8 fe3d 93f3 533d 0abf 35bd
00000350: fcc6 76bd 6394 48bb 1459 e73c 50f2 6c3d
00000360: 2263 ab3d 2109 e4bd a088 1c3c 342d 813d
00000370: bdec 233d a2c4 febd 7b65 5bbc b48a 923d
00000380: 6c3e 25bd 4bdd a0bd fec4 15bd d0ed 1dbd
00000390: 7b23 91bd ca70 fa3c c8d2 aebc fe27 edbc
000003a0: 4e94 babd 0c39 d73d c522 e2bd e56a a0bd
000003b0: 0481 db3d 62ab 40bd 5396 023e 3489 b5bd
000003c0: 8e77 063e 6d6d adbc 1881 ab3c 8706 94bc
000003d0: 4608 8c3c 60b2 11bd e9e1 7cbd a6c4 a43c
000003e0: b242 8ebd 19f7 a1bc 184b 46ba 2092 a9bd
000003f0: 13a7 b13d 81d6 173d 20c0 62bd 4fdb 82bd

lstm.weight_hh_l0 f4 [256, 64]
-0.057937533 -0.13925269 0.09043681 -0.093313694 0.14471225 -0.052376725 -0.009516858 0.08618822
-0.096294224 -0.09693997 -0.1537088 0.11550655 0.0031119552 0.061915092 -0.08507806 -0.036333233
-0.1299023 -0.12097361 -0.030536065 0.06633735 0.10531946 -0.10233906 -0.015831985 0.14891554
0.075777784 0.15315239 0.116806924 0.0537202 0.05132951 -0.028909996 0.029087216 7.7457924e-05
0.0074385013 0.0077800485 0.044943653 0.032924376 0.087041125 -0.069335915 0.044294216 0.013388965
-0.020684797 -0.14712228 0.08450691 0.058711514 0.025516964 0.03749649 -0.04926893 0.10665954
-0.06495541 -0.057636786 -0.02190289 0.09296248 -0.011952987 -0.12268857 0.10482531 0.086334795
-0.033452682 -0.07057778 -0.12254747 -0.014898769 0.02885427 0.02176781 -0.10896677 -0.06378865
0.027649648 -0.03460271 -0.06419632 0.14668706 0.1341203 0.103021115 0.14459673 0.03973751
0.09042824 0.056454767 -0.0426699 0.0536864 -0.06877682 0.04962046 0.058885958 0.17109281
0.017956665 0.06682901 0.02191126 -0.096526 0.0061345156 0.0744868 -0.005549248 -0.06340861
-0.10495021 0.13124104 -0.006623034 -0.056129094 0.13080537 -0.014764192 0.06807619 -0.02772359
0.026596261 0.15520576 0.10259214 0.080659114 -0.0016167314 -0.029839879 -0.05001045 -0.0444598
0.004287869 -0.15358594 -0.028961523 -0.079500936 -0.07443404 0.12238495 -0.03663914 0.008647396
0.06210213 -0.009394713 0.13480477 0.015754994 0.03997175 0.060009796 -0.11090557 0.01573597
0.118705384 0.047563374 -0.056947555 -0.075246595 -0.11894084 0.022992922 0.024360947 0.1423825
0.15996802 -0.068781875 0.049971826 -0.026849344 -0.04246245 0.102574944 -0.11851508 0.11604506
-0.1105865 -0.069634795 -0.019298647 -0.051549476 -0.046067685 0.05798687 0.056317493 0.15632862
-0.07849977 -0.020526018 -0.02800178 -0.0056247273 0.0831504 0.09034622 -0.03302926 0.04656252
-0.15750836 0.023084536 0.10806119 0.110186845 -0.1120918 0.027966918 -0.10823611 -0.15821657
0.011423942 0.13670507 0.10139269 0.043486107 0.023973774 0.1006151 0.09460525 -0.09762687
0.06397626 0.034035165 -0.0156078935 -0.041952964 0.05424253 0.09193708 0.13241644 0.101364896
-0.029998893 0.018406438 0.03704447 0.13352664 0.015843576 -0.037888333 0.057226498 0.15075094
-0.14215483 -0.046734616 -0.16338632 0.11724407 0.010387006 -0.087276064 0.01279798 -0.09369241
-0.075637266 -0.046216987 -0.13094926 0.08399908 -0.076311976 0.061119683 -0.07387365 -0.018794175
-0.068425104 0.0071126404 -0.031162081 0.026146896 0.102294594 -0.084902935 -0.021280302 0.16156022
-0.11711856 0.08868826 0.07121076 0.07405134 0.042067684 0.08256043 -0.044769507 0.08841185
0.00452966 0.07843977 0.13427314 0.097537 0.03176723 -0.092223726 -0.15797561 0.028118497
-0.12818423 0.118483275 -0.064982034 -0.10649298 0.12598401 0.060266856 0.00461635 -0.042684592
-0.045281727 -0.11346288 0.025337638 -0.03129704 0.1290446 0.15247336 -0.008650115 0.04973228
0.0717052 0.097851574 0.06253239 0.01386129 0.019983111 0.036739133 0.09348038 0.1005372
0.042649753 0.077472776 -0.113034695 0.12343718 0.048649427 -0.11457727 -0.12890567 -0.026017653
00000000: e84f 6dbd 4298 0ebe ef36 b93d 401b bfbd
00000010: 732f 143e fa88 56bd 98ec 1bbc 7383 b03d
00000020: e835 c5bd 7788 c6bd d765 1dbe b38e ec3d
00000030: f2f1 4b3b ae9a 7d3d 683d aebd 28d2 14bd
00000040: 1c05 05be 03c1 f7bd c526 fabc e0db 873d
00000050: bbb1 d73d 2497 d1bd 14b2 81bc 517d 183e
00000060: 6231 9b3d fbd3 1c3e 7838 ef3d b609 5c3d
00000070: e43e 523d a8d4 ecbc 5048 ee3c e870 a238
00000080: acbe f33b c7ef fe3b d616 383d b6db 063d
00000090: 9e42 b23d fdff 8dbd da6d 353d 645d 5b3c
000000a0: 2a73 a9bc 39a7 16be f511 ad3d 7c7b 703d
000000b0: f408 d13c eb95 193d 38ce 49bd 5170 da3d
000000c0: 5807 85bd 8d14 6cbd b16d b3bc 1d63 be3d
000000d0: 76d6 43bc 2544 fbbd a7ae d63d 4cd0 b03d
000000e0: ae05 09bd 158b 90bd 2bfa fabd f719 74bc
000000f0: ca5f ec3c 6852 b23c f829 dfbd a0a3 82bd
00000100: 8481 e23c 92bb 0dbd 5c79 83bd 2235 163e
00000110: d556 093e bcfc d23d 2a11 143e cdc3 223d
00000120: 7132 b93d 1d3d 673d a2c6 2ebd 45e6 5b3d
00000130: ddda 8cbd d33e 4b3d 6732 713d f432 2f3e
00000140: db19 933c a6dd 883d 3e7f b33c 6caf c5bd
00000150: 0c04 c93b 898c 983d 77d6 b5bb 60dc 81bd
00000160: 23f0 d6bd 0d64 063e 0906 d9bb 9fe7 65bd
00000170: d8f1 053e 82e5 71bc 886b 8b3d 951c e3bc
00000180: 67e0 d93c 42ee 1e3e d41b d23d 9b30 a53d
00000190: 81e8 d3ba c372 f4bc c2d7 4cbd 7b1b 36bd
000001a0: 4181 8c3b a245 1dbe b740 edbc 63d1 a2bd
000001b0: e070 98bd f6a4 fa3d ec12 16bd cfad 0d3c
000001c0: ce5e 7e3d 48ec 19bc 430a 0a3e 9e10 813c
000001d0: 6bb9 233d d5cc 753d 7622 e3bd b9e8 803c
000001e0: cf1b f33d d0d1 423d d741 69bd e31a 9abd
000001f0: 4197 f3bd a75b bc3c 9c90 c73c b8cc 113e
00000200: a8ce 233e 83dd 8cbd 42af 4c3d 28f3 dbbc
00000210: 1bed 2dbd d012 d23d 09b8 f2bd 08a9 ed3d
00000220: 2d7b e2bd b09c 8ebd 3218 9ebc 8b25 53bd
00000230: 78b1 3cbd a483 6d3d 2cad 663d 9c14 203e
00000240: 7dc4 a0bd 2e26 a8bc fd63 e5bc a24f b8bb
00000250: c24a aa3d 7007 b93d b049 07bd 57b8 3e3d
00000260: df49 21be c81b bd3c 2f4f dd3d a4a9 e13d
00000270: 6390 e5bd e11a e53c e5aa ddbd 8603 22be
00000280: 7c2b 3b3c 6afc 0b3e f8a6 cf3d 7d1e 323d
00000290: a664 c43c 4a0f ce3d 66c0 c13d 99f0 c7bd
000002a0: fc05 833d 7568 0b3d 40b8 7fbc dfd6 2bbd
000002b0: 6a2d 5e3d 8249 bc3d 2d98 073e 6698 cf3d
000002c0: 3dc0 f5bc 19c9 963c f1bb 173d 35bb 083e
000002d0: 63ca 813c cc30 1bbd 5566 6a3d 745e 1a3e
000002e0: 0991 11be cc6c 3fbd be4e 27be a91d f03d
000002f0: 432e 2a3c cbbd b2bd 9eae 513c cee1 bfbd
00000300: b6e7 9abd 064e 3dbd 9017 06be b607 ac3d
00000310: 7449 9cbd a258 7a3d 114b 97bd 3ef6 99bc
00000320: 7622 8cbd 2711 e93b 9f47 ffbc 0432 d63c
00000330: d47f d13d 97e1 adbd 0754 aebc 0b70 253e
00000340: dbdb efbd 31a2 b53d f2d6 913d 3ba8 973d
00000350: 2a4f 2c3d 7115 a93d 3b60 37bd 4611 b53d
00000360: 8b6d 943b 08a5 a03d e67e 093e 7bc1 c73d
00000370: 5b1e 023d cbdf bcbd 5cc4 21be c358 e63c
00000380: ba42 03be 5ca7 f23d 4d15 85bd fe18 dabd
00000390: f401 013e 61da 763d c044 973b 0ad6 2ebd
000003a0: 5579 39bd 3a5f e8bd e190 cf3c 5331 00bd
000003b0: 4524 043e fa21 1c3e 36b9 0dbc 13b4 4b3d
000003c0: 2dda 923d 6866 c83d fb10 803d 771a 633c
000003d0: 9fb3 a33c c67b 163d a472 bf3d 73e6 cd3d
000003e0: 82b1 2e3d 0caa 9e3d bc7e e7bd a2cc fc3d
000003f0: 9f44 473d 7da7 eabd d9ff 03be f922 d5bc

lstm.bias_ih_l0 f4 [256]
-0.082200095 0.00030734445 0.11567144 0.15097825 0.13432324 0.083935015 -0.008970864 -0.044969738
-0.01595099 0.11061282 0.07289721 0.08507554 -0.012081978 -0.10240443 0.023763059 0.007292475
0.13772677 0.15866713 0.08553811 -0.020115644 0.017662708 0.032888062 0.13721311 0.04191948
0.10966313 -0.0680805 0.13433214 -0.014191098 -0.0650367 -0.012465758 0.0045499247 0.060416248
-0.070644416 0.042420324 0.0125454 -0.07978927 -0.020323532 0.15787637 0.0571761 0.13228428
0.15042265 0.052391447 0.13285327 0.14761037 -0.08680234 0.019301608 0.040684223 0.052831862
0.01233023 -0.05377889 0.00918024 0.13429964 -0.055399206 0.07997515 0.008816063 -0.0484163
-0.06548924 0.057542745 -0.061114486 0.1019068 -0.03947824 0.017006166 -0.042481456 -0.011290398
-0.07652894 -0.07333895 -0.07351519 0.05429673 -0.050544668 0.089954525 -0.021163885 0.0034042962
0.14271918 0.10256928 0.0018344133 -0.08740552 -0.061006587 -0.0043741697 -0.03822588 -0.014605914
0.11435716 0.12745199 -0.031832505 0.05024902 0.12277675 -0.040823072 0.07866943 -0.014774221
0.13823186 -0.045517717 -0.032750253 0.09628162 0.052027483 0.13667017 -0.015425916 0.12561998
-0.021236155 -0.06115581 0.041739132 -0.021869978 0.08346948 0.1360278 0.024187703 0.06597574
-0.013943609 0.09097506 0.023785561 -0.0027226454 0.13632323 -0.11858401 0.029981328 0.14046526
0.104337476 -0.005121268 0.09801222 0.043232672 -0.10025601 -0.056192897 -0.081577055 0.042793307
-0.08467213 0.084498204 0.077458374 -0.021257384 -0.027746117 0.05509174 0.03561349 -0.021462867
-0.049230497 -0.043385427 -0.04423906 -0.09637418 0.09915791 0.08642894 0.10760038 0.056401297
-0.08484239 -0.07047444 0.07626679 0.12422215 0.076875195 -0.049392138 -0.10264071 0.07586385
-0.045236703 0.16692364 0.035377115 -0.1055449 0.05218737 0.07074328 0.10200746 -0.08669801
-0.042532172 0.13059512 0.09901262 0.10880283 -0.04545475 0.061298702 -0.07626389 0.05427135
0.01883207 -0.022262022 0.11238043 0.028896114 0.042897124 -0.06596345 -0.00244284 -0.07452151
0.06343458 -0.022718724 0.06726583 0.060549762 -0.039676636 0.0041898284 0.0074275164 -0.08747058
0.11098754 -0.00692974 0.03716214 0.09120793 0.091262445 -0.1065807 -0.010707857 0.014848691
-0.0004694631 -0.05953729 -0.0743758 0.12837468 -0.071767844 -0.055091277 -0.09028373 -0.03682658
-0.040839083 0.04965206 0.13771537 0.019954354 0.059503503 0.12325048 0.16036552 -0.09483446
0.04181658 0.07851168 0.11886757 0.09393106 -0.068011045 -0.10478157 0.11410195 0.17466384
-0.06415315 -0.04840442 -0.060528252 0.1431884 0.026306788 0.14849044 0.13470179 0.0968998
0.10826813 0.13674709 -0.05628551 0.03982347 -0.020995593 0.009413644 0.059785344 -0.0717296
0.020208102 0.011237692 -0.011857231 0.08353806 0.015647246 0.0889204 0.0040878747 0.11268503
0.03135298 -0.08687135 0.02782523 -0.013779515 0.032926183 0.048750356 0.025554266 0.086128436
0.13915958 0.09648962 -0.039888695 -0.069903664 0.037249688 0.14747892 0.011223454 0.14855549
0.107958466 -0.019560166 0.08082338 0.022149287 -0.07169019 0.09044908 0.118058175 -0.012878202
00000000: 8658 a8bd 1323 a139 26e5 ec3d 0b9a 1a3e
00000010: 088c 093e 1fe6 ab3d 88fa 12bc 3032 38bd
00000020: a7ab 82bc f988 e23d 224b 953d 163c ae3d
00000030: 7df3 45bc 6ab9 d1bd bfaa c23c b7f5 ee3b
00000040: 3f08 0d3e a379 223e 9b2e af3d 90c9 a4bc
00000050: 62b1 903c a2b5 063d 9881 0c3e c3b3 2b3d
00000060: 1097 e03d ca6d 8bbd 5d8e 093e c781 68bc
00000070: f631 85bd 2e3d 4cbc 8917 953b 0777 773d
00000080: 05ae 90bd efc0 2d3d 398b 4d3c 8f68 a3bd
00000090: 897d a6bc 58aa 213e 7c31 6a3d 8875 073e
000000a0: 6508 1a3e 6a98 563d b00a 083e 2c27 173e
000000b0: 6dc5 b1bd 681e 9e3c 80a4 263d 3966 583d
000000c0: bc04 4a3c 4147 5cbd b868 163c d885 093e
000000d0: 47ea 62bd 03ca a33d 4071 103c 2c50 46bd
000000e0: 391f 86bd f1b1 6b3d 2f53 7abd 83b4 d03d
000000f0: efb3 21bd 8450 8b3c 0901 2ebd 5dfb 38bc
00000100: 34bb 9cbd bb32 96bd 228f 96bd 3f66 5e3d
00000110: ed07 4fbd 143a b83d e25f adbc 9d1a 5f3b
00000120: fa24 123e d80f d23d b270 f03a aa01 b3bd
00000130: 0be2 79bd 3255 8fbb be92 1cbd a54d 6fbc
00000140: 1634 ea3d c682 023e cd62 02bd ebd1 4d3d
00000150: 6072 fb3d 1836 27bd 701d a13d 930f 72bc
00000160: a78c 0d3e c970 3abd 2125 06bd 4c2f c53d
00000170: c51a 553d 44f3 0b3e fbbc 7cbc 86a2 003e
00000180: 72f7 adbc 847e 7abd a7f6 2a3d ab28 b3bc
00000190: 0cf2 aa3d df4a 0b3e 4a25 c63c 4a1e 873d
000001a0: bc73 64bc 2251 ba3d f0d9 c23c 696e 32bb
000001b0: 5198 0b3e 2cdc f2bd 679b f53c 20d6 0f3e
000001c0: e3ae d53d 4fd0 a7bb a1ba c83d be14 313d
000001d0: 0653 cdbd 862a 66bd df11 a7bd 0948 2f3d
000001e0: 9568 adbd 650d ad3d 7fa2 9e3d f723 aebc
000001f0: d34b e3bc e0a7 613d 73df 113d e5d2 afbc
00000200: eba5 49bd ebb4 31bd 0434 35bd d35f c5bd
00000210: 4d13 cb3d a801 b13d 975d dc3d 0c05 673d
00000220: d9c1 adbd e754 90bd c331 9c3d 2f68 fe3d
00000230: be70 9d3d 694f 4abd 4b35 d2bd 825e 9b3d
00000240: 1f4a 39bd 08ee 2a3e 98e7 103d ed27 d8bd
00000250: 6cc2 553d dae1 903d 4ae9 d03d ba8e b1bd
00000260: 3736 2ebd baba 053e 21c7 ca3d 05d4 de3d
00000270: c32e 3abd 5914 7b3d 3e30 9cbd a34b 5e3d
00000280: b745 9a3c d85e b6bc b627 e63d 8bb7 ec3c
00000290: e5b4 2f3d d817 87bd 0e18 20bb bc9e 98bd
000002a0: fde9 813d 9e1c babc abc2 893d 0703 783d
000002b0: f883 22bd d44a 893b 8662 f33b c723 b3bd
000002c0: 6f4d e33d df12 e3bb 5437 183d 39cb ba3d
000002d0: cee7 ba3d fb46 dabd 0270 2fbc ed47 733c
000002e0: 4522 f6b9 60dd 73bd 5752 98bd a774 033e
000002f0: 05fb 92bd 64a7 61bd ade6 b8bd 78d7 16bd
00000300: e246 27bd f55f 4b3d 4205 0d3e 5077 a33c
00000310: f2b9 733d bf6a fc3d dc36 243e 9238 c2bd
00000320: dd47 2b3d bbca a03d d770 f33d ed5e c03d
00000330: 6049 8bbd b897 d6bd 48ae e93d 14db 323e
00000340: ba62 83bd b743 46bd 79ec 77bd fb9f 123e
00000350: 5581 d73c e10d 183e 44ef 093e 6773 c63d
00000360: aebb dd3d 6e07 0c3e a38b 66bd ef1d 233d
00000370: f3fe abbc af3b 1a3c 7ae1 743d f8e6 92bd
00000380: 768b a53c 4c1e 383c d544 42bc 0116 ab3d
00000390: a72e 803c e61b b63d 94f3 853b 69c7 e63d
000003a0: fb6b 003d 9be9 b1bd bdf1 e33c 7ac3 61bc
000003b0: 9bdd 063d 74ae 473d 2e57 d13c 1b64 b03d
000003c0: d97f 0e3e 5a9c c53d 5462 23bd a729 8fbd
000003d0: 2193 183d b704 173e 94e2 373c ee1e 183e
000003e0: 5419 dd3d a43c a0bc ba86 a53d 6c72 b53c
000003f0: 4ed2 92bd 5e3d b93d 7cc8 f13d 18ff 52bc

lstm.bias_hh_l0 f4 [256]
0.044342175 0.09550285 0.119957045 0.077085875 0.06413367 -0.10777957 0.0937633 0.047994293
0.026496738 -0.09208799 0.10332521 0.04974206 0.016322607 -0.05423716 -0.039268848 -0.020626022
-0.049500458 -0.06288791 0.048081856 0.09997576 -0.05912389 0.115595065 0.08868803 0.03154401
-0.04457989 0.1426877 -0.034353174 -0.04723031 -0.027265565 -0.040989924 0.095499046 -0.012993187
-0.06462587 0.101048015 0.031605233 0.04130633 0.05490929 -0.019781023 0.0011644331 0.06078661
0.09635694 0.12112066 -0.08482404 -0.031807948 0.026102703 -0.052316558 -0.015648888 0.014166208
0.0014201046 0.042747732 0.15481523 0.09784305 0.14753509 0.09844955 0.030447451 0.025883613
0.022492426 0.12269811 0.008772301 -0.027189234 -0.04975594 -0.07332199 -0.0145703675 -0.038067017
0.14699996 -0.040076878 0.060126472 0.0746301 -0.040345144 -0.10746269 0.045514148 0.1208159
0.06112311 0.00827676 -0.012929305 -0.095931076 0.08798902 -0.010514 0.13530234 0.154529
-0.039117943 0.12087982 0.026670124 0.046252906 0.102299124 0.16415092 -0.09830584 0.0039528683
0.06773764 0.008221121 -0.031105828 -0.10465686 -0.054507557 0.112839825 -0.06398404 0.008656195
0.006154152 -0.10797663 -0.07840734 -0.0053342404 -0.09045293 0.13239397 0.07217333 0.013167509
0.08136458 0.012897018 -0.0338541 0.015997399 0.05129167 0.052381553 -0.08071002 0.16947415
-0.05449535 0.029602975 0.1330272 0.07323431 0.08297941 -0.0025639408 0.13456136 0.014958796
0.010208532 0.0006228641 0.11961957 0.05593674 0.023244526 0.13519652 -0.08064679 0.03449932
0.054817777 -0.093298815 -0.031520773 0.055492103 0.113632485 0.1240751 -0.12510923 0.03443115
0.019566463 0.05292468 -0.10975298 -0.034534466 -0.11185074 -0.01732793 -0.00413345 0.121951945
-0.03914656 -0.025602857 -0.040297985 -0.07610282 0.009296715 -0.024960501 0.05853736 0.056458026
0.073593594 -0.045714743 0.11361225 -0.05161686 0.03084261 -0.118763514 0.019011807 -0.14295904
-0.104810044 0.10087714 0.10271004 0.059474975 -0.0471514 0.11199208 0.09104397 -0.097740114
0.0900915 -0.022192866 -0.103899755 -0.11798813 0.0139621645 0.10581156 0.077451326 0.012158096
-0.005128455 -0.08896756 0.07299966 0.0028200455 0.032134257 0.03563469 -0.061749082 -0.021161722
0.0028267042 -0.0763524 0.054396577 -0.0032502078 0.11834577 0.007234616 -0.016553974 0.008199797
0.05637202 0.11991989 0.06717793 0.103941835 0.0020655442 0.091968186 -0.037487485 0.022043105
0.06598339 0.033531982 -0.06870768 0.14897323 -0.054300223 -0.10120529 0.01631768 0.08476637
0.11514244 -0.029571356 -0.029830666 0.08192049 -0.060336575 0.082509026 0.048351586 0.037412744
0.08666976 0.14228165 0.091538094 0.10857784 -0.024442667 0.002012998 0.09238831 0.11538583
0.14434485 -0.06557372 0.001990018 0.07244611 -0.0012278284 0.023961263 0.024468193 -0.025847482
0.08273482 0.031663615 0.019137353 0.1690512 -0.03931548 0.0011023714 0.12538075 -0.015145879
-0.020318262 0.09828818 -0.050000217 -0.07436201 -0.03774543 -0.08092148 0.027043194 0.1530486
0.026321104 0.047900908 0.1570295 -0.04113858 0.009099715 0.11912451 0.074324384 0.14091706
00000000: 24a0 353d 0097 c33d 0aac f53d 33df 9d3d
00000010: 8358 833d 89bb dcbd f906 c03d aa95 443d
00000020: b00f d93c a198 bcbd 2b9c d33d 55be 4b3d
00000030: fdb6 853c c927 5ebd 5fd8 20bd e7f7 a8bc
00000040: fec0 4abd 60cb 80bd 7bf1 443d 17c0 cc3d
00000050: e42b 72bd 1bbd ec3d 12a2 b53d 4b34 013d
00000060: 6799 36bd b91c 123e eab5 0cbd 9274 41bd
00000070: 095c dfbc 0de5 27bd 0195 c33d 60e1 54bc
00000080: 915a 84bd 43f2 ce3d 7d74 013d d430 293d
00000090: 90e8 603d d00b a2bc e49f 983a 61fb 783d
000000a0: ca56 c53d 1c0e f83d 3ab8 adbd 0d49 02bd
000000b0: 56d5 d53c e349 56bd 1932 80bc 6219 683c
000000c0: ce22 ba3a 3f18 2f3d e287 1e3e f061 c83d
000000d0: 7013 173e eb9f c93d ef6c f93c df09 d43c
000000e0: 0942 b83c 2649 fb3d b2b9 0f3c f5bb debc
000000f0: e2cc 4bbd d729 96bd 8db8 6ebc 29ec 1bbd
00000100: 2887 163e a727 24bd 2d47 763d aad7 983d
00000110: f340 25bd 6615 dcbd 0b6d 3a3d 546e f73d
00000120: 3a5c 7a3d 3f9b 073c 70d5 53bc 8377 c4bd
00000130: 9633 b43d ea42 2cbc b28c 0a3e da3c 1e3e
00000140: 233a 20bd d78f f73d 4e7b da3c b073 3d3d
00000150: 3482 d13d 2e17 283e 9254 c9bd 1087 813b
00000160: 08ba 8a3d e1b1 063c a6d1 febc 5656 d6bd
00000170: 5143 5fbd 9118 e73d 100a 83bd b7d2 0d3c
00000180: c5a8 c93b da22 ddbd 0794 a0bd daca aebb
00000190: 633f b9bd 4992 073e 9ccf 933d 89bc 573c
000001a0: 79a2 a63d 044e 533c 99aa 0abd fa0c 833c
000001b0: 3717 523d 0a8e 563d 4c4b a5bd a28a 2d3e
000001c0: 8436 5fbd f081 f23c 4838 083e dffb 953d
000001d0: 1cf1 a93d ca07 28bb 74ca 093e bd15 753c
000001e0: b041 273c b447 233a 1bfb f43d ec1d 653d
000001f0: 4e6b be3c f570 0a3e 252a a5bd 294f 0d3d
00000200: 9b88 603d 7313 bfbd ed1b 01bd b04b 633d
00000210: 26b8 e83d 161b fe3d a21c 00be ad07 0d3d
00000220: d949 a03c 8dc7 583d 2cc6 e0bd 0374 0dbd
00000230: 0012 e5bd 4ef3 8dbc e471 87bb f1c1 f93d
00000240: 2558 20bd 15bd d1bc 800f 25bd ccdb 9bbd
00000250: 4051 183c f779 ccbc dfc4 6f3d 8840 673d
00000260: 3db8 963d 623f 3bbd 8aad e83d 336c 53bd
00000270: a4a9 fc3c 493a f3bd a6be 9b3c db63 12be
00000280: a6a6 d6bd ad98 ce3d a459 d23d 089c 733d
00000290: d421 41bd 1b5c e53d 4375 ba3d f82b c8bd
000002a0: e481 b83d d0cd b5bc 65c9 d4bd c3a3 f1bd
000002b0: 90c1 643c bbb3 d83d cd9e 9e3d c032 473c
000002c0: 990c a8bb a034 b6bd d980 953d 83d0 383b
000002d0: 369f 033d aef5 113d 9bec 7cbd 595b adbc
000002e0: 3a40 393b a65e 9cbd f2ce 5e3d 7001 55bb
000002f0: 445f f23d 5c10 ed3b 339c 87bc 7158 063c
00000300: 59e6 663d 8f98 f53d 9594 893d 75df d43d
00000310: 155e 073b d159 bc3d 7a8c 19bd be93 b43c
00000320: 4d22 873d d558 093d 9db6 8cbd 708c 183e
00000330: e969 5ebd b844 cfbd a8ac 853c fe99 ad3d
00000340: cdcf eb3d a13f f2bc 715f f4bc eec5 a73d
00000350: 7c23 77bd 7efa a83d 500c 463d 1b3e 193d
00000360: ea7f b13d 48b2 113e 5378 bb3d 0f5e de3d
00000370: fd3b c8bc 81ec 033b 1536 bd3d 684f ec3d
00000380: 23cf 133e 844b 86bd f66a 023b a05e 943d
00000390: 16ef a0ba 694a c43c 8571 c83c 19be d3bc
000003a0: e070 a93d b5b1 013d f0c5 9c3c c21b 2d3e
000003b0: 4509 21bd 727d 903a d063 003e 6c26 78bc
000003c0: 7c72 a6bc 504b c93d 07cd 4cbd 1c4b 98bd
000003d0: f49a 1abd 29ba a5bd b089 dd3c c6b8 1c3e
000003e0: 5b9f d73c be33 443d 57cc 203e ed80 28bd
000003f0: f916 153c 8df7 f33d 6237 983d 904c 103e

lstm.weight_ih_l1 f4 [256, 64]
-0.06964353 -0.029645048 0.012672647 -0.050191615 0.00055722875 0.034965176 0.035894834 -0.068573736
0.007404321 -0.12062065 -0.07179436 -0.08104634 -0.010392762 -0.14111966 -0.016636226 -0.06453938
0.019613076 0.038902484 -0.054470446 0.037817452 -0.03776828 -0.040595513 -0.019509885 -0.13782682
0.04158929 -0.058125533 0.04830836 -0.07670364 0.10128055 0.09540754 0.071391605 -0.127417
-0.057211928 0.09803523 -0.03836659 0.13873181 -0.041929286 -0.037912805 0.15029062 0.06493161
0.0007453511 0.03932448 0.09130187 0.10605466 0.08063338 -0.057396024 0.0003834012 0.045175944
0.02525694 -0.064599395 -0.02500437 -0.011627793 -0.085293725 0.056802265 0.062353127 0.0750479
0.10586453 0.055743974 -0.029554054 -0.043674923 0.012374688 -0.035315435 0.028479 0.15326135
-0.057204157 0.016349556 -0.13156113 0.06009582 -0.10484391 0.10669693 0.004939344 -0.04848557
0.009420352 -0.0057304464 0.024297103 -0.039565254 0.06871154 -0.086558305 0.06720634 0.12649408
-0.10199049 0.10945547 0.054636627 -0.0018811596 0.07818768 0.0038041768 0.1353213 -0.041751537
0.020278212 -0.09312353 0.12198381 0.092194155 0.063558064 -0.14285636 -0.10609031 -0.023960074
0.05965278 -0.016232539 0.09395463 0.018510334 -0.055976678 -0.018921975 -0.14145184 0.07484793
-0.0918429 0.07765718 -0.078034155 0.099665456 -0.04312713 0.009380896 -0.024517778 0.052939042
0.0173243 -0.01370004 0.117816314 -0.07683164 0.08255243 0.016665762 0.044459295 -0.002083031
-0.06448566 -0.041392636 0.09887109 0.004183419 0.07486408 -0.03551242 -0.07453503 -0.1182798
0.12299038 0.040505927 0.03251122 0.071774796 -0.0842064 -0.05254544 -0.056323048 0.033163175
0.044359468 0.06529093 0.058355723 0.046600424 -0.085502535 -0.012775393 -0.12106002 0.05449826
0.029596118 0.10163875 0.010843452 0.01380789 -0.027356248 0.012404513 -0.079324424 -0.0011798472
-0.003553654 -0.062724665 0.016405419 -0.043042853 -0.015958412 0.009978244 -0.018368676 -0.10531498
-0.14903842 -0.05222053 -0.05317633 0.0031523823 -0.07197614 -0.038912974 -0.027063861 -0.024775987
-0.07114401 0.0056617483 -0.08813776 -0.059713032 0.086289346 -0.018136127 -0.08262606 0.0816127
-0.05538277 -0.0720323 -0.088530205 -0.06703813 0.026704133 -0.029050957 -0.085639425 0.051365525
-0.053632975 0.08498565 -0.018447416 -0.101300545 -0.05238738 -0.055018887 -0.024420725 0.06063843
0.13933529 0.063597634 -0.14936186 -0.059088863 0.13958895 0.07020713 0.060576435 0.05498438
-0.02646516 0.11059859 -0.026092295 -0.027210789 0.00928655 -0.100659184 0.079191 -0.010293853
0.06315831 -0.009981267 -0.0632984 0.002581558 -0.03460913 -0.043022152 0.038600504 0.021381881
-0.12580913 -0.08449719 0.028716536 -0.0887997 -0.05623325 0.009715526 -0.12832437 0.019799286
-0.09329473 -0.012355368 -0.041537825 -0.05570647 -0.06997891 -0.019660523 0.022187646 -0.115928784
0.08043977 0.033942897 -0.10600103 -0.06923284 0.03163492 -0.02029714 0.068033375 -0.05251586
0.05615909 -0.011335978 -0.048152056 0.07601654 0.11968152 0.029135594 -0.075325586 0.057481408
0.038557887 -0.110924594 0.021137007 0.13215262 0.09649393 0.008524292 -0.1312195 0.10804613
00000000: 44a1 8ebd 2cda f2bc efa0 4f3c b995 4dbd
00000010: fd12 123a a537 0f3d 7606 133d 6370 8cbd
00000020: f29f f23b f607 f7bd ec08 93bd a0fb a5bd
00000030: 6746 2abc ac81 10be b248 88bc 392d 84bd
00000040: 9aab a03c 3658 1f3d 671c 5fbd 79e6 1a3d
00000050: e9b2 1abd 7b47 26bd 32d3 9fbc 7922 0dbe
00000060: 8859 2a3d 0a15 6ebd fdde 453d cc16 9dbd
00000070: 2d6c cf3d 0765 c33d c335 923d 9a79 02be
00000080: 0e57 6abd b2c6 c83d 4926 1dbd b60f 0e3e
00000090: 0bbe 2bbd 754a 1bbd c9e5 193e ddfa 843d
000000a0: aa63 433a b512 213d 7afc ba3d 3033 d93d
000000b0: 1d23 a53d 1818 6bbd 3d03 c939 690a 393d
000000c0: a4e7 ce3c b04c 84bd f7d5 ccbc 8082 3ebc
000000d0: 7aae aebd 7ea9 683d fe65 7f3d b7b2 993d
000000e0: 81cf d83d cb53 643d 581b f2bc 7ae4 32bd
000000f0: 34bf 4a3c eba6 10bd cb4c e93c 8bf0 1c3e
00000100: e84e 6abd 81ef 853c f6b7 06be 0927 763d
00000110: 67b8 d6bd ec83 da3d 38da a13b ce98 46bd
00000120: d257 1a3c 78c6 bbbb b80a c73c 2d0f 22bd
00000130: a3b8 8c3d 7b45 b1bd 7aa3 893d aa87 013e
00000140: 64e0 d0bd 312a e03d a8ca 5f3d 3e91 f6ba
00000150: dd20 a03d 7f4f 793b ab91 0a3e a903 2bbd
00000160: 7e1e a63c 8db7 bebd a6d2 f93d 4ad0 bc3d
00000170: bb2a 823d f048 12be e045 d9bd eb47 c4bc
00000180: 7956 743d 1afa 84bc 496b c03d fca2 973c
00000190: cd47 65bd 4202 9bbc c0d8 10be df49 993d
000001a0: 2118 bcbd ba0a 9f3d 5fd0 9fbd 671d cc3d
000001b0: 13a6 30bd 54b2 193c 82d9 c8bc 9cd6 583d
000001c0: b1eb 8d3c 2276 60bc ae49 f13d e859 9dbd
000001d0: 4011 a93d a386 883c f31a 363d 7683 08bb
000001e0: 0f11 84bd 538b 29bd ed7c ca3d 1015 893b
000001f0: 5752 993d 7975 11bd d2a5 98bd ae3c f2bd
00000200: 61e2 fb3d 8be9 253d 7c2a 053d aafe 923d
00000210: 6874 acbd e339 57bd ffb2 66bd 1cd6 073d
00000220: 46b2 353d 40b7 853d 6906 6f3d 16e0 3e3d
00000230: f41b afbd e24f 51bc 51ee f7bd 9139 5f3d
00000240: 8f73 f23c fa27 d03d bca8 313c 7d3a 623c
00000250: 361a e0bc 4c3c 4b3c d874 a2bd 1aa5 9aba
00000260: 6ce4 68bb ca75 80bd a864 863c b44d 30bd
00000270: 37bb 82bc ca7b 233c e879 96bc 61af d7bd
00000280: 879d 18be 32e5 55bd 6ccf 59bd 3398 4e3b
00000290: 3a68 93bd 3663 1fbd 08b5 ddbc 03f7 cabc
000002a0: f3b3 91bd 3086 b93b 9281 b4bd a795 74bd
000002b0: 78b8 b03d 3792 94bc da37 a9bd 8f24 a73d
000002c0: 0bd9 62bd ac85 93bd 534f b5bd 494b 89bd
000002d0: a0c2 da3c 46fc edbc b963 afbd a864 523d
000002e0: 40ae 5bbd f50c ae3d 091f 97bc a976 cfbd
000002f0: 2694 56bd 7c5b 61bd f90d c8bc 0160 783d
00000300: e9ad 0e3e 7a3f 823d 51f2 18be 2a07 72bd
00000310: 68f0 0e3e c1c8 8f3d ff1e 783d 4d37 613d
00000320: 77cd d8bc 8381 e23d 82bf d5bc 29e9 debc
00000330: 9d26 183c 6726 cebd e42e a23d 8ca7 28bc
00000340: 2559 813d 7888 23bc 97a2 81bd 5b2f 293b
00000350: 4ec2 0dbd ff37 30bd 901b 1e3d 0e29 af3c
00000360: 1cd4 00be dd0c adbd f13e eb3c 9edc b5bd
00000370: d654 66bd df2d 1f3c 7767 03be 1d32 a23c
00000380: 4f11 bfbd 2b6e 4abc 9123 2abd 782c 64bd
00000390: 1a51 8fbd 1b0f a1bc dec2 b53c 126c edbd
000003a0: 9bbd a43d b507 0b3d 1117 d9bd f2c9 8dbd
000003b0: 9e93 013d 3046 a6bc 1555 8b3d df1a 57bd
000003c0: 1307 663d 8aba 39bc 173b 45bd 8fae 9b3d
000003d0: 961b f53d c5ad ee3c 4d44 9abd a071 6b3d
000003e0: e0ee 1d3d 6f2c e3bd 8427 ad3c 0453 073e
000003f0: 9c9e c53d 79a9 0b3c 685e 06be 4a47 dd3d

lstm.weight_hh_l1 f4 [256, 64]
-0.012823609 0.05981166 -0.038621273 -0.0019908794 0.05736231 0.017362056 0.04722138 0.03659412
-0.12176017 -0.1091757 -0.06936417 -0.0788151 0.07075567 -0.07085859 -0.044779368 0.13072312
0.097679116 -0.041916605 -0.07885273 0.15291448 -0.0065878634 -0.06399974 -0.039287854 0.00823081
-0.008102005 0.029927943 0.036105167 -0.08614399 -0.01872474 -0.10755205 -0.093122765 -0.020480104
-0.07220256 -0.043743312 0.065473355 -0.020333111 0.04087705 0.045169372 0.1270199 0.06329636
-0.107582584 -0.002821929 -0.1286738 -0.15443309 0.042248253 -0.028350396 0.019020448 0.022068443
0.05213407 -0.102854654 0.123117216 0.035837814 -0.0617091 0.04871056 -0.11534689 -0.09312724
-0.078253075 0.0668014 -0.11213136 -0.0018935156 0.0058698882 -0.054293286 0.017947827 -0.0461441
-0.07767669 0.064074196 0.16594163 0.035076577 -0.013781239 -0.05365239 0.1283357 0.1348606
0.124690466 -0.020441622 0.02156749 0.018913774 -0.075112574 -0.04280263 -0.07328096 0.11950371
0.008725923 -0.057858843 -0.11317671 -0.005482894 0.06900381 0.04668439 0.014884305 0.0099956915
-0.005925043 -0.04524056 -0.08842073 -0.07818466 0.040276535 -0.060424205 -0.13956137 0.08077091
-0.016121482 -0.003315786 0.07770587 0.07723028 -0.041705277 -0.06207779 0.10743664 0.014161126
0.0829574 0.022161443 -0.13938402 -0.004671989 -0.013203077 0.029560616 0.05502251 -0.07764456
0.029018793 -0.050786193 -0.07068836 -0.09455599 -0.071830824 -0.09471772 0.05882764 -0.06870488
-0.035370804 0.14759065 -0.1265387 -0.097092204 0.038349427 0.05016343 0.06318461 -0.0366295
0.057911277 0.04847375 0.05321888 0.0056994054 0.006151843 0.015990566 0.08462542 0.010910204
0.096223325 -0.08787251 -0.036244817 0.079631254 0.024382986 -0.04640203 -0.029254561 -0.0070292247
-0.05598044 0.06785163 -0.039048932 0.06571059 -0.10625048 -0.054699566 0.021396093 0.118488386
0.054291856 -0.03583605 -0.07244037 0.043340575 0.04404962 -0.10004283 -0.06693429 0.13323647
-0.12532422 0.10975093 -0.047680527 -0.0322809 -0.10810311 -0.1393055 0.053932026 -0.15993147
0.014570277 0.03565745 -0.040679794 0.029052021 -0.09201443 0.008066498 0.08438445 -0.10946552
-0.05399772 0.04501688 -0.10315282 0.058964804 -0.0013648301 -0.11844054 -0.024730692 -0.06624794
0.14526033 -0.018073382 -0.03538878 0.021472426 -0.08769273 0.106222175 -0.049013752 -0.094893634
-0.0909509 0.07836473 -0.01801468 0.097151704 -0.06351532 0.030990763 -0.045438766 -0.047779586
0.13655438 0.008324431 0.06937977 0.09024539 0.058594026 -0.045871202 -0.0073081586 -0.066752166
-0.11524919 0.0065016034 -0.0031572091 -0.037801266 0.07845025 0.104520746 0.1370592 0.034818664
0.01861828 0.116661794 -0.10588022 -0.06775687 0.077298686 -0.046264704 -0.14443249 0.062827125
-0.1236442 -0.12829614 0.00013418525 -0.0029809847 0.036835868 0.0069430685 0.068996035 0.053043105
0.02337283 -0.11378479 0.030686386 0.04487657 -0.013223014 0.08260355 0.14661087 -0.10010233
0.011036085 -0.054386526 -0.0823285 0.038731806 0.0017252035 0.029501481 -0.1381277 0.04209599
0.13654129 0.05302316 -0.08823218 0.08085159 -0.022780573 0.11387551 0.06856659 -0.011523224
00000000: 1d1a 52bc 12fd 743d 5731 1ebd 6a79 02bb
00000010: bef4 6a3d df3a 8e3c 356b 413d b7e3 153d
00000020: 655d f9bd 8297 dfbd cd0e 8ebd d069 a1bd
00000030: 59e8 903d 4f1e 91bd 926a 37bd 48dc 053e
00000040: fd0b c83d bfb0 2bbd 8a7d a1bd 9d95 1c3e
00000050: 01df d7bb 4c12 83bd 4dec 20bd 85da 063c
00000060: 46be 04bc 722b f53c 03e3 133d 436c b0bd
00000070: a064 99bc 4044 dcbd 26b7 bebd e4c5 a7bc
00000080: f0de 93bd 302c 33bd e516 863d a091 a6bc
00000090: b26e 273d 8503 393d 8111 023e 86a1 813d
000000a0: 4254 dcbd 1df0 38bb 11c3 03be b523 1ebe
000000b0: 810c 2d3d 173f e8bc c5d0 9b3c e1c8 b43c
000000c0: 898a 553d 76a5 d2bd e124 fc3d acca 123d
000000d0: aec2 7cbd b984 473d fe3a ecbd 7fb9 bebd
000000e0: 2643 a0bd 2ccf 883d 20a5 e5bd d72f f8ba
000000f0: 3158 c03b a362 5ebd 5207 933c 9901 3dbd
00000100: f514 9fbd 5539 833d 9aec 293e 75ac 0f3d
00000110: b5ca 61bc 9cc2 5bbd 6f6a 033e e618 0a3e
00000120: b75d ff3d 3075 a7bc 4eae b03c 0ff1 9a3c
00000130: 9fd4 99bd d051 2fbd 5414 96bd 5cbe f43d
00000140: 2cf7 0e3c 65fd 6cbd 31c9 e7bd d9a9 b3bb
00000150: df51 8d3d 2238 3f3d 4ddd 733c f8c4 233c
00000160: dd26 c2bb 2a4e 39bd ed15 b5bd 471f a0bd
00000170: 02f9 243d 5f7f 77bd 2de9 0ebe 386b a53d
00000180: 3311 84bc a84d 59bb 4124 9f3d e92a 9e3d
00000190: 27d3 2abd 4845 7ebd be07 dc3d 1104 683c
000001a0: 92e5 a93d ea8b b53c afba 0ebe 7c17 99bb
000001b0: b851 58bc 1b29 f23c 495f 613d 1c04 9fbd
000001c0: d2b8 ed3c 2f05 50bd 0fc5 90bd 92a6 c1bd
000001d0: 0a1c 93bd 5dfb c1bd 40f5 703d 25b5 8cbd
000001e0: fae0 10bd 0122 173e 5c93 01be 47d8 c6bd
000001f0: 4a14 1d3d 2b78 4d3d ef66 813d d108 16bd
00000200: 6034 6d3d 698c 463d 0afc 593d 14c2 ba3b
00000210: 6695 c93b a6fe 823c 1850 ad3d b6c0 323c
00000220: bc10 c53d 81f6 b3bd 7275 14bd b615 a33d
00000230: d4be c73c 0e10 3ebd 43a7 efbc 6955 e6bb
00000240: bf4b 65bd ccf5 8a3d c6f1 1fbd 4693 863d
00000250: da99 d9bd a70c 60bd dc46 af3c 0aaa f23d
00000260: 2361 5e3d d2c8 12bd 9e5b 94bd e385 313d
00000270: 606d 343d 41e3 ccbd d814 89bd 246f 083e
00000280: fe54 00be 18c5 e03d a84c 43bd fa38 04bd
00000290: 2a65 ddbd 1aa6 0ebe d4e7 5c3d 13c5 23be
000002a0: 2cb8 6e3c 8c0d 123d db9f 26bd 81fe ed3c
000002b0: 1072 bcbd 5829 043c c1d1 ac3d 752f e0bd
000002c0: b72c 5dbd 9f63 383d c941 d3bd 1485 713d
000002d0: 19e4 b2ba f490 f2bd 0598 cabc 00ad 87bd
000002e0: 20bf 143e a10e 94bc d3f3 10bd f1e6 af3c
000002f0: 3f98 b3bd 038b d93d a5c2 48bd 9857 c2bd
00000300: 7744 babd b07d a03d 8693 93bc 79f7 c63d
00000310: 5214 82bd 57e0 fd3c 001e 3abd 87b4 43bd
00000320: e9d4 0b3e 3263 083c fb16 8e3d 93d2 b83d
00000330: 4a00 703d 71e3 3bbd 4779 efbb 5cb5 88bd
00000340: c407 ecbd 670b d53b 2ee9 4ebb 80d5 1abd
00000350: 86aa a03d f90e d63d 3f59 0c3e 049e 0e3d
00000360: 5d85 983c 61ec ee3d bbd7 d8bd 1dc4 8abd
00000370: c64e 9e3d 0f80 3dbd 1ce6 13be 82ab 803d
00000380: 2c39 fdbd 1060 03be 14b4 0c39 a05c 43bb
00000390: 35e1 163d ae82 e33b cb4d 8d3d ba43 593d
000003a0: 6178 bf3c 0008 e9bd 0462 fb3c 7fd0 373d
000003b0: 57a5 58bc 0d2c a93d 2921 163e 7302 cdbd
000003c0: b2d0 343c 68c4 5ebd d89b a8bd 3ea5 1e3d
000003d0: 3920 e23a 17ad f13c 5971 0dbe d86c 2c3d
000003e0: 7bd1 0b3e d02e 593d 13b3 b4bd 8595 a53d
000003f0: 539e babc 9037 e93d a46c 8c3d e8cb 3cbc

lstm.bias_ih_l1 f4 [256]
-0.0025797684 0.13996215 0.030477306 0.0077077877 0.006807597 0.07994636 -0.09575736 0.10729814
-0.031039465 -0.06350902 0.09986886 0.109223865 0.042761773 0.017524468 -0.08213455 0.09313729
0.0011927519 0.11528101 0.02645553 -0.083711766 -0.03992209 -0.045674786 0.042827837 0.05366574
0.10354422 -0.007287573 0.058388676 -0.0012421659 0.036314942 -0.07747056 0.080442645 -0.0145244235
0.053756703 -0.09543115 0.093371265 -0.023718204 0.08957094 -0.07699362 0.018331608 0.031737603
-0.057166282 -0.00015013694 0.007266974 0.011812495 -0.018854938 0.092936836 -0.08320421 0.07688101
-0.06983955 0.13299079 0.14283411 0.03344076 -0.019829486 0.0738943 0.03617809 -0.08246202
-0.064279996 -0.00037077029 -0.07045074 0.08557986 -0.025052894 -0.06636484 -0.116784684 0.08105641
-0.031130912 -0.074645445 0.042289075 -0.068720564 -0.061036423 -0.10887282 0.09566473 -0.07013538
-0.0131388875 0.007022304 0.03759333 -0.07876427 -0.00873359 0.1209384 0.13467146 -0.06976504
0.015920993 -0.06981819 -0.066350274 0.08071582 -0.057796482 0.13581069 0.032514527 0.08567616
0.11489443 0.039218683 0.024218155 -0.008515631 0.12744963 0.04027214 0.02765886 -0.12391043
-0.10000356 -0.075157955 0.10811254 0.08562197 -0.06976242 0.04799967 -0.11855159 -0.08377039
0.011198051 -0.006966793 -0.04003352 -0.022103403 0.06959903 -0.030748054 -0.03127185 -0.07000259
0.05517277 0.066537395 -0.022379726 -0.010039477 0.1337961 -0.094423115 0.044177797 -0.0908227
-0.028162258 -0.03664871 0.066067785 0.037747197 0.0006342853 0.00012228369 0.06280025 0.045557547
0.006835371 0.06184803 0.084349155 0.0912444 -0.07267592 -0.0697229 0.03381678 -0.0045897304
-0.08637597 0.09200116 -0.0576697 -0.11094377 -0.07984518 0.000684961 0.053053442 -0.11097449
-0.09048778 -0.03555024 -0.11930582 -0.045442235 0.0028071965 -0.07073682 -0.060188163 0.007058845
0.037106235 0.00089237985 -0.058494374 0.08884063 -0.07735633 0.07455197 -0.01696956 -0.11308009
-0.124109834 -0.024321608 0.02448938 0.007434613 -0.0019018111 0.10469112 -0.039485842 -0.03869402
-0.10291216 -0.07095159 -0.037826356 -0.044693857 0.051661015 -0.098633 0.08805352 0.05138711
-0.04056035 0.08662004 -0.018848764 -0.026588626 0.0057553905 -0.07675629 -0.039836563 0.070109025
-0.08077992 -0.0074937665 0.11696358 -0.03820151 -0.090913214 0.029960958 0.03023311 0.0653508
-0.0747913 0.15009257 -0.06579302 0.0035268445 0.040720467 0.11369978 0.13871104 -0.036179576
0.084267795 -0.08680284 -0.083892316 0.08428206 0.070433594 -0.058415614 -0.05073159 -0.07071603
0.10864366 0.04535942 0.09437277 0.1224862 -0.06549626 0.06929908 0.07655909 0.07788861
0.08710324 0.041495897 -0.11293238 0.002975628 -0.0036172806 -0.027094016 0.11850693 0.024305264
-0.011092555 0.033821918 -0.09054133 0.03196776 0.065442614 0.032093126 -0.07686518 -0.07485654
-0.020819794 0.054354187 0.13180096 0.133048 0.14083584 -0.013631155 0.0071437834 0.01364869
0.09321713 -0.029163955 -0.100345805 0.09951505 -0.0025574157 -0.06356979 -0.13307834 0.052749805
0.019964019 -0.102233745 0.14290811 0.024729092 0.0018788695 0.15241244 -0.0868358 -0.054921627
00000000: 5511 29bb 3d52 0f3e 8bab f93c 9c91 fc3b
00000010: 4312 df3b ebba a33d 6f1c c4bd 21bf db3d
00000020: 7a46 febc 0411 82bd 0b88 cc3d c3b0 df3d
00000030: f826 2f3d 798f 8f3c 2936 a8bd c3be be3d
00000040: 1d56 9c3a 7318 ec3d 45b9 d83c 1371 abbd
00000050: 5885 23bd 7c15 3bbd 3e6c 2f3d 9bd0 5b3d
00000060: fe0e d43d 98cc eebb f728 6f3d 2cd0 a2ba
00000070: fabe 143d e3a8 9ebd 1dbf a43d d9f7 6dbc
00000080: fd2f 5c3d 6871 c3bd 6f39 bf3d ae4c c2bc
00000090: f870 b73d d5ae 9dbd 2b2c 963c 4aff 013d
000000a0: 3127 6abd 146e 1db9 cc1f ee3b 3289 413c
000000b0: ac75 9abc ab55 be3d f866 aabd ca73 9d3d
000000c0: 0a08 8fbd bd2e 083e 1b43 123e 2ef9 083d
000000d0: 7271 a2bc e555 973d 7a2f 143d d9e1 a8bd
000000e0: 3ba5 83bd f263 c2b9 7a48 90bd 7e44 af3d
000000f0: ba3b cdbc 4aea 87bd cf2c efbd e700 a63d
00000100: 4106 ffbc b6df 98bd 4f37 2d3d 5ebd 8cbd
00000110: 5401 7abd b7f8 debd dfeb c33d 23a3 8fbd
00000120: 7d44 57bc 5b1b e63b 77fb 193d 294f a1bd
00000130: 5517 0fbc 8dae f73d 51e7 093e f9e0 8ebd
00000140: be6c 823c d7fc 8ebd a7e2 87bd 564e a53d
00000150: 01bc 6cbd f511 0b3e f42d 053d fc76 af3d
00000160: c54d eb3d c5a3 203d 2765 c63c 2585 0bbc
00000170: 2882 023e 66f4 243d d594 e23c c0c4 fdbd
00000180: abce ccbd 6aec 99bd 1b6a dd3d 925a af3d
00000190: 9adf 8ebd 4d9b 443d 2dcb f2bd cf8f abbd
000001a0: 0878 373c b249 e4bb 30fa 23bd 3212 b5bc
000001b0: f089 8e3d 58e3 fbbc e916 00bd 855d 8fbd
000001c0: d8fc 613d c244 883d b055 b7bc 9e7c 24bc
000001d0: d801 093e e860 c1bd c7f3 343d 4001 babd
000001e0: 89b4 e6bc f51c 16bd 8c4e 873d ce9c 1a3d
000001f0: 2a46 263a 4739 0039 6b9d 803d 8d9a 3a3d
00000200: 3ffb df3b 5c54 7d3d 40bf ac3d 58de ba3d
00000210: 1dd7 94bd e1ca 8ebd 7783 0a3d 7365 96bb
00000220: e2e5 b0bd 1b6b bc3d 1037 6cbd 7d36 e3bd
00000230: df85 a3bd f48e 333a 914e 593d 9846 e3bd
00000240: a851 b9bd 219d 11bd 9c56 f4bd a321 3abd
00000250: f1f8 373b 77de 90bd dd87 76bd e24d e73b
00000260: b5fc 173d 99ee 693a cc97 6fbd 14f2 b53d
00000270: ff6c 9ebd b4ae 983d bf03 8bbc 8996 e7bd
00000280: 4c2d febd 1c3e c7bc f49d c83c 0e9e f33b
00000290: 3146 f9ba 4c68 d63d e8bb 21bd 9f7d 1ebd
000002a0: 9cc3 d2bd 114f 91bd cfef 1abd e810 37bd
000002b0: 809a 533d 1900 cabd 6755 b43d 4a7b 523d
000002c0: 9c22 26bd d965 b13d b968 9abc 64d0 d9bc
000002d0: b797 bc3b 6732 9dbd aa2b 23bd 5295 8f3d
000002e0: f16f a5bd 458e f5bb 9a8a ef3d 3079 1cbd
000002f0: b530 babd af70 f53c 6dab f73c a4d6 853d
00000300: 2e2c 99bd deb1 193e 7ebe 86bd a222 673b
00000310: 81ca 263d 6edb e83d 440a 0e3e 0931 14bd
00000320: 9894 ac3d b0c5 b1bd bccf abbd 139c ac3d
00000330: 7d3f 903d 3645 6fbd edcb 4fbd 91d3 90bd
00000340: 9180 de3d cdca 393d 8346 c13d 0bda fa3d
00000350: e722 86bd adec 8d3d 03cb 9c3d 1084 9f3d
00000360: 2f63 b23d 9af7 293d 1749 e7bd c102 433b
00000370: e60f 6dbb 45f4 ddbc c3b3 f23d d51b c73c
00000380: 8cbd 35bc da88 0a3d bc6d b9bd a0f0 023d
00000390: c706 863d 1574 033d 7e6b 9dbd 634e 99bd
000003a0: 468e aabc 7fa2 5e3d d5f6 063e bc3d 083e
000003b0: 4537 103e 3555 5fbc 6616 ea3b c19e 5f3c
000003c0: 9fe8 be3d 3fe9 eebc 1a82 cdbd 8cce cb3d
000003d0: 519a 27bb e130 82bd b045 08be 2e10 583d
000003e0: 958b a33c ed5f d1bd 8156 123e aa94 ca3c
000003f0: 6644 f63a 0212 1c3e f8d6 b1bd 80f5 60bd
