src/Backend-Information/Clod-weather_predict/Guangxi_lstm_model.pth (torch, 208379 bytes, 11 tensors)

lstm.weight_ih_l0 f4 [256, 3]
000000 b0 5d 00 bc 27 ab 4e 3d 8e 84 bc bd 3b 9b ba 3d
       -0.007834837 0.050456192 -0.0920497 0.09111639
000010 da 51 fc bd 6e 46 f2 bd 06 12 26 bc a7 c6 f7 3d
       -0.123202994 -0.1182984 -0.010136133 0.12098437
000020 c0 78 67 bb ec be 82 bd 39 9f c0 3c 70 e5 d9 bc
       -0.0035319775 -0.06384072 0.023513423 -0.026598662
000030 69 59 82 3d 84 c3 05 3e 9c b8 fb bd 81 24 93 bd
       0.0636471 0.13062865 -0.12291071 -0.07184697
000040 26 f5 b0 bc f8 05 fe 3c 73 1d 1d be 42 b9 f0 bc
       -0.02160127 0.031008705 -0.15343265 -0.029385213
000050 6c 74 85 bd f7 bf b1 bc 9a 89 2a bd 2c c1 ef bd
       -0.06516346 -0.021697981 -0.041635133 -0.117067665
000060 bc c0 64 bd 4b 97 8f bc a2 44 d6 bd a6 67 e4 3c
       -0.05584787 -0.017528197 -0.104623094 0.027881455
000070 80 7f e7 bc 40 9e e2 3d db a9 08 3c aa 5c 04 be
       -0.028259039 0.1106534 0.008341278 -0.12925974
000080 88 7d 33 bd 5c af 86 bd 3b df e6 bd 98 b2 a2 bd
       -0.043820888 -0.06576416 -0.112730466 -0.0794422
000090 bf c6 78 bd f5 6d 8b b9 06 21 f1 bd 2a db 4c bc
       -0.060736414 -0.0002659407 -0.11773877 -0.012503425
0000a0 65 5a 2f 3d 92 be a4 3d 5b 6a 97 bd 27 50 5b 3d
       0.042810816 0.08044161 -0.073933326 0.053543236
0000b0 da 95 d1 3d 0a a1 30 3c ad 34 f1 3d f0 00 7a 3c
       0.1023366 0.010780582 0.11777625 0.015259013
0000c0 8d d1 b2 bd 2b 45 cc 3d 00 b2 89 3c d7 79 9e 3d
       -0.08731375 0.0997413 0.01680851 0.07738083
0000d0 bb 43 63 3c d0 0d 4e bd b5 4e ac 3d 6d e4 aa 3c
       0.013871129 -0.05030614 0.0841345 0.020860875
0000e0 5c da 92 bd ea 46 a6 bd 18 9b 07 3d 96 5d 98 bd
       -0.07170555 -0.081189945 0.033106893 -0.07439725
0000f0 86 7c 17 be 5e 4b dd 3c 68 be 7f 3d 29 df 17 bd
       -0.14793596 0.027013477 0.062437445 -0.037078056
000100 c0 c9 51 3d 92 bd fd bd af d9 56 3c 22 57 da 3d
       0.051217794 -0.12389673 0.013113423 0.106611505
000110 fc 39 d8 bd 52 37 83 3d 03 fd cb 3c 78 ec a2 3d
       -0.10557935 0.06407036 0.024900919 0.07955259
000120 10 f4 46 3d dc 3d 8c bd 1e 4a ba 3d 8b e9 1d be
       0.0485726 -0.06847736 0.09096168 -0.15421121
000130 14 9a 9c bd 8c b5 ee bd 21 d9 51 3c 54 1a 92 3d
       -0.076465756 -0.11655721 0.012808115 0.07133928
000140 fc 46 70 3d 10 b9 ba bb 71 2e 17 3c 3c 64 35 3d
       0.058661446 -0.0056983307 0.009227381 0.044285044
000150 c0 5e 07 be ce a5 18 bd 1e 38 9a 3d d0 2f 02 bc
       -0.13219738 -0.0372675 0.07530235 -0.00794597
000160 1b 3d 0c be ac 7b af 3d 7a 80 df bd ff 32 6e 3c
       -0.13695185 0.085685104 -0.10913177 0.014538526
000170 e0 36 bf 3c c0 a6 5d bd f3 bb 4e 3c ac 7c 0d 3d
       0.023341596 -0.054114103 0.012618053 0.034542724
000180 34 49 31 3c 69 32 da bc f0 79 41 3c d3 db 5b 3d
       0.010820676 -0.026635366 0.011808857 0.053676438
000190 e3 b4 20 be a0 b9 0d bc c5 59 8b bd 8e d3 13 3d
       -0.15694003 -0.0086502135 -0.068042316 0.036090426
0001a0 2a 53 cd bd e1 18 7a 3b 96 e5 9d bb 5c 7c 7c bd
       -0.10025628 0.0038161802 -0.0048186285 -0.061642036
0001b0 0e d1 fe 3c 78 81 e9 bd 02 3c aa bd fa ad 63 bd
       0.031105544 -0.11401647 -0.08312227 -0.05558584
0001c0 98 ed c0 3c 76 59 8d bd 9d cc 21 bd 3b 47 46 3d
       0.023550794 -0.06901829 -0.039501775 0.048407774
0001d0 40 45 8e bc 26 5b e8 bc a7 0b 26 3d f6 5d ea bd
       -0.017367005 -0.028363775 0.040538456 -0.11443703
0001e0 29 be f2 3d d0 8b f5 bd 9c c0 6f 3d bc 53 ca 3d
       0.118526764 -0.11989558 0.058533296 0.09879252
0001f0 cb 1e 88 bd f8 14 f9 bd 11 b7 96 3c 7c b6 68 3d
       -0.06646498 -0.121622026 0.01839784 0.056814656
000200 72 90 ca bd 74 05 7d bd 0f 8b d1 3d de 79 bb 3d
       -0.09890832 -0.06177278 0.102316014 0.09154104
000210 9b 34 c9 bd 4c 33 0b 3e ce f9 ff bd 22 38 e2 bd
       -0.09824487 0.13593787 -0.12498818 -0.11045863
000220 5d b6 38 3d 44 d4 ca bd 67 37 5b 3d 0d d7 fe bb
       0.04509579 -0.09903768 0.053519633 -0.007777101
000230 7c a5 5d bd ff 6f 7a 3d 23 d4 1a 3c 44 2f be 3d
       -0.054112896 0.061141964 0.009449991 0.09286359
000240 af 88 56 bd fa d5 95 bd 3e d8 9a bd ac 5e d3 bc
       -0.052376445 -0.073162034 -0.07560776 -0.025801979
000250 c8 99 6c 3d 5c 84 ff 3d 00 ad c1 3b fb d5 17 3d
       0.057763845 0.124764174 0.005910516 0.037069302
000260 5c f3 5a bd b8 de 42 bd d8 91 8e 3d e4 8d ab 3d
       -0.05345474 -0.047575682 0.06961411 0.08376673
000270 d9 be 89 bd af ff 74 bc 3c 0b ea 3d 92 83 c0 bd
       -0.067258544 -0.014953538 0.11427924 -0.09400095
000280 45 34 97 3d 34 b7 f9 bd 55 43 0d 3c a7 6c 1a 3d
       0.073830165 -0.12193146 0.00862201 0.037701275
000290 e8 a6 91 bc 03 15 b0 bd 7d 0e fc bc 16 53 bd 3d
       -0.017779782 -0.08597758 -0.030768627 0.09244363
0002a0 c2 26 df bd 62 2c 14 3e 7c 92 0a 3d 9b ba 5e bd
       -0.10896064 0.14470056 0.033831105 -0.05437718
0002b0 05 10 d5 3d 98 55 ab bd b7 4a 6f bd 10 37 ed bc
       0.10403446 -0.08365935 -0.058420863 -0.02895692
0002c0 80 59 ed 3a 57 cb 1a bd fd cc 3d 3d f8 b1 d5 3c
       0.0018108338 -0.037791576 0.04633807 0.026085839
0002d0 72 dc 77 3d 67 02 af 3d b0 70 90 bd 01 34 43 bc
       0.060512967 0.0854538 -0.070527434 -0.011914254
0002e0 25 2f 5f 3d 10 3a 8b bc e9 88 7f 3c 90 59 04 3e
       0.05448832 -0.01699546 0.015596607 0.1292479
0002f0 e4 8a e8 bd c7 e5 5f bc fe b3 5f 3d 3a 31 c0 bd
       -0.11354616 -0.013665623 0.054615013 -0.09384389
000300 e7 52 b6 3d a2 6e a3 bd 04 7c ec bd b6 dc a5 3d
       0.08902531 -0.07980086 -0.115470916 0.08098738
000310 f9 4b 11 be fc 18 a1 3d de 41 96 bc d6 bd f8 3d
       -0.14189138 0.078660935 -0.018341955 0.12145583
000320 80 cb 2e 3d b5 3b b5 bd 14 2c 42 bd 9c 39 9b bd
       0.04267454 -0.08849279 -0.047405317 -0.075793475
000330 8c db fc bd 2a 93 8f bd 80 12 6d 3b a2 a7 8a 3d
       -0.12346563 -0.07010491 0.0036174357 0.06770255
000340 6a dd 88 3d 88 61 9f bd 11 1a 6d 3c 96 33 fc 3d
       0.066828564 -0.077822745 0.014471547 0.12314527
000350 a8 06 ab 3d 0e 7d a5 bd b8 11 e6 3d fc aa 61 bd
       0.08350879 -0.08080493 0.11233848 -0.055094704
000360 68 57 1c be b7 ae de 3d 28 14 e5 bd 92 c2 92 39
       -0.15267718 0.10873168 -0.11185485 0.00027992256
000370 c8 93 32 3d fc 19 80 3d 17 b1 04 bc 0a a8 81 3d
       0.043597966 0.06254956 -0.008098862 0.06330879
000380 3a 50 ee bd 95 b4 4c bc dc 47 7b 3d c0 4d aa 3b
       -0.11636396 -0.012494226 0.061347827 0.005197257
000390 e6 80 c8 3d 59 1e ab bd e0 91 6a bd 2a 2d b3 bd
       0.097902104 -0.08355398 -0.057268023 -0.08748849
0003a0 b1 89 c2 3c 2c 8a dd bd 86 79 02 be 8e c8 cd 3b
       0.023747297 -0.1081737 -0.1274167 0.0062800115
0003b0 28 23 d5 bc cf a6 49 bd 77 13 28 3d 68 a5 0d bd
       -0.02601774 -0.049231347 0.041034188 -0.03458157
0003c0 69 3e f8 bd 12 22 c4 3c 54 44 6c bd 64 77 10 bd
       -0.12121279 0.023942027 -0.05768235 -0.03527011
0003d0 06 bd 03 3e 46 fe ad bd ec ae e8 3b 38 bc 19 3e
       0.12865075 -0.084957644 0.0071009304 0.15013206
0003e0 c0 70 6c 3d f6 07 9e bd 9d 5c 8a bd e0 ef c5 bc
       0.057724714 -0.07716362 -0.06755946 -0.024162233
0003f0 1f 31 15 3d 1e a3 90 3d 90 a6 67 bc 24 a8 75 bd
       0.0364238 0.07062362 -0.014138833 -0.059974805

lstm.weight_hh_l0 f4 [256, 64]
000000 e1 96 50 bd e8 ee d6 bc ad b2 f7 3d d0 d1 ce 3d
       -0.05092514 -0.026236966 0.120946266 0.10098612
000010 48 d6 64 bd 27 49 07 3e 36 50 d1 bc f9 11 b3 3d
       -0.055868417 0.13211499 -0.025550943 0.087436624
000020 6d 0d 46 bc 79 00 10 3e 72 29 1c bd 89 9b 87 3d
       -0.012088162 0.1406268 -0.038125463 0.06621463
000030 26 de 87 bc 39 f5 ee bb 04 54 2f 3d 60 11 79 bd
       -0.01658542 -0.0072924164 0.042804733 -0.060807586
000040 ab 2f 5e bd c1 46 7f bc 34 d9 de 3d bd 1e a4 bd
       -0.05424468 -0.015580834 0.10881272 -0.08013675
000050 f2 2d 45 bd 5d 5e e2 bd cf 68 b3 bd 29 45 8c bd
       -0.04813952 -0.110531546 -0.08760225 -0.06849129
000060 71 da ea 3d 89 47 f4 3c ac 4b b5 3c b1 45 db bd
       0.11467446 0.029819267 0.02213081 -0.10706652
000070 ca f8 d1 bd a5 4d b3 3d 4b 24 5b 3d 6c 0d f3 3d
       -0.10252531 0.08755044 0.05350141 0.118677944
000080 10 87 db 3d 66 3f 69 bd b7 75 de 3a 51 ff 1f bd
       0.107191205 -0.056945227 0.0016972338 -0.039061848
000090 d0 f9 9e 3d ce 7b 7a bd a0 0d a6 3d a3 74 d9 3c
       0.07762492 -0.061153226 0.081080675 0.026544875
0000a0 ad e9 33 bd f5 52 4c bd f9 80 30 3d 54 11 8e bd
       -0.043924022 -0.0498838 0.043091748 -0.06936899
0000b0 f4 ef e5 bd cb c4 9a bc 2f 5a b9 bd 5c 52 c3 bc
       -0.11227408 -0.018892666 -0.09050404 -0.023842983
0000c0 01 85 00 3e ee d0 08 3e 0f 5f 9e 3d 83 2f a3 3d
       0.12550737 0.1336095 0.07732975 0.079680465
0000d0 a5 ff 7e 3d 06 79 2a 3d 5a 94 87 bd 1d d5 82 3d
       0.06225552 0.041619323 -0.06620093 0.063883044
0000e0 aa 04 68 3d 6f 34 39 bd 13 d1 6d bc 7d a2 3c 3d
       0.056645073 -0.04521602 -0.014515179 0.0460534
0000f0 e6 15 62 3c e4 ff e3 3d e6 17 ef 3d 4f 22 88 bd
       0.013799166 0.11132792 0.1167448 -0.06647169
000100 65 93 9c bd 8b 8f d0 bd 6e 1d 43 bd 6f 2e 5b bd
       -0.07645301 -0.10183629 -0.04763549 -0.05351108
000110 31 4a 72 3d 9b 5f f0 3d 56 06 16 bd 10 d1 05 3e
       0.059152786 0.11736985 -0.036627136 0.13068032
000120 c3 ca 84 3d c1 79 15 3e af 55 a2 3d df 90 bf bd
       0.06483986 0.14597227 0.07926499 -0.09353804
000130 49 aa b6 3d d1 a7 e2 3c bf 19 55 3d ef e0 63 bc
       0.08919198 0.027667912 0.052026507 -0.013908609
000140 1e 05 cc bc 93 10 77 bd 2e ae bc 3d b0 dc cb bd
       -0.024904784 -0.06031854 0.0921291 -0.09954202
000150 53 c2 f0 3d 04 b0 f2 3c 1a d8 be 3d 1b bb 8f 3d
       0.117558144 0.029624946 0.09318562 0.070181094
000160 2a 4e 8c bd 1b d6 6a bc 3b b3 91 3d 94 b9 f5 bd
       -0.06850846 -0.014333273 0.071142636 -0.11998287
000170 82 fb 00 3d 90 74 06 3d 76 c1 f9 3d 7f 4b 0f be
       0.031489857 0.032826006 0.12195103 -0.13993643
000180 13 22 88 bd 96 e5 ff bc 88 52 22 be 26 7d a3 3d
       -0.06647124 -0.031237405 -0.15851796 0.079828545
000190 1b 46 96 bc a9 e9 a2 bd 8a 60 34 bd 56 12 a1 3d
       -0.018343976 -0.079547234 -0.04403738 0.078648254
0001a0 6d 48 41 bd bf aa b3 3d 71 00 24 bd 14 6f 19 3e
       -0.04718821 0.087728016 -0.040039483 0.14983779
0001b0 81 cb b8 3d d3 26 ed bd 23 17 7f 3d a0 8a 07 3e
       0.0902319 -0.11579671 0.062277924 0.13236475
0001c0 30 ca ef bc 9b 0d 9e 3c 35 65 ec 3d d1 49 0a be
       -0.029271215 0.019293597 0.11542741 -0.13504721
0001d0 db ec ae 3d 20 ce 92 bd 2e 0a 7d bd 3b 85 a0 bd
       0.0854127 -0.071682215 -0.061777286 -0.07837912
0001e0 8c 8e c7 3d b3 cf 1e 3e e8 19 37 3d b1 2f 84 bd
       0.097439855 0.15508918 0.04470244 -0.06454409
0001f0 d0 8c 9f bd f7 b6 a3 bd fc b8 f9 3c d3 ff be 3d
       -0.0779053 -0.07993882 0.030483715 0.09326138
000200 99 32 5d bd d4 d8 26 be 5b 31 c3 bd c9 2d 63 bc
       -0.05400333 -0.16293651 -0.09530898 -0.0138658965
000210 35 f0 f8 3d 97 70 c0 bc 3a 29 e1 3d 9b 97 1a 3d
       0.12155191 -0.023491187 0.109941915 0.03774224
000220 4a 0e 49 3d 6a 84 d5 3d e3 da 4f 3d 9a 83 aa bd
       0.049085893 0.104256466 0.050745856 -0.08325882
000230 dc 57 92 bc 72 4e 15 bd cb 6c a4 bd 56 cd 93 bd
       -0.01786416 -0.036451764 -0.08028563 -0.07216899
000240 20 a5 12 3e 1e 1d 53 bd 1d eb 81 bc a0 65 94 bd
       0.14320803 -0.05154144 -0.015859181 -0.07245946
000250 a5 1d 94 3d a3 60 92 3d c4 2d a1 3d b1 8f 01 3e
       0.07232217 0.07147338 0.07870057 0.1265247
000260 ee 70 55 3d b9 3d bf bc f4 b4 f1 3b dc 4f 5a bd
       0.05210965 -0.023344861 0.0073763076 -0.053298816
000270 3b e9 7a 3d 46 6e 31 3e 5b 47 46 3d 37 90 db bd
       0.061257582 0.17327222 0.048407894 -0.10720866
000280 f8 f2 58 bc b9 75 91 3d ef 54 40 3d 72 c3 ef 3b
       -0.013241522 0.07102532 0.046956 0.007317
000290 99 4e 04 be 70 89 53 bd da 7c 1e bc 7c 2d 20 3d
       -0.12920608 -0.051644742 -0.009673322 0.039105877
0002a0 3d 53 b9 bc 1d 1c 39 3d 43 93 05 3d 77 99 3b bd
       -0.022622699 0.045192827 0.032611143 -0.045800652
0002b0 53 8a 35 3d 69 cd 83 bb b4 4a d6 bd b4 cd da bc
       0.04432137 -0.0040222895 -0.10463467 -0.026709415
0002c0 00 1e dc bd e7 e0 ed bd 26 9e 19 3c 9e 09 8b bd
       -0.107479095 -0.11615162 0.009376084 -0.06788944
0002d0 76 45 a0 bc bd cf 14 bd cb d1 a2 3d 69 31 5e 3d
       -0.019564372 -0.036330927 0.07950171 0.05424634
0002e0 a8 d0 4a bb 03 41 10 3e f0 55 1c bd 7d 9f 04 3e
       -0.0030947123 0.140873 -0.038167894 0.12951465
0002f0 fc e0 09 3e f4 a5 c4 3d 79 80 99 bb 5b f3 dc 3d
       0.13464731 0.096019655 -0.0046845046 0.10788604
000300 32 f5 b2 bc 32 8d 96 bc a9 d4 c4 bd e7 8d c6 3a
       -0.021845434 -0.018377874 -0.09610874 0.0015148491
000310 d7 b4 b7 bb f4 03 3a 3d 53 5d e2 3d a9 63 02 3e
       -0.0056062746 0.045413926 0.110529564 0.1273333
000320 12 02 f5 3d c2 80 4a 3d 05 e9 fb 3d f7 d6 94 bd
       0.119632855 0.0494392 0.12300304 -0.07267564
000330 ea 1a ad 3c 50 8e 77 3b bd 61 70 3d 08 60 63 3d
       0.021130998 0.0037774034 0.05868696 0.055511504
000340 43 ea 12 3e b1 e9 9b bd 17 87 e4 3c 66 4f 7c 3c
       0.14347176 -0.076129325 0.027896447 0.015399789
000350 e1 46 db 3d a6 19 ae 3d 1d cf 2d 3d 1b f9 5b bc
       0.107068785 0.08500986 0.042433847 -0.013426091
000360 20 32 8c bb d7 f5 fd bd b3 10 17 be 0a b3 7d 3a
       -0.0042784363 -0.12400406 -0.14752464 0.0009677863
000370 93 17 c9 3c bc 95 a9 bb 18 b7 02 3e 62 14 98 3d
       0.024547374 -0.0051753204 0.12765157 0.07425763
000380 d0 c4 fb ba 42 8c f1 3b b9 7e 76 3c 18 14 75 3d
       -0.0019208435 0.0073714564 0.0150448615 0.059833616
000390 c0 23 5a 3d a5 fb 2c 3e 60 af 07 bb 99 fc 20 3d
       0.05325675 0.1689287 -0.0020703897 0.039303396
0003a0 b6 07 66 bd 37 aa 90 bd ad a0 0f 3d 7d 6b 7a bc
       -0.056159697 -0.07063716 0.03506534 -0.015284416
0003b0 8b 23 2a bc c8 1c 3e 3b bf 78 d4 3d 72 c1 d7 bc
       -0.010384451 0.0029008854 0.10374593 -0.02633736
0003c0 ce 29 9e 3d 73 72 bd bd c9 a4 ac 3d a8 9c 21 be
       0.07722817 -0.09250345 0.08429868 -0.15782416
0003d0 ca fd 86 3c f5 33 0f be 29 61 c3 3c ca 04 82 bd
       0.016478438 -0.13984664 0.02385004 -0.0634857
0003e0 52 0c 04 3d c3 53 10 3e b5 8c bf 3d 06 ce bd 3d
       0.032238312 0.14094453 0.093530096 0.092678115
0003f0 98 8f f2 3d b4 23 86 3d 01 7e 27 bd 01 a2 d0 bc
       0.118437946 0.065497786 -0.04089165 -0.025467874

lstm.bias_ih_l0 f4 [256]
000000 49 50 44 bc a3 d2 f6 3d 10 bc b6 bd f1 1e 29 3e
       -0.011982032 0.120518945 -0.08922589 0.1651571
000010 5c 9e 0d 3e 03 cd bc bb 67 c5 99 bd 49 a7 91 3d
       0.1382994 -0.005761744 -0.07508355 0.07111985
000020 39 e8 13 3e c2 71 86 bc 86 b3 af 3d f6 67 dc 3c
       0.14444055 -0.016411666 0.08579163 0.026905041
000030 69 53 5d 3d 98 54 73 bd 43 64 12 bc 71 bc 86 3d
       0.054034624 -0.059406847 -0.008935037 0.06578911
000040 1d 10 94 3d 88 24 82 3d 63 90 f3 3d dc 2b 57 3d
       0.07229636 0.06354624 0.11892774 0.052532062
000050 6f 03 bc 3b fd 68 5a bd d7 6c c8 bc 48 cf 0b 3e
       0.005737714 -0.05332278 -0.024465961 0.1365329
000060 2c 25 cb 3d d7 41 27 3e a2 26 39 3d 08 20 31 3d
       0.09919199 0.1633371 0.04520286 0.043243438
000070 3e d3 b9 3b fb c0 c3 3c ff cd 18 3d 97 5f 62 3b
       0.005670934 0.023895731 0.03730583 0.003454184
000080 4b 54 97 bd 86 e6 84 bd 62 4b 49 bd ab 8e ff 3d
       -0.073891245 -0.06489281 -0.049144156 0.12478384
000090 00 21 9a 3d 33 4f 97 bc 0e c9 9c 3d 71 80 32 3d
       0.075258255 -0.018470382 0.07655536 0.043579523
0000a0 36 7f 03 bd f0 e2 db 3c aa 36 53 3d 0e eb cf 3c
       -0.03210374 0.02684161 0.051565804 0.025380637
0000b0 6d 53 f8 3d bb ee 7b 3c ab a5 41 bd f9 c0 41 3d
       0.12125287 0.015376742 -0.047277134 0.047303174
0000c0 d5 bf 02 3d fc 9b 4e bd 60 69 8b 3d fd ce d9 3c
       0.031921227 -0.050441727 0.06807208 0.026587958
0000d0 c0 3b dd bc 2d 9a ce 3d 58 ab 3b bc ab a4 dc 3d
       -0.02700603 0.100880004 -0.011454426 0.107735954
0000e0 9b 18 b3 3d 0a 99 6c 3d e4 fd ea 3c 35 ce d6 3c
       0.087449275 0.057763137 0.028685518 0.026221374
0000f0 e5 0f 2e 3e 04 3d b6 bd 45 1f 10 3e d9 20 d8 bd
       0.16998251 -0.088983566 0.14074428 -0.1055314
000100 63 e6 d8 3c 2f dd 23 3d 32 00 0b 3e 57 08 66 bd
       0.026477044 0.04000586 0.13574293 -0.056160297
000110 a2 6b 31 bd 7e 49 ff 3d a8 41 e3 bb 75 d9 b3 3d
       -0.043315537 0.124651894 -0.006935317 0.08781711
000120 30 6f c4 bb 23 50 19 3e aa 7b a4 bc 39 ab fd 3c
       -0.0059947 0.14971976 -0.020078499 0.030965434
000130 c1 f4 7f bc 65 97 fa 3d 04 39 31 3d 21 58 b1 3d
       -0.015622319 0.122359075 0.043267265 0.086593874
000140 10 95 74 bc ca 47 dc 3d 6c 71 30 bd 12 e4 5a 3d
       -0.014928117 0.1075588 -0.043076918 0.05344016
000150 fa e1 0c 3e 47 d9 a9 bc 81 b4 03 3e fd 5f ee 3c
       0.13758078 -0.020733489 0.12861826 0.029098505
000160 93 56 03 3d 0b 95 23 bd fd 4d 9a bd fb 4e c8 3d
       0.032064985 -0.03993706 -0.07534406 0.09780689
000170 61 da 6a bd 33 14 c8 3d a2 b2 86 3d f7 18 8c 3b
       -0.05733717 0.09769478 0.0657704 0.004275437
000180 6b 70 8d bb 78 52 46 bd 96 f4 c1 3d c2 1d b6 bd
       -0.00431638 -0.048418492 0.09470479 -0.088923946
000190 8c fe 47 3d 44 4d b0 bd 85 24 5b 3d 32 64 30 bd
       0.04882674 -0.08608487 0.053501625 -0.043064304
0001a0 c6 15 00 3d 6a 89 63 bd f5 cb 84 3d f3 e4 c8 3d
       0.031270765 -0.05555097 0.06484214 0.098092936
0001b0 5f 47 b9 3b f8 b5 dc 3c 9b 18 d7 bd 96 16 8d 3d
       0.00565426 0.026942238 -0.1050274 0.068890736
0001c0 80 ca b3 bc de 09 f5 3d 30 c2 bd bd 3c 06 cb bd
       -0.021947145 0.11964773 -0.09265554 -0.099132985
0001d0 dd a7 90 bd f8 26 7f bc 2f 79 ca 3d 4f da f9 3d
       -0.070632674 -0.015573256 0.09886395 0.12199842
0001e0 3d 5f 71 bd 3c 50 dd bb d3 6f 3a 3d 98 ba 2b bc
       -0.058928717 -0.0067539494 0.0455168 -0.010481499
0001f0 2d be 19 3e 92 53 6f bc 4e 2d a1 3d 15 c3 a9 bc
       0.15013953 -0.014607327 0.07869969 -0.020722905
000200 5b f4 cf bd 96 04 90 3d e4 df 40 bd 3e 0e 76 3c
       -0.10154029 0.07032125 -0.04708852 0.015018044
000210 bc 32 98 3d 7d a0 cd bd 57 83 3b 3d 78 02 d8 3d
       0.07431552 -0.10040376 0.045779552 0.10547346
000220 23 46 01 bd 43 19 6d bd 97 81 3a 3d 31 17 7a bd
       -0.03156103 -0.05788542 0.045533743 -0.061057273
000230 2b 3c 93 bd c6 25 f9 3d 83 e7 0c 3d d8 0c 53 3d
       -0.071892105 0.12165408 0.034400474 0.05152592
000240 c2 0a 07 3c 9c 81 40 3c 8e 11 90 3d c6 dd ca bc
       0.008242311 0.011749651 0.07034598 -0.024763953
000250 65 41 63 bd 2b 64 81 3c f1 4a d2 3c cd 6a b1 3d
       -0.055482287 0.015794834 0.0256705 0.08662949
000260 63 11 cb 3d a1 89 61 3d 37 3e d0 bd 43 fd d5 bd
       0.09915426 0.055062894 -0.101681165 -0.104486965
000270 8e 77 76 3d 0c 61 a7 bd a1 74 be ba 8b 10 81 3d
       0.06017261 -0.08172807 -0.0014530608 0.063019834
000280 a1 18 44 3d 42 e4 d6 3d db 81 b6 3c f0 60 8f 3d
       0.04787505 0.104927555 0.022278717 0.07000911
000290 dc 43 e4 3d 2c bb de bd bb 9f af bd 00 85 07 3e
       0.11145756 -0.10875544 -0.08575388 0.13234329
0002a0 c7 bc c1 3d 0c 09 9b b8 fe d3 8b 3d eb 49 db 3d
       0.094598345 -7.392661e-05 0.06827544 0.10707458
0002b0 5b c3 6d bd 02 7b e8 3c a4 4a 9f 3d eb ce df 3d
       -0.058047634 0.028378967 0.077779084 0.10928138
0002c0 a2 c3 97 bd fd 9f 7a 3c 53 cd f1 bc cb 13 3c 3c
       -0.07410361 0.015296933 -0.029516852 0.011479328
0002d0 4d 87 b0 bd d8 02 6f bd 6f 32 a8 3d 54 df cf bc
       -0.086195566 -0.05835232 0.082127444 -0.025375046
0002e0 66 81 02 be b5 8f aa 3d 2d 46 d0 3d 4d 8e 0a 3e
       -0.12744674 0.08328191 0.10169635 0.13530846
0002f0 59 be bc bd af d0 aa 3d 88 69 63 3c d5 ea cb 3d
       -0.092159934 0.083405845 0.013880141 0.099569
000300 39 d7 ef bd db 30 0f 3e dd 79 09 3e c5 32 89 bd
       -0.11710972 0.1398348 0.13425393 -0.06699137
000310 b9 41 b0 3d d2 7a a0 3d 7d b3 76 bd c6 0c 81 3d
       0.086062856 0.07835926 -0.060229767 0.063012645
000320 0e 5a eb bc aa 71 0b 3d 7e e1 ec bd a7 21 12 3e
       -0.028729465 0.034043945 -0.11566447 0.1427065
000330 2e bb 2c 3e 29 37 02 3e c3 91 08 3e e1 20 de 3d
       0.16868278 0.12716354 0.13336854 0.10846115
000340 de 4e 3c 3d c2 5e 29 3e 15 96 02 3c 2d 1e ce bc
       0.04597365 0.16540053 0.007970353 -0.025160873
000350 2d 8e 54 3d d8 83 3b 3c 1b 6b a6 bb ef 05 7b bd
       0.051893402 0.011445008 -0.005078686 -0.061284956
000360 2b 99 e6 3d bc 56 02 3e 13 b2 28 bc e1 56 62 3d
       0.11259683 0.12728399 -0.010296362 0.055258635
000370 0e df 8c bc c2 b5 ee bc ef e5 b6 3c ac a9 84 bd
       -0.017196205 -0.029139403 0.022326438 -0.06477675
000380 8c 69 75 bd 9a 57 00 3e 77 fe 8c 3d 91 bc a2 3b
       -0.05991511 0.12533417 0.06884473 0.0049663265
000390 93 4f 4f 3d 8a 4c 1b 3e 1d a9 a0 bd 92 23 d8 3d
       0.050612997 0.15165916 -0.07844756 0.105536595
0003a0 b0 ff 9a bd 07 03 17 3c 74 d8 3e bd dd 58 dc 3a
       -0.075683 0.00921703 -0.046593145 0.0016811151
0003b0 15 6a 6d 3d 60 cc d4 3d 99 4a cd 3a f5 51 7a 3d
       0.057962496 0.10390544 0.0015662491 0.061113317
0003c0 b7 68 2e 3c 96 3e 01 3e 41 47 4c 3d 31 9c d5 bd
       0.010645083 0.12621531 0.04987264 -0.10430182
0003d0 37 43 18 3e 2a a6 d9 3d 46 50 02 3c 60 62 5a 3c
       0.1486939 0.106273964 0.007953709 0.0133291185
0003e0 65 f5 00 bd f6 1f 04 3e 3a f8 ea 3c 18 c1 0c bd
       -0.031484026 0.12902817 0.028682817 -0.034363836
0003f0 99 20 75 3d 52 f7 1a 3e 43 90 3f bd de 34 66 3d
       0.05984554 0.15133408 -0.046768438 0.05620276

lstm.bias_hh_l0 f4 [256]
000000 ca fc 96 bc 6a e0 34 3d 02 43 b7 3c 81 49 63 3d
       -0.018431086 0.04415933 0.022370819 0.05549002
000010 3a 9c 9a bd ca 87 02 bd 34 9a 5b 3d b8 d7 f7 bb
       -0.07549329 -0.03186778 0.053613856 -0.0075635575
000020 3c 6f 60 bd 4b 7c 2d 3b 75 71 cf bd a7 19 d9 3d
       -0.05479358 0.002647179 -0.10129062 0.10600596
000030 56 6c 7e bd a9 c3 ff 3d 34 c6 5b 3b 8d 69 86 bc
       -0.062115036 0.12488491 0.0033534886 -0.016407752
000040 1b ac f8 bd 4f 0a fd bc 99 17 6f bd 39 07 9f bc
       -0.121422015 -0.030888705 -0.058372114 -0.019412624
000050 12 30 b0 bc 0a ba 01 3d 67 e2 68 bd fd 74 28 3d
       -0.021507297 0.03167156 -0.05685654 0.041127194
000060 d2 a6 9b 3d 24 18 28 3e 1f 30 1b 3e 21 f6 88 3d
       0.07600178 0.16415459 0.15155075 0.0668757
000070 b1 de ef 3d c5 fc ff 3d 7c 73 44 bc fc 64 cf 3d
       0.11712397 0.12499384 -0.011990424 0.10126683
000080 3f d2 5c bd 1f f6 df 3d f9 12 1b 3e 6f 46 d1 3d
       -0.053911444 0.10935616 0.15143956 0.10218512
000090 d5 00 0c 3e fc 1e ae 3c 70 99 9c bc b9 cb 17 3b
       0.13672192 0.021255009 -0.019116133 0.00231622
0000a0 30 8e d7 3d 8d 01 05 3e fb d7 9b 3d cd fc ce 3d
       0.10525167 0.12988873 0.076095544 0.10106812
0000b0 4f b4 09 3e 12 aa 86 3d 9a 10 94 bd a5 f8 75 bd
       0.13447689 0.06575407 -0.07229729 -0.06005158
0000c0 c6 95 38 bd 9a e8 c3 bc 5a 0b b1 3d 99 10 db bd
       -0.04506471 -0.023914624 0.08644743 -0.10696525
0000d0 f7 b6 f4 3d d5 fc 97 bd 4a c3 13 3d b4 c5 b8 3d
       0.1194896 -0.07421271 0.036074914 0.09022084
0000e0 82 c8 9f 3d b6 4c c6 3d 3a fb 2c 3c 6b 88 e9 3c
       0.07801916 0.096826 0.010557944 0.028507432
0000f0 0c 39 9b 3d 82 d7 80 3d 10 3e 77 3d 47 69 0d bd
       0.0757924 0.06291105 0.06036192 -0.03452423
000100 a8 e7 b1 3d 2c af 42 bc 7c 8e dd bc fb 7f 81 bd
       0.08686763 -0.011882585 -0.02704548 -0.063232385
000110 ba 41 41 3d df 9e 32 bd 12 6b 1c 3e 24 42 db 3c
       0.047181822 -0.043608543 0.15275219 0.026764937
000120 bc 72 ee 3c 04 f1 0c bd 72 38 e9 bb 57 c1 24 3e
       0.029107444 -0.034409538 -0.0071173245 0.16089378
000130 af 7d 8b 3d d7 d2 e3 3d 9a 72 b2 bd 44 5e 0d 3d
       0.068110816 0.11124199 -0.08713265 0.034513727
000140 be 47 96 bc b8 93 1c 3e 67 4a 49 3d d1 db ea 3d
       -0.018344756 0.15290725 0.04914322 0.11467708
000150 bf 56 d6 3d 5b c9 88 bd e8 ee 10 3e 06 0d 92 bd
       0.10465764 -0.066790305 0.14153636 -0.0713139
000160 e0 21 6e 3c bc 14 7a bd 82 13 c4 bd 76 19 95 3d
       0.014534444 -0.06105493 -0.09574033 0.07280247
000170 3b d3 0f bc ba 49 0c 3e 23 db 5a bc 33 26 e0 3d
       -0.008778389 0.137 -0.01335791 0.10944786
000180 6d 14 96 3d 9a 1b a4 bc 0a 4b 71 bd f8 9f fc bc
       0.07328115 -0.020032693 -0.058909453 -0.030837998
000190 20 d9 8c 3d 43 c0 ad bd c5 8c bd bd 77 93 17 3d
       0.06877351 -0.08483937 -0.09255365 0.037005868
0001a0 2a b3 26 3d ed 22 62 3c 89 1c 05 3e 25 f7 e4 3d
       0.040698208 0.013802272 0.12999167 0.111799516
0001b0 b8 3f b4 bd fd 53 ab 3d d9 4b b9 bd b7 86 89 3d
       -0.08801216 0.08365629 -0.0904767 0.06715148
0001c0 41 a1 4e bb 44 f4 a5 bd 4e 5c 32 3d 4d 26 75 3c
       -0.003152922 -0.081032306 0.04354506 0.014962745
0001d0 d6 44 ad bc 71 6d 62 bd 57 c2 9b 3d e3 a4 90 bc
       -0.021150988 -0.055280153 0.07605427 -0.01765675
0001e0 22 94 d1 3c 49 e3 99 3c 7e 92 c8 bc d5 25 c3 3c
       0.02558333 0.018785136 -0.024483915 0.02382175
0001f0 12 9d 00 3e f4 da 17 3e 61 11 0b 3d 67 2d ed bd
       0.12559918 0.14829618 0.03395212 -0.115809254
000200 17 b1 b8 3d 76 69 66 bd bd 9d a9 bd 19 ac fd 3c
       0.09018152 -0.05625292 -0.08282039 0.030965852
000210 02 6b 95 3d 43 13 ac 3d 46 94 6c 3d 73 b8 5a 3d
       0.07295801 0.084021114 0.057758592 0.05339856
000220 ab 8b 06 3e f7 2d 02 bc 5c 2a 93 3d af 9a 65 bd
       0.13139217 -0.007945529 0.07185814 -0.05605572
000230 d5 de 48 3d aa c1 d5 3c a3 1f 95 3d 41 d6 01 be
       0.049040634 0.026093323 0.07281425 -0.12679388
000240 e1 3f 7e 3d 50 19 ac bd 57 59 c0 bc 00 af c9 bd
       0.06207264 -0.084032655 -0.0234801 -0.09847832
000250 85 5c 92 3d 8f d1 02 bd d6 7f ff bc f5 9a ac 3b
       0.07146553 -0.031938132 -0.031188887 0.0052674958
000260 62 89 bd bd 01 35 02 bd 88 e9 74 3c 39 a8 d0 bc
       -0.09254719 -0.03178883 0.014948256 -0.02547084
000270 2a 98 b2 3d 3e 5f b3 3d a5 f0 ac 3d 98 fc ba bd
       0.08720429 0.087584004 0.08444337 -0.0913021
000280 f3 c3 98 bd 86 af 49 bd 22 31 b9 bd 5e 24 04 be
       -0.07459249 -0.049239658 -0.090425745 -0.12904498
000290 b4 ef ae bd 63 92 83 3d 69 30 c8 bd 81 e7 c9 3d
       -0.085418135 0.064244054 -0.097748585 0.09858609
0002a0 f1 93 df bc bf 4a b4 3c f6 4e 96 bd 4e 66 ac 3d
       -0.027292224 0.022008298 -0.07339279 0.084179506
0002b0 e2 11 ff bd cc 9d d1 bd e4 79 b8 3d 5b 62 ab 3d
       -0.12454583 -0.102351755 0.09007624 0.08368369
0002c0 79 71 4f 3d 0f 03 ea bc 48 a9 c6 3d c7 a4 81 bd
       0.050645325 -0.028565912 0.097002566 -0.06330257
0002d0 e7 38 e5 3d 7e f9 9b bd e7 39 3e bd f5 b9 09 bd
       0.11192494 -0.07615946 -0.04644194 -0.033624608
0002e0 ce cf 0a 3d 5d 7b 98 3d d8 0d 04 3d 61 19 0e bd
       0.033889584 0.07445405 0.032239765 -0.034692172
0002f0 e5 48 cd 3d 14 c7 e9 3d 4c 54 f3 3d 8f 22 1a 3b
       0.10023669 0.11414924 0.11881313 0.0023519134
000300 8b 1f c3 3d 42 d1 fb bc ab 5c 06 3e 49 36 c7 3d
       0.09527501 -0.03073943 0.13121288 0.09727151
000310 83 d7 da 3d ec e5 fe 3d f2 f8 2a 3d ae bb a5 bd
       0.10685637 0.12446198 0.04174132 -0.08092438
000320 9d 9b b7 bc c8 cf 95 3d 5c 3f 08 3c 08 7b 7b 3d
       -0.02241307 0.07315022 0.008315887 0.06139663
000330 60 4d 10 3e 58 f1 5a bd 18 7d 99 3d 15 76 ac 3d
       0.14092016 -0.05345282 0.07494563 0.0842096
000340 a6 0d de 3d 7c a1 92 3c dd f8 81 3d 89 d5 f7 bc
       0.10842447 0.017899267 0.06346295 -0.030253189
000350 ef 00 38 bb 78 cf 01 3e c4 65 8d 3c e3 c2 c1 3d
       -0.0028076728 0.126768 0.01726044 0.09461
000360 0b a1 0e 3e f2 d6 d9 3d d3 71 83 3d f9 f2 0f 3d
       0.1392862 0.10636701 0.064181946 0.035143826
000370 e8 59 52 3c 15 ef d9 3d b0 3a 06 bd 62 bc 97 bd
       0.012838818 0.106413044 -0.032770813 -0.07408978
000380 c8 76 8c 3d 45 1a 9d bd 93 9f a9 bb f0 ec 77 3d
       0.06858593 -0.07671026 -0.0051764934 0.060528696
000390 f9 9e ea 3d 51 4e c6 bc 17 e3 a0 3c 42 a2 b5 3d
       0.11456103 -0.024207266 0.019639535 0.08868839
0003a0 a4 8b 02 3d 1d 77 02 3e 45 d6 a9 3d 07 ab 9c 3d
       0.031871453 0.1274075 0.08292822 0.076498084
0003b0 fd 8a 95 bd a9 6e 88 bc 19 51 f7 bd a3 c8 91 bd
       -0.073019005 -0.01665433 -0.12076015 -0.071183465
0003c0 b2 49 f2 bc 99 d3 7b 3d e3 c4 b5 bd 4d 08 e2 3d
       -0.029576156 0.061481092 -0.08875444 0.110367395
0003d0 5f a6 ee 3c 42 81 d6 3d 8a 21 02 bd c6 c8 b5 bb
       0.029132066 0.10473873 -0.031770267 -0.0055476157
0003e0 98 81 f0 3d ff a8 e5 3c c3 7f be bc 34 69 b6 3a
       0.11743468 0.028034685 -0.02325428 0.0013916851
0003f0 a6 5d fd 3d 70 d0 fd 3d 7a ea 9f ba 63 88 4e bd
       0.12371378 0.12393272 -0.0012200617 -0.050423037

lstm.weight_ih_l1 f4 [256, 64]
000000 c1 8f f8 bc ab ff d2 3d e8 a0 1c be 16 06 64 3d
       -0.030341985 0.10302671 -0.15295756 0.055669867
000010 e8 4f 0d 3e be 01 67 3d 36 3e 9a bd 2e 2b 1d 3d
       0.13800013 0.056398146 -0.07531397 0.038371257
000020 b7 00 20 3e 0f 33 e0 3d 95 8d 02 be 99 a3 83 bd
       0.15625273 0.10947239 -0.12749322 -0.06427688
000030 21 98 dc bd 20 63 d1 3d 6d 01 fe 3a 34 ff 29 bb
       -0.10771204 0.10223985 0.0019379087 -0.0025939466
000040 34 93 ac bd f6 3a 14 bd 77 c7 88 bd e2 57 84 3d
       -0.08426514 -0.036189042 -0.0667867 0.06462075
000050 a7 83 57 bd ad e1 dc 3d 96 98 e2 3d dc 11 91 3c
       -0.052615788 0.10785232 0.1106426 0.017708711
000060 6f 1f 7b bd fd 70 86 bd b5 02 4d bc c9 16 7a bd
       -0.061309274 -0.065645196 -0.012512852 -0.061056886
000070 b6 c2 c3 3d b4 57 70 bd 2e 35 47 bd 1d 14 24 bd
       0.095586225 -0.05867739 -0.0486347 -0.040058244
000080 ae 74 be 3d 63 23 b2 bd 2a aa d6 3b ed cd 57 bd
       0.09299599 -0.08698156 0.006551047 -0.05268662
000090 df 3a d5 3c 35 5f 94 3d fc 98 06 be fb 18 b2 ba
       0.026029048 0.07244722 -0.13144296 -0.0013587767
0000a0 28 3f 25 3c 41 7e 1f be 83 67 ff bc b8 b7 94 bd
       0.010085858 -0.15575506 -0.031177288 -0.07261604
0000b0 b2 10 0d be 37 b2 92 bd 5b 86 38 bd 09 79 90 bd
       -0.137759 -0.07162898 -0.045050006 -0.070543356
0000c0 9d 96 b6 bd 5a 4b e1 bc 19 70 08 be aa 2f c9 3d
       -0.08915446 -0.02750175 -0.13324012 0.09823544
0000d0 34 dd 20 3e c2 fd 87 bd 36 2d 41 3d a2 10 e4 3c
       0.15709382 -0.06640197 0.047162257 0.027839962
0000e0 6e cc d2 bd fa d1 e6 3d 79 bd 05 3e 6d 0c ec bc
       -0.10292898 0.112705186 0.1306056 -0.028814519
0000f0 26 a5 32 3d 14 be 9c bd 02 80 5f 3d 82 6c a6 3d
       0.04361453 -0.07653442 0.054565437 0.08126165
000100 32 75 1c bc 78 b2 bc 3a e1 f4 0e be 4d 57 7f bd
       -0.009549426 0.001439645 -0.13960601 -0.062339116
000110 2f fa 91 bd ac 84 e9 bd ea 08 02 bd 90 65 cf 3d
       -0.07127797 -0.11402258 -0.031746782 0.101267934
000120 d3 8d 02 3e 54 7d 72 3d 65 bf 08 3e 00 61 f2 3c
       0.12749414 0.059201553 0.13354261 0.029587269
000130 e8 e6 7d bd ae fe 68 3d a0 a6 bc bd 42 38 d8 bc
       -0.061987787 0.056883506 -0.09211469 -0.026394013
000140 fa 99 68 ba cb 0a c9 bd 08 7a 5a 3d 8e 00 a5 3d
       -0.0008873042 -0.09816512 0.053339034 0.080567464
000150 21 64 8e 3d 80 f5 0f b8 1f 15 21 3d bb 00 ec 3c
       0.06952692 -3.4322497e-05 0.039326783 0.028808942
000160 02 0e d4 bc 10 91 aa bd 87 3a c8 3d 8f ff 81 bd
       -0.025885586 -0.0832845 0.09776788 -0.06347572
000170 85 0f c2 bc dd b4 d2 bd 8c a7 ce bc 1e da a4 bd
       -0.02368904 -0.10288403 -0.025226377 -0.08049415
000180 a4 04 c2 3d d8 f7 c8 3d 28 53 56 bd 3d ed fd bd
       0.094735414 0.098128974 -0.052325398 -0.12398765
000190 1c d5 cd bd 61 00 a0 3d 5c 13 e3 bd 11 e6 18 3e
       -0.10050413 0.07812572 -0.11087677 0.14931513
0001a0 4e 5c e9 bd 16 9c e7 bc c1 0a 8a bd 6b 7e 82 3d
       -0.11394559 -0.02827267 -0.067403324 0.063717686
0001b0 af 31 ee bc 33 32 90 3d fa 54 03 3e 52 dc f4 3d
       -0.029076425 0.07040825 0.12825385 0.11956085
0001c0 f6 5a 8b bd 0b 2b f2 3d 17 b8 09 be 1c cd 1b 3c
       -0.06804459 0.11824616 -0.13449131 0.009509351
0001d0 cd 71 e2 3d f9 5f 53 3d d6 50 90 3d 66 66 24 3c
       0.11056862 0.0516052 0.07046668 0.010034179
0001e0 ca 1c ea bd da 16 90 3d ec 96 df 3d f8 ae 0e 3d
       -0.11431272 0.070356086 0.10917458 0.034834832
0001f0 50 9f dc 3d ce 88 89 3c d1 8c e3 3d a2 1f f8 3d
       0.10772574 0.016788866 0.11110843 0.121154085
000200 c4 61 13 bd 3a fc 98 bc e9 5f e8 bd 07 98 3d 3d
       -0.03598191 -0.018674958 -0.113464184 0.046287563
000210 98 7d 5c 3d 73 ac 77 bd 93 84 a9 bd 77 f7 ac bc
       0.053830713 -0.060467195 -0.0827724 -0.021114094
000220 c3 4d 97 bd 2c c0 21 3e 13 64 b1 3c 74 cf 21 bd
       -0.07387879 0.15795964 0.021654164 -0.039504483
000230 08 72 21 bd d4 98 20 bd b1 3d c7 3c 92 ac e0 bd
       -0.03941539 -0.03920825 0.024321409 -0.10970415
000240 ac 57 a1 bd bb 23 8d 3d 3b 1c d3 bc 26 b6 c3 3c
       -0.0787805 0.06891581 -0.025770297 0.023890566
000250 83 57 91 3d ad ba c1 3d 64 df 9a 3c b8 75 f2 3d
       0.0709677 0.09459434 0.01890535 0.11838859
000260 36 af c8 ba a7 e3 ed bc 46 86 8d bd 81 36 0c be
       -0.0015311006 -0.029039217 -0.06910376 -0.13692667
000270 bd 38 84 3d b3 35 7e bd 63 c0 0e bd 05 a0 50 ba
       0.064561345 -0.06206293 -0.034851443 -0.0007958415
000280 e4 d5 12 bc 66 b7 0b 3d 18 30 5d bc 21 3b f0 3a
       -0.008962128 0.03411045 -0.013500236 0.0018328169
000290 52 92 c7 bd 07 61 b4 3d 83 f3 f3 3b d7 1f 97 bd
       -0.09744705 0.08807569 0.0074448003 -0.0737912
0002a0 67 88 1d be 47 e4 14 3d 18 54 9c 3c c6 d2 14 3d
       -0.15384065 0.036350515 0.019083068 0.03633382
0002b0 38 35 74 bd 3d 67 e8 3d 21 c7 a3 bd f0 a0 0f be
       -0.059621066 0.11347816 -0.07996965 -0.14026237
0002c0 4e b1 05 bc 9e 32 ee bc 1b 07 07 be 8c ff 4a bd
       -0.0081599485 -0.02907687 -0.13186304 -0.049560115
0002d0 59 9f d4 3d 12 da 47 bd ca eb 15 3e a1 06 fb bd
       0.10381956 -0.048791952 0.14640728 -0.12257124
0002e0 c6 9b a1 bd 6c 69 8c bd b2 04 ca bd 5a 60 9b 3d
       -0.078910396 -0.06856045 -0.09864177 0.07586737
0002f0 80 d2 8c bd c2 77 6e 3d 5f c5 4a bd 0f e7 b9 bd
       -0.06876087 0.05821968 -0.049504634 -0.09077274
000300 3a 03 1e bd 00 d8 06 3e 67 94 38 3d cd af 1c bd
       -0.038577296 0.13168335 0.045063403 -0.038253594
000310 29 9c a6 bc 39 fa c4 bd c6 4d c2 bc b6 b3 cd bd
       -0.020338135 -0.09618039 -0.023718726 -0.10044043
000320 0d 9e 8c bc f0 df 98 3d 5b cd fe bc a1 f2 a4 bd
       -0.017165208 0.07464588 -0.03110378 -0.0805409
000330 66 47 cd 3b b5 1f c3 3d 78 28 61 bc b5 c5 df 3d
       0.006264615 0.09527532 -0.013742559 0.109263815
000340 af 35 0a bd ad 55 32 3d db 15 85 bb f8 3a da 3d
       -0.033742603 0.043538738 -0.0040614433 0.10655779
000350 b1 59 3e 3d 68 6b 81 bd 68 56 29 bd f8 6b da bd
       0.046472255 -0.06319314 -0.04134217 -0.10665125
000360 ee 6e 01 3e f4 96 83 3d b1 96 f3 bd ee e4 f4 bd
       0.12639973 0.064252764 -0.118939765 -0.119577274
000370 f0 75 9c 3c 91 fd 86 3d 55 6e ed bd 8b a5 ca 3d
       0.019099206 0.06591333 -0.1159331 0.09894856
000380 24 14 10 3e 66 a1 da 3d 6b 7e c5 3b 6f 0e 61 ba
       0.14070183 0.106753156 0.006027033 -0.00085852196
000390 fd f9 5a 3d fd 36 95 bc 35 6d db 3d 67 bb 80 3c
       0.053461064 -0.018214697 0.10714189 0.01571436
0003a0 fd d4 c1 3d d5 64 d2 3d b3 a0 cf 3d 87 59 a1 3c
       0.094644524 0.102731384 0.10138073 0.01969601
0003b0 1f 37 8f bd 38 97 f7 3c 86 6a e7 bd 08 27 eb 3d
       -0.069929354 0.030223474 -0.112996146 0.11482054
0003c0 1f a4 99 3d 28 b2 ad 3d fb 57 99 bc 36 8e 07 bd
       0.07502007 0.08481246 -0.01871871 -0.033094607
0003d0 9d 1c 80 bd 3a 1a bc bd 0e de 69 bd 2d e5 a9 3d
       -0.062554576 -0.0918469 -0.057096533 0.08295665
0003e0 16 24 79 3d 77 24 d1 bd cf c1 a7 bd d0 59 69 3d
       0.06082543 -0.10212033 -0.08191263 0.056970417
0003f0 e0 69 ad bd 89 3a a7 bd fd 11 d4 bd ff 79 6d bd
       -0.0846746 -0.081654616 -0.103549935 -0.057977673

lstm.weight_hh_l1 f4 [256, 64]
000000 c2 00 a6 bd c9 10 b5 bd 47 d3 bc bd 4b 18 f0 bd
       -0.08105613 -0.08841092 -0.092199855 -0.117233835
000010 d9 99 d6 bb e6 94 e7 3d b1 c8 d8 bd 68 f0 a3 bd
       -0.006549102 0.11307697 -0.10585154 -0.08004838
000020 ef 42 f4 3d 04 35 bd bd 3d bb 1c 3e cb 54 67 3d
       0.11926829 -0.092386276 0.153058 0.05647735
000030 59 dd f3 3d b8 62 77 3d ce 47 e2 3c 75 f3 03 3e
       0.11907453 0.06039688 0.02762213 0.1288584
000040 d8 f2 82 3d 0e d5 9e 3d 3c 4d b0 bc cd 79 46 3d
       0.06393975 0.07755481 -0.021521203 0.048456002
000050 86 9a 1a be 8a b0 4b 3d 79 96 dc bc f6 50 74 bd
       -0.15098009 0.049728908 -0.02692722 -0.059647523
000060 41 5a 06 be f6 a6 82 3d dc 67 c9 3d be de 7d bc
       -0.13120367 0.063795015 0.09834263 -0.015495
000070 47 70 5f bc ea 53 05 3e f9 c4 7d 3d 52 a8 a5 3d
       -0.013637609 0.13020292 0.061955426 0.08088745
000080 5d d5 04 be 9a 3a 05 bd 0c 13 d5 bd 90 80 ab bd
       -0.12972017 -0.03252659 -0.104040235 -0.08374131
000090 fe 07 08 3d fe 9a 21 bd f1 99 97 3d 09 3d b4 bd
       0.033210747 -0.039454453 0.07402409 -0.08800704
0000a0 42 1f 08 bc ca 7a d0 bd 6a 76 05 bd 0b 43 05 bd
       -0.008308234 -0.1017967 -0.03258363 -0.03253464
0000b0 59 aa 02 3e d0 e5 b6 3d 3e 27 a4 3d 5e 2e 3c 3d
       0.12760295 0.08930552 0.08015297 0.045942657
0000c0 4c cb e7 3d 20 a3 71 bd 79 bd 9f bc e7 f5 63 bd
       0.11318073 -0.05899346 -0.019499527 -0.055654433
0000d0 e4 40 05 be 3c b6 0c 3d 23 2f 06 3b 5f 24 a2 bb
       -0.13013035 0.03435348 0.0020474873 -0.0049481834
0000e0 5a d8 7a bd 32 0d 55 3d 0a 73 e2 bd 0c fe 8c 3d
       -0.061241485 0.052014537 -0.11057098 0.06884393
0000f0 e3 3c c1 bd e3 90 00 3e 50 6e 6f 3a 95 4f 0f bd
       -0.09435441 0.1255527 0.00091335643 -0.034988005
000100 87 31 21 3d 67 a1 88 3d 21 ff 0b bd 7b 4e 02 3e
       0.039353874 0.0667141 -0.034178857 0.1272525
000110 ea 2e 8b 3d ec f9 8d bd 37 12 e3 3d f4 d7 09 3e
       0.067960575 -0.069324344 0.110874586 0.13461286
000120 a4 30 7c bd 40 3a 27 bd c9 d5 06 3e 72 49 b1 bd
       -0.061569825 -0.040827036 0.1316749 -0.08656587
000130 b1 7b a8 bc 4c e6 88 bc 53 44 de 3d d7 61 83 3d
       -0.020566793 -0.016711377 0.108528756 0.06415146
000140 d3 ed a1 bd 70 9e bd bc 19 03 75 bb 45 e8 5a bc
       -0.079066895 -0.023146838 -0.003738588 -0.013361041
000150 11 5b d3 3d 1b 19 50 3c c6 07 47 bd a5 05 0b be
       0.10320104 0.012701298 -0.048591398 -0.13576372
000160 6c 7d 00 bd 55 46 8e bd f5 d8 1c be aa 6a c4 bd
       -0.03136961 -0.069470085 -0.15317138 -0.09590657
000170 1e b2 24 3e 2d db 95 3d f8 b9 74 3d 4e 24 00 3e
       0.16083571 0.07317195 0.059747666 0.12513849
000180 32 d0 1c bd f4 fc ec bc 42 8f 10 be 27 56 ec 3d
       -0.038284488 -0.028929211 -0.14117149 0.1153987
000190 48 39 ff 3b 7f bc dc bd a9 19 97 bd 86 4e 5d bd
       0.007788811 -0.1077814 -0.07377941 -0.054029964
0001a0 7e c8 0c bd 2e 27 15 bd 08 aa aa 3c de bd 8b bd
       -0.03437089 -0.036414318 0.02083303 -0.06823324
0001b0 82 91 da 3c dd 53 aa bd 1e 34 42 3d 0c ef 64 bd
       0.026680712 -0.08316777 0.047412984 -0.055892035
0001c0 4f d6 56 bd 5a 09 0b be 42 3f 53 3d 57 f4 a4 3d
       -0.052450474 -0.13577786 0.051574 0.080544166
0001d0 8f a9 8b bd 79 34 a8 3d f4 6c e9 3c 50 a7 f0 3d
       -0.0681945 0.08213133 0.028494336 0.11750662
0001e0 d4 d8 c7 bd 35 ed 31 3c 74 38 e3 bc ca ab e8 3d
       -0.097581536 0.010859777 -0.02773688 0.11360891
0001f0 87 a6 fd bd ee 5c 5b bc 0c 21 6f bc cd ae 91 bd
       -0.12385278 -0.013388855 -0.014595281 -0.07113419
000200 e1 cf d9 bc 95 0b fe bd 9a c1 27 bc 20 be 88 3d
       -0.026588382 -0.12404553 -0.010239029 0.066768885
000210 dc f4 f9 bd 00 28 9b 3c 12 1f 3a bd 07 6c c0 3d
       -0.12204906 0.018939972 -0.045439787 0.093956046
000220 7d 91 11 3e b1 ea e8 3d 23 b9 39 bd fd f1 9c bd
       0.14215656 0.11372889 -0.045342576 -0.07663343
000230 f4 4e e7 3d eb 2f 84 bd 2d 1f d7 bd ae c5 b9 bc
       0.11294356 -0.06454452 -0.10503993 -0.022677269
000240 2c 42 ab 3d c1 d0 24 3d 37 9a fb bd a3 a0 21 3e
       0.08362231 0.040238146 -0.122852735 0.15783934
000250 b2 b7 91 bd 9c 6a 0c be c9 93 80 bd 93 b5 cd 3d
       -0.07115115 -0.13712543 -0.06278188 0.10044398
000260 95 0f ce bd e5 e6 96 3d ed bd b7 3d 5b 02 06 3e
       -0.10061566 0.073682584 0.08971772 0.13086836
000270 48 86 83 3d c7 e6 95 bd a1 a1 06 3d 69 5e e9 3c
       0.064220965 -0.07319408 0.032868985 0.028487401
000280 cb 0e 99 3b 71 4f 70 3d bc ab 11 3c 3f 5b e4 3d
       0.004670953 0.05866951 0.008891042 0.11150216
000290 80 71 9d bd e2 e0 0b be 0c 71 a7 3d 0b 24 ca 3d
       -0.07687664 -0.13660005 0.08175859 0.09870156
0002a0 4c ef cf bd 1a f2 b1 3c 4c 7c 88 bd 47 4f 06 3d
       -0.10153064 0.021721888 -0.06664333 0.03279045
0002b0 fe 49 66 3c b9 6d 10 be 0b b4 85 3d 4f d2 e0 bc
       0.014055727 -0.14104356 0.06528481 -0.027444033
0002c0 1c c6 e6 3d d4 f5 c5 bd 71 0a 04 3e 4a e9 78 3c
       0.11268255 -0.096660286 0.12894608 0.015192339
0002d0 b4 2e 49 3d 55 97 f8 3d ac 1c 53 3d 24 ad 61 bc
       0.049116805 0.12138239 0.051541016 -0.01377419
0002e0 34 f0 48 bd 8d c3 06 3d 50 96 a7 bc 79 6b 2a 3e
       -0.0490572 0.032901336 -0.020457417 0.1664256
0002f0 78 11 c1 bc be a1 c9 bb e3 df c1 3c 87 05 95 bb
       -0.0235679 -0.0061533144 0.023666328 -0.004547778
000300 34 b6 f7 3d 53 71 e4 3c a5 d9 06 3d 9a bd b7 3d
       0.12095299 0.027886068 0.032922406 0.089717105
000310 51 74 a5 3c 45 0f e2 bd 43 24 ef 3c cf 77 d1 3d
       0.020197066 -0.11038069 0.029192096 0.1022793
000320 db 09 1f bd ff 93 8d 3d 78 8a e6 bd 37 34 41 3d
       -0.03882776 0.06912994 -0.112568796 0.047168937
000330 bf 0a c3 3c 5a 85 58 bc 00 8c 95 3c 5a 1e d0 bb
       0.023808835 -0.013215387 0.018255234 -0.0063512744
000340 d4 8c 59 bc 51 a3 7b bd 24 25 22 be e2 db 08 3e
       -0.013278205 -0.061435048 -0.1583448 0.13365129
000350 18 87 9c 3d f2 5b 2d 3d 44 76 37 3d 3c b5 94 bd
       0.076429546 0.042324014 0.04479052 -0.0726113
000360 1e 74 e9 3d da e3 be 3d 4f 1e 00 bd 9e fb 98 bd
       0.11399101 0.09320803 -0.031278905 -0.07469867
000370 56 d4 c1 3d 66 6d 50 bd c5 e2 92 bb af 35 31 bc
       0.09464328 -0.05088558 -0.0044825994 -0.010816022
000380 71 28 33 bd 02 6d 31 3d 1b 94 14 3d 6b 28 d9 3d
       -0.04373974 0.04331685 0.036274057 0.10603412
000390 cf 2d 8f bc b2 1e 7d bd be 04 46 bd e1 3d 4f 3d
       -0.017477898 -0.06179685 -0.048344366 0.05059612
0003a0 d2 91 90 bd 62 00 88 bd 73 66 f5 3d d7 da 9f 3d
       -0.07059063 -0.06640698 0.11982431 0.07805412
0003b0 c9 be 44 bc a1 67 23 3d a8 e0 f0 bd b2 54 04 3d
       -0.012008377 0.03989375 -0.117616 0.032307334
0003c0 e6 26 a4 3c bb f4 a9 3d c8 9f eb 3d 29 ce d4 3d
       0.02003808 0.08298632 0.11505085 0.103908844
0003d0 fa 77 dc bd bb 01 98 bd a1 ce b9 3d 88 4e 87 bd
       -0.10765071 -0.07422205 0.090726145 -0.066067755
0003e0 7e 01 e3 bc cb 91 97 3d 75 3a 97 3d e0 2c 07 bd
       -0.027710672 0.07400855 0.07384197 -0.03300178
0003f0 16 03 ae bd 7e 36 c3 bd 8d bd 82 bd ed 65 f5 3c
       -0.08496682 -0.09531878 -0.0638381 0.029955829

lstm.bias_ih_l1 f4 [256]
000000 54 65 b1 bd 89 b6 51 bd cb 65 b2 bd cc 8b 62 3d
       -0.08661905 -0.05119947 -0.08710822 0.055309102
000010 30 19 17 3e 3a 61 78 bd 6f e6 de bd af c0 a2 bd
       0.14755702 -0.060639597 -0.108837955 -0.07946908
000020 2c d4 59 bd 42 b0 c3 3c 46 09 9c 3d ce 18 bd bc
       -0.05318086 0.023887757 0.07618956 -0.023083117
000030 61 e2 2f 3d 63 dd 36 bd 10 eb ea 3d df df b8 3d
       0.0429405 -0.044644725 0.11470616 0.09027075
000040 e7 3e 01 3e 55 bf 30 b9 dd eb 9d bd d4 cd d0 3d
       0.12621652 -0.00016855945 -0.07711003 0.101955086
000050 3b a6 eb 3d cd 41 9d bd 11 84 31 bd c7 dd 5b bc
       0.11506315 -0.07678566 -0.04333884 -0.013419575
000060 9b 3d 7b 3d e4 ef 74 3d 21 86 95 3c 5a 31 33 3d
       0.06133805 0.05979909 0.018252434 0.043748237
000070 9d d6 bc bc 12 5f df bd 96 66 0c 3e a7 23 d8 3d
       -0.023051554 -0.10906805 0.13711008 0.10553675
000080 d0 10 29 bc 9d 09 b9 3d d1 c9 ee bc 40 2c 8a 3c
       -0.01031895 0.09035037 -0.029148968 0.016866803
000090 26 bf 2f bd a7 b7 30 3d de 2b 57 3c 09 3a 7e 3d
       -0.042906903 0.043143895 0.013133017 0.062067065
0000a0 5b e8 81 3d a5 8b 9c 3d 90 80 12 3c 3a 74 5a 3d
       0.063431464 0.076438226 0.0089417845 0.0533335
0000b0 b0 12 d6 3c 04 75 48 3d f0 12 38 bd 21 b7 9a bd
       0.026131958 0.04893972 -0.044939935 -0.0755446
0000c0 60 54 e6 bd d5 03 a6 bd 40 70 d3 3d e4 94 fa 3d
       -0.11246562 -0.081062 0.10324144 0.1223543
0000d0 fb 35 ff bd e0 42 bc bd 40 80 db bd ca 7f ae 3d
       -0.12461468 -0.09192443 -0.10717821 0.085204676
0000e0 62 aa 02 3e 01 d3 e4 bc e4 7e 79 bd 59 b5 83 3b
       0.12760308 -0.027932646 -0.060912028 0.004019421
0000f0 37 5f ec bd fc d7 19 bd d9 52 a9 3d 54 c0 ed bd
       -0.11541598 -0.037559494 0.08267755 -0.11608949
000100 be d4 9d 3d ac 09 3a bd ff f9 df bd 38 11 9b 3c
       0.07706593 -0.04541938 -0.10936355 0.018929109
000110 66 4a d4 3b dc e9 8e bd 0d 4a ec bd a3 20 dc 3d
       0.0064785955 -0.06978199 -0.115375616 0.107484125
000120 4f 03 b7 bd 0b 14 01 3e 82 ca 05 3c 05 9a 5f bd
       -0.08936178 0.12605302 0.008165957 -0.054590244
000130 18 1c c2 3d 70 bb d1 bd 1c d8 87 bd fc 8a 88 3a
       0.09478015 -0.10240829 -0.066330165 0.0010417397
000140 f9 1b d9 bd 45 9c ef ba ea a0 39 bd 95 a8 91 bd
       -0.106010385 -0.0018280825 -0.045319475 -0.071122326
000150 f2 6d 83 3d d0 b2 bf bd c0 76 8a 3d e6 1f 81 bd
       0.06417455 -0.09360278 0.06760931 -0.06304912
000160 7e 74 78 bd 6a 58 50 bd 87 74 fc 3d 8b fb 04 3d
       -0.06065797 -0.05086557 0.12326913 0.032466453
000170 2a b8 7c 3c c1 b9 36 3d 76 d0 05 3e 31 b9 5a 3d
       0.0154247675 0.044610742 0.13067803 0.05339927
000180 ae 53 74 bd 00 32 b1 bc 43 c5 74 bd bc 5d b5 bd
       -0.059650116 -0.021630287 -0.059758436 -0.08855769
000190 e8 12 a9 3b 94 42 87 bd 0e cf 9e bc 88 76 ea 3d
       0.0051597245 -0.06604496 -0.01938584 0.11448389
0001a0 f1 f1 c7 bd c3 aa c3 bc a0 a5 ac bc 14 d6 94 bd
       -0.097629435 -0.023885136 -0.02107507 -0.07267395
0001b0 4b 8d 95 bd 37 77 0e bc a8 e8 f6 bc a5 06 84 bc
       -0.0730234 -0.008695415 -0.030140236 -0.01611645
0001c0 af 4c 74 ba 57 4e 54 bc 04 b1 00 be d8 8b 4c bd
       -0.0009319288 -0.012958131 -0.12567526 -0.049938053
0001d0 8a 89 15 3d 69 3b 41 3c 59 98 1a 3c 52 28 ed bd
       0.03650812 0.01179395 0.009435737 -0.11579956
0001e0 b6 8b 86 bd fa 62 b2 3d 64 37 c2 bd e7 86 f3 3d
       -0.065696165 0.087102845 -0.09483221 0.11890965
0001f0 02 7b 57 3d 47 9c a0 3d 8d 02 cf 3c ac 36 4c 3d
       0.052607544 0.078423075 0.025269771 0.049856827
000200 fe cf de 3d 64 0a 8a bd d6 ba b8 bd 34 0b c7 bd
       0.10879515 -0.06740263 -0.09020011 -0.09718934
000210 7d 72 9d 3d ff 3d b5 3d fe 2b be bd c8 f5 1c 3d
       0.076878525 0.088497154 -0.092857346 0.038320333
000220 ae f8 48 3d b0 60 00 3e 90 7a d8 3d 16 2c 7b 3c
       0.049065284 0.12536883 0.10570252 0.015330335
000230 f3 ca d8 bd c1 e9 06 bd aa 18 e6 3d 63 5f 8c bc
       -0.105855845 -0.03293777 0.11235173 -0.017135328
000240 6d ff cb 3d cb 35 c2 3d f1 c7 1a 3c 4d 1c d2 bd
       0.09960828 0.094829164 0.009447084 -0.10259304
000250 08 74 c4 bd 4f 9a 2c 3b 91 c1 a3 3d 2c b1 24 bd
       -0.09592444 0.0026337092 0.07995904 -0.040208027
000260 7f e8 13 3d 66 a0 64 bd 4b a5 08 be a8 c5 f4 3d
       0.036110397 -0.05581703 -0.13344304 0.119517624
000270 3b 33 a6 bb 92 2d 69 bd 44 ba 03 3e 00 57 4f bd
       -0.005072025 -0.056928225 0.12864023 -0.05062008
000280 20 b0 4a bd 9f 69 cb 3d 85 12 10 3d 45 c5 9b 3d
       -0.049484372 0.09932255 0.03517391 0.076059856
000290 9e 35 34 3d 5b c4 af 3d 2f 5f 94 3d c3 0f 2b 3d
       0.043996446 0.08582374 0.07244717 0.04176308
0002a0 41 40 c7 bd d0 5f 5b bd 4e fd 8c 3a b3 21 bd bd
       -0.09729052 -0.05355817 0.0010756643 -0.09234943
0002b0 b4 bc 12 3d 3a cf 00 3c 0a 6a 47 3d e8 60 c5 bc
       0.035824493 0.007861907 0.04868511 -0.02409406
0002c0 81 44 eb 3d d1 f8 2e 3d 23 a6 91 3d e1 74 d1 3d
       0.114876755 0.04271776 0.07111766 0.10227371
0002d0 d1 28 ab bc c4 07 39 bd fb b2 96 3d a9 b1 8e bd
       -0.020893486 -0.04517342 0.073583566 -0.0696748
0002e0 df 4d b5 bd b7 6a 34 3c a3 98 ba 3d 03 49 09 3d
       -0.08852743 0.011011771 0.091111444 0.033516895
0002f0 c9 d9 26 bd 4e f1 78 3d 6a dc 67 bb 8a ae 30 bd
       -0.04073504 0.060777 -0.003537918 -0.043135203
000300 19 37 98 3c ab 90 16 3e 81 f4 25 3d 09 ef 87 bd
       0.01858096 0.14703624 0.04051638 -0.06637389
000310 46 62 22 3e 1e 66 c1 3d 58 8e c3 3d 80 a8 11 bc
       0.15857801 0.094433054 0.09548634 -0.008890271
000320 1b 21 09 bd 5a 87 97 bd 18 d9 97 3c f7 0b a6 bd
       -0.033478837 -0.07398863 0.018536136 -0.08107751
000330 cc 6a 3b bd fa 73 82 bd cf 38 99 3d 07 4c 7c bd
       -0.045756146 -0.06369777 0.074815385 -0.061595943
000340 64 b4 e6 3d 8f 98 5f 3d 02 79 ac 3c 24 1d 9b bd
       0.112648755 0.05458885 0.021053795 -0.075739175
000350 4e e9 ff 3d ab 9d fa 3d eb 26 56 bd 00 95 d3 3d
       0.12495671 0.12237104 -0.05228321 0.10331154
000360 77 94 ea bc 25 82 2a 3c 78 1e 07 3e ce d1 a8 3d
       -0.028635247 0.010407005 0.13195217 0.08243142
000370 d1 85 cd bd 58 74 97 bd 96 82 20 3d da e4 0e bd
       -0.10035289 -0.07395238 0.039187036 -0.03488622
000380 67 3e 1d 3e c0 70 ec 3d 19 e6 7c bd b4 ae e5 3d
       0.15355836 0.11544943 -0.061742876 0.112149626
000390 18 ce 25 bd 4f 75 95 bd 64 76 09 bd 96 e0 23 3d
       -0.04047975 -0.072977655 -0.03356017 0.040009104
0003a0 d2 09 a6 3d d2 8a 01 3e 7d 10 17 3e 7c c5 a8 bd
       0.08107342 0.12650612 0.14752384 -0.08240792
0003b0 55 d1 a9 bb 0b c8 57 bd 57 c5 15 3c 4c a2 78 bd
       -0.005182425 -0.05268101 0.009141288 -0.060701653
0003c0 e1 9b f6 bd 5d 71 9b 3d d2 60 2a bd 0a 02 7a 3d
       -0.1204145 0.07589982 -0.04159624 0.0610371
0003d0 05 93 c5 bb 2a 37 aa bd 5e aa 8d bd 71 43 b1 bd
       -0.006029489 -0.08311303 -0.069172606 -0.086554416
0003e0 7f c1 04 3e 5e 46 00 bd 0f 2b aa bd 6c 9f 41 3d
       0.12964438 -0.031317107 -0.08308994 0.047271177
0003f0 25 7a 05 3e d3 4b 1d 3d 76 30 04 bd 71 22 af bd
       0.13034876 0.03840239 -0.03227278 -0.08551491
