src/Backend-Information/Clod-weather_predict/Guangdong_lstm_model.pth (torch, 208379 bytes, 11 tensors)

lstm.weight_ih_l0 f4 [256, 3]
000000 cd 57 f5 3d 80 43 0b bd a8 5e 95 3d 6f 91 42 bd
       0.11979637 -0.03399992 0.07293445 -0.047501978
000010 72 55 55 bd 2a 16 b1 3d 8d b0 bb bb b2 06 7d bd
       -0.05208344 0.086468056 -0.0057278336 -0.061773963
000020 b8 c1 16 3d 80 bd 23 be 97 7b 09 3d ee f3 bb bd
       0.03680584 -0.15990257 0.03356513 -0.09177385
000030 ef 55 04 3c 1b 48 2f bd 58 8c 29 3d 40 2b 22 bd
       0.008077129 -0.042793375 0.041393608 -0.039592028
000040 81 df 4a 3d 24 58 52 3d 68 3e ee bc 10 95 82 bc
       0.049529556 0.05135359 -0.029082492 -0.01594022
000050 1c cb 5d bd e1 e0 5c 3d e7 c6 03 be 30 85 cc bd
       -0.05414878 0.0539254 -0.12868844 -0.09986341
000060 a9 33 dd 3c f6 79 98 bc 40 bb 47 3d a3 85 b6 bc
       0.027002173 -0.018612843 0.04876256 -0.02228052
000070 4e 7d 98 bd 18 ed 13 bd d9 a1 75 3d 52 1a 8c 3d
       -0.07445775 -0.036114782 0.059968803 0.06840958
000080 86 86 cf 3d 1d d6 09 be 8d 31 a8 3d 18 96 e2 3c
       0.1013308 -0.13460584 0.08212576 0.02765946
000090 04 6d c3 bd e2 88 ee 3c c0 42 71 3c b4 cc 22 bd
       -0.095422775 0.029118005 0.014725387 -0.039746
0000a0 c2 a9 3a bd a0 17 65 3d d5 2f b1 3d 7a 1b 59 3d
       -0.04557205 0.055930734 0.08651701 0.05300472
0000b0 10 0f 54 bc e2 47 b5 3d 87 b6 85 bd c2 69 e7 bd
       -0.012943044 0.08851601 -0.06528955 -0.112994686
0000c0 68 fe b9 bd 00 3d e6 bd cc 3c 8b 3d 26 00 bc bc
       -0.09081727 -0.112421036 0.067987055 -0.02294929
0000d0 c9 b8 08 3d c4 73 bc bd e1 83 dd bd b0 a1 06 be
       0.03337935 -0.09201768 -0.108161695 -0.13147616
0000e0 64 06 b6 bd 1d df 05 bd be 1a 59 bd c8 3f a0 3c
       -0.08887938 -0.03268348 -0.05300402 0.019561663
0000f0 91 89 d1 bd 63 eb 22 bd 98 89 fd bd 27 39 06 bd
       -0.10231317 -0.039775264 -0.123797596 -0.03276935
000100 1a 8a d2 3d ec 4e 4f 3d 53 93 bd bd 8f 9c a3 3d
       0.10280247 0.050612375 -0.092566155 0.079888456
000110 68 0f a3 3d 6a f2 c4 bd 89 c4 fc 3d 8c 5a 44 bd
       0.07961923 -0.09616549 0.123421736 -0.047937915
000120 ba 6a 40 bd 5b f0 ad 3d 22 bb de bd 9c 4d 96 bd
       -0.046976782 0.0849311 -0.108755365 -0.073390216
000130 7d 38 1e 3d 50 57 ae 3d 8a 72 83 bc 9a c4 de 3d
       0.03862809 0.08512747 -0.016045827 0.108773425
000140 ac 46 ce 3d ec 6d bb ba 59 3d d4 bc 24 87 4d 3d
       0.10072073 -0.0014299727 -0.02590816 0.05017771
000150 2f 17 b4 3c 69 08 74 3c 4e a3 eb bd 1c 7e b9 bc
       0.021983711 0.014894583 -0.11505757 -0.022643141
000160 7c 19 d7 bd 50 4b 6d 3c fe b5 84 bd a4 05 85 bd
       -0.10502908 0.014483288 -0.06480025 -0.064952165
000170 a4 77 dd bd 81 22 4d 3d 6f a9 b6 3d 8e 96 97 3d
       -0.10813835 0.050081734 0.08919036 0.07401763
000180 7a 0e 8f bd 80 b9 e9 bc a0 25 62 bc 74 93 8a bd
       -0.06985183 -0.028530836 -0.013802916 -0.06766406
000190 30 ef db bd 2c 19 99 3d 96 44 a4 bd ce de e3 bb
       -0.10738981 0.07475504 -0.08020894 -0.0069540506
0001a0 a4 d9 cf bd 0e 1d ce 3d 16 ee 04 3c 6e d8 db bd
       -0.101489335 0.100641355 0.008113405 -0.1073464
0001b0 1d ff 8e 3d dc 7f 93 3c 90 aa a9 3c 41 41 61 3d
       0.06982253 0.018005304 0.020711213 0.05499387
0001c0 c3 39 99 bb a8 88 d9 bd a1 dc 42 bd 7f 6c d2 3d
       -0.004676075 -0.10621768 -0.04757369 0.102746
0001d0 44 63 2b bd 5d ee 9b bd 61 81 a1 bd 40 6a a5 bc
       -0.041842714 -0.076138236 -0.07886005 -0.020192266
0001e0 73 06 e2 bd 06 d2 ed 3d 04 f1 0f 3d 46 d7 a6 bd
       -0.11036386 0.116123244 0.03514196 -0.08146529
0001f0 c7 97 f4 3d e4 96 8f 3d 40 ed d2 3d 75 45 9e 3d
       0.11943012 0.07011202 0.10299158 0.077280916
000200 38 18 15 3d 10 42 75 bd e0 08 00 3d 3e da 81 bd
       0.03640005 -0.059877455 0.031258464 -0.063404545
000210 0c 23 13 be 4c a9 e9 3b a0 14 b6 bd 07 22 32 3c
       -0.14368838 0.0071307775 -0.08890653 0.010872371
000220 76 c6 8a bc d4 7a 24 bd b4 21 c0 3d 3d a8 05 3d
       -0.016940337 -0.0401562 0.09381428 0.032631148
000230 d8 fc 46 bd fd f9 02 bd 5b c9 74 bb 2c 7f dc 3d
       -0.048580974 -0.03197669 -0.0037351463 0.107664436
000240 2d b5 1d 3d e8 9b d0 3c 64 4c 5f 3d 2a 62 1b bd
       0.03850286 0.025464967 0.05451621 -0.037935413
000250 ab 9d c2 3d 74 f0 71 bd a9 c8 ff 3c a4 e1 bb 3d
       0.09502729 -0.059067205 0.031223612 0.09173897
000260 8a 24 80 3d 0a 8a 21 3d dd f2 68 3d 98 ac 47 bd
       0.06256969 0.039438285 0.056872237 -0.048748583
000270 a1 8c 69 3c 70 56 3e 3c 5c 19 dd 3d a0 f7 10 38
       0.01425472 0.011617288 0.107958525 3.4562894e-05
000280 d8 e1 72 3d 52 f2 d2 3d fe 93 5e ba 11 94 c9 3d
       0.059297413 0.10300125 -0.00084906805 0.098426946
000290 b0 c3 57 3c 3b 7d 95 3b 9d 42 fe bc 88 9c b3 bd
       0.013169214 0.004562048 -0.031037623 -0.0877009
0002a0 8f 48 70 3c 87 62 f4 3c ca 70 a7 bd 67 4d 10 be
       0.014665737 0.029832138 -0.0817581 -0.14092027
0002b0 40 80 aa bd 24 81 50 bd 33 5d 33 3d 4f 66 95 bc
       -0.08325243 -0.050904408 0.043790054 -0.018237261
0002c0 e8 36 f9 3c 21 da 99 bc db 12 74 ba 60 9d 47 3d
       0.03042169 -0.01878077 -0.0009310671 0.04873407
0002d0 61 31 89 3c 26 38 54 bd 58 4b 19 bd 7f 11 8d bd
       0.016747179 -0.05181136 -0.03742537 -0.06888103
0002e0 c0 9e 34 bd 32 04 b8 bd 6d a2 4e bd e5 bf 81 3d
       -0.04409671 -0.08985175 -0.05044787 0.06335429
0002f0 e0 46 f0 bc 7f 5c 66 3d 0c 7a 00 bd 6c 1e 71 3d
       -0.02933067 0.056240555 -0.031366393 0.058866903
000300 87 9d 15 bd b9 03 f4 bd f2 8e d3 bd 39 a5 be bd
       -0.036527183 -0.119147725 -0.10329999 -0.093088575
000310 6b ed f4 bc 02 64 a9 3d d5 4d ab bd 98 34 2d bd
       -0.029898366 0.08271028 -0.08364455 -0.042286485
000320 50 44 3b 3d 6e ea eb bc 6a b6 c6 bd a8 17 ed bd
       0.045719445 -0.028798308 -0.097027615 -0.11576778
000330 8d 19 d4 ba e1 b7 02 3e 72 45 fb 3d 5f 5a 3d 3d
       -0.0016181931 0.12765457 0.12269105 0.046228763
000340 f8 de 91 3d 28 d2 a8 bd 23 ec d5 bd ba 6b e7 3c
       0.07122606 -0.08243209 -0.1044543 0.02824961
000350 80 01 e4 3a aa d2 b0 3d 28 13 b8 bd fc d7 5e bd
       0.0017395467 0.08633931 -0.08988029 -0.054405198
000360 c7 99 4e bd 7b 03 82 bc d6 34 db 3d da 6d c2 3d
       -0.050439622 -0.0158708 0.10703437 0.09493609
000370 b8 cc 50 ba b2 de d7 3d f4 8f 41 3c cb 07 e2 3c
       -0.0007965076 0.10540523 0.011814106 0.027591607
000380 52 52 8d 3d f0 34 8e 3d e7 c3 9c bd 96 a9 fe bd
       0.06900467 0.06943691 -0.07654553 -0.1243469
000390 de 2b 4e 3d 06 f4 8a bd 80 58 b5 3a 67 28 3b bd
       0.050334804 -0.06784825 0.0013835579 -0.045692828
0003a0 24 c5 d0 bd a6 61 d0 3d c7 9b 8a 3d 19 d0 24 bd
       -0.101938516 0.10174875 0.067679934 -0.04023752
0003b0 98 89 ee bd 1a a6 b1 bd 41 67 f3 3d 60 7e df 3c
       -0.11647338 -0.086742595 0.118849285 0.02728194
0003c0 20 b5 36 bd 96 66 b6 3d 40 ce 89 3b 70 a4 98 bd
       -0.044606328 0.089062855 0.004205495 -0.07453239
0003d0 fc 07 63 3c 80 11 a3 3d d7 2e cf 3c 46 d6 8f bd
       0.013856884 0.07962322 0.02529089 -0.07023291
0003e0 34 88 23 3d 2c 49 66 3d c3 1f cd 3d 04 f8 18 3d
       0.039924815 0.056222126 0.10015824 0.0373459
0003f0 90 ad d5 bd f9 4c a8 3d dc 97 10 bd a1 d5 1b be
       -0.10433495 0.08217806 -0.035301074 -0.15218212

lstm.weight_hh_l0 f4 [256, 64]
000000 05 f8 c0 bd b6 d6 24 3b 3d 33 6a bc 01 d4 be bc
       -0.09422306 0.0025152392 -0.014294443 -0.02329445
000010 2a 22 17 3d ea 65 d4 bd 7a 38 cd 3d 4a 28 78 bd
       0.036897816 -0.10371001 0.10020538 -0.060585298
000020 1e 27 dc 3d 55 b7 cb bd 03 13 15 bd 6c 22 2d bd
       0.107496485 -0.09947077 -0.036395084 -0.042269155
000030 fb cb 99 bd b7 14 44 3c 70 ec 90 3d ad 0e 3e 3d
       -0.07509609 0.011967829 0.07076347 0.046400715
000040 97 5d 50 bc ca c1 9c bd f6 47 b4 bd 1b 44 f9 bd
       -0.012717626 -0.0765415 -0.08802788 -0.12171193
000050 52 db 4e 3c 17 22 e6 3c 4f 99 04 3e a8 ef f0 bd
       0.012625532 0.028092427 0.12949108 -0.11764461
000060 60 ea 6c 3d 93 53 46 3d 8d 4d de 3d 98 cc e3 3c
       0.057840705 0.048419546 0.108546354 0.027807519
000070 20 5a 4f bd 57 6a c6 3d 0d 93 be bd 73 68 9c bd
       -0.05062306 0.096882515 -0.093053915 -0.076371096
000080 f4 ad dc bd c2 73 df 3d cd c8 ff bd ca 2b a6 bd
       -0.107753664 0.10910751 -0.124894716 -0.08113821
000090 c1 1c ce 3c 28 a5 7d bb c4 70 9f 3d ca 14 d9 3d
       0.025160195 -0.0038703177 0.0778518 0.10599668
0000a0 2d b5 d5 bd 8e 48 13 bd 1d 25 33 3d a3 ab cc bd
       -0.10434947 -0.035957865 0.043736566 -0.099936746
0000b0 f8 60 3d 3d 65 09 e3 3d e0 e6 d9 3c 97 ff 10 bd
       0.046235055 0.11085776 0.026599348 -0.0354
0000c0 79 1f 92 3b c7 64 9f 3d e1 77 d3 bd 83 24 7b 3d
       0.0044593182 0.07782894 -0.103255995 0.061314117
0000d0 8d bf 6e 3d 7f 20 c2 3d 03 e9 b1 bd 8b 5c db 3b
       0.058288146 0.094788544 -0.086870216 0.0066943816
0000e0 aa 7f c2 bc 3e 5e 6f 3d 6e 99 b4 bc ef de e5 3c
       -0.023742516 0.058439486 -0.022045817 0.028060405
0000f0 33 ea 14 3c f4 3a f1 3d cb 74 db 3d aa 9b 7b bc
       0.009089041 0.117788225 0.10715636 -0.015356937
000100 29 67 d0 bd 6d 76 64 bc 0d eb d8 3c 04 0a bf 3d
       -0.10175926 -0.0139442505 0.026479268 0.09328082
000110 9d 88 e5 bc 58 a8 ff 3b dd 52 99 bd 22 63 a6 bd
       -0.028019244 0.0078020506 -0.07486508 -0.08124377
000120 80 62 e8 bd c4 0a 53 3c 5f bc c4 3d 89 37 b4 3d
       -0.113469124 0.012880985 0.096062414 0.08799655
000130 59 38 03 3d 66 68 48 bd a2 15 84 3b 33 e9 bc 3d
       0.03203616 -0.048927687 0.004030899 0.09224167
000140 20 b0 af 3d 98 57 6a bb 84 f4 9f bc 13 c7 96 3b
       0.08578515 -0.0035757776 -0.019525774 0.004601368
000150 05 99 4a bd 5a 75 07 bd af 58 b6 3d 45 ca b8 bd
       -0.049462337 -0.0330709 0.08903634 -0.09022955
000160 dd 9b 21 bd c5 12 ca 3b d3 4f 9c bd da 61 c1 3d
       -0.039455283 0.0061667883 -0.07632413 0.09442492
000170 c8 d9 43 bc ac 76 52 3d 29 8b da 3d 69 dd e8 3d
       -0.011953779 0.051382706 0.10671074 0.11370356
000180 af 38 bf 3d 33 ba 03 3d 3e 8e 14 be e1 09 0b bd
       0.093369834 0.032159995 -0.14507386 -0.033944968
000190 86 e6 5c bd 5b 6f 63 bd 23 bf bb bd 3c d9 e0 3d
       -0.05393078 -0.05552612 -0.09167316 0.10978934
0001a0 1a d6 b7 bd 3b 32 b2 bd 41 6d e8 bd cb 64 07 3d
       -0.089763835 -0.08700987 -0.113489635 0.033055108
0001b0 bf ca b1 3d 6b 59 c0 3d f9 6a dd bd 15 a9 a2 3d
       0.08681249 0.09392055 -0.10811419 0.07942406
0001c0 2c 86 07 be 01 e7 cf bd a7 9d f5 bd a5 8a 84 bd
       -0.13234776 -0.101514824 -0.119929604 -0.06471757
0001d0 af 1a bc 3d 93 00 b0 bd a8 1b 95 3c b9 42 16 be
       0.09184777 -0.085938595 0.018201664 -0.1467389
0001e0 ef ce 8a bb 65 71 85 bd 50 10 f9 3d a9 9c 1a 3b
       -0.004236094 -0.06515769 0.121613145 0.0023591912
0001f0 7c 34 21 3d 40 96 6b bd 15 95 f5 3d 95 89 8a 3d
       0.039356694 -0.057516336 0.11991326 0.06764523
000200 dc ce 37 bd d0 50 31 bd 7c 8d f7 3d ff 70 0f 3d
       -0.04487501 -0.04328996 0.12087533 0.03501987
000210 49 e6 f5 bd ad 5f 48 3d 03 eb 72 3d 4b d6 63 bd
       -0.12006814 0.04891937 0.059306156 -0.055624288
000220 0e 86 1b 3d fa 07 0f be cc 2b af 3b b7 d8 95 bd
       0.03796964 -0.13967887 0.005345797 -0.07316726
000230 b0 0a 12 3d c9 f3 8b bc 31 6e a4 bd c2 7b bb bd
       0.035654724 -0.01708402 -0.0802883 -0.09154464
000240 01 ef c0 bd 93 92 47 3d 82 ee 4b 3a 1c 13 f3 bd
       -0.094205864 0.04872377 0.0007779376 -0.11868879
000250 45 80 d9 bd f0 d7 c2 3d f5 b5 c0 bc cb bd 00 be
       -0.106201686 0.09513843 -0.023524264 -0.125724
000260 77 3e b8 3a 48 7a ad bd 44 33 cc 3d 49 ba e9 3d
       0.0014056702 -0.08470589 0.09970716 0.11412484
000270 a3 6d 02 bd db a8 32 bd 38 b0 91 bb 2d 4c e7 3d
       -0.03184284 -0.043618064 -0.0044460557 0.11293826
000280 62 84 b2 3c 4d 44 b1 bd d7 02 a9 3d fd 6b 9b bd
       0.02179164 -0.086556055 0.08252495 -0.075889565
000290 b7 50 9c bc aa dc a1 bd 2d 53 c6 3d d8 eb b5 bd
       -0.019081457 -0.079034165 0.09683833 -0.08882874
0002a0 ed f6 82 3d 65 c9 19 bd 4c 11 b6 3d 38 9f 67 3d
       0.063947536 -0.03754558 0.08890018 0.056548327
0002b0 85 15 c1 3d 99 ac 89 bc 5a 62 ee 3c 59 d3 7c bd
       0.09427933 -0.016805934 0.029099632 -0.061724994
0002c0 31 2f f5 bd 7e 61 8c 3d fe 9a aa 3d f8 81 f2 3d
       -0.11971892 0.06854533 0.08330344 0.11841196
0002d0 d0 bd 18 3d 72 94 0c 3e 8e 18 45 3c 1d 58 a2 3d
       0.037290394 0.13728502 0.01202978 0.079269625
0002e0 64 93 30 bd 9b 1a 00 3d 7b a7 bc bd d0 81 0a 3e
       -0.043109313 0.031275373 -0.09211632 0.13526082
0002f0 d9 a1 13 3c 16 f5 cc bd bb 9e 0e 3e 61 50 3d 3b
       0.009010755 -0.10007684 0.13927738 0.002888702
000300 a7 5d 09 bc ff 34 b8 3d 74 4c 98 bc 87 4f f1 bc
       -0.008384145 0.08994483 -0.018591143 -0.029456867
000310 75 02 90 3d f1 0b 8c 3d 6b b7 6e bd b2 07 28 bc
       0.07031719 0.06838215 -0.05828039 -0.010255741
000320 f1 4c b6 3d 20 2a 64 bd 09 1a 95 bd 30 a1 7e bd
       0.08901394 -0.055704236 -0.072803564 -0.06216544
000330 6c 21 14 bd f0 63 15 3d d1 62 70 3d 25 6d 42 bd
       -0.036164686 0.03647226 0.05868799 -0.04746737
000340 15 05 a8 3d 4a 7d cc 3c 6c 77 28 3b e6 d2 11 bd
       0.08204094 0.024962086 0.0025705947 -0.03560152
000350 20 d2 94 bd 11 dc f0 bd 03 12 d5 3d 82 26 66 3c
       -0.07266641 -0.11760724 0.10403826 0.014047267
000360 ee 26 ae bc b4 97 4f bd af 9d a9 bd 1d 97 bd 3d
       -0.021258797 -0.050681785 -0.08282029 0.09257338
000370 65 84 05 bd 1a e5 b3 3c 90 3d 00 bd 96 e5 68 3b
       -0.032596964 0.02195983 -0.03130871 0.0035537235
000380 b2 86 00 3c dc 1f b2 bd 04 fc 49 bd 9c 41 c1 3d
       0.007844614 -0.08697483 -0.049312606 0.09436342
000390 d2 16 c3 bd ee 06 b7 3d ef d8 d8 bd a1 4c 8c bb
       -0.09525837 0.089368686 -0.10588252 -0.004281596
0003a0 85 35 16 be 36 ef 07 be 3f ec 83 3c 7d 51 e3 3d
       -0.14668854 -0.13274845 0.016103862 0.11099527
0003b0 bb cb 42 3c 2d 87 92 3a 3a ff 7b 3d a8 21 21 3d
       0.011889393 0.0011179202 0.0615227 0.039338738
0003c0 a5 ee d4 bd 33 7b a4 bc ce a5 10 bd 6c 15 dd 3d
       -0.1039708 -0.020078277 -0.035314374 0.107951015
0003d0 6a a1 ea bd 78 ef 0e 3d 9c df 28 3d bb 28 c4 bd
       -0.114565685 0.034896344 0.041228876 -0.09578081
0003e0 df eb d1 bd f6 44 cd bd 47 9e b4 bd d1 22 c3 3b
       -0.10250067 -0.10022919 -0.088192515 0.005955078
0003f0 58 64 aa 3d 50 78 7a bd 62 87 a2 bd c1 ba 51 3b
       0.0831992 -0.061149895 -0.079359785 0.0032002183

lstm.bias_ih_l0 f4 [256]
000000 45 a7 0d bd ea eb 73 bd 7a 91 cd 3c a3 06 49 bd
       -0.03458335 -0.059551157 0.025093783 -0.049078595
000010 a9 b1 ac bc 15 5a 9a 3d 7e 0c 07 3c 08 c6 cf bb
       -0.021080809 0.07536713 0.008242724 -0.006340746
000020 20 07 df bc 1d 82 86 bd 11 09 68 3b d2 ed 84 bc
       -0.027225077 -0.06567786 0.0035405795 -0.016226683
000030 fa 5d 31 3d 40 2a 95 bd 7f ed 89 bd 52 91 04 be
       0.043302514 -0.07283449 -0.06734752 -0.1294606
000040 a1 bb 8c bd 29 e1 03 3e 20 a9 07 3e 2c 20 ff 3d
       -0.06871725 0.1287886 0.1324811 0.12457308
000050 1b 5e 9e 3d 90 d5 05 3a fb 64 7d 3d 50 a0 c9 3c
       0.07732793 0.00051053707 0.06186388 0.024612576
000060 27 91 9e bb 7e ee 79 3b 96 95 ea 3d 55 8d 8c 3c
       -0.004839081 0.0038136537 0.114543125 0.017157236
000070 e9 32 a3 3d 7d e1 c4 3d cd ad be bc f9 f0 d3 3d
       0.07968695 0.09613321 -0.023276234 0.10348696
000080 fa 3f 4a 3d d5 64 a2 3d 59 a5 88 bd 82 41 bb bc
       0.04937742 0.079293884 -0.066721626 -0.022858385
000090 8d 24 f0 bd da 87 04 3d 94 ec 8a 3d 2f cc 91 3c
       -0.117257215 0.03235612 0.06783405 0.017797558
0000a0 75 0c 06 3e 96 ac aa bd d3 7c b7 bd 94 59 92 3d
       0.1309069 -0.083336994 -0.08959355 0.07145992
0000b0 66 3a e4 3d cd 0b 43 3c 43 1f 07 3c 11 eb 70 bc
       0.11143951 0.011904669 0.0082471995 -0.014704482
0000c0 8e 04 fe bc 0d c6 bc 3c df 20 c4 bd da e7 89 3c
       -0.031008031 0.023043657 -0.09576582 0.016834188
0000d0 fb 51 a6 bd a4 cf d4 3d 10 6f 0d 3c 75 a2 64 bd
       -0.08121105 0.10391167 0.008632436 -0.055818994
0000e0 78 34 8d bd b8 37 00 bd 94 13 56 bc e0 83 a8 3d
       -0.06894773 -0.031303138 -0.013066191 0.08228278
0000f0 fe 1c fb 3d fb 35 ec bc da 5a f2 bd b2 07 d6 3d
       0.12261389 -0.028834334 -0.11833735 0.104506865
000100 85 2c 99 3d ea fd 7d 3b c4 4e df bb f7 5d a7 bd
       0.074791946 0.003875608 -0.0068148095 -0.08172219
000110 73 29 9e bd b0 b0 0e bd a8 f9 7d bd 65 b8 51 bc
       -0.077227496 -0.03483647 -0.06200567 -0.012800311
000120 5a fb 5d bd 6a 43 03 3e 8c 27 46 3d ec 7a 9d 3c
       -0.054194786 0.12818685 0.04837756 0.019223653
000130 9c 4c bf 3d f2 0b 8b bd 57 07 40 bc 81 a0 f3 3d
       0.09340784 -0.06789388 -0.0117205 0.11895848
000140 43 7e 9c bd 56 0c cf bd b0 82 73 bc 60 06 ac bd
       -0.0764127 -0.10109775 -0.014862701 -0.083996534
000150 ec 55 9b bd 2d 59 ba 3d 7e 6f 9e bd ea 94 8a bd
       -0.07584748 0.0909904 -0.07736109 -0.06766684
000160 60 c7 e9 3c 1d 27 84 bd 23 2e 87 3d 93 6e 61 3c
       0.028537452 -0.06452773 0.06600597 0.013759273
000170 64 fd a0 bd 1d 2f e0 bd ad 90 c4 3d bd 65 cb 3d
       -0.078608304 -0.10946486 0.09597907 0.099315144
000180 6a 3e 1e 3d 20 4e 86 bc 60 c1 02 be 0b 77 b8 3d
       0.03863374 -0.016394675 -0.12769079 0.09007081
000190 80 b2 9a 3c 88 1a 97 bc f1 18 8e bc a9 bd 8c 3d
       0.018883944 -0.018445268 -0.017345877 0.06872112
0001a0 44 2d a5 3d 36 eb 9f bd 71 f5 52 3d 7d c8 cf bd
       0.08065274 -0.07808535 0.051503602 -0.10145662
0001b0 38 37 76 bd 1a eb ae bb 26 3e b1 bc dd 49 b8 3d
       -0.060111254 -0.005338085 -0.02163608 0.08998463
0001c0 0a d5 15 3d dc b4 bd bd 03 c1 0b 3d bd 20 03 3d
       0.036580123 -0.09263012 0.034119617 0.032013644
0001d0 88 58 bc 3d a8 95 c7 3a 8b 9a 7d 3c 9b d5 66 3d
       0.091965735 0.0015227096 0.01547874 0.056356054
0001e0 38 1d 03 3c f1 c3 96 3d 02 99 57 bc a7 7d b1 3d
       0.008002572 0.073615916 -0.0131590385 0.086665444
0001f0 e6 e6 3f bc f7 e3 78 bd b5 65 c0 3d 53 4f 8e bc
       -0.011712765 -0.06076428 0.09394399 -0.01737181
000200 2f b1 e1 bd 6f e6 df 3d 66 60 d1 bd 4b b7 10 bd
       -0.11020123 0.109326236 -0.10223465 -0.03533105
000210 bd bd b7 bc c5 b0 16 3d a2 20 68 bc 66 80 fa bc
       -0.022429341 0.036789674 -0.0141679365 -0.030578803
000220 f0 5e f3 bc be dd 5b bc 1b 7a 8f bd ef a4 84 bd
       -0.029708356 -0.013419567 -0.07005712 -0.06476771
000230 56 fb ca 3d 34 12 40 bd 76 cb 0e 3d 39 e4 e9 3c
       0.0991122 -0.04689236 0.034862004 0.028551208
000240 97 14 a9 3d ae 93 cf 3d 9c a0 0a 3e 9c 5e e9 bd
       0.0825588 0.101355895 0.1353783 -0.113949984
000250 06 39 87 bd a0 11 64 bd 69 d5 48 bc 6e e2 0c bd
       -0.06602673 -0.05568087 -0.012257912 -0.034395628
000260 05 da 0e 3e 7d 7e a8 3d 35 39 9c bc c9 77 f7 3d
       0.13950355 0.08227251 -0.019070247 0.12083394
000270 6f 19 04 be d2 d4 bd 3d 1a 21 77 bc b6 b0 a4 3d
       -0.12900327 0.09269108 -0.015083576 0.080415174
000280 21 3e b8 3d 38 0d a9 bd dd b2 91 3c 75 b8 80 3d
       0.08996225 -0.082544744 0.017785484 0.062851824
000290 5b fc c6 3d 32 cd 3e 3d b1 25 a5 bd 07 f8 8e bd
       0.09716102 0.04658241 -0.0806383 -0.06980901
0002a0 ec 5b 99 3d 58 3d e1 3d b1 84 52 bd b3 3d d4 ba
       0.07488236 0.109980285 -0.051396076 -0.0016192704
0002b0 17 70 9e bd 53 db e0 bd 1e ec 31 3d e8 c0 a3 bd
       -0.07736223 -0.10979333 0.04343807 -0.07995778
0002c0 29 42 92 bd a7 97 a5 bd a7 29 fd bc f5 bf e9 3d
       -0.07141525 -0.08085566 -0.03090365 0.11413566
0002d0 e4 e6 37 bd 14 72 4b 3d 0e 01 5d bb 78 81 0a bd
       -0.04489793 0.04966934 -0.0033722552 -0.033814877
0002e0 ed c4 9d bd ff 45 10 bd bf df 55 bc 54 2d d5 3d
       -0.07703576 -0.035223003 -0.0130538335 0.10409036
0002f0 b2 6d 06 be f4 fe 17 3d b8 0f 66 bd 2b 42 8f 3c
       -0.13127783 0.037108377 -0.056167334 0.017487606
000300 45 db 5a bd 35 b3 c1 3d d4 9f 0c 3e 0c f7 84 ba
       -0.053431768 0.09458009 0.13732845 -0.0010144426
000310 5b 7e ab 3c e8 08 c8 3d 50 05 a3 3d c5 bb 06 be
       0.020934274 0.09767324 0.07959998 -0.13157566
000320 38 d6 e1 3d 40 2a 58 3d eb f9 30 3d 97 a1 95 3d
       0.11027187 0.052774668 0.04320709 0.073062114
000330 da b7 dd bd 0e 6c 26 bd 4b 0e 7f bd 9f b7 14 bd
       -0.108260825 -0.040630393 -0.06226949 -0.036307927
000340 63 45 aa 3c 1b 81 2e bd 41 71 aa 3d b1 11 ea bb
       0.02078504 -0.042603593 0.08322383 -0.0071432223
000350 2d 1a 84 bc e8 42 ea bc f5 0e 7c 3d 80 70 60 3b
       -0.016125763 -0.028596357 0.0615377 0.0034246743
000360 fe 2d 96 bd 6a f1 27 bd c5 57 24 bc be e9 ca bd
       -0.07332991 -0.041001715 -0.0100306915 -0.09907864
000370 05 fc 5b 3c fb c3 5a bc da 99 af bd b3 24 c9 bd
       0.013426785 -0.013352389 -0.08574267 -0.09821453
000380 75 12 bf bd 35 22 0d be 3e a8 dd 3d db ce a6 3c
       -0.09329692 -0.1378258 0.10823105 0.020362308
000390 95 9b 95 bd 4e 93 94 bd 82 55 d9 3d 01 6f a6 3d
       -0.073050655 -0.07254659 0.106120124 0.08126641
0003a0 63 32 48 bd 86 6c 18 bd a0 63 6f bd 02 b3 48 3d
       -0.048876178 -0.03721287 -0.05844462 0.04899884
0003b0 73 af 21 bd 32 9d 88 bc 07 ac f7 bd 04 82 b8 3d
       -0.039473962 -0.016676519 -0.120933585 0.090091735
0003c0 97 09 86 bd 78 71 ee bc c9 fc d8 bd 43 84 f5 3d
       -0.06544798 -0.02910684 -0.1059509 0.119881175
0003d0 3f 12 b2 3d 77 5e 9e 3b b2 70 e0 3d 3e 9c ef bc
       0.086948864 0.0048330384 0.10958995 -0.029249307
0003e0 c6 51 b8 bd 77 fc a2 bd 10 73 2c bd b4 6f 94 3d
       -0.08999972 -0.0795831 -0.04210192 0.07247868
0003f0 c3 45 08 bd 43 51 c4 bc 6b d8 df 3d b6 92 8d 3d
       -0.033269655 -0.02396453 0.1092995 0.069127485

lstm.bias_hh_l0 f4 [256]
000000 6b 06 54 bd c2 6e 3a 3a 8a 58 89 3d eb dc 9e 3d
       -0.051763933 0.0007111841 0.067063406 0.077569805
000010 f0 24 62 3d 66 0b 33 bd 01 dc 64 3b 3e 2e df bd
       0.055211008 -0.043712042 0.0034921172 -0.10897492
000020 f2 40 83 3d f9 1d 94 bd 27 c2 92 3b 95 c9 4d 3c
       0.06408872 -0.07232279 0.004478711 0.012560268
000030 17 36 87 3d 1a 29 e8 bb b2 97 82 bd 80 ba 98 bd
       0.06602114 -0.007084978 -0.0637659 -0.07457447
000040 d5 00 73 3c 2b 14 75 bd 89 3f d2 3d 27 17 eb 3c
       0.014831741 -0.059833687 0.102660246 0.028697563
000050 7c d9 43 bd 94 ac 02 3e 27 ca 09 be ad 2a 0c 3e
       -0.04781483 0.12761146 -0.13456021 0.13688155
000060 f0 f6 e3 3d 41 ff 60 bd c0 db bb 3d 1e fa 0b 3b
       0.11131084 -0.05493093 0.09172773 0.0021358798
000070 a9 0d fe bc b5 85 83 3c 43 8f a0 3d 9a 6a 8e 3d
       -0.031012373 0.016054967 0.07839825 0.069539264
000080 76 c4 80 3d 2d 0e 48 bc d0 fd a2 bb cd 5c 4d bd
       0.06287472 -0.012210411 -0.0049741045 -0.05013733
000090 6f e5 92 3d fc 13 0b be 4a bf 79 3b de 10 ee 3d
       0.07172667 -0.13581842 0.0038108402 0.11624311
0000a0 99 56 24 bd 45 ab 17 bd 9f 2a 77 3d da 84 d5 3c
       -0.04012165 -0.03702857 0.06034338 0.026064325
0000b0 66 4e 15 bd 98 94 ef 3d 35 b3 fe bc 7d b5 12 3d
       -0.03645172 0.11698264 -0.031091312 0.035817612
0000c0 3d 23 60 bc 6b 9e 67 3d 65 93 73 3c 8d 7e 14 3d
       -0.013680276 0.056547564 0.014866685 0.0362535
0000d0 bb 22 b2 3b 5e 71 8c bd 8f 3e 4c 3d 13 e7 9d bd
       0.005436269 -0.068575606 0.049864348 -0.077100895
0000e0 8c 68 ef bc ed b6 e7 3d 13 56 2e bd 96 ee cf 3d
       -0.029224657 0.11314187 -0.042562556 0.101529285
0000f0 c2 05 db bb 65 37 6c bc 54 40 da 3d a5 5c b8 bd
       -0.006684036 -0.014417504 0.10656801 -0.090020455
000100 5b df e3 bd 8e e7 b5 3d 4d f6 c9 3d b1 e4 39 3d
       -0.11126586 0.08882056 0.09861431 0.045384113
000110 20 e7 98 3d a6 6d 9b 3d c8 81 a0 bd bf 88 73 3d
       0.074659586 0.07589273 -0.07837254 0.059456583
000120 5b 31 b3 bb 63 0f 70 bd 81 7d 89 3c b3 3b 76 bd
       -0.00546853 -0.058608424 0.016783478 -0.060115527
000130 f2 83 b9 3d 60 31 c3 3d de 09 b0 3a 35 07 a8 bc
       0.0905837 0.09530902 0.0013430675 -0.02051125
000140 2b 55 a3 3d 0f 44 ed 3c 2b b1 06 bd 0b fc 80 bd
       0.07975229 0.028963117 -0.032883804 -0.062980734
000150 a7 7f 66 bb 29 59 5a 3d c8 69 49 3d 1c 51 d2 3d
       -0.0035171302 0.053307686 0.049173146 0.10269377
000160 26 91 0e 3d 1d 4d 42 3d ef 6c c8 bd d1 43 01 bd
       0.034806393 0.047436822 -0.097864024 -0.031558815
000170 7c 4e a8 bd 69 bf 8e 3d 87 19 8a bd 9f 5e a1 bd
       -0.08218095 0.06970102 -0.0674315 -0.07879376
000180 ac c7 c5 bd f9 af a9 3d 93 0b 3b bc 72 8a 74 bd
       -0.09657225 0.08285517 -0.011416334 -0.059702344
000190 91 55 cd bb 69 03 ab 3c ae c2 99 bd b3 33 08 3e
       -0.006266304 0.02087565 -0.07507835 0.13300972
0001a0 9d d7 8f 3b 9c f2 fa bd 07 a2 19 3d af ad ac bd
       0.004389717 -0.12253305 0.037508037 -0.08431565
0001b0 39 af e4 3c fd cf 00 3e e0 d1 55 bc 1b 6c ce 3d
       0.027915584 0.12579341 -0.013050526 0.10079213
0001c0 bf 30 63 3c bf 3d 58 bc f1 1d b6 3c 42 b1 85 3c
       0.013866602 -0.013198315 0.022231074 0.016319875
0001d0 11 fc 8c 3d ae 9b 8e 3d d3 f5 b5 bd c6 79 30 3d
       0.06884015 0.06963287 -0.08884778 0.043084882
0001e0 29 c9 c1 3d 1f ce a3 bb 32 26 92 3d b5 ca df bd
       0.094621964 -0.004998937 0.071361914 -0.10927335
0001f0 db 6b a8 bd c1 e6 f3 3b 95 b6 a6 3d dd f8 23 3c
       -0.08223697 0.0074432795 0.081402935 0.010008064
000200 47 8d e1 3d 1f d0 7f bd 6a 4a 08 3e 6f 4e 9d bd
       0.11013275 -0.06245434 0.13309637 -0.07680976
000210 9e a6 72 bc 51 c6 0b 3d e7 47 0b 3e 1c 40 ae 3c
       -0.014810232 0.034124676 0.13601647 0.021270804
000220 94 b2 d7 bd b0 1d df 3d 91 24 ec bb d0 45 95 3d
       -0.10532108 0.10894334 -0.0072065075 0.07288706
000230 7c 9e b1 3d 14 a5 5c bd 53 a2 c4 3c 2e 5b 01 bd
       0.086728066 -0.05386837 0.024003183 -0.031581096
000240 8e b4 0d bd ab 6f 74 3d 16 fa e7 3c 2d 05 05 be
       -0.03459602 0.059676807 0.028317492 -0.12990256
000250 06 30 d8 3d 56 d5 ff 3d d4 2b be bc 3f 90 a4 bd
       0.10556035 0.124918625 -0.023214258 -0.08035325
000260 da 7d 7b bd 0c 61 29 3d 3e ad cb 3d a8 68 00 3e
       -0.06139932 0.041352317 0.09945153 0.12539923
000270 20 48 b8 bc 69 45 86 3d f2 6f e6 bd a2 bf 40 3c
       -0.02249533 0.06556208 -0.112518206 0.011764439
000280 78 10 d4 bb ce cb 18 3d f3 b8 bf bc 02 5c 92 bd
       -0.00647169 0.03730374 -0.02340362 -0.07146455
000290 a7 15 db bb 94 03 64 3d 30 0c 3f bd dd 6e a1 bd
       -0.006685931 0.055667475 -0.046642482 -0.078824736
0002a0 20 3e 93 bd d9 f7 7a 3c d0 76 0c bd 95 7d 11 3e
       -0.07189584 0.015317881 -0.034292996 0.14208062
0002b0 04 7f 55 3d 05 c4 e1 3d 50 ea 02 3e c7 cf 81 bc
       0.052123085 0.11023716 0.12784696 -0.015846146
0002c0 68 14 86 3c 10 18 ac 3c c9 17 7a bc 90 38 f3 bc
       0.016367152 0.021007568 -0.01526446 -0.029690057
0002d0 80 8b 92 3c 38 59 7d 3d b3 77 74 bc f1 0b 17 3d
       0.017888784 0.061852664 -0.014921117 0.036876623
0002e0 93 1e d5 bd a9 8c f8 3d 1b 2d e8 bd bf 13 b4 3c
       -0.10406222 0.12136204 -0.11336728 0.021982072
0002f0 cf 52 b7 bd d6 a6 0b 3e 7c e2 af 3d 78 b1 18 3d
       -0.08951341 0.13637862 0.0858812 0.037278622
000300 69 a2 e7 bd 9f 78 c5 bd 45 3e fd bc a1 c7 f1 bd
       -0.11310274 -0.09642147 -0.030913481 -0.11805654
000310 bf 2f 65 bc 41 48 0c 3e c2 d4 9e bc dc c1 9a bc
       -0.013988434 0.13699438 -0.01938856 -0.018891267
000320 44 69 ab 3c d1 3d ae bd 81 61 d8 3d c8 f7 d9 3d
       0.020924218 -0.08507884 0.105654724 0.10642964
000330 fc 4c 96 3d ed aa 9f bd 59 6b cc 3d 78 ca 02 3d
       0.07338902 -0.077962734 0.099814124 0.03193137
000340 d9 12 66 3c 10 e2 b7 bc f3 f0 9d 3c ff 51 2d bd
       0.01404258 -0.022446662 0.019279933 -0.042314526
000350 0d 1c a1 bc 0a ae b0 bc 95 63 39 3d 32 77 0c 3e
       -0.019666696 -0.021567363 0.045260984 0.13717344
000360 86 12 ca 3d 6f 87 cb 3d eb ed dd 3c 5a d2 bc 3d
       0.09866814 0.09937941 0.027090987 0.09219809
000370 9a aa db bd a8 c3 96 bc b0 cc e9 3d c9 f5 94 3d
       -0.10725899 -0.018403843 0.11415994 0.07273442
000380 bd 49 f1 bd 9f 4a 02 be 7a 00 00 3e 68 cf ac 3d
       -0.117816426 -0.12723778 0.12500182 0.08437997
000390 2f fb 98 3d 2b 4f 89 bd a1 ba b7 bc 2f 2f db 3d
       0.074697845 -0.06704553 -0.022427859 0.10702359
0003a0 2c 30 3b 3c 5d e5 0a 3d d5 ba fd 3d e9 9f 63 bd
       0.011425059 0.033910144 0.12389151 -0.055572424
0003b0 8e e6 bf 3c aa 1f 6a 3c c7 ab f3 3b 0e fb f3 3c
       0.023425367 0.014289776 0.007436249 0.029782798
0003c0 ec c6 8f bd 79 1a dd 3d cc 7e 81 3d b8 77 64 bd
       -0.07020363 0.10796065 0.06323013 -0.055778235
0003d0 23 cf 64 3c eb f8 c8 3d ee 01 02 be 71 c6 2a 3d
       0.013965401 0.09813102 -0.12696049 0.041693155
0003e0 1a 01 88 3c c6 71 fd 3d 81 eb cc 3d 3e 19 9e 3d
       0.016602088 0.12375216 0.10005856 0.07719658
0003f0 8b 0d 02 3e 05 8b 58 bc be 1f aa bc d1 5c b0 3d
       0.12700479 -0.013216739 -0.020767089 0.08611453

lstm.weight_ih_l1 f4 [256, 64]
000000 7c 08 be bd 93 53 7e 3d 8e 63 8c 3d 33 ad e5 bd
       -0.09278962 0.06209142 0.06854926 -0.11214676
000010 9b df 7b 3c b0 5f 89 3a 52 c1 93 bd f1 ce ba 3d
       0.015373136 0.0010480788 -0.07214607 0.09121502
000020 dd c3 9b 3d 83 4c 00 3e f7 1b d6 3d 5a 85 fc 3c
       0.07605717 0.12529187 0.104545526 0.030825306
000030 e2 d1 8e 3d 71 99 b2 bd b6 ab aa 3d 90 3b 0b 3e
       0.06973626 -0.08720673 0.083335325 0.1359694
000040 b5 10 32 bc 82 86 8a bd 96 56 db bd 5b e2 49 bd
       -0.010868241 -0.067639366 -0.10709874 -0.049288135
000050 f3 0a af 3d d5 7c 94 bb 59 f8 27 bc 9e 8c cc bd
       0.0854701 -0.0045314827 -0.010252082 -0.09987758
000060 e8 26 7b bc 68 c3 16 bc 16 94 66 bd 2c 0b e5 bd
       -0.0153291 -0.009201862 -0.05629357 -0.111837715
000070 48 05 65 bd d2 cc b5 bd 16 d9 ad 3d 04 ba 11 3d
       -0.05591324 -0.08876957 0.084886715 0.03557779
000080 8c de 01 be f2 89 7e bd 47 e3 99 3d 31 71 d8 3d
       -0.12682551 -0.062143274 0.07514053 0.105684645
000090 b6 87 b3 3d 9e 50 c1 bd 10 08 14 bd cc ae 8d 3d
       0.08766119 -0.09439205 -0.0361405 0.069181055
0000a0 79 fa 66 bd 97 67 cc 3d 38 70 8c 3d e6 b8 05 be
       -0.056391213 0.09980696 0.068573415 -0.13058814
0000b0 d8 dd 5c 3d 02 14 56 bd ce a2 15 bd ec 7a b9 bc
       0.053922504 -0.052265175 -0.036532216 -0.022641622
0000c0 ed e7 89 bd 93 f5 97 bd 09 e5 5c 3d 81 78 5b bc
       -0.067336895 -0.074198864 0.053929362 -0.01339543
0000d0 bc ab c3 3a 94 30 29 3d 45 c7 98 bc c3 d6 93 bd
       0.00149285 0.041306093 -0.018649707 -0.07218697
0000e0 18 c2 c3 3d 43 f1 24 3c b7 ab c4 3d 5d 93 17 bd
       0.09558505 0.010067287 0.096030645 -0.03700577
0000f0 a9 d7 a8 3d d1 30 cb 3d 57 dc 04 be bd ac 0c be
       0.08244259 0.0992142 -0.12974678 -0.1373777
000100 22 69 04 bd 75 08 a4 bd f0 cc c7 ba b4 82 8b bd
       -0.032326825 -0.080094256 -0.0015243571 -0.06812039
000110 49 6c 1d 3d 18 94 90 bd d2 b1 d6 bd 96 ca 10 3b
       0.038433347 -0.07059497 -0.10483135 0.0022093407
000120 cc 29 aa bd f7 a9 4b bd ce c0 d4 3d 3b 6a b3 3b
       -0.08308753 -0.049722638 0.10388337 0.00547531
000130 7f f1 db 3a fd ed e1 bb 05 2d 04 3e 9e d4 1d 3d
       0.0016780345 -0.0068948255 0.12907799 0.038532846
000140 b5 6c d4 3d ef 80 c6 bb 96 31 f5 bc e6 51 ce bd
       0.10372297 -0.0060578506 -0.029930871 -0.10074215
000150 8f b1 d8 3d 8e 89 76 bd c8 9d 8f 3c 3d 06 d7 bd
       0.105807416 -0.060189776 0.01753129 -0.10499237
000160 c0 ed cd 3c fd 5f fc 3a 23 46 d5 bd e1 33 46 3c
       0.025137782 0.0019254681 -0.10413768 0.01209733
000170 4e 6b a5 3d 8a eb 03 bd 10 fc c9 3d c6 d9 00 3e
       0.08077107 -0.03220705 0.0986253 0.12583074
000180 dc 1f ae 3d 66 c8 9b bc 8c f1 d1 3d cc d5 d4 bd
       0.085021704 -0.019016456 0.102511495 -0.10392341
000190 f2 59 78 3d 8f ce 80 3a c9 d3 b5 3c cd e7 50 3d
       0.060632654 0.0009827184 0.022195714 0.051002312
0001a0 4b 2a e9 bd 4d b9 31 3d af cb d6 3d 02 73 a6 3d
       -0.1138502 0.043389607 0.10488068 0.08127405
0001b0 2d 4f ec 3d 23 ea 39 3c 3b 8b 07 bb 99 5d bb 3a
       0.11538539 0.011347326 -0.0020682353 0.0014294862
0001c0 e2 6c f6 bc 5b f2 92 3d de 50 79 3c 0e 9c b5 3c
       -0.030081216 0.07175132 0.015217034 0.02216914
0001d0 75 8e 99 3d 97 39 d6 3d b7 9e 7d bc 05 84 cc bd
       0.07497875 0.10460203 -0.015479735 -0.09986118
0001e0 0f 69 8b 3d 7a 2e 6c bb 68 e9 cf 3c b1 84 c1 bc
       0.06807148 -0.0036038444 0.025379851 -0.023622843
0001f0 f1 7a f8 3d 35 fd 4d bd 6a 08 b7 3b 72 34 80 bc
       0.12132824 -0.050290305 0.00558572 -0.015650008
000200 ea 12 3b 3d 0b 77 da bd 5e e8 c0 3d da 3d 1d bd
       0.045672335 -0.10667237 0.094193205 -0.038389064
000210 73 af 25 3c 7b 1f 0f 3e c9 19 6f 3b 4d d8 9a bd
       0.010112631 0.13976853 0.0036483875 -0.07560787
000220 b3 34 76 bd 83 07 87 bd 1c 99 2f 3d 30 c5 97 bd
       -0.06010885 -0.065932296 0.042870626 -0.074106574
000230 33 a7 66 bd 26 61 9b bd 93 69 88 3d 65 3f dc bd
       -0.056311797 -0.07586889 0.06660762 -0.10754279
000240 2b 95 dc bd 61 66 e5 3d a7 6d 00 3e 8a 8d ac bd
       -0.10770639 0.11201168 0.12541829 -0.08425434
000250 71 26 e9 bd cd 0a ba bd 5d d2 6e 3d 17 15 8c bd
       -0.11384285 -0.09084091 0.058306087 -0.0683996
000260 c2 78 7e 3d 01 5c 84 bc c6 76 0d 3e b3 b1 31 3d
       0.062126882 -0.016157152 0.1381484 0.043382358
000270 52 2f aa 3d 1e fa 2a 3d 8d c0 c9 3c 14 d9 ba bd
       0.08309807 0.041742437 0.024627948 -0.091234356
000280 79 66 3f 3d 59 ad ae 3d 94 60 87 bb bb 28 06 be
       0.046728585 0.08529157 -0.004131386 -0.13101475
000290 82 0d cb bd 92 c3 47 bd 68 e1 60 bd e2 4d b3 3d
       -0.09914686 -0.048770495 -0.054902464 0.08755089
0002a0 ca a0 a5 3d 3b 8f c0 3c c2 5a bd 3c b3 a6 d5 bd
       0.08087309 0.023505798 0.023114566 -0.10432186
0002b0 f5 94 07 bc 29 93 ca 3d ab 19 5a 3c 2e 3b d7 3c
       -0.00827526 0.0989135 0.013311784 0.026273336
0002c0 9b da d3 bc a4 5c 2d 3c 94 47 2e bd 0c 36 97 bd
       -0.025861075 0.010581169 -0.04254873 -0.073833555
0002d0 6a a5 80 bd 52 7e 54 bd 97 84 fc 3d 35 67 49 bd
       -0.0628155 -0.05187828 0.12329977 -0.04917069
0002e0 8d 73 40 bc b6 3e ac bd 13 f9 de bd 9e 1c a5 3d
       -0.011746299 -0.08410399 -0.10887351 0.08062099
0002f0 2a db 6f bd d9 71 9e bd 16 4d 2e 3d 4b cb 0b 3e
       -0.05855862 -0.077365585 0.042553984 0.13651769
000300 7c d2 6a 3d d8 c8 69 bd 87 39 01 3e 8b 69 03 3d
       0.05732964 -0.057076305 0.12619601 0.032083075
000310 79 9e ca 3d 47 f6 32 bd 81 04 53 3d 31 2b b0 3d
       0.098935075 -0.0436919 0.051517967 0.08601988
000320 3c 86 c4 3d 58 0a de 3d 25 5d 41 3b a1 d8 88 bc
       0.09595916 0.10841817 0.0029504981 -0.01670486
000330 5c 63 ac 3d 10 cd 77 3c 85 19 0d 3c 8c 5f 3a bd
       0.08417389 0.015124574 0.008612041 -0.045501277
000340 8b 4d a9 bb 90 52 37 bb 65 68 5a 3c b5 73 22 bd
       -0.0051667145 -0.0027972795 0.013330554 -0.039661128
000350 56 bb 0d 3d 81 77 22 bd 9c 2c be 3d 74 f0 51 3d
       0.034602486 -0.03966475 0.09285852 0.051254705
000360 16 d7 9c 3d a7 9e bc bb 51 b5 c2 3c 01 af f1 3d
       0.07658212 -0.0057562175 0.023768099 0.118009575
000370 d9 80 92 bd ea 9d 82 3c 22 f3 c7 bd 7d c9 d4 bc
       -0.07153482 0.01594444 -0.09763171 -0.025974983
000380 7f 12 ab bb eb 3a 46 3c aa 75 b2 3d b9 85 27 bc
       -0.0052207108 0.012099008 0.08713849 -0.010224753
000390 67 1b 5c bd c4 6f bd bd 65 13 45 bd 04 67 a2 3c
       -0.05373707 -0.09249833 -0.0481142 0.019824512
0003a0 f1 0a 9e 3d 62 d9 d1 bd b3 06 1b 3d d8 c4 dc 3d
       0.07716931 -0.102465406 0.037848186 0.107797325
0003b0 34 df 5c 3d 10 97 c1 3d a4 44 97 bd 36 c4 82 3d
       0.0539238 0.09452641 -0.07386139 0.063850805
0003c0 4f 02 82 bc d3 65 5d bc ac a6 c4 3d ca e0 32 bd
       -0.015870241 -0.013513046 0.09602103 -0.043671407
0003d0 5e 97 f9 bc e9 e8 ac bc 62 e2 82 3d ab aa 74 bd
       -0.030467685 -0.021107154 0.06390835 -0.059733074
0003e0 62 d1 ba bd 0c 56 ab 3d a0 0e db bd 72 a1 22 bd
       -0.09121968 0.083660215 -0.10696149 -0.039704747
0003f0 36 77 b4 3d 77 fc 06 3b c1 72 b1 bb 05 42 d5 bd
       0.088118 0.0020597258 -0.005415291 -0.10412983

lstm.weight_hh_l1 f4 [256, 64]
000000 47 bb 8b 3d 8e 9d 1b bd 67 2b fd 3d f7 b9 0a be
       0.0682283 -0.037992053 0.12361794 -0.13547502
000010 db e4 fc 3a 6b bc d8 3c ec d7 20 bd cc 7a 64 3d
       0.0019294278 0.026457032 -0.03926842 0.05578117
000020 32 76 ba bd 03 ee af 3c 86 84 ee bd c4 11 02 3d
       -0.09104575 0.021475798 -0.116463706 0.031755224
000030 65 da d4 bd 13 d1 29 3d 6b 1d dd bc 10 2a 38 3d
       -0.10393218 0.041459154 -0.026991567 0.04496199
000040 b8 b6 8c 3d 50 6c fd bc 1b f6 84 bd 0c 14 a3 3d
       0.06870788 -0.030935436 -0.064922534 0.07962808
000050 49 72 d6 3d 63 16 40 3c 2b 37 0d bd ac 7c 09 3e
       0.10471017 0.011724087 -0.03447644 0.13426465
000060 35 fe 05 3c c9 06 e3 3d 7f c4 a6 bd 74 0b f0 3d
       0.008178283 0.110852785 -0.081429474 0.117209345
000070 96 69 c5 bd 30 ed 00 bd 3d b1 fa bd 5f 42 1b bd
       -0.096392795 -0.0314762 -0.12240837 -0.037905093
000080 b1 a8 82 3c 67 86 b4 3d b7 a2 d7 bd 3b e0 6f 3d
       0.015949579 0.08814698 -0.10529082 0.058563452
000090 2f a5 36 bc a9 e4 89 3d e9 d9 0a 3d c4 6c 27 bd
       -0.011147781 0.067330666 0.03389922 -0.04087521
0000a0 59 5d c4 bd 25 63 6e bd c8 a7 9a bd a0 58 74 3d
       -0.09588117 -0.05820002 -0.07551533 0.059654832
0000b0 2c 61 24 3d d4 fe 7b 3d 43 15 ea 3c 8c 77 f1 3d
       0.040131733 0.06152232 0.028574592 0.1179038
0000c0 71 f1 c3 ba c6 34 86 bd b7 b2 b9 bd f5 be 79 bc
       -0.0014949274 -0.065530345 -0.0906729 -0.015243282
0000d0 76 cd af bd 49 df fc bd 0f 05 a8 bc 09 32 b6 bd
       -0.085841104 -0.12347276 -0.020510225 -0.08896262
0000e0 1b 9c 29 bd 04 b4 c4 3d 12 0d 90 3d e4 3f 93 3d
       -0.04140864 0.09604648 0.07033743 0.071899205
0000f0 4f d8 c1 3d 2d 04 ac 3d d9 2a 05 be 57 0a bb bd
       0.09465086 0.08399234 -0.13004626 -0.091328315
000100 e6 c2 43 3d 68 fa 15 bd 39 0a 5b bd bc 6f af bd
       0.04779329 -0.03661576 -0.053476546 -0.085662335
000110 8a 14 cb bd e5 16 1f bd 71 c5 ae 3d c5 2d a0 bd
       -0.09916027 -0.038840193 0.08533753 -0.0782123
000120 31 b9 f0 bd ce 2b c7 3d ab f2 c4 bd b2 8b 66 bd
       -0.117540725 0.09725152 -0.09616598 -0.056285568
000130 e9 e4 74 bd 20 ed c6 3d 24 af 64 3d f0 90 df 3c
       -0.05978862 0.09713197 0.05583109 0.027290791
000140 f8 d6 c7 3d cf 43 94 bc 0f f5 23 3d 9c 29 a1 bd
       0.09757799 -0.01809874 0.040028628 -0.078692645
000150 a6 6c a2 bd c2 71 b3 bd f6 a6 fb 3d 5f 63 bf bd
       -0.07930879 -0.08761932 0.12287705 -0.093451254
000160 54 cf 49 3d ce b0 bb 3d 61 1a 92 3d 24 b8 28 3d
       0.04926999 0.09164582 0.071339376 0.041191235
000170 af 7c 0d 3d a4 46 aa 3c 93 b4 30 bd 4e d4 65 bd
       0.034542736 0.020785637 -0.04314096 -0.056110673
000180 24 61 0c bd 02 64 34 bd 2c 64 97 3c d3 22 93 bd
       -0.034272328 -0.044040687 0.018480383 -0.071843766
000190 a2 53 76 3d d1 77 ec bc 42 73 62 3d f1 77 89 bd
       0.060138352 -0.028865727 0.0552857 -0.0671233
0001a0 62 d0 03 be 91 31 8b bb 51 59 a0 3d 42 d8 85 bd
       -0.1287246 -0.004247852 0.07829536 -0.065353885
0001b0 8d e0 03 3d 06 f7 8d bc ca 18 b3 bd c3 ed ae bc
       0.03219657 -0.017329704 -0.087449625 -0.021353608
0001c0 92 b3 10 bc 72 d9 7d 3d fd f0 70 3d c2 d1 bb bd
       -0.008831875 0.06197495 0.058823574 -0.091708675
0001d0 78 90 c8 bd c3 c1 82 3d 4b 0e 07 3e e3 e1 2c 3d
       -0.0979318 0.06384613 0.13189046 0.04220761
0001e0 f9 4c e7 bd 9a d0 c9 3d 43 60 3b 3d 66 ce 04 bd
       -0.11293978 0.09854241 0.0457461 -0.0324234
0001f0 a3 c7 7d 3d 35 48 a6 bd 30 8e 52 bd a6 aa 6b 3d
       0.061957967 -0.08119241 -0.05140513 0.05753579
000200 c7 6e 12 bd 01 5e d0 3d cf 37 fb bd c4 55 dd 3d
       -0.035750177 0.1017418 -0.12266504 0.10807374
000210 c6 1e bd bd 9d 33 0a bd 14 ee 90 bc d1 03 13 bd
       -0.09234385 -0.03374063 -0.01769165 -0.03589231
000220 05 9c 16 3e 53 1b c1 3d 4b de e3 3d 47 0a a7 bd
       0.14707954 0.0942904 0.111263834 -0.08156257
000230 de 5a 1b bc 97 39 43 3d d4 1a 04 be 61 f8 f9 bc
       -0.009482114 0.047662344 -0.12900859 -0.030513944
000240 87 31 1a bd 60 d9 ae 3b ea b1 50 bd b2 94 de 3d
       -0.03764489 0.0053359717 -0.050950922 0.10868205
000250 10 87 63 bd 86 7c 59 bd 24 52 82 3d 03 85 d8 3d
       -0.055548728 -0.05309727 0.06363323 0.10572245
000260 f6 59 f1 3d 02 a4 9b 3d 0b e6 5c bd 68 8e 52 3d
       0.11784737 0.075996414 -0.053930324 0.05140534
000270 5c 4e f6 bd 17 3c f4 3d c0 40 17 3d de 68 e9 bc
       -0.120266646 0.11925524 0.036926985 -0.028492387
000280 39 4a 91 3d e4 8d cc 3d 00 d3 29 3d 9b 6d e9 3c
       0.07094235 0.09988001 0.04146099 0.028494647
000290 cc 83 ad 3c 35 8f 85 bd f9 29 0b bc d7 5f 74 bc
       0.02118101 -0.06521455 -0.008493894 -0.014915428
0002a0 9c 97 f7 bd 28 46 d5 bd e4 d5 e6 bd 76 e3 77 3d
       -0.12089464 -0.10413772 -0.11271265 0.060519658
0002b0 f4 95 f8 3d c7 9a 74 3b 07 bd 25 3d 15 0c e7 3c
       0.12137976 0.00373237 0.040463474 0.028204003
0002c0 e4 e8 00 3e fa 2d 40 3d b5 6d e0 3d 56 cb 38 bd
       0.1258884 0.046918847 0.10958425 -0.04511579
0002d0 cb 76 a3 bc 34 8c b3 bd 38 f9 c8 bd dd a3 84 bd
       -0.019954106 -0.08766976 -0.0981316 -0.06476567
0002e0 43 38 d3 3d e6 83 98 3d 78 a5 97 3d 25 90 b4 ba
       0.103134654 0.07447033 0.074046075 -0.0013775869
0002f0 97 8e 90 bd 37 90 d7 3d f2 46 88 3b 14 53 07 3e
       -0.07058447 0.10525554 0.004158848 0.13215286
000300 ee de bb 3b 01 30 88 3d bc 0f 39 3c aa f9 a1 bc
       0.0057333624 0.06649781 0.011295255 -0.01977237
000310 0a 7e b8 bd 68 88 05 be 70 09 be 3d 64 eb a5 3d
       -0.09008415 -0.13040316 0.09279144 0.08101538
000320 bd 2b 64 3d 54 fe 03 3d cf 44 94 bd 77 ef a2 3c
       0.055705775 0.032224968 -0.07239687 0.019889576
000330 c0 8d 6d bd 6a 51 1d bd 08 33 63 bc 78 e9 c4 3d
       -0.05799651 -0.03840772 -0.013867147 0.09614843
000340 1f 79 66 3d 50 de da 3d 88 7c 88 3d d5 c0 9f bd
       0.056267854 0.10686934 0.066643775 -0.07800452
000350 d6 5e 71 bd e5 4e 45 3d 29 a2 cf bd be f6 f7 bd
       -0.058928333 0.048170943 -0.101383515 -0.12107609
000360 e6 b3 8e 3d 66 8e af 3d bd 63 13 3c 58 b4 94 3c
       0.06967907 0.08572082 0.008995947 0.0181524
000370 21 32 95 3c 2f c6 87 bd 2d 2b e3 bd 0f 8e b4 3d
       0.01821238 -0.066295974 -0.110922195 0.08816158
000380 21 93 a7 3d 60 94 81 bd 6d ed 70 bd 56 95 42 bd
       0.081823595 -0.063271284 -0.058820177 -0.0475057
000390 29 ac bd bd a3 af 4c bd d5 1a c3 3c 07 9d 50 bd
       -0.092613526 -0.049972188 0.023816505 -0.050931003
0003a0 a8 e9 da bd ee 41 71 3d 88 72 df 3d 29 f8 bd 3d
       -0.10689098 0.058900766 0.10910517 0.092758484
0003b0 11 83 0a 3e 1d 48 33 3c 41 fd a9 bd 84 6d af 3d
       0.1352656 0.010942486 -0.083002575 0.0856581
0003c0 2f 77 08 3e 6a 77 5a 3c 4f 7d c6 3c 90 b7 e4 3d
       0.13326715 0.013334135 0.024229674 0.11167824
0003d0 47 1b d3 3d 1e 11 cb bd f9 eb 25 3d 74 fb ff bc
       0.10307937 -0.09915374 0.040508244 -0.031247832
0003e0 72 72 4c bc d2 63 35 3d a6 c9 61 3d 64 f1 41 3d
       -0.012478458 0.04428465 0.055123948 0.04734935
0003f0 58 2f c5 bd c9 81 9b bd b7 21 d4 bd a2 2c 5d 3c
       -0.09628171 -0.07593114 -0.10357993 0.013499411

lstm.bias_ih_l1 f4 [256]
000000 4c 1d a3 bd 36 24 86 3c a0 6e 0e 3e 0d b6 0e bd
       -0.07964572 0.016374689 0.13909388 -0.034841586
000010 7c 44 cd 3d cc e2 1d 3b 19 06 13 3d b5 db 9e 3d
       0.10022828 0.002409148 0.035894487 0.077567495
000020 08 3c 35 bd 91 cb 47 3d 8b ac a0 bc ad ee 92 3c
       -0.044246703 0.04877812 -0.019613525 0.017936075
000030 7b b8 21 bd 84 0f d6 bc 15 15 af 3d 4d 96 fb 3d
       -0.039482575 -0.026130445 0.08548943 0.12284527
000040 10 4d a7 3d 45 f2 42 bd 4d eb a0 3d 83 e1 b3 3d
       0.081689954 -0.047594327 0.0785738 0.08783247
000050 cf d0 d9 bc bc 5c df bd 97 a0 0f 3d 38 0e 6e 3d
       -0.026588826 -0.109063596 0.03506526 0.05811903
000060 61 56 74 bd d0 65 4f 39 3f ef 6e 3c 5f 20 af 3d
       -0.05965269 0.00019778986 0.014583408 0.08551096
000070 13 06 8c 3d 24 23 df bc 60 bb 96 3d 8d ba 05 3e
       0.06837096 -0.027238436 0.07359958 0.13059445
000080 2b 01 07 bd 6b 6b 0f 3e 7d 4d 30 bd 5e 79 90 3d
       -0.0329601 0.1400582 -0.04304265 0.07054399
000090 f8 5a 05 bd 2a 02 d8 bc 02 11 ea 3c 99 68 9c 3d
       -0.032557458 -0.02636822 0.028572563 0.07637138
0000a0 d9 75 ad 3d 71 cf 9b 3d d3 de ed 3b 90 eb 0f bd
       0.08469743 0.07607926 0.0072592287 -0.03513676
0000b0 cf 92 60 bd 06 cd aa bd 69 41 fe 3d f8 fc 76 3d
       -0.054827508 -0.08339886 0.1241482 0.060299844
0000c0 06 a4 3c 3d a7 eb d1 3c 59 a2 b2 3d 5e f1 78 3d
       0.046054862 0.025625063 0.087223716 0.06077706
0000d0 bf 70 ee 3d ee 25 d3 bc c0 92 9f bb 80 c1 5e bd
       0.11642598 -0.025774922 -0.004869789 -0.054383755
0000e0 3a 82 17 3c cc 70 d8 3d 05 75 61 bd 3c 21 c2 bd
       0.009247357 0.10568389 -0.05504324 -0.09478995
0000f0 99 6b ba bd ad 59 00 3d dd d3 be bd fe ae 7a bd
       -0.09102554 0.03133552 -0.093177535 -0.06120204
000100 e8 33 5b bd 44 af 44 bd 28 41 ba 3c 38 e8 05 3e
       -0.0535163 -0.04801871 0.022736147 0.13076866
000110 c5 0c 87 bd b8 28 7e b9 a7 1f 55 bd 69 fc ca 3d
       -0.065942325 -0.00024238497 -0.05203214 0.09911425
000120 df 2e 77 bd ec 94 41 3d 05 2c 06 3e 6e 20 e4 bd
       -0.060347434 0.047261164 0.1310273 -0.11138998
000130 8d 49 b2 3d 96 b0 9e 3d 8e 7a c6 bd bc ab 70 bc
       0.08705435 0.07748525 -0.09691344 -0.014689382
000140 b4 c6 8e bd d7 ba 1a bc af e3 65 bd 7f 76 80 bd
       -0.06971493 -0.00944396 -0.05612534 -0.06272601
000150 3b bd 0c 3d 75 85 e0 bc 98 ee b7 3d 6c 3a 3d 3d
       0.03436015 -0.027407387 0.08981055 0.046198294
000160 c4 0a 0d 3e 2e 31 93 3d 3b 9b bf bd 58 2a 6a bd
       0.13773638 0.07187115 -0.0935578 -0.05716929
000170 f5 8c 31 bd 1f 1d 0b 3e 6e d5 2b 3c 0b 9c d4 3d
       -0.043347318 0.13585328 0.010487897 0.10381325
000180 d0 d2 f4 3c 5a e6 89 3d ea af a6 bd c3 a5 a8 bd
       0.02988568 0.06733389 -0.08139022 -0.082347415
000190 5b 61 b7 3d 52 97 b6 3c 2a 72 37 3d 23 22 41 bd
       0.08954116 0.022288952 0.04478661 -0.047151696
0001a0 29 82 ff 3d 8c 81 0e bd a4 75 7e bd fb 95 ac 3d
       0.12475998 -0.034791514 -0.06212391 0.08427044
0001b0 81 8a b4 bd 02 5a d4 bc 4e 4a 82 bd 9d 35 bc 3d
       -0.0881548 -0.025921825 -0.06361829 0.091899134
0001c0 83 b5 da bd 4c 3b 3f bd df 72 35 3d 1e 53 0a bd
       -0.10679152 -0.04668741 0.044299003 -0.033770673
0001d0 ac fa 08 3c 2e c0 cf 3c 9d 87 96 ba 93 1b 3d 3d
       0.008360546 0.025360193 -0.0011484508 0.046168875
0001e0 e8 8d 6d 3c fc 1c 08 bc 0a d0 d3 3d 0e 3a 85 3d
       0.014499165 -0.008307692 0.10342415 0.06505214
0001f0 ef de 9a bc 88 66 c1 3d 41 a3 7d bd d6 87 e4 3d
       -0.018905131 0.094433844 -0.06192327 0.11158721
000200 62 6a a2 3d f1 9d f0 3d 11 ce fa bb ff 48 a5 bd
       0.07930447 0.11748875 -0.0076539596 -0.080705635
000210 1a ae fa bd 86 d4 29 bc 3a 67 cc bd 85 2b 82 3c
       -0.122402385 -0.010365611 -0.099806264 0.015889892
000220 b9 29 3c bd 98 67 c3 3c 79 a1 0d 3d f4 57 14 bd
       -0.045938227 0.023853108 0.03457782 -0.03621669
000230 30 40 93 bc b1 9f 13 be 19 03 86 bd 02 43 96 3d
       -0.017974943 -0.14416386 -0.065435596 0.073369995
000240 1b d9 59 bd 4c d5 00 be ee 7e 30 3d c2 15 49 3d
       -0.053185564 -0.12581366 0.0430898 0.049093015
000250 ff 41 c3 3d 7d 8e d0 bd f1 3d ee 3d 7e 89 c5 3c
       0.09534072 -0.101834275 0.11632908 0.024113413
000260 1d 01 ea bc 6f a5 b2 3c da 83 0e bd e7 ae b7 3d
       -0.028564984 0.0218074 -0.034793712 0.08968907
000270 52 7a d2 3d e9 33 54 3c 86 2e 9c 3c bc 88 41 bd
       0.10277237 0.0129518295 0.019065153 -0.04724954
000280 92 26 bd 3d c4 fe b2 bd 63 da a0 bd 47 c2 8c bd
       0.09235872 -0.08739999 -0.07854154 -0.06872993
000290 0c 10 00 3e 96 4a 73 3d a9 e6 0f 3e d2 11 b4 3d
       0.12506121 0.059397303 0.14052834 0.087924615
0002a0 74 d6 c4 bd 1a 75 2a bd d8 b2 fd bd a1 45 d1 3d
       -0.09611216 -0.041615583 -0.12387627 0.10218359
0002b0 2a ff ec bb c4 20 12 3e 1e 7f 6f 3d 96 e8 e2 bd
       -0.0072325664 0.14270312 0.058470838 -0.110795185
0002c0 90 84 bb 3c a3 17 8c bd db 2d 83 bd 25 08 97 3d
       0.02289036 -0.06840446 -0.064052306 0.073746
0002d0 96 97 d7 3d 9f cc af 3d c3 5b 8e bd 21 7d 91 3d
       0.105269596 0.0858395 -0.06951096 0.071039446
0002e0 a7 f9 29 3c f6 b7 12 bd cc f9 57 bc 66 9f c0 bd
       0.010374463 -0.03581997 -0.013182115 -0.09405403
0002f0 64 1f e7 3c c8 d6 84 3d 3a 89 97 3d f3 cf 05 3e
       0.02821321 0.06486279 0.07399221 0.13067608
000300 8a e2 cb bd 43 f8 42 bd 53 af 97 bc 5a 25 06 bd
       -0.09955318 -0.047600042 -0.018516218 -0.032750465
000310 c2 8b 28 3d dc fb 73 bd a6 22 b0 bd 5e c9 26 3c
       0.04114891 -0.059566364 -0.08600359 0.010179846
000320 56 f6 87 3d 13 1a 9d bd e2 59 a7 3d 77 90 dc bd
       0.06638782 -0.07670989 0.08171441 -0.10769742
000330 08 b4 bc bd e1 66 8a bc d9 79 92 bd 07 ad ab 3c
       -0.09214026 -0.01689476 -0.07152147 0.02095653
000340 a5 b2 aa 3d 9d 11 b7 bc 11 62 04 3d d0 0f ab bd
       0.08334855 -0.022347266 0.032320086 -0.08352625
000350 f7 a1 dc 3d 77 a2 37 3c f8 e5 d7 bd 03 c1 b2 bd
       0.1077308 0.011208168 -0.1054191 -0.0872822
000360 8f 74 54 3d ec ce 7d bd 57 26 b7 3d 44 83 df bc
       0.05186897 -0.061964914 0.089428596 -0.027284272
000370 c5 c0 d5 3d 1e 9b 91 3d 8a 8f a5 3d fb fb 0e 3c
       0.104371585 0.071096644 0.080840185 0.008727069
000380 b9 c5 c5 3d 64 f0 02 3e 77 c8 ca bd 84 0e dd bd
       0.09656853 0.12787014 -0.09901517 -0.10793784
000390 ac cf 09 3e ad 71 21 3d 99 77 a5 bd ee ab 65 3c
       0.13458127 0.03941505 -0.08079452 0.014018042
0003a0 a2 e3 a9 bd 6e bc 8f 3d b8 cd 8a 3d cb 66 10 bd
       -0.08295371 0.07018362 0.06777519 -0.03525428
0003b0 90 c7 a2 3d 7c 4a ac 3c db 7b f9 3c 8c 00 42 bd
       0.0794822 0.02103161 0.030454567 -0.047363803
0003c0 43 6e 0f ba f3 9a 8d 3d 78 7a 8a ba 80 71 2b 3d
       -0.00054714474 0.0691432 -0.0010565063 0.04185629
0003d0 a9 f7 6d 3b 55 1b 85 bc f9 ac a5 3d bc 1d 36 bd
       0.0036310947 -0.016248384 0.080896325 -0.04446195
0003e0 81 c6 a0 3c 62 15 98 bc c8 b5 f9 3d f4 6f 3f 3d
       0.019625904 -0.018564884 0.12192875 0.046737626
0003f0 d1 81 65 3c c5 bf 89 3c ab 7a 5e bc b6 d7 9b 3d
       0.014008001 0.016815076 -0.013579051 0.07609503
