src/Backend-Information/Clod-weather_predict/Guizhou_lstm_model.pth (torch, 208379 bytes, 11 tensors)

lstm.weight_ih_l0 f4 [256, 3]
0	0x3df82734	0.121168524
1	0x3c875a94	0.016522683
2	0xbc761146	-0.015018767
3	0x3d680602	0.056646354
4	0x3e19980f	0.14999412
5	0x3d852cf0	0.06502712
6	0xbaabff56	-0.0013122361
7	0xbba38e08	-0.0049912967
8	0x3d3830d3	0.044968437
9	0x3ce8779f	0.028377352
10	0xbd1eb465	-0.038746256
11	0x3c87f114	0.016594447
12	0xbd87fa52	-0.06639542
13	0x3d720d80	0.059094906
14	0x3e2fa4e5	0.17152746
15	0x3cc2fefa	0.023803223
16	0x3be163b5	0.006878341
17	0x3d6ee461	0.058323268
18	0xbdb1a4de	-0.08674024
19	0x3a1c68dd	0.00059665536
20	0x3c914928	0.017735079
21	0xbdfb10fc	-0.12259099
22	0x3c9d06a7	0.019168211
23	0x3decf257	0.1156966
24	0x3dddc381	0.10828305
25	0xbd26f112	-0.040757246
26	0x3d8df822	0.06932093
27	0x3ddc37bf	0.1075282
28	0xbde83bbe	-0.1133952
29	0x3c306a9f	0.010767608
30	0xbdac1be0	-0.08403754
31	0xbd60f275	-0.054918725
32	0x3ce72cd7	0.028219623
33	0xbdf4aa01	-0.11946488
34	0x3b0e1815	0.0021681834
35	0x3e014e99	0.12627639
36	0x3d8d6579	0.0690412
37	0x3c863b1d	0.01638561
38	0x3be3af8c	0.006948417
39	0x3c40aa7a	0.011759395
40	0xbda8bea2	-0.08239485
41	0xbddb22d0	-0.10699999
42	0xbbcb243a	-0.006199387
43	0x3dd95bc9	0.1061321
44	0xbc434daf	-0.011920377
45	0xbd2123f8	-0.039340943
46	0x3d42043e	0.047367327
47	0x3dfcabb5	0.12337438
48	0xbd8eb31b	-0.069677554
49	0xbccfc6e2	-0.02536339
50	0xbd87c32a	-0.066290215
51	0xbb8f081d	-0.004364981
52	0x3dc6d7ed	0.09709153
53	0x3d9e1949	0.077196665
54	0xbde1eed8	-0.11031884
55	0x3e121ca4	0.14268738
56	0x3e06e3bb	0.1317281
57	0xbe10bb95	-0.14134057
58	0xbd91f5f6	-0.071269915
59	0x3c214cbd	0.009844956
60	0xbd8de6cd	-0.069287874
61	0x3daadae5	0.08342532
62	0xbc259f10	-0.010108724
63	0xbbb625ff	-0.0055587287
64	0x3d11d1ab	0.035600346
65	0x3dfe8ded	0.12429414
66	0x3dba0540	0.090830326
67	0xbdd95ff2	-0.10614003
68	0x3dcc20f1	0.099672206
69	0xbe03ede6	-0.1288372
70	0xbd6e6772	-0.058204122
71	0xbd9249ca	-0.071429804
72	0x3d7aa885	0.06119587
73	0x3d36f6eb	0.044669073
74	0xbdb0a21b	-0.08624669
75	0x391ee138	0.00015151955
76	0xbe033e0e	-0.1281664
77	0xbdec2153	-0.115297936
78	0x3d17e6af	0.03708523
79	0x3d072257	0.032991733
80	0x3e215746	0.15755948
81	0xbc43bc66	-0.011946773
82	0x3c934644	0.017977841
83	0x3da81f0f	0.08209049
84	0xbaf3bf06	-0.0018596358
85	0xbde0953d	-0.10965965
86	0xbd038399	-0.032107923
87	0x39806319	0.00024487896
88	0xbe092dd1	-0.13396384
89	0x39d70c34	0.00041017088
90	0xbd71324e	-0.058885865
91	0xbca3031d	-0.019898945
92	0x3da16a04	0.07881549
93	0xbca0a1ec	-0.01960846
94	0xbbc35d65	-0.005962061
95	0x3dcd6ac3	0.10030129
96	0xbde8028c	-0.11328611
97	0x3db36dc8	0.087611735
98	0xbd5abe81	-0.053404335
99	0xbdeed172	-0.11661042
100	0x3d04ab09	0.032389674
101	0x3dc91b13	0.09819617
102	0x3dc6e14f	0.09710943
103	0xba8d063f	-0.0010759308
104	0x3d4aa8a6	0.049477242
105	0xbdca881c	-0.09889242
106	0xbd5a155e	-0.053243034
107	0x3d99c139	0.075075574
108	0xbdb284a5	-0.08716706
109	0xbd0ad1d6	-0.03389152
110	0x3de97bbf	0.11400556
111	0x3d01d0f4	0.031693414
112	0x3de598ec	0.11210808
113	0x3d07e131	0.033173744
114	0x3c7c9d51	0.0154183665
115	0x3d97ade4	0.07406214
116	0x3d9f52f7	0.07779496
117	0x3d110b13	0.03541095
118	0xbe024f0e	-0.1272547
119	0xbd4dfaf8	-0.05028817
120	0x3ceb0534	0.028689004
121	0xbca64a6d	-0.02029916
122	0xba882b97	-0.0010388967
123	0x3de918cb	0.11381682
124	0xbbd0f168	-0.006376434
125	0xbc4064bd	-0.011742768
126	0xbe30a9be	-0.17252252
127	0xbdc388a9	-0.0954755
128	0xbda36190	-0.07977593
129	0xbdb9ec6f	-0.09078299
130	0x3d046dcc	0.032331273
131	0xbd5b6290	-0.053560793
132	0xbc995da4	-0.01872141
133	0x3d97c7e0	0.0741117
134	0x3d41934d	0.047259618
135	0x3dfcdfb0	0.123473525
136	0x3d80f6fa	0.06297107
137	0xbde383a7	-0.11109095
138	0x3b98379a	0.0046453
139	0xbd00b285	-0.03142025
140	0x3d9f17a7	0.07768183
141	0x3dbf97fc	0.093551606
142	0xbd8bb215	-0.06821076
143	0x3dd101e2	0.10205437
144	0xbdd47c1e	-0.10375236
145	0xbce580d4	-0.028015532
146	0x3d3ec265	0.046572108
147	0xbced57b3	-0.028972482
148	0xbcbb9ed5	-0.022902885
149	0xbcf0f916	-0.029415648
150	0xbe1ba7b7	-0.15200697
151	0x3dd53ddd	0.1041219
152	0x3dcf1950	0.1011225
153	0x3c39e7c1	0.011346758
154	0xbd8ba5ef	-0.06818759
155	0xbde792fc	-0.11307332
156	0xbdcea727	-0.100904755
157	0x3e19eef3	0.15032558
158	0x3d936928	0.07197791
159	0xbcc3ff4a	-0.023925442
160	0xbda26360	-0.079291105
161	0x3dd82d2f	0.10555493
162	0x3e1ce188	0.15320408
163	0xbde1a29a	-0.11017342
164	0xbd8b496b	-0.06801113
165	0xbc3361a0	-0.010948569
166	0xbd4be073	-0.0497746
167	0x3dde898f	0.10866081
168	0xbda7e9cb	-0.08198889
169	0x3d9d9a61	0.07695461
170	0xbdc27c89	-0.094964094
171	0x3d1490ae	0.03627079
172	0x3b2a1e05	0.0025957834
173	0x3dc52988	0.09627062
174	0x3de1cfb8	0.11025947
175	0xbd523eb0	-0.051329315
176	0x3e1c866e	0.15285656
177	0xbc32a3c1	-0.0109033
178	0xbcc036d5	-0.023463646
179	0x3d322436	0.043491565
180	0x3dec90eb	0.115510784
181	0xbd90c591	-0.07068933
182	0xbd11f192	-0.03563077
183	0x3deb0af4	0.114766985
184	0x3d813514	0.06308952
185	0xbe07866b	-0.1323487
186	0x3da1deac	0.079037994
187	0xbdb2d7b5	-0.08732549
188	0xbdcbd07d	-0.09951875
189	0xbdbb6306	-0.091497466
190	0xbd9b08f4	-0.07570067
191	0x3d07a7f5	0.03311916
192	0x3daf76d1	0.08567584
193	0x3dab9f17	0.08379953
194	0x3dcb2d60	0.09920764
195	0x3dc644f9	0.09681124
196	0x3e261514	0.16218978
197	0x3b56d805	0.0032782566
198	0x3d905a67	0.07048493
199	0x3d103005	0.035202045
200	0x3d52a991	0.051431242
201	0xbbebed5c	-0.0071999263
202	0xbd8087ab	-0.062758766
203	0x3da8a79c	0.08235094
204	0xbddd7770	-0.108137965
205	0xbdd4152b	-0.103556
206	0xbd323cb8	-0.043514937
207	0x3da9b7bd	0.082869984
208	0x3d406170	0.046967924
209	0x3dc5cb35	0.09657899
210	0xbe2bb851	-0.1676953
211	0xbd106613	-0.035253596
212	0xbd91c523	-0.07117679
213	0x3db427a9	0.08796627
214	0xbe29038a	-0.16505256
215	0x3dadd473	0.08487787
216	0xbc6300ba	-0.013855154
217	0x3e0421fa	0.12903586
218	0x3e1ce761	0.15322639
219	0xbc8c6a34	-0.017140485
220	0x3d221050	0.039566338
221	0xbd13abea	-0.036052622
222	0xbdf3eda9	-0.119105645
223	0xbcc03428	-0.02346237
224	0x3de46909	0.11152846
225	0x3d383bee	0.04497903
226	0x3a909a01	0.0011032225
227	0xbdafc46e	-0.08582388
228	0x3c964e2c	0.018347822
229	0x3c9d19a8	0.019177273
230	0x3e09fc3c	0.13475126
231	0xbde90e1e	-0.11379646
232	0xbdf84096	-0.12121694
233	0xbba8bbf0	-0.005149357
234	0xbdb9da62	-0.09074856
235	0x3e00a733	0.12563781
236	0xbde5f5d3	-0.11228528
237	0xbe0dd602	-0.13851169
238	0xbdc6914f	-0.09695684
239	0xbd6a5506	-0.05720999
240	0xbd9baa7f	-0.07600879
241	0xbcbd8d5d	-0.023138696
242	0x3ca6a595	0.020342628
243	0xbd63a41b	-0.055576425
244	0x3dc37f1d	0.09545729
245	0xbe0595c8	-0.13045418
246	0xbd89537e	-0.06705378
247	0xbd65e7a4	-0.056129113
248	0xbd85d7b1	-0.065352805
249	0x3d22a1bf	0.039705034
250	0xbcd4451a	-0.025911856
251	0xbdf05a89	-0.11736018
252	0x3dcba2d5	0.09943167
253	0x3db9f3db	0.09079715
254	0x3cf564dc	0.02995532
255	0x3d6cc6eb	0.05780689

lstm.weight_hh_l0 f4 [256, 64]
0	0xbe0565ed	-0.13027163
1	0xbd939071	-0.072052844
2	0x3c06e854	0.008234102
3	0x3dbc3abc	0.0919089
4	0xbe0aded4	-0.13561565
5	0xbdbf4379	-0.09339041
6	0xbb999789	-0.004687254
7	0xbd8845fb	-0.06653973
8	0xbd43bd25	-0.047787804
9	0x3b15e110	0.0022869743
10	0x3e188dd8	0.14897859
11	0xbd64a7bf	-0.055824038
12	0xbc754bc6	-0.014971679
13	0xbcd52635	-0.026019195
14	0xbd98b55f	-0.07456469
15	0x3d1b0d92	0.03785474
16	0x3be33f04	0.0069350023
17	0x3cde2f0c	0.027122043
18	0xbd9ea4c2	-0.07746269
19	0x3e1ba497	0.15199505
20	0x3c23e859	0.0100041265
21	0x3d267dd8	0.040647358
22	0x3deed855	0.11662356
23	0x3de7c8f7	0.11317628
24	0x3dc1bf37	0.094602995
25	0x3d146e09	0.03623775
26	0xbd87fbc1	-0.06639815
27	0xbd0864cd	-0.033299256
28	0xbcdc2447	-0.026872767
29	0xbd4ec7cb	-0.050483506
30	0xbdc963ff	-0.09833526
31	0xbdfbfeaa	-0.12304433
32	0x3e02d7aa	0.12777582
33	0xbdfff778	-0.12498373
34	0x3dbc0503	0.091806434
35	0xbd77321a	-0.060350515
36	0xbd647ea8	-0.05578485
37	0xbcd1743d	-0.025568122
38	0x3b8faf19	0.004384887
39	0x3d54acee	0.05192273
40	0xbcfc2b37	-0.030782325
41	0xbd0f2027	-0.034942772
42	0x3d9e8b26	0.07741384
43	0xbd844f28	-0.0646041
44	0x3cbccd3b	0.02304708
45	0xbd61baf7	-0.055109944
46	0xbdb18052	-0.08667053
47	0x3d80840b	0.06275185
48	0x3bc3993e	0.0059691956
49	0x3c8d5022	0.017250124
50	0x3dbfda78	0.093678415
51	0x3d134cfc	0.03596209
52	0xbd149b83	-0.03628112
53	0xbca258e7	-0.019817783
54	0x3de8c6c8	0.113660395
55	0xbc603823	-0.013685259
56	0xbda0ea13	-0.07857146
57	0x3ddd6a43	0.108112834
58	0x3dbd30ed	0.092378475
59	0xbd13304c	-0.03593473
60	0xbd71fa01	-0.059076313
61	0x3db6d8bc	0.089280576
62	0x3db6ab31	0.08919371
63	0x3d31c625	0.043401856
64	0xbd3b9a66	-0.045801543
65	0xbcbc7fbc	-0.023010127
66	0xbdb37674	-0.087628275
67	0x3da8f2cd	0.082494356
68	0xbdab14f8	-0.08353609
69	0xbe0048d0	-0.12527776
70	0xbde40e82	-0.1113558
71	0x3e085f87	0.13317691
72	0x3d67dd92	0.05660779
73	0xbd46e136	-0.04855462
74	0xbdb5c458	-0.0887534
75	0xbd04e20e	-0.032442145
76	0x3d5302ee	0.051516466
77	0x3c537333	0.012905884
78	0xbd621ecb	-0.055205148
79	0xbd983b76	-0.07433216
80	0xbb22f182	-0.0024863188
81	0x3db925c1	0.09040404
82	0x3dda35f9	0.10654826
83	0x3d4c4b06	0.049876235
84	0x3db61d80	0.088923454
85	0x3a74cb56	0.0009338161
86	0x3d1d5b71	0.038417283
87	0x3d91e2a3	0.07123306
88	0xbe00f7a6	-0.1259447
89	0x3d4611fe	0.048357002
90	0xbe0ae459	-0.1356367
91	0x3a88d56b	0.001043958
92	0xbd9a3746	-0.07530074
93	0x3ddd9e7a	0.10821243
94	0xbd5e907f	-0.05433702
95	0xbdb4eed4	-0.08834615
96	0x3cdb6280	0.026780367
97	0xbc5c154f	-0.013432815
98	0x3dcf2f43	0.10116436
99	0xbd446954	-0.04795201
100	0x3cfed7b4	0.031108715
101	0x3d091bf2	0.033473916
102	0x3d1f183c	0.03884147
103	0xbdd88609	-0.1057244
104	0xbd812aa7	-0.063069634
105	0xbd605d8b	-0.05477671
106	0xbd2e6e4f	-0.042585667
107	0x3cf8bf64	0.0303647
108	0x3d14ec71	0.0363583
109	0x3d874923	0.066057466
110	0xbd53b5a1	-0.051686887
111	0xbc9a528c	-0.01883819
112	0x3db9473f	0.09046792
113	0xbcdd14df	-0.026987491
114	0xbda20c38	-0.07912487
115	0x3dae5156	0.08511607
116	0xbdbadcd4	-0.09124151
117	0x3e09cf0a	0.13457885
118	0xbd736624	-0.05942358
119	0x3ca3b78d	0.019984985
120	0x3de2012f	0.11035382
121	0xbd28451e	-0.04108154
122	0x3d6e2b43	0.058146726
123	0x3df7af6b	0.12094005
124	0x3de82d1b	0.11336728
125	0x3da51a51	0.0806166
126	0x3d0e6e4b	0.034773152
127	0x3d2909c4	0.04126908
128	0xbc84fba9	-0.016233282
129	0xbd923145	-0.07138304
130	0x3da89309	0.0823117
131	0x3b0a9161	0.0021143781
132	0x3c8912d2	0.016732607
133	0x3d9c89ff	0.07643508
134	0xbc669dee	-0.014075739
135	0xbdd2eb30	-0.10298765
136	0x3d2b5ffc	0.041839585
137	0x3cd25a6d	0.025677884
138	0x3cb73811	0.022365602
139	0xbe003aa6	-0.12522373
140	0xbdacb5a6	-0.08433084
141	0xbd69510d	-0.05696206
142	0x3db928a9	0.090409584
143	0xbd0b7a04	-0.03405191
144	0xbbe525c4	-0.0069930274
145	0xbb7708d7	-0.0037694478
146	0xbda5d4ea	-0.08097251
147	0xbe0fd447	-0.14045821
148	0x3e0a2362	0.1349006
149	0xbdeb53ba	-0.11490579
150	0x3da2e323	0.07953479
151	0x3d864fae	0.065581664
152	0x3d9d5ee9	0.07684118
153	0x3cf129a1	0.029438796
154	0x3bfe5cce	0.007762528
155	0xbddbfc8e	-0.1074153
156	0x3dd27003	0.10275271
157	0xbd8993cd	-0.06717644
158	0x3d080444	0.033207193
159	0x3d8c8b26	0.06862478
160	0x3d5930dc	0.05302511
161	0x3d69d162	0.05708445
162	0xbcd4a169	-0.025955873
163	0xbbd48955	-0.006486098
164	0x3d65de40	0.056120157
165	0x3d77a9e8	0.06046477
166	0x3dac1e79	0.0840425
167	0xbdeec605	-0.11658863
168	0x3bcad176	0.0061895205
169	0x3d703637	0.058645453
170	0x3e1997bd	0.1499929
171	0x3dbed23d	0.093174435
172	0x3dc78a66	0.09743194
173	0x3df996d5	0.12186972
174	0xbd828946	-0.06373839
175	0x3d284e73	0.04109044
176	0xbda63cb7	-0.08117049
177	0x3cd7b8ba	0.026333202
178	0x3bc05713	0.005869755
179	0x3c5c64dc	0.013451781
180	0xbe2501ac	-0.16113919
181	0xbd550f7d	-0.052016724
182	0xbd6dec74	-0.058086827
183	0xbe086d60	-0.13322973
184	0xbd06d4a3	-0.03291763
185	0xbddd5428	-0.10807067
186	0xbdc69933	-0.09697189
187	0x3dcb93df	0.099403135
188	0x3cde8c59	0.027166532
189	0x3c0d8568	0.008637764
190	0x3dbcb00f	0.09213268
191	0xbc7e2db3	-0.015513825
192	0x3d99196a	0.074755505
193	0xbdbe5765	-0.09294013
194	0xbc41a42f	-0.01181893
195	0xbbe912f8	-0.007112857
196	0x3d9f5813	0.07780471
197	0xbc7479e2	-0.014921637
198	0x3c8f09d5	0.017460743
199	0x3d906801	0.07051087
200	0xbcc10f33	-0.023566818
201	0xbdc8469b	-0.09779092
202	0x3dc05b14	0.09392372
203	0x3d776bb0	0.060405433
204	0x3d41748c	0.04723029
205	0x3ce88a13	0.028386151
206	0x3dcd75f8	0.100322664
207	0x3c117c75	0.0088797705
208	0xbd263796	-0.040580355
209	0x3dacef2c	0.08444056
210	0x3cce8ace	0.025212672
211	0x3d8b96f9	0.06815905
212	0x3d3fe636	0.046850406
213	0xbd6cedf2	-0.05784411
214	0xbdab8141	-0.083742626
215	0x3d969821	0.07353235
216	0x3dd55ba9	0.104178734
217	0xbdb2517b	-0.087069474
218	0x3de3b6b7	0.111188345
219	0xbcf88974	-0.03033898
220	0x3e1a434e	0.15064737
221	0xbdc9f702	-0.09861566
222	0xbd4fd3c9	-0.050739083
223	0xbca06764	-0.01958055
224	0x3bdbc14a	0.0067063915
225	0x3d0310d4	0.03199847
226	0x3da66f63	0.08126714
227	0x3d9225e9	0.07136137
228	0xbd10fbf6	-0.03539654
229	0x3dc12214	0.09430328
230	0x3bd3bd88	0.006461803
231	0x3d3c6e66	0.04600372
232	0xbd3e8d17	-0.046521273
233	0x3e2912b1	0.16511036
234	0x3dd2165b	0.1025817
235	0xbbc4efcd	-0.006010032
236	0x3dcbf8fa	0.09959598
237	0x3c7a196c	0.01526485
238	0xbd4b30a2	-0.049606927
239	0xbdc84231	-0.0977825
240	0xbd2add9d	-0.041715253
241	0x3d3af6ca	0.045645513
242	0x3c0cd3c5	0.008595412
243	0x3d78563b	0.06062911
244	0xbca08095	-0.019592563
245	0xbe21f3fd	-0.1581573
246	0xbd3fa0e7	-0.046784308
247	0xbc3bf52d	-0.011472029
248	0xbc43473b	-0.011918838
249	0xbd5322c7	-0.051546838
250	0x3d952ae1	0.07283569
251	0x3cf4f2c1	0.02990091
252	0xbe071e2c	-0.13195103
253	0x3d1598f3	0.036522817
254	0xbca798d3	-0.020458614
255	0xbd8f956f	-0.07010924

lstm.bias_ih_l0 f4 [256]
0	0x3d925ed9	0.07146997
1	0x3e09e426	0.13465938
2	0x3d5d3f76	0.0540156
3	0xbd943afd	-0.072378136
4	0x3d967915	0.07347313
5	0x3c9ecff5	0.019386271
6	0xbd03001c	-0.031982526
7	0x3de0433c	0.10950324
8	0xbc99bd31	-0.018766971
9	0xbd9a22fc	-0.07526204
10	0xbdc51a73	-0.096241854
11	0xbc10f540	-0.008847535
12	0xbdad1242	-0.08450748
13	0x3dc2536f	0.0948857
14	0x3de93b26	0.11388235
15	0x3cc71d31	0.024305912
16	0x3c8fdb54	0.017560638
17	0xbdcc6035	-0.099792875
18	0xbdc47754	-0.095930725
19	0x3dbb01b5	0.09131185
20	0xbb438547	-0.0029834078
21	0x3e31b5f2	0.17354563
22	0x3d890e42	0.066921726
23	0x3b65142d	0.0034954653
24	0x3dd1dd22	0.10247256
25	0x3dd310c7	0.103059344
26	0x3cb59db4	0.022169925
27	0xbd742189	-0.059602294
28	0xbc2b221c	-0.010445144
29	0x3d9337f5	0.07188407
30	0x3caafd76	0.020872813
31	0xbc0485fd	-0.008088586
32	0x3db95e29	0.09051163
33	0x3dbef4a3	0.093240045
34	0xbd845458	-0.064614
35	0x3cd328d9	0.025776314
36	0x3cb7e52d	0.022448147
37	0xbcb4a93c	-0.022053353
38	0xbd087311	-0.03331286
39	0xb9b6d517	-0.0003487251
40	0x3c1d184c	0.009588312
41	0xbdb0b85c	-0.08628914
42	0x3d8fc5bb	0.07020136
43	0x3de2d926	0.11076574
44	0xba21b5f0	-0.00061687734
45	0x3caa77de	0.02080911
46	0x3d8c7ad2	0.068593636
47	0x3dbcb633	0.09214439
48	0x3d6630a5	0.056198735
49	0xbd7d874e	-0.061896615
50	0x3d81204c	0.06304988
51	0xbd4653b1	-0.048419658
52	0xbbfac5d8	-0.0076529793
53	0x3d452dc7	0.04813936
54	0xbe05d4cb	-0.13069455
55	0xbd897deb	-0.0671347
56	0x3d6fb2aa	0.058519997
57	0x3dcff8df	0.1015489
58	0x3d83af3e	0.06429909
59	0xbcc4fe7c	-0.024047129
60	0x3def549c	0.1168606
61	0xbcb5cf61	-0.022193613
62	0x3e0652b5	0.13117488
63	0xbe017ecc	-0.12646025
64	0xbdcfdf8b	-0.10150059
65	0x3c87c7ed	0.016574824
66	0xbdc4a128	-0.096010506
67	0x3d72d98d	0.059289504
68	0xbc647bf2	-0.0139455665
69	0x3d055299	0.032549474
70	0x3e00490c	0.12527865
71	0x3dc85647	0.09782081
72	0x3d8bf979	0.068346925
73	0x3d502cf6	0.050824128
74	0x3ddfe15a	0.10931654
75	0xbc3565aa	-0.011071602
76	0x3db795a5	0.08964089
77	0xbc446da8	-0.011989035
78	0x3d26359c	0.04057847
79	0x3d468102	0.048462875
80	0x3db3631d	0.08759139
81	0xbd8ae1fa	-0.06781383
82	0xbd9262a4	-0.071477205
83	0xbd4b6bd0	-0.049663365
84	0x3c1e4dc1	0.009662093
85	0xbdcf2b86	-0.10115723
86	0x3d809928	0.06279212
87	0x3cc5a4d1	0.024126442
88	0xbc302176	-0.010750165
89	0xbd720fa5	-0.05909695
90	0x3c59885c	0.0132771395
91	0xbd40013f	-0.04687619
92	0xbc5c7898	-0.013456486
93	0xbd48c7c6	-0.049018644
94	0x3ddaecad	0.106896736
95	0xbd2928e3	-0.04129876
96	0xbd23a92c	-0.039956257
97	0x3de5ba08	0.11217123
98	0xbd81fc30	-0.06346929
99	0x3df7ac19	0.12093372
100	0xbc516bb9	-0.012782031
101	0xbd9c3854	-0.07627931
102	0xbdf40db9	-0.1191668
103	0xbdbadd41	-0.09124232
104	0xbb116d09	-0.0022190234
105	0xbde1ef2d	-0.11031947
106	0xbca2b2ad	-0.01986059
107	0xbd5f3206	-0.054491065
108	0xbdf31d1f	-0.11870789
109	0x3e088adb	0.13334219
110	0x3ddc80ea	0.10766776
111	0xbdb07a3a	-0.08617063
112	0x3d259efa	0.040434815
113	0xbdce6af3	-0.10078993
114	0xbc89a45f	-0.016802011
115	0xbdb33cba	-0.08751817
116	0xbd1dc246	-0.03851535
117	0x3c4d9006	0.012546545
118	0xbd8bf0fb	-0.06833073
119	0x3cc9df9d	0.02464276
120	0xbc9b2919	-0.018940495
121	0x3d712402	0.05887223
122	0x3da3243b	0.07965895
123	0x3d6b6a45	0.057474393
124	0xbe05f73b	-0.13082592
125	0xbd9cabc7	-0.076499514
126	0x3d00ca34	0.031442836
127	0xbcfd66f6	-0.030932885
128	0xbd5bb928	-0.053643376
129	0x3e11f421	0.14253284
130	0xbce2e0b9	-0.027695047
131	0xbdccc7ba	-0.09999032
132	0x3db19096	0.08670156
133	0xbdd22176	-0.102602884
134	0xbc99f1b7	-0.018792016
135	0x3cafda09	0.021466272
136	0xbdb0003d	-0.085937954
137	0xbd4c13cf	-0.04982358
138	0xbdecadce	-0.11556588
139	0xbba12d90	-0.0049187616
140	0xbde5692a	-0.11201699
141	0x3e060429	0.13087524
142	0xbdfc7323	-0.12326648
143	0x3d25e123	0.04049791
144	0x3c044d6d	0.0080751
145	0xbe055986	-0.13022432
146	0x3e0fbaeb	0.14036147
147	0xbd89fadf	-0.06737303
148	0x3ddb23fc	0.10700223
149	0xbd44deb3	-0.048063945
150	0x3ccbc9fd	0.024876589
151	0x3d56f08d	0.0524755
152	0x3d81fd54	0.06347147
153	0xbdb46479	-0.08808226
154	0xbdd70855	-0.10499636
155	0xbdd6c4a9	-0.10486729
156	0xb9473c6b	-0.00019000626
157	0x3e10d855	0.14145024
158	0x3dfe9909	0.12431533
159	0x3df7ce6c	0.12099919
160	0x3c0e0b11	0.008669631
161	0x3def8479	0.11695189
162	0xbdc4d60b	-0.09611138
163	0x3e10b93c	0.14133161
164	0xbd7d34aa	-0.061817802
165	0x3ced5411	0.02897075
166	0x3df8c03a	0.12146039
167	0xbdd594e2	-0.10428788
168	0x3d945d33	0.07244339
169	0xbdb7ed1d	-0.08980773
170	0x3c29d57d	0.010365841
171	0xbd45e43d	-0.048313368
172	0x3dc7b09b	0.09750482
173	0x3d9949e3	0.07484796
174	0x3dd64986	0.10463242
175	0x3d9abb9b	0.07555314
176	0x3db9f17e	0.09079264
177	0xbdab64e9	-0.083688565
178	0xbc8d49cc	-0.017247103
179	0xbc7e5ca9	-0.015525022
180	0x3d094379	0.033511613
181	0xbd62a0c1	-0.055329088
182	0xbcaee7fc	-0.021350853
183	0x3d41a253	0.047273945
184	0x3d8f53f8	0.06998438
185	0x3dff4d33	0.124658965
186	0xbda7e0a6	-0.08197145
187	0xbcd9e11d	-0.0265966
188	0x3d39c391	0.045352522
189	0xbd468c4f	-0.048473652
190	0xbdd11cc3	-0.10210564
191	0xbc194c13	-0.009356516
192	0x3c54563f	0.012960016
193	0xbc3e1ba0	-0.011603266
194	0xbacfa67e	-0.0015842465
195	0xbdbaa1c3	-0.09112885
196	0x3d8a214f	0.06744634
197	0xbdbd474a	-0.09242113
198	0x3dd55592	0.10416712
199	0xbdeccc3f	-0.11562394
200	0xbcdd33d1	-0.027002247
201	0xbdad0859	-0.08448858
202	0x3c20989f	0.009802013
203	0x3cfd1664	0.030894466
204	0x3ca745ec	0.020419084
205	0x3d18c3f8	0.037296265
206	0x3da6a10e	0.081361875
207	0x3d9d8f86	0.076933905
208	0xbd105029	-0.035232697
209	0x3db302f2	0.08740796
210	0x3dd4eb44	0.10396436
211	0x3d26e01e	0.04074108
212	0xbd72b090	-0.059250414
213	0x3db14d9e	0.086573824
214	0x3d451f6b	0.048125666
215	0xbd8c7603	-0.068584464
216	0x3e005d7c	0.12535661
217	0x3d7716db	0.06032453
218	0xbd1094fa	-0.035298325
219	0xbd43fbf5	-0.047847707
220	0xbcecabff	-0.028890608
221	0x3dba86e2	0.09107758
222	0x3c48c21b	0.01225331
223	0xbd6a74f7	-0.057240453
224	0x3d803de7	0.06261807
225	0x3dbcbbec	0.09215531
226	0x3dd013e0	0.10160041
227	0x3df9ec63	0.1220329
228	0xbcb90369	-0.022584634
229	0xbd508590	-0.050908625
230	0xbcaa0a17	-0.020756764
231	0xbd5c8823	-0.053840768
232	0xbda555ff	-0.08073043
233	0xbd114567	-0.035466578
234	0x3e075aac	0.13218182
235	0x3e02a941	0.12759878
236	0x3db7ba9d	0.089711405
237	0xbda50b3c	-0.080587834
238	0x3d43264e	0.047643952
239	0xbc802a9b	-0.015645316
240	0x3da9e812	0.08296217
241	0xbd4a8fb5	-0.049453456
242	0xbda7a90c	-0.0818654
243	0x3d127e66	0.035765074
244	0xbc84fa9f	-0.016232787
245	0x3d1851aa	0.037187256
246	0x3c86f270	0.016473025
247	0x3df0a76f	0.117506854
248	0x3df8070f	0.12110721
249	0x3dcc8fa5	0.099883355
250	0xbd7aee29	-0.061262283
251	0xbdd79578	-0.10526556
252	0x3dfd4be5	0.12367991
253	0x3d886b85	0.06661133
254	0x3d6d09b6	0.05787059
255	0x3d88ecee	0.06685816

lstm.bias_hh_l0 f4 [256]
0	0x3dbdfbd7	0.0927655
1	0xbcc22a28	-0.023701742
2	0x3e0d1073	0.13775806
3	0x3c9ba979	0.01900171
4	0xbdb7595e	-0.08952592
5	0x3df46cb3	0.11934795
6	0x3dcd0c7c	0.10012147
7	0x3d1347c2	0.035957105
8	0x3cc4449a	0.023958493
9	0x3d701d87	0.05862191
10	0xbd843498	-0.06455344
11	0xbd058b65	-0.03260364
12	0x3baa7a08	0.0052025355
13	0xbd7d3e48	-0.061826974
14	0x3d500b07	0.050791766
15	0xbe079b0f	-0.13242744
16	0x3dfd91ed	0.12381349
17	0xbd2763f6	-0.040866815
18	0x3cf70fd0	0.030158907
19	0x3da6f264	0.08151701
20	0x3caad479	0.020853268
21	0xba4773ea	-0.000760852
22	0x3de000a1	0.1093762
23	0x3c07846a	0.008271316
24	0xbc30e105	-0.010795836
25	0x3d2f93ba	0.042865492
26	0xbc8b1b83	-0.016980892
27	0x3bd68cf4	0.0065475646
28	0xbd6a6971	-0.057229463
29	0xbc736394	-0.014855284
30	0x3dbd039b	0.09229203
31	0xb704834c	-7.898383e-06
32	0x3e0fbd88	0.14037144
33	0x3ccf312e	0.025292005
34	0x3d8a9029	0.067657776
35	0xbdb40d08	-0.08791548
36	0x3b311f6e	0.002702679
37	0x3d75fa75	0.060053308
38	0x3c0275e0	0.007962674
39	0xbda3c8fe	-0.079973206
40	0x3cc2ef1f	0.023795662
41	0x3dc9d878	0.09855741
42	0x3e14b2dd	0.14521356
43	0x3e0d7737	0.13815008
44	0xbd871086	-0.065949485
45	0xbd2d761a	-0.04234896
46	0xbcce5c40	-0.025190473
47	0x3cf4e804	0.02989579
48	0xbc094ace	-0.008379651
49	0x3dda2096	0.106507465
50	0xbd3dee28	-0.0463697
51	0x3db7f7e2	0.08982827
52	0xbda43ecf	-0.08019792
53	0xbca2eb51	-0.019887598
54	0x3dce9f3f	0.100889675
55	0x3cc5a288	0.024125353
56	0xbdb74b21	-0.089498766
57	0x3d91d846	0.07121329
58	0x3dbde2c8	0.09271771
59	0xbde3a406	-0.11115269
60	0x3b15c365	0.002285206
61	0x3c08185f	0.008306592
62	0x3c950eba	0.018195499
63	0xbd5c228e	-0.05374389
64	0x3d0234fc	0.03178881
65	0xbdba8f1d	-0.09109328
66	0xbdae746c	-0.085182995
67	0xbd9bad54	-0.07601419
68	0xbd8bb53b	-0.06821676
69	0xbd454d16	-0.048169218
70	0x3da10f37	0.0786423
71	0xbc66c7ab	-0.0140856905
72	0xbe025e54	-0.12731296
73	0xbdf95820	-0.12175012
74	0x3db382d0	0.08765185
75	0xbc8e1ce4	-0.01734776
76	0xbd921aa4	-0.071339875
77	0x3df55090	0.11978257
78	0x3dc72ccb	0.097253405
79	0x3da8d4cc	0.08243713
80	0x3d7b09f5	0.061288793
81	0x3da707dc	0.08155796
82	0xbb3f63cc	-0.002920377
83	0x3df51712	0.11967291
84	0x3d47c207	0.048769023
85	0xbd138734	-0.03601761
86	0xbd9345e8	-0.07191068
87	0x3dac4727	0.08412009
88	0xbdb398f5	-0.087694086
89	0xbd8d3432	-0.06894721
90	0x3d6e4eae	0.058180504
91	0x3d8c533a	0.06851812
92	0x3d5e7fea	0.054321207
93	0x3d84f8aa	0.064927414
94	0xbd19f320	-0.037585378
95	0x3cb14788	0.021640554
96	0xbda705c4	-0.081553966
97	0x3d78ab08	0.060709983
98	0xbdaac555	-0.08338419
99	0xbd038976	-0.032113515
100	0x3e04c597	0.12966
101	0x3d9e570b	0.07731446
102	0x3c6ce8b4	0.014459778
103	0xbdbcc52c	-0.09217295
104	0xbd46a0c5	-0.048493166
105	0xbe0a9b98	-0.13535917
106	0x3e173f32	0.14770201
107	0xbdd4bae0	-0.10387206
108	0x3dd9c339	0.10632939
109	0xbd4e7c14	-0.0504113
110	0xbdd0a016	-0.10186784
111	0xbe033062	-0.12811425
112	0xbc4b9c24	-0.012427364
113	0xbe074318	-0.13209188
114	0xbda641b7	-0.08118003
115	0x3dfcea60	0.12349391
116	0xbc5f0f46	-0.013614481
117	0x3c33cb86	0.010973817
118	0xbd77b064	-0.060470954
119	0x3d8d16dd	0.068891264
120	0x3dbf7ee2	0.09350373
121	0xbdd84389	-0.10559756
122	0x3d0bbd08	0.03411582
123	0xbdb73cfe	-0.0894718
124	0xbdca9267	-0.09891205
125	0x3d0e6f67	0.03477421
126	0x3da5866d	0.0808228
127	0x3da9b183	0.08285811
128	0x3d8ad0f0	0.06778133
129	0xbd93b22b	-0.07211717
130	0xbd2c984a	-0.04213742
131	0x3ca06647	0.01958002
132	0x3d10a950	0.03531772
133	0x3de8407a	0.11340423
134	0xbd1fc2ad	-0.039004017
135	0x3dcc6884	0.09980872
136	0x3d0aaf9e	0.033858888
137	0xbca8de15	-0.02061371
138	0xbcc23a72	-0.02370951
139	0xbd7ce4d2	-0.061741658
140	0xbdb8fa67	-0.090321355
141	0xbab170b6	-0.0013537619
142	0x3db0f7fa	0.08641048
143	0x3d5bb221	0.053636674
144	0xbc4e1aa2	-0.012579592
145	0x3d8b789a	0.06810112
146	0x3da563cd	0.08075676
147	0xbcdfde3a	-0.027327646
148	0xbd87c0fd	-0.066286065
149	0xbdb37cf3	-0.087640665
150	0xbdc4e7df	-0.096145384
151	0xbe0a9b97	-0.13535915
152	0xbd3022d3	-0.04300196
153	0xbddb08ab	-0.10695013
154	0xbe086e81	-0.13323404
155	0xbdc33f85	-0.095336
156	0x3deeaba0	0.116538286
157	0x3cb634de	0.022242006
158	0x3d8e7797	0.06956404
159	0xbd90c213	-0.07068267
160	0xbd1f6c52	-0.03892166
161	0x3d300b57	0.042979565
162	0xbdd7a201	-0.10528947
163	0x3d56987a	0.052391507
164	0xbe0bb952	-0.13644913
165	0xbd75ca63	-0.060007464
166	0x3d6ec114	0.058289602
167	0xbe0f6e83	-0.14007
168	0xbd80bf75	-0.062865175
169	0xba986514	-0.0011626803
170	0x3dcced60	0.10006213
171	0xbd6b4fd5	-0.05744918
172	0xbdc0e811	-0.09419263
173	0xbb4fd505	-0.0031712663
174	0xbc9ddb3a	-0.019269574
175	0xbcb714e1	-0.022348823
176	0xbdbcc45a	-0.092171386
177	0x3d688002	0.056762703
178	0xbc98175a	-0.018565822
179	0xbddb9f62	-0.10723759
180	0x3d9be382	0.07611753
181	0x3de0dd47	0.10979705
182	0x3ce75eae	0.028243389
183	0xbd2ce381	-0.042209152
184	0xbe0a57e6	-0.13510093
185	0xba92aa5c	-0.0011189687
186	0xba283109	-0.0006415998
187	0x3dccc651	0.09998763
188	0xbd4d5a0a	-0.050134696
189	0xbbde4ca4	-0.0067840386
190	0xbe0af3fe	-0.13569638
191	0xbd7af378	-0.061267346
192	0x3bf20678	0.007386025
193	0xbd875daf	-0.066096656
194	0x3cdc5dfc	0.026900284
195	0xbbb7ce04	-0.005609276
196	0xbda86808	-0.082229674
197	0xbc3a5dbc	-0.011374887
198	0x3dbc3292	0.09189333
199	0x3dc172af	0.09445702
200	0xbdf59b24	-0.11992481
201	0x3d11849e	0.035526864
202	0x3dfee413	0.124458455
203	0xbd769fe7	-0.06021109
204	0x3dc14047	0.09436088
205	0xbccb5eb9	-0.02482544
206	0xbdbda438	-0.09259838
207	0x3c72098b	0.014772783
208	0xbdaa5e07	-0.083187155
209	0x3daa9fb5	0.08331243
210	0x3e1761e8	0.14783442
211	0x3d20d37e	0.039264195
212	0x3d0b950c	0.03407769
213	0xbd2b0345	-0.041751165
214	0x3de7414d	0.11291752
215	0x3df05d3a	0.117365316
216	0x3da32ff1	0.079681285
217	0x3df53bbd	0.11974285
218	0xbcfbffb6	-0.03076158
219	0x3d925fe9	0.071472
220	0x3c2d45c1	0.010575713
221	0x3d843342	0.06455089
222	0x3d787144	0.060654894
223	0xbd98805a	-0.07446356
224	0xbdb87e08	-0.090084136
225	0x3ddfb170	0.109225154
226	0xbd725d27	-0.05917087
227	0xbd494762	-0.04914034
228	0xbd3fbc37	-0.046810355
229	0x3d8f66b5	0.07002012
230	0x3dc47d36	0.095941946
231	0x396b9057	0.00022465117
232	0xbd722a6e	-0.059122495
233	0x3bcd740d	0.006269938
234	0x3d726183	0.059175026
235	0xbd85be8f	-0.06530487
236	0xbc82c2c1	-0.015962007
237	0x3de2ffbb	0.11083933
238	0x3dcf5611	0.10123838
239	0xbdb37ddf	-0.087642424
240	0xbc2a91d6	-0.010410747
241	0xbc8348bc	-0.016025893
242	0x3d99883b	0.07496687
243	0x3c88ef40	0.016715646
244	0x3e0dde43	0.13854317
245	0x3d969d99	0.07354278
246	0xbd833429	-0.06406433
247	0x3bec5dea	0.007213344
248	0x3cbc03f2	0.0229511
249	0xbd466e07	-0.048444774
250	0xbdec6b05	-0.1154385
251	0xbcea9168	-0.028633788
252	0x3d54887b	0.05188797
253	0xbdf2f3e7	-0.11862927
254	0xbcc45598	-0.023966596
255	0x3de2eeb8	0.11080688

lstm.weight_ih_l1 f4 [256, 64]
0	0xbd8d707c	-0.0690622
1	0x3d066fba	0.032821395
2	0x3d79defc	0.06100367
3	0xbd9dbf16	-0.077024624
4	0x3e088b01	0.13334276
5	0x3d860ef9	0.065458246
6	0x3bf38971	0.007432156
7	0xbdc2ee36	-0.095180914
8	0xbdb127a4	-0.08650139
9	0xbda944a7	-0.082650475
10	0x3bade006	0.0053062467
11	0x3ba88873	0.005143219
12	0x3da29463	0.07938459
13	0x3d337632	0.04381389
14	0xbdcd3e89	-0.10021693
15	0xbda5e8b3	-0.081010245
16	0xbd9e17cf	-0.07719385
17	0xbd901388	-0.07034975
18	0xbcb829bf	-0.022480844
19	0x3d204068	0.039123923
20	0x3e0b1a7c	0.13584322
21	0xbe0fd1e7	-0.14044915
22	0x3cb5feb9	0.022216188
23	0x3dc16d9f	0.09444737
24	0xbe11f3b7	-0.14253126
25	0x3c884ca9	0.016638117
26	0xbd007bc2	-0.031368025
27	0x3cd33c67	0.025785638
28	0x3c707836	0.014677098
29	0xbd5f7e42	-0.05456377
30	0xbd567a94	-0.052362993
31	0xbdd5d370	-0.10440719
32	0xbd0c6f35	-0.034285743
33	0xbd66daed	-0.056361128
34	0xbda10759	-0.078627296
35	0xb8a856aa	-8.027007e-05
36	0xbdde4741	-0.10853434
37	0xbd05ae6c	-0.032637045
38	0xbd604017	-0.05474862
39	0xbd6396a5	-0.055563588
40	0x3d0c1da6	0.034207962
41	0x3d2915dd	0.041280616
42	0x3c4af87b	0.012388344
43	0x3c9be841	0.019031646
44	0x3d31926a	0.043352522
45	0xbd4325d0	-0.047643483
46	0x3da9106f	0.082550876
47	0x3d3062c8	0.043062955
48	0xbc9173a4	-0.017755337
49	0xbd88839f	-0.0666573
50	0x3d95425d	0.072880484
51	0x3c6c1655	0.014409621
52	0xbc4d3133	-0.012523937
53	0x3dbedaa4	0.09319046
54	0x3d8a10ac	0.06741461
55	0x3d0ee603	0.034887325
56	0x3dd638e2	0.10460068
57	0x3da3fff7	0.08007806
58	0x3dc64cf6	0.09682648
59	0xbde476f0	-0.11155498
60	0xbc54637c	-0.012963172
61	0xbe06434a	-0.13111606
62	0xbd476c34	-0.048687175
63	0x3d1240a9	0.035706196
64	0xbd861842	-0.065475956
65	0x3dc3d3d2	0.09561886
66	0x3d7294b4	0.059223846
67	0x3d8dd6c9	0.06925733
68	0x3de8faf8	0.113759935
69	0x3d3be0b3	0.045868587
70	0xbd117787	-0.03551438
71	0xbd4c588b	-0.04988913
72	0x3d58f64a	0.052969255
73	0xba7609b0	-0.0009385599
74	0x3cc7f2ed	0.024407828
75	0xbd76b791	-0.060233656
76	0x3c459072	0.012058364
77	0xbd8ce7c1	-0.06880141
78	0xbcc4806c	-0.023987018
79	0x3b24b44b	0.0025131877
80	0xbe13cf66	-0.14434585
81	0xbdfd2812	-0.123611584
82	0x3e166122	0.1468549
83	0xbd95dbc6	-0.07317309
84	0xbcd5b3ea	-0.026086766
85	0xbd83ed57	-0.06441753
86	0x3d32e634	0.04367657
87	0x3b9db618	0.004812967
88	0xbcd8a2de	-0.026444849
89	0xbdafa7aa	-0.08576901
90	0xbcd558ea	-0.026043374
91	0x3c0cc8d8	0.008592807
92	0xbd538d78	-0.051648587
93	0xbceae5ef	-0.028674094
94	0x3c516fd3	0.012783009
95	0x3e01aabd	0.12662788
96	0x3bb76718	0.0055970065
97	0xbd9728ee	-0.073808536
98	0x3d6ef153	0.058335613
99	0xbd444857	-0.04792055
100	0x3d95419e	0.07287906
101	0xbda91aef	-0.0825709
102	0x3a63e59d	0.0008693578
103	0xbd80b500	-0.06284523
104	0xbd3cfab8	-0.04613754
105	0xbde7bf37	-0.11315768
106	0xbb6953e4	-0.0035602981
107	0x3dd711cc	0.10501441
108	0xbcce2455	-0.025163809
109	0x3dcb331c	0.09921858
110	0x3d4382b9	0.04773209
111	0x3cb005b8	0.021487102
112	0x3de36030	0.11102331
113	0x3a8726a3	0.0010311197
114	0xbce27cce	-0.027647402
115	0x3dcf1674	0.101117045
116	0xbd9e8f42	-0.07742168
117	0xbd7d647c	-0.061863407
118	0xbda446ca	-0.080213144
119	0xbc900bf0	-0.017583817
120	0x3c92b97c	0.017910711
121	0xbdd4f597	-0.10398405
122	0x3d867a81	0.065663345
123	0xbd852b8f	-0.06502449
124	0xbb276569	-0.0025542623
125	0x3de331e5	0.11093501
126	0xbda02043	-0.078186534
127	0x3bf6fe9f	0.0075376774
128	0xbdc82399	-0.09772415
129	0xbd2f0aad	-0.04273479
130	0xbdd89469	-0.10575182
131	0x3d2bd97c	0.041955456
132	0xbd659626	-0.056051396
133	0x3d1d4095	0.03839167
134	0x3dc71f34	0.097227484
135	0xbd56e3a8	-0.052463204
136	0xbd0cf48d	-0.03441291
137	0x3cec713d	0.02886259
138	0x3d5d681d	0.05405437
139	0x3def3380	0.11679745
140	0x3bd5d756	0.006525914
141	0xbc557e6a	-0.013030628
142	0xba629718	-0.00086437305
143	0x3d426a08	0.0474644
144	0xbd51c970	-0.051217496
145	0xbdad1b48	-0.08452469
146	0xbde21add	-0.1104028
147	0x3dc3cf95	0.095610775
148	0x3da13feb	0.078735195
149	0x3d0d1dff	0.034452435
150	0x3dee2f4e	0.116301164
151	0xbc2beb91	-0.010493175
152	0xbd840205	-0.06445698
153	0xbc65536f	-0.013996943
154	0xbd1d2692	-0.03836686
155	0xbd930ce9	-0.07180197
156	0x3dccd716	0.10001962
157	0x3d3e9b99	0.04653511
158	0xbd41c590	-0.04730755
159	0xbddf2fcf	-0.10897791
160	0x3dcdb20b	0.100437246
161	0xbd0c6d3c	-0.03428386
162	0xbbec2d99	-0.007207584
163	0xbd7dcb10	-0.061961234
164	0xbd27949e	-0.040913217
165	0x3d25a7d4	0.040443256
166	0xbc3fadad	-0.011699122
167	0xbbe0526a	-0.006845762
168	0x3db55a43	0.08855107
169	0xbd8b9a6c	-0.06816563
170	0x3d86da32	0.06584586
171	0x3d65bc4d	0.05608778
172	0xbc25ecf6	-0.010127297
173	0x3d40b813	0.047050547
174	0x3cb37d66	0.02191038
175	0x3d9277d5	0.071517624
176	0xbdd0b3ee	-0.10190569
177	0xbccca13e	-0.02497923
178	0xbb34ede6	-0.0027607619
179	0x3e060b6e	0.13090298
180	0xbde6924e	-0.11258374
181	0x3dc8c9b2	0.09804095
182	0xbd85dc8d	-0.06536207
183	0xbd5a672f	-0.05332106
184	0xbdc3f744	-0.095686466
185	0xbd62a51e	-0.05533325
186	0x3db8724b	0.09006175
187	0xbdc7cc67	-0.097557835
188	0xbd82174a	-0.06352098
189	0x3dbcd23b	0.09219786
190	0xbd2c6a41	-0.04209352
191	0xbda70582	-0.081553474
192	0xbc4cb6f9	-0.012494796
193	0xbd5c453d	-0.05377697
194	0xbe06c3b3	-0.13160591
195	0xbd71b387	-0.0590091
196	0x3d891959	0.06694288
197	0xbce9c7b7	-0.028537614
198	0xbdc2c98d	-0.09511099
199	0x3d6755bf	0.05647826
200	0x3da2165a	0.079144195
201	0xbd75f148	-0.060044557
202	0xbdf89eb6	-0.12139647
203	0x3d5448e8	0.05182734
204	0x3d8cade7	0.06869107
205	0x3d54bfb4	0.051940635
206	0xbe074845	-0.13211162
207	0x3d09217b	0.033479195
208	0xbbc58a12	-0.006028422
209	0xbdadb3d6	-0.084815666
210	0x3de47f60	0.11157107
211	0xbcd839b9	-0.026394712
212	0x3c9cdcc4	0.019148238
213	0xbd48403a	-0.048889376
214	0x3db6f817	0.08934038
215	0xbdbc609a	-0.09198113
216	0x3d1e41e3	0.038637053
217	0xbdf00974	-0.11720553
218	0xbdb933d8	-0.090430915
219	0xbda67471	-0.08127678
220	0x3e02d228	0.12775481
221	0x3de881d1	0.113528855
222	0x3d4fd4d4	0.050740078
223	0xbca4b632	-0.020106409
224	0xbd5d79d5	-0.054071266
225	0xbb99fc34	-0.0046992544
226	0xbde5e24a	-0.11224802
227	0x3da3b1a9	0.0799287
228	0x3c96ec49	0.018423216
229	0xbe0bacd6	-0.1364015
230	0xbdb441d8	-0.08801621
231	0xbe081b01	-0.13291551
232	0xbe09d108	-0.13458645
233	0x3b83fe12	0.0040280903
234	0x3d818e38	0.06325954
235	0xbc475cfe	-0.012168167
236	0x3d7addbf	0.06124663
237	0x3c3c0094	0.011474747
238	0x3dc86252	0.09784378
239	0xbdb3c7fc	-0.08778378
240	0x3ce2a899	0.027668284
241	0x3c81308f	0.015770225
242	0xbd8c75fc	-0.06858441
243	0x3d9e81a7	0.07739573
244	0x3d6b45c6	0.057439588
245	0x3d31c00e	0.04339605
246	0x3de2f8da	0.11082621
247	0x3d88286c	0.06648335
248	0xbdcfde1b	-0.10149785
249	0x3d7d6157	0.06186041
250	0xbb94aa83	-0.004536928
251	0x3dc9063c	0.09815642
252	0xbcf28c96	-0.029608052
253	0x3d9d1c01	0.07671357
254	0xbc8052b5	-0.015664438
255	0x3b2dfc8a	0.002654823

lstm.weight_hh_l1 f4 [256, 64]
0	0xbe04d790	-0.12972856
1	0x3cf451ba	0.029824127
2	0x3d75a77e	0.059974186
3	0x3ccaa8ee	0.024738755
4	0xbd03a10a	-0.032136
5	0x3cbe8e0a	0.023261089
6	0x3d947a9e	0.0724995
7	0xbdc76da3	-0.097377084
8	0x3d97a46c	0.07404408
9	0x3d056426	0.032566212
10	0x3b00dcdc	0.0019662892
11	0x3de2c00d	0.11071787
12	0x3d2d27fc	0.04227446
13	0xbc48a293	-0.012245792
14	0x3d6c33ae	0.057666473
15	0xbe068484	-0.13136488
16	0xbdbbc4a6	-0.09168367
17	0xbd258c64	-0.04041709
18	0xbd614399	-0.054996107
19	0xbde55e1b	-0.1119959
20	0x3ca3642f	0.019945232
21	0x3af2e29f	0.0018530673
22	0x3cd23ac6	0.025662791
23	0xbd146cae	-0.036236458
24	0x3db44bc8	0.088035166
25	0x3ddf1bfe	0.10894011
26	0x3d98b50e	0.074564084
27	0x3dba1f20	0.09087968
28	0xbd0e06b2	-0.034674354
29	0x3d75def1	0.060027067
30	0xbd0b96d9	-0.034079406
31	0xbda01cb2	-0.07817973
32	0x3dd475f4	0.1037406
33	0x3d9a52d0	0.075353265
34	0xbd366c55	-0.044536907
35	0x3ce6016f	0.028076855
36	0xbd8196f0	-0.06327617
37	0x3d0fc4f2	0.03509993
38	0xbd85c91f	-0.065325014
39	0xbd75dded	-0.060026098
40	0xbcdf807a	-0.027282942
41	0x3c238201	0.009979726
42	0xbd81ff68	-0.06347543
43	0xbcb82071	-0.022476407
44	0x3d269877	0.040672746
45	0xbde38be9	-0.1111067
46	0xbdfc7a32	-0.123279944
47	0xbccb1bfb	-0.024793616
48	0xbd1ad603	-0.037801754
49	0x3d307b63	0.04308642
50	0xbcaea0f0	-0.021316975
51	0xbcb83962	-0.0224883
52	0x3de87f90	0.113524556
53	0xbc698323	-0.014252457
54	0xbc88c3fe	-0.016695019
55	0xbccd07ff	-0.025028227
56	0x3dc99b61	0.09844089
57	0xbd940ff6	-0.07229607
58	0xbd6e693f	-0.05820584
59	0x3dd9930a	0.106237486
60	0xbd3bf202	-0.045885094
61	0x3dd31152	0.10306038
62	0xbdf5270f	-0.119703405
63	0x3d894efa	0.06704517
64	0x3da8a650	0.082348466
65	0x3da51abe	0.08061741
66	0xbda63377	-0.08115285
67	0x3da904a8	0.08252841
68	0x3e05fec4	0.13085467
69	0xbe08341a	-0.13301125
70	0xbd046df5	-0.032331426
71	0x3d5a8059	0.053345058
72	0xbdf6fad1	-0.12059558
73	0xba214418	-0.00061518094
74	0xbe008a02	-0.12552646
75	0x3dd1ddbf	0.10247373
76	0xbcfc4f75	-0.030799607
77	0xbd3fb358	-0.046801895
78	0xbb7fa3c1	-0.0039007517
79	0xbd8387c7	-0.06422382
80	0x3c66fd35	0.014098455
81	0x3d9379a1	0.07200933
82	0x3cdf1dc2	0.02723587
83	0xbb9a428d	-0.0047076405
84	0xbd24d197	-0.040238943
85	0x3e058ab0	0.13041186
86	0x3cd1e9b4	0.025624134
87	0x3dd45d8f	0.103694074
88	0xbd9e6dd6	-0.07735793
89	0xbd3bfd61	-0.045895938
90	0x3db1ebfe	0.0868759
91	0x3dbe3e25	0.09289197
92	0xbd074a3d	-0.033029784
93	0x3db05a23	0.08610942
94	0xbd552ba5	-0.052043576
95	0xbdec400a	-0.11535652
96	0xbd2bb0cc	-0.041916654
97	0x3cde2e2b	0.027121624
98	0x3d3569d0	0.044290364
99	0x3dcccf49	0.10000474
100	0x3dfd0026	0.12353544
101	0xbd6c15f4	-0.057638124
102	0xbdab73a0	-0.08371663
103	0xbc154175	-0.009109844
104	0xbd0a5297	-0.03377017
105	0xbd3b5830	-0.0457384
106	0xbcf70b48	-0.030156747
107	0xbd6383d1	-0.05554563
108	0xbdc5fe4d	-0.09667645
109	0x3dcce184	0.10003951
110	0x3d6e97a7	0.058250096
111	0x3de89450	0.11356413
112	0x3e042f7d	0.1290874
113	0x3caa93f4	0.020822503
114	0x3e0668c7	0.13125907
115	0x3e052d0b	0.13005464
116	0xbd85ab44	-0.06526807
117	0xbda5b905	-0.0809193
118	0x3de0bf39	0.10973973
119	0xbdd977f4	-0.10618582
120	0xbca25b6d	-0.019818986
121	0xbd998ab3	-0.07497158
122	0xbc010b44	-0.007876221
123	0x3dda0b44	0.1064668
124	0x3af52366	0.0018702566
125	0xbddb8b30	-0.10719907
126	0x3d123612	0.035696097
127	0x3d80b095	0.0628368
128	0x3d1bf5a6	0.038076065
129	0x3d630fa4	0.055434838
130	0x3db6be54	0.08923021
131	0xbd9afbcb	-0.07567557
132	0xbdeb6acc	-0.11494979
133	0x3d8f0c09	0.069847174
134	0xbe088dd6	-0.13335356
135	0xbd92197b	-0.07133766
136	0xbd065f16	-0.032805525
137	0x3d995878	0.07487577
138	0xbdaa5de2	-0.08318688
139	0x3d927199	0.07150573
140	0x3dac588d	0.08415327
141	0x3d69796e	0.05700057
142	0xbdfdf007	-0.12399297
143	0xbc00db4b	-0.0078647835
144	0xbe0796ba	-0.13241091
145	0xbe00f57e	-0.12593648
146	0x3ddbbe07	0.10729604
147	0x3dbd429a	0.09241219
148	0x3d3ce6b1	0.046118442
149	0xbdacea22	-0.08443095
150	0xbbbc55f6	-0.005747552
151	0x3c9a8e21	0.0188666
152	0x3d722d6e	0.059125356
153	0xbdc49136	-0.09598009
154	0x3d2e2f7e	0.04252576
155	0xbdda79cb	-0.106677614
156	0x3d85a29c	0.06525156
157	0xbdb91519	-0.09037227
158	0x3d756861	0.059913997
159	0x3cf8b920	0.030361712
160	0xbd93215e	-0.07184099
161	0xbbb4f789	-0.0055226726
162	0x3d070823	0.032966744
163	0x3d36ce64	0.044630423
164	0xbdf6751e	-0.12034057
165	0x3da2c76c	0.07948193
166	0xbd7c7016	-0.06163033
167	0x3da5fbde	0.081046805
168	0xbe091923	-0.13388495
169	0xbc52af84	-0.012859229
170	0xbe02d4d5	-0.12776501
171	0x3dc8ffed	0.09814439
172	0x3c339d29	0.010962763
173	0xbdd7ffa2	-0.10546805
174	0x3e0813de	0.13288829
175	0xbe00e319	-0.12586631
176	0x3da1c164	0.078982145
177	0x3df6b51b	0.12046262
178	0xbd30854d	-0.043095876
179	0xbdf23fe4	-0.118285924
180	0xbdbbb9db	-0.091663085
181	0x3da49b02	0.08037378
182	0xbba2ce48	-0.0049684383
183	0xbdb92eb7	-0.09042113
184	0x3de2e4b8	0.11078781
185	0xbd543a2e	-0.051813297
186	0xbbae8163	-0.0053254827
187	0x3d09e2c6	0.033663534
188	0x3d916d7d	0.07100961
189	0xbdbc7062	-0.09201123
190	0xbd438f64	-0.04774417
191	0x3d3ee1ac	0.046601936
192	0x3d9cb6fe	0.076520905
193	0xbcbe352c	-0.023218714
194	0xbd2779c4	-0.04088761
195	0x3d4df9cc	0.050287053
196	0x3d93303d	0.07186935
197	0x3c928992	0.017887864
198	0x3bff08d4	0.007783035
199	0xbd4cdd96	-0.05001601
200	0x3c4ff1ec	0.012691956
201	0x3da22cef	0.07918727
202	0xbc8697b4	-0.01642976
203	0xbd020d6b	-0.031751078
204	0xbd8fa704	-0.070142776
205	0x3db54679	0.08851332
206	0xbd395bf9	-0.045253728
207	0xbd20fa7f	-0.03930139
208	0x3d17a0be	0.03701853
209	0xbc958f33	-0.01825676
210	0xb9a88980	-0.00032145903
211	0xbdcf7164	-0.101290494
212	0xbddab982	-0.10679914
213	0x3dc63dea	0.09679778
214	0x3c94d4bc	0.018167846
215	0xbd12f648	-0.035879403
216	0xbdc41393	-0.09574046
217	0xbda0fcfb	-0.07860752
218	0xbe06b54b	-0.13155095
219	0x3bb22c90	0.005437441
220	0x3d5bac7a	0.053631283
221	0xbd991a35	-0.07475702
222	0x3c160ddf	0.009158581
223	0xbddbb7ae	-0.107283935
224	0x3e06b3d0	0.1315453
225	0x3c5ddb97	0.013541124
226	0x3b6ada84	0.0035835812
227	0xbc64218d	-0.013924015
228	0xba2b0df3	-0.0006525211
229	0xbd3566e8	-0.044287592
230	0xbc412386	-0.011788255
231	0xbe068e1c	-0.13140148
232	0xbdd3729a	-0.10324593
233	0xbda21f30	-0.07916105
234	0x3e035bf9	0.12828054
235	0xbcf4e6bc	-0.029895179
236	0xbd586089	-0.052826438
237	0xbe0b83d9	-0.13624515
238	0x3d3bcfca	0.04585246
239	0xbdaf019e	-0.0854523
240	0xbd974619	-0.07386417
241	0xbd01f236	-0.03172513
242	0x3c8d452d	0.0172449
243	0xbdda16af	-0.10648858
244	0x3df4ad4c	0.11947116
245	0x3cfedf7a	0.031112421
246	0x3df0f0c3	0.11764672
247	0x3bf0e476	0.0073514534
248	0xbdc5dc4b	-0.09661158
249	0x3d372686	0.044714473
250	0x3ddf18ba	0.10893388
251	0x3cd86173	0.026413655
252	0x3d8cf641	0.06882907
253	0x3d90e9d2	0.07075848
254	0xbd9a8071	-0.075440295
255	0xbde0dc50	-0.10979521

lstm.bias_ih_l1 f4 [256]
0	0x3df5d940	0.12004328
1	0xbb7c0e57	-0.0038460696
2	0xbdd09bfe	-0.10186003
3	0x3d29d399	0.04146156
4	0xbdb56f22	-0.088590875
5	0x3c3c33f5	0.011486997
6	0xbd783ac3	-0.060602915
7	0x3d879ac9	0.0662132
8	0x3d9dcc39	0.07704968
9	0xbd2163ce	-0.03940182
10	0xbd668d05	-0.05628683
11	0x3e03f552	0.12886551
12	0xbd6c2f14	-0.057662085
13	0xbbb57446	-0.0055375425
14	0x3d9d94fc	0.07694432
15	0xbc919341	-0.017770411
16	0x3d522bba	0.051311232
17	0xbde0b65a	-0.10972281
18	0xbd5b600b	-0.05355839
19	0xbd931355	-0.07181422
20	0x3d0608ea	0.032723345
21	0xbe06ec78	-0.13176143
22	0x3e0dd7f1	0.13851906
23	0x3dbbd6cc	0.09171829
24	0xbdafd128	-0.08584815
25	0x3e1170b5	0.1420315
26	0x3d481293	0.04884584
27	0xbda777a9	-0.0817712
28	0xbd86f34b	-0.06589373
29	0xbcf80788	-0.030277029
30	0x3c64604a	0.013938973
31	0x3ca0877b	0.019595852
32	0x3e0ededc	0.13952202
33	0x3e043245	0.12909801
34	0x3dc7302c	0.09725985
35	0xbd6a4280	-0.057192326
36	0x3d899557	0.067179374
37	0xbddd8fd2	-0.10818447
38	0xbc8ea952	-0.017414723
39	0x3c8e4e9d	0.01737147
40	0xbcc204ef	-0.023683993
41	0x3c83b48f	0.016077308
42	0x3ca742ed	0.020417655
43	0x3dbc81ed	0.09204469
44	0xbd9333c2	-0.071876064
45	0x3dd74809	0.105117865
46	0x3d46e9ba	0.048562743
47	0x3d6bc6df	0.057562705
48	0xbdc67442	-0.09690143
49	0x3dff06b4	0.124524504
50	0x3de1a51d	0.11017821
51	0x3dc8d457	0.098061256
52	0x3dcab42c	0.09897646
53	0x3e0ab097	0.13543926
54	0xbcde562e	-0.027140703
55	0xbdb567f0	-0.08857715
56	0xbc982210	-0.01857093
57	0xbd48b0c2	-0.048996694
58	0x3de45a7e	0.111500725
59	0xbda4dd55	-0.08050028
60	0x3d00617f	0.03134298
61	0xbcbf6daa	-0.023367722
62	0x3db63280	0.08896351
63	0xbd193001	-0.037399296
64	0xbd6c6690	-0.057715
65	0x3d262f01	0.04057217
66	0xbd7c25a2	-0.061559327
67	0x3d8c6881	0.0685587
68	0x3d0656bc	0.03279756
69	0x3d416be3	0.04722203
70	0xba6886d6	-0.000887019
71	0xbc79850d	-0.015229476
72	0x3c16111a	0.009159351
73	0x3cb127eb	0.02162548
74	0x3d96cde3	0.073634885
75	0x3d0d0c62	0.034435637
76	0xbc9cbbfa	-0.019132603
77	0xbce7d065	-0.028297612
78	0xbdd5fb29	-0.104482956
79	0xbd6e87f9	-0.058235142
80	0x3d401569	0.04689542
81	0x3b68b1e0	0.0035506412
82	0x3dc127d3	0.09431424
83	0xbdada971	-0.08479584
84	0x3d90415e	0.07043718
85	0xbdbd2269	-0.09235079
86	0x3dcdda61	0.10051418
87	0x3cc01096	0.023445409
88	0x3d9e8df1	0.07741917
89	0x3d03d1fd	0.032182682
90	0xbcf45e8b	-0.029830238
91	0xbdc0c82e	-0.09413181
92	0x3d80f20b	0.06296166
93	0xbda0c1a1	-0.07849432
94	0xbce41c1b	-0.027845433
95	0x3dec763e	0.115459904
96	0xbd46ca8d	-0.04853301
97	0x3d613af7	0.054987874
98	0x3d627643	0.055288564
99	0x3d878900	0.066179276
100	0x3c1e0f11	0.009647147
101	0xbd3e6698	-0.04648456
102	0xbd07e29e	-0.033175103
103	0x3c82680e	0.015918758
104	0x3dbfbbc4	0.09361985
105	0xbd86dc81	-0.065850265
106	0x3bfd4ebb	0.0077303327
107	0xbdb43932	-0.08799972
108	0xbb298f53	-0.0025872781
109	0x3c90343c	0.017603032
110	0x3d268858	0.04065737
111	0x3d33000d	0.04370122
112	0xbd00059b	-0.031255346
113	0xbcb9cf27	-0.022681786
114	0x3df1c897	0.118058376
115	0x3dfc9ebe	0.12334965
116	0xbd1f9c47	-0.038967397
117	0x3de37082	0.111054435
118	0x3d805d7f	0.06267833
119	0x3dde63d6	0.10858886
120	0xbdc0327c	-0.09384629
121	0xbe03186c	-0.12802285
122	0xbe0c8a21	-0.13724567
123	0x3daaa74c	0.083326906
124	0xbd716925	-0.058938164
125	0xbdda0e32	-0.10647239
126	0xbd9c5978	-0.07634252
127	0xbdedc663	-0.11610105
128	0xbd8827a3	-0.06648185
129	0x3e025b9f	0.12730263
130	0x3d8c3711	0.068464406
131	0x3d9a67f6	0.0753936
132	0xbcb15bc2	-0.021650199
133	0xbce6b335	-0.028161624
134	0x3db85c3b	0.090019666
135	0xbdad4be2	-0.08461739
136	0xbcefb089	-0.029258983
137	0xbd7c62b3	-0.061617564
138	0xbdfc981a	-0.123336986
139	0x3c818198	0.015808865
140	0xbd2b9fbd	-0.041900385
141	0x3d824f78	0.06362814
142	0xbd60b16d	-0.054856706
143	0xbde24462	-0.11048199
144	0x3daa40bc	0.08313128
145	0x3db2d3f0	0.0873183
146	0x3d84036a	0.06445964
147	0xbde0ffa0	-0.109862566
148	0xbe093d9f	-0.13402413
149	0x3b8672a9	0.004103024
150	0xbd216a2c	-0.039407894
151	0xbdbf53ce	-0.09342156
152	0xbc5ef145	-0.013607328
153	0xbc563529	-0.013074198
154	0xbdbeb99c	-0.09312746
155	0x3d744efd	0.05964564
156	0x3e0884be	0.13331887
157	0x3d830801	0.06398011
158	0xbcc6b2c4	-0.024255164
159	0xbd144927	-0.036202576
160	0x3daab574	0.08335391
161	0xbd1c6186	-0.038178943
162	0x3c3dc04f	0.0115814945
163	0x3db6bc78	0.08922666
164	0x3d70acc1	0.0587585
165	0xbded192b	-0.11577066
166	0x3cd6acdf	0.026205478
167	0xbe014b42	-0.12626365
168	0x3dcfbba2	0.1014321
169	0xbdc2ccd9	-0.09511728
170	0xbb04e939	-0.0020280613
171	0xbcd08001	-0.025451662
172	0x3c7339b0	0.014845297
173	0xbc4fae52	-0.012675839
174	0xbd667e91	-0.056273047
175	0x3d3dd9b0	0.04635018
176	0x3d53556b	0.051595133
177	0x3d4e3950	0.050347626
178	0x3b9722c1	0.0046122973
179	0x3ddbba83	0.10728934
180	0x3b4850a2	0.003056564
181	0xbd9eda7d	-0.07756517
182	0x3bee06d3	0.007263997
183	0x3e15a51c	0.14613765
184	0x3e12d5ac	0.14339322
185	0x3c910744	0.01770366
186	0xbd3389eb	-0.0438327
187	0xbc3db6d9	-0.011579239
188	0xbdfd6b12	-0.12373938
189	0xbc389135	-0.011265089
190	0xbc464800	-0.012102127
191	0xbdcf272a	-0.10114892
192	0xbd22a0e4	-0.03970422
193	0xbd165d91	-0.036710326
194	0xbde73433	-0.11289253
195	0xbbbab3f4	-0.0056977216
196	0xbdbc659d	-0.09199069
197	0xbdb66f7b	-0.08907982
198	0x3dea3a39	0.11436886
199	0x3cecf76b	0.028926572
200	0xbd8a401c	-0.06750509
201	0x3c66bbc3	0.014082852
202	0x3db1c864	0.086807996
203	0xbd514d14	-0.051098898
204	0x3d9d161d	0.076702334
205	0xbd35d809	-0.04439548
206	0x3d221213	0.03956802
207	0x3d99991f	0.07499909
208	0x3d9ea102	0.077455536
209	0xbdab1447	-0.08353477
210	0xbb9112a5	-0.0044272714
211	0xbb858182	-0.0040742764
212	0x3b228d35	0.0024803404
213	0xbd8a1402	-0.067420974
214	0xbdc8df5e	-0.09808229
215	0xbd09fa56	-0.033686005
216	0xbcccfe67	-0.025023652
217	0x3d8c342a	0.06845887
218	0xbdcbb3a5	-0.09946374
219	0xbdcda26c	-0.10040745
220	0xbd7294ce	-0.059223942
221	0x3daa5092	0.08316149
222	0x3cfaf6f4	0.030635335
223	0x3dda6874	0.10664454
224	0xbc871467	-0.01648922
225	0x3d9c8a21	0.076435335
226	0xbd91b68b	-0.071148954
227	0xbc83ad19	-0.01607375
228	0x3d890324	0.06690052
229	0x3db3e623	0.087841295
230	0x3de48c8c	0.1115962
231	0xbcdbfa76	-0.026852828
232	0x3dcba81a	0.09944172
233	0xbda8a572	-0.08234681
234	0x3df37ba3	0.11888816
235	0xbca0c5bb	-0.019625535
236	0x3d1e2f9d	0.038619626
237	0xbd1030b0	-0.035202682
238	0x3d9362c2	0.07196571
239	0x39f39640	0.00046460517
240	0x3dddf3eb	0.10837539
241	0x3c929113	0.017891442
242	0xbd625ff9	-0.055267308
243	0xbcba92e7	-0.022775127
244	0x3dd0501f	0.10171532
245	0x3cfdd5ef	0.0309858
246	0x3daf13c4	0.08548692
247	0x3dca54d1	0.09879459
248	0x3e0f6c83	0.14006238
249	0xbd86f6c8	-0.065900385
250	0xbcb6bfa0	-0.02230817
251	0xbdb05bf0	-0.08611286
252	0xbd58c3d8	-0.052921146
253	0xbc9817c2	-0.018566016
254	0x3d1c65d9	0.038183067
255	0x3c480eee	0.012210591
