src/Backend-Information/Clod-weather_predict/Hainan_lstm_model.pth (torch, 208379 bytes, 11 tensors)

lstm.weight_ih_l0 f4 [256, 3]
00000000: 4129 c03d bbf9 74bd 9029 d8bd deba 4a3c
00000010: 0bb7 c53b dab2 dcbd 4880 b63d 479e a5bd
00000020: c2e5 823d 5414 6abc afe6 7abb 5016 c0bd
00000030: 9e57 da3d cc04 a5bb 749c 8f3d a8bd c83d
00000040: 4a42 87bd 2cdb 203d 0c23 2ebd 3329 253d
00000050: c041 a7bc 77d2 de3d 5894 cdbd 260d b63d
00000060: d780 ddbb d3f0 14be b802 8abc d0e5 f63d
00000070: 2f8b 253d a4b5 963d 814e caba c2dd c3bd
00000080: e05a b33b a2ed 683d b31b a73d 4c6f 353d
00000090: 9fd3 b83d bf91 e43d d0ac 183d bb23 b43c
000000a0: b318 243d aacc 913d b0e7 a43c 27c8 8a3d
000000b0: 00fe 57bc 17ed bb3c 7dc5 5d3d fa97 803d
000000c0: 6684 79bc 8367 f93b c0ee 0fbb cbd2 66bd
000000d0: 2114 b9bd 30a7 333d 18d1 833d cffd 4c3d
000000e0: d038 50bc dcd5 2d3d 2e55 55bd feba a2bd
000000f0: 0c72 e03d f4ee 34bd 0000 2e37 ed29 913d
00000100: 2312 d33d 9e07 98bd 6dde 77bc 8551 6bbc
00000110: dc51 293d a695 6a3c 8350 a1bd e012 a33b
00000120: daef 1abc 71f6 3ebd b467 113d 59d7 0abe
00000130: 65ea 073c 242c 863d 6756 82bd 5d91 edbc
00000140: d0a3 463d 6255 863d c8f6 643d e021 e5bd
00000150: adba a1bd e6cd 713d a408 ac3d 748c 503d
00000160: 849e 21bd e8c1 97bc 426f 8f3d 17d6 673d
00000170: 7cb0 22bd 5d04 023e bac8 dbbd 6219 90bd
00000180: 85a7 e3bc 3f21 7d3d 1a21 8dbd 9473 a03d
00000190: 0740 29be 5082 cbbd bce3 2b3d 29c6 d3bd
000001a0: 54c8 8dbd a58d a03c 7e72 0b3e 8047 383d
000001b0: 3af7 d13b 86d5 5fbd b2ee 93bd 7928 b03d
000001c0: cf9e 803d f093 c8bc 45a2 253e 282e 28be
000001d0: a8c6 4ebd 05d7 93bd e613 5ebd c808 a1bd
000001e0: 98d3 893d 7735 43bd 205b 673c d3fa 7cbd
000001f0: 33fd f83c 00af 103d ed73 d3bd 15df 49bb
00000200: 80d4 bb3c 23fd 3d3d 9662 aabd f8e9 d8bc
00000210: 8726 483d 097a aebd 8c79 b5bd f145 d33c
00000220: 271f 573d 8a3f fa3d b5bd ccbd d1cc f6bc
00000230: 205d d13b 59bb 863d 4462 803d 7806 a8bc
00000240: 4d01 03bc 0b87 8d3d e812 c3bc e411 083e
00000250: 2aed f9bd 3856 5fbd 0640 2ebd 8d80 bebd
00000260: befe c3bd 496d 6c3d 540b af3d faf2 f93d
00000270: 78ef f4bd fb39 833d 70e5 8a3d 1a51 f7bd
00000280: 5099 743d 18cc a73d 7bb0 f53d 9788 bbbd
00000290: 3431 cb3d b86f 553d f5c7 123d 5026 ed3d
000002a0: f101 d8bc 85b0 ed3d 28e5 9e3d 58f9 cebd
000002b0: 3635 9a3c ccc9 c5bd 16f4 b5bd af05 0b3e
000002c0: 989e 803c b06a 803d 4a48 0cbe c86e 32bd
000002d0: d9e9 fc3d 7225 0bbc 80c9 8d3d f5ec 0d3e
000002e0: 19f0 f0bc 74bf 66bd 2c50 1f3d 5bd8 bf3d
000002f0: ae1e bb3d ffb2 2e3e 45ff 8a3d ecb1 b63d
00000300: 0ed6 923d e52c 853d c83a 7fbd ab4b 3ebc
00000310: f547 91bd ec65 debd 87e8 3bbd cbf5 3bbd
00000320: bce4 ba3d 2252 21be ec5e ba3b f0bf acbd
00000330: 770c 99bb ceaa 16bd c0f1 343c ab80 c13a
00000340: 11e6 263c a843 9b3d da64 013e f4ff 27be
00000350: 20e7 833b 0de5 c4bd b178 573d b899 51bd
00000360: 6517 0a3e b0b4 b83c d073 cfbd bc31 96bd
00000370: f5f5 aa3c 82ab b73d a795 213d 409b 48bd
00000380: 1415 3b3d 888a 193c 04d5 4d3d 7a0a fa3d
00000390: 0da8 a4bd 3051 723d fca5 e93d 3f8c f63d
000003a0: 0e99 383d 9ceb ddbd cdb0 e0bd 3d8e 0cbc
000003b0: 309b 183d c4ff 7f3d b4c5 00be e84d 443d
000003c0: 9aa6 bdbd 5fef 983d c022 38bb eac8 37bc
000003d0: 6a49 d33d 5c8c 3e3d 278b 19bd 40b3 05bd
000003e0: 0062 8eba c375 e9bd 48a8 e8ba 6887 ac3c
000003f0: bc66 993d a270 3b3d 9cbd 8e3d aa40 bf3d
0.093828686 -0.059808474 -0.105548024 0.012373654 0.0060337833 -0.10776301 0.089111865 -0.0808683
0.06391479 -0.014287073 -0.003828447 -0.09379256 0.10661243 -0.005035972 0.07012263 0.09801799
-0.066044405 0.03927152 -0.042513892 0.040322494 -0.020417094 0.10879987 -0.1003806 0.088892266
-0.0067597437 -0.14544992 -0.016847 0.12055552 0.04041594 0.07358864 -0.0015434773 -0.09563781
0.0054734796 0.05686725 0.0815958 0.044295594 0.090247385 0.11160611 0.03727418 0.021989694
0.040062618 0.07119115 0.020130008 0.06776457 -0.013183117 0.022940202 0.054143418 0.06278987
-0.01522932 0.0076112165 -0.0021962374 -0.05635337 -0.090370424 0.043860614 0.06436366 0.05004674
-0.012708858 0.04244028 -0.052083187 -0.07945822 0.10959253 -0.044173196 1.0371208e-05 0.07088075
0.10306194 -0.07423328 -0.015128714 -0.0143626975 0.041337833 0.0143179055 -0.078766845 0.0049766153
-0.009456599 -0.046621744 0.03549929 -0.13558711 0.00829563 0.06551388 -0.06364136 -0.028999979
0.048496068 0.06559254 0.05589941 -0.11188102 -0.07896934 0.05903425 0.084000856 0.050915197
-0.039457813 -0.018525079 0.070036426 0.056600656 -0.03971909 0.12696977 -0.10731645 -0.070360914
-0.02778984 0.061799284 -0.06891079 0.07834545 -0.1652833 -0.099369645 0.04196523 -0.103405304
-0.06922975 0.019598791 0.13617894 0.044990063 0.0064076455 -0.05464699 -0.07223262 0.086014695
0.0628029 -0.024484605 0.16175182 -0.16423857 -0.050482422 -0.07218746 -0.054218195 -0.07863003
0.067298114 -0.04765841 0.014120847 -0.061762642 0.030394172 0.035323143 -0.103248455 -0.0030803133
0.022928476 0.046383988 -0.08319585 -0.026478752 0.048864868 -0.0851937 -0.08861074 0.025790187
0.052519944 0.1221915 -0.09997121 -0.030126961 0.006389275 0.065787025 0.06268743 -0.020510897
-0.007995916 0.06910523 -0.023812726 0.13288075 -0.122034386 -0.054525584 -0.042541526 -0.09301863
-0.095700726 0.05772141 0.085470825 0.12204547 -0.119597375 0.06407543 0.06782043 -0.12076016
0.059716523 0.08193225 0.119965516 -0.09156912 0.09921494 0.052108496 0.035835225 0.11579573
-0.026368113 0.11605934 0.07758552 -0.10106152 0.018824201 -0.0965763 -0.08884446 0.13576387
0.015700623 0.06270349 -0.13699451 -0.04356268 0.123492904 -0.008492814 0.06923199 0.13859923
-0.029411362 -0.056334928 0.038894817 0.093674384 0.09136711 0.17060469 0.0678697 0.08920655
0.07169734 0.065027036 -0.062311918 -0.01161472 -0.07093803 -0.10859284 -0.045876052 -0.045888703
0.09125659 -0.15753987 0.005687585 -0.08435047 -0.0046706754 -0.036783986 0.011043966 0.0014763077
0.010186688 0.07581264 0.12636128 -0.16406232 0.004025355 -0.096140005 0.052605335 -0.05117199
0.13485487 0.022547096 -0.10129511 -0.07333705 0.020869235 0.089682594 0.03944936 -0.048976183
0.0456744 0.009371407 0.050251976 0.122090295 -0.08039866 0.059159458 0.11408612 0.120384686
0.04506784 -0.108359545 -0.10971222 -0.008578834 0.037257373 0.062499776 -0.12575418 0.04792586
-0.09260292 0.074675314 -0.0028096884 -0.011217335 0.10316737 0.046520576 -0.03748622 -0.03264165
-0.0010862947 -0.113994144 -0.0017750347 0.02106066 0.07490298 0.045761712 0.06969759 0.093385056

lstm.weight_hh_l0 f4 [256, 64]
00000000: 627e 063a 0ae4 833d ae5d 0e3e 7724 bfbd
00000010: 2ff1 973d 3dfe a9bd de7a 09be 396d a43d
00000020: 91e1 363d f912 d7bb 8a82 193d 3934 f43d
00000030: 61d2 2dbd 75fa c83c e885 0abc 8822 ddbd
00000040: 4734 00be bd04 23ba 4c2d b0bd 8f26 8a3d
00000050: e429 f9bc 728f 423d 44fd d539 fe87 233a
00000060: 5668 15be 1e13 823d c08a f7bd 082e 96bd
00000070: 1577 943d d1f2 c8bd d863 5d3b ffab f5bd
00000080: ddf4 85bd 0baa e53c 96bb 863d 0de3 af3c
00000090: 9e42 963d 18c5 b9bc 9b0e 03be e041 0c3e
000000a0: 07e6 98bd 32c6 0a3d 44d7 56bd c105 8cbd
000000b0: c9ea dabd b62d 203d 019a fd3c 6533 17be
000000c0: ee36 0e3e a252 1a3e c8f1 1dbe 57ec 9c3d
000000d0: 3d4b 17bd 2689 bdbb 3050 a93c 985d ae3d
000000e0: 21d2 c0bd 10b6 013e 033e d1bd 0b52 1a3c
000000f0: 7328 b9bd 3253 a7bb 3a56 01bd 17ef 04bd
00000100: e469 d73b d457 83bd c1e6 9a3d f853 8cbd
00000110: d641 ee3d b9e7 08bc 242d 873d b91f f6bd
00000120: 6293 c53c 50b7 15bd fbdb ed3c 2255 3dbd
00000130: db54 413d 6025 3d3d adf6 7a3d 9b7e 4bbd
00000140: 2fe4 e9bd 8262 313c d20d 0bbb 8bda febd
00000150: 522b 963d 53e7 0ebe 8c56 e2bc af55 2e3d
00000160: 7eb6 1c3d 528a 29bc 5318 e1bd 023c d6ba
00000170: 20d9 d03d 1c41 c2bd 0469 7b3b 62ea 0a3d
00000180: 9888 65bd f0f1 6bbd 6019 c5bc e1d6 e83d
00000190: 34f0 88bd c66a ebbc 614d 19bc c9dc c93c
000001a0: 8853 823d bbea 7e3d dca3 233e 7319 04bd
000001b0: cb9b ac3d babb a33c 49e4 24bd 2146 adbd
000001c0: 70cf 84bd 4122 62bb 2988 963d 7ac7 24bc
000001d0: 2a47 583b 748c dc3c e257 24be eabb dcbc
000001e0: 0d0a 0bbd 3549 a03d 2871 bc3d 4f4c 23be
000001f0: 2837 e8bc 896a 003e b4cf 853d 7290 f13d
00000200: cee3 233d 8832 8fbd a8fd c63d cedf 9d3d
00000210: 3ede 46bc a17b 773d 14c3 99bc 19fe a4bd
00000220: 698d b7bd db24 e73c 4cf7 1ebd 8350 8dbc
00000230: 85ee 033e 2722 84bc 9cee 0ebd 0ae3 013e
00000240: b8db 263c b8ed a33d 5698 b1bc 2a5c d53c
00000250: 4ff4 a73d 10b6 ba3c c56c 1a3e ce53 023e
00000260: 536f 083e d097 db3d e445 273c 772c 5dba
00000270: a7eb 86bd 98de 3dbd df64 1dbc e751 8ebd
00000280: 48cb 39bd b192 ec3c c24e fe3d 168a 7b3b
00000290: e128 5abd 74e4 e2bd 495e 4dbc 6e6a b4bd
000002a0: be96 123d bc61 60bd 976f f43d b7fd 11be
000002b0: 3c66 74bc 38f4 2ebd da63 ad3d ab01 20bc
000002c0: cd93 72bd 7d5e 3f3d 3939 8bbd c6a8 e73c
000002d0: 2332 de3a f765 b7bd e0ae 9cbd f3a6 19bd
000002e0: 2f35 ff3c c6a7 21be 4fe7 3bbc 2029 b0bd
000002f0: 7c35 fe3d 7422 69bd a75b e93d 89ec 3fbd
00000300: d663 67bb aaae 94bd 0e1d 493c 013a cf3c
00000310: 2cdf c73c 456b b53d 3239 60bd d2e5 05be
00000320: 6095 0fbd a2c1 303d d719 e73d a0d2 d2bc
00000330: c78b c73d df6d 9abd 02a4 f53d a054 c23d
00000340: b898 8dbd 1307 babd c39f b3bc db2e 5ebd
00000350: 03ab 123e aa88 893d 6b6c 39bd 1c6d 8f3d
00000360: 02c7 0cbe 2503 b9bd 718e bcbc 4646 0abd
00000370: a168 283d c703 093b 5aff 533d 3981 aabd
00000380: 88f2 7b3d 0163 26bd b79f bbbd 0794 87bd
00000390: a523 d1bd 3693 cdbc 0f59 52bb 698f 023c
000003a0: 7beb 10bd f400 123e 29d3 15be 8081 853d
000003b0: 69fd c43c 909b 08bd f845 163d 141f c83d
000003c0: ca6d 073e 5695 eb3c 2e20 2cbc a32d ffbd
000003d0: 1d2a 593d 4289 cabd d6de 1ebd 781f c63c
000003e0: ed45 143d 1938 3d3d efca 193d fe59 a63d
000003f0: 0e43 593c 32f1 f6bc eb19 7f3c ead9 943d
0.0005130527 0.064399794 0.13902923 -0.09333127 0.07419049 -0.08300445 -0.13425776 0.08028645
0.04464871 -0.006563541 0.037478007 0.11924023 -0.04243696 0.02453349 -0.008454777 -0.10797602
-0.12519942 -0.00062186626 -0.0860239 0.06745636 -0.030415483 0.04750008 0.00040815223 0.0006238221
-0.14590582 0.063513026 -0.12087011 -0.073329985 0.072492756 -0.098119386 0.0033781435 -0.11995696
-0.065408446 0.028035184 0.06578748 0.021470571 0.07336925 -0.02267699 -0.1279854 0.13697004
-0.07465749 0.03388042 -0.052451387 -0.06837035 -0.10689313 0.039106093 0.030957224 -0.14765699
0.13888142 0.15070584 -0.15424263 0.07662266 -0.036936987 -0.0057841716 0.02066812 0.08513945
-0.09415079 0.12667108 -0.10216906 0.009418975 -0.09040918 -0.005106353 -0.031576373 -0.032454576
0.0065739024 -0.06413236 0.07563544 -0.06851953 0.11633651 -0.008356028 0.06600407 -0.12017769
0.02411813 -0.036551774 0.029035559 -0.046223767 0.047200065 0.04617822 0.061270405 -0.049681287
-0.11420476 0.010826709 -0.0021217954 -0.124440275 0.073324814 -0.1395543 -0.02762916 0.042562183
0.038259976 -0.01034792 -0.109909676 -0.0016344788 0.10197663 -0.09485075 0.0038362155 0.03391493
-0.05603847 -0.057603776 -0.024059951 0.1136911 -0.0668644 -0.028737437 -0.0093568275 0.024641411
0.063635886 0.062235575 0.15980476 -0.032250833 0.08428153 0.019986976 -0.040256772 -0.08460642
-0.06484878 -0.003450528 0.07350189 -0.010057325 0.0033001401 0.026922442 -0.1604915 -0.026945073
-0.033945132 0.07826463 0.0920127 -0.15947078 -0.028346613 0.1254064 0.06533757 0.11795129
0.040012173 -0.0699206 0.0971635 0.07708703 -0.012137948 0.060420636 -0.018769778 -0.08056278
-0.08962519 0.028215816 -0.03881006 -0.017250305 0.12883957 -0.016129566 -0.034895524 0.12684265
0.010184221 0.08004326 -0.021679085 0.026044924 0.08200895 0.022791892 0.15080555 0.12727281
0.13323717 0.10722315 0.010209534 -0.0008437107 -0.06587916 -0.04635486 -0.009606569 -0.069492154
-0.04535988 0.028878542 0.124173656 0.0038381866 -0.05326164 -0.1107873 -0.012534686 -0.08809362
0.03578829 -0.054780707 0.119353466 -0.14256941 -0.014916953 -0.042713374 0.08466311 -0.009766023
-0.059222985 0.04672097 -0.06798024 0.02827872 0.0016952198 -0.08954995 -0.07650542 -0.03751273
0.03115329 -0.15786657 -0.0114687225 -0.08601594 0.12412545 -0.056917623 0.113944344 -0.046856437
-0.003530731 -0.07259877 0.012274994 0.025296213 0.024398409 0.08858351 -0.054742046 -0.1307595
-0.035054564 0.043153413 0.112842254 -0.0257352 0.09743457 -0.075404875 0.11994173 0.09488797
-0.069138944 -0.090833806 -0.021926766 -0.054243904 0.14323048 0.0671552 -0.04526941 0.07003233
-0.1374779 -0.09033803 -0.02301714 -0.033758424 0.041115407 0.0020906792 0.051757194 -0.083254285
0.061510593 -0.04062176 -0.091613226 -0.06620031 -0.10211877 -0.02509461 -0.003209654 0.007968762
-0.03538082 0.14258176 -0.14631332 0.06518841 0.024046617 -0.03335148 0.03668782 0.09771553
0.13225475 0.028757732 -0.010505719 -0.124598764 0.053018678 -0.09889461 -0.03878673 0.024184927
0.0361995 0.046196077 0.03754705 0.081226334 0.013260616 -0.030144308 0.015570144 0.07268126

lstm.bias_ih_l0 f4 [256]
00000000: fd90 f63d 1ae8 86bb f891 6f3d 2734 9bbd
00000010: 19af fc3c 7f83 8dbd 3014 4a3d afbc f5bd
00000020: 59cd 82bd 918e 9d3d b1a4 88bd d3c7 a9bd
00000030: b92c d53d c7f5 d13d 0a79 b9bc d52a e43d
00000040: 5da4 bf3b 6693 223e 2e36 47bd 4883 40bc
00000050: d2f5 643d 7fc0 9fbc 9f3e 1dbd 5d8d 223c
00000060: 628c b4bd b10a a43b ab1a d7bd 9091 af3c
00000070: a200 b43d dfaf 843d c5ca 5abd eac8 78bd
00000080: d0c7 b4bc ee6b ae3d 5d1f 31bd a643 e63d
00000090: e024 8ebd 377b 3e3d 2a96 a8bd 5a00 8bbd
000000a0: 14f0 1fbd 2adf a5ba f163 f0bb 59d2 923c
000000b0: 12a1 b93d ba41 9dbd 6280 253d 1b0a 71bd
000000c0: 4321 4abd a396 a53d 5027 593c fb09 ef3d
000000d0: b785 bbbd 9a13 49bd a72f a53d 348a e33d
000000e0: 2343 273d c041 9b3d 2220 9fbd f7f4 1a3d
000000f0: 859a 0f3d 90d4 653d 3975 a43c b832 143e
00000100: 94fc 9b3d 39fe 73bd a883 d0bd 0ad4 cc3c
00000110: c6d8 cb3d 71bd ac3d 713f 0d3c a381 a8bc
00000120: 4af8 a53d 262f 52bc dead f53d 7b57 ac3d
00000130: 7f1b 95bc 69e6 ba3d 0be5 35bc 025b 113e
00000140: d57e da3d 003f a9bd 334f 8bbb e666 abbd
00000150: c8df 213c 87eb bd3c 4d75 1cbc 5c7a 323d
00000160: 6916 ab3b 2e72 4dbd 3bfe d93d d880 d0bc
00000170: 2b46 123e 9460 973d 3a61 933d 957c ad3d
00000180: cad2 e33d 3a13 a03d 8aaf ccbd 3e85 82bd
00000190: f325 99bc 6b23 92bb 3ebb 483d ad1d 45bd
000001a0: 205d 113e d05f c03d f2b8 df3d 5280 573d
000001b0: 56a3 d8bc 79ad da3d 2a7c 80bd 8ffb b0bd
000001c0: ca7e 023e e120 a6bd 84e0 263c 2343 083e
000001d0: f61c 3e3d 9d0f 1b3e 8bb0 a13d 50a2 83bd
000001e0: 1529 823d 07e7 13bc 814e c43c ddbc 003d
000001f0: 7c12 ad3c 6e27 3ebd f571 84bd 54ad 66bd
00000200: 90a8 af3d 0aea 123d d468 8e3d fb0a c23d
00000210: d457 d43d 3447 aabd 8ff7 4a3b eefd 73bd
00000220: fa8d 08be 2a45 7b3d e7c7 e43d dc58 b73d
00000230: 6a14 8d3d 026f c7bc 7424 6a3d d221 f43c
00000240: 64ff dbbd 4291 e5bd f08f 753c 5dfe bdbd
00000250: 7b7a 993d 61f8 6ebb a4b6 a3bd c153 b7bd
00000260: af08 3bbd 4d0b e2bd 8e6e 7cbd eb36 c93d
00000270: 6a54 fdbd 9f4e 9cbd 9cae 963d c1d1 5bbd
00000280: 592c 7d3d b07e 253d e7ff fd3c 1190 9a3d
00000290: 3416 ecbd 371f 043e 336c a9bd a98f 143e
000002a0: 80d7 c0bd 8399 8e3d 536c 9c3d a6c4 18bd
000002b0: 9933 d03c 5333 d7bc 13f2 6abb 85fe e0bd
000002c0: 848e 673d dbc1 003d 07ef cfbd 833e 8c3c
000002d0: f84c 933d 46f2 94bd bd6d 8cbc 1bc5 bb3d
000002e0: 3544 8c3d c86b 68bc 4c1d 53bd 1727 b6bc
000002f0: 8da2 cb3d 25a0 db3d 4f7a 16bd 6e97 023e
00000300: 6548 dc3d 7992 9b3c 77ad 423c e994 66bd
00000310: 6e96 513b 8ff2 e53c 8d61 b1bd e087 98bd
00000320: 3b36 0b3e 5e47 5cbd ffdc ed3c 8a1c b9bd
00000330: c606 593b 629b 173e 3e4d 7bbc 4967 96bd
00000340: 4783 bf3c ecdc 33bd db50 043e 3a46 9f3c
00000350: d83a aabd aec3 113e 1a87 de3d 859b eb3d
00000360: 6ff6 993b b899 32bd a62f 0ebd 6d7f c5bd
00000370: 823b c9bd 9ce2 423d 43ce 93bd 1758 7abd
00000380: 0555 fd3d b26b 81bc 50c4 75bd 9f1c 55bd
00000390: 0685 eebc e401 953d 6649 613c 71ed 8b3d
000003a0: b673 b1bd 04ff ec3d 4afa d03d 2801 d4bd
000003b0: f8a5 113e 8844 133e b71c 6f3d 8858 753d
000003c0: 8acb 263d b726 033e 12ee f73c 054a a43c
000003d0: 5dde a13d e60c a63d ec2e 423b 48ea e7bc
000003e0: 0dce aabd 90cf 593c 6612 b33d 96d8 57bd
000003f0: 2d94 033e 8090 9cbd 2a10 693c 60b5 c83c
0.12039373 -0.004117024 0.058488816 -0.07578307 0.030845212 -0.069098465 0.04933566 -0.11998879
-0.06386823 0.07693208 -0.066720374 -0.082900666 0.10408921 0.102519564 -0.022640724 0.11140982
0.005848451 0.1587654 -0.048635654 -0.01175005 0.055898495 -0.019500969 -0.0383898 0.009921399
-0.088158384 0.0050061573 -0.105031334 0.021431714 0.08789183 0.06478857 -0.053416032 -0.06073848
-0.022067934 0.0851668 -0.0432428 0.11243372 -0.06940627 0.046504226 -0.082317665 -0.067871764
-0.039047316 -0.0012655009 -0.0073361327 0.017922567 0.09063925 -0.07678552 0.04040564 -0.058847528
-0.049348127 0.08085372 0.013254002 0.116718255 -0.091563635 -0.04909096 0.080657296 0.111103445
0.04083551 0.075809 -0.07769801 0.037831273 0.03505947 0.05611092 0.020075427 0.14472473
0.07616535 -0.059568617 -0.101813614 0.025003452 0.099534556 0.084345706 0.008621083 -0.020569628
0.08103998 -0.012828624 0.11996053 0.08415123 -0.018201588 0.091259785 -0.011101971 0.14194873
0.106687225 -0.082639694 -0.0042513846 -0.08369236 0.009880014 0.023183597 -0.009549451 0.043573722
0.0052211774 -0.05015772 0.10644194 -0.025452062 0.1428458 0.07391468 0.07196279 0.08471028
0.11124189 0.07816167 -0.09994419 -0.0637307 -0.018694853 -0.0044597886 0.049006693 -0.048124004
0.1419568 0.09393275 0.109239474 0.05261261 -0.026445072 0.106776185 -0.062736824 -0.08641731
0.12743679 -0.0811174 0.010185365 0.1330686 0.046414338 0.15142675 0.07895001 -0.06427443
0.06355492 -0.009027249 0.023963215 0.031430114 0.021126978 -0.04642432 -0.06467048 -0.056317642
0.085770726 0.03586773 0.06953588 0.094747506 0.103683144 -0.08314362 0.003097031 -0.059568338
-0.1333541 0.061345257 0.11170941 0.089524955 0.06888659 -0.024344925 0.05716367 0.029801283
-0.10742071 -0.11209346 0.014987931 -0.092770316 0.074940644 -0.0036463963 -0.0799382 -0.08951522
-0.04566258 -0.11037312 -0.06162887 0.09824928 -0.12369616 -0.07632183 0.07357523 -0.053666834
0.06180987 0.04040402 0.031005813 0.0754701 -0.115276724 0.12902533 -0.082725905 0.14507927
-0.09416103 0.06962874 0.07637849 -0.037296914 0.025415229 -0.02626959 -0.0035849854 -0.10986046
0.056532398 0.031434875 -0.10153013 0.017119652 0.07192415 -0.072727725 -0.017142171 0.09168454
0.06848947 -0.014185853 -0.05154161 -0.022235436 0.099431135 0.107239045 -0.036737736 0.12753078
0.10755996 0.018990742 0.011882178 -0.056294356 0.0031980532 0.028069763 -0.086611845 -0.07447791
0.13594906 -0.053779 0.029036043 -0.090386465 0.003311561 0.14805368 -0.01533824 -0.07343919
0.023378028 -0.04391186 0.12921469 0.019442666 -0.08312005 0.14234802 0.10865612 0.11504272
0.0046985666 -0.04360363 -0.03471341 -0.09643445 -0.09825803 0.047579393 -0.07217076 -0.061119165
0.12369732 -0.015798423 -0.06000167 -0.05202925 -0.029116165 0.07275751 0.01375041 0.06832398
-0.08664648 0.11572078 0.10203989 -0.10351783 0.14223468 0.14381611 0.058376994 0.059898883
0.040721454 0.12807737 0.030264888 0.020054827 0.079037406 0.08107929 0.0029630018 -0.028309956
-0.08340082 0.013294116 0.087437436 -0.052696787 0.12849493 -0.07644749 0.014225045 0.024500549

lstm.bias_hh_l0 f4 [256]
00000000: 5ca1 483d 41f7 9dbd 3613 40bd b55e f23d
00000010: 2bfd 063d a6e8 b1bd 96cc 4abd 5bf9 693d
00000020: faf9 febc 539f ae3c 30c4 fb3d 32c3 60bd
00000030: afe7 c6bc e4e1 c73c 0f42 1f3e 512b 183e
00000040: 9716 8bbd 446e 9b3d faea 953c 7912 4a3d
00000050: fa0e 1c3e c4ce 123d b9b1 6b3d f5a8 afbd
00000060: 3e09 c3bd 4f0e 063d e21c 573d c81d d33d
00000070: 4916 86bd dfd4 183d 5842 9ebd 94dc de3c
00000080: 71c4 aebd 1ece c23c f029 c43d 35ba 593d
00000090: 3a97 a13c df30 203e 7ff0 20b9 32db 41bc
000000a0: 5d52 52bd 09de 1e3c eed7 133e e526 b9bb
000000b0: 8768 b23d 8999 d43d fc3b 173e 8ee6 b6bc
000000c0: a722 df3c 3180 e33d a0c4 1f3c 647e 293d
000000d0: 3858 f83b 2f6f ca3d 3183 183d 170a fc3d
000000e0: 9baa 033d 8a08 42bd 0138 753d 6d8f 92bd
000000f0: c0ef fc3d 2b30 773d 99d8 b3bd d45a 50bd
00000100: b619 9bbd 3301 903c 321a a9bd 9243 ed3d
00000110: 39a8 e3bc 6cad 06be 4433 67bc 738d 563d
00000120: 1027 063c 997b 5abd 624c f63d 50cb 68bd
00000130: 4e40 0b3e 47ed 53bd 08f0 163d 8fb3 163c
00000140: 2eab 82bd b9c6 8abc fa5a babd 945a bd3d
00000150: dc3e 6cbc b76e a4bd 330b f83d 6397 943c
00000160: 169b 79bd 91d5 e53d 38f2 b23d 595b 7f3d
00000170: 0b41 81bd 31be 43bc dc82 1d3e e7ac fc3c
00000180: 5195 9a3d 74df 9cbd 9142 b6bc cdf6 c23d
00000190: cf4d 663d f2d5 29bd e8e8 65bd ceae 973c
000001a0: aa0a a6bc d19e 9fbd 2ca3 803d 43d0 0dbd
000001b0: 23fb aa3c c3b9 473d 1358 283d 21fb c83c
000001c0: f3c4 e1bd 8bd1 dc3d 0726 113e 858a 1d3e
000001d0: 274b 57bd 5a93 633d 3c2a 583d 8b3a 0e3e
000001e0: c388 a93c c3eb 743d 300e a4bd 4161 acbd
000001f0: d1c2 ed3d 4214 7ebd 6215 07bd 35be 66bd
00000200: 7763 df3c 4e7d dc3d 6fe0 0b3e 176e ad3d
00000210: f100 debc 2eca cbbd 84b2 04be f92c c7bd
00000220: efc5 c6bc 06f8 bb3c 670c d0bd 7542 e13c
00000230: 81d5 f2bc d77c 9a3d 9e11 f43c 7faf 3c3d
00000240: c674 c4bb b463 c23d 5f6f 84bd da16 c7bc
00000250: 294a 83bc 1172 b83d 1a67 b83d a435 8b3d
00000260: 228b 2fbd 706d 163d 1ffa a4bc d80a aebd
00000270: a54b fabc 5d3e 3ebd 3a14 d9bc c384 18bd
00000280: 5b52 0fbd 2721 033d 5f8d 8439 fd65 903d
00000290: dd26 2d3d bf56 6fba 423a fbbd e9d7 3c3d
000002a0: e0a6 b9bd 37c6 a9bc a2ee f4bc b155 643d
000002b0: a1a7 443d 0adc 0c3a 14ad d6bc 4553 9abd
000002c0: 0ed5 ce3d b688 0abb a2e4 0fbe bf69 87bd
000002d0: 5e75 953d 5f06 d5bb 1de1 8abd 9794 9f3d
000002e0: 1511 b0bc 1df7 563c b85b 903d 3e96 bbbd
000002f0: d0cd 8abb a869 5ebd f1c1 6a3d 36e8 a43b
00000300: 9494 a93d 88ca 0c3e 6439 e73c 6292 de3d
00000310: 359a fdbc 6058 3fbd d5b6 09bd 4c54 9ebd
00000320: ab70 0a3e aeff b43d 5c50 3fbd 6078 133e
00000330: 360f adbc 6e66 3f3d d774 ba3d d334 113e
00000340: f2f3 d4bb b5bb b8bd 13d0 f83d 7080 e2bb
00000350: 0d41 4f3d 861f adba 2584 80bc fc92 0cbc
00000360: 7fd4 a83d e04c abbd 2187 ae3c 5eba c9bd
00000370: d242 c23d 0507 ce3c 8a98 f83d 8f3b 78bd
00000380: 35f5 e43c 8572 fa3d 1a25 a9bd d0b0 663c
00000390: e309 07bd c806 1b3e 0eb2 fe3d 8bd5 abbb
000003a0: f674 963d 7e47 ea3d cd16 1e3e 35d8 d6bd
000003b0: 82a6 4339 c07d a6bd 6e68 1c3d 6e44 843d
000003c0: 7f30 b2bd d3ba abbd 3d6f 743a 69fc 42bd
000003d0: abdd a5bd b7e3 a9bd 3ca9 993d 68a3 203e
000003e0: 1a36 e33c 0d15 86bd f57b 39bd f5b2 043e
000003f0: be13 033e ece6 003e 5cd7 89bc b899 4fbd
0.04898201 -0.077131756 -0.04689332 0.1183447 0.032956284 -0.08686952 -0.049511515 0.05712257
-0.031125057 0.021316206 0.12293279 -0.054873653 -0.024280397 0.024399705 0.15552543 0.14860274
-0.06791418 0.07589391 0.018300522 0.049334023 0.15240088 0.03584172 0.057542536 -0.08577148
-0.09523247 0.03272849 0.05251778 0.10308415 -0.06547219 0.037312385 -0.07727498 0.02720479
-0.08533562 0.023779925 0.095783114 0.053156096 0.01972543 0.15643643 -0.00015348381 -0.011832045
-0.05134808 0.009696492 0.1443784 -0.0056503885 0.08711343 0.10380847 0.14768976 -0.022326734
0.027238203 0.11108435 0.009751469 0.0413803 0.007578876 0.09884488 0.03723449 0.12306612
0.032145124 -0.047371425 0.059867863 -0.071562625 0.12350416 0.06034867 -0.08781547 -0.05086787
-0.07573263 0.017578697 -0.082569495 0.11585154 -0.027790176 -0.13152093 -0.014111344 0.05238099
0.008188024 -0.05334053 0.120262876 -0.05683452 0.13598749 -0.051739957 0.036850005 0.009198084
-0.06380306 -0.016940461 -0.09099384 0.09245792 -0.014419284 -0.0802893 0.12111511 0.018138593
-0.060938917 0.11222375 0.08737606 0.062342975 -0.06311234 -0.011947201 0.1538195 0.030844165
0.07548011 -0.07659808 -0.022248538 0.0951973 0.056226548 -0.0414638 -0.05613032 0.01851597
-0.020268757 -0.07793964 0.062811226 -0.034622442 0.020871704 0.04876114 0.04109962 0.02453381
-0.11023893 0.10782155 0.14174663 0.15384872 -0.052561905 0.055560447 0.052774653 0.1388952
0.020695096 0.059795152 -0.080105186 -0.08416987 0.11609424 -0.062031038 -0.032979377 -0.05633374
0.027269108 0.107660875 0.13659833 0.084682636 -0.027100058 -0.09950672 -0.12958723 -0.09725375
-0.024264304 0.022945415 -0.101586156 0.02749751 -0.029642822 0.075433426 0.029793557 0.046065804
-0.005995366 0.09491673 -0.06466555 -0.024302889 -0.016026573 0.090061314 0.0900404 0.067973405
-0.042857297 0.03672546 -0.020138798 -0.08498162 -0.030553648 -0.046446193 -0.026498903 -0.037235986
-0.03499065 0.03201404 0.00025282332 0.07050703 0.04227339 -0.00091300526 -0.12266971 0.046104345
-0.09065032 -0.020724399 -0.029898945 0.055745784 0.048011426 0.00053733645 -0.026205577 -0.07535414
0.10099231 -0.0021138615 -0.1405206 -0.06611966 0.07297777 -0.0065010036 -0.06781218 0.07792013
-0.02149252 0.01312044 0.07048744 -0.09159516 -0.0042359605 -0.05429998 0.057313863 0.0050325645
0.08280292 0.13749135 0.028225608 0.10867764 -0.03095732 -0.04671514 -0.033621628 -0.07730922
0.13519542 0.088378295 -0.046707496 0.14401388 -0.021125417 0.046728544 0.09104317 0.14180307
-0.006498807 -0.09020177 0.12149062 -0.0069122836 0.050599147 -0.0013208247 -0.015688011 -0.008579966
0.082436554 -0.08364272 0.021304669 -0.0985 0.09485401 0.025149832 0.121384695 -0.060603675
0.027948955 0.12228874 -0.0825903 0.014080241 -0.032968413 0.15139306 0.12436305 -0.005243962
0.07346527 0.11439417 0.15438385 -0.10490457 0.00018658678 -0.08129454 0.03818553 0.064583644
-0.08700656 -0.08385243 0.0009324437 -0.047604 -0.080989204 -0.08295386 0.07502982 0.15687335
0.027735759 -0.06546984 -0.04528423 0.12958892 0.128005 0.1258809 -0.016826324 -0.050683707

lstm.weight_ih_l1 f4 [256, 64]
00000000: fdb8 e0bc 0941 153d a65e d1bc 0cdd 45bd
00000010: 3de0 09bc aa09 a5bd e0a9 cebc 7fca 503d
00000020: 365b 533d 8538 763d 9b12 433d 8107 2c3d
00000030: 4408 3dbd 96c1 de3d 85d7 80bc 440e 07be
00000040: 2a3d 3bbd 5627 b83d 680e f3ba 4de9 923a
00000050: 5a2e 993c ec17 bfbd c0a7 e4bd 4de4 93bd
00000060: 37da 0a3d 9d33 15be cecd 513a 0d3d 27bd
00000070: 430e cfbd 4258 ad3c fe36 69bd 6e31 0cbc
00000080: 7002 a7bd b3c5 cabc b76f 01bd edfe fabc
00000090: 02e5 9cbd 3b35 00bc 990f a03d fb63 a43d
000000a0: 0adf 06be ee75 5d3c d676 f4bd 46fa a23d
000000b0: dfdc 6abd dde6 12bd b1f0 0fbc ac5c 853d
000000c0: f2da 453d 1ba2 ef3d db82 b73d 63c6 dbbd
000000d0: e473 0c3e cb8d b6bd 6739 88bd aa4a f93d
000000e0: f450 f73d 6a38 1dbd cd08 e5bc 35c0 1dbe
000000f0: 6bcd c83d fb5a dd3d 5fa1 4e3d 497e 25bc
00000100: 790c c83d 366e 3d3d de2f 7dbd bf11 01bd
00000110: 43da 003e ddfc 993c 96bb 573d 2b22 e6bd
00000120: 5ffd 8dbd 575d e3bb afc4 16be a038 50bc
00000130: b0a3 b7bd 78d2 8dbd baac 10bc dba6 2b3d
00000140: ccce a43d d595 13be d476 f8bd ab57 363b
00000150: 2013 093d c1e4 afbd f5df c6bd ec33 323d
00000160: 52a1 5b3d 3f80 743c e67a cdbd 99cd f73c
00000170: 147f 053d 1ef9 5f3d 752e 2a3c 1233 7e3c
00000180: 1e4e b4bd 2cac b0bc 6533 0f3d 7cde 323d
00000190: 20e7 abbd 1566 2fbd 4f8c a13d ae87 39bd
000001a0: 1338 1d3d f665 acbd 8ba7 88bd b595 453d
000001b0: 0347 bbbc 7723 94bc d739 b93d 328b f8bd
000001c0: 8551 113d 3c94 243b b565 aebd 1560 d63d
000001d0: 5b13 ac3c 7327 a43d 2982 5cbd daa3 473d
000001e0: a219 ed3d a6f7 36bd 4c7b c33d 0d6d cf3d
000001f0: f792 de3c bbd1 403d 1cf3 ec3d 72ee 473b
00000200: 5f9a a7bd 5be7 953c 9a3f c53d 9684 dabc
00000210: a457 85bd d5c3 6b3d 863d d2bd ae88 92bd
00000220: f3a0 01be cc88 143b c03e 80bd 3981 083e
00000230: fe6f feba a72b 0c3e fde2 09be 917f 9a3d
00000240: ca57 9abd 9602 0b3e f673 30bd 5130 e6bc
00000250: 5bfc 93bc 157c 643d 667e 93bd d553 8bbb
00000260: b07f 48bd b644 a53d 9d8d dd3c 38fa 823d
00000270: ea8f e03d d13a 77bd fd3f e4bc d2b1 6d3d
00000280: 1680 c5bc 9b3f aa3d 2454 03bd dd0e ae3d
00000290: 4f39 38bd 123b fdbd 58da 70bd 62d3 11bd
000002a0: 353b 823d d881 8abd fa4c fb3d 440d 42ba
000002b0: bd9e 3f3c 1ffd 8ebd ba23 5abd e536 13be
000002c0: dc60 43bc 5914 8fbd aa30 52bd a0dd 14bd
000002d0: d0b3 fbbc 6073 f93d 0d89 963d 8c0c e33b
000002e0: d358 54bd bca7 533d 5fb1 343d 5cab 3a3c
000002f0: 3b64 bbbc 349f aebd 2c58 a53d 1be8 a6bd
00000300: 0a98 703c c2f4 1bbd 9880 963d 3432 d83c
00000310: ed8b 7abc 246a 44bd 9005 98bd 6a7b 9ebc
00000320: 551a bf3c 1405 823d a52c 92bd 5b3f c1bd
00000330: 3f00 86bd 2168 f63d a090 66bd fb7c 163d
00000340: ed60 543d 63c1 c83d 53d3 bbbd 734e 5a3d
00000350: 55d4 bf3d fe79 143c 8322 243c e948 25bd
00000360: 68ea 50bd 55be 90bc d043 813c 30eb e5bc
00000370: d628 7dbd 60e9 f2bd 3027 933d 21c9 773d
00000380: f195 013e a690 613d 69de 173b d383 f8bc
00000390: fa63 13bd 4ce3 0b3e 406f 3eb7 08e8 9bbd
000003a0: 1882 373d 44d6 b23d a200 813d 4005 863d
000003b0: 0d26 913b c302 a6bd d2d4 a43d 5e9b 66bb
000003c0: 9f1e 133e 24d3 763d 6d88 ecbd c72d 17bd
000003d0: 0bb8 babc d080 3c3c 3878 933d c856 8bbd
000003e0: 3ad0 3a3d 6bfe d3bd 514d 9cbd 9312 813d
000003f0: 0c50 ba3d a575 163e 26c7 68bd 7098 1f3e
-0.02743196 0.036438975 -0.025557827 -0.04830651 -0.008415279 -0.08058484 -0.025227487 0.050974365
0.051600657 0.060112495 0.047625165 0.041999344 -0.04615046 0.10876767 -0.015727768 -0.13189036
-0.045712627 0.08991878 -0.0018543722 0.0011208445 0.01869886 -0.093307346 -0.11164808 -0.07221279
0.033899512 -0.1457047 0.00080033846 -0.040829707 -0.10110142 0.021160249 -0.05693721 -0.008556707
-0.08154762 -0.024752473 -0.03160068 -0.030639136 -0.07660867 -0.007825191 0.07815475 0.08026882
-0.1317102 0.013516886 -0.11936729 0.07957892 -0.057339545 -0.0358647 -0.008785413 0.065118164
0.048304506 0.11700841 0.089605056 -0.10731199 0.13716084 -0.089137636 -0.06651574 0.12172444
0.120759875 -0.03838388 -0.027958298 -0.15405352 0.09804805 0.10808369 0.050446864 -0.0101009095
0.09768004 0.046247683 -0.061813228 -0.031511065 0.1258326 0.018797332 0.05266913 -0.11236986
-0.06933092 -0.006938617 -0.14723466 -0.012708813 -0.08966768 -0.06924909 -0.008830244 0.041907173
0.08047256 -0.14412625 -0.1213204 0.002782325 0.033465505 -0.08588553 -0.09710685 0.043506548
0.053620644 0.014923154 -0.10033207 0.030249404 0.032591894 0.054680936 0.010387053 0.015515106
-0.08803962 -0.021566473 0.034961123 0.04366921 -0.08393693 -0.042821962 0.0788809 -0.04529541
0.038383555 -0.08417885 -0.06672581 0.048238475 -0.02286101 -0.018083317 0.09044235 -0.121359244
0.035478134 0.0025112769 -0.08515493 0.10467545 0.021005323 0.08015337 -0.053835068 0.048740245
0.11577155 -0.04466977 0.095450014 0.10128222 0.027169688 0.047075015 0.11569807 0.0030507115
-0.08183741 0.018298795 0.09631272 -0.02667455 -0.06510857 0.057559807 -0.10265641 -0.07154976
-0.12659054 0.0022664545 -0.062619686 0.13330545 -0.0019412038 0.13688527 -0.13465495 0.075438626
-0.07536276 0.13575205 -0.04307934 -0.028099211 -0.018064668 0.055782396 -0.07201843 -0.004251937
-0.048949897 0.08069746 0.027045066 0.06395382 0.109649494 -0.060358826 -0.027862543 0.05803091
-0.024108928 0.08312913 -0.032062665 0.08498929 -0.04497653 -0.123647824 -0.05880198 -0.03560198
0.06358949 -0.06763047 0.122705415 -0.00074024894 0.011695561 -0.06981873 -0.053256728 -0.1437641
-0.011924949 -0.06986303 -0.05131594 -0.03634417 -0.03072539 0.12180209 0.07350359 0.006928986
-0.051842522 0.051673636 0.044114467 0.011393394 -0.022874942 -0.08526459 0.08073458 -0.08149739
0.014684686 -0.038075216 0.07348746 0.026391126 -0.01529215 -0.047952786 -0.07422936 -0.019345958
0.023327986 0.06348625 -0.071374215 -0.09435912 -0.06543016 0.1203158 -0.05629027 0.036740284
0.051850248 0.098025106 -0.09171166 0.05329747 0.09366671 0.009062288 0.010017994 -0.040352736
-0.051004797 -0.017668882 0.015779406 -0.028066248 -0.061806522 -0.11860919 0.07185209 0.060494546
0.12654854 0.055069588 0.0023173338 -0.030336296 -0.035984017 0.13660926 -1.1350785e-05 -0.07612616
0.0448018 0.08732274 0.06298949 0.0654397 0.004429585 -0.081059955 0.08048405 -0.003518782
0.1436715 0.060259953 -0.11549459 -0.03690889 -0.022792837 0.011505321 0.07200664 -0.068036616
0.045608737 -0.10351261 -0.076319344 0.06302371 0.09097299 0.14693315 -0.056830548 0.15585494

lstm.weight_hh_l1 f4 [256, 64]
00000000: f325 dfbd c065 f1bc c579 95bd 3912 213d
00000010: c83a 13bc f8eb 053e 54a5 e03d a8f6 b53d
00000020: 197b a4bd 70fb a9bb 3bdf 543d 0dbd 853c
00000030: 8821 8e3d 9dc3 f63d fd10 253d 84a9 753c
00000040: c944 52bd 2960 173d 021c f9bd 85dc 1c3d
00000050: f344 aabd a7b7 b33d 6187 e5bd 6aaa ad3c
00000060: 966f 863d e62b 083d a11c bfbd bfb8 903d
00000070: b967 4d3d 80bd 963d 8576 a63d 5860 e9bd
00000080: 6775 3dbd 3a19 cfbb 3ef3 a83d 90fe 65bd
00000090: 2b33 413b 4a77 053e 982d 63bd 9af6 51bd
000000a0: b28d 7d3c 740d b2bd 4f76 a73d bdb3 b2bd
000000b0: e89d 05bd 4ea5 7cbc 75a7 d6bc 3877 99bd
000000c0: 79cf 2bbd e1d2 943d 71e9 c23d 1f8b 83bd
000000d0: 7ce3 9abd 1865 8e3d 6006 63bc 500c 68bd
000000e0: 10f5 18bd d474 28bd a5de 4bbd 74db 7ebd
000000f0: fcb7 a83d 7899 8bbd 8cc1 aa3d f458 80bd
00000100: 35c6 a53d c799 b33c 44d0 093e 2a57 303d
00000110: 632a e4bd 21e7 9b3d cfc9 963d cbac 37bd
00000120: ca8f 38bc a52d d8bd ed9b 573c 0450 a63d
00000130: efd7 99bd ad14 df3d 529a 56bd fdfb 113b
00000140: d90f e53d bf2d 09be d593 fe3c d0c2 86bd
00000150: 1a5d 943d 31ce 1f3d d8e2 813d da60 fcbc
00000160: d11a d0bc f7f9 a43d 66bb d43c d99b d53d
00000170: 4fa6 183e 43e3 fbbc 4316 9ebd 4615 73bd
00000180: 2098 9fbd 48da 48bd c187 36bd e19b d53d
00000190: f82c cdbd 8ab3 e13d 1afb de3b 58ab a1bd
000001a0: 16e6 a83c 0572 55bd 2d3f e9bd a5ab 4dbb
000001b0: e935 edbd 48b6 03be 1d14 02bd 78c4 9e3d
000001c0: d623 c53d 8c17 463c 3efa c7bd 5331 a0bb
000001d0: a9b0 bb3d 572a 37bd d610 0abe 82ff dcbc
000001e0: fa04 04be 5ee2 b43d e6a4 7c3d fe9e 98bd
000001f0: f8c9 cd3d bab4 48bd 2124 9bbd 6048 44bd
00000200: 13c9 473c f6e2 a83d 577f 9b3d 97bb 173d
00000210: 8993 4bbd aeb3 98bd 9abd 4a3c f1bb 0d3e
00000220: f7d5 8e3c 30e6 4dbd 6076 bebd c8fe c83d
00000230: 8165 10bd 347e 5dbd 8163 013e eea5 003d
00000240: d612 53bd 005b 23be 9de4 c8bc 8dfb 4b3d
00000250: ed00 f7bd c436 b43d 2aaf ebbc ef44 9dbd
00000260: 1a26 84bd 3e3a 003c a2e1 d63d f9dc 363c
00000270: 8890 cbbc c061 c23d 5726 553d 0bde 803d
00000280: bae2 cc3c cc0a 67bd 7add d0bd 8544 dd3d
00000290: aefe f83c 2238 033e 3732 a3bd 1ab6 10bd
000002a0: 747a 383d 2fc4 1e3d ee4b 26bd 665e 50bd
000002b0: f194 113e 7a3e 2bbd a83d 213e 87db 0fbe
000002c0: 7927 163e 2fba b7bd 0553 73bd fff0 e5bc
000002d0: 4c38 b2bc 1e22 bf3d 622f e4bc 786c 013d
000002e0: 1199 363d 4812 a9bd d47a 30bd 5681 fbbc
000002f0: 5b59 31bd 560c 26bb 05b5 693d d684 02be
00000300: 5cc5 b9bd 7845 81bc 0e4f 8dbd 9f0a c7bd
00000310: 5624 923d f83a 8f3c bfe9 9b3d bbf7 b4bc
00000320: bb91 abbd dbf2 11be 5d83 e43b cd64 d5bc
00000330: 81d5 c13d 32b6 a63d 37f0 8e3d 8046 45bd
00000340: efe1 d83b fc75 15be bd19 973d ecbc 3bbd
00000350: 4cc8 18bd 579f f63d d2b9 80bc 5fbd 98bd
00000360: 9788 efbd ae77 b1bd 848c a63d 0748 4dbd
00000370: b441 80b9 6b96 70bd 7cff 96bd b6ec 833b
00000380: a232 a6ba b027 25bd 02c7 d4bc 6cd1 b6bd
00000390: 4492 e63c 5086 b63b 163a 603d 46f0 03bd
000003a0: 1654 53bd 37f8 9abc e738 b1bd 4b62 04bd
000003b0: 2636 4fbd 6696 943d e007 0b3e 7778 a7bd
000003c0: 812d cabd 489b 04be fb23 8f3d b754 22bd
000003d0: 6ba0 a0ba 134b c7bd 2568 9fbd 536e 4cbd
000003e0: ddaa 0c3e 7703 93bd 8cf0 d5bd fbb2 d2bc
000003f0: 42a2 c8bd 718b 30bd 3e2d 0d3d 9d69 c7bd
-0.1089591 -0.029467463 -0.07298616 0.03932402 -0.0089861825 0.13078296 0.10969034 0.088849366
-0.080312915 -0.0051874444 0.0519707 0.016325498 0.06939989 0.12049029 0.040299404 0.014994029
-0.05133513 0.03695694 -0.12163545 0.03829624 -0.08313932 0.08775263 -0.11207462 0.021199424
0.06564252 0.03324499 -0.093316324 0.070664875 0.050147746 0.07360363 0.081280746 -0.11395329
-0.04625454 -0.006320146 0.0824952 -0.056150973 0.0029479961 0.13033786 -0.055463403 -0.05126057
0.015475677 -0.08693972 0.081768624 -0.087256886 -0.032621294 -0.015420271 -0.026202897 -0.07493442
-0.04194591 0.072667845 0.09517182 -0.064230196 -0.075629205 0.06952876 -0.0138565 -0.056652367
-0.037343085 -0.04112704 -0.049772877 -0.062221006 0.08238217 -0.06816381 0.083376974 -0.062669665
0.080944456 0.021923913 0.13458353 0.043051876 -0.11140897 0.07612444 0.07362711 -0.044842523
-0.011264751 -0.10555581 0.013159734 0.081207305 -0.07511889 0.108926155 -0.052393265 0.002227544
0.11184663 -0.13396357 0.031076351 -0.06580126 0.0724432 0.039015 0.06342095 -0.030807901
-0.025403412 0.080554895 0.025968265 0.10430116 0.14907192 -0.030748015 -0.0771909 -0.05934646
-0.077926874 -0.049036294 -0.04456306 0.10430122 -0.10018343 0.110205725 0.006804836 -0.07894009
0.020617526 -0.05211069 -0.11389003 -0.0031382826 -0.11582548 -0.12862504 -0.031757463 0.07752317
0.09625976 0.012090575 -0.09764527 -0.0048886924 0.091645546 -0.044718113 -0.13482985 -0.026977304
-0.12892523 0.088322386 0.061680697 -0.074522 0.10048288 -0.04900048 -0.075752504 -0.047920585
0.012193936 0.08246414 0.075926475 0.037044134 -0.049701247 -0.07456146 0.012374306 0.13841225
0.01743601 -0.050268352 -0.09299922 0.09814221 -0.03525305 -0.054075435 0.12635614 0.031408243
-0.051531635 -0.15952682 -0.024523074 0.049800444 -0.120607235 0.08799508 -0.028770048 -0.07679164
-0.0645258 0.007826386 0.10492255 0.011161082 -0.024849191 0.094913006 0.052038517 0.06292351
0.025010455 -0.05640678 -0.10198493 0.10804085 0.030394878 0.12814382 -0.07968562 -0.035329916
0.045038655 0.038761314 -0.040599756 -0.050871275 0.14216973 -0.04180763 0.15746176 -0.14048587
0.14663495 -0.089710586 -0.059405345 -0.028069017 -0.02175536 0.09332679 -0.027854625 0.031597584
0.04457957 -0.0825544 -0.043085888 -0.03070132 -0.043298107 -0.0025336943 0.0570574 -0.12745985
-0.090708464 -0.015780196 -0.06899844 -0.09718823 0.07135837 0.017484173 0.07612943 -0.022090783
-0.08377405 -0.14252798 0.0069736675 -0.026049042 0.09464551 0.0814022 0.06979411 -0.048162937
0.0066187303 -0.14595789 0.07377956 -0.045834467 -0.037300393 0.120421104 -0.015713606 -0.07457995
-0.11695974 -0.08665405 0.0813227 -0.05011752 -0.00024463015 -0.0587372 -0.073729485 0.004026021
-0.0012679885 -0.040321052 -0.0259738 -0.08926663 0.028145917 0.0055702105 0.054742895 -0.032211564
-0.051593862 -0.018917186 -0.086534314 -0.032320302 -0.05058875 0.07255249 0.13577223 -0.08177274
-0.098719604 -0.1294986 0.069892846 -0.03963157 -0.001225484 -0.09731116 -0.07783536 -0.0499099
0.13737054 -0.07178395 -0.10446271 -0.02572011 -0.09796573 -0.04310173 0.034466974 -0.09736941

lstm.bias_ih_l1 f4 [256]
00000000: ea08 d83d a0d4 acbc ad35 0b3e 094c d2bd
00000010: 2e27 003d 7dbf 083e 90d0 d53b 5497 0e3d
00000020: a071 973d 1955 48bd 8dad 043d 2293 f93d
00000030: 6ad1 babd 8ba8 9bbd f1ae c93d c6f3 a03a
00000040: 7fae 92bd e0e4 b03c f5fa 583d 495d 4a3d
00000050: 39f0 c03c d79e 0c3e b689 b4bd a4fa 9e3c
00000060: fc28 703d 5faa 1bbd db37 b4bd 0e25 d53c
00000070: 7cc8 0fbd 8b8c f03d 40a0 82bd 389e c93d
00000080: 20dd 023e bb0c e93d 22af ef3d 6241 9d3d
00000090: 6aa0 0a3e 4a90 ad3a 875a dd3d 11f4 8b3d
000000a0: b801 c03d 989f 9c3c 0fd8 2cbc e79c d83d
000000b0: c132 6bbd 5a44 0a3e aa7a c03b 6320 9dbd
000000c0: 62c8 bf3d 8a2c ac3d dabe bb3d 1a9e 083e
000000d0: 8c5b c63d 7f43 fd3d 3db6 b6bc 3fa8 8d3d
000000e0: 6312 cabc f148 a13d 1511 1cbd 6d65 a23d
000000f0: 669f c63d 1b6a 003e b79a e0bd d3ef babd
00000100: eb1f 8abd 605f 013e 9172 023e 8b05 e33d
00000110: 1a00 a13d cd5c 94bd 662e c2bd d3a6 8e3d
00000120: 8c59 c03d 863c 473d 7bc3 df3b f07b 503c
00000130: fb77 b83d 2a40 dbbc e022 0f3e 94a2 5a3d
00000140: bc02 bcbd cad9 bfbd e272 503d ed23 fb3d
00000150: 8833 763d 85e3 173d cbc6 f6bd dfcd 1cbd
00000160: c382 253d 9a77 32bd 35d4 9ebc 162e 1fbd
00000170: b029 08bc 823a e03b ac67 b13c 3ebc b03c
00000180: b2ca 45bd 3566 a5bd c377 e63c f617 b53b
00000190: 9e20 30bb 8f27 71bd 47d7 153c 1b97 44bd
000001a0: f821 69bd 5b4a c43d 2cc5 53bd f8e2 0d3e
000001b0: aa96 f03d b44c 09bd 29f3 65bc cb16 ba3d
000001c0: c841 70bb cb34 22bc a7dd 013d c093 093e
000001d0: cb79 203e f126 913d 691f 863c 7293 c83d
000001e0: bace b43d 8930 e1bd 7d3b e83d 6a32 a4bd
000001f0: 72a2 c03d ef44 46bc b18d 8bbc 3d0a 9d3d
00000200: 5d0d 463d 71bc 923d 3d30 ab3d 6ede 5eb9
00000210: 98c7 5c3d 1daa ec3d a699 7cbd 32c1 023d
00000220: 2c5b 9bbc 507f eabc 742b e5bd 212c 093d
00000230: a7f4 d63d c2d5 d83c 9cb9 be3d 99fd f2bd
00000240: eeb9 5c3a 9585 edbd 7855 9c3d 9d1a 17bd
00000250: fa27 473d dbcf 4a3c 6a1c ac39 8bfe 8c3d
00000260: 3a1b 783d eb40 2dbd 0ead 2cbd 05c7 8ebd
00000270: 74c9 0f3c a3dd 60bd 76bd a43d 3257 2bbb
00000280: a4ff 44bc 3919 06be 3e9b bbbd 201d 473d
00000290: edae c53d 3c60 0dbd 0346 ce3c bd55 86bb
000002a0: bf49 fc3c 149b 53bd 39d6 ecbc 58e1 a2bd
000002b0: e70e b3bd c35e e6bd c637 77bc 0ed2 f9bd
000002c0: e230 b93d 1d7d 74bd dad3 663d 40b7 1a3d
000002d0: 36e4 29bc 8b38 62bc a26b 8fbd 58f5 da3d
000002e0: 0ab0 89bd 4ac1 04bd 307b 48bd e239 90bd
000002f0: 5be2 7bbd 9bf4 473d dd67 ca3b 3e14 d7bd
00000300: bb1b b23d bc64 ec3c bd3e b9bd e3ee 933d
00000310: a09a 943d 7075 0a3e c5f1 323d e6a4 09bd
00000320: 6782 a9bd d258 70bd 3149 71bd 4642 043d
00000330: 3cc2 debd 9805 5dbd 25d4 9dbb 81cb c1bd
00000340: 1484 25bd 6170 a7bd 9c2a 91bd 23fa 1f3e
00000350: 0a11 ef3d f78d 9b3d da91 c4bd 4be3 4ebd
00000360: 692f 6ebd 0fd0 073e 3b4c aabd b6fc 0d3e
00000370: a613 43bd 2455 fc3d 69a2 923d 276a 97bd
00000380: 3619 d03d 131d 133e 213c 563d 4254 8cbc
00000390: 0af3 473b 78d4 843c 77a3 d0bd 1637 543d
000003a0: c1a2 d43d 8046 2c3c 2f39 b73d ff28 30bd
000003b0: 4679 693d 4766 113e fd32 193e 17d4 d6bc
000003c0: 9beb 943d 76f6 cc3d a6b0 abbd fd60 003e
000003d0: 4119 583d 208e b1bd 8990 ee3d 2acb eebd
000003e0: 1b4c b8bb 2339 8ebd fa8c d9bb 05cb f83d
000003f0: 153b 77bc 770c abbd ed73 a83d ddb4 88bc
0.10548575 -0.021097481 0.13594694 -0.10268409 0.031287365 0.13354297 0.0065251067 0.034812286
0.07394719 -0.04890928 0.032392073 0.121862665 -0.09121974 -0.076005064 0.098478206 0.0012279681
-0.07162189 0.021593511 0.052973706 0.04940537 0.023552047 0.13732468 -0.08815329 0.019406624
0.058632836 -0.038004275 -0.08799716 0.026018646 -0.035103306 0.117455564 -0.063782215 0.09844631
0.12779665 0.11379381 0.11703326 0.076784864 0.13537756 0.0013241854 0.10808282 0.06833661
0.09375328 0.019119069 -0.010549559 0.10576802 -0.05742145 0.13502637 0.0058739977 -0.07672193
0.09364392 0.08406933 0.091672614 0.13341561 0.0968543 0.123663895 -0.022303695 0.06916856
-0.02466697 0.078752406 -0.03810223 0.07929502 0.096983716 0.12540476 -0.109670095 -0.09127774
-0.06744369 0.12634039 0.12739016 0.110850416 0.078613475 -0.07244263 -0.09481506 0.06965413
0.0939208 0.048641704 0.006828723 0.0127248615 0.090072595 -0.026763994 0.13978148 0.053377703
-0.09180209 -0.09367712 0.05089081 0.12262712 0.060107738 0.037082214 -0.120496355 -0.03828227
0.040407907 -0.043571092 -0.019388298 -0.03886231 -0.00831072 0.006842912 0.02165588 0.021574136
-0.04828901 -0.08076135 0.028133279 0.005526538 -0.002687491 -0.058875617 0.009145564 -0.047995668
-0.05691716 0.09584495 -0.05170171 0.13856113 0.11747487 -0.033520415 -0.014035025 0.09086379
-0.0036660302 -0.009900282 0.031705525 0.13435268 0.1567146 0.070875056 0.0163724 0.09793748
0.088284925 -0.109955855 0.113394715 -0.08017428 0.09405984 -0.012101396 -0.017035337 0.076679684
0.048352588 0.071648486 0.0835881 -0.00021254431 0.053901285 0.11555884 -0.061669968 0.031922527
-0.018964373 -0.02862516 -0.11189929 0.03348935 0.104958825 0.026469115 0.09312746 -0.11864776
0.00084200397 -0.115977444 0.07633489 -0.036890615 0.04862211 0.012378658 0.00032827567 0.06884488
0.06057284 -0.04229824 -0.042157225 -0.06971554 0.0087760575 -0.05489887 0.08043949 -0.0026144502
-0.01202384 -0.13095559 -0.091604695 0.04861176 0.09652505 -0.034515604 0.025179869 -0.0040995763
0.030796884 -0.051661566 -0.028910743 -0.07953137 -0.08743077 -0.11248543 -0.015088981 -0.12198268
0.09042527 -0.05968963 0.05635438 0.037772417 -0.010369351 -0.013807426 -0.07002951 0.10691327
-0.0672303 -0.032410897 -0.048945606 -0.0704229 -0.061495166 0.04881726 0.0061769322 -0.10501908
0.086966954 0.028856628 -0.090451695 0.072232984 0.07256055 0.13521361 0.0436876 -0.033604525
-0.082768254 -0.058678456 -0.05890769 0.032289766 -0.10876891 -0.053960413 -0.0048165494 -0.094626434
-0.040409163 -0.081757315 -0.07088205 0.15622763 0.11673172 0.07595437 -0.095981315 -0.050509732
-0.058150683 0.13262962 -0.08315321 0.13865933 -0.04762616 0.12320927 0.071598835 -0.07393294
0.101610586 0.1436656 0.052303437 -0.017130021 0.0030509853 0.016214594 -0.101874284 0.051810347
0.10382605 0.010514855 0.08946454 -0.043007847 0.05700042 0.14199172 0.14960857 -0.02622418
0.07271501 0.10007946 -0.083833024 0.12536998 0.05275846 -0.08669686 0.11648662 -0.11659844
-0.005624307 -0.06944492 -0.00663912 0.12148098 -0.01508977 -0.08351987 0.08225236 -0.016687805
