src/Backend-Information/Clod-weather_predict/Hebei_lstm_model.pth (torch, 208379 bytes, 11 tensors)

lstm.weight_ih_l0 f4 [256, 3]
0.10744363 -0.0091457665 -0.10580807 0.065216236 -0.06438071 0.054510135 -0.046660803 0.11037221
-0.025637852 -0.083354294 -0.03406218 -0.06767577 0.124462925 0.013025637 0.036270417 -0.07399305
0.06201839 0.055667836 -0.042144705 0.12283449 0.0046174414 -0.10951072 -0.08663407 0.016309597
0.0037004538 0.13172776 -0.063507654 -0.054482147 0.08920717 0.061715852 -0.04688928 0.16457392
-0.17459789 0.040549837 0.048601422 -0.09296439 0.08010106 -0.01690605 -0.11025608 -0.029360075
-0.05864805 -0.15879956 0.10955878 -0.09605497 0.07088989 -0.10668545 0.07065008 0.103755206
0.058851093 0.07538595 -0.0127803 0.13216412 0.063904054 -0.087715685 -0.07681077 0.040578503
0.13373594 -0.06275177 0.02806922 -0.107568644 0.07532518 -0.085336074 0.064092875 -0.046960708
-0.04568877 -0.10739986 -0.059428044 0.00094626646 -0.056589387 0.0016269225 -0.027315795 -0.088280454
0.15168066 -0.0031953275 -0.045848746 -0.080846846 0.10606819 0.0077572516 -0.08536432 -0.15307602
0.16221029 0.10849341 0.050600402 0.07645624 -0.0034567758 0.100011155 -0.14156862 -0.0909425
0.06566736 0.05899874 0.08496603 0.06734118 -0.025556907 -0.03235641 -0.027621876 -0.056355637
-0.048876803 0.04222894 -0.034710985 -0.040441174 -0.008794146 -0.06402899 0.0875877 -0.013174896
-0.024693433 -0.006216137 -0.062962346 -0.12760672 -0.15253125 -0.09758155 0.015653355 -0.0272798
-0.08387639 0.08848602 -0.07907971 -0.048081405 -0.025469448 -0.058401864 0.043911368 0.10751985
-0.060940072 -0.06138658 0.05104704 -0.024430666 0.13270871 -0.13616502 0.10289571 -0.079390705
-0.06189558 0.044561822 -0.0385188 -0.020569004 -0.03584705 0.00597852 0.00012878474 0.09028666
0.040325828 -0.042047407 -0.043685064 0.08561565 0.06966889 -0.0072938427 -0.043153126 0.02704067
-0.13658541 0.013912247 -0.01480087 0.07154496 -0.15685056 -0.08024277 -0.043203995 0.10854093
0.11004187 0.07712819 -0.08904575 -0.072243795 -0.08578983 -0.07143924 -0.021038525 0.07752278
0.05952709 0.096357495 -0.11829727 -0.07159341 0.05520832 -0.008227931 0.108324185 -0.023017
0.021808118 -0.01570327 0.06323232 0.08415927 -0.024456723 -0.04332829 -0.13237084 0.11979967
-0.15589626 0.04523775 0.02748532 -0.019160295 0.15642737 -0.1613609 0.07191453 -0.030600514
-0.030072575 -0.0004649781 -0.114527166 0.0835931 0.14578725 0.13237633 0.07353834 0.057388555
-0.04835665 0.052021153 -0.014283177 -0.043328784 -0.06500895 0.0052092685 0.02495738 0.11259488
-0.08610466 -0.07632746 -0.0045969402 -0.15652472 -0.029199205 0.13589121 -0.099847086 0.11064601
-0.053574663 -0.036825664 0.01101645 0.04864892 0.012547957 -0.028220698 -0.11393579 0.0377352
0.13911176 0.04569343 0.043632593 -0.10758079 -0.14472763 0.032172516 -0.064024486 0.027317088
-0.05202292 -0.09828228 -0.060135324 0.07308276 -0.06744635 0.07874285 -0.0972151 0.09210902
0.09930733 0.044790845 0.018084044 -0.021853846 -0.129524 0.01475352 -0.0612593 0.10638222
0.056213062 -0.04816396 0.07863507 0.12018763 -0.051709987 -0.07490992 0.019109542 0.11550864
-0.091264606 0.08348268 0.091011606 -0.009201802 0.009953723 -0.09718445 -0.0019133452 -0.04546449
00000000: 680b dc3d 20d8 15bc e7b1 d8bd 1790 853d
00000010: 09da 83bd 0546 5f3d 661f 3fbd d30a e23d
00000020: 7906 d2bc a8b5 aabd c984 0bbd 9899 8abd
00000030: 6be6 fe3d 7b69 553c 4a90 143d ab89 97bd
00000040: ff06 7e3d f503 643d ed9f 2cbd a690 fb3d
00000050: e84d 973b 2847 e0bd 346d b1bd b49b 853c
00000060: 5083 723b a4e3 063e 4d10 82bd ac28 5fbd
00000070: 40b2 b63d c3c9 7c3d f90e 40bd 1186 283e
00000080: cac9 32be 9617 263d 4912 473d 1d64 bebd
00000090: 060c a43d 8e7e 8abc f1cd e1bd 8a84 f0bc
000000a0: f038 70bd 5a9c 22be 5b60 e03d 78b8 c4bd
000000b0: b82e 913d e77d dabd fdb0 903d 9c7d d43d
000000c0: d80d 713d f363 9a3d 7764 51bc 0856 073e
000000d0: 21e0 823d 48a4 b3bd f74e 9dbd a535 263d
000000e0: 13f2 083e 0084 80bd 6cf1 e53c f34c dcbd
000000f0: 1744 9a3d aec4 aebd 2043 833d df59 40bd
00000100: 2624 3bbd 75f4 dbbd d26a 73bd de0e 783a
00000110: 46ca 67bd 763e d53a 60c5 dfbc 62cc b4bd
00000120: 2d52 1b3e b368 51bb e5cb 3bbd 0893 a5bd
00000130: 473a d93d 8b30 fe3b 7dd3 aebd f6bf 1cbe
00000140: 741a 263e cb31 de3d 5e42 4f3d 1795 9c3d
00000150: 138b 62bb a6d2 cc3d 5df7 10be 1040 babd
00000160: 9c7c 863d aaa8 713d ac02 ae3d 2cea 893d
00000170: b85c d1bc 2888 04bd 4647 e2bc 2bd5 66bd
00000180: 0b33 48bd 41f8 2c3d 1b2d 0ebd a5a5 25bd
00000190: 5215 10bc a221 83bd 2e61 b33d 85db 57bc
000001a0: e249 cabc bdb0 cbbb 67f2 80bd 56ab 02be
000001b0: 2731 1cbe d6d8 c7bd 773b 803c e379 dfbc
000001c0: 62c7 abbd 2938 b53d 8bf4 a1bd 02f1 44bd
000001d0: 4ea5 d0bc cb36 6fbd 68dc 333d 5e33 dc3d
000001e0: 4c9c 79bd 7f70 7bbd b316 513d d222 c8bc
000001f0: cbe4 073e d86e 0bbe fcba d23d 9897 a2bd
00000200: 3886 7dbd 7586 363d e4c5 1dbd 5480 a8bc
00000210: 5bd4 12bd 76e7 c33b 640a 0739 36e8 b83d
00000220: b22c 253d e739 2cbd 1cef 32bd 4257 af3d
00000230: 90ae 8e3d 3001 efbb 55c1 30bd 6584 dd3c
00000240: 0cdd 0bbe 31f0 633c 597f 72bc 2a86 923d
00000250: 6f9d 20be 5256 a4bd acf6 30bd b54a de3d
00000260: a25d e13d 62f5 9d3d 9e5d b6bd 8ef4 93bd
00000270: 94b2 afbd bc4e 92bd fc58 acbc 43c4 9e3d
00000280: aed2 733d 1457 c53d d745 f2bd 919f 92bd
00000290: 1f22 623d 72ce 06bc 12d9 dd3d 268e bcbc
000002a0: f0a6 b23c 25a4 80bc f27f 813d b25b ac3d
000002b0: 7759 c8bc 0179 31bd 398c 07be 8859 f53d
000002c0: 45a3 1fbe 384b 393d e528 e13c 0df6 9cbc
000002d0: 7f2e 203e cb3b 25be ed47 933d eead fabc
000002e0: c35a f6bc 4ec8 f3b9 388d eabd dc32 ab3d
000002f0: 4149 153e a98d 073e 459b 963d 4310 6b3d
00000300: 9f11 46bd 2214 553d fd03 6abc 8679 31bd
00000310: 6a23 85bd 83b2 aa3b 6b73 cc3c 2598 e63d
00000320: a457 b0bd 9251 9cbd eea1 96bb 0448 20be
00000330: 2c33 efbc 1127 0b3e a17c ccbd 609a e23d
00000340: 1b71 5bbd 82d6 16bd 577e 343c 1744 473d
00000350: f295 4d3c 182f e7bc 2b57 e9bd 3a90 1a3d
00000360: 5073 0e3e 0929 3b3d 17b8 323d 5153 dcbd
00000370: 7b33 14be 54c7 033d 451f 83bd 16c8 df3c
00000380: fc15 55bd 3848 c9bd 7550 76bd 6aac 953d
00000390: 5021 8abd ee43 a13d b618 c7bd a7a3 bc3d
000003a0: a461 cb3d 9b76 373d fd24 943c d606 b3bc
000003b0: f1a1 04be bfb8 713c 08eb 7abd ecde d93d
000003c0: ab3f 663d 9347 45bd 6c0b a13d ef24 f63d
000003d0: dacd 53bd 5f6a 99bd 9d8b 9c3c cb8f ec3d
000003e0: f0e8 babd f8f8 aa3d 4b64 ba3d 28c3 16bc
000003f0: f114 233c a408 c7bd 36c9 faba f938 3abd

lstm.weight_hh_l0 f4 [256, 64]
0.0030028648 -0.07672855 -0.04947424 -0.05504574 -0.04588363 0.08528542 0.087094024 -0.05360371
0.012114937 -0.037087202 -0.11307409 -0.0737842 0.04576755 0.05289324 -0.029915627 0.010817235
0.038427055 0.029548895 -0.0090614585 -0.11392285 -0.124081835 -0.17414509 0.09903332 -0.07267957
0.09373002 -0.11706649 0.100567356 0.017635692 -0.041325364 -0.058558717 0.02658092 0.11723296
-0.1559515 -0.03964636 -0.06936278 0.013642103 0.07748573 0.06860094 0.038095806 0.022672711
0.092779174 0.04304846 -0.122662425 0.028777111 0.001853307 -0.0625823 -0.020841187 0.030809464
-0.038728885 0.013784824 -0.10380897 -0.053817403 0.008861246 0.04580549 0.0035081545 0.09609689
-0.048947632 0.09256271 -0.0758487 0.050962646 -0.15355173 0.10461864 -0.06263805 -0.0036705479
0.048391912 0.058800172 -0.06968965 -0.0018299051 -0.091381855 -0.0844945 -0.014677271 -0.06606542
-0.024466023 0.14830631 -0.101468764 0.11572376 0.09484863 -0.13920942 0.003968569 -0.029953029
0.12880015 -0.07084525 0.032759026 0.06194493 0.038590617 -0.034566462 0.07200651 0.028804401
0.09976269 0.07042387 -0.084834635 0.069745466 -0.025565706 0.011089541 0.07064378 0.06817834
-0.041002594 -0.002590078 0.08489022 -0.11053656 0.06606632 0.047250092 -0.06736509 0.053003013
0.09782882 0.13183436 0.024821982 -0.09399828 -0.02227587 0.07040803 -0.08870567 -0.0541621
0.0016293826 -0.14124241 -0.005119667 0.0925231 -0.0683344 -0.060239587 0.08580442 -0.078488134
0.060633108 0.09825511 -0.1484339 0.03876898 -0.16150755 -0.07211399 -0.041689485 -0.11784782
0.07460993 0.07122475 0.053264376 0.12750718 -0.09842965 0.039369296 0.046037767 -0.03145997
0.052924283 -0.08883755 0.030275196 0.087990664 0.17140111 0.05192989 -0.067923576 0.076123595
0.12926443 -0.0014081303 -0.038812898 0.10287567 0.027978301 -0.034601778 0.012584286 -0.1435849
-0.021013174 -0.10221069 0.09981752 0.11869806 -0.054560814 -0.0768576 -0.17108653 0.13616252
-0.14848655 -0.046218697 -0.048069328 -0.0061468296 0.07817826 0.030152563 0.14014982 -0.10366632
-0.09437287 0.0666367 0.08215595 -0.13033462 -0.069726765 -0.08097148 -0.048148513 -0.0903733
-0.047599804 -0.1433876 0.15701514 0.10152114 0.042700462 -0.01782353 -0.0149657745 -0.113955855
-0.13154437 0.054574948 -0.0021947837 0.07261391 0.04492651 0.081885874 0.038974065 -0.09228446
0.1224304 0.08355218 0.1617408 0.03224933 0.044615682 0.049419142 -0.043609023 -0.12675345
0.046402052 0.08447701 -0.085672595 0.07384215 0.05640854 0.058729462 0.03068227 -0.027379842
-0.06694636 0.060842577 -0.07731285 -0.1108367 0.08682398 -0.10676998 0.090699516 -0.13865282
-0.027971756 -0.13132624 -0.06788789 0.114684165 0.13735275 0.09993408 -0.10313723 0.04473979
-0.13602859 0.14674215 -0.15061723 0.17146261 0.09272897 0.04585653 0.01995982 0.051710717
-0.032870192 0.0059018563 -0.12259673 -0.032165468 -0.02820497 -0.025582653 -0.15506247 0.07226134
-0.0379206 -0.09825969 0.068733476 -0.038190626 0.07696661 0.021322712 0.024143763 0.07342541
-0.019237082 0.11054233 -0.11604488 0.011407682 -0.066203155 -0.059642505 -0.0862671 0.049740884
00000000: b6cb 443b dc23 9dbd 80a5 4abd a477 61bd
00000010: 79f0 3bbd 1faa ae3d 5a5e b23d 908f 5bbd
00000020: bb7d 463c c0e8 17bd 6393 e7bd 2c1c 97bd
00000030: c176 3b3d 95a6 583d 9e11 f5bc c63a 313c
00000040: b065 1d3d 8610 f23c 8376 14bc 6250 e9bd
00000050: 9e1e febd 1753 32be fbd1 ca3d 07d9 94bd
00000060: 86f5 bf3d 8ec0 efbd 42f6 cd3d ba78 903c
00000070: c944 29bd 44db 6fbd 3bc0 d93c d617 f03d
00000080: c0b1 1fbe 3964 22bd 130e 8ebd 2183 5f3c
00000090: d7b0 9e3d a67e 8c3d 590a 1c3d 1fbc b93c
000000a0: 0203 be3d 9553 303d 7036 fbbd fabd eb3c
000000b0: aaea f23a 262b 80bd 23bb aabc 2164 fc3c
000000c0: 2ea2 1ebd bed9 613c cc99 d4bd a36f 5cbd
000000d0: c22e 113c 8a9e 3b3d 11e9 653b 72ce c43d
000000e0: 507d 48bd 8591 bd3d 9056 9bbd 35be 503d
000000f0: aa3c 1dbe 4c42 d63d 6148 80bd 938d 70bb
00000100: 9936 463d 73d8 703d 72b9 8ebd 6dd9 efba
00000110: 6926 bbbd 740b adbd f078 70bc 4f4d 87bd
00000120: f86c c8bc 9cdd 173e dbce cfbd 9400 ed3d
00000130: 0040 c23d ea8c 0ebe c50a 823b 0e60 f5bc
00000140: 30e4 033e 5017 91bd 542e 063d f8b9 7d3d
00000150: 3211 1e3d 9095 0dbd 2678 933d 35f7 eb3c
00000160: 6250 cc3d 643a 903d c8bd adbd b6d6 8e3d
00000170: 2c6f d1bc e8b0 353c b0ad 903d 16a1 8b3d
00000180: 56f2 27bd 4cbe 29bb ecda ad3d fe60 e2bd
00000190: c74d 873d 5089 413d b5f6 89bd b019 593d
000001a0: 7a5a c83d 96ff 063e 7857 cb3c 2c82 c0bd
000001b0: e37b b6bc 1632 903d 51ab b5bd 14d9 5dbd
000001c0: 0291 d53a daa1 10be e1c2 a7bb c07c bd3d
000001d0: e8f2 8bbd c9bd 76bd 3aba af3d 63be a0bd
000001e0: 6c5a 783d fa39 c93d 0eff 17be 39cc 1e3d
000001f0: 3c62 25be 80b0 93bd 98c2 2abd 335a f1bd
00000200: 17cd 983d 48de 913d bf2b 5a3d 3e91 023e
00000210: 7c95 c9bd b341 213d 1992 3c3d 2bdc 00bd
00000220: 22c7 583d 76f0 b5bd b003 f83c 7334 b43d
00000230: c683 2f3e 70b4 543d 841b 8bbd b0e6 9b3d
00000240: e55d 043e 0391 b8ba 46fa 1ebd 7bb0 d23d
00000250: c032 e53c 98ba 0dbd 522e 4e3c ec07 13be
00000260: d223 acbc d753 d1bd 216d cc3d f817 f33d
00000270: 297b 5fbd 8467 9dbd 4f31 2fbe 306e 0b3e
00000280: dc0c 18be d14f 3dbd 58e4 44bd 586b c9bb
00000290: ec1b a03d 8202 f73c 6f83 0f3e 024f d4bd
000002a0: 9046 c1bd d278 883d 6141 a83d 7076 05be
000002b0: e8cc 8ebd 60d4 a5bd 6037 45bd a315 b9bd
000002c0: 03f8 42bd 33d4 12be 94c8 203e 51ea cf3d
000002d0: aee6 2e3d a702 92bc 0233 75bc b061 e9bd
000002e0: 91b3 06be fb89 5f3d 5cd6 0fbb 9ab6 943d
000002f0: dc04 383d c8b3 a73d 45a3 1f3d a3ff bcbd
00000300: cabc fa3d 681d ab3d 619f 253e e017 043d
00000310: efbe 363d ba6b 4a3d 609f 32bd a8cb 01be
00000320: 1410 3e3d 4802 ad3d 1d75 afbd 8e3a 973d
00000330: a40c 673d 4e8e 703d 6259 fb3c b14b e0bc
00000340: 2c1b 89bd 1136 793d 3356 9ebd 5afe e2bd
00000350: c5d0 b13d 38aa dabd abc0 b93d 01fb 0dbe
00000360: 0625 e5bc 637a 06be ce08 8bbd 88df ea3d
00000370: 33a6 0c3e 3daa cc3d 9d39 d3bd 1241 373d
00000380: 144b 0bbe 9343 163e 673b 1abe e593 2f3e
00000390: b0e8 bd3d 0fd4 3b3d c782 a33c 9ece 533d
000003a0: e5a2 06bd 5c64 c13b ff13 fbbd f0bf 03bd
000003b0: 1c0e e7bc b692 d1bc b2c8 1ebe c1fd 933d
000003c0: a252 1bbd 603c c9bd 23c4 8c3d c66d 1cbd
000003d0: aca0 9d3d f8ac ae3c 24c9 c53c 1060 963d
000003e0: 1697 9dbc 0464 e23d f0a8 edbd 49e7 3a3c
000003f0: 8595 87bd b34b 74bd ceac b0bd 19bd 4b3d

lstm.bias_ih_l0 f4 [256]
-0.09581311 -0.075271934 -0.027004566 0.107549846 0.037760388 -0.039644744 0.13914406 -0.09114
0.02281341 0.0031771078 0.13252577 0.057063263 0.09230916 0.09436592 -0.075128265 0.050373424
0.15660368 -0.027083574 0.1326328 0.12364895 0.06869602 -0.081917286 -0.041951295 0.091459736
-0.047060233 0.099002905 0.025085341 -0.10145601 -0.082333595 -0.048064288 0.0053220037 0.0965245
0.120159216 0.1433474 0.012139534 0.004377101 0.1310495 -0.014370316 0.12036633 0.03457993
0.101917356 0.0066570463 -0.07833504 0.16331254 0.007726738 0.06562668 0.11271749 0.037799127
0.01990004 0.07999933 0.054955892 -0.07327609 -0.082977235 -0.0037548437 0.045490444 0.010303364
0.10704747 -0.0032683099 0.040526178 0.0013087881 0.13912794 -0.054789364 0.13856646 0.12894611
0.01656151 0.03315366 -0.068455316 -0.03495304 0.16853665 0.026327703 0.07490505 0.043151554
0.10034812 0.12824066 -0.06040764 0.10998851 0.1270814 -0.081927076 0.023605019 -0.080415666
0.0868398 0.077376895 0.12335489 0.12235986 -0.044410523 -0.042083956 0.03796005 0.12188485
0.06933074 0.14036511 0.045861345 0.053939488 -0.03192128 0.12670285 -0.011540104 0.1090053
0.14658985 0.15917578 -0.10508631 0.0133832265 -0.08394352 0.10660551 -0.082934156 -0.05367547
-0.03875104 0.030642413 -0.02792924 -0.055605866 0.14084248 0.022586474 0.067245886 -0.03793671
0.05596108 -0.032583334 -0.013108166 -0.065154366 -0.003926032 0.12993374 0.0087576285 0.07571554
0.1086783 -0.0818909 -0.07395829 0.08955749 0.12829836 0.10611658 0.12976514 -0.062249858
0.06594497 -0.035740674 0.10570359 0.10389527 0.029868526 -0.026737917 -0.106407024 -0.10008881
-0.112115584 0.094825625 -0.09972818 -0.010912002 0.0974801 -0.09531653 0.09690579 0.047345042
0.0630985 0.10601992 -0.019362487 0.10479444 -0.121989265 -0.07739908 0.0072735874 0.0040029646
0.09309218 0.068978086 0.043834068 0.15836187 0.11751853 0.05650906 -0.054532856 0.046604127
-0.006575164 -0.020147346 -0.08894046 0.045559194 0.033660635 0.0098464945 0.11704683 -0.08948157
0.076858364 0.0023968401 -0.018918173 -0.10080122 0.07675708 -0.023260674 0.047741182 0.060584843
-0.03384828 0.021505471 -0.011388202 0.044981316 0.09183611 0.06817806 0.01576667 -0.0098694805
-0.05408181 0.05491869 -0.11988605 0.042424947 -0.12767468 -0.13161051 0.08863003 -0.07199161
-0.059798256 -0.06935456 -0.037828013 0.1060779 0.10955285 -0.017807925 0.1456869 0.1248782
0.11645049 0.11561304 0.09526472 0.101980194 -0.080359995 0.05033144 0.04887323 0.11446692
0.06953194 0.07606605 -0.048414815 0.030231038 0.08198057 0.03183504 0.14284492 0.15625395
-0.07924654 -0.07965559 0.022923993 -0.06977064 0.15359934 0.07708514 -0.05131005 -0.04446459
-0.020322297 0.039695017 0.023065858 0.036418647 -0.040571388 0.0056702974 0.1203087 0.047091413
-0.07920978 -0.03723964 0.06864397 0.14248616 -0.072346844 -0.07627011 0.014694762 0.04833453
-0.078519605 0.109006524 0.08170392 -0.0942983 0.099261165 0.08580622 0.020695552 0.033183627
0.054816864 -0.03998073 0.123965316 0.08822922 -0.08138501 0.056659624 0.08000253 0.014284015
00000000: aa39 c4bd 2c28 9abd ae38 ddbc 1843 dc3d
00000010: a3aa 1a3d 8762 22bd c87b 0e3e 9ca7 babd
00000020: 30e3 ba3c 0637 503b d6b4 073e 2bbb 693d
00000030: 960c bd3d eb42 c13d d9dc 99bd 5d54 4e3d
00000040: b75c 203e 5fde ddbc e5d0 073e a93b fd3d
00000050: 80b0 8c3d 40c4 a7bd 1fd5 2bbd 3e4f bb3d
00000060: 3bc2 40bd 09c2 ca3d c67f cd3c 2bc8 cfbd
00000070: 849e a8bd 0fdf 44bd 3464 ae3b a3ae c53d
00000080: 0916 f63d a9c9 123e e5e4 463c c96d 8f3b
00000090: d731 063e 7971 6bbc 9f82 f63d afa3 0d3d
000000a0: 0cba d03d 5a23 da3b 1f6e a0bd 673b 273e
000000b0: 9430 fd3b 4867 863d 6dd8 e63d 42d3 1a3d
000000c0: 6905 a33c b0d6 a33d 6e19 613d c611 96bd
000000d0: f8ef a9bd d313 76bb 3054 3a3d 71cf 283c
000000e0: b43b db3d 2431 56bb c7fe 253d a48b ab3a
000000f0: 8e77 0e3e d06a 60bd 5ee4 0d3e 730a 043e
00000100: 01ac 873c 22cc 073d 4d32 8cbd eb2a 0fbd
00000110: df94 2c3e 32ad d73c d267 993d afbf 303d
00000120: 5183 cd3d 8551 033e 006e 77bd a841 e13d
00000130: a021 023e 62c9 a7bd 505f c13c f8b0 a4bd
00000140: 11d9 b13d c777 9e3d 7da1 fc3d ce97 fa3d
00000150: cfe7 35bd 3a60 2cbd ff7b 1b3d c49e f93d
00000160: 46fd 8d3d dfbb 0f3e 1bd9 3b3d a7ef 5c3d
00000170: e3bf 02bd 64be 013e b412 3dbc 2c3e df3d
00000180: a61b 163e fafe 223e 7e37 d7bd 5245 5b3c
00000190: 95ea abbd fd53 da3d 62d9 a9bd cfda 5bbd
000001a0: 69b9 1ebd cc05 fb3c ddcb e4bc fac2 63bd
000001b0: 0339 103e 4507 b93c 36b8 893d 8663 1bbd
000001c0: 7237 653d 1a76 05bd a2c3 56bc a76f 85bd
000001d0: f2a5 80bb 5a0d 053e 287c 0f3c c010 9b3d
000001e0: bb92 de3d 6bb6 a7bd 7277 97bd eb69 b73d
000001f0: a560 033e a653 d93d 27e1 043e b5f9 7ebd
00000200: 280e 873d d064 12bd 207b d83d 0bc7 d43d
00000210: d7ae f43c 7a09 dbbc edeb d9bd 5dfb ccbd
00000220: db9c e5bd f033 c23d 4a3e ccbd 41c8 32bc
00000230: a6a3 c73d 5035 c3bd 8b76 c63d e0ec 413d
00000240: c939 813d f920 d93d 149e 9ebc 789e d63d
00000250: 82d5 f9bd 6983 9ebd 4657 ee3b 4d2b 833b
00000260: 1da7 be3d 6244 8d3d 5a8b 333d 9d29 223e
00000270: 8ead f03d 0b76 673d d85d 5fbd f8e3 3e3d
00000280: 7974 d7bb 0c0c a5bc 6a26 b6bd 479c 3a3d
00000290: bcdf 093d 3153 213c 40b6 ef3d 1d42 b7bd
000002a0: eb67 9d3d 4e14 1d3b 49fa 9abc df70 cebd
000002b0: d132 9d3d 2b8d bebc 428c 433d d027 783d
000002c0: 7ea4 0abd 3e2c b03c 9595 3abc 543e 383d
000002d0: 9214 bc3d f0a0 8b3d 1b29 813c 9ab3 21bc
000002e0: e384 5dbd 6cf2 603d d186 f5bd c8c5 2d3d
000002f0: 27bd 02be e8c4 06be a983 b53d 5670 93bd
00000300: 04ef 74bd c309 8ebd 8cf1 1abd 5f3f d93d
00000310: 3f5d e03d ede1 91bc f22e 153e 24c0 ff3d
00000320: 987d ee3d 88c6 ec3d 261a c33d feda d03d
00000330: c893 a4bd 5728 4e3d 4c2f 483d a26d ea3d
00000340: c366 8e3d 84c8 9b3d 9d4e 46bd 15a7 f73c
00000350: 6ee5 a73d 7565 023d f045 123e 0901 203e
00000360: 034c a2bd 7822 a3bd 19cb bb3c e9e3 8ebd
00000370: 2549 1d3e d0de 9d3d 7d2a 52bd 8020 36bd
00000380: f27a a6bc 3e97 223d 9cf4 bc3c b82b 153d
00000390: 2f2e 26bd e7cd b93b 6864 f63d ede2 403d
000003a0: bd38 a2bd 9888 18bd 3695 8c3d e4e7 113e
000003b0: 952a 94bd 8133 9cbd 4dc2 703c 6efa 453d
000003c0: e3ce a0bd d03e df3d 6354 a73d 781f c1bd
000003d0: 7049 cb3d 2cbb af3d b889 a93c 8eeb 073d
000003e0: a687 603d d5c2 23bd 87e1 fd3d 85b1 b43d
000003f0: 2fad a6bd ec13 683d 5ed8 a33d 8007 6a3c

lstm.bias_hh_l0 f4 [256]
-0.06379273 0.06251273 -0.009035247 -0.077907026 -0.034712188 0.0073801 0.011216885 0.124197625
0.03724206 -0.09643751 0.01876183 0.03966729 0.13683921 -0.07001498 0.050533447 -0.067052856
-0.014503972 0.033182424 0.1295599 -0.026031138 0.0045717424 0.10919701 0.093458995 0.065448195
0.00017188904 0.020838093 -0.08543661 -0.110698946 0.046355404 0.11208662 0.119014576 -0.039247323
0.1431078 -0.03780328 0.044958346 0.023260452 -0.012352764 0.048574578 0.025216576 0.13365206
0.10047252 0.119501516 0.014912729 0.13436157 0.027907753 0.13885261 0.03890568 0.04581962
0.11863481 -0.05998944 -0.010126468 0.072861634 -0.0315752 0.123817466 0.028316572 -0.011093104
-0.060891803 -0.049250398 0.057127338 -0.07279761 0.13325903 -0.040885482 -0.013729229 0.13483019
-0.010760146 0.080576666 0.07599187 -0.056164633 -0.06320502 -0.01906994 0.11118802 0.009847837
-0.016462969 0.07874717 -0.04617732 -0.03229149 -0.04250652 0.015985303 -0.06464637 0.01111627
0.14348277 0.019173365 -0.019187216 -0.008401757 -0.0087694675 -0.07648379 0.1588779 0.11150134
-0.04390694 -0.00805849 -0.07857358 0.1154044 -0.08333007 0.15304424 0.022996591 0.089501984
-0.072537646 0.06994829 0.11597891 0.0776129 0.13454711 0.09845974 0.06413479 0.1466113
0.109778225 0.10964733 0.067705914 0.09658039 0.12539582 -0.015657395 0.14748228 -0.11044819
0.13089006 -0.074054964 -0.064984955 -0.033248994 0.13141406 0.037818678 0.078589655 0.05141064
0.09755537 -0.06995212 0.11975678 -0.0668971 -0.020299817 0.02602796 0.031488422 0.064987995
0.044666857 0.038292505 -0.05181498 -0.038538866 -0.064163275 -0.123419635 0.03541559 -0.041073274
-0.052385785 -0.0056729624 -0.13596645 0.037676726 0.1245943 -0.03041149 0.012980028 0.13864206
0.0075536347 0.11970511 0.041436438 -0.046386812 0.046720855 0.06866597 0.07616515 0.00789944
0.09695951 -0.11578938 0.14583816 0.010379171 -0.048110418 -0.101354055 -0.06061455 0.05559421
-0.114099085 0.021937322 -0.00043329937 -0.043144483 0.015596674 -0.09283082 0.061965723 -0.11340335
0.05789813 0.14790943 -0.07405496 -0.0035901635 -0.023117613 -0.0656546 -0.114422165 0.011919399
-0.030393463 -0.06983246 0.08540933 0.027423032 -0.024843851 0.075478464 0.09143975 -0.098309375
-0.020376762 0.12828577 -0.08401356 0.0073099663 -0.036269613 0.09493631 -0.076984555 -0.043259457
0.15133424 0.111807466 0.04063128 0.16337046 0.07485555 -0.021765614 0.0011908244 -0.056054592
-0.029544229 0.08085305 0.13832659 0.043796368 0.11113368 0.13810183 -0.08598558 -0.015275785
0.09990886 -0.09073511 -0.049029645 0.0021381332 0.021444548 0.05800193 -0.067641035 0.094442375
-0.06952303 -0.054117844 0.09474793 0.07091802 0.13432693 -0.039874896 -0.07875663 -0.05269
0.16353005 -0.05804153 0.023722824 0.16964005 -0.073313735 0.056593083 0.10235747 0.05551681
0.04793927 0.07065256 0.07660419 -0.02538846 0.1189561 -0.014041206 0.027474448 -0.025845688
-0.04546543 -0.057103172 0.006506046 -0.07720448 0.1367563 0.018370625 -0.05411069 0.053549815
0.08291003 0.14371207 0.038787648 0.06870505 0.14830111 -0.02184955 0.047189746 0.041332055
00000000: c3a5 82bd ad06 803d 9308 14bc b88d 9fbd
00000010: 5e2e 0ebd c4d4 f13b 07c7 373c 535b fe3d
00000020: 218b 183d 0781 c5bd 69b2 993c 2b7a 223d
00000030: 941f 0c3e 0464 8fbd 29fc 4e3d 0253 89bd
00000040: 11a2 6dbc 4bea 073d 5aab 043e 413f d5bc
00000050: 8ece 953b afa2 df3d 6e67 bf3d b409 863d
00000060: 1d3d 3439 a6b4 aa3c 64f9 aebd 21b6 e2bd
00000070: 2adf 3d3d ab8d e53d eabd f33d cdc1 20bd
00000080: da8a 123e 9dd7 1abd 3e26 383d b48c be3c
00000090: 3f63 4abc 23f6 463d fe92 ce3c 16dc 083e
000000a0: 89c4 cd3d 36bd f43d 8554 743c 1496 093e
000000b0: cd9e e43c 612f 0e3e 905b 1f3d 5bad 3b3d
000000c0: cff6 f23d 7db7 75bd 7ce9 25bc 7b38 953d
000000d0: ff54 01bd 0394 fd3d 28f8 e73c dabf 35bc
000000e0: af69 79bd c9ba 49bd 5bfe 693d ea16 95bd
000000f0: 0e75 083e 8977 27bd 8ff0 60bc ed10 0a3e
00000100: 534b 30bc 6105 a53d a0a1 9b3d e30c 66bd
00000110: a271 81bd 9038 9cbc 8bb6 e33d d258 213c
00000120: 59dd 86bc 3246 a13d 6e24 3dbd 1544 04bd
00000130: 511b 2ebd 9cf3 823c 5165 84bd 0421 363c
00000140: 26ed 123e 7611 9d3c 822e 9dbc 86a7 09bc
00000150: d0ad 0fbc 89a3 9cbd e3b0 223e d15a e43d
00000160: c3d7 33bd c207 04bc 2feb a0bd 2459 ec3d
00000170: f5a8 aabd a1b7 1c3e 5963 bc3c d14c b73d
00000180: 9e8e 94bd 0d41 8f3d 5a86 ed3d 83f3 9e3d
00000190: b8c6 093e 43a5 c93d 1a59 833d 4621 163e
000001a0: 68d3 e03d c88e e03d 66a9 8a3d f1cb c53d
000001b0: c367 003e f043 80bc 9805 173e a932 e2bd
000001c0: 0b08 063e 21aa 97bd d516 85bd 1930 08bd
000001d0: 6891 063e c2e7 1a3d 9df3 a03d f793 523d
000001e0: 1ccb c73d 0f43 8fbd 0b43 f53d 5901 89bd
000001f0: cd4b a6bc 9738 d53c 01fa 003d 6d18 853d
00000200: 98f4 363d 9ad8 1c3d f23b 54bd eeda 1dbd
00000210: 0968 83bd 6fc3 fcbd f00f 113d 733c 28bd
00000220: 7a92 56bd 42e4 b9bb ca3a 0bbe e952 1a3d
00000230: 4c2b ff3d 8421 f9bc 2faa 543c 2ff8 0d3e
00000240: 7b84 f73b f427 f53d 41b9 293d 1900 3ebd
00000250: 5e5e 3f3d bea0 8c3d 79fc 9b3d a76c 013c
00000260: b592 c63d fc22 edbd 9956 153e 660d 2a3c
00000270: 6e0f 45bd b792 cfbd f646 78bd c1b6 633d
00000280: c8ac e9bd e6b5 b33c 752c e3b9 45b8 30bd
00000290: 3189 7f3c 161e bebd c5cf 7d3d 0440 e8bd
000002a0: 9726 6d3d 9275 173e 20aa 97bd f348 6bbb
000002b0: 2661 bdbc eb75 86bd 2b56 eabd 9549 433c
000002c0: b6fb f8bc 5204 8fbd 16eb ae3d 44a6 e03c
000002d0: 5585 cbbc 7494 9a3d c344 bb3d 6d56 c9bd
000002e0: 2bed a6bc 585d 033e 4d0f acbd 7188 ef3b
000002f0: 728f 14bd f86d c23d 14aa 9dbd d430 31bd
00000300: 5df7 1a3e 50fb e43d fc6c 263d 964a 273e
00000310: de4d 993d cd4d b2bc 7015 9c3a 8099 65bd
00000320: bd06 f2bc 4996 a53d 7ca5 0d3e d263 333d
00000330: 0e9a e33d 916a 0d3e 3519 b0bd 4947 7abc
00000340: 049d cc3d 54d3 b9bd 4fd3 48bd ec1f 0c3b
00000350: 7aac af3c 6f93 6d3d 6287 8abd 016b c13d
00000360: 1762 8ebd acaa 5dbd 340b c23d 783d 913d
00000370: 008d 093e dc53 23bd 284b a1bd 78d1 57bd
00000380: 6c74 273e f5bc 6dbd 5e56 c23c 1fb6 2d3e
00000390: 8325 96bd 26ce 673d cba0 d13d 9865 633d
000003a0: f85b 443d 4ab2 903d a8e2 9c3d 76fb cfbc
000003b0: 419f f33d 160d 66bc 1812 e13c 56ba d3bc
000003c0: f539 3abd 04e5 69bd ab30 d53b 621d 9ebd
000003d0: d809 0c3e fe7d 963c 2ca3 5dbd 0d57 5b3d
000003e0: bccc a93d 4229 133e ccdf 1e3d 3cb5 8c3d
000003f0: 3fdc 173e d4fd b2bc 094a 413d cd4b 293d

lstm.weight_ih_l1 f4 [256, 64]
-0.040917624 0.0080693355 0.12402055 0.087044366 -0.11865462 0.019717198 -0.047689293 -0.10854501
0.08212482 0.049019977 0.05272782 0.12814905 0.043025885 -0.028269578 -0.036327533 -0.01756402
-0.13093776 0.0038894205 0.0077526467 0.099140786 0.092839465 -0.0650116 -0.04081075 -0.040454548
-0.01595406 -0.015936883 0.03299625 0.10599362 0.07185289 0.06306359 -0.13849686 -0.1374142
-0.141545 0.06758597 0.018590393 0.05829442 0.067314275 0.0593075 -0.10185489 -0.03407746
-0.072272606 -0.06096543 0.13885972 0.0028775297 -0.013219962 -0.027948882 -0.09975925 -0.008220868
0.054484602 0.05940477 0.05105713 0.10154336 -0.034137458 -0.04782142 0.10462522 0.020899832
-0.023488361 -0.10233314 -0.022610137 -0.091165505 -0.1229466 0.07498992 0.12909147 -0.11504754
-0.09841898 0.05555145 0.049646843 0.027781313 -0.060753632 -0.05167823 -0.08612998 -0.0882506
0.025795177 -0.070374094 -0.16515484 0.061143484 0.09778533 0.013764626 -0.02043921 -0.009179881
-0.011210557 -0.07497434 0.14136524 0.09606401 0.053620484 0.051776674 0.1325261 0.050783604
-0.07462988 -0.08534979 0.100229286 0.09107883 0.07425664 0.017592667 -0.08875257 0.04508111
0.011004852 -0.10148382 -0.06631476 0.06518011 -0.07307611 -0.04508541 0.03647108 -0.08992557
0.10460555 0.15784031 0.06205545 -0.024611827 -0.12004675 0.02609529 -0.08741536 -0.029532194
0.04702917 0.07775061 -0.037114233 -0.07818539 0.08314131 0.10011256 -0.0038196873 -0.17960314
0.12227388 0.035096288 -0.10285005 0.013923702 0.08871604 -0.14333385 0.03797718 0.02634058
0.09311192 -0.084179595 0.036234364 0.0889331 0.031115491 0.0015029118 0.020587193 -0.037628144
0.04035154 -0.0032532369 0.09036644 -0.07314644 0.027379354 0.015911732 -0.082321785 -0.07768711
0.0761299 -0.07716068 -0.024937904 0.115929246 -0.1167453 -0.053046662 0.04805565 0.026867451
0.13080393 0.08053113 0.10354803 -0.10564318 0.025989369 -0.03383032 -0.12487231 -0.1031838
0.053314757 -0.0141503075 0.11559677 -0.061145585 0.098615274 0.037518565 0.003855253 -0.07993146
0.10716318 0.091651246 -0.033122357 -0.036331885 -0.09835382 0.08556959 -0.010917393 -0.07223229
-0.045180935 -0.027099688 -0.038311146 -0.02353111 -0.04414733 0.10486502 0.14724256 0.031136986
-0.08052137 -0.110207886 0.063341476 0.10965589 0.09564328 -0.00392286 0.03497059 -0.041964162
-0.027386444 0.062100925 -0.078000486 0.061620556 0.029647378 -0.051496763 0.036032096 -0.022571197
0.062179558 -0.029455008 0.013926394 0.05781112 0.14088358 -0.13247678 0.028749498 -0.16897173
0.080849886 -0.03794285 -0.051943537 0.036423236 0.09085503 0.04535828 -0.06419338 0.045084808
-0.07584906 -0.10688509 -0.047083937 -0.09793271 0.12935796 -0.11824362 -0.08078391 0.06493119
-0.005876524 -0.05155024 0.006632466 0.0662882 -0.021113904 0.0913435 0.08048144 0.045629747
0.10821161 0.1613485 -0.004045447 -0.10572932 -0.11918941 -0.0011704937 -0.111959055 0.04807263
-0.08559819 0.04904583 0.049163472 -0.06930761 0.012785334 0.0028674798 0.141334 0.041774064
0.033929903 -0.037147976 -0.1620397 -0.10846258 -0.07918264 0.036341395 0.0155611755 -0.073300704
00000000: 3d99 27bd 3f35 043c 7cfe fd3d 5144 b23d
00000010: 3201 f3bd f685 a13c d955 43bd d94c debd
00000020: 0f31 a83d 2cc9 483d 20f9 573d 8139 033e
00000030: e93b 303d 9a95 e7bc 2ecc 14bd 6be2 8fbc
00000040: 8c14 06be a6e5 7e3b ea09 fe3b 530a cb3d
00000050: 9e22 be3d cd24 85bd 2c29 27bd abb3 25bd
00000060: 17b2 82bc 118e 82bc 1327 073d 2f13 d93d
00000070: 9c27 933d 7c27 813d 1fd2 0dbe 4fb6 0cbe
00000080: 2cf1 10be 836a 8a3d e14a 983c 21c6 6e3d
00000090: 11dc 893d 6cec 723d 4c99 d0bd cf94 0bbd
000000a0: a903 94bd e3b6 79bd 3e31 0e3e f094 3c3b
000000b0: 8a98 58bc 0ef5 e4bc 944e ccbd d2b0 06bc
000000c0: 3f2b 5f3d 6b52 733d 4821 513d f7f5 cf3d
000000d0: b8d3 0bbd 65e0 43bd bf45 d63d 2036 ab3c
000000e0: aa6a c0bc 0a94 d1bd e538 b9bc fbb4 babd
000000f0: 6dcb fbbd 5194 993d 8e30 043e 0b9e ebbd
00000100: e48f c9bd eb89 633d 7d5a 4b3d a395 e33c
00000110: cdd8 78bd 8dac 53bd ea64 b0bd bbbc b4bd
00000120: 6850 d33c 4b20 90bd 5a1e 29be 9771 7a3d
00000130: ad43 c83d 0785 613c 2170 a7bc 3667 16bc
00000140: 7cac 37bc 268c 99bd 0dc2 103e 35bd c43d
00000150: 27a1 5b3d c713 543d ecb4 073e 7802 503d
00000160: 8dd7 98bd dfcb aebd 0345 cd3d 8a87 ba3d
00000170: de13 983d 7f1e 903c e8c3 b5bd f8a6 383d
00000180: b24d 343c c0d6 cfbd 08d0 87bd 267d 853d
00000190: eda8 95bd 7bab 38bd b362 153d e62a b8bd
000001a0: 6f3b d63d e4a0 213e db2d 7e3d be9e c9bc
000001b0: 12db f5bd cac5 d53c d306 b3bd 80ed f1bc
000001c0: a9a1 403d b63b 9f3d 1805 18bd a91f a0bd
000001d0: fe45 aa3d d007 cd3d b853 7abb e3e9 37be
000001e0: ba6a fa3d 20c1 0f3d 0ca3 d2bd 3d20 643c
000001f0: c1b0 b53d 1cc6 12be f68d 1b3d 33c8 d73c
00000200: 76b1 be3d 5a66 acbd 7c6a 143d 8f22 b63d
00000210: eae5 fe3c 5afd c43a 79a6 a83c f81f 1abd
00000220: a847 253d 4234 55bb 0a12 b93d cdcd 95bd
00000230: ab4a e03c 5259 823c 5398 a8bd 6b1a 9fbd
00000240: fee9 9b3d 6b06 9ebd 934a ccbc 506c ed3d
00000250: 2918 efbd 7547 59bd 00d6 443d 2119 dc3c
00000260: 77f1 053e 81ed a43d fd10 d43d 745b d8bd
00000270: a8e7 d43c a991 0abd 0ebd ffbd 0752 d3bd
00000280: 9360 5a3d b1d6 67bc 00be ec3d cb73 7abd
00000290: cef6 c93d 11ad 193d 6aa8 7c3b 1bb3 a3bd
000002a0: 5f78 db3d a6b3 bb3d 4fab 07bd bed0 14bd
000002b0: ba6d c9bd 1c3f af3d ddde 32bc 86ee 93bd
000002c0: a50f 39bd 2a00 debc 26ec 1cbd 50c4 c0bc
000002d0: d5d3 34bd 79c3 d63d c1c6 163e fe12 ff3c
000002e0: 63e8 a4bd acb4 e1bd 2db9 813d 4493 e03d
000002f0: a0e0 c33d 568b 80bb 523d 0f3d 9de2 2bbd
00000300: 8959 e0bc 8a5d 7e3d b8be 9fbd d665 7c3d
00000310: 0fdf f23c 45ee 52bd 6496 133d 3be7 b8bc
00000320: feaf 7e3d a14b f1bc 882b 643c 5acb 6c3d
00000330: c943 103e fea7 07be 1184 eb3c ed06 2dbe
00000340: a094 a53d f669 1bbd bfc2 54bd 8830 153d
00000350: 3412 ba3d 9bc9 393d d277 83bd d9aa 383d
00000360: c156 9bbd 92e6 dabd 16db 40bd f290 c8bd
00000370: 6a76 043e b629 f2bd 0972 a5bd a5fa 843d
00000380: db8f c0bb 5826 53bd 2855 d93b 1cc2 873d
00000390: 11f7 acbc 4d12 bb3d 74d3 a43d 42e6 3a3d
000003a0: 0c9e dd3d 8b38 253e ab8f 84bb 9d88 d8bd
000003b0: 9419 f4bd 406b 99ba ca4a e5bd cee7 443d
000003c0: 1b4e afbd 48e4 483d a35f 493d 26f1 8dbd
000003d0: 9479 513c 54ec 3b3b dcb9 103e 481b 2b3d
000003e0: 15fa 0a3d 7a28 18bd bced 25be a121 debd
000003f0: 822a a2bd b7da 143d 4df4 7e3c ae1e 96bd

lstm.weight_hh_l1 f4 [256, 64]
0.15503846 0.0015934306 -0.11043337 -0.01220437 0.0016891658 0.06673857 -0.01608275 -0.08015969
-0.15765655 0.13809888 -0.05498786 0.024333078 0.010381669 0.054418884 0.079549424 -0.13740343
-0.00048219762 -0.062451255 -0.06421937 0.056687668 -0.09992634 0.09753792 0.00024231739 0.12748513
-0.100261636 0.12878016 0.031762183 -0.020113904 -0.14505702 -0.085029386 -0.040362913 -0.039605446
0.04886958 0.10442798 -0.038785256 -0.10072704 -0.08359432 0.05759014 0.026997821 -0.07894112
0.04679174 -0.011713153 0.05805336 0.062487945 0.09957242 -0.049766064 -0.010786063 0.025757356
0.04382353 -0.1377436 -0.074686304 -0.04514292 0.113032535 0.013077699 0.15992635 -0.13682881
0.010372504 -0.014376976 0.06028408 -0.043354418 0.06064543 0.03598117 -0.111425355 -0.092150465
-0.0034454588 -0.01307584 -0.048306786 0.036901847 0.14076787 -0.003834425 0.1327908 -0.13437152
-0.022663295 0.08705477 0.05861594 0.009726673 -0.084040485 -0.11472784 -0.016330792 0.09939443
0.025020715 0.07074668 -0.1563901 0.07558561 -0.10845414 -0.147439 0.06648339 0.067388885
-0.03344867 -0.075521745 -0.039371114 -0.053564485 -0.10182799 0.075292684 0.08143333 0.072401606
0.077081636 -0.096937254 -0.016786417 -0.07540996 -0.041096188 -0.042966254 0.05562954 0.09192459
0.053524867 0.0068864333 -0.07465982 -0.11758282 0.09223216 0.0055001024 -0.08853496 -0.110773616
-0.06878795 0.07248852 -0.11535716 -0.00168618 0.029083252 0.063483365 -0.042552534 0.018190213
0.046809055 -0.08387909 -0.09769755 -0.01843464 0.046115123 0.12868899 0.1583888 -0.074151196
0.07727166 -0.02365605 -0.0188465 -0.10921592 0.09036909 0.05950379 -0.08165791 -0.06290405
0.040895663 0.045068793 0.04987054 -0.10235208 -0.05116381 0.06677012 0.109620154 -0.0062988456
-0.14388467 0.038661163 -0.044107337 -0.07172793 -0.09485793 0.065375336 0.04216455 -0.012273201
0.10321888 -0.068793826 0.09806536 -0.073397204 -0.064863846 -0.024943165 -0.033662688 -0.110296085
-0.10181598 -0.08171724 -0.04263097 -0.05211746 0.109740205 0.039466456 0.013555069 -0.119196974
0.022051968 0.13259536 -0.109025955 -0.12681714 -0.0035967587 -0.008124566 0.11575523 0.0024169316
-0.09161393 0.09135979 0.047210258 0.00548041 0.12123751 0.025961773 0.00036537577 -0.15498056
-0.07745866 0.04517893 -0.10495474 -0.076239385 0.104381815 0.022672191 0.0783733 -0.07780092
0.09262255 -0.07461875 -0.03428146 -0.00990225 0.118141405 -0.08050011 -0.029424952 -0.144499
-0.018590132 0.106551826 0.11332819 -0.0022200623 -0.015720395 -0.07571783 0.012003022 -0.060447622
-0.055063874 0.10944631 -0.010011452 -0.022033546 0.061932642 -0.016862191 -0.11277346 -0.12527674
-0.06640288 0.014057473 0.12114769 -0.101699844 -0.1324601 0.13556282 0.009947865 -0.043166947
-0.026143221 0.038346414 0.034850143 -0.1250885 0.008232485 0.051369414 0.04088548 0.10290272
-0.03962916 -0.062318932 0.0117212515 -0.06576287 -0.09383179 -0.1662306 -0.08654397 -0.057955164
0.06834407 0.0034575893 -0.046009988 -0.068301156 -0.12462023 -0.043909486 -0.0009952274 0.030696435
-0.1339007 -0.10735933 -0.14087231 -0.023156086 0.022742672 -0.060909756 0.06512184 0.08090286
00000000: 67c2 1e3e a9da d03a e42a e2bd d7f4 47bc
00000010: 0067 dd3a 3bae 883d f9bf 83bc c32a a4bd
00000020: b870 21be cb69 0d3e f33a 61bd 2a56 c73c
00000030: e017 2a3c 56e6 5e3d cfea a23d 7cb3 0cbe
00000040: 78cf fcb9 e3cc 7fbd 7285 83bd 5431 683d
00000050: 2ea6 ccbd f6c1 c73d 9416 7e39 768b 023e
00000060: f955 cdbd f2de 033e 1019 023d eac5 a4bc
00000070: d489 14be e323 aebd 9553 25bd 5239 22bd
00000080: 782b 483d 56de d53d 4add 1ebd fa49 cebd
00000090: 8033 abbd a3e3 6b3d 892a dd3c e2ab a1bd
000000a0: b2a8 3f3d 86e8 3fbc 5cc9 6d3d 5cf3 7f3d
000000b0: a0ec cb3d 80d7 4bbd 07b8 30bc 1701 d33c
000000c0: 4d80 333d a90c 0dbe 22f5 98bd c8e7 38bd
000000d0: 9a7d e73d d843 563c bcc3 233e da1c 0cbe
000000e0: 6ff1 293c 688d 6bbc 71ec 763d 6794 31bd
000000f0: 5867 783d fe60 133d fa32 e4bd 62b9 bcbd
00000100: 35cd 61bb 0c3c 56bc 56dd 45bd 6426 173d
00000110: 7425 103e fa4a 7bbb 50fa 073e b098 09be
00000120: 60a8 b9bc c549 b23d 4517 703d a05c 1f3c
00000130: 6b1d acbd 6ef6 eabd 27c8 85bc 4f8f cb3d
00000140: 3ef8 cc3c a3e3 903d ba24 20be a1cc 9a3d
00000150: 341d debd 40fa 16be 7228 883d 2f03 8a3d
00000160: 7901 09bd 25ab 9abd 9b43 21bd 6f66 5bbd
00000170: 318b d0bd 0d33 9a3d 85c6 a63d 4b47 943d
00000180: fadc 9d3d 0a87 c6bd ab83 89bc 8970 9abd
00000190: 7a54 28bd 62fd 2fbd cddb 633d f642 bc3d
000001a0: e43c 5b3d 97a7 e13b 3fe7 98bd 43cf f0bd
000001b0: 37e4 bc3d 343a b43b d151 b5bd 47dd e2bd
000001c0: b2e0 8cbd dc74 943d 6040 ecbd d002 ddba
000001d0: 0040 ee3c 9103 823d 914b 2ebd a403 953c
000001e0: daba 3f3d cdc8 abbd a715 c8bd 3e04 97bc
000001f0: 36e3 3c3d 0cc7 033e ac30 223e 95dc 97bd
00000200: 9b40 9e3d 55ca c1bc fa63 9abc 99ac dfbd
00000210: 6e13 b93d 3fba 733d 433c a7bd d7d3 80bd
00000220: 3682 273d 0e9a 383d 0d45 4c3d f89d d1bd
00000230: 2591 51bd c6be 883d 8880 e03d 8c66 cebb
00000240: 8156 13be 2b5b 1e3d e5a9 34bd 18e6 92bd
00000250: e044 c2bd 81e3 853d bcb4 2c3d 8915 49bc
00000260: 6c64 d33d c7e3 8cbd 7ed6 c83d 4651 96bd
00000270: 56d7 84bd 9c55 ccbc e3e1 09bd eae2 e1bd
00000280: e684 d0bd 5e5b a7bd d09d 2ebd 1e79 55bd
00000290: 79bf e03d 94a7 213d 1516 5e3c 8b1d f4bd
000002a0: 54a6 b43c 14c7 073e 0049 dfbd 5adc 01be
000002b0: 99b7 6bbb e61c 05bc 1411 ed3d 6265 1e3b
000002c0: 16a0 bbbd d71a bb3d 8b5f 413d 0395 b33b
000002d0: 5f4b f83d c9ad d43c e88f bf39 39b3 1ebe
000002e0: a5a2 9ebd 8b0d 393d 83f2 d6bd 6523 9cbd
000002f0: 22c6 d53d 08bb b93c 2e82 a03d 1756 9fbd
00000300: e4b0 bd3d b7d1 98bd b76a 0cbd 0c3d 22bc
00000310: 1ff4 f13d 3edd a4bd 990c f1bc 8cf7 13be
00000320: 554a 98bc d837 da3d 9c18 e83d 777e 11bb
00000330: 0fc8 80bc f311 9bbd 53a8 443c ed97 77bd
00000340: a88a 61bd 6325 e03d 1307 24bc b27f b4bc
00000350: 15ad 7d3d 9422 8abc c6f5 e6bd 8c48 00be
00000360: 3cfe 87bd 5151 663c 481c f83d 0248 d0bd
00000370: 9fa3 07be fbd0 0a3e 5ffc 223c d3cf 30bd
00000380: 4f2a d6bc 2111 1d3d 06bf 0e3d 3317 00be
00000390: 8be1 063c bc68 523d 8877 273d a9be d23d
000003a0: 3052 22bd 2342 7fbd 7e0a 403c afae 86bd
000003b0: e22a c0bd 5b38 2abe f73d b1bd 6562 6dbd
000003c0: faf7 8b3d b998 623b f874 3cbd 7ae1 8bbd
000003d0: e438 ffbd 6fda 33bd 4a72 82ba 1777 fb3c
000003e0: 441d 09be 35df dbbd d540 10be d5b1 bdbc
000003f0: d74e ba3c 827c 79bd 995e 853d 66b0 a53d

lstm.bias_ih_l1 f4 [256]
0.10788941 -0.07690422 -0.07027499 0.03194618 -0.05542863 -0.088634185 -0.05433709 -0.012505681
-0.09242686 0.063719206 0.06652932 -0.08304255 -0.04488961 -0.05241196 -0.025673758 0.14439054
-0.0127694765 0.1004677 -0.082118586 -0.052764505 -0.051004466 0.12283772 -0.074051194 0.08851166
0.11052552 0.04505266 -0.07381059 0.033383444 0.090727545 0.06957258 -0.046829857 0.062933356
0.04129418 0.13214765 -0.049948476 0.12122531 -0.09597681 0.10002035 -0.037794095 0.13122834
0.11182559 0.11665739 0.039588284 0.1145285 -0.09422058 0.004436443 -0.04470691 0.010135152
-0.098796375 0.033892408 0.07343555 0.0154180145 -0.07022496 0.07921475 -0.07095351 -0.026521
0.025314672 -0.08557531 0.039036926 -0.030317297 0.12973715 -0.06101569 -0.020595385 0.098748624
0.053101 -0.05411307 -0.04735677 0.12229356 -0.021977784 -0.052930556 0.100101 0.09915925
0.082413845 0.033823136 0.050615482 -0.06769342 -0.046276495 -0.09217707 0.1178947 0.06459301
-0.09637352 0.087500915 0.09762019 0.13975506 0.13660614 0.072534196 0.13248713 0.03653694
-0.027085284 -0.06885754 0.049048636 -0.058651447 -0.066660516 -0.00117905 0.10847764 -0.08717697
0.08282104 -0.062852286 -0.0014539276 0.05379972 -0.004094602 -0.04941135 0.002453462 0.03441524
0.098279834 0.10317836 -0.08035345 -0.02241353 -0.064630456 -0.04021271 -0.11252437 -0.036495697
0.103908114 0.15346333 -0.01747872 0.019447362 0.1354025 -0.05102559 -0.09177405 0.10284934
-0.085670285 -0.083655156 0.092709966 0.122159496 0.011742856 -0.005325241 0.09526317 0.12943165
-0.0084158005 0.04804466 0.13546863 0.0684188 -0.048941817 -0.04621165 0.11500723 0.07354368
-0.072025046 0.042729866 0.008181356 0.06571349 0.050826315 0.09240408 -0.11622901 -0.014794401
-0.08032345 0.08539658 -0.008861876 -0.06347356 -0.106087275 0.121817425 0.12893222 0.09512671
0.0812934 0.01630476 0.0663899 -0.00643629 -0.09703748 0.07699364 0.10359779 0.005659343
-0.060443703 0.08510601 -0.11430874 -0.0538463 -0.05269375 0.02850468 -0.007490294 -0.07965863
-0.0099674435 0.06352883 0.004219595 0.12876968 0.06760871 -0.031747855 -0.027452322 0.024816897
-0.049817298 -0.04523083 -0.025962897 -0.041895285 -0.042032834 -0.010833629 0.031435035 -0.021375041
0.103763945 -0.08882605 0.13104126 0.07439551 0.12156614 -0.04694608 -0.09557311 -0.0020612106
0.08686911 0.1479462 -0.03452347 0.11649708 0.11307609 -0.053801134 0.08071654 -0.06919576
-0.08709369 0.06602134 0.07152042 0.09858457 -0.006363786 0.053577684 -0.06609007 0.1060479
0.030059952 -0.038778126 -0.051567927 -0.051988736 -0.011755968 -0.07692919 0.11949364 0.005570134
0.13380122 -0.08534207 0.041379116 0.12056841 0.06808984 -0.051007006 0.033179257 0.10414217
-0.003999576 0.06657374 0.10020173 -0.045287523 0.03220033 0.020341566 0.089962386 0.1148947
-0.021527486 0.02419476 0.13601099 0.031527516 0.028678302 0.015615119 0.017343644 0.024120325
0.07191155 0.0033308237 0.091747954 -0.077956244 0.057410818 -0.055672538 0.09183659 0.113545835
0.14843015 0.014874344 0.10295272 -0.08535121 -0.10057009 -0.09733736 0.045211717 -0.063509814
00000000: 1ff5 dc3d f67f 9dbd 55ec 8fbd ffd9 023d
00000010: 2209 63bd d785 b5bd 9290 5ebd a1e4 4cbc
00000020: 4b4a bdbd 377f 823d 8640 883d 3612 aabd
00000030: 2bde 37bd ecad 56bd c651 d2bc 1ddb 133e
00000040: 1137 51bc 02c2 cd3d ca2d a8bd 981f 58bd
00000050: 0fea 50bd 5892 fb3d 27a8 97bd 9a45 b53d
00000060: 345b e23d 2389 383d 022a 97bd 14bd 083d
00000070: 5dcf b93d 127c 8e3d aad0 3fbd 34e3 803d
00000080: 1624 293d b751 073e c696 4cbd fa44 f83d
00000090: 7d8f c4bd 78d7 cc3d fbcd 1abd b960 063e
000000a0: d104 e53d 12ea ee3d 5327 223d eb8d ea3d
000000b0: b8f6 c0bd 955f 913b 981e 37bd e90d 263c
000000c0: c155 cabd c4d2 0a3d 6165 963d d79b 7c3c
000000d0: 1bd2 8fbd 583b a23d 1350 91bd 9142 d9bc
000000e0: b760 cf3c 1c42 afbd 2fe5 1f3d fb5b f8bc
000000f0: d1d9 043e 97eb 79bd a7b7 a8bc b83c ca3d
00000100: 6f80 593d aba5 5dbd 2cf9 41bd 0c75 fa3d
00000110: c10a b4bc b6cd 58bd c101 cd3d 0114 cb3d
00000120: 97c8 a83d 218a 0a3d 2e52 4f3d d9a2 8abd
00000130: 6c8c 3dbd 55c7 bcbd c772 f13d 5749 843d
00000140: 7b5f c5bd ae33 b33d 18ed c73d f31b 0f3e
00000150: 7be2 0b3e cf8c 943d b5aa 073e c2a7 153d
00000160: f5e1 ddbc 2f05 8dbd 39e7 483d 803c 70bd
00000170: 4f85 88bd 5a8a 9aba 8629 de3d d789 b2bd
00000180: 149e a93d b3b8 80bd b791 beba 185d 5c3d
00000190: 032c 86bb 8e63 4abd 43ca 203b fff6 0c3d
000001a0: f046 c93d 2d4f d33d 5990 a4bd 949c b7bc
000001b0: f95c 84bd 15b6 24bd 2d73 e6bd 837c 15bd
000001c0: c7cd d43d 7e25 1d3e 882f 8fbc 1350 9f3c
000001d0: f4a6 0a3e 3600 51bd 08f4 bbbd ada2 d23d
000001e0: e773 afbd 6553 abbd b9de bd3d c22e fa3d
000001f0: 1c65 403c 5c7f aebb 5619 c33d bb89 043e
00000200: 6de2 09bc 7aca 443d 4ab8 0a3e 281f 8c3d
00000210: 3777 48bd 6d48 3dbd e988 eb3d 129e 963d
00000220: de81 93bd 8305 2f3d 180b 063c cb94 863d
00000230: 412f 503d 5a3e bd3d 7a09 eebd 3764 72bc
00000240: 9f80 a4bd 67e4 ae3d 6731 11bc 6dfe 81bd
00000250: 4944 d9bd 6a7b f93d cf06 043e cbd1 c23d
00000260: 277d a63d 8f91 853c 6ef7 873d 84e7 d2bb
00000270: 96bb c6bd d7ae 9d3d 142b d43d 0372 b93b
00000280: d193 77bd 0f4c ae3d b31a eabd f08d 5cbd
00000290: 67d5 57bd a682 e93c 2471 f5bb 1024 a3bd
000002a0: 7d4e 23bc 671b 823d 8744 8a3b 33dc 033e
000002b0: 6f76 8a3d 0a0a 02bd b1e3 e0bc ce4c cb3c
000002c0: 390d 4cbd f643 39bd 24b0 d4bc 649a 2bbd
000002d0: 9f2a 2cbd 897f 31bc 06c2 003d b61a afbc
000002e0: 3182 d43d 6fea b5bd ae2f 063e ac5c 983d
000002f0: abf7 f83d 884a 40bd d6bb c3bd 6015 07bb
00000300: 6fe8 b13d 357f 173e 7b68 0dbd 0596 ee3d
00000310: 7094 e73d 945e 5cbd b74e a53d 82b6 8dbd
00000320: 2d5e b2bd 3236 873d 4c79 923d b5e6 c93d
00000330: 4e87 d0bb 4674 5b3d 3b5a 87bd a42f d93d
00000340: 4a40 f63c d0d5 1ebd e438 53bd 24f2 54bd
00000350: 1b9c 40bc 0d8d 9dbd 15b9 f43d ac85 b63b
00000360: 3003 093e d3c7 aebd 267d 293d 92ec f63d
00000370: b072 8b3d b9ec 50bd f9e6 073d 7d48 d53d
00000380: e00e 83bb d057 883d 9136 cd3d 697f 39bd
00000390: 7ee4 033d 5ba3 a63c 333e b83d ea4d eb3d
000003a0: 695a b0bc 1734 c63c 7746 0b3e ff22 013d
000003b0: c2ee ea3c 8ed6 7f3c 4214 8e3c fd97 c53c
000003c0: 5d46 933d f349 5a3b 5ae6 bb3d 86a7 9fbd
000003d0: 9b27 6b3d e308 64bd d214 bc3d b88a e83d
000003e0: 13fe 173e 85b3 733c e0d8 d23d 9dcc aebd
000003f0: b1f7 cdbd cf58 c7bd ec2f 393d 6f11 82bd

lstm.bias_hh_l1 f4 [256]
-0.029686965 0.09916839 -0.08161798 0.15347622 0.052829858 -0.08790582 -0.0626197 0.114555374
0.06495421 0.03585617 0.003255015 -0.013036135 0.094290085 0.040247135 0.09581967 -0.02033596
0.0976621 -0.054919124 -0.027970536 0.14626646 0.017424831 -0.0070865285 0.1120873 0.07622458
0.08792359 0.11008402 0.04694018 0.14379175 0.040099893 0.13066548 -0.007877279 0.11987996
0.060383577 0.10625177 0.042251825 -0.03245481 -0.052299414 0.059405923 0.056934346 -0.030651893
-0.022792365 0.06598744 0.018812422 -0.015362994 -0.0044105146 0.0708671 0.056043845 -0.06574349
0.011228397 0.002490994 0.07902941 0.11812327 0.013654375 0.10413838 0.07776218 0.07448829
0.10527447 0.118863404 0.011883226 0.01652728 0.057384454 0.00017196631 0.050152212 -0.077909194
-0.08819065 -0.03200755 -0.041406944 0.044840164 0.12634838 0.0047484315 0.008478593 0.09943551
0.111464486 0.05308766 0.0019763773 0.08417823 -0.013733652 0.12907295 0.14004819 0.15182501
-0.029754683 0.10820809 0.066056676 -0.01722325 0.10532136 0.019567626 -0.06697954 0.0016288109
0.00802811 0.115265116 0.009839179 0.023248233 -0.06668685 0.05828498 0.057614755 0.0022055989
-0.03168969 0.0014913247 0.014484945 0.025036382 -0.060725387 -0.08560716 0.055297945 0.11750617
-0.11210437 -0.101758726 0.010556414 0.115475185 -0.019186262 -0.09389246 -0.0470413 -0.031628825
-0.05214239 -0.03329772 0.12454612 0.12779701 -0.077184595 0.119715355 -0.023731068 0.040895678
-0.07741976 -0.08752041 -0.075592056 -0.08060826 0.1382786 -0.06433336 -0.024496943 -0.042227026
0.111207195 0.060114376 0.09236905 0.08072743 -0.063948624 0.0020920562 0.045465626 -0.059817262
-0.09342475 -0.0123706935 0.05804619 -0.087617226 0.10595963 0.097070605 0.06312611 -0.09495875
-0.051819526 -0.051451433 -0.018250141 0.10605616 0.10795193 -0.06725973 -0.07973093 -0.04630479
-0.12682942 0.023157457 0.0352603 -0.093470335 -0.062112726 0.095490746 -0.011171211 0.06835514
-0.026602961 0.047483437 -0.05168333 0.060782257 -0.0896544 -0.033737425 -0.0334757 0.108637705
0.021294927 -0.021877946 0.061701115 0.0380874 0.08500388 0.0034585663 -0.08842476 0.09319851
0.009242304 -0.0017640974 0.10732673 0.051205866 0.10814358 -0.10152736 0.11818281 -0.11457044
0.061881978 -0.090464205 0.048852153 0.026008494 -0.094131276 0.06134982 0.087460905 0.03823181
-0.017288499 -0.08177734 0.06593923 -0.052707788 0.12580258 0.15145 0.06765956 -0.025575092
0.09342878 0.030098977 -0.06154433 -0.069367625 -0.064836614 0.07549614 -0.08400922 -0.039440304
-0.13135104 0.10311731 -0.10069588 -0.03189554 0.012464619 -0.08882647 -0.07199425 0.06668709
-0.007132356 0.08556608 0.15012889 0.0916087 0.08113485 -0.018697744 -0.10049507 0.07384738
0.06955871 -0.0696964 -0.10137022 -0.048942465 0.14980331 0.025319492 -0.060740974 0.029780954
-0.10219957 0.0680612 0.14992017 0.09704616 0.056417387 0.032344032 -0.06665432 0.122208476
0.12236244 -0.018529382 0.01348174 0.04626593 0.011472413 0.117753394 0.08053707 0.1402502
0.09507336 0.07074945 0.03438284 -0.03846358 0.092007495 0.12143394 0.06918096 -0.10253219
00000000: 1432 f3bc cc18 cb3d 5427 a7bd df28 1d3e
00000010: 1f64 583d f707 b4bd c23e 80bd 029c ea3d
00000020: b606 853d ebdd 123d 1752 553b 8395 55bc
00000030: 291b c13d 2eda 243d 1a3d c43d 9997 a6bc
00000040: 1103 c83d e0f2 60bd 7722 e5bc e0c6 153e
00000050: 85be 8e3c 1c36 e8bb 078e e53d a21b 9c3d
00000060: 4811 b43d bb73 e13d 5944 403d 253e 133e
00000070: c93f 243d 2ccd 053e b40f 01bc a083 f53d
00000080: c554 773d 879a d93d 4010 2d3d 56ef 04bd
00000090: e937 56bd a053 733d fd33 693d ae19 fbbc
000000a0: 0eb7 babc 6c24 873d 821c 9a3c 11b5 7bbc
000000b0: 1486 90bb c522 913d 3b8e 653d 86a4 86bd
000000c0: 4ff7 373c f23f 233b 2cda a13d 9dea f13d
000000d0: 9ab6 5f3c 8146 d53d c741 9f3d 518d 983d
000000e0: 249a d73d a86e f33d ddb1 423c 3864 873c
000000f0: f60b 6b3d db51 3439 686c 4d3d db8e 9fbd
00000100: 4d9d b4bd 591a 03bd 549a 29bd 52aa 373d
00000110: 7861 013e bb98 9b3b cce9 0a3c d8a4 cb3d
00000120: 7e47 e43d 7272 593d 1c86 013b a365 ac3d
00000130: 1d03 61bc b32b 043e cb68 0f3e 0478 1b3e
00000140: 18c0 f3bc 349c dd3d b948 873d c617 8dbc
00000150: bab2 d73d 494c a03c 922c 89bd d37d d53a
00000160: 5588 033c 1e10 ec3d 8234 213c 1473 be3c
00000170: 1d93 88bd 3bbc 6e3d 73fd 6b3d cf8b 103b
00000180: 0ccd 01bd 8e78 c33a 4352 6d3c 1919 cd3c
00000190: 2fbb 78bd cf52 afbd 1980 623d 13a7 f03d
000001a0: fa96 e5bd e166 d0bd cff4 2c3c 417e ec3d
000001b0: 822c 9dbc b14a c0bd 61ae 40bd 3a8d 01bd
000001c0: 4293 55bd 3163 08bd 0912 ff3d 38dd 023e
000001d0: f512 9ebd 532d f53d a867 c2bc 3a82 273d
000001e0: 408e 9ebd e73d b3bd 02d0 9abd f215 a5bd
000001f0: e898 0d3e 35c1 83bd d0ad c8bc 3ff6 2cbd
00000200: 99c0 e33d 7e3a 763d fc2b bd3d 6c54 a53d
00000210: 7ff7 82bd e11a 093b 2a3a 3a3d f202 75bd
00000220: 7a55 bfbd 73ae 4abc d7c1 6d3d a970 b3bd
00000230: 5d01 d93d f4cc c63d 4348 813d bc79 c2bd
00000240: b640 54bd bdbe 52bd 5281 95bc f933 d93d
00000250: e715 dd3d 78bf 89bd f849 a3bd 17aa 3dbd
00000260: 92df 01be b5b4 bd3c 1b6d 103d 606d bfbd
00000270: ea69 7ebd a790 c33d 7407 37bc c8fd 8b3d
00000280: 74ee d9bc fe7d 423d e6b1 53bd d1f6 783d
00000290: ba9c b7bd 4130 0abd d11d 09bd 727d de3d
000002a0: b372 ae3c 6139 b3bc 4fba 7c3d 8901 1c3d
000002b0: 8416 ae3d 1da9 623b 0a18 b5bd dcde be3d
000002c0: 086d 173c 4939 e7ba 1ece db3d 3ebd 513d
000002d0: 627a dd3d 94ed cfbd d409 f23d e8a3 eabd
000002e0: f577 7d3d 4c45 b9bd 3219 483d c40f d53c
000002f0: e6c7 c0bd f349 7b3d b41e b33d f598 1c3d
00000300: 9ca0 8dbc e17a a7bd 260b 873d 1fe4 57bd
00000310: 64d2 003e b515 1b3e 1891 8a3d db82 d1bc
00000320: 9757 bf3d 2192 f63c e815 7cbd 9d10 8ebd
00000330: 0fc9 84bd b89d 9a3d 070d acbd 288c 21bd
00000340: e380 06be 2b2f d33d a439 cebd e6a4 02bd
00000350: 6738 4c3c a7ea b5bd b971 93bd 3e93 883d
00000360: 8ab6 e9bb 453d af3d 63bb 193e 589d bb3d
00000370: 072a a63d 032c 99bc 5cd0 cdbd 4c3d 973d
00000380: cc74 8e3d fcbc 8ebd 319b cfbd e577 48bd
00000390: 0a66 193e d36a cf3c 87cb 78bd 30f7 f33c
000003a0: 024e d1bd ac63 8b3d ac84 193e 23c0 c63d
000003b0: eb15 673d 2d7b 043d 0f82 88bd 7048 fa3d
000003c0: 2999 fa3d eeca 97bc 84e2 5c3c 5881 3d3d
000003d0: caf6 3b3c b128 f13d 9ff0 a43d c09d 0f3e
000003e0: d2b5 c23d 16e5 903d 05d5 0c3d fd8b 1dbd
000003f0: 6d6e bc3d 5cb2 f83d bfae 8d3d 66fc d1bd
