src/Backend-Information/Clod-weather_predict/Henan_lstm_model.pth (torch, 208379 bytes, 11 tensors)

lstm.weight_ih_l0 f4 [256, 3]
0.045976676 0.13964477 0.10406773 0.062397875 -0.06292705 0.075925276 0.12679783 0.039199322
0.0863606 0.00040729088 0.09559979 -0.048704986 0.031185169 0.10005346 -0.06718117 -0.087290876
0.0095822085 -0.1415477 -0.10509673 -0.037376102 -0.04464571 -0.09593453 0.036011416 -0.0734998
-0.13065821 -0.0037867003 -0.0034966448 0.1327337 0.040085305 -0.056076497 -0.140911 0.122479714
-0.06889274 0.015543813 -0.046202105 -0.07955848 0.11743434 -0.025708763 0.026418107 0.014526485
0.027608575 -0.098302044 -0.080317676 0.16797689 0.09963896 0.123600036 -0.046522208 0.03753815
-0.089106105 0.053834233 0.05078474 0.13806786 -0.02177966 0.10963965 0.08856354 0.14723322
0.07882303 -0.018678011 -0.16175917 -0.07393233 0.10985413 -0.072862566 -0.08941918 0.15910187
0.05801295 0.083735555 0.028876554 0.15757939 0.060715813 0.07184201 -0.17845768 -0.0024356758
-0.12761596 0.10512375 -0.004880564 0.042640418 0.009047155 0.007716841 -0.051027235 0.109683
0.12989882 0.08122855 -0.06444037 -0.06319551 0.08567628 0.06541189 0.07181827 -0.03666824
-0.044418786 -0.13069677 0.10214311 -0.06396012 0.14729299 -0.060569145 0.10953651 -0.13764538
0.06598794 -0.05256287 0.0555804 -0.008785258 0.06136077 -0.08792343 -0.10224864 -0.09872334
0.017707389 -0.039721254 0.0974721 0.023495523 0.024020992 0.12694411 -0.09036547 -0.038248718
-0.049005173 0.0673804 -0.104010165 -0.1079223 0.018553957 0.1271223 0.0029304442 0.021486454
-0.029022142 0.046251103 -0.12069892 -0.049961757 -0.12539262 -0.055755604 0.045232844 -0.0015245669
-0.035532836 -0.0005555601 -0.01762117 -0.04075969 0.04693133 -0.04831524 -0.07451992 0.13667676
-0.023076333 -0.023721835 -0.019210447 0.15499651 0.008552902 -0.027664669 -0.08494809 -0.13546512
0.0069619366 -0.044495452 0.15370177 -0.06807891 -0.06483997 0.031874936 -0.073319376 -0.039456706
-0.05916727 0.1409306 -0.06697857 -0.030772392 0.0011368216 0.10507426 0.06796076 0.14090045
-0.10210016 0.122171 0.17534323 -0.07980029 -0.051901657 0.09523062 -0.06770596 0.16197644
-0.053893216 0.06147119 -0.08052111 -0.06657313 -0.026001208 0.025649412 0.0044499906 -0.095443115
0.109402716 -0.14692384 0.07702442 -0.16161296 -0.025711315 0.1166565 0.14973676 0.10249319
-0.11759875 0.11495457 0.023658067 -0.040189248 -0.09013094 -0.120004244 -0.008621021 0.046010353
0.032872867 0.019337663 -0.014173296 0.035164315 0.004856954 0.0077542644 0.14270517 0.08446812
0.04797287 0.07962905 -0.07103319 -0.0045566373 -0.1471083 -0.021341443 -0.039510395 -0.039567187
-0.09860416 -0.016937226 -0.13845351 -0.08697899 0.07903515 0.11528594 -0.0008953685 0.010833241
-0.09267461 -0.060456473 -0.15769911 0.09330619 -0.106822304 -0.079085596 -0.09915345 0.03070741
-0.09191593 0.061579898 -0.096614115 0.0109666865 0.04455574 0.016455807 0.032648485 -0.032873817
0.032801405 0.09213804 0.024038967 -0.009829036 -0.05242998 -0.027747251 0.09191882 0.07523647
-0.079546236 0.15608713 -0.06557049 0.118318535 -0.10729814 0.033351563 -0.020497443 0.028418712
-0.03307454 0.086704455 -0.16935432 -0.011608659 0.16325068 0.011635744 -0.0700786 -0.022466559
00000000: 0a52 3c3d 0aff 0e3e 7621 d53d ea94 7f3d
00000010: e6df 80bd b67e 9b3d 4ad7 013e 788f 203d
00000020: d4dd b03d a889 d539 d3c9 c33d e17e 47bd
00000030: 0a78 ff3c d4e8 cc3d 4896 89bd 8fc5 b2bd
00000040: b2fe 1c3c e1f1 10be f43c d7bd af17 19bd
00000050: 6cde 36bd 5379 c4bd b580 133d 1087 96bd
00000060: 44cb 05be 4a2a 78bb f727 65bb 58eb 073e
00000070: 7d30 243d 78b0 65bd f94a 10be a5d6 fa3d
00000080: a317 8dbd 7aab 7e3c 6b3e 3dbd 8eef a2bd
00000090: 6a81 f03d 2f9b d2bc c96a d83c 7f00 6e3c
000000a0: 612b e23c 9552 c9bd 987d a4bd 2202 2c3e
000000b0: 830f cc3d 0422 fd3d 128e 3ebd 9ac1 193d
000000c0: 437d b6bd 4981 5c3d a903 503d a961 0d3e
000000d0: 426b b2bc c18a e03d cd60 b53d 4ec4 163e
000000e0: f86d a13d a102 99bc 32a4 25be d569 97bd
000000f0: 34fb e03d f838 95bd 6721 b7bd 9aeb 223e
00000100: fd9e 6d3d 8c7d ab3d 868e ec3c 7e5c 213e
00000110: 25b1 783d e721 933d 9cbd 36be dc9f 1fbb
00000120: c2ad 02be 1f4b d73d 23ed 9fbb b8a7 2e3d
00000130: 853a 143c 8edd fc3b ef01 51bd 7ba1 e03d
00000140: 3204 053e 275b a63d 50f9 83bd a66c 81bd
00000150: 0c77 af3d abf6 853d 7515 933d 7031 16bd
00000160: 79f0 35bd 60d5 05be 6830 d13d 86fd 82bd
00000170: f9d3 163e 5a17 78bd ae54 e03d e9f2 0cbe
00000180: af24 873d 2a4c 57bd 46a8 633d 0bf0 0fbc
00000190: 6e55 7b3d 3311 b4bd bc67 d1bd 762f cabd
000001a0: 160f 913c c1b2 22bd 749f c73d af79 c03c
000001b0: acc7 c43c a3fd 013e 8811 b9bd b0aa 1cbd
000001c0: a6b9 48bd bcfe 893d 4803 d5bd 5e06 ddbd
000001d0: 78fe 973c 592c 023e b20c 403b 5c04 b03c
000001e0: d8bf edbc cc71 3d3d ff30 f7bd b3a4 4cbd
000001f0: ec66 00be fd5f 64bd 1346 393d fad3 c7ba
00000200: e18a 11bd 02a3 11ba 465a 90bc a2f3 26bd
00000210: 113b 403d 33e6 45bd e69d 98bd fef4 0b3e
00000220: 940a bdbc 4b54 c2bc 3a5f 9dbc 68b7 1e3e
00000230: 7921 0c3c 04a1 e2bc 44f9 adbd 5eb7 0abe
00000240: f520 e43b dd40 36bd ff63 1d3e f56c 8bbd
00000250: d1ca 84bd 4b8f 023d 7828 96bd 5b9d 21bd
00000260: 6159 72bd 1c50 103e 0f2c 89bd 6216 fcbc
00000270: 6701 953a 2c31 d73d 032f 8b3d 3548 103e
00000280: e419 d1bd ca34 fa3d 2d8d 333e 566e a3bd
00000290: d596 54bd 4508 c33d 6ca9 8abd 27dd 253e
000002a0: 22bf 5cbd 37c9 7b3d 40e8 a4bd 7e57 88bd
000002b0: 7c00 d5bc b71e d23c 3ad1 913b ae77 c3bd
000002c0: 880e e03d 3473 16be fbbe 9d3d de7d 25be
000002d0: 89a0 d2bc 9ae9 ee3d 9854 193e f3e7 d13d
000002e0: 9dd7 f0bd 4d6d eb3d 90ce c13c 7b9d 24bd
000002f0: 9296 b8bd c9c4 f5bd 2f3f 0dbc 5a75 3c3d
00000300: b3a5 063d 056a 9e3c 1d37 68bc 7508 103d
00000310: 1527 9f3b 7c17 fe3b 4e21 123e 9ffd ac3d
00000320: 337f 443d 8e14 a33d d979 91bd d84f 95bb
00000330: 8fa3 16be 40d4 aebc a7d5 21bd 3411 22bd
00000340: faf0 c9bd f0bf 8abc c2c6 0dbe 0a22 b2bd
00000350: 2edd a13d 091b ec3d 2ab7 6aba e87d 313c
00000360: 30cc bdbd 35a1 77bd e07b 21be 5117 bf3d
00000370: a7c5 dabd a1f7 a1bd f710 cbbd 1b8e fb3c
00000380: 6b3e bcbd 343b 7c3d 9fdd c5bd 9ead 333c
00000390: 1480 363d 54ce 863c 6bba 053d b2a6 06bd
000003a0: c45a 063d deb2 bc3d 5eed c43c f709 21bc
000003b0: d2c0 56bd 344e e3bc ef3f bc3d 9415 9a3d
000003c0: 23e9 a2bd 4ed5 1f3e d249 86bd fd50 f23d
000003d0: 21bf dbbd a69b 083d 41ea a7bc 5cce e83c
000003e0: 2b79 07bd 1b92 b13d 386b 2dbe 3f32 3ebc
000003f0: 302b 273e d9a3 3e3c 5e85 8fbd ca0b b8bc

lstm.weight_hh_l0 f4 [256, 64]
0.11339927 0.028282689 0.065147646 -0.108370595 -0.0557902 0.053447187 0.09857808 0.022099154
-0.044168536 -0.06000205 0.06636713 0.11454137 -0.07301701 -0.057597727 0.13739109 0.121152855
-0.032693647 0.032247495 -0.011888533 0.024503939 0.042755496 -0.085180126 0.04947716 -0.052842267
-0.07064667 -0.049394336 -0.109750375 -0.09054832 0.026097365 0.1188875 0.045390397 0.090578
0.011177273 0.09341733 0.11843856 0.13904886 -0.012235092 0.085480414 -0.053485807 -0.12254528
0.08933575 0.07083677 0.11418676 0.01730666 -0.009565085 -0.09730362 -0.11920847 -0.1261133
-0.13678318 -0.046887133 -0.12354669 -0.035118256 -0.005541698 -0.04302767 -0.06929098 -0.0029112499
-0.14817207 -0.09409083 -0.00057405443 -0.038528554 0.0082283905 -0.021671891 -0.09807926 -0.10782675
-0.09938894 0.13036844 -0.17202297 -0.049100216 0.07185326 0.102929406 0.06710552 -0.10043823
-0.112683475 -0.052576423 -0.112715535 -0.06643379 0.06369412 -0.046244945 -0.034737352 0.060710143
-0.02577078 0.039594267 0.07792023 -0.048605807 -0.10421483 -0.043403283 0.053781036 0.003727046
0.075859204 0.08301496 0.071199544 0.022694156 -0.012636843 -0.060023084 0.08363808 0.08249412
0.13395558 0.089109674 0.06413688 0.08413103 -0.04615398 0.06582954 -0.017987192 -0.0916059
-0.009520635 0.021514105 0.084394686 -0.021678472 0.059116587 -0.11461468 0.023273503 -0.11956468
-0.07528067 -0.06139428 0.12910251 0.0027711713 0.10675494 0.12557779 -0.10536977 0.054389812
-0.098772116 0.019279473 -0.1408178 0.0753908 0.07805796 0.08626652 -0.16326255 -0.0066777132
-0.050685775 -0.10386364 -0.088545516 -0.06426887 -0.050015196 -0.070929006 -0.025306018 -0.15254973
0.057813775 -0.01845904 -0.092788145 -0.0595185 0.0130458325 -0.02814426 -0.03630862 0.0058405288
-0.03165253 0.08544185 -0.008289507 -0.13938126 0.0026015614 -0.117446534 0.037463106 -0.10302202
0.05212569 -0.08600809 0.032210384 -0.13237391 0.1004187 -0.02543914 0.105974935 0.0610651
-0.11496804 0.09952062 -0.070306785 0.057696782 -0.08420123 -0.12602167 0.013187379 0.016217645
0.042716306 0.0340777 0.04909624 -0.0741022 0.06663233 0.032331552 -0.10367092 -0.06673594
-0.09331357 0.006453246 -0.11790256 0.13285197 -0.08510727 0.07236884 -0.018196153 0.0095011415
0.012116666 0.03571365 -0.11173427 0.053692635 -0.07498995 0.13290969 -0.022084577 -0.011074071
0.112743445 0.062239382 -0.046535913 -0.094955176 0.114514895 -0.034028456 -0.0031053014 0.066405654
0.020173391 0.106411174 -0.06065419 0.07727678 0.072731055 0.04405384 -0.042110655 0.066360645
-0.12262241 -0.059636906 -0.08275693 0.10138223 -0.12834264 -0.06246162 0.11226881 0.1188548
0.008169111 0.049219035 -0.08272593 -0.07901368 0.052265976 0.13311318 -0.009283411 0.105138995
0.10754304 -0.106764495 -0.078922264 0.12567365 0.05464175 -0.15511605 -0.14339106 -0.00011771066
-0.10180276 -0.12530991 0.08949292 0.063129045 0.094665386 -0.085325144 0.077058956 -0.15857394
-0.087331764 -0.06617645 -0.07034076 0.11215627 -0.09205915 0.044001874 -0.13560608 0.058000877
-0.12197782 0.1289923 0.0364155 0.06693547 0.13699323 0.02430874 -0.04419274 0.08237292
00000000: e03d e83d 19b1 e73c 216c 853d 67f1 ddbd
00000010: 4484 64bd 70eb 5a3d 4ee3 c93d 4909 b53c
00000020: 11ea 34bd b6c4 75bd 7deb 873d aa94 ea3d
00000030: f189 95bd 98eb 6bbd 40b0 0c3e fd1e f83d
00000040: c6e9 05bd f315 043d 1fc8 42bc 7cbc c83c
00000050: 6320 2f3d eb72 aebd 90a8 4a3d 2271 58bd
00000060: 34af 90bd b751 4abd cec4 e0bd 6671 b9bd
00000070: 24ca d53c 4a7b f33d 48eb 393d f580 b93d
00000080: e120 373c 9651 bf3d ea8f f23d d362 0e3e
00000090: b275 48bc 5b10 af3d ef13 5bbd 05f9 fabd
000000a0: a9f5 b63d de12 913d bfda e93d b2c6 8d3c
000000b0: e0b6 1cbc 1f47 c7bd 9223 f4bd d823 01be
000000c0: e410 0cbe b90c 40bd 0c06 fdbd 29d8 0fbd
000000d0: 2297 b5bb c83d 30bd 6ee8 8dbd abca 3ebb
000000e0: 6bba 17be b1b2 c0bd 247c 16ba 1ed0 1dbd
000000f0: 5fd0 063c 4089 b1bc c7dd c8bd 45d4 dcbd
00000100: 6e8c cbbd 4e7f 053e ca26 30be 4f1d 49bd
00000110: cd27 933d a7cc d23d 9e6e 893d 8fb2 cdbd
00000120: 98c6 e6bd 605a 57bd 67d7 e6bd 700e 88bd
00000130: 1072 823d 576b 3dbd c148 0ebd 33ab 783d
00000140: 3e1d d3bc 992d 223d a494 9f3d e216 47bd
00000150: 966e d5bd a4c7 31bd 8149 5c3d 7541 743b
00000160: 125c 9b3d bf03 aa3d 11d1 913d 18e9 b93c
00000170: c30a 4fbc c4da 75bd 714a ab3d adf2 a83d
00000180: a72b 093e 227f b63d 325a 833d e44c ac3d
00000190: f50b 3dbd a3d1 863d e059 93bc e09b bbbd
000001a0: 70fc 1bbc 593e b03c 1fd7 ac3d 0d97 b1bc
000001b0: 3c24 723d 1abb eabd 13a8 be3c 54de f4bd
000001c0: c02c 9abd 9278 7bbd 7333 043e 8a9c 353b
000001d0: 55a2 da3d 7797 003e 1bcc d7bd dac7 5e3d
000001e0: 0949 cabd fcef 9d3c 8b32 10be 7e66 9a3d
000001f0: dadc 9f3d 80ac b03d 4c2e 27be b8d0 dabb
00000200: e39b 4fbd 76b6 d4bd 5a57 b5bd 669f 83bd
00000210: bcdc 4cbd 3a43 91bd 914e cfbc ff35 1cbe
00000220: 23ce 6c3d 6a37 97bc b607 bebd acc9 73bd
00000230: 30be 553c cb8e e6bc 59b8 14bd e861 bf3b
00000240: 15a6 01bd 23fc ae3d b6d0 07bc f6b9 0ebe
00000250: f57e 2a3b cf87 f0bd ea72 193d 35fd d2bd
00000260: bf81 553d 0225 b0bd 09ef 033d 078d 07be
00000270: 52a8 cd3d be65 d0bc 6309 d93d 661f 7a3d
00000280: 5d74 ebbd 78d1 cb3d 01fd 8fbd 7653 6c3d
00000290: b271 acbd d30b 01be e00f 583c deda 843c
000002a0: 4bf7 2e3d 0f95 0b3d 2419 493d e5c2 97bd
000002b0: 8876 883d 176e 043d 6b51 d4bd daac 88bd
000002c0: 2f1b bfbd c075 d33b e676 f1bd 590a 083e
000002d0: b84c aebd 1d36 943d 1910 95bc adaa 1b3c
000002e0: fb84 463c 7a48 123d f0d4 e4bd cfec 5b3d
000002f0: 5594 99bd 7a19 083e b7ea b4bc 0570 35bc
00000300: 09e6 e63d b9ee 7e3d 719c 3ebd dc77 c2bd
00000310: c986 ea3d 6c61 0bbd 5082 4bbb b0ff 873d
00000320: ab42 a53c 1aee d93d 8770 78bd 4a43 9e3d
00000330: 05f4 943d cd71 343d 397c 2cbd 17e8 873d
00000340: 7521 fbbd d445 74bd 777c a9bd 7da1 cf3d
00000350: 416c 03be c1d7 7fbd 31ed e53d 256a f33d
00000360: bcd7 053c e699 493d 366c a9bd edd1 a1bd
00000370: d914 563d d24e 083e 7319 18bc 1d53 d73d
00000380: 863f dc3d 58a7 dabd ffa1 a1bd 98b0 003e
00000390: 07d0 5f3d bed6 1ebe 1bd5 12be 6edb f6b8
000003a0: f77d d0bd 3e51 00be 1048 b73d cd49 813d
000003b0: eddf c13d f3be aebd 16d1 9d3d 3561 22be
000003c0: ffda b2bd 8587 87bd d10e 90bd 30b2 e53d
000003d0: 8289 bcbd 4f3b 343d 52dc 0abe 5492 6d3d
000003e0: 82cf f9bd 8f16 043e 6b28 153d 7715 893d
000003f0: f447 0c3e 1f23 c73c 7203 35bd 22b3 a83d

lstm.bias_ih_l0 f4 [256]
0.03856554 -0.0072716614 -0.029350108 -0.036782853 0.016957864 0.11930213 0.115866385 0.091825075
0.07690402 0.15520294 -0.067570224 0.1523818 0.06933527 0.14442529 0.059982866 0.13555248
0.055240132 0.03340399 0.024294559 0.13376798 0.08993837 -0.023690647 0.03147997 -0.01406595
-0.046483606 0.1285971 0.053644843 -0.06522488 0.13408227 -0.09279246 0.06167844 -0.047335632
0.16021322 0.09028248 -0.08063377 0.1304893 -0.022447504 -0.028437154 0.11242958 0.11626099
0.037386436 0.11496394 -0.02354022 -0.03311823 0.05404286 -0.0026426786 -0.069815055 0.14745775
-0.04258654 0.09994081 0.1576771 0.11864881 0.09613411 0.096435264 -0.06955984 -0.013625019
0.014432535 0.13143459 0.07323882 -0.033035114 -0.020467412 0.12897246 0.15098342 0.028246881
-0.009554904 0.067559384 -0.07002943 0.002699403 0.13294244 0.14633124 -0.080332756 -0.04300014
0.072681755 -0.050446082 0.17096466 0.057030663 0.052867074 0.0058922893 0.14624317 0.048743494
-0.075216725 -0.05592012 -0.0054399 -0.057739325 -0.016323982 -0.078716725 0.04288443 -0.064339526
0.10440169 0.009278422 -0.13682158 -0.026591841 0.017021405 0.09413349 -0.03698483 0.12928836
0.107307896 -0.05845662 0.10165918 -0.10710198 0.03844928 0.18125217 -0.03775233 0.12696242
-0.03304123 -0.03851807 0.027079282 0.08688956 0.13777372 0.070497625 0.15310149 0.02591206
-0.14490303 0.13468097 0.10665328 0.03041184 -0.0024164119 -0.084340975 -0.005089866 -0.06683421
0.0727707 0.11842309 -0.089525394 0.15454331 0.089434825 0.08085836 0.17774306 -0.09860445
0.06342988 0.09327801 -0.12323256 0.0957452 0.13913886 0.12117506 -0.02468695 -0.084571294
-0.13567676 0.012994057 -0.07842914 -0.036748573 -0.059760924 -0.07341393 -0.020756194 0.02097784
-0.117145754 0.06962441 -0.05877033 -0.039637927 -0.07020672 -0.008383423 0.01087509 0.114072844
-0.021601554 -0.022153767 0.08049433 -0.14150563 0.00049200293 0.07571001 0.098725155 -0.05147406
-0.031348627 -0.06547537 0.062119372 0.11253443 0.1351007 -0.10898123 -0.0824129 0.020680089
-0.0806651 -0.12495638 -0.060284056 0.032807007 0.00016875385 -0.057825863 -0.120345615 -0.07479008
0.031038895 0.06112287 0.12441866 0.08809633 0.10271362 0.0826185 -0.115696475 -0.0026656035
-0.0987383 0.017736005 -0.08967014 0.0924446 -0.038792957 -0.046333633 -0.119826816 -0.1515269
5.8193968e-05 0.13556886 0.14511625 -0.027013171 0.08497567 -0.031726483 0.053793523 0.14731486
-0.05642009 0.11942381 0.14624777 -0.03280112 -0.093183964 0.076550804 0.14358634 0.03878286
0.0144503135 -0.026130276 0.056482576 -0.072024666 -0.07283798 0.14809556 0.0899995 0.10926112
0.046432048 0.010671646 0.13305871 0.10469923 0.018236836 -0.021206502 -0.1029376 0.13405564
-0.027742276 0.029361054 0.076354936 0.031889703 0.1520345 -0.011541577 -0.06042164 0.06809617
-0.03869807 0.12157552 0.024640372 0.040657964 0.07497927 0.042588327 0.035326965 0.0061490918
0.14137526 0.05772988 0.14071302 0.068021476 0.09873506 0.1032514 0.074231625 0.106342405
0.017325396 0.13209592 0.117922716 0.062430996 0.16699538 0.01040896 -0.02785598 -0.022226702
00000000: e6f6 1d3d 1e47 eebb a36f f0bc 9ea9 16bd
00000010: 38eb 8a3c ad54 f43d 5b4b ed3d c90e bc3d
00000020: db7f 9d3d 85ed 1e3e 4262 8abd f909 1c3e
00000030: a6ff 8d3d 39e4 133e 98b0 753d 45ce 0a3e
00000040: 7a43 623d 9fd2 083d 6205 c73c 79fa 083e
00000050: 9c31 b83d e312 c2bc 24f1 003d df74 66bc
00000060: 9865 3ebd f5ae 033e b2ba 5b3d 9f94 85bd
00000070: dd4c 093e f909 bebd 88a2 7c3d 02e3 41bd
00000080: ef0e 243e 05e6 b83d 5123 a5bd fd9e 053e
00000090: d4e3 b7bc 09f5 e8bc 7b41 e63d 3e1a ee3d
000000a0: 8522 193d 3772 eb3d 6bd7 c0bc fba6 07bd
000000b0: 0c5c 5d3d ca30 2dbb 32fb 8ebd 2aff 163e
000000c0: 396f 2ebd c4ad cc3d 1b76 213e 26fe f23d
000000d0: f6e1 c43d da7f c53d 6475 8ebd 793b 5fbc
000000e0: 7076 6c3c ca96 063e 3cfe 953d d44f 07bd
000000f0: 46ab a7bc 5b11 043e 669b 1a3e 0166 e73c
00000100: 2c8c 1cbc 935c 8a3d 976b 8fbd 78e8 303b
00000110: 1022 083e dbd7 153e 8085 a4bd ea20 30bd
00000120: 2cda 943d 8da0 4ebd 5c11 2f3e fc98 693d
00000130: 258b 583d 1b14 c13b c5c0 153e 42a7 473d
00000140: 3a0b 9abd 7f0c 65bd 3041 b2bb 1280 6cbd
00000150: dfb9 85bc 3c36 a1bd 96a7 2f3d 71c4 83bd
00000160: 8ed0 d53d 8604 183c f51a 0cbe 22d7 d9bc
00000170: 7970 8b3c 0fc9 c03d 687d 17bd 2b64 043e
00000180: 3ec4 db3d 3570 6fbd b032 d03d 4858 dbbd
00000190: fe7c 1d3d 2b9a 393e 30a2 1abd 7002 023e
000001a0: 3e56 07bd 20c5 1dbd 5fd5 dd3c 27f3 b13d
000001b0: 8e14 0d3e 0f61 903d a3c6 1c3e 8745 d43c
000001c0: 7661 14be cfe9 093e 096d da3d 4022 f93c
000001d0: aa5c 1ebb f6ba acbd e4c8 a6bb 60e0 88bd
000001e0: ce08 953d ce87 f23d 1759 b7bd 9a40 1e3e
000001f0: 9b29 b73d 1199 a53d 4702 363e 21f1 c9bd
00000200: 86e7 813d 8b08 bf3d 5a61 fcbd 0f16 c43d
00000210: 6b7a 0e3e a12a f83d 493c cabc b733 adbd
00000220: d9ee 0abe 06e5 543c 759f a0bd ac85 16bd
00000230: dfc7 74bd 0b5a 96bd e508 aabc b8d9 ab3c
00000240: 1dea efbd 3e97 8e3d 28b9 70bd 615b 22bd
00000250: 8ac8 8fbd a05a 09bc 6f2d 323c 069f e93d
00000260: bef5 b0bc d17b b5bc 36da a43d dae6 10be
00000270: c2f9 003a da0d 9b3d 6a30 ca3d 77d6 52bd
00000280: 6b67 00bd f317 86bd e270 7e3d 7478 e63d
00000290: d757 0a3e 8d31 dfbd 18c8 a8bd 4a69 a93c
000002a0: be33 a5bd 21e9 ffbd 6aec 76bd a460 063d
000002b0: 84f3 3039 d0da 6cbd c377 f6bd 8b2b 99bd
000002c0: 4845 fe3c f95b 7a3d 36cf fe3d d96b b43d
000002d0: 855b d23d e333 a93d 46f2 ecbd 68b1 2ebb
000002e0: 4e37 cabd 194b 913c faa4 b7bd 9853 bd3d
000002f0: 5de5 1ebd 56c8 3dbd c367 f5bd de29 1bbe
00000300: 4c15 7438 90d2 0a3e 5b99 143e ba4a ddbc
00000310: b907 ae3d a1f3 01bd 9956 5c3d b5d9 163e
00000320: c118 67bd 7894 f43d fac1 153e 785a 06bd
00000330: 3cd7 bebd abc6 9c3d 4c08 133e c7da 1e3d
00000340: 02c1 6c3c 290f d6bc 465a 673d ab81 93bd
00000350: 142c 95bd 5da6 173e a851 b83d 4bc4 df3d
00000360: 882f 3e3d 21d8 2e3c 8b40 083e 8d6c d63d
00000370: 6b65 953c 42b9 adbc f3d0 d2bd e245 093e
00000380: c543 e3bc 9886 f03c fa5f 9c3d c79e 023d
00000390: efae 1b3e e218 3dbc ae7c 77bd 0176 8b3d
000003a0: de81 1ebd 96fc f83d 9bda c93c f788 263d
000003b0: bb8e 993d 1971 2e3d 02b3 103d 527e c93b
000003c0: adc4 103e 2b76 6c3d 1317 103e d84e 8b3d
000003d0: 9b35 ca3d 7875 d33d c006 983d 0cca d93d
000003e0: fded 8d3c 2744 073e 7781 f13d a5b7 7f3d
000003f0: d600 2b3e 588a 2a3c 3932 e4bc c614 b6bc

lstm.bias_hh_l0 f4 [256]
-0.08814282 -0.014224539 0.11094937 0.062054098 0.1448786 -0.0005325686 0.03385514 -0.057947215
0.14879769 -0.04507894 0.077730246 -0.013115918 0.10893777 0.16930966 0.14708018 -0.05296552
-0.045100488 -0.02807089 -0.033647235 -0.00866104 -0.020813392 -0.07426903 -0.059548218 0.06090734
0.0684318 0.022986433 -0.056205124 -0.013873164 0.040695474 0.12270653 -0.087362476 0.15710154
0.066878386 -0.069640435 -0.11311508 0.14801617 0.11866912 0.015664537 0.08098688 0.023589892
-0.054636344 -0.0006708383 0.13956366 0.0870676 0.06906734 0.11586711 0.13491672 -0.029956749
0.1192174 0.05975701 0.08212447 0.03478138 -0.057689976 -0.03368655 0.077879295 -0.06379259
0.0075751124 0.09462691 0.014485166 0.15704755 0.10207986 -0.024256166 0.13533977 0.020430615
-0.009104337 0.13872243 0.10327826 0.12582596 -0.06482146 0.08526905 0.14077649 0.09277194
0.014505744 -0.11001474 0.12578148 -0.012161834 -0.020607583 0.055312518 0.10061235 0.09453432
0.018716818 -0.0022401395 -0.05974408 0.094244234 -0.092361115 0.07264605 0.11872982 -0.0039804056
0.006317897 0.013151666 -0.09248058 0.05469873 -0.034908846 -0.009482649 0.10102808 0.098006465
0.038488694 -0.05841631 0.11931765 0.02163288 0.073844716 -0.050755903 0.13439651 0.020079799
-0.05537188 0.04684184 0.13366745 0.11434802 -0.041393157 0.09790412 0.11804428 0.10215952
-0.084763266 0.06033786 -0.03003458 0.04235899 0.06744036 -0.0041891937 -0.089207955 -0.054044887
-0.031415854 -0.080445185 -0.00971885 0.0020557218 -0.034126867 0.004941958 0.09529053 -0.024865653
0.0005907744 -0.08924816 -0.0345879 -0.0783762 -0.010137411 0.08069147 0.050983492 0.07985156
-0.123801075 0.028654069 0.040952664 -0.0018277132 -0.06509398 -0.010972883 0.059355747 -0.04822331
0.11027953 0.07788519 -0.050720852 -0.0006993355 0.00026908604 -0.12513033 0.09936706 0.012146052
-0.12019923 0.04818239 0.013088166 -0.039459873 0.10338613 0.101258926 0.09608002 0.0349683
0.06760365 0.05529394 0.0951055 -0.022743754 -0.013851798 -0.10723629 -0.06999053 -0.13107744
0.044515245 -0.06370325 0.112460315 0.08598598 -0.077969715 0.105023146 0.04677979 0.079445675
-0.073168755 0.09072347 -0.026763672 0.10302287 0.03248894 0.00901165 -0.09870546 -0.10915845
-0.101911776 0.0072414554 0.03654241 0.07239151 0.032742955 0.06151153 -0.031313777 -0.08846366
-0.07530453 0.07783487 -0.060064204 0.11156619 0.1339532 -0.02836631 0.10258515 0.16708657
0.015678221 -0.068028286 -0.06032937 0.054044317 0.1289948 0.106086046 0.12200344 -0.0070141936
0.024495825 -0.06226681 0.12462475 -0.023592563 -0.012410405 0.04174092 -0.018261291 0.14396842
0.022253508 -0.0724014 -0.0019928312 0.09143514 -0.02856406 0.0063431407 0.058142316 0.017645977
0.13099195 0.033748996 0.017506735 -0.0789191 0.1589316 0.11334346 -0.024188831 0.106556796
-0.08891398 0.12150544 0.14984581 -0.03606272 -0.0017244352 0.12533379 0.16174701 -0.023637986
-0.0037857995 0.10180264 0.15545903 0.1325575 0.004539203 -0.0750623 0.14928177 -0.014875936
0.010365335 0.074379094 0.11020404 0.11297482 0.03906494 0.006156854 0.15705179 0.07151306
00000000: 3984 b4bd 0a0e 69bc 6c39 e33d 702c 7e3d
00000010: 0e5b 143e 139c 0bba b0ab 0a3d 0f5a 6dbd
00000020: 6c5e 183e b2a4 38bd 0931 9f3d 26e4 56bc
00000030: c41a df3d 835f 2d3e 309c 163e 60f2 58bd
00000040: 4abb 38bd ecf4 e5bc afd1 09bd 09e7 0dbc
00000050: d980 aabc 5c1a 98bd d5e8 73bd fa79 793d
00000060: f925 8c3d 0b4e bc3c 5837 66bd 444c 63bc
00000070: 4cb0 263d 904d fb3d 19eb b2bd 3adf 203e
00000080: 89f7 883d a59f 8ebd e1a8 e7bd 8d91 173e
00000090: cc08 f33d ea52 803c 73dc a53d 973f c13c
000000a0: 5cca 5fbd 32db 2fba c7e9 0e3e 7f50 b23d
000000b0: 2d73 8d3d bc4b ed3d 9c27 0a3e db67 f5bc
000000c0: 4128 f43d c4c3 743d e030 a83d ec76 0e3d
000000d0: 534c 6cbd e8fa 09bd 2e7f 9f3d b0a5 82bd
000000e0: a638 f83b c1cb c13d 3153 6d3c 13d1 203e
000000f0: 3f0f d13d deb4 c6bc 8296 0a3e 1b5e a73c
00000100: 5b2a 15bc 410d 0e3e 8d83 d33d 85d8 003e
00000110: 1dc1 84bd 8aa1 ae3d b627 103e 37ff bd3d
00000120: 80a9 6d3c 684f e1bd dccc 003e 6e42 47bc
00000130: 3cd1 a8bc 618f 623d d90d ce3d 369b c13d
00000140: 0354 993c 4ecf 12bb 35b6 74bd 1f03 c13d
00000150: d327 bdbd 74c7 943d 9f28 f33d 106e 82bb
00000160: 5c06 cf3b 167a 573c 7566 bdbd c70b 603d
00000170: 94fc 0ebd 1d5d 1bbc cfe7 ce3d 9db7 c83d
00000180: 52a6 1d3d f145 6fbd d05c f43d 7037 b13c
00000190: e63b 973d 6ce5 4fbd 3d9f 093e 647e a43c
000001a0: a0cd 62bd 3bdd 3f3d 1fe0 083e 4b2f ea3d
000001b0: df8b 29bd f581 c83d 33c1 f13d 0339 d13d
000001c0: 5d98 adbd d524 773d 140b f6bc 9f80 2d3d
000001d0: 2c1e 8a3d 8145 89bb a9b2 b6bd 2c5e 5dbd
000001e0: e9ad 00bd 72c0 a4bd d03b 1fbc 4ab9 063b
000001f0: 9dc8 0bbd 26f0 a13b ae27 c33d 0eb3 cbbc
00000200: 33de 1a3a bdc7 b6bd 0bac 0dbd b383 a0bd
00000210: 6217 26bc 9241 a53d 11d4 503d 3789 a33d
00000220: 6b8b fdbd f0bb ea3c fbbd 273d e18f efba
00000230: fe4f 85bd 9bc7 33bc 031f 733d ce85 45bd
00000240: 3cda e13d 4582 9f3d abc0 4fbd 9c53 37ba
00000250: 1e14 8d39 2a22 00be f580 cb3d 3c00 473c
00000260: 042b f6bd e65a 453d bf6f 563c ada0 21bd
00000270: 1bbc d33d d760 cf3d 9ac5 c43d ec3a 0f3d
00000280: c873 8a3d e67b 623d acc6 c23d 1c51 babc
00000290: a7f2 62bc b39e dbbd 3257 8fbd 2a39 06be
000002a0: 9e55 363d d976 82bd 9851 e63d 6b19 b03d
000002b0: 96ae 9fbd 6016 d73d 2a9c 3f3d 6ab4 a23d
000002c0: 80d9 95bd 3acd b93d 7d3f dbbc a8fd d23d
000002d0: 1f13 053d 9aa5 133c 1726 cabd 778e dfbd
000002e0: 1fb7 d0bd bb49 ed3b 7ead 153d 0042 943d
000002f0: 7a1d 063d 84f3 7b3d e042 00bd 6f2c b5bd
00000300: 4339 9abd e367 9f3d e205 76bd d17c e43d
00000310: 072b 093e 7760 e8bc 2a18 d23d be18 2b3e
00000320: 9d6f 803c 6a52 8bbd ee1b 77bd 935d 5d3d
00000330: 3617 043e a443 d93d f1dc f93d 52d7 e5bb
00000340: 78ab c83c 7c0b 7fbd 433b ff3d 3145 c1bc
00000350: 0355 4bbc 87f8 2a3d b498 95bc 756c 133e
00000360: fd4c b63c 2f47 94bd 299a 02bb 5942 bb3d
00000370: 2dff e9bc 1fda cf3b a326 6e3d 4c8e 903c
00000380: c122 063e 633c 0a3d 496a 8f3c 56a0 a1bd
00000390: f7be 223e 9e20 e83d a827 c6bc 733a da3d
000003a0: 8818 b6bd d8d7 f83d 2e71 193e 81b6 13bd
000003b0: 7206 e2ba 8057 003e 02a1 253e 73a4 c1bc
000003c0: 2d1b 78bb e77d d03d a730 1f3e 27bd 073e
000003d0: 98bd 943b 43ba 99bd 52dd 183e 33ba 73bc
000003e0: 5ed3 293c 1154 983d a8b2 e13d 585f e73d
000003f0: 8f02 203d 6fbf c93b 2fd2 203e 7075 923d

lstm.weight_ih_l1 f4 [256, 64]
0.0029460043 0.14508161 0.065117024 0.012303907 -0.035511494 -0.101765156 0.11420662 0.06455741
-0.058929306 0.15056932 -0.106051564 0.041817926 -0.050704025 0.02772654 -0.12691163 0.08562237
-0.1666923 0.09907582 -0.12466018 -0.020728957 0.0683078 -0.025149614 -0.0837236 -0.02208256
0.17084886 -0.040201396 0.06664825 0.005968675 0.08609663 0.048693765 0.11777546 0.09550145
0.043409206 0.055758696 0.13068637 0.08132356 -0.06319425 -0.08167891 -0.15911995 0.028808901
0.019425081 -0.15687017 0.04659057 0.14237456 0.10516449 -0.11859704 -0.11165119 0.059315775
-0.02479336 0.05051138 0.048504546 -0.06669269 -0.08084541 -0.017939474 -0.00049793016 -0.13925964
-0.081298694 0.13790284 -0.10254222 -0.029686539 -0.05018959 0.10903256 0.041897677 -0.08907675
-0.0015960434 -0.06563948 0.008898081 0.038804717 -0.054627582 0.1524274 -0.0766322 -0.033166684
0.028524939 0.1282342 0.058053944 -0.033175144 -0.08380389 -0.09957181 -0.08500477 -0.036531407
0.0967575 0.051000103 0.04631474 0.10099832 -0.12244581 -0.006358724 0.10909654 0.09599999
0.121840924 -6.0914026e-05 -0.0019456119 0.06401969 -0.08117203 -0.016354106 0.026107758 -0.08113593
-0.09626358 -0.06614992 0.101079695 0.112104595 0.020712953 0.050306972 0.094997264 -0.106885955
0.03681707 -0.05359054 0.074367516 0.12946568 0.104171276 -0.11099353 0.115448035 0.011694326
0.055171363 -0.019719282 -0.031867713 0.08622345 -0.09758113 0.072495885 -0.039979514 0.055797346
0.121510066 0.066612795 -0.06365012 -0.015552281 -0.06067182 -0.035695724 -0.00034332532 -0.0869962
0.026881445 -0.0255177 0.07732608 -0.041004013 0.10733131 0.04093825 0.03365222 0.16438963
0.0663898 -0.026470572 -0.0016607359 0.014753001 0.019249514 0.0070290016 -0.08275152 0.1383141
0.056510773 0.07782943 -0.12605071 0.021071114 -0.060290504 0.063326456 0.116421945 0.067897044
0.12197063 0.11249927 0.12127957 -0.11466718 0.09860631 0.092751354 0.08574146 0.0579867
-0.083873406 0.037091978 -0.045166742 0.022668736 -0.06806966 -0.07035545 0.07008446 0.023766432
0.005196454 -0.0660046 -0.09041428 -0.029735848 -0.055527397 0.10325098 0.05679022 -0.086338386
0.008382779 0.022564843 0.0883148 0.115369946 -0.075009495 -0.00443316 -0.08117861 0.020077595
-0.08171643 0.11310863 -0.107887276 -0.0019127179 0.03110443 0.09719736 0.03053231 -0.071314536
0.11158041 -0.09492079 -0.13298164 -0.09428166 -0.050611172 0.030274244 0.016380757 -0.021502517
0.02670157 0.072915636 0.0428189 -0.0758065 0.07512235 -0.047232196 0.023582984 0.054311063
0.101780534 -0.087242305 -0.08628459 -0.0035153443 -0.116095655 0.029282909 -0.045659073 0.02235605
-0.07679537 -0.03619284 0.042614818 -0.018947456 -0.056485705 0.12246293 0.04802479 -0.045953337
-0.0011385202 -0.11162455 -0.09748563 -0.08889382 0.029305099 -0.07668021 -0.05194547 -0.07024254
-0.098891005 -0.08342096 -0.045323897 -0.0041526053 -0.080342226 -0.09343329 -0.00066519884 0.07011517
-0.03653293 0.046058506 -0.097124465 0.10585234 -0.059588518 0.0024843973 -0.089289844 0.091822095
-0.04844648 -0.062837124 -0.12248032 0.07556243 -0.10064541 0.025969036 -0.012749313 -0.04538532
00000000: c011 413b 4690 143e 135c 853d 5496 493c
00000010: 8074 11bd 406a d0bd 29e5 e93d ad36 843d
00000020: db5f 71bd d82e 1a3e 9031 d9bd 4649 2b3d
00000030: 06af 4fbd c522 e33c 1ff5 01be c85a af3d
00000040: 63b1 2abe 43e8 ca3d d64d ffbd c6cf a9bc
00000050: f6e4 8b3d 9006 cebc 4777 abbd 7ce6 b4bc
00000060: 01f3 2e3e 38aa 24bd e17e 883d e094 c33b
00000070: 6e53 b03d 1d73 473d 4334 f13d 4496 c33d
00000080: dacd 313d 3b63 643d a6d2 053e f78c a63d
00000090: fd6b 81bd 4647 a7bd 57f0 22be a500 ec3c
000000a0: 5921 9f3c 93a2 20be c1d5 3e3d a3ca 113e
000000b0: 7b60 d73d 01e3 f2bd 61a9 e4bd 19f5 723d
000000c0: 721b cbbc 05e5 4e3d b4ac 463d 2d96 88bd
000000d0: 4792 a5bd cef5 92bc 8787 02ba 149a 0ebe
000000e0: ee7f a6bd 6736 0d3e a801 d2bd 2f31 f3bc
000000f0: 9993 4dbd 764c df3d e69c 2b3d df6d b6bd
00000100: 5432 d1ba fe6d 86bd 42c9 113c b2f1 1e3d
00000110: 2cc1 5fbd ee15 1c3e 58f1 9cbd cad9 07bd
00000120: 22ad e93c d34f 033e f9c9 6d3d a9e2 07bd
00000130: 60a1 abbd 4eec cbbd fb16 aebd f5a1 15bd
00000140: cc28 c63d 7ce5 503d 86b4 3d3d 35d8 ce3d
00000150: dec4 fabd d85c d0bb 026e df3d a59b c43d
00000160: bc87 f93d f07d 7fb8 e703 ffba c11c 833d
00000170: 853d a6bd 0cf9 85bc f0df d53c 982a a6bd
00000180: d725 c5bd 9c79 87bd df02 cf3d 1897 e53d
00000190: 36ae a93c af0e 4e3d ed8d c23d 06e7 dabd
000001a0: 7fcd 163d c181 5bbd ff4d 983d a792 043e
000001b0: c057 d53d 9350 e3bd 0570 ec3d 8f99 3f3c
000001c0: 5efb 613d 558a a1bc b887 02bd ec95 b03d
000001d0: 9ed8 c7bd b978 943d 8fc1 23bd c28b 643d
000001e0: 45da f83d 4a6c 883d fe5a 82bd ffce 7ebc
000001f0: 0483 78bd ae35 12bd 5800 b4b9 102b b2bd
00000200: 7a36 dc3c 7f0a d1bc 235d 9e3d d3f3 27bd
00000210: 85d0 db3d deae 273d e9d6 093d c155 283e
00000220: 60f7 873d d0d8 d8bc 0dad d9ba 92b6 713c
00000230: 28b1 9d3c 8a53 e63b a179 a9bd 36a2 0d3e
00000240: d777 673d 0965 9f3d 7013 01be 549d ac3c
00000250: 2df3 76bd 4db1 813d a16e ee3d 9b0d 8b3d
00000260: bdcb f93d 0466 e63d 6c61 f83d a0d6 eabd
00000270: 1bf2 c93d 6cf4 bd3d 3899 af3d 7683 6d3d
00000280: d2c5 abbd c2ed 173d c300 39bd c9b3 b93c
00000290: 1b68 8bbd 8516 90bd 7188 8f3d d2b1 c23c
000002a0: 0447 aa3b 6b2d 87bd 1f2b b9bd 9898 f3bc
000002b0: b270 63bd 4075 d33d dd9c 683d 2ed2 b0bd
000002c0: ec57 093c e8d9 b83c 64de b43d 1447 ec3d
000002d0: 949e 99bd 0b44 91bb f940 a6bd c579 a43c
000002e0: f25a a7bd 7fa5 e73d 01f4 dcbd 2ab4 faba
000002f0: b8ce fe3c 690f c73d e51e fa3c 5b0d 92bd
00000300: 4584 e43d d565 c2bd 572c 08be be16 c1bd
00000310: a94d 4fbd b101 f83c f030 863c 0c26 b0bc
00000320: 40bd da3c cb54 953d df62 2f3d 7040 9bbd
00000330: bfd9 993d 8c76 41bd 1a31 c13c 4775 5e3d
00000340: 5072 d03d 18ac b2bd fab5 b0bd b161 66bb
00000350: 8fc3 edbd b6e2 ef3c 0205 3bbd 0924 b73c
00000360: e446 9dbd f23e 14bd e08c 2e3d b237 9bbc
00000370: 8e5d 67bd d8cd fa3d a4b5 443d 9139 3cbd
00000380: 663a 95ba 699b e4bd 8ca6 c7bd f70d b6bd
00000390: 3f11 f03c 840a 9dbd c6c4 54bd 52db 8fbd
000003a0: 5e87 cabd 9cd8 aabd 8da5 39bd 9412 88bb
000003b0: 778a a4bd f459 bfbd bd60 2eba 8b98 8f3d
000003c0: 8ea3 15bd d8a7 3c3d 31e9 c6bd 1dc9 d83d
000003d0: 1713 74bd 45d1 223b 98dd b6bd 390d bc3d
000003e0: d16f 46bd c0b0 80bd f6d6 fabd 7ac0 9a3d
000003f0: 2e1f cebd 04bd d43c 7fe2 50bc f5e5 39bd

lstm.weight_hh_l1 f4 [256, 64]
0.041067377 0.047743373 -0.090165846 -0.09020817 -0.025763411 0.1149213 0.048751473 -0.021451546
-0.1341739 0.03409955 -0.06465112 0.07978878 -0.110912316 -0.050685916 -0.0049591274 -0.01326107
0.085900754 -0.08345647 0.061313286 -0.053657815 0.072504155 0.10385102 -0.024952218 -0.07194958
-0.048674267 0.031148497 -0.030729797 0.021033209 -0.115775004 0.099055186 0.08830214 0.08383183
-0.06286171 0.05139922 -0.025597977 -0.038923196 -0.048568495 0.048997115 -0.02895422 0.01133239
0.047665235 -0.10565439 0.05524897 0.14793977 -0.072259896 -0.04385819 -0.07880225 0.07978682
0.0041864235 -0.03594165 -0.15291046 0.061031017 0.051757302 -0.06618383 0.103282854 0.012557273
0.09546576 0.13245884 0.031416792 0.07054542 0.06265991 0.024432665 0.027116366 -0.045306493
0.02975307 -0.024639806 -0.050096247 -0.09957858 0.102724165 0.06022441 -0.09493019 -0.07424773
0.08200793 0.0067725116 -0.057725005 0.082787424 0.06779014 -0.0072360896 0.05531521 -0.08777519
-0.03298729 -0.0050915633 0.1275936 -0.02567304 0.035542883 -0.058548883 -0.0018414676 -0.06119545
-0.053684454 -0.060400527 -0.11145092 -0.06997125 -0.08012157 0.03107883 -0.11765865 -0.12839982
0.03357006 0.091293775 0.003606983 0.087766826 -0.057414945 0.11594593 -0.05761985 0.015144788
0.07523587 -0.039176155 0.03950956 0.110711545 -0.10837318 0.03583268 0.00027856737 -0.0038641049
-0.10525644 0.09576378 -0.010137871 0.04777061 0.014599255 -0.0003485214 0.0304505 -0.021509498
0.03635263 0.08775372 -0.09161633 -0.13103105 -0.086391814 -0.04983298 0.05559675 0.049391873
-0.12209926 0.043340802 -0.15394434 -0.091621764 0.08159908 0.137605 0.07936453 0.07078294
-0.15450464 -0.0960848 0.034711484 0.077477686 -0.10771154 0.029624214 0.033862624 -0.053457808
0.067629784 -0.042730138 0.09635421 0.02933763 0.020577198 0.019682132 0.053157933 0.05754198
-0.08962071 0.06263435 -0.07127293 -0.09401704 -0.119703755 -0.019809503 -0.01809084 0.11973374
0.042511575 0.12066865 -0.03330655 0.05643384 -0.07878027 0.015560217 0.035198938 0.06331224
-0.010583588 -0.07302642 -0.1139071 0.030474043 0.09956681 0.17346545 0.029562544 -0.0530655
-0.09169994 -0.052415 0.060610082 -0.020730797 0.05749244 -0.068910085 -0.08316499 0.14153071
0.1447934 -0.019355936 0.01523923 -0.0679431 -0.0014833104 -0.07332383 -0.043244164 0.05101722
0.05108522 -0.03940831 0.13331963 0.11239247 -0.086552046 0.06153247 0.049324546 -0.09671781
-0.021887243 0.032211743 -0.04614471 -0.008963795 0.12354729 0.010501257 0.09420659 0.089316264
0.116667315 0.07932866 -0.09243002 0.03620823 0.12953648 -0.08664958 0.06782849 0.048853617
-0.0112911975 -0.0048579564 0.11352044 -0.03508297 0.11617342 -0.028796615 0.068218574 0.014622184
-0.042766474 0.092944466 -0.030742269 -0.067977995 0.13047272 -0.101391874 0.05178472 0.09142742
0.10433723 0.020968614 -0.00899575 0.041863687 0.101420976 -0.050524805 0.036877874 -0.05827588
0.083744064 -0.06067223 -0.003901917 -0.098783545 0.07621634 -0.05288605 -0.026452795 -0.003706512
0.029893184 0.006534549 0.04898013 0.12584141 -0.03212335 0.019241 0.013855342 0.1096768
00000000: 4436 283d 8e8e 433d dfa8 b8bd 10bf b8bd
00000010: ca0d d3bc dc5b eb3d a0af 473d 27bb afbc
00000020: e264 09be f8ab 0b3d ce67 84bd 4d68 a33d
00000030: ff25 e3bd 099c 4fbd 2d80 a2bb f544 59bc
00000040: bcec af3d 3aeb aabd a423 7b3d 4cc8 5bbd
00000050: 0f7d 943d d8af d43d 9868 ccbc 4d5a 93bd
00000060: ab5e 47bd 222b ff3c 0ebd fbbc d64d ac3c
00000070: 721b edbd 72dd ca3d c1d7 b43d 06b0 ab3d
00000080: a4bd 80bd fd87 523d d9b2 d1bc ee6d 1fbd
00000090: c2ef 46bd 33b1 483d 6631 edbc 7dab 393c
000000a0: 9f3c 433d 5461 d8bd be4c 623d 867d 173e
000000b0: fffc 93bd a5a4 33bd 1363 a1bd 4667 a33d
000000c0: 442e 893b 8d37 13bd 8f94 1cbe a9fb 793d
000000d0: 77ff 533d 638b 87bd f685 d33d 05bd 4d3c
000000e0: 8d83 c33d 4aa3 073e e5ae 003d 1e7a 903d
000000f0: d753 803d 0327 c83c 2423 de3c 4d93 39bd
00000100: b6bc f33c 6bd9 c9bc b931 4dbd dbef cbbd
00000110: 0c61 d23d dfad 763d c26a c2bd 320f 98bd
00000120: c6f3 a73d f2eb dd3b 0e71 6cbd 748c a93d
00000130: 8fd5 8a3d b81c edbb 3492 623d 7bc3 b3bd
00000140: ae1d 07bd 21d7 a6bb e6a7 023e 4450 d2bc
00000150: 6a95 113d f4d0 6fbd 665d f1ba 15a8 7abd
00000160: 3be4 5bbd 8b66 77bd 6140 e4bd 164d 8fbd
00000170: c716 a4bd 0899 fe3c 05f7 f0bd 3e7b 03be
00000180: c280 093d 3bf8 ba3d 2263 6c3b 18bf b33d
00000190: ef2b 6bbd 0f75 ed3d cb02 6cbd d821 783c
000001a0: 4415 9a3d 2d77 20bd c7d4 213d bcbc e23d
000001b0: c2f2 ddbd 4ac5 123d ae0c 9239 ec3c 7dbb
000001c0: b090 d7bd cd1f c43d 5019 26bc 1dab 433d
000001d0: b731 6f3c c0b9 b6b9 5473 f93c b034 b0bc
000001e0: 7fe6 143d 39b8 b33d 58a1 bbbd 012d 06be
000001f0: 31ee b0bd ab1d 4cbd 6bb9 633d 224f 4a3d
00000200: 2d0f fabd 2086 313d 96a3 1dbe 31a4 bbbd
00000210: 6b1d a73d 53e8 0c3e df89 a23d a5f6 903d
00000220: 7736 1ebe 1cc8 c4bd a12d 0e3d 9fac 9e3d
00000230: de97 dcbd 7bae f23c 89b3 0a3d 93f6 5abd
00000240: 7c81 8a3d cc05 2fbd 5b55 c53d 7855 f03c
00000250: 8391 a83c 6c3c a13c 22bc 593d 24b1 6b3d
00000260: 108b b7bd 7046 803d 8bf7 91bd 028c c0bd
00000270: 3e27 f5bd 8a47 a2bc 3e33 94bc f736 f53d
00000280: 9e20 2e3d 2021 f73d 736c 08bd 2c27 673d
00000290: 8d57 a1bd 48f0 7e3c c32c 103d d9a9 813d
000002a0: c966 2dbc e08e 95bd 2048 e9bd b3a4 f93c
000002b0: afe9 cb3d eda0 313e 262d f23c 365b 59bd
000002c0: 2ecd bbbd 1cb1 56bd 4742 783d a2d3 a9bc
000002d0: 317d 6b3d bb20 8dbd 6852 aabd 6ded 103e
000002e0: b944 143e 5790 9ebc f7ad 793c c125 8bbd
000002f0: a36b c2ba ce2a 96bd cb20 31bd 6ff7 503d
00000300: bc3e 513d 9c6a 21bd f184 083e 062e e63d
00000310: 3342 b1bd 7909 7c3d 8908 4a3d fd13 c6bd
00000320: e04c b3bc 76f0 033d 3c02 3dbd e2dc 12bc
00000330: 5d06 fd3d 770d 2c3c 62ef c03d 72eb b63d
00000340: 46ef ee3d 1177 a23d f34b bdbd 154f 143d
00000350: 36a5 043e 5675 b1bd aae9 8a3d bb1a 483d
00000360: b7fe 38bc 7e2f 9fbb 687d e83d 29b3 0fbd
00000370: 54ec ed3d e1e6 ebbc 2eb6 8b3d e391 6f3c
00000380: e62b 2fbd ab59 be3d 36d7 fbbc 0c38 8bbd
00000390: a49a 053e 8ba6 cfbd 371c 543d 4d3e bb3d
000003a0: c2ae d53d 5fc6 ab3c e962 13bc 4279 2b3d
000003b0: cdb5 cf3d 19f3 4ebd 410d 173d b0b2 6ebd
000003c0: 0282 ab3d 7283 78bd 4eb7 7fbb 074f cabd
000003d0: 5017 9c3d 0b9f 58bd 88b3 d8bc f4e8 72bb
000003e0: 8de2 f43c c51f d63b 649f 483d 92dc 003e
000003f0: c693 03bd 4d9f 9d3c 8401 633c 3b9e e03d

lstm.bias_ih_l1 f4 [256]
0.11886506 -0.06914964 -0.07069383 -0.064370684 0.10921706 0.108281106 0.052832052 0.004227052
0.0064901025 -0.0550471 0.018978499 0.080000184 0.031371176 0.042972654 0.09982603 -0.0025590593
-0.085149445 0.014063539 -0.05213372 0.108111024 0.031626616 0.1593215 -0.08401204 -0.0013817741
-0.04561781 0.0751063 -0.053774714 -0.062434148 -0.054333888 0.10833797 -0.073015064 0.14248261
0.045894932 0.044633202 -0.034820706 0.16456692 -0.044652354 0.115064114 0.007881156 -0.02513697
0.036753204 -0.06845907 0.067214526 0.012678685 -0.03617092 -0.04977835 0.009907256 0.053479396
-0.052855756 -0.09591267 -0.024321247 0.005247836 -0.049608573 0.053479016 0.0095012905 0.118636586
0.043508604 -0.042865224 4.213894e-05 0.115223855 -0.005104211 -0.0065902453 -0.016110538 -0.032718755
-0.09760596 0.01891716 -0.01680856 -0.01482954 0.021497926 0.05466019 0.07516896 0.026920216
0.11568818 0.094796665 -0.04349664 -0.07766308 0.00781288 0.10763662 0.025625851 -0.000872871
-0.07941373 -0.031129215 -0.00035023649 -0.07977545 0.012868541 0.019084657 0.04082077 -0.11193118
0.079952665 0.10825972 -0.062376525 0.12068908 -0.017392896 0.11672261 0.07898991 0.12004448
0.034245282 -0.060630158 0.099259086 0.11797209 -0.0913707 0.08910045 -0.08535728 0.03093619
0.09713429 0.021966696 0.06389267 -0.01396518 -0.10454563 -0.03137824 0.08368077 0.028152416
0.06969891 -0.020060278 0.042593587 0.10393153 -0.045811642 0.03679784 -0.054434005 -0.032292843
0.12487371 0.014117989 -0.013726687 -0.001147551 -0.03244913 0.077306926 0.1301441 -0.10148444
-0.04059745 0.0830605 -0.08620001 0.044374004 -0.011129938 0.06506877 0.12787393 0.053188816
-0.025764959 0.055421803 -0.0560367 0.0781283 0.03958705 0.06996934 -0.1174412 -0.0105527025
0.06206354 0.10773602 -0.035311893 0.102197506 -0.062227555 -0.06825152 0.05766125 -0.028533228
0.0037077274 0.068974115 0.058476582 0.08191988 0.06137979 0.042776592 0.057803474 -0.0055179056
0.121090755 0.1331145 0.09016883 0.0130875725 0.100174874 -0.028467005 0.042328965 -0.084370546
-0.055934057 0.06034327 -0.02704204 0.11144757 -0.063216865 0.032793004 -0.11308998 0.031749293
-0.065516144 0.013341979 0.06623027 0.09904716 0.08825116 -0.015657706 0.09684525 -0.037103463
0.06157884 0.09987781 -0.04376575 0.07314306 0.0731247 -0.026438698 -0.09849629 -0.008503622
-0.033703115 0.079174854 -0.09778946 0.13574469 -0.03034443 -0.036482684 0.10639266 -0.042988
0.04018043 -0.016320258 0.013067244 0.14171493 -0.0751536 0.13283059 0.09788313 0.046104137
0.14872086 0.02444683 0.12194186 0.010810585 -0.09597894 0.15454698 -0.056870718 -0.11017847
0.15308405 0.013373696 0.08917712 0.07121274 0.024071777 -0.052412987 0.07110703 0.02896125
-0.07942679 0.0877582 0.1295855 0.1394891 -0.07551239 0.16270447 0.008394363 0.034133896
-0.09011704 0.09735475 -0.0217761 -0.041863166 -0.022351632 0.0427674 0.016730135 0.035751034
0.06555804 -0.10426954 0.10622108 0.055980813 -0.04086642 0.09186063 -0.06568393 0.0019667288
0.010613089 -0.0929424 0.12699263 -0.09681272 -0.07352675 -0.020139726 -0.021467928 0.007358257
00000000: 866f f33d 549e 8dbd edc7 90bd c7d4 83bd
00000010: 32ad df3d 7cc2 dd3d 6c66 583d 1583 8a3b
00000020: edaa d43b 1179 61bd cc78 9b3c 23d7 a33d
00000030: 107f 003d 1804 303d 9771 cc3d e4b5 27bb
00000040: d562 aebd c26a 663c 2b8a 55bd 5069 dd3d
00000050: e98a 013d 2d25 233e 810e acbd a51c b5ba
00000060: bed9 3abd 55d1 993d e042 5cbd f3ba 7fbd
00000070: 368d 5ebd 4ce0 dd3d ec88 95bd f6e6 113e
00000080: 53fc 3b3d 4ed1 363d 28a0 0ebd 3b84 283e
00000090: 63e5 36bd bca6 eb3d f71f 013c 0cec cdbc
000000a0: 878a 163d 4534 8cbd c5a7 893d 42ba 4f3c
000000b0: f527 14bd 62e4 4bbd 0b52 223c 360d 5b3d
000000c0: 477f 58bd dd6d c4bd 5a3d c7bc 0af6 ab3b
000000d0: 5c32 4bbd d00c 5b3d 4dab 1b3c bdf7 f23d
000000e0: 1436 323d 7293 2fbd 58be 3038 7cfa eb3d
000000f0: 3a41 a7bb fcf2 d7bb 3ffa 83bc 1a04 06bd
00000100: a2e5 c7bd 29f8 9a3c 1bb2 89bc 99f7 72bc
00000110: 6b1c b03c 5de3 5f3d 2ff2 993d c987 dc3c
00000120: eded ec3d c124 c23d 8829 32bd d20d 9fbd
00000130: 9801 003c 9770 dc3d 4eed d13c 62d1 64ba
00000140: aaa3 a2bd b202 ffbc f29f b7b9 5061 a3bd
00000150: 93d6 523c 6d57 9c3c ae33 273d 2d3c e5bd
00000160: 39be a33d 46b7 dd3d 877e 7fbd d62b f73d
00000170: 8c7b 8ebc 440c ef3d 76c5 a13d e1d9 f53d
00000180: c844 0c3d 5457 78bd 5948 cb3d 5a9b f13d
00000190: 9020 bbbd 4c7a b63d cccf aebd e56d fd3c
000001a0: 58ee c63d 80f3 b33c 29da 823d 36ce 64bc
000001b0: 051c d6bd 7886 00bd d360 ab3d e59f e63c
000001c0: 4dbe 8e3d 7455 a4bc 9d76 2e3d 0eda d43d
000001d0: fda4 3bbd 55b9 163d 31f6 5ebd 8045 04bd
000001e0: cabd ff3d 234f 673c e6e5 60bc 6c69 96ba
000001f0: 61e9 04bd 1853 9e3d 7f44 053e 13d7 cfbd
00000200: 8349 26bd a01b aa3d a189 b0bd 84c1 353d
00000210: 585a 36bc c642 853d 62f1 023e 84dc 593d
00000220: 0911 d3bc f901 633d bd86 65bd bb01 a03d
00000230: 0826 223d 164c 8f3d 0385 f0bd 3ee5 2cbc
00000240: 5736 7e3d b4a4 dc3d 34a3 10bd ed4c d13d
00000250: 52e2 7ebd 74c7 8bbd 342e 6c3d 84be e9bc
00000260: 58fd 723b 4d42 8d3d 2485 6f3d 9cc5 a73d
00000270: 6069 7b3d 8236 2f3d 56c3 6c3d 8ccf b4bb
00000280: 6efe f73d 2b4f 083e 6faa b83d 426d 563c
00000290: 7c28 cd3d a333 e9bc 2361 2d3d 77ca acbd
000002a0: 1c1b 65bd 812a 773d 4587 ddbc a03e e43d
000002b0: d877 81bd f551 063d b89b e7bd 8c0b 023d
000002c0: 542d 86bd 5198 5a3c bca3 873d 3dd9 ca3d
000002d0: 06bd b43d 9744 80bc cd56 c63d cdf9 17bd
000002e0: 183a 7c3d bd8c cc3d b743 33bd 07cc 953d
000002f0: 67c2 953d f895 d8bc 6cb8 c9bd c752 0bbc
00000300: 470c 0abd 6d26 a23d d745 c8bd a800 0b3e
00000310: e294 f8bc de6e 15bd 65e4 d93d 2f14 30bd
00000320: 3c94 243d 10b2 85bc fe17 563c b81d 113e
00000330: 21ea 99bd be04 083e f376 c83d b1d7 3c3d
00000340: 484a 183e b844 c83c a7bc f93d e11e 313c
00000350: 9b90 c4bd 9041 1e3e 45f1 68bd 40a5 e1bd
00000360: 11c2 1c3e 591d 5b3c 7ea2 b63d fcd7 913d
00000370: 2d32 c53c 00af 56bd 90a0 913d 2540 ed3c
00000380: 83aa a2bd 92ba b33d 10b2 043e 3bd6 0e3e
00000390: 3da6 9abd 009c 263e 8388 093c fccf 0b3d
000003a0: 488f b8bd ed61 c73d cb63 b2bc b678 2bbd
000003b0: c51a b7bc df2c 2f3d a30d 893c ad6f 123d
000003c0: 4b43 863d 458b d5bd 708a d93d 234c 653d
000003d0: 8c63 27bd 6d21 bc3d 4c85 86bd 3ce4 003b
000003e0: 86e2 2d3c 9658 bebd 5b0a 023e bf45 c6bd
000003f0: 3195 96bd 11fc a4bc 82dd afbc 891d f13b

lstm.bias_hh_l1 f4 [256]
0.08365455 -0.104039915 0.06997175 -0.08832347 0.14425968 -0.055103224 0.079086855 0.04239216
0.12976646 0.11919402 0.080256484 0.05428403 -0.06510869 0.02294542 -0.037231985 0.00032293284
0.0907576 0.11092619 -0.08680422 -0.035420604 0.12812386 0.04353229 -0.013029016 0.066163436
-0.0511413 -0.028280543 0.109710164 0.16540404 0.15660456 -0.049912434 0.11435868 0.08003309
0.055000197 0.013511215 0.15530461 -0.06713677 -0.04111362 0.09261341 -0.0880316 -0.046934363
0.04643793 0.11002873 0.0311351 -0.03511583 0.10629523 0.050000884 0.13218331 0.12685572
0.104818165 0.12917767 0.112381704 -0.018919928 -0.05382613 0.0035072132 0.12763886 -0.066411026
0.07872835 -0.014731635 0.06281085 0.109019175 0.06022334 -0.0075000785 0.053292442 -0.06735373
0.09791371 -0.102300316 0.055451386 0.10213058 0.0253615 0.030953627 -0.031138511 0.12176297
0.11635784 0.06225163 0.09825002 0.068829924 -0.042571075 -0.035051886 -0.023148997 0.12743115
0.09523585 0.103860036 -0.043807264 -0.04054519 0.03050682 0.00822943 -0.040735688 -0.03365384
-0.11550328 0.12510633 -0.042340185 -0.021044096 -0.027060386 -0.045518927 0.017284825 0.08252086
-0.0957099 -0.029690087 0.10846937 0.05448622 0.012008468 -0.040722314 -0.029806405 -0.05495184
-0.07408261 -0.038136896 0.13064343 0.030945834 -0.1089273 0.10704275 -0.0093633775 -0.09836769
-0.012230723 -0.080742106 0.04048525 0.12329377 0.051391296 0.025778942 -0.046374526 0.11430567
0.114623524 0.07962336 -0.061005082 -0.06083182 0.11346234 -0.009129503 -0.061318282 0.08490461
0.055865895 0.09079553 0.07298903 -0.13131759 0.057955794 0.12047062 -0.076825134 0.0102351885
-0.12077913 -0.058490884 0.118762285 0.006762484 0.053201854 0.0039024863 0.06764809 -0.0056183543
0.13263491 -0.121621706 -0.051947303 -0.079412945 0.10556034 0.06135701 -0.053097963 0.0050720056
0.014055674 0.06456544 0.023586249 -0.016061077 -0.07483447 -0.112904474 0.13161865 0.042120624
0.0660823 0.08853814 -0.043178044 -0.016179852 0.096055634 -0.12669249 -0.09036404 0.015721949
0.015626997 -0.061699785 0.028983215 -0.08976042 0.04541691 -0.05898244 -0.03284777 0.1064997
-0.06740346 0.031901617 -0.11904843 0.09185537 -0.009392113 -0.011582476 0.031402 -0.02123142
-0.073052004 0.08591225 0.06077535 -0.059834756 0.04384214 0.06056117 -0.01516004 -0.053262465
0.107728794 0.10047821 0.0128727155 0.110849924 -0.016493348 0.120100684 -0.08259819 -0.02702679
-0.09179129 -0.0601702 0.11238763 0.07497364 -0.07914757 0.026400454 -0.08274555 -0.041768573
0.14310959 0.08637277 0.088886686 -0.014549653 -0.1039521 0.01907852 -0.031010307 0.06804262
0.11162935 -0.05653067 0.012492967 -0.02442806 0.054918837 0.13450907 -0.08857279 -0.06729665
0.0022771508 -0.048139412 0.023739342 -0.01579875 0.08139122 -0.03700319 -0.08997065 0.026314495
0.038259204 0.089003064 0.13676566 0.12846467 -0.02645005 0.050325096 0.08259852 -0.09311105
0.058511075 0.062700175 0.1063465 0.106079936 0.023818802 -0.013667975 0.0191077 0.1196433
-0.06638867 0.1190871 0.13938431 -0.0288648 0.13069864 -0.012610841 -0.028683577 0.01262363
00000000: 1453 ab3d e112 d5bd 594d 8f3d efe2 b4bd
00000010: cfb8 133e ebb3 61bd 4af8 a13d 67a3 2d3d
00000020: 80e1 043e ff1b f43d 835d a43d ee58 5e3d
00000030: b457 85bd 09f8 bb3c 9180 18bd 504f a939
00000040: 1fdf b93d 452d e33d 69c6 b1bd 3215 11bd
00000050: e732 033e ea4e 323d a777 55bc b280 873d
00000060: 8a79 51bd 99ac e7bc b9af e03d ad5f 293e
00000070: f25c 203e fb70 4cbd e234 ea3d 64e8 a33d
00000080: e347 613d 255e 5d3c 2c08 1f3e 017f 89bd
00000090: c166 28bd 19ac bd3d e949 b4bd 3f3e 40bd
000000a0: b335 3e3d be56 e13d 0a0f ff3c 9ed5 0fbd
000000b0: 50b1 d93d bacd 4c3d 105b 073e 77e6 013e
000000c0: e8aa d63d 2747 043e 6128 e63d f7fd 9abc
000000d0: ca78 5cbd 46d9 653b c3b3 023e 8102 88bd
000000e0: 543c a13d f55c 71bc faa2 803d 7245 df3d
000000f0: c0ac 763d 38c3 f5bb 2d49 5a3d c1f0 89bd
00000100: fc86 c83d d482 d1bd fe20 633d d629 d13d
00000110: ecc2 cf3c 7692 fd3c 3116 ffbc dd5e f93d
00000120: 054d ee3d 91fb 7e3d 4e37 c93d b4f6 8c3d
00000130: 025f 2ebd 9192 0fbd f7a2 bdbc 507d 023e
00000140: 030b c33d 92b4 d43d 3f6f 33bd b712 26bd
00000150: 70e9 f93c bbd4 063c 77da 26bd 9cd8 09bd
00000160: fc8c ecbd e01b 003e e76c 2dbd ab64 acbc
00000170: bead ddbc 0e72 3abd e898 8d3c b200 a93d
00000180: 8d03 c4bd a038 f3bc 3025 de3d f12c 5f3d
00000190: 2abf 443c 71cc 26bd 902c f4bc 2e15 61bd
000001a0: a0b8 97bd 6f35 1cbd 64c7 053e 1e82 fd3c
000001b0: 4715 dfbd 3b39 db3d da68 19bc 0075 c9bd
000001c0: 5f63 48bc 1e5c a5bd ddd3 253d 7281 fc3d
000001d0: ae7f 523d 5c2e d33c 37f3 3dbd 1719 ea3d
000001e0: bdbf ea3d 9211 a33d 77e0 79bd c92a 79bd
000001f0: f15e e83d e993 15bc e128 7bbd 78e2 ad3d
00000200: a3d3 643d 02f3 b93d 467b 953d 1e78 06be
00000210: 0e63 6d3d 4db9 f63d 7f56 9dbd 7eb1 273c
00000220: 0c5b f7bd 2394 6fbd a439 f33d d497 dd3b
00000230: 30ea 593d dbc0 7f3b 158b 8a3d 2c1a b8bb
00000240: 72d1 073e cd14 f9bd b2c6 54bd 41a3 a2bd
00000250: 0530 d83d 7d51 7b3d 407d 59bd 1133 a63b
00000260: c549 663c e33a 843d f337 c13c 8592 83bc
00000270: d142 99bd 763a e7bd 0ac7 063e ad86 2c3d
00000280: 2856 873d 7c53 b53d 76db 30bd 9c8b 84bc
00000290: d1b8 c43d adbb 01be c810 b9bd 51cb 803c
000002a0: 3004 803c eab8 7cbd 356e ed3c 50d4 b7bd
000002b0: 1507 3a3d 9297 71bd 628b 06bd 841c da3d
000002c0: d30a 8abd 45ab 023d aacf f3bd ab1e bc3d
000002d0: 61e1 19bc 6dc4 3dbc 629f 003d 84ed adbc
000002e0: 4a9c 95bd c3f2 af3d 93ef 783d 4a15 75bd
000002f0: d193 333d fd0e 783d d161 78bc be29 5abd
00000300: eaa0 dc3d 85c7 cd3d 15e8 523c 4905 e33d
00000310: 0f1d 87bc 59f7 f53d 3d29 a9bd 4967 ddbc
00000320: 12fd bbbd 0775 76bd 7c2b e63d c88b 993d
00000330: 1f18 a2bd c445 d83c 8076 a9bd 8615 2bbd
00000340: 528b 123e 35e4 b03d 390a b63d ab61 6ebc
00000350: d7e4 d4bd 8e4a 9c3c 5409 febc ee59 8b3d
00000360: ee9d e43d b48c 67bd 4daf 4c3c 5b1d c8bc
00000370: 93f2 603d bfbc 093e a765 b5bd d3d2 89bd
00000380: 403c 153b d52d 45bd 0279 c23c 616c 81bc
00000390: 71b0 a63d a890 17bd 8842 b8bd 7f91 d73c
000003a0: afb5 1c3d 3d47 b63d 4c0c 0c3e 3e8c 033e
000003b0: c6ad d8bc b021 4e3d 6a29 a93d 02b1 bebd
000003c0: 4fa9 6f3d f368 803d 32cc d93d 7040 d93d
000003d0: a61f c33c a4ef 5fbc c087 9c3c 8c07 f53d
000003e0: c8f6 87bd f0e3 f33d c3ba 0e3e e075 ecbc
000003f0: ddd5 053e b39d 4ebc d2f9 eabc 58d3 4e3c
