src/Backend-Information/Clod-weather_predict/Hong Kong_lstm_model.pth (torch, 208379 bytes, 11 tensors)

lstm.weight_ih_l0 f4 [256, 3]
0	0x3c210765	0.009828423
1	0x3e27684d	0.16348381
2	0xbd3d8cb0	-0.04627675
3	0x3d32ea53	0.0436805
4	0x3d8f5b99	0.06999893
5	0x3ded164c	0.115765184
6	0xbe0ab395	-0.13545068
7	0x3d97dda2	0.0741532
8	0x3e0e771d	0.13912626
9	0xbe097b19	-0.13425864
10	0x3df11381	0.11771298
11	0x3d9c638c	0.076361746
12	0x3d928ac2	0.07155372
13	0x3da53e16	0.080684826
14	0x3d982ba6	0.074302
15	0x3d963a81	0.073353775
16	0x3cdba6f3	0.026813006
17	0x3dd6ae52	0.10482468
18	0x3db4f9d0	0.088367105
19	0xbdec1a01	-0.11528397
20	0x3cc21874	0.0236933
21	0xbd9945a0	-0.07483983
22	0x3b24fd8c	0.002517554
23	0xbdd58a6e	-0.10426794
24	0xbdc3bb22	-0.09557177
25	0x3e0a841c	0.13526958
26	0xbd9fca4e	-0.078022584
27	0xbcea8108	-0.02862598
28	0x3c64c5a6	0.013963139
29	0xbd0a27e2	-0.03372944
30	0x3b8ede86	0.004360023
31	0xbdb3d130	-0.08780134
32	0xb93e65e6	-0.00018157772
33	0xbd8499bc	-0.06474635
34	0xbe05374c	-0.13009375
35	0xbcd3264e	-0.025775101
36	0xbe2c5b73	-0.1683176
37	0x3dd9137c	0.105994195
38	0x3cb770c6	0.022392642
39	0x3c9bbfa1	0.019012274
40	0xbdc68b30	-0.09694517
41	0x3c1a1d93	0.009406465
42	0x3e02efe2	0.1278682
43	0x3d8af2c9	0.06784589
44	0xbd816e3c	-0.06319854
45	0xbd556ede	-0.052107684
46	0xbe1b0f8a	-0.15142646
47	0x3d58ce5a	0.052931167
48	0xbdfd7eb6	-0.12377684
49	0x3e1899c8	0.14902413
50	0x3cd5c3ca	0.026094336
51	0xbd462150	-0.048371613
52	0xbd2b5c8d	-0.04183631
53	0xbe0e1eb8	-0.13878906
54	0xbde6d117	-0.112703495
55	0x3c72d784	0.014821891
56	0x3d9c54a6	0.07633333
57	0x3dbaa319	0.0911314
58	0xbd54b700	-0.051932335
59	0xbceafa9b	-0.028683951
60	0xbdfcfcd2	-0.12352909
61	0xbdda5b4f	-0.10661947
62	0x3e13565d	0.14388414
63	0x3e1a13fd	0.15046687
64	0x3cce9e25	0.025221894
65	0x3ccee110	0.025253803
66	0x3c5ce68a	0.013482699
67	0x3dad84db	0.08472606
68	0xbc363aca	-0.011122415
69	0x3d094b08	0.03351882
70	0xbd25f5d6	-0.04051765
71	0xba7f2a1d	-0.00097337534
72	0xbdbc5f0e	-0.09197818
73	0x3c397d8a	0.011321435
74	0x3de91d7f	0.11382579
75	0x3c2e1ccf	0.010626986
76	0x3d96caed	0.07362924
77	0xbd7bf371	-0.06151146
78	0xbc353dda	-0.01106211
79	0x3de57a4c	0.11204967
80	0x3d18c119	0.037293527
81	0xbb2f4d88	-0.0026749093
82	0x3e1d3442	0.15351966
83	0x3ce14e72	0.027503226
84	0x3d737650	0.059439003
85	0x3e225c82	0.15855601
86	0x3cbaa098	0.022781655
87	0xbdb374ec	-0.087625355
88	0xbe044b90	-0.1291945
89	0x3dae41da	0.08508654
90	0x3db8e078	0.09027189
91	0xbd139b37	-0.036036696
92	0x3caa65c1	0.020800473
93	0x3bbb76a2	0.0057209292
94	0x3d6a15d6	0.05714973
95	0xbd70f454	-0.05882676
96	0xbc05ebe8	-0.00817392
97	0x3e0c5562	0.13704446
98	0xbcb4f927	-0.022091461
99	0xbdc4c778	-0.09608358
100	0x3da54a83	0.080708526
101	0x3dd92e8f	0.106045835
102	0x3d782ebf	0.060591456
103	0xbd283ddf	-0.04107463
104	0x3dbbc4de	0.09168409
105	0x3c185f62	0.009300085
106	0xbd51ce67	-0.05122223
107	0xbcffe0fe	-0.031235214
108	0xbde8c98c	-0.11366567
109	0xbd8e2390	-0.06940377
110	0x3d793cbb	0.060848933
111	0x3d10e95c	0.0353788
112	0xbdadc9f4	-0.08485785
113	0xbd08e48f	-0.033421095
114	0xbe1475ea	-0.14498106
115	0xbdb98590	-0.09058678
116	0xbd09793c	-0.033562884
117	0x3d8b9283	0.06815054
118	0x3d58d597	0.05293807
119	0x3d5c38e2	0.053765185
120	0xbe094ff4	-0.13409406
121	0x3c5af47f	0.0133639565
122	0x3e132cda	0.14372578
123	0x3d0c6414	0.03427513
124	0xbda70933	-0.081560515
125	0xbda3223f	-0.07965516
126	0xbb837eff	-0.004012942
127	0x3b8d16a4	0.0043056775
128	0x3d10a06d	0.035309244
129	0xbe109b62	-0.14121774
130	0x3dc78a9c	0.097432345
131	0x3ddabbe5	0.10680369
132	0xbd6abde7	-0.05731001
133	0xbc8767ba	-0.016528953
134	0x3cee75f6	0.029108983
135	0xbca0f870	-0.019649714
136	0x3d8443e8	0.064582646
137	0xbe212188	-0.15735447
138	0xbdf5aaea	-0.1199549
139	0x3e21431e	0.1574826
140	0x3dfb33c6	0.122657344
141	0x3de2acb2	0.11068095
142	0xbd97612b	-0.0739158
143	0x3d763463	0.060108554
144	0xbd7ed352	-0.06221325
145	0x3dc86c72	0.09786309
146	0x3e0f3921	0.13986637
147	0x3d9787ec	0.07398972
148	0x3c080f47	0.008304424
149	0xbcbc6584	-0.022997625
150	0xbd2d43d4	-0.042301014
151	0xbd757c3f	-0.059932943
152	0xbcd41f44	-0.025893815
153	0x3d0568f1	0.032570783
154	0xbd98b501	-0.07456399
155	0x3dc2afa2	0.095061556
156	0x3d87b07f	0.06625461
157	0x3db85983	0.09001448
158	0x3ca790e9	0.02045484
159	0x3d14c45d	0.03632008
160	0xbcd04e18	-0.025427863
161	0xbcbbc3ba	-0.022920478
162	0xbe19332f	-0.14960931
163	0x3dab1550	0.083536744
164	0xbd588952	-0.052865334
165	0x3dd4a721	0.1038344
166	0x3d450f47	0.048110273
167	0xbde95413	-0.11392989
168	0xbd882ba3	-0.06648948
169	0xbe11afe9	-0.1422726
170	0x3d1afe1a	0.037839986
171	0xb9eb2342	-0.00044848962
172	0x3de6dda6	0.11272745
173	0x3d47adba	0.048749663
174	0xbe0118b8	-0.12607086
175	0xbaeb870b	-0.0017969323
176	0x3ca8ba13	0.02059654
177	0xbbd62246	-0.0065348474
178	0xbd51b37e	-0.051196568
179	0xbb5621c8	-0.0032673944
180	0x3ca876b8	0.020564422
181	0x3e0acedf	0.13555478
182	0x3d19ca47	0.037546422
183	0xbc88196d	-0.016613686
184	0xbdf8b583	-0.121439956
185	0xbe08903d	-0.13336273
186	0xbd9fcbe4	-0.07802561
187	0x3dcef6e8	0.101056874
188	0x3e04e112	0.12976483
189	0x3d6536ab	0.05596034
190	0x3cfa0bbc	0.030523174
191	0xbcd518e4	-0.026012845
192	0xbe21a602	-0.15785983
193	0x3e1593f7	0.14607225
194	0xbbe7cb28	-0.0070737787
195	0xbb551636	-0.003251446
196	0x3daa9a68	0.08330232
197	0x3d1f582a	0.03890244
198	0xbdcd0e09	-0.100124426
199	0xbdf74c45	-0.12075094
200	0x3db3e6ab	0.08784231
201	0xbe038488	-0.12843525
202	0x3cb8bf82	0.022552256
203	0x3d6f1432	0.05836887
204	0xbe1c1548	-0.15242493
205	0xbd05af0b	-0.032637637
206	0xbd20c0e0	-0.03924644
207	0xbd7496ee	-0.05971425
208	0xbbb5b224	-0.0055449177
209	0xbbc1fe15	-0.0059201815
210	0xbd585fd3	-0.05282576
211	0xbd6d8f1c	-0.057997808
212	0x3d1faa63	0.038980853
213	0x3cb9d2d8	0.022683546
214	0x3cc8f8a1	0.024532618
215	0xbe18ac62	-0.14909509
216	0xbd68d8b4	-0.05684729
217	0xbcf0002c	-0.029296957
218	0xbd9dbb5a	-0.0770175
219	0x3d460c8e	0.048351817
220	0xbd505f32	-0.050872035
221	0x3e0c83da	0.13722172
222	0x3de788d6	0.11305396
223	0xbda78b8f	-0.081809156
224	0x3d8273a8	0.06369716
225	0xbd68fd56	-0.056882225
226	0xbdd53ce3	-0.10412004
227	0x3d0a4d74	0.03376527
228	0xbdbae998	-0.09126586
229	0x3c773ab1	0.015089677
230	0x3cbbbcc1	0.022917153
231	0xbdcc5328	-0.09976798
232	0xbe0d3b32	-0.13792112
233	0x3d649f0f	0.055815753
234	0x3dcca27d	0.0999193
235	0x3d51c06b	0.051208895
236	0x3c0ee00c	0.008720409
237	0x3e2691a0	0.16266489
238	0x3d8f398d	0.06993399
239	0x3c14b30d	0.009075892
240	0x3d07a6dd	0.033118118
241	0xbcaada91	-0.020856174
242	0x3e1f9d40	0.1558733
243	0xbc882ccb	-0.016622921
244	0x3dce3b31	0.100698836
245	0xbd559971	-0.052148286
246	0x3d338aba	0.04383347
247	0x3d6f71b4	0.058458045
248	0xbb9e36c4	-0.004828306
249	0x3dcbec59	0.09957189
250	0xbdb2ce5a	-0.08730765
251	0xbe1c5f88	-0.15270817
252	0x3d2642c1	0.040591005
253	0xbd8f1b73	-0.069876574
254	0x3db0b41e	0.086281046
255	0x3dfb118b	0.122592054

lstm.weight_hh_l0 f4 [256, 64]
0	0xbd79747f	-0.060902115
1	0xbc990294	-0.018677987
2	0x3d92bd99	0.07165069
3	0x3dd7a540	0.10529566
4	0xbd1754ca	-0.036946096
5	0x3e1bba4c	0.15207785
6	0xbd87a1eb	-0.0662268
7	0x3d3b88f1	0.045784894
8	0x3e11e4f2	0.14247492
9	0xbda1933f	-0.07889413
10	0xbdaf937c	-0.08573052
11	0x3d08c8a3	0.033394467
12	0x3aa7d424	0.0012804312
13	0xbde5f2b1	-0.1122793
14	0x3b1503df	0.0022737903
15	0xbe164cb0	-0.14677691
16	0x3dc2428b	0.09485348
17	0x3df4c46e	0.119515285
18	0xbd89d1cf	-0.06729471
19	0xbd0a6eef	-0.0337972
20	0xbd033d67	-0.03204098
21	0x3dd04ec5	0.10171274
22	0x3d745e6a	0.059660353
23	0x3d19a742	0.037513025
24	0x3dd81d7a	0.10552497
25	0x3d743c29	0.059627686
26	0xbd5f8560	-0.054570556
27	0xbdb3a82d	-0.08772311
28	0xbdeeaab3	-0.11653652
29	0xbdd88e66	-0.10574035
30	0x3d691d21	0.056912545
31	0xbd97ca4a	-0.074116305
32	0x3d8d2616	0.0689203
33	0xbe10417d	-0.14087482
34	0x3e2e29ae	0.17008087
35	0x3d1e11e3	0.038591277
36	0xbd64a183	-0.055818092
37	0xbde89a4a	-0.11357553
38	0x3d801327	0.06253653
39	0x3d4c15c8	0.04982546
40	0x3d61abea	0.05509559
41	0x3d391adb	0.045191627
42	0xbe27a566	-0.16371688
43	0xbd17fd16	-0.037106596
44	0xbca0af30	-0.019614786
45	0xbd9066e0	-0.07050872
46	0x3c4dd84b	0.012563775
47	0xbc7d8abd	-0.015474972
48	0xbd9f9667	-0.07792359
49	0xbd1467b7	-0.036231723
50	0xbc14b6cf	-0.009076788
51	0x3c08750c	0.008328687
52	0x3d7f53d0	0.06233579
53	0xbd6a642f	-0.05722445
54	0x3dc3d706	0.09562497
55	0x3dfb3e3e	0.12267731
56	0x3dd4f3ca	0.103980616
57	0xbddead10	-0.10872853
58	0x3d6c17b8	0.057639807
59	0xbdb8a9a0	-0.090167284
60	0xbdabc39b	-0.08386918
61	0xbd08c12a	-0.03338734
62	0xbd6c49ea	-0.057687677
63	0x3bcec41f	0.0063100006
64	0xbe0782c0	-0.13233471
65	0xbd410d9b	-0.047132116
66	0x3dab59b4	0.08366719
67	0xbce79383	-0.028268581
68	0xbd97bb0c	-0.07408723
69	0x3dbf4629	0.09339554
70	0x3d712969	0.058877382
71	0xbdf259c6	-0.11833529
72	0xbd6360cb	-0.05551223
73	0x3cf60f06	0.03003646
74	0x3e0bfe24	0.13671166
75	0xbdc8666d	-0.09785161
76	0x3d8112f3	0.063024424
77	0x3de0c9f7	0.10976022
78	0xbd26bc5c	-0.040706977
79	0xbdbcd379	-0.09220023
80	0x3e07d375	0.13264258
81	0xbd34dee0	-0.044157863
82	0x3db4f98b	0.08836659
83	0xbd73beed	-0.059508253
84	0xbe0b5943	-0.1360827
85	0x3d809c5c	0.06279823
86	0x3c1d2562	0.009591432
87	0x3da65c5b	0.08123084
88	0x3db65f48	0.08904892
89	0x3d9c2f47	0.07626205
90	0x3dea133e	0.114294514
91	0xbc5a87c3	-0.013338032
92	0x3d25612c	0.040375873
93	0xbe10d988	-0.14145482
94	0xbd92e2ca	-0.07172163
95	0x3dc85c88	0.09783274
96	0xbdb34c18	-0.08754748
97	0xbd803106	-0.062593505
98	0xbdcb2163	-0.099184774
99	0x3c83bcf7	0.016081316
100	0xbdb6d052	-0.08926453
101	0x3d0527e1	0.032508735
102	0x3c54587f	0.012960552
103	0x3d994d99	0.07485504
104	0xbe15015a	-0.14551297
105	0xbd57fb00	-0.052729607
106	0x3ceb4093	0.028717315
107	0xbdfb8a82	-0.12282278
108	0xbd2333be	-0.039844267
109	0xbd42577a	-0.047446705
110	0x3d5db814	0.05413063
111	0x3da598e4	0.08085802
112	0x3dc68933	0.096941374
113	0x3d826904	0.063676864
114	0xbd687111	-0.056748454
115	0xbba0f6e3	-0.0049122437
116	0xbd3ad49e	-0.045612924
117	0xbd926c7b	-0.07149597
118	0x3d84b954	0.06480661
119	0x3ddeb92f	0.10875165
120	0x3d8a3e6b	0.067501865
121	0xbdf8d31d	-0.12149642
122	0x3d84c63d	0.064831235
123	0xbda6fb4c	-0.081534
124	0x3d3631f0	0.044481218
125	0x3cca70af	0.024711935
126	0x3d427269	0.04747239
127	0x3d2acfa7	0.04170194
128	0xbe1d1597	-0.15340267
129	0x3bf3511c	0.0074254405
130	0x3e28ebbb	0.16496174
131	0x3d88642b	0.066597305
132	0x3d34ae76	0.04411169
133	0x3e0b6108	0.13611233
134	0xbc96bd08	-0.018400684
135	0xbdd41a2b	-0.10356554
136	0x3db01ba5	0.08599023
137	0xbdff3842	-0.12461902
138	0x3e1471b8	0.14496505
139	0x3ca0b07a	0.0196154
140	0xbe256e56	-0.16155371
141	0x3de4cd29	0.11171944
142	0x3b2b2562	0.0026114811
143	0x3cc8c0d2	0.024506006
144	0xbcbe6829	-0.023243027
145	0xbd9681ed	-0.07349
146	0x3d6f1672	0.058371015
147	0xbcb27760	-0.021785438
148	0xbd94a204	-0.072574645
149	0xbddb1cbd	-0.10698841
150	0x3d1134b5	0.035450656
151	0x3e06a8b3	0.13150291
152	0x3da38635	0.07984582
153	0xbde54f67	-0.111967854
154	0xbd1df5c1	-0.038564447
155	0xbdf78129	-0.12085182
156	0x3d43bd07	0.047787692
157	0xbdf1f1be	-0.11813687
158	0x3db5cd45	0.08877043
159	0xbd29c7c5	-0.04145028
160	0xbd5cc121	-0.05389512
161	0xbd96d428	-0.07364684
162	0xbd59804e	-0.053100877
163	0x3c87c7db	0.01657479
164	0xbc4eec04	-0.012629513
165	0x3d4299b0	0.04750985
166	0xbd698aaf	-0.057017025
167	0x3e200b52	0.15629318
168	0xbd51b6b8	-0.051199645
169	0x3dc78521	0.09742189
170	0xbdf0c121	-0.117555864
171	0xbd0f0bb6	-0.034923278
172	0xbe115d56	-0.14195761
173	0xbd9a3465	-0.07529525
174	0xbe15eafd	-0.14640422
175	0xbd156e76	-0.036482297
176	0x3d114bf8	0.03547284
177	0x3e13014e	0.14355966
178	0x3d1ab815	0.03777321
179	0xbd8d6091	-0.06903184
180	0x3dd3943a	0.10331006
181	0xbd7ce19f	-0.061738607
182	0x3dc9cd64	0.09853628
183	0xbd2be18a	-0.041963138
184	0xbd606b10	-0.054789603
185	0x3d8be17d	0.06830118
186	0xbce287cf	-0.02765265
187	0xbd7df163	-0.061997782
188	0x3d7c42d2	0.061587162
189	0xbe0fa747	-0.14028655
190	0xbd61d565	-0.05513515
191	0x3d14757f	0.036244866
192	0x3ba5d0a9	0.0050602746
193	0x3ca52300	0.02015829
194	0x3d80e375	0.06293384
195	0xbc2f9519	-0.0107167
196	0xbda3c939	-0.079973646
197	0xbce9645a	-0.028490234
198	0xbd1f8f89	-0.038955245
199	0xbde771ae	-0.113009796
200	0x3daa0772	0.08302201
201	0x3ba3a6eb	0.0049942634
202	0x3db44c8e	0.08803664
203	0xbde7ccdd	-0.113183714
204	0x3d6cfc3d	0.05785774
205	0xbdb34e07	-0.08755117
206	0x3d0baaf9	0.0340986
207	0x3c29eec2	0.010371866
208	0xbc8918dc	-0.016735487
209	0xbd323c5f	-0.043514606
210	0x3ddf2826	0.108963296
211	0x3dbdb3ad	0.09262786
212	0x3d4c8ddf	0.049939986
213	0x3d8aa787	0.067702346
214	0x3df560bd	0.11981342
215	0x3b6d4e17	0.0036209875
216	0xbd8d1f45	-0.0689073
217	0xbd3ef8b7	-0.04662391
218	0x3e002c44	0.12516886
219	0x3d834616	0.06409852
220	0xbb3f708c	-0.002921137
221	0xbd9c8d89	-0.07644183
222	0xbbc8a5ce	-0.006123281
223	0xbc3325c1	-0.010934294
224	0x3e218a14	0.15775329
225	0xbc840f6c	-0.016120635
226	0xbd5034d4	-0.05083163
227	0x3db6e9cc	0.08931312
228	0x3d98e1df	0.074649565
229	0xbe25159a	-0.16121522
230	0x3cfd046b	0.030885896
231	0x3cd461a0	0.025925457
232	0x3c51d6b0	0.012807533
233	0x3dbe710d	0.092989065
234	0xbd6b3d78	-0.057431668
235	0x3c650010	0.013977066
236	0xbdf6e1ed	-0.12054811
237	0x3cf28feb	0.029609641
238	0xbd073c8d	-0.03301673
239	0x3d11b465	0.03557243
240	0xbcefeccc	-0.029287718
241	0xbd811491	-0.06302751
242	0xbd8e70d6	-0.069551155
243	0x3e08bd30	0.1335342
244	0x3c6463d1	0.013939814
245	0x3de962e5	0.11395816
246	0x3cb61a4c	0.022229336
247	0x3d0ab881	0.033867363
248	0xbd2885cb	-0.04114322
249	0xbdc2f74b	-0.09519824
250	0xbde7a404	-0.113105804
251	0x3e0ae8e2	0.135654
252	0xbd3ab3e4	-0.045581713
253	0x3d1e7bd1	0.0386923
254	0xbc0d3ee4	-0.008620951
255	0x3dcbc37f	0.09949397

lstm.bias_ih_l0 f4 [256]
0	0xbc40457a	-0.0117353145
1	0xbcd2d8f3	-0.025738215
2	0x3dbf1d7a	0.09331794
3	0xbc78c75e	-0.015184252
4	0x3e201443	0.15632729
5	0x3d53367f	0.051565643
6	0x3d9b3286	0.07577996
7	0x3d454384	0.04816009
8	0x3e1f46f0	0.15554404
9	0xbce3f1f1	-0.027825328
10	0x3ca7945c	0.020456485
11	0x3d89f282	0.06735708
12	0x3df87b7a	0.12132926
13	0x3d16b6ae	0.03679531
14	0x3db0ba42	0.08629276
15	0xbdc0a502	-0.09406473
16	0x3b869fb0	0.0041083917
17	0xbc4b67e6	-0.012414908
18	0xbcc63005	-0.02419282
19	0x3dad8520	0.08472657
20	0xbd8a99c6	-0.06767611
21	0x3e096388	0.13416874
22	0x3d339c98	0.04385051
23	0x3d1f1823	0.038841378
24	0x3dddab2d	0.10823665
25	0x3cc1af5c	0.023643188
26	0xbd6f6e1a	-0.05845461
27	0xbd050102	-0.032471664
28	0x3dfdb8ec	0.12388787
29	0x3da5cf19	0.08096141
30	0x3dacb55e	0.084330305
31	0xbd6e6772	-0.058204122
32	0x3d844a84	0.06459525
33	0xbd5ba52d	-0.05362432
34	0x3dd53cd0	0.1041199
35	0x3db56a9c	0.08858225
36	0x3cc18eb4	0.023627616
37	0xbd0bca20	-0.03412831
38	0xbd05f03c	-0.03269981
39	0x3d6c6b06	0.057719253
40	0xbcaec6c6	-0.021335017
41	0xbc9e444d	-0.019319678
42	0x3cfd9c3a	0.030958284
43	0x3d25bf0f	0.04046541
44	0x3e079e7f	0.13244055
45	0xbdbd3677	-0.09238904
46	0x3da7448f	0.081673734
47	0x3e040e02	0.12895969
48	0xbd4ab6d9	-0.049490783
49	0x3e081c4d	0.13292046
50	0x3dff9ee4	0.12481478
51	0x3e040b84	0.12895018
52	0xbcc160d4	-0.023605742
53	0x3cac5f39	0.0210415
54	0x3de5f7fa	0.112289384
55	0x3e134fd7	0.14385925
56	0xbc0e2af9	-0.008677238
57	0xbc3303dc	-0.010926213
58	0x3ce38e59	0.027777838
59	0x3ca27c2c	0.0198346
60	0x3e1428d9	0.14468707
61	0xbd883dff	-0.0665245
62	0xbcc8b6e1	-0.024501266
63	0x3e0b9e23	0.13634543
64	0x3dd673f2	0.104713336
65	0x3da865b5	0.08222524
66	0x3d1d84aa	0.038456596
67	0x3e0db42f	0.13838266
68	0x3c97093b	0.018437019
69	0x3dd8ea96	0.10591619
70	0x3dc12755	0.0943133
71	0x3d66e0c0	0.056366682
72	0xbd8ff683	-0.0702944
73	0x3da6016b	0.08105739
74	0x3e0110e9	0.12604107
75	0x3e02190a	0.12704864
76	0x3e13504a	0.14386097
77	0x3de57482	0.11203863
78	0x3de741f9	0.1129188
79	0x3dde63ba	0.10858865
80	0x3d8ac22f	0.06775319
81	0xbd0717ce	-0.032981686
82	0xbd3fc5e5	-0.046819586
83	0xbd3ab354	-0.045581177
84	0x3e010192	0.12598255
85	0xbd986886	-0.07441811
86	0xbd801545	-0.06254057
87	0x3ce0b2de	0.02742904
88	0x3d5720a4	0.052521363
89	0x3d4ea85c	0.05045353
90	0x3e10798c	0.14108866
91	0x3db99f54	0.090635926
92	0x3e0083f5	0.12550338
93	0xbdc6254c	-0.096750826
94	0x3e061f76	0.13097939
95	0xbd85d6e6	-0.06535129
96	0xbdbc622e	-0.09198414
97	0x3e142ce3	0.14470248
98	0x3e22f42a	0.15913454
99	0x3da55921	0.080736406
100	0x3db6fbe4	0.08934763
101	0x3d1f6842	0.038917787
102	0xbda57640	-0.08079195
103	0xbb24abfb	-0.0025126922
104	0xbd8affa1	-0.067870386
105	0x3c959296	0.018258374
106	0xbceed906	-0.02915622
107	0x3e138da5	0.14409502
108	0xbbacf111	-0.005277761
109	0xbd43cfd7	-0.047805633
110	0xbcda8946	-0.026676785
111	0xbc4fa0ae	-0.012672586
112	0x3e000074	0.12500173
113	0x3d795125	0.0608684
114	0xbcf90b79	-0.030400978
115	0x3de9286a	0.113846615
116	0x39afdce8	0.0003354319
117	0xbd08a02e	-0.033355884
118	0x3dc5d39d	0.09659503
119	0x3df82e4f	0.12118208
120	0x3e248b58	0.1606878
121	0x3e0a47ac	0.13503903
122	0x3d8adbd3	0.067802094
123	0x3dd90416	0.105964825
124	0x3bb2e913	0.0054599135
125	0xbdabaca7	-0.0838254
126	0xbc7b6918	-0.0153448805
127	0xbd998e70	-0.07497871
128	0xbd9a9e12	-0.07549681
129	0xbca6ffcd	-0.020385647
130	0x3cef0d96	0.029181283
131	0x3de03e33	0.109493636
132	0x3d9525a8	0.07282573
133	0xb9aaaaa4	-0.00032552064
134	0xbdcfb956	-0.10142772
135	0x3d978825	0.073990144
136	0xbc650de8	-0.013980366
137	0x3b9059aa	0.00440522
138	0xbcc46da4	-0.023978062
139	0xbd5c800f	-0.053833064
140	0xbc518204	-0.012787346
141	0xbc7c9b98	-0.015417956
142	0xbb463c21	-0.0030248242
143	0xbd351ffe	-0.044219963
144	0x3dc8e632	0.09809531
145	0x3d12637b	0.035739403
146	0xbce3f812	-0.02782825
147	0xbdfbcb98	-0.12294692
148	0xbca3dcd4	-0.02000276
149	0xbc6ec42e	-0.01457314
150	0xbc5e4b64	-0.013567779
151	0x3df7095f	0.12062334
152	0xbd828db1	-0.06374682
153	0x3c5c774f	0.01345618
154	0xbde07f8a	-0.10961826
155	0x3d1149d3	0.035470795
156	0xbdd4313f	-0.103609554
157	0xbe0f4241	-0.13990118
158	0xbe178805	-0.14797981
159	0x3d67c96d	0.05658858
160	0x3d90ebc7	0.07076221
161	0xbd540ace	-0.051768117
162	0xbdb1ebf1	-0.086875804
163	0x3dcf121a	0.101108745
164	0x3b9a9997	0.0047180164
165	0xbe006ee5	-0.12542303
166	0xbcd11487	-0.025522484
167	0x3d4bc182	0.04974509
168	0xbd85761b	-0.065166675
169	0x3baf6db5	0.0053536543
170	0xbdbd6c02	-0.092491165
171	0xbd5b5b91	-0.05355412
172	0xbd0abee0	-0.03387344
173	0x3b807bdf	0.0039210166
174	0x3c9486ca	0.018130679
175	0xbc3d186e	-0.011541469
176	0x3d899bce	0.067191705
177	0xbdae3408	-0.08506018
178	0xbcb50954	-0.022099175
179	0x3e026a6b	0.12735908
180	0x3d9b08b0	0.075700164
181	0x3dfe68fb	0.12422367
182	0x3d8fac7b	0.0701532
183	0x3d37dea7	0.044890072
184	0x3e026632	0.12734297
185	0xbdb93bc0	-0.090445995
186	0xbd83bb30	-0.064321876
187	0x3d9bbf9f	0.07604908
188	0xbd1121be	-0.03543257
189	0x3d23d2ec	0.039996073
190	0x3d3fac88	0.046795398
191	0x3dee6251	0.11639846
192	0x3db196f7	0.086713724
193	0x3d5a74b1	0.05333394
194	0x3acdf0a3	0.0015711974
195	0x3e1f8cd1	0.15581061
196	0x3cbfa793	0.023395335
197	0x3d0636e5	0.032767195
198	0x3dd8f27b	0.105931245
199	0x3e0b75b7	0.13619123
200	0xbcfe8e13	-0.031073606
201	0x3c92025c	0.01782339
202	0x3d86569b	0.065594874
203	0xbd02790d	-0.031853724
204	0x3dc434c9	0.095803805
205	0xbca16b3c	-0.019704454
206	0xbd57aa4f	-0.052652653
207	0xbd223a88	-0.0396066
208	0x3dd7adef	0.10531222
209	0xbd8f1efb	-0.06988331
210	0xbd91df95	-0.07122723
211	0x3d769901	0.06020451
212	0x3cb9b0d0	0.022667319
213	0x3e047b45	0.12937649
214	0x3dd4785f	0.103745215
215	0xbdd720a5	-0.10504273
216	0xbd87d11c	-0.06631681
217	0xbb42d94c	-0.002973157
218	0xbd1c11e0	-0.038102984
219	0xbd8cae8d	-0.068692304
220	0x3d9a4d68	0.07534295
221	0xbdace66d	-0.08442388
222	0x3da24c6a	0.07924731
223	0xbd0e04fe	-0.03467273
224	0x3e0fde99	0.14049758
225	0xbba9e685	-0.005184951
226	0xbd5b7896	-0.053581797
227	0xbd90f68f	-0.07078277
228	0x3d1409d6	0.036142193
229	0xbc493616	-0.0122809615
230	0x3e1cb9d5	0.15305264
231	0x3da6fef9	0.08154101
232	0xbd61493e	-0.05500149
233	0xbcafd1f1	-0.021462413
234	0xbd4d7f52	-0.05017025
235	0x3cb08e6d	0.021552289
236	0x3d989e96	0.07452123
237	0x3d97713f	0.07394647
238	0x3c5e18c3	0.013555708
239	0xbb72a3b8	-0.0037023854
240	0x3e2bc207	0.16773234
241	0x3d0a2f12	0.033736296
242	0x3ce03db2	0.027373169
243	0x3e0ca57d	0.13735004
244	0xbda97dac	-0.08275923
245	0x3e270400	0.1631012
246	0x3dfce347	0.12348037
247	0x3e20e613	0.15712766
248	0xbd471ce8	-0.04861155
249	0x3e1abbb2	0.15110663
250	0x3e075dd8	0.13219392
251	0x3d248aef	0.04017156
252	0x3de4e870	0.111771464
253	0xbce820be	-0.028335925
254	0xbd802702	-0.0625744
255	0xbd3b890e	-0.045785002

lstm.bias_hh_l0 f4 [256]
0	0x3d88ff48	0.06689316
1	0x3da442fe	0.0802059
2	0x3dbe6bb0	0.092978835
3	0x3c9c7c99	0.019102382
4	0x3d9d8dba	0.07693048
5	0xbd07ae10	-0.033124983
6	0x3d8b00e9	0.06787283
7	0x3b117858	0.0022196975
8	0x3db26228	0.08710128
9	0xbc98ec25	-0.01866729
10	0x3e090893	0.13382177
11	0x3d5cb520	0.05388367
12	0xbcc4dada	-0.024030138
13	0x3e24b07e	0.16082951
14	0xbd206dcf	-0.03916722
15	0xbda59195	-0.08084408
16	0xbd08af66	-0.033370398
17	0xbcce00ed	-0.025146926
18	0xbdb7a049	-0.08966119
19	0x3dc2f642	0.09519626
20	0xbd852eba	-0.06503053
21	0x3dd7ea6f	0.105427615
22	0x3da9e2ab	0.082951866
23	0x3d71270f	0.05887514
24	0xbd5933bd	-0.053027857
25	0xbd6da8f8	-0.05802247
26	0x3dd9af0b	0.1062909
27	0x3c4eec99	0.012629651
28	0x3c56ce9a	0.013110781
29	0x3d5d0b05	0.053965587
30	0x3e2e734a	0.17036167
31	0x3d910816	0.070816204
32	0x3dfcbc1b	0.12340566
33	0x3e0d6941	0.13809682
34	0x3e12c239	0.14331903
35	0x3c20a213	0.0098042665
36	0xbd1b1fcc	-0.03787212
37	0x3d6fdd8a	0.058560885
38	0xbb849fd9	-0.0040473756
39	0x3c466c08	0.012110718
40	0x3d9f987b	0.07792755
41	0x3d444db3	0.047925662
42	0x3da3867c	0.07984635
43	0x3db810ec	0.089876026
44	0x3d24a9ab	0.04020087
45	0x3e0cad8d	0.1373808
46	0x3d3567d6	0.04428848
47	0x3d68c621	0.056829575
48	0x3d41efff	0.04734802
49	0x3e02bbbe	0.1276693
50	0x3df60164	0.12011984
51	0x3ca0f80b	0.019649526
52	0xbd9fba73	-0.07799234
53	0x3d4b030f	0.049563464
54	0x3d9f3166	0.07773094
55	0x3d814ff9	0.06314082
56	0xbd9189e2	-0.07106377
57	0x3d688f5d	0.056777347
58	0x3dbc88d4	0.092057854
59	0xbd661861	-0.056175593
60	0x3d886ba3	0.06661155
61	0x3e09ea69	0.13468327
62	0x3c8c5eee	0.01713511
63	0xbd865a98	-0.06560248
64	0x3db92448	0.09040123
65	0x3be0f749	0.006865416
66	0xbda994df	-0.08280348
67	0xbcfb0600	-0.03064251
68	0x3ded7e6d	0.115963794
69	0xbd9eed24	-0.07760075
70	0xbd59a711	-0.053137843
71	0xbd7d9a52	-0.06191475
72	0x3d53bbe5	0.051692862
73	0x3ded310c	0.115816206
74	0x3cea1cf1	0.028578253
75	0xbd0ef4ab	-0.034901302
76	0x3d5662fd	0.052340496
77	0xbc138d3f	-0.009005844
78	0x3d728586	0.05920937
79	0x3d218bf4	0.03944011
80	0x3d41a1ed	0.047273565
81	0x3e0f9f25	0.14025553
82	0x3da650f9	0.08120913
83	0xbd6d7cc3	-0.05798031
84	0x3defe954	0.11714426
85	0x3d618123	0.055054795
86	0xbd54f2d7	-0.051989403
87	0x3d3a43d1	0.04547483
88	0x3e109be3	0.14121966
89	0xbd597179	-0.05308673
90	0x3da03121	0.078218706
91	0x3d85c15c	0.06531021
92	0x3da07115	0.07834069
93	0x3dd7ae5a	0.10531302
94	0xbdc94567	-0.098276906
95	0xbde7bedf	-0.11315703
96	0x3b5bddb7	0.00335489
97	0x3de8066c	0.1132935
98	0xbd6fc3b3	-0.058536243
99	0xbbe0b0c5	-0.00685701
100	0x3ca48498	0.020082757
101	0x3d56bf3b	0.052428465
102	0x3d40f261	0.04710615
103	0x3d1d3198	0.038377374
104	0x3e0b23cc	0.13587874
105	0x3dd5337c	0.104102105
106	0xbda11fed	-0.078674175
107	0x3dfb487d	0.122696854
108	0x3d106206	0.035249732
109	0xbdd5a7f0	-0.10432422
110	0x3e0563a6	0.13026294
111	0xbd02b2ac	-0.031908676
112	0xbdb05783	-0.086104415
113	0x3d8019d1	0.06254924
114	0x3c4e1bfc	0.012579914
115	0x3e118031	0.14209057
116	0x3dd6ac1a	0.104820445
117	0xbd3de7ba	-0.04636357
118	0x3c7eda03	0.015554908
119	0x3dff4dd1	0.12466014
120	0x3db10ff3	0.0864562
121	0xbdb76733	-0.089552306
122	0x3d1004de	0.03516089
123	0x3e055e58	0.1302427
124	0xbd3b0b6e	-0.045665197
125	0x3db064f5	0.08613006
126	0x3e003f9c	0.12524265
127	0xbd23d06d	-0.039993692
128	0xbd1aff85	-0.03784134
129	0x3e06b970	0.13156676
130	0xbccd06e6	-0.025027703
131	0x3d278e85	0.0409074
132	0x3d6467f1	0.05576319
133	0xbbc9f929	-0.0061637354
134	0x3dc90028	0.09814483
135	0x3d0daf4b	0.034591
136	0x3d8e2ad2	0.06941761
137	0xbcb7760d	-0.022395158
138	0xbdc5d921	-0.09660555
139	0x3dabb011	0.083831914
140	0xbd496f16	-0.049178205
141	0xbd6b45d3	-0.057439636
142	0x3d84903a	0.064728215
143	0x3e02f3e4	0.1278835
144	0x3d5566c1	0.052099947
145	0x3d489be2	0.048976786
146	0x3e0a867e	0.13527867
147	0xbcb122b7	-0.021622999
148	0xbdaed1f9	-0.08536143
149	0xbcb96bf8	-0.022634491
150	0x3d449294	0.04799135
151	0x3dd1aeb7	0.10238402
152	0x3de00bf6	0.10939781
153	0xbdd467bf	-0.103713505
154	0x3dcfbbc8	0.10143238
155	0xbe03c021	-0.1286626
156	0xbdd598ab	-0.1042951
157	0xbd770e72	-0.06031651
158	0x3d1c4315	0.038149912
159	0x3df48eed	0.119413234
160	0x3e06bb0c	0.1315729
161	0xbd98dac7	-0.074636035
162	0x3dec5b49	0.11540849
163	0xbd6818bf	-0.056664225
164	0x3db5f163	0.088839315
165	0x3d1c8ff9	0.03822324
166	0xbcdfac88	-0.027303949
167	0x3d8e93f1	0.06961811
168	0x3d700e32	0.058607288
169	0x3d0e8a78	0.034800023
170	0xbcd0f928	-0.025509432
171	0xbe1611a0	-0.14655161
172	0x3d508500	0.05090809
173	0x3e187f17	0.14892231
174	0xbdf76ceb	-0.12081321
175	0x3d9b1575	0.07572452
176	0xbe2011c0	-0.15631771
177	0x3df4f955	0.11961619
178	0xbcc32149	-0.023819583
179	0x3e0a16f3	0.13485317
180	0x3e033091	0.12811495
181	0xbd04c6e1	-0.03241623
182	0x3d8d7581	0.06907178
183	0x3bf8f56b	0.0075976155
184	0x3dac1e7b	0.08404251
185	0xbe03ad4c	-0.12859076
186	0xbdde8aea	-0.108663395
187	0xbd73d2f0	-0.059527338
188	0x3b439c90	0.0029847957
189	0xbcce2880	-0.025165796
190	0x3cfe6485	0.03105379
191	0x3d083dca	0.03326205
192	0x3d651fd3	0.055938553
193	0x3cf2604f	0.02958694
194	0x3daf982e	0.08573948
195	0x3e13aed2	0.14422157
196	0x3d102fc3	0.0352018
197	0x3d883bcc	0.0665203
198	0x3d9677c5	0.07347063
199	0x3d9028fe	0.07039069
200	0x3e01a181	0.12659265
201	0x3e256e9b	0.16155474
202	0x3e16f0ee	0.14740345
203	0x3db86ed4	0.09005514
204	0x3df225ef	0.118236415
205	0x3dd87ac1	0.105702884
206	0x3d794824	0.060859814
207	0x3dfa307a	0.122162774
208	0xbc2fa175	-0.010719647
209	0x3d801296	0.06253545
210	0x3de4a305	0.11163906
211	0xbd6b461c	-0.05743991
212	0xbd5fc819	-0.054634187
213	0xbcb3ceb1	-0.021949144
214	0xbd705b2f	-0.05868071
215	0xbc84ea9f	-0.016225157
216	0x3e0e2e9d	0.13884969
217	0x3e1a1a95	0.15049203
218	0x3d8c9a9d	0.06865428
219	0xbc8fe434	-0.01756487
220	0xbcd6dfae	-0.026229706
221	0xbda8b279	-0.08237166
222	0x3c42a6c9	0.011880585
223	0x3d0f58e0	0.034996867
224	0x3d21dba6	0.039516114
225	0xbccbc8b0	-0.024875969
226	0xbd42f471	-0.0475964
227	0x3d43a6ab	0.04776637
228	0x3dbc5726	0.0919631
229	0x3d8e91c2	0.06961395
230	0x3dcb16cf	0.0991646
231	0xbd027fba	-0.03186009
232	0x3e1e69fa	0.15470114
233	0x3dfc01e9	0.12305052
234	0xbc0d6642	-0.008630337
235	0x3ddb031f	0.10693955
236	0x3dc69f3c	0.0969834
237	0x3cfa7045	0.030571112
238	0x3e1abf55	0.1511205
239	0xbd6548ee	-0.055977754
240	0xbce3479e	-0.02774411
241	0xbc2ad167	-0.010425902
242	0xbd30f0c9	-0.04319838
243	0xbd2ddbe5	-0.042446036
244	0xbd496127	-0.049164917
245	0x3e1db290	0.15400147
246	0x3db4cb25	0.08827809
247	0x3db12e25	0.086513795
248	0x3e00c51d	0.12575193
249	0x3d1e7563	0.038686167
250	0x3e06298a	0.13101783
251	0x3d5b8c2f	0.053600486
252	0x3e153920	0.14572573
253	0x3d664fca	0.056228437
254	0xbc51cd14	-0.012805242
255	0xbcabc561	-0.020968141

lstm.weight_ih_l1 f4 [256, 64]
0	0xbd721f51	-0.059111897
1	0x3d68e9ed	0.056863714
2	0x3d47203a	0.048614718
3	0x3d638444	0.05554606
4	0xbd86d474	-0.06583491
5	0xbdaf7e10	-0.085689664
6	0xbda308ae	-0.0796064
7	0x3de85331	0.113439925
8	0xbc984774	-0.018588759
9	0xbdb54dca	-0.08852728
10	0xbdd31a28	-0.10307723
11	0x3dff344b	0.12461146
12	0xbdcda66a	-0.100415066
13	0xbd897f3e	-0.06713723
14	0xbda002a6	-0.07813005
15	0xbd9ba057	-0.07598942
16	0xbd904771	-0.07044876
17	0x3adb3ee8	0.0016727122
18	0x3d16ce44	0.036817804
19	0xbd9e0cef	-0.07717311
20	0x3da630ea	0.08114798
21	0xbdcdb0e5	-0.100435056
22	0x3e0af222	0.13568929
23	0x3da2fd70	0.079584956
24	0xbc6a03fa	-0.014283175
25	0x3db8f7a9	0.090316124
26	0xbc97ce11	-0.018530877
27	0xbc867907	-0.016415132
28	0xbdaea936	-0.08528368
29	0x3b5983fa	0.0033190236
30	0xbd34658d	-0.04404216
31	0xbd3fec05	-0.046855945
32	0x3e0fc354	0.14039356
33	0xbdd3dff7	-0.10345452
34	0xbd9ddad6	-0.07707755
35	0x3ddbf3da	0.1073987
36	0x3dcaccaf	0.099023215
37	0xbcad8f68	-0.021186545
38	0x3c27be2e	0.010238213
39	0x3c6ae32a	0.014336387
40	0xbdb5f57a	-0.088847116
41	0x3d6c1a94	0.057642534
42	0x3da093b2	0.07840671
43	0x3d972341	0.07379771
44	0x3dab205c	0.083557814
45	0xbd7f976e	-0.062400274
46	0xbda50d88	-0.080592215
47	0x3de55a1b	0.11198827
48	0xbd32b534	-0.04362984
49	0xbda63f2a	-0.08117516
50	0xbc575e52	-0.013145046
51	0xbc09ddd9	-0.008414709
52	0x3da88ce2	0.08229996
53	0x3dc8234d	0.09772358
54	0x3d8b9bfa	0.068168595
55	0x3cafafb3	0.021446085
56	0x3ada04ea	0.0016633545
57	0x3d0d3d48	0.03448227
58	0xbdbd8e79	-0.0925569
59	0xbd9aa58b	-0.07551106
60	0xbdff3723	-0.12461688
61	0x3dc1a8c8	0.094560206
62	0x3c7eb0d4	0.015545089
63	0x3dabfe8c	0.0839816
64	0x3ddae67c	0.10688493
65	0xbb8c0ed1	-0.004274227
66	0xbda11a9a	-0.07866402
67	0xbcb66909	-0.022266882
68	0x3c3e5642	0.011617245
69	0xbe0be6ea	-0.13662305
70	0xbc67bb12	-0.014143722
71	0x3e07e0c7	0.1326934
72	0xbd099701	-0.033591274
73	0xbdb01e10	-0.08599484
74	0x3ca9d270	0.020730227
75	0x3ded2052	0.1157843
76	0xbe00dc37	-0.12584005
77	0x3d8ecd37	0.069727354
78	0x3d049308	0.032366782
79	0xbd814033	-0.06311073
80	0xbd25f4ba	-0.040516593
81	0x3d38b15a	0.04509101
82	0x3ded0b18	0.115743816
83	0xbdc4d649	-0.09611184
84	0xbce5e293	-0.02806214
85	0x3df7c99f	0.12099003
86	0xbe1e963c	-0.15486997
87	0x3c70f4a7	0.014706767
88	0xbd126f36	-0.03575059
89	0x3db9f012	0.09078993
90	0xbb0323bf	-0.002001032
91	0xbdc87dd7	-0.09789627
92	0xbd84d870	-0.06486595
93	0x3d5bbab7	0.053644862
94	0xbcfff6ca	-0.031245608
95	0xbd7288d5	-0.059212524
96	0x3e08560b	0.13314073
97	0xbd855ded	-0.065120555
98	0x3b5b95ed	0.003350611
99	0xbd985d14	-0.07439628
100	0x3b8c8fcf	0.0042896043
101	0xbbe39d77	-0.0069462615
102	0x3e1ab5ce	0.15108415
103	0x3cb88e5c	0.02252882
104	0xbd312415	-0.0432473
105	0x3d2092b5	0.03920241
106	0x3dad02cd	0.084478
107	0x3d1b6d79	0.037946198
108	0x3dcc8985	0.09987167
109	0x3c974fa0	0.018470585
110	0x3b76b6a0	0.0037645474
111	0x3d97ebf8	0.07418054
112	0xbe09e4b7	-0.13466154
113	0xbe00f2d1	-0.12592627
114	0xbd7f6135	-0.062348563
115	0xbdca54e3	-0.09879472
116	0x3df368ba	0.118852094
117	0x3a541b06	0.0008091185
118	0x3b3ec162	0.0029106964
119	0xbdf9405e	-0.1217048
120	0x3d426721	0.047461633
121	0xbd2a52a9	-0.041582737
122	0x3db3c65d	0.08778069
123	0xbd371218	-0.04469499
124	0x3dcae18c	0.09906301
125	0xbd3b6067	-0.045746233
126	0xbdbc0ff1	-0.09182728
127	0x3d8a267f	0.06745624
128	0x3d504131	0.05084342
129	0xbc706001	-0.014671327
130	0x3ca77426	0.020441126
131	0xbd8f90f7	-0.07010072
132	0xbd82c2be	-0.063848004
133	0x3dfffd24	0.124994546
134	0xbcc2c979	-0.02377771
135	0x3c80947c	0.015695803
136	0x3d49b437	0.049244132
137	0xbc535f74	-0.012901176
138	0x3d957bb8	0.07298988
139	0x3d557b32	0.05211944
140	0xbd5098c6	-0.050926946
141	0xbd9c6a5d	-0.07637475
142	0xbca573b3	-0.020196771
143	0x3dd8c0f7	0.1058368
144	0xbda0edf0	-0.07857883
145	0x3defd403	0.1171036
146	0xbdde71ef	-0.10861575
147	0x3d8a6ebc	0.06759402
148	0x3d0ccb13	0.034373354
149	0x3da5d7e8	0.080978215
150	0x3dc94a5a	0.098286346
151	0xbd99a641	-0.075024135
152	0x3d3ee2f6	0.046603166
153	0xbe0c5b75	-0.13706763
154	0xbd5248e3	-0.05133904
155	0x3d58fd35	0.052975852
156	0x3d71199f	0.058862325
157	0xbd6d15f7	-0.057882275
158	0x3dcf1386	0.10111146
159	0x3ca5dee4	0.020247884
160	0x3d981878	0.07426542
161	0xbe08435d	-0.13306947
162	0xbdeaf026	-0.11471586
163	0xbdc78c6c	-0.0974358
164	0x3e0c3c82	0.13694957
165	0x3d36b390	0.044604838
166	0xbe1d088e	-0.15335295
167	0x3da58cd8	0.080835044
168	0xba3d5e18	-0.0007223799
169	0xbdd84fa1	-0.10562063
170	0x3deebafa	0.11656757
171	0x3da7e157	0.08197277
172	0x3d397a44	0.045282617
173	0xbe062b0a	-0.13102356
174	0x3cd4c114	0.025970973
175	0xbdbd2943	-0.09236386
176	0xbd0ef420	-0.034900784
177	0xbce6401e	-0.028106745
178	0xbd964d27	-0.073389344
179	0x3df0e8c0	0.117631435
180	0x3e24e323	0.16102271
181	0x3d5fadf8	0.05460927
182	0x3c60acd9	0.013713085
183	0x3db2a119	0.08722133
184	0xbdc88938	-0.097917974
185	0xbcc367e7	-0.023853255
186	0xbdddb1d2	-0.10824932
187	0x3e035188	0.1282407
188	0xbc8f2b5c	-0.01747673
189	0xbd06d48e	-0.03291755
190	0x3ca44f56	0.020057362
191	0x3da5b8df	0.08091902
192	0xbd80403e	-0.06262253
193	0x3dcf7b86	0.10130982
194	0x3d55d621	0.052206162
195	0xbd1d1434	-0.038349345
196	0x3dd2dbc5	0.10295824
197	0xbd3d2a41	-0.046182875
198	0x3d0fe2f4	0.03512855
199	0xbd83ab26	-0.06429128
200	0xbd767c8f	-0.060177382
201	0x3c76abeb	0.015055637
202	0xbc06476f	-0.008195742
203	0xbd92d06e	-0.07168661
204	0xbcaad7f7	-0.020854933
205	0xbd2b0332	-0.041751094
206	0x3df3b780	0.11900234
207	0xbd49df87	-0.049285438
208	0x3e048c10	0.12944055
209	0x3c5ef8ef	0.013609155
210	0xbdc21aa6	-0.09477739
211	0xbe0f3054	-0.1398328
212	0x3c5d594c	0.01351006
213	0xbdfa59bc	-0.12224147
214	0x3d8fe0b2	0.07025279
215	0x3c0a7aab	0.008452098
216	0xbd86914f	-0.06570684
217	0xbe03464d	-0.12819786
218	0xbd9f5ad6	-0.077809975
219	0xbdfa05d4	-0.12208143
220	0x3ccc5b27	0.024945809
221	0xb900c02c	-0.00012278621
222	0xbda46d1c	-0.080286235
223	0x3df6fcba	0.120599225
224	0x3dcb42eb	0.09924873
225	0xbdbe9756	-0.09306209
226	0xbdd7d9f0	-0.10539615
227	0xbce24973	-0.027622914
228	0xbc11f353	-0.008908111
229	0xbdcd2c2c	-0.10018191
230	0xbd859387	-0.06522279
231	0xbd283371	-0.041064683
232	0x3cb2d320	0.021829188
233	0x3d661880	0.05617571
234	0xbd358720	-0.04431832
235	0xbdd467e1	-0.10371376
236	0x3db1228d	0.08649168
237	0x3dc89910	0.09794819
238	0xbe10afbc	-0.14129537
239	0xbd846740	-0.06465006
240	0xbd87155d	-0.065958716
241	0x3e0d6f1d	0.13811918
242	0x3cc87adf	0.024472652
243	0x3dc6a225	0.09698895
244	0xbc0a7336	-0.00845032
245	0x3b0178a4	0.0019755745
246	0xbd0e6397	-0.034762945
247	0xbcab1cfd	-0.020887846
248	0x3cfc89f5	0.030827502
249	0x3d07b7f4	0.033134416
250	0xbd87c4e2	-0.06629349
251	0x3cb8c4ea	0.022554833
252	0xbe10be97	-0.14135204
253	0x3de4c65c	0.111706465
254	0xbc1021d0	-0.008797124
255	0x3d802725	0.06257466

lstm.weight_hh_l1 f4 [256, 64]
0	0xbb65692f	-0.0035005321
1	0xbb9a07b1	-0.004700624
2	0xbd8aa6fb	-0.0677013
3	0xbbaa71fa	-0.0052015753
4	0xbdb3c561	-0.087778814
5	0x3d208d7c	0.03919743
6	0x3e041400	0.12898254
7	0xbd0dc776	-0.03461405
8	0xbe13e9f9	-0.14444722
9	0x3bdfeb2b	0.006833454
10	0x3e119ffc	0.14221185
11	0x3c605cfc	0.013694044
12	0xbdbf0e30	-0.09328878
13	0x3d981b54	0.074270874
14	0x3d80fedd	0.06298611
15	0x3d8143e5	0.06311778
16	0x3e02a941	0.12759878
17	0x3ca79d3b	0.020460716
18	0xbda71616	-0.081585094
19	0x3b2fd5f6	0.0026830412
20	0x3d1b2e31	0.03788585
21	0xbb91e15b	-0.0044519133
22	0xbdf23fd7	-0.11828583
23	0xbdf6aa60	-0.12044215
24	0x3c2e6e87	0.010646469
25	0x3e0c6fa5	0.13714464
26	0x3dcc3c37	0.099724226
27	0xbde7b0bb	-0.113130055
28	0x3cb8b0ab	0.02254518
29	0xbbc33896	-0.0059576733
30	0xbc7eaa32	-0.015543507
31	0x3db91624	0.09037426
32	0x3c2eaf1e	0.010661868
33	0x3cac4a92	0.021031652
34	0x3d53ec10	0.0517388
35	0xbd34fbd0	-0.04418546
36	0xbb325a62	-0.0027214517
37	0xbdfbac6d	-0.12288747
38	0xbe134970	-0.14383483
39	0xbdd1f754	-0.10252252
40	0xbdea9272	-0.114537135
41	0x3c75e2f1	0.01500772
42	0x3d483b03	0.048884403
43	0xbdf3f1c0	-0.119113445
44	0x3cf25018	0.029579207
45	0xbdad4cde	-0.08461927
46	0x3dc284df	0.094979994
47	0x3dc2c07a	0.09509368
48	0xbc7c02ce	-0.015381528
49	0xbd468f65	-0.048476595
50	0x3d1a2246	0.037630342
51	0x3cdbf4b9	0.026850091
52	0x3d794fc8	0.0608671
53	0xbd2252ed	-0.039629865
54	0xbd22a0ee	-0.039704256
55	0xb9ca1482	-0.00038543722
56	0xbdeccce2	-0.11562516
57	0x3dff778b	0.12473973
58	0xbdc0954f	-0.09403478
59	0x3d6323db	0.055454116
60	0x3db3a43c	0.087715596
61	0x3cfbb97c	0.030728094
62	0x3c6c3da6	0.014418995
63	0xbcfc1106	-0.030769836
64	0xbdcb5297	-0.09927862
65	0x3d4f76aa	0.050650276
66	0x3d741e06	0.059598945
67	0x3d9d4293	0.07678714
68	0xbda1cbb8	-0.079001844
69	0xbb9893c6	-0.004656288
70	0xbdadf004	-0.08493045
71	0xbc6f6b45	-0.014612977
72	0xbd888170	-0.06665313
73	0x3ce62342	0.028092984
74	0x3d80639e	0.062690005
75	0x3bee4b49	0.0072721583
76	0xbd86cf03	-0.06582453
77	0x3d9e9761	0.07743717
78	0x3cf4caa0	0.029881775
79	0x3d9b5afb	0.075857125
80	0x3dfb3688	0.122662604
81	0x3e02efcc	0.12786788
82	0x3e0929ba	0.13394824
83	0xbdfbf83e	-0.12303208
84	0x3d8ad9be	0.06779812
85	0xbdc5e321	-0.09662462
86	0x3d7d79cf	0.061883744
87	0xbd7fb1ae	-0.062425308
88	0xbdb60649	-0.088879175
89	0x3d53fdc2	0.051755674
90	0x3d83ed1f	0.06441712
91	0x3dda91d3	0.10672345
92	0xbd243e96	-0.04009875
93	0xbc6159e6	-0.013754344
94	0xbd89a070	-0.06720054
95	0xbd39fe77	-0.045408692
96	0xbd036e74	-0.03208776
97	0x3deb5612	0.11491026
98	0x3e30625a	0.17225018
99	0x3c1c252e	0.009530349
100	0xbd59cddf	-0.05317485
101	0x3d78d6c3	0.060751688
102	0xbe19b20d	-0.15009327
103	0xbd667df1	-0.05627245
104	0x3db3e0b3	0.08783092
105	0x3cd0d869	0.025493817
106	0x3dcbcdf0	0.09951389
107	0xbde4fdf7	-0.111812524
108	0xbd7a4569	-0.06110135
109	0xbd948d79	-0.07253546
110	0xbdef5788	-0.11686617
111	0x3d5dcd25	0.05415072
112	0xbd82cd0f	-0.06386768
113	0x3ddf9e4e	0.10918866
114	0x3c74256a	0.014901498
115	0xbe13b4f8	-0.14424503
116	0xbbbaafed	-0.0056972415
117	0x3d5eac48	0.05436352
118	0xbe2f9961	-0.17148353
119	0x3d4a3562	0.049367316
120	0xbe01f041	-0.12689306
121	0x3d993473	0.07480707
122	0xbd3f9ce6	-0.04678049
123	0xbad92edf	-0.0016569755
124	0x3c8eac2b	0.01741608
125	0x3e203ceb	0.15648238
126	0xbc383333	-0.011242676
127	0xbcb97abd	-0.022641534
128	0xbcc92638	-0.024554357
129	0xbbf69e04	-0.007526161
130	0xbc91bdd8	-0.01779072
131	0x3d8a5f13	0.06756415
132	0x3dbfd1c8	0.093661845
133	0xbb30df09	-0.0026988408
134	0x3ca3b034	0.019981481
135	0x3d533339	0.05156252
136	0x3d683460	0.056690574
137	0x3df40d62	0.11916615
138	0x3e102f2b	0.14080493
139	0xbbfc9f27	-0.007709402
140	0x3d0e1c81	0.034695152
141	0xbe0c0a01	-0.13675691
142	0xbe04afd3	-0.12957697
143	0x3d278399	0.040896986
144	0xbe00faf7	-0.12595735
145	0x3e0519d7	0.12998138
146	0xbddd1b18	-0.10796183
147	0xbdc39b0e	-0.09551059
148	0xbcae7a41	-0.02129853
149	0xbd560037	-0.0522463
150	0x3da89c65	0.08232955
151	0xbe0a6740	-0.13515949
152	0x3bced230	0.0063116774
153	0xbd540fe6	-0.051772974
154	0xbd27162e	-0.040792637
155	0xbd11fc7a	-0.03564117
156	0x3c7a8774	0.015291084
157	0xbcee9a78	-0.02912639
158	0xbdbbc034	-0.09167519
159	0xbdf528f5	-0.119707026
160	0xbc6e5923	-0.014547619
161	0xbdfebe70	-0.12438667
162	0x3da37ef1	0.079831965
163	0xbdfcf939	-0.12352223
164	0x3cd8a627	0.026446415
165	0xbe2235d9	-0.15840854
166	0xbc51f904	-0.012815718
167	0xbda4025d	-0.08008263
168	0xbdb6906d	-0.08914266
169	0xbde1c462	-0.11023785
170	0xbe0bb05e	-0.13641497
171	0xbe05e10d	-0.13074131
172	0x3d8e7fdf	0.06957983
173	0x3dac3bb0	0.08409822
174	0x3c818d61	0.015814485
175	0xbca38723	-0.0199619
176	0xbcc1bb42	-0.023648862
177	0xbd8cd1d2	-0.068759575
178	0x3d7d6fe6	0.061874293
179	0xbda71e2e	-0.08160053
180	0x3d9cb54c	0.07651767
181	0xbbb1f760	-0.0054311007
182	0x3dbd8b10	0.0925504
183	0xbdd971fd	-0.10617445
184	0xbd827e17	-0.06371706
185	0xbd4fe518	-0.05075559
186	0xbb925caa	-0.004466613
187	0xbd438d03	-0.0477419
188	0x3d0ff8a5	0.035149235
189	0xbbb8f5f6	-0.005644555
190	0xbd29c16b	-0.041444223
191	0x3b5c0e21	0.0033577757
192	0x3def8ff6	0.1169738
193	0xbd66553b	-0.056233626
194	0xbde5901b	-0.112091266
195	0xbda0bce1	-0.07848526
196	0xbddafbc2	-0.1069255
197	0x3b634b42	0.0034682308
198	0xbd418165	-0.04724254
199	0x3cb8f9ce	0.022580054
200	0x3b983a21	0.0046456014
201	0x3df8be39	0.12145657
202	0x3e0be801	0.13662721
203	0x3dbb8839	0.09156842
204	0xbe07875f	-0.13235234
205	0xbda5da13	-0.08098235
206	0xbdcb0bfb	-0.099143945
207	0xbd722aa5	-0.0591227
208	0xbd2843ab	-0.04108016
209	0xbd9bec04	-0.07613376
210	0x3d36081e	0.044441335
211	0xbd24a19d	-0.04019319
212	0x3cde7043	0.02715314
213	0xbd085d2a	-0.033291973
214	0x3d5f56ef	0.054526266
215	0xbd62098b	-0.055184882
216	0xbddeab2e	-0.10872494
217	0x3b54741c	0.003241784
218	0x3d9eccc2	0.07753898
219	0x3c1d1d0e	0.009589447
220	0x3dd52849	0.104080744
221	0xbd69319f	-0.056932088
222	0xbd371746	-0.04469993
223	0xbdacb897	-0.08433645
224	0x3d88b116	0.066744015
225	0xbda41dce	-0.08013497
226	0xbd51a8fe	-0.051186554
227	0x3da74e67	0.08169251
228	0xbdf12565	-0.117747106
229	0xbdba720d	-0.09103785
230	0xbe00139d	-0.12507482
231	0xbd935e2c	-0.07195696
232	0x3e0a4ec0	0.13506603
233	0xbd8d36f2	-0.068952456
234	0x3dc4f6b4	0.096173674
235	0x3ce0815c	0.027405433
236	0x3dadab16	0.08479898
237	0x3e09ee31	0.13469769
238	0xbd311796	-0.043235384
239	0xbc897ce6	-0.016783189
240	0xbdbf51f3	-0.093418024
241	0x3dcfe8d6	0.10151832
242	0x3dc6571c	0.096845835
243	0x3ccce287	0.02501036
244	0x3e167604	0.14693457
245	0xbd040314	-0.032229498
246	0xbe007dbd	-0.12547965
247	0xbd92588f	-0.071457975
248	0xbcab5870	-0.020916194
249	0x3d5df0c8	0.054184705
250	0x3d783718	0.060599416
251	0x3e002ba6	0.1251665
252	0x3db3875c	0.08766052
253	0x3e11ce0c	0.14238757
254	0x3d89ecd5	0.06734625
255	0xbdee6ce9	-0.11641867

lstm.bias_ih_l1 f4 [256]
0	0x3d320e7d	0.04347085
1	0x3cc4725b	0.02398031
2	0xbae7ba9c	-0.0017679515
3	0x3de96f70	0.11398208
4	0xbdb18d83	-0.08669569
5	0x3d460ae2	0.048350222
6	0x3c1bf6c6	0.009519285
7	0xbdcc551f	-0.09977173
8	0xbd195559	-0.03743491
9	0xbd96675e	-0.073439345
10	0x3df88a4e	0.121357545
11	0x3da0ff13	0.078611515
12	0xbd5e1bc3	-0.054225694
13	0x3c321840	0.010870039
14	0x3e231ca9	0.15928902
15	0xbd1b5cf8	-0.03793046
16	0xbdad5d32	-0.08465041
17	0x39b9f688	0.0003546963
18	0xbced83df	-0.028993545
19	0xbdd0816d	-0.10180936
20	0xbbd66343	-0.0065425946
21	0x3dd91b4a	0.10600908
22	0xbd1c1c9e	-0.03811323
23	0x3d7467ab	0.059669178
24	0xbda538a2	-0.080674425
25	0xbce05717	-0.027385278
26	0x3d5ec31b	0.054385286
27	0x3ce534e9	0.027979331
28	0xbd2936ef	-0.041312154
29	0x3e14f83f	0.14547823
30	0x3dcb31a8	0.099215806
31	0x3dd0b497	0.10190695
32	0x3df46c91	0.1193477
33	0xbc9d56d7	-0.019206448
34	0x3d2af53c	0.04173778
35	0x3da3d343	0.07999279
36	0x3df129e2	0.11775567
37	0x3dd1195a	0.102099136
38	0x3dd51c1f	0.10405754
39	0xbd1d9799	-0.038474653
40	0x3e0388ed	0.12845202
41	0xbdc402f4	-0.09570876
42	0xbc80fb86	-0.015744936
43	0x3d8bb817	0.06822222
44	0xbd7797f4	-0.06044765
45	0x3daff8ca	0.085923746
46	0xbd204a70	-0.03913349
47	0xbc90efc3	-0.017692452
48	0xbd91346e	-0.07090078
49	0x3e196da9	0.14983238
50	0x3e02c8e9	0.12771954
51	0x3d97aca9	0.07405979
52	0xbd8d0100	-0.06884956
53	0x3c5c8da3	0.013461503
54	0x3da3b995	0.07994381
55	0xbdb45952	-0.08806099
56	0x3dc0b61e	0.09409736
57	0xbdb718ed	-0.08940301
58	0xbd50ac4b	-0.05094556
59	0xbd78523b	-0.060625296
60	0x3d9ce33f	0.07660531
61	0xbc457513	-0.012051838
62	0xbd8ab362	-0.06772496
63	0x3c882684	0.016619928
64	0xbd940925	-0.07228307
65	0xbddcb2cd	-0.10776291
66	0x3df83dc1	0.121211536
67	0x3ce2adb4	0.027670719
68	0xbb3db336	-0.002894593
69	0xbd0946b2	-0.033514686
70	0x3cef5f60	0.029220283
71	0xbd97adc0	-0.07406187
72	0x3dacbea9	0.08434803
73	0x3da6eb24	0.08150318
74	0xbdd6e44c	-0.10492763
75	0xbd14db3d	-0.036341894
76	0x3de1cf76	0.11025898
77	0x398313f5	0.00025001136
78	0xbd46fa2f	-0.048578437
79	0x3de3c621	0.111217745
80	0xbd8ab4e9	-0.06772787
81	0xbdaeeb5c	-0.08540985
82	0x3ddc9699	0.10770912
83	0x3b645322	0.003483959
84	0x3d9aa250	0.0755049
85	0xbd5ef0d7	-0.0544289
86	0x3b3524cb	0.0027640339
87	0x3de077a5	0.109603204
88	0x3dd9c09e	0.10632442
89	0xbcecbdcb	-0.028899094
90	0xbde7c788	-0.113173544
91	0xbd97949d	-0.074013926
92	0xbd9bafd3	-0.07601895
93	0x3e192dba	0.1495885
94	0xbddf2555	-0.108957924
95	0x3d46a0bf	0.048493143
96	0xbdc28f66	-0.09500007
97	0x3dacf5fe	0.08445357
98	0x3bff1706	0.007784727
99	0x3de06b27	0.10957938
100	0x3dbe949d	0.093056895
101	0x3d5c85b1	0.053838436
102	0xbd7f0c91	-0.062267844
103	0xbda2f43e	-0.07956742
104	0xbcba7d48	-0.022764817
105	0x3d6e83f2	0.0582313
106	0x3da20902	0.07911874
107	0x3dcc1f1e	0.09966873
108	0xbd4808fa	-0.048836686
109	0x3d5f0d69	0.05445615
110	0x3dd28e03	0.10280993
111	0x3d10a07a	0.035309292
112	0x3bad6eaa	0.005292733
113	0x3e1c8e2e	0.15288612
114	0x3dedac40	0.1160512
115	0xbd14637c	-0.03622769
116	0x3cbb2982	0.02284694
117	0xbd342e7b	-0.04398964
118	0x3d3365da	0.043798305
119	0xbd8f5238	-0.06998104
120	0xbdc3e34f	-0.0956484
121	0xbdb0094c	-0.08595523
122	0x3db7dd4c	0.08977756
123	0x3e0e3f4b	0.13891332
124	0x3dbee752	0.093214646
125	0xbd31dded	-0.043424536
126	0xbd06e452	-0.032932587
127	0xbda48dbc	-0.08034846
128	0x3d1bd855	0.038048107
129	0xbd8fb32c	-0.07016596
130	0xbd2d1170	-0.042252958
131	0xbd805552	-0.062662736
132	0x3ddfed9a	0.10933991
133	0xbd599bde	-0.053127162
134	0x3d300d63	0.042981517
135	0x3d037fc3	0.032104265
136	0xbdeaafb1	-0.11459292
137	0x3d0cfe4f	0.034422215
138	0x3d3b15ed	0.045675207
139	0x3ded5151	0.115877755
140	0xbde022ba	-0.109441236
141	0x3db1f9bb	0.086902104
142	0xbdd3c551	-0.103403695
143	0x3c3e13c0	0.011601388
144	0xbbf6d50f	-0.007532723
145	0x3d8f2311	0.0698911
146	0xbd8b994b	-0.06816348
147	0x3d88b1b5	0.0667452
148	0xbcceeb76	-0.02525876
149	0xbd7df8dc	-0.06200491
150	0x3db64316	0.088995144
151	0xbd018066	-0.03161659
152	0xbda20ea6	-0.0791295
153	0xbce8ceab	-0.02841886
154	0x3d84dfac	0.064879745
155	0x3d30ac26	0.043132924
156	0xbcfdc269	-0.030976491
157	0x3c06dda2	0.008231552
158	0xbd9a8127	-0.07544165
159	0x3de1bf74	0.11022845
160	0xbd3d85de	-0.046270244
161	0xbcc740f8	-0.024322972
162	0x3d39f581	0.045400146
163	0x3c650777	0.013978831
164	0xbd034228	-0.032045513
165	0xbda09b81	-0.0784216
166	0x3c71237b	0.014717932
167	0x3dd828ee	0.10554682
168	0x3d1228f4	0.035683587
169	0xbd824022	-0.063598886
170	0xbdb1dc0a	-0.08684547
171	0xbdbe5305	-0.092931785
172	0x3de76eeb	0.11300453
173	0x3db43c18	0.088005245
174	0xbdbcee2b	-0.092251144
175	0x3d6b3d86	0.05743172
176	0xbd336fa3	-0.043807637
177	0xbd5c0328	-0.053713948
178	0x3d799381	0.060931686
179	0xbe11716b	-0.14203422
180	0xbc0172e5	-0.007900928
181	0xbd639e71	-0.055571023
182	0x3e01d5e9	0.12679256
183	0x3dd5ec62	0.10445477
184	0x3bad9ce5	0.0052982443
185	0xbd0d9478	-0.03456542
186	0x3c3dd9bf	0.011587559
187	0x3d78805a	0.06066928
188	0x3d411bbf	0.0471456
189	0xbde9f722	-0.1142409
190	0xbde4e142	-0.11175777
191	0xbd3d0b61	-0.04615343
192	0x3e1c2338	0.1524781
193	0xbd774372	-0.060367055
194	0x3e0b7dd1	0.13622214
195	0x3d795eaf	0.060881313
196	0x3d4f9580	0.050679684
197	0xbdb42d10	-0.087976575
198	0x3dd74c04	0.10512546
199	0xbd648174	-0.05578752
200	0x3c3d5bc5	0.011557524
201	0xbda1d19b	-0.07901307
202	0x3d3cfc73	0.04613919
203	0x3d927161	0.071505316
204	0x3d9885d9	0.074474044
205	0xbd077799	-0.03307304
206	0xbc784820	-0.015153915
207	0x3db39916	0.08769433
208	0xbcbd1757	-0.023082418
209	0x3dec8390	0.11548531
210	0x3e02e8ac	0.1278407
211	0xbd809b5b	-0.06279632
212	0x3dc3268b	0.09528836
213	0x3e0881d2	0.13330773
214	0xbd520fdb	-0.051284652
215	0xbdc40aa9	-0.09572346
216	0x3cd3a87e	0.02583718
217	0xbb7337c1	-0.003711209
218	0xbd7cfa94	-0.061762407
219	0x3e2d4779	0.16921796
220	0x3dd9df2c	0.1063827
221	0xbda5d433	-0.080971144
222	0xbd9a7a57	-0.07542866
223	0x3d79dffa	0.061004616
224	0xbdc721a0	-0.0972321
225	0x3ce290f9	0.027657019
226	0x3e030b18	0.127972
227	0x3de4b301	0.11166955
228	0x3df96b15	0.121786274
229	0xbd327d1f	-0.043576356
230	0x3ddea450	0.10871184
231	0xbcd598c1	-0.026073815
232	0x3e014249	0.12622942
233	0x3d04ef67	0.032454874
234	0x3daa98d6	0.083299324
235	0x3e014fa4	0.12628037
236	0x3e1256c5	0.14290912
237	0x3e1567f4	0.14590436
238	0x3be96d93	0.007123658
239	0x3d97e105	0.07415966
240	0x3d6d72f8	0.05797097
241	0xbda0835d	-0.078375556
242	0x3dd68779	0.10475058
243	0x3e306331	0.17225339
244	0xbdc6d2b7	-0.097081594
245	0xbd780130	-0.060548007
246	0xbdb18a4d	-0.08668957
247	0x3cfab393	0.030603206
248	0x3b840e17	0.00403
249	0x3de823ef	0.11334979
250	0xbcd98bf0	-0.026555985
251	0x3df08e33	0.11745872
252	0x3bcedd6a	0.0063130157
253	0x3d64dfcb	0.055877488
254	0xbd172d52	-0.036908455
255	0x3d6a556a	0.057210363
