src/Backend-Information/Clod-weather_predict/Hubei_lstm_model.pth (torch, 208379 bytes, 11 tensors)

lstm.weight_ih_l0 f4 [256, 3]
0	0xbd74aaed	-0.05973332
1	0xbcd1c722	-0.02560765
2	0xbc656c10	-0.014002815
3	0x3bffcafb	0.0078061796
4	0x3dc182ad	0.094487526
5	0x3dda05da	0.10645647
6	0x3cd9ed06	0.02660228
7	0x3bc9affb	0.0061550117
8	0x3dd79f64	0.10528448
9	0x3cfabc07	0.030607237
10	0x3cc5a5bb	0.024126878
11	0xbd8042e0	-0.062627554
12	0xbd74c334	-0.059756473
13	0xbdbadf20	-0.09124589
14	0xbc944ad8	-0.018102095
15	0x3ca105e3	0.019656127
16	0xbc471a0f	-0.012152209
17	0x3d3924b0	0.045201004
18	0x3e15645c	0.14589065
19	0xbd7455a9	-0.059652004
20	0xbdf293e2	-0.11844613
21	0x3dbbcc60	0.09169841
22	0x3c390b36	0.011294177
23	0xbdbc7248	-0.09201485
24	0x3d79b806	0.060966514
25	0x3d702a06	0.058633827
26	0xbbf9d2c0	-0.0076240003
27	0x3d04cc4f	0.032421406
28	0xbc581997	-0.013189695
29	0x3cac0a00	0.021000862
30	0xbbc22fc6	-0.005926105
31	0x3d87abd0	0.066245675
32	0x3ba39720	0.0049923807
33	0x3dca1fb5	0.09869329
34	0x3ce93608	0.028468147
35	0xbd7a8a68	-0.06116715
36	0xbd5f8785	-0.0545726
37	0x3dcad67b	0.0990419
38	0x3dcc5354	0.09976831
39	0xbd335858	-0.043785423
40	0xbd1ef195	-0.03880461
41	0xbd986142	-0.074404255
42	0x3d3335c9	0.043752465
43	0xbd04bd09	-0.03240684
44	0x3c6d9cb0	0.014502689
45	0x3cf95e10	0.03044036
46	0x3d453ff9	0.048156712
47	0x3dc9fb40	0.09862375
48	0xbd903f82	-0.07043363
49	0xbd3ca086	-0.046051525
50	0x3dfc7a14	0.12327972
51	0x3da79d0d	0.08184252
52	0xbdfc3a26	-0.123157784
53	0xbdeacbb6	-0.11464636
54	0x3dcd502c	0.10025057
55	0xbdaca35b	-0.08429595
56	0xbd9433bc	-0.0723643
57	0x3bf6beb2	0.007530057
58	0xbd134286	-0.035952114
59	0xbbd86780	-0.006604135
60	0xbd93afb2	-0.072112456
61	0x3db0f518	0.08640498
62	0xbd944f42	-0.0724168
63	0x3e07e985	0.13272674
64	0x3cfc53c7	0.030801667
65	0x3df19216	0.11795442
66	0x3e10d49d	0.14143606
67	0x3dd1c704	0.10243037
68	0x3dac1db2	0.084041014
69	0xbd772ca7	-0.06034532
70	0xbcedfbfe	-0.029050823
71	0x3c410cb0	0.01178281
72	0x3cd37ecd	0.0258173
73	0xbe1da895	-0.1539634
74	0xbd6facc4	-0.05851437
75	0xbb35e81e	-0.002775676
76	0xb9b5b56e	-0.00034658186
77	0xbd3f6ba8	-0.04673353
78	0xbda09beb	-0.07842239
79	0xbd9131ca	-0.07089575
80	0xbd843872	-0.064560786
81	0xbcd6a182	-0.02620006
82	0xbd4af8f5	-0.04955383
83	0xbc9dbc10	-0.019254714
84	0xbd86d404	-0.065834075
85	0xbdae17ab	-0.08500608
86	0xbd998ae6	-0.07497196
87	0x3db5ef12	0.0888349
88	0xbc49b9fc	-0.012312409
89	0xbdda035e	-0.106451735
90	0x3dd35135	0.103182234
91	0xbdf2e5c8	-0.118602335
92	0x3d43561c	0.047689542
93	0x3deca569	0.11554987
94	0xbd3af887	-0.04564717
95	0xbd98f390	-0.07468331
96	0xbdd7e09b	-0.10540887
97	0xbcb0132d	-0.021493519
98	0xbdf8daf8	-0.1215114
99	0x3d32080d	0.04346471
100	0xbd3f7789	-0.046744857
101	0x3d3e8df0	0.04652208
102	0x3d3dc30f	0.0463286
103	0x3da03954	0.078234345
104	0x3dc989a4	0.09840706
105	0x3e0816ae	0.13289902
106	0x3d26b43c	0.04069923
107	0x3dc02bfc	0.09383389
108	0xbbdb68e9	-0.006695856
109	0x3dc5a6fc	0.0965099
110	0x3dace7e2	0.08442666
111	0x3d4f7ea5	0.050657887
112	0xbddf3de0	-0.109004736
113	0xbbd6b480	-0.006552279
114	0x3dea1db1	0.114314444
115	0x3ca75528	0.020426348
116	0xbde3a2b8	-0.111150205
117	0x3e084f1d	0.1331143
118	0xbd80fb91	-0.062979825
119	0xbbd2f720	-0.006438151
120	0xbe1d63d7	-0.15370117
121	0xbe326e40	-0.1742487
122	0xbc941708	-0.018077388
123	0x3aa32884	0.0012447988
124	0x3c4e3e7f	0.012588142
125	0x3c463600	0.012097836
126	0x3daed8de	0.08537458
127	0xbdb3e657	-0.08784168
128	0x3c99c128	0.018768862
129	0x3dafaadb	0.0857751
130	0x3d58eb76	0.052958928
131	0x3dbc27bc	0.09187266
132	0x3e1bdc68	0.15220797
133	0x3d79f989	0.06102899
134	0xbd297d3c	-0.0413792
135	0xbae0528b	-0.0017114443
136	0xbc476b94	-0.012171645
137	0x3d912650	0.07087386
138	0xbe0fdd03	-0.14049153
139	0xbcb037d5	-0.021510998
140	0x3dda05e4	0.10645655
141	0xbda888ec	-0.08229241
142	0xbe288a1e	-0.16458938
143	0x3d908a5a	0.070576385
144	0x3d9d16c6	0.07670359
145	0x3cf1924a	0.029488701
146	0xbda614ea	-0.08109458
147	0x3cd51155	0.026009241
148	0xbcb81be5	-0.022474239
149	0x3d8e9702	0.06962396
150	0x3dcc6678	0.09980482
151	0x3d47071f	0.048590776
152	0x3dd8b92a	0.10582192
153	0x3dbfe185	0.09369186
154	0x3dbf0f7d	0.09329126
155	0x3d91fb16	0.07127969
156	0xbc4b6eee	-0.012416584
157	0x3c4917dd	0.012273756
158	0x3d33acfc	0.043866143
159	0x3e16911a	0.1470379
160	0x3e026575	0.12734015
161	0xbde384d4	-0.11109319
162	0xbe21b8a2	-0.15793088
163	0xbc00b438	-0.0078554675
164	0xbda142e0	-0.078740835
165	0xbd372e63	-0.044721972
166	0xbdc8221c	-0.09772131
167	0x3ca2cf88	0.01987435
168	0xbdbc526f	-0.091954105
169	0xbc8d4990	-0.017246991
170	0xbda27c76	-0.07933895
171	0x3dab8ff7	0.083770685
172	0xbdd80a2e	-0.105488166
173	0x3da79df2	0.081844226
174	0xbd9a34a8	-0.07529575
175	0xbd2883df	-0.041141387
176	0xbd424b24	-0.04743494
177	0xbde9c380	-0.11414242
178	0x3d739378	0.05946681
179	0xbd565de0	-0.05233562
180	0x3cc36e85	0.02385641
181	0x3d2e1af1	0.042506162
182	0x3dc502fe	0.09619711
183	0xbdc38c1a	-0.095482066
184	0x3b6e630e	0.003637496
185	0xbd83ef72	-0.06442155
186	0x3cb57314	0.0221496
187	0x3d3bcbb1	0.045848552
188	0x3d91ec1a	0.07125111
189	0x3d4e94e1	0.05043495
190	0xbd126cb9	-0.035748217
191	0x3d4eda54	0.050501183
192	0xbb28e1d4	-0.002576937
193	0xbdc69bc4	-0.09697679
194	0xbde3780c	-0.111068815
195	0xbd7ac5bb	-0.061223727
196	0xbbc78a71	-0.0060895015
197	0xbda73bde	-0.08165716
198	0xbde0ff35	-0.10986177
199	0xbc12b964	-0.008955333
200	0x3d413f44	0.047179475
201	0xbc621a8c	-0.013800275
202	0x3d2e9004	0.042617813
203	0x3dd310dc	0.1030595
204	0x3dea0018	0.11425799
205	0xbce7c643	-0.02829278
206	0xbd90615c	-0.0704982
207	0xbdef1414	-0.116737515
208	0xbd3d9e78	-0.046293706
209	0xbdd80f02	-0.105497375
210	0x3d9555e7	0.07291775
211	0xbd3b4a59	-0.0457252
212	0x3dea0d60	0.11428332
213	0x3dbb6853	0.09150758
214	0x3c836380	0.016038656
215	0x3d877b74	0.06615344
216	0xbbd2d050	-0.006433524
217	0x3d3c8edf	0.04603469
218	0x3c09bce0	0.008406848
219	0x3d1348e3	0.035958182
220	0xbcf3ad4f	-0.029745726
221	0x3df4d69e	0.119549975
222	0xbdd40f14	-0.103544384
223	0xbdb6d705	-0.089277305
224	0x3db4ded0	0.088315606
225	0x3dfc5a79	0.12321944
226	0x3d159ba9	0.036525402
227	0x3c952ef0	0.018210858
228	0xbe0426a6	-0.12905368
229	0x3c699180	0.014255881
230	0xbda85618	-0.08219546
231	0x3cd461dc	0.02592557
232	0x3d81d39b	0.06339189
233	0xbd686140	-0.05673337
234	0x3b8bbd9c	0.0042645466
235	0xbb97cfda	-0.004632932
236	0xbd359200	-0.04432869
237	0x3e0f577c	0.13998216
238	0xbdbba48f	-0.091622464
239	0x3dcada7c	0.09904954
240	0x3dcbe7be	0.09956311
241	0x3bb70377	0.00558513
242	0xbdb26d08	-0.08712202
243	0x3c035eb6	0.008018186
244	0x3e100b98	0.14066923
245	0xbdd7bd02	-0.10534097
246	0xbd5aa62d	-0.053381134
247	0xbd4e484b	-0.050361913
248	0x3d83db62	0.06438328
249	0x3dd8c6e8	0.10584813
250	0x3d4cbbb7	0.049983706
251	0x3c114c00	0.0088682175
252	0xbcbc42de	-0.022981104
253	0x3d48f6a1	0.04906333
254	0xbda029e8	-0.07820493
255	0xbd537959	-0.051629398

lstm.weight_hh_l0 f4 [256, 64]
0	0x3beb798e	0.0071861213
1	0x3dd9bf14	0.106321484
2	0x3cdd5356	0.027017277
3	0x3d89d79c	0.06730577
4	0x3d80688b	0.0626994
5	0x3dc93b7a	0.098257974
6	0x3df2dd9b	0.11858674
7	0xbd2621e9	-0.040559683
8	0x3d69bc0c	0.0570641
9	0x3d8b54ab	0.068032585
10	0x3d8e8ffe	0.06961058
11	0xbd8b71f4	-0.06808844
12	0x3ddfcd97	0.10927885
13	0xbd3c8b22	-0.046031125
14	0x3dd3b0ec	0.103364795
15	0x3e0b89eb	0.1362683
16	0xbb5db6df	-0.0033830923
17	0xbcfb48df	-0.030674396
18	0xbc1534b0	-0.0091068
19	0xbd7dca60	-0.061960578
20	0x3c5ffcee	0.013671143
21	0xbdcc3cc0	-0.09972525
22	0x3e115b54	0.14194995
23	0xbd11bbf5	-0.03557964
24	0xbcdf8a71	-0.027287694
25	0xbd94b946	-0.072619006
26	0x3cdfa401	0.027299883
27	0x3d9f28a2	0.07771422
28	0x3c942479	0.018083798
29	0x3df9f469	0.12204821
30	0xbdde0a87	-0.10841852
31	0xbd99f623	-0.0751765
32	0xbde32ba4	-0.11092308
33	0x3ceaafa7	0.02864821
34	0xbdc189d0	-0.09450114
35	0x3e00ef70	0.12591338
36	0xbd875fdb	-0.0661008
37	0x3d445f89	0.047942672
38	0x3ce369d6	0.027760427
39	0x3bf4cc2c	0.0074706282
40	0xbdb79d85	-0.08965591
41	0xbd6ba7b7	-0.057532992
42	0x3dafae24	0.085781366
43	0xbda722c2	-0.081609264
44	0xbc8b64f4	-0.017015912
45	0xbdc4fe73	-0.09618845
46	0xbdbef815	-0.09324662
47	0xbccd8e37	-0.025092227
48	0xbdb1701a	-0.0866396
49	0x3d1e0759	0.038581226
50	0x3dfa55a8	0.12223369
51	0xbd8b5c3b	-0.06804701
52	0x3d8ffc0f	0.07030498
53	0xbd81219c	-0.063052386
54	0xbdcc0fb3	-0.09963932
55	0xbe1f83e4	-0.15577656
56	0x3da99162	0.08279683
57	0xbdc42711	-0.09577764
58	0x3d928b2b	0.071554504
59	0xbd775b50	-0.060389817
60	0xbda9294d	-0.082598306
61	0xbdff9f54	-0.12481561
62	0x3ddf332a	0.10898431
63	0xbdf35873	-0.11882105
64	0x3c854cb7	0.016271932
65	0xbde56600	-0.112010956
66	0x3d13791d	0.036004175
67	0x3d0fa8c8	0.03507307
68	0xbdf709ec	-0.12062439
69	0x3d1ed2ea	0.038775362
70	0x3d36b1d2	0.044603176
71	0x3d9555d3	0.0729176
72	0xbd07d333	-0.0331604
73	0x3e158fbc	0.14605612
74	0xbda79698	-0.0818302
75	0x3dbe6ca3	0.092980646
76	0xbd5036f0	-0.050833642
77	0x3dec8a32	0.11549796
78	0xbda3f945	-0.08006529
79	0xbdd96c3f	-0.106163494
80	0x3df48386	0.119391486
81	0x3d9494ae	0.07254921
82	0xbd6ea548	-0.058263093
83	0xbda015e4	-0.07816675
84	0x3d974b4f	0.07387411
85	0x3d91154f	0.070841424
86	0x3cff5823	0.031169957
87	0xbd436aba	-0.047709204
88	0xbcf02e5e	-0.029318985
89	0xbe240144	-0.16016108
90	0xbc954252	-0.0182201
91	0x3dcdc794	0.10047832
92	0x3d69ff6e	0.057128362
93	0x3e0e7db0	0.13915133
94	0x3c86f62c	0.016474806
95	0x3d902ea8	0.07040149
96	0xbc52a2d2	-0.012856202
97	0xbe27d154	-0.16388446
98	0x3d80b109	0.06283767
99	0x3e00ba79	0.12571134
100	0x3da36cee	0.07979761
101	0x3d72af2a	0.05924908
102	0xbd6f9af4	-0.058497384
103	0xbd4e57dd	-0.05037676
104	0x3d108ffd	0.035293568
105	0xbdabded0	-0.083921075
106	0xbc013776	-0.007886758
107	0xba8cbe1b	-0.0010737808
108	0x3d8785f7	0.06617349
109	0x3bcf33da	0.00632332
110	0x3d0d6130	0.034516513
111	0x3d2163e3	0.0394019
112	0xbdba2f77	-0.090910845
113	0x3d9c38df	0.07628035
114	0xbdcb35e6	-0.0992239
115	0xbe149d1c	-0.14513057
116	0x3d44d13f	0.048051115
117	0x3dd0dcd2	0.10198368
118	0xbd14cab5	-0.03632613
119	0x3da4ceba	0.080472425
120	0x3e276e31	0.16350628
121	0x3d3908a8	0.04517427
122	0x3dab05e2	0.083507314
123	0x3d818a29	0.0632518
124	0xbdfeaaa1	-0.12434889
125	0xbc9be8ef	-0.01903197
126	0xbc2c7749	-0.010526487
127	0xbccc0d6c	-0.024908744
128	0x3d33b0c3	0.043869745
129	0x3da17a65	0.07884673
130	0xbd3eee82	-0.046614178
131	0xbd31f81a	-0.0434495
132	0xbd839102	-0.064241424
133	0x3d4ad0e9	0.04951564
134	0x3bf3d51a	0.007441175
135	0xbc44359d	-0.011975673
136	0xbdda3d03	-0.10656168
137	0xbd898125	-0.067140855
138	0xbd4a63d6	-0.049411617
139	0x3c8f662b	0.017504772
140	0x3de91ba0	0.11382222
141	0xbd9a1d96	-0.07525174
142	0xbdbacafb	-0.09120747
143	0xbcf99de3	-0.030470794
144	0xbc4311c7	-0.011906094
145	0xbe018373	-0.126478
146	0x3d9e0f68	0.07717782
147	0xbdc58928	-0.09645301
148	0x3d800517	0.06250971
149	0xbc70c7b2	-0.014696049
150	0xbd2447fa	-0.040107705
151	0x3d4bc5f9	0.04974935
152	0xbdbf1d56	-0.09331767
153	0xbdb65517	-0.08902948
154	0x3dfc8a37	0.1233105
155	0x3de2ff5b	0.110838614
156	0x3ddc8da6	0.10769205
157	0x3d7412d5	0.059588272
158	0xbd32c557	-0.04364523
159	0x3d93d077	0.07217496
160	0x3d2fefb0	0.042953193
161	0xbcf6c75c	-0.030124359
162	0xbd6c4aa9	-0.05768839
163	0x3cde7b32	0.027158353
164	0xbad1c026	-0.0016002699
165	0x3c609ba5	0.013708984
166	0xbd967019	-0.073456
167	0xbd37e7c9	-0.044898782
168	0xbc89f333	-0.0168396
169	0x3d56a71a	0.052405454
170	0x3dd6f575	0.10496036
171	0x3d348e3b	0.044080954
172	0x3cafc7c5	0.021457562
173	0xbdb2c009	-0.08728034
174	0xbd4571a1	-0.048204068
175	0xbda7e034	-0.0819706
176	0x3cd286cb	0.02569904
177	0x3d87d02b	0.06631502
178	0xbdafa1a7	-0.085757546
179	0x3d5ae57f	0.05344152
180	0xbd5e90c4	-0.054337278
181	0xbdef93eb	-0.11698135
182	0xbd304e5d	-0.043043483
183	0xbcb18d39	-0.021673786
184	0xbdd1c60d	-0.10242853
185	0x3d8b7318	0.06809062
186	0x3d072c76	0.033001386
187	0x3d6df9b9	0.058099482
188	0x3d866418	0.0656206
189	0x3d9511c0	0.07278776
190	0xbb889f76	-0.0041694
191	0x3d41fa9d	0.047358144
192	0x3e1c5bc2	0.15269378
193	0xbd43b9aa	-0.047784485
194	0x3cd693f4	0.026193596
195	0xbca81e0d	-0.020522142
196	0x3d30c902	0.043160446
197	0x3de4f2ac	0.111790985
198	0x3d2bf950	0.04198581
199	0xbc22a697	-0.009927413
200	0xbc0e7ed1	-0.008697228
201	0x3e05f79e	0.1308274
202	0x3d878550	0.06617224
203	0x3d051341	0.032489065
204	0x3cfa7b85	0.030576477
205	0xbd8e6abe	-0.06953953
206	0xbd7bf1af	-0.061509784
207	0xbd4a4cb7	-0.049389567
208	0xbdcf3f0d	-0.10119448
209	0x3ced8259	0.028992819
210	0x3dbaa49e	0.091134295
211	0xbd4ae726	-0.049536847
212	0x3dd5cfb6	0.10440008
213	0xbc794a41	-0.015215457
214	0xbcea7a39	-0.028622733
215	0xbda92bb2	-0.08260287
216	0x3cd93331	0.026513668
217	0x3db4811b	0.088136874
218	0x3e05da51	0.13071562
219	0xbd597a7f	-0.053095337
220	0x3e0546b0	0.13015246
221	0x3c051ffc	0.008125301
222	0xbe039618	-0.12850225
223	0xbcc489db	-0.023991516
224	0x3d6c4283	0.057680618
225	0x3ca06dae	0.01958355
226	0x3e23db29	0.16001572
227	0xbda9a87d	-0.0828409
228	0xbe20f397	-0.15717922
229	0xbddb67c9	-0.10713155
230	0x3e1a7e87	0.15087329
231	0xbda5985a	-0.080856994
232	0xbcde4c5a	-0.027136017
233	0xbd87f5d8	-0.06638688
234	0x3cb0e7d7	0.021594925
235	0x3d3181e6	0.04333677
236	0xbdd66644	-0.10468724
237	0xbcc40d25	-0.023932049
238	0x3ba8df6b	0.0051535866
239	0xbdaede27	-0.08538466
240	0xbe0b6790	-0.13613725
241	0xbbdbbd76	-0.006705935
242	0x3dcc8eea	0.09988196
243	0xbd9b6fd5	-0.0758969
244	0x3ca63c4c	0.020292424
245	0xbd89f4fb	-0.067361794
246	0x3d97cd19	0.07412166
247	0xbd5f4592	-0.054509707
248	0xbce4de5a	-0.027938057
249	0x3d7ec34b	0.062197965
250	0xbde9049e	-0.11377834
251	0x3ba48ef4	0.005021924
252	0x3daffe69	0.08593447
253	0x3d92f73d	0.07176063
254	0xbd68e720	-0.056861043
255	0x3d56b967	0.052422907

lstm.bias_ih_l0 f4 [256]
0	0x3d5bf75c	0.053702697
1	0x3d02c9c9	0.03193072
2	0xbe028be9	-0.12748684
3	0x3d6daa9f	0.058024045
4	0x3dd2c119	0.10290737
5	0x3bc2313e	0.0059262803
6	0x3d54acc0	0.05192256
7	0xbcf2cd15	-0.029638806
8	0x3d08abfd	0.033367146
9	0xbd809dbb	-0.06280085
10	0x3e043310	0.12910104
11	0x3c63e863	0.013910386
12	0xbdf9fe38	-0.122066915
13	0x3d94cb1c	0.072653025
14	0x3dd33ab5	0.10313932
15	0xbd38b610	-0.045095503
16	0x3d0bb181	0.034104828
17	0xbdbdf186	-0.092745826
18	0x3d86e3bb	0.06586405
19	0xbcbb9c4f	-0.022901682
20	0x3d35deac	0.04440181
21	0x3dcde6d4	0.100537926
22	0xbd21c198	-0.039491266
23	0xbdd68e3c	-0.10476348
24	0x3d4af898	0.049553484
25	0xbd0edb21	-0.034876946
26	0x3c73b4f9	0.01487469
27	0x3c058b52	0.008150892
28	0x3da2866d	0.07935796
29	0x3c181e5f	0.009284585
30	0xbda5cdb9	-0.08095879
31	0x3cafca46	0.021458756
32	0xbd6397d7	-0.055564728
33	0x3d1b4d2f	0.037915405
34	0xbcfdff6e	-0.031005587
35	0x3c443bb9	0.01197713
36	0xbdbdcfca	-0.09268148
37	0xbda8336a	-0.082129315
38	0x3dda39a8	0.10655528
39	0x3c9be2ef	0.019029109
40	0xbd7c1ab0	-0.06154889
41	0x3c5228e7	0.012827135
42	0xbdc645a3	-0.09681251
43	0x3e05b040	0.13055515
44	0xbcbe187e	-0.023205038
45	0x3d9ac421	0.0755694
46	0xbde0e6c8	-0.10981518
47	0xbcddc276	-0.027070265
48	0x3c8981c1	0.016785504
49	0x3dd1c70a	0.10243042
50	0x3d24e8ed	0.040261198
51	0x3dc719a9	0.09721691
52	0x3dc80cef	0.09768092
53	0xbb8a5179	-0.004221138
54	0x3e04b61d	0.12960096
55	0x3d234432	0.039859958
56	0x3d250c6b	0.040295046
57	0xbdb0e913	-0.086382054
58	0x3dac653c	0.084177464
59	0x3c0e4b1d	0.008684901
60	0xbc00ec5f	-0.007868855
61	0xbd631bea	-0.055446543
62	0xbd4183a9	-0.0472447
63	0x3d915a5c	0.07097313
64	0xbc40a9bd	-0.011759219
65	0xbc0b912f	-0.008518501
66	0x3dcfbf7d	0.10143945
67	0x3e12a79a	0.14321747
68	0xbd080630	-0.033209026
69	0x3d5ecae0	0.054392695
70	0x3dcf6a82	0.10127737
71	0x3e09542b	0.13411014
72	0x3d1a559c	0.0376793
73	0x3defdf80	0.11712551
74	0x3b7079fe	0.0036693807
75	0xbd84d465	-0.064858235
76	0xbd3cd7b9	-0.046104167
77	0x3dc13ff6	0.09436028
78	0xbd8c09c8	-0.06837803
79	0x3d4789d7	0.04871544
80	0x3d6e92f9	0.058245633
81	0xbd89a53a	-0.067209676
82	0x3dda5830	0.10661352
83	0xbc97823a	-0.018494714
84	0x3d867478	0.065651834
85	0x3df4c693	0.119519375
86	0xbdf8ca62	-0.121479765
87	0xbde6fd4c	-0.11278781
88	0xbdb7e584	-0.089793235
89	0x3d8e2fd7	0.069427185
90	0xbd2fb547	-0.04289749
91	0xbdbbc7a6	-0.09168939
92	0xbda5f4af	-0.0810331
93	0xbdae393a	-0.08507009
94	0xbd4ce07b	-0.05001877
95	0xbbc2177c	-0.0059232097
96	0x3e06ed8c	0.13176554
97	0xbd8df730	-0.06931913
98	0x3dea018a	0.11426075
99	0x3d2a5325	0.0415832
100	0x3e10d5bb	0.14144032
101	0xbe01d976	-0.12680611
102	0xbd4829ca	-0.04886798
103	0x3da617b9	0.081099935
104	0xbd11b703	-0.035574924
105	0xbd66bb27	-0.056330826
106	0x3d86e2ce	0.06586228
107	0x3dabc304	0.08386806
108	0x3d8ac629	0.06776077
109	0xbdb69368	-0.08914834
110	0x3db26d3e	0.087122425
111	0xbcdec2ff	-0.02719259
112	0x3de4a900	0.11165047
113	0x3b0b4e5f	0.002125643
114	0x3dbba0c1	0.09161521
115	0x3d29df32	0.04147262
116	0x3dd21efe	0.102598175
117	0x3dc8b0de	0.0979936
118	0x3caca8e8	0.021076635
119	0xbc872d7d	-0.016501183
120	0x3de6ca3a	0.112690404
121	0x3d328ec5	0.043593187
122	0x3dd7585c	0.105149
123	0xbdc9c9a4	-0.09852913
124	0x3cb42dd8	0.021994516
125	0xbdbcaf67	-0.09213143
126	0x3de4e07b	0.11175629
127	0x3d615e23	0.055021416
128	0xbc568812	-0.013093965
129	0x3d759597	0.059957113
130	0x3d94587d	0.0724344
131	0x3d7dfb0e	0.062007003
132	0xbdd8d683	-0.1058779
133	0xbdd7cc38	-0.105369985
134	0x3cb25f86	0.021774065
135	0x3d565d69	0.052335177
136	0xbd216849	-0.039406095
137	0x3cf2b663	0.029627984
138	0x3d9693b2	0.073523894
139	0x3dfb7f07	0.12280088
140	0x3dda8a81	0.10670949
141	0x3a689b55	0.0008873244
142	0xbd4f9cb2	-0.050686546
143	0xbd213bd8	-0.039363712
144	0xbd0631c5	-0.032762308
145	0x3d9925d0	0.07477915
146	0x3d422122	0.04739488
147	0x3dbe32e2	0.09287049
148	0x3c7d335c	0.01545414
149	0xba89f477	-0.0010525127
150	0x3da4aa21	0.08040262
151	0x3db4e19d	0.08832095
152	0xbde8c860	-0.113663435
153	0xbd0e4482	-0.034733303
154	0xbdad8336	-0.08472292
155	0x3d956e49	0.07296426
156	0xbd9fae3a	-0.07796903
157	0x3dd35308	0.10318571
158	0x3cb6ab9b	0.022298625
159	0xbd1ab32a	-0.03776852
160	0x3c4fce42	0.012683453
161	0xbd9c5455	-0.076332726
162	0x3c7b469b	0.015336658
163	0x3e059323	0.1304441
164	0xbd5c3a8a	-0.053766765
165	0xbcca3026	-0.024681162
166	0x3de28e7a	0.110623315
167	0x3df8dbba	0.121512845
168	0x3d421e1d	0.047392
169	0xbcf123d0	-0.029436022
170	0xbd3eb2e9	-0.04655734
171	0xbdd3c7da	-0.10340853
172	0x3bf5b3ee	0.007498256
173	0xbcdb881c	-0.0267983
174	0x3dd0d849	0.10197503
175	0xbdb80425	-0.089851655
176	0x3dd56d03	0.10421183
177	0xbd82fa64	-0.063954145
178	0xbcd83acf	-0.02639523
179	0xbe00816a	-0.12549368
180	0x3d3c0be0	0.045909762
181	0x3d818de5	0.06325892
182	0x3de586d6	0.112073585
183	0x3d48ae49	0.048994336
184	0x3ddc1fb4	0.107482344
185	0xbd9ffa10	-0.078113675
186	0x3dcdaf3a	0.100431874
187	0x3dfe0d2b	0.12404855
188	0xbd3b0c1d	-0.04566585
189	0xbd15487d	-0.036446083
190	0x3dfb52ef	0.12271678
191	0xbd883b04	-0.06651881
192	0xbdc04bb3	-0.093894385
193	0xbcb244ec	-0.02176138
194	0x3c97dc56	0.018537682
195	0x3e06f88e	0.13180754
196	0xbceb71db	-0.028740814
197	0xbce10ca1	-0.027471842
198	0xbd3c8c3d	-0.04603218
199	0xbd6e1d6e	-0.058133535
200	0xbd5b612b	-0.053559463
201	0x3df7d8b9	0.121018834
202	0x3dc4ebe4	0.09615305
203	0xbd9f718a	-0.07785328
204	0xbdbdf63c	-0.09275481
205	0xbc356dd3	-0.011073547
206	0xbd9d3e41	-0.076778896
207	0x3dba48f0	0.09095943
208	0x3dc80917	0.09767359
209	0xbd8df88d	-0.06932173
210	0x3d60189a	0.054710962
211	0xbd273b62	-0.040828116
212	0xbd43fa6a	-0.047846235
213	0xbd5d8478	-0.05408141
214	0x3bd4d6a0	0.006495312
215	0x3d0729c1	0.032998804
216	0x3e0178a4	0.12643677
217	0x3dc5813a	0.09643789
218	0xbd17a3a5	-0.037021298
219	0xbcb63844	-0.022243626
220	0x3c11daee	0.008902295
221	0x3d7cb6fd	0.06169795
222	0xbd25d157	-0.040482845
223	0xbd375322	-0.044757016
224	0x3d21515e	0.03938424
225	0x3de396a7	0.11112719
226	0x3da9d7ba	0.082931
227	0x3debe119	0.11517543
228	0xbdc7968b	-0.09745511
229	0x3c3077ec	0.010770779
230	0xbc08ec5d	-0.008357135
231	0x3dc9977b	0.09843346
232	0x3de1a1de	0.11017202
233	0xbdb5f117	-0.08883875
234	0x3d1c593e	0.038171045
235	0x3d8605bf	0.06544065
236	0x3df8e5c5	0.121532
237	0x3c8ccb87	0.017186893
238	0xbda1e430	-0.079048514
239	0x3ccd81c2	0.025086287
240	0xbba28c95	-0.0049606063
241	0x3df2b535	0.11850969
242	0xbcec9a36	-0.028882127
243	0xbd0a7cd7	-0.033810463
244	0xbd0db972	-0.034600683
245	0xbcb4f210	-0.02208808
246	0x3d1c37f3	0.038139295
247	0xbdac1652	-0.08402695
248	0x3cd846f4	0.02640102
249	0xbd78373b	-0.060599547
250	0xbd6ad0cc	-0.05732803
251	0xbd87a795	-0.066237606
252	0x3da5953f	0.08085107
253	0x3d3c865d	0.046026576
254	0x3d920baa	0.07131131
255	0xbd4d03b0	-0.050052345

lstm.bias_hh_l0 f4 [256]
0	0xbda5437a	-0.08069511
1	0x3d30746b	0.043079775
2	0xbd1182d3	-0.035525154
3	0x3e05409c	0.13012928
4	0x3d803fb9	0.06262154
5	0x3d7b1529	0.061299477
6	0x3d80d6a5	0.0629094
7	0xbd3c6932	-0.04599876
8	0x3e1e2732	0.1544464
9	0x3e127900	0.1430397
10	0x3dcc3d3c	0.09972617
11	0x3df54c9c	0.11977503
12	0xbd60098a	-0.054696597
13	0xbd8de091	-0.06927598
14	0x3c1d5127	0.009601868
15	0xbce9ac43	-0.028524524
16	0xbd50bf83	-0.05096389
17	0x3ded58d8	0.11589211
18	0xbb6c56b7	-0.0036062428
19	0xbcc4a48f	-0.024004249
20	0xbd4298cd	-0.047509003
21	0x3dd9c706	0.10633664
22	0x3db486a9	0.08814747
23	0x3dae4c22	0.08510615
24	0xbdc486f8	-0.09596056
25	0xbddc410c	-0.10754594
26	0xbd86ec60	-0.06588054
27	0x3d08b995	0.03338011
28	0x3d70fb0c	0.058833167
29	0xbd1d1ac9	-0.038355622
30	0x3dfe7395	0.12424389
31	0x3dfc5f8e	0.12322913
32	0x3d22e14a	0.039765634
33	0xbda74f3d	-0.081694104
34	0xbcc6a5c4	-0.024248965
35	0xbcd4063e	-0.025881883
36	0xbd9d20ee	-0.076722965
37	0xbd896e38	-0.06710476
38	0xbdda1dfe	-0.10650252
39	0xbca078a7	-0.019588782
40	0x3e224db4	0.15849954
41	0xbdc39338	-0.09549564
42	0x3cf3bb64	0.02975244
43	0xbdc8de40	-0.09808016
44	0x3d33dc29	0.043911133
45	0x3e075ebe	0.13219735
46	0x3d56fd8b	0.05248789
47	0xbb79e82e	-0.0038132775
48	0xbd6064b1	-0.054783527
49	0x3dee347a	0.11631103
50	0xbd3ab2bf	-0.04558062
51	0x3e121aef	0.14268087
52	0x3c8140bb	0.015777936
53	0xb9873d68	-0.00025794958
54	0x3def7b98	0.116934955
55	0x3d5c627f	0.05380487
56	0x3b4b0668	0.003097916
57	0x3c126cb8	0.008937053
58	0x3da7e297	0.081975155
59	0x3ddd7270	0.10812843
60	0x3e311d90	0.17296433
61	0xbd16a564	-0.036778823
62	0x3e0b4198	0.13599241
63	0x3da4920d	0.080356695
64	0xbd02f420	-0.031971097
65	0xbc41491c	-0.011797216
66	0x3dbff89b	0.093735896
67	0xbd6430d4	-0.05571063
68	0x3d66c0d0	0.056336224
69	0xbd391012	-0.04518134
70	0x3d178591	0.036992613
71	0x3dfd994a	0.12382753
72	0xbc9545bf	-0.018221734
73	0xbbf07311	-0.0073379357
74	0x3dafd8d8	0.085862815
75	0x3d88830f	0.066656224
76	0xbe010be1	-0.12602188
77	0x3df67928	0.120348275
78	0x3d8265df	0.063670866
79	0xbb45c301	-0.0030176046
80	0xbdbc67ca	-0.09199484
81	0xbce26de7	-0.027640296
82	0x3c8fce44	0.01755441
83	0x3d44423d	0.047914732
84	0x3d379c69	0.0448269
85	0x3dbf527f	0.09341907
86	0xbde504e0	-0.111825705
87	0xbdcd1092	-0.10012926
88	0x3ddafba2	0.106925264
89	0xbc8b9771	-0.017039986
90	0x3d8beff4	0.06832877
91	0xbd9d481e	-0.07679771
92	0x3d737086	0.059433483
93	0x3e12ee8a	0.14348808
94	0xbdcc49ab	-0.099749885
95	0xbdc594f5	-0.09647552
96	0x3dc2d706	0.09513669
97	0xbb3aa00a	-0.0028476738
98	0xbcbfdd93	-0.023421085
99	0xbd98dfa9	-0.07464535
100	0x3da61cce	0.08110963
101	0x3db6c722	0.089247
102	0xbc3bc9e0	-0.011461705
103	0x3dff6608	0.12470633
104	0x3de9747e	0.11399172
105	0x3c8b491e	0.017002638
106	0x3e113144	0.1417895
107	0x3d0f03b1	0.03491563
108	0x3e0dfe33	0.138665
109	0xbc65ed22	-0.014033588
110	0xbdd5d438	-0.10440868
111	0xbd173bb4	-0.03692217
112	0xbde54d3d	-0.11196373
113	0xbdd76fad	-0.10519347
114	0xbc9e728d	-0.019341731
115	0x3d8f8194	0.07007137
116	0x3d94c59d	0.07264254
117	0x3ddcbb45	0.10777906
118	0x3d94e5b5	0.07270376
119	0xbce1d796	-0.02756862
120	0x3db0f739	0.08640904
121	0x3e04b083	0.12957959
122	0x3dd8c41b	0.10584279
123	0xbdd3e388	-0.103461325
124	0xbc2d7464	-0.010586832
125	0x3bc08c78	0.00587612
126	0xbd65a311	-0.056063715
127	0x3d28edbe	0.041242354
128	0x3e01f35d	0.12690492
129	0xbcb5196a	-0.022106845
130	0x3c72a55f	0.014809935
131	0x3dbac2e7	0.09119206
132	0xbda6600e	-0.0812379
133	0x3d31cb60	0.043406844
134	0x3c538e7d	0.01291239
135	0x3d444cf9	0.04792497
136	0x3da57f47	0.08080917
137	0x3d946391	0.07245553
138	0x3c50f234	0.012753058
139	0x3dcf54de	0.10123609
140	0xbdef8569	-0.11695368
141	0x3d1e02e8	0.03857699
142	0x3d0dd117	0.03462323
143	0x3db6b36d	0.089209415
144	0xbda82807	-0.082107596
145	0x3c45cd3d	0.012072858
146	0xbe04168e	-0.12899229
147	0xbd196e83	-0.037458908
148	0x3deccee2	0.11562897
149	0xbe040280	-0.12891579
150	0xbdd47453	-0.103737496
151	0xbba1dbe0	-0.004939541
152	0xbd8463b8	-0.06464332
153	0xbd841ec4	-0.064511806
154	0x3d9af9cf	0.075671785
155	0x3d79e22a	0.061006702
156	0xbd6ee2e7	-0.05832186
157	0xbab82034	-0.0014047683
158	0xbdad13e8	-0.084510624
159	0xbdb5b413	-0.08872237
160	0x3da555b8	0.0807299
161	0xbcf35863	-0.029705232
162	0x3d91edd4	0.0712544
163	0x3beb38af	0.007178388
164	0x3c9c6c5d	0.01909464
165	0x3d363b1e	0.044489972
166	0xbdac057c	-0.083994836
167	0x3c978ee5	0.018500755
168	0xbdfa0217	-0.1220743
169	0x39f4b958	0.00046677398
170	0x3d8e7509	0.069559164
171	0x3c02e5a8	0.007989325
172	0xbe055c9c	-0.13023609
173	0xbd812b3d	-0.06307075
174	0x3d84c08a	0.064820364
175	0x3d140d3e	0.03614544
176	0xbdb6cc9f	-0.08925747
177	0xbda3153d	-0.07963035
178	0x3c8f71a0	0.017510235
179	0x3dba82a9	0.09106953
180	0x3db9ca0a	0.09071739
181	0x3e07abef	0.13249181
182	0xbdc25192	-0.094882146
183	0xbd9f808e	-0.07788192
184	0x3c07158f	0.008244886
185	0xbdd7c102	-0.1053486
186	0xbd8660ea	-0.06561454
187	0xbd94f6d5	-0.07273642
188	0x3ddda00c	0.10821542
189	0xbdd522d2	-0.10407032
190	0x3df802bb	0.12109896
191	0x3ddec504	0.108774215
192	0x3d83813d	0.064211346
193	0x3d0095ed	0.03139298
194	0x3d7ea5b8	0.06216976
195	0xbc5c970e	-0.013463749
196	0xbd9d1bf2	-0.07671346
197	0x3c95cf67	0.018287374
198	0x3dc27508	0.09494978
199	0x3d2bd2b9	0.041949008
200	0xbc13adac	-0.009013575
201	0x3da63596	0.081156895
202	0x3b1d9ab8	0.0024048518
203	0x3d78bdb1	0.06072778
204	0xbda64540	-0.08118677
205	0x3def8645	0.11695532
206	0xbdf4e062	-0.1195686
207	0x3e083d72	0.1330469
208	0x3dbad9b5	0.091235556
209	0x3deee981	0.11665631
210	0xbc8d8f9d	-0.017280394
211	0xbdb442f4	-0.08801833
212	0xbcd8a5ab	-0.026446184
213	0x3de6bf11	0.11266912
214	0x3e15b262	0.14618829
215	0xbd6baf91	-0.05754048
216	0x3cebd8a2	0.028789822
217	0xbcb1beb5	-0.021697382
218	0x3da950b8	0.08267349
219	0x3bf5d7ff	0.0075025554
220	0x3ccef7c4	0.025264628
221	0x3db7b23b	0.08969542
222	0xbd95e2f6	-0.0731868
223	0xbb8cff8d	-0.004302925
224	0x3d8c909c	0.068635195
225	0x3cb37319	0.021905469
226	0x3c155a7a	0.00911581
227	0xbd98a093	-0.07452502
228	0x3e045a61	0.12925102
229	0xbcb03d0e	-0.021513488
230	0xbda943f2	-0.08264913
231	0x3d0f8066	0.03503456
232	0x3d22078b	0.039557975
233	0x3c9c8edf	0.019111095
234	0xbcf59034	-0.029975988
235	0xbd9cacd4	-0.07650152
236	0xbd390489	-0.04517034
237	0xbc966e94	-0.018363275
238	0xbd8392ce	-0.06424485
239	0x3dc3cb3f	0.095602505
240	0x3dfb2aa7	0.12263995
241	0xbbc8bcaf	-0.0061260085
242	0xbdbd26cc	-0.092359155
243	0x3dc7bd5c	0.09752914
244	0xbc052242	-0.0081258435
245	0xbd2e2ded	-0.042524267
246	0x3dd6abfa	0.10482021
247	0x3d55bf09	0.05218414
248	0xbd571f9d	-0.052520383
249	0xbd43c5aa	-0.04779593
250	0x3e01fb53	0.12693529
251	0x3d783ab6	0.060602866
252	0xbcd393af	-0.025827257
253	0xbd02d5a7	-0.031942036
254	0x3d57f3c8	0.052722722
255	0xbcb2dcbf	-0.021833776

lstm.weight_ih_l1 f4 [256, 64]
0	0xbcb87d41	-0.022520663
1	0xbd5e48a0	-0.05426848
2	0x3dafbb80	0.08580685
3	0x3ce9ba81	0.028531315
4	0x3db310de	0.087434515
5	0x3cf567ee	0.029956784
6	0xbd2077c5	-0.03917672
7	0xbdb160ae	-0.08661018
8	0xbe23e3b7	-0.16004835
9	0xbdaf3d6c	-0.08556637
10	0xbd199402	-0.037494667
11	0x3dadefb1	0.08492983
12	0xbd6c3ad0	-0.057673275
13	0xbd2c317a	-0.042039372
14	0x3b37b7ca	0.002803313
15	0xbcb82f83	-0.022483593
16	0x3e099f69	0.13439716
17	0xbdddf235	-0.10837213
18	0x3e08a379	0.1334361
19	0xbd88492e	-0.06654583
20	0x3de8d10d	0.11367998
21	0x3d9c557b	0.076334916
22	0xbe0b371f	-0.13595246
23	0x3c1f37e8	0.009717919
24	0x3e030598	0.12795103
25	0x3adcaff6	0.0016837108
26	0xbd07cdaa	-0.03315512
27	0x3d498f67	0.049209025
28	0x3da46c34	0.080284506
29	0x3df2b6b9	0.11851258
30	0xbdd38990	-0.10328972
31	0xbdb2e08a	-0.08734234
32	0xbcf5e03e	-0.030014154
33	0xbcc88cb0	-0.024481148
34	0x3d5cfa0e	0.05394941
35	0xbd983446	-0.07431845
36	0xbd582150	-0.052766144
37	0xbdade70e	-0.08491336
38	0x3ddda10b	0.10821732
39	0x3e0feffc	0.1405639
40	0xbdce437c	-0.100714654
41	0x3d6c4eb3	0.05769224
42	0xbda30580	-0.079600334
43	0xbe06bbd6	-0.13157591
44	0xbdb76ea2	-0.089566484
45	0xbce568a8	-0.028004006
46	0x3cb4971f	0.022044716
47	0x3c3e396d	0.011610371
48	0xbd90501d	-0.070465304
49	0x3ddf6ba7	0.10909205
50	0x3d83b8a6	0.06431703
51	0x3c4ab518	0.012372278
52	0x3d871d1c	0.06597349
53	0xbbe42864	-0.0069628228
54	0xbd990ee5	-0.07473544
55	0xbdc12f61	-0.09432865
56	0x3dfcbbe9	0.123405285
57	0xbe06a5fc	-0.13149256
58	0xbd191564	-0.037373915
59	0xbd569024	-0.052383557
60	0x3cdb72bb	0.026788106
61	0xbde21a31	-0.11040152
62	0xbdba4fca	-0.0909725
63	0x3dc545f2	0.09632482
64	0xbd1aeb37	-0.037821975
65	0x3dc52dd4	0.09627882
66	0x3d70fd40	0.058835268
67	0xbdd4c400	-0.103889465
68	0x3e0a33e3	0.13496356
69	0xbd521249	-0.05128697
70	0x3de500b6	0.11181776
71	0xbd21919e	-0.039445512
72	0x3dfce1e3	0.12347772
73	0x3d8d81e4	0.0690954
74	0x3d9f1c5b	0.0776908
75	0x3ddae3aa	0.10687955
76	0x3ca21133	0.019783592
77	0x3db315d4	0.08744398
78	0xbcffb053	-0.031212008
79	0x3d39d7e7	0.045371916
80	0xbb9504dd	-0.004547699
81	0xbddda009	-0.1082154
82	0xbdb937f2	-0.09043874
83	0x3d9787b4	0.0739893
84	0xbdb8fb04	-0.090322524
85	0xbdd44533	-0.10364761
86	0xbdf217bd	-0.11820934
87	0x3dca6415	0.098823704
88	0xbd753cfa	-0.059872605
89	0x3d56e078	0.052460164
90	0xbd52dc28	-0.05147949
91	0xbd71655f	-0.058934566
92	0x3c05b431	0.008160637
93	0xbbfd6729	-0.007733245
94	0x3ca1a98d	0.019734168
95	0xbdd6b696	-0.10484044
96	0xbd499945	-0.049218435
97	0x3d618b92	0.055064745
98	0x3d90abf8	0.070640504
99	0xbd6e1f53	-0.05813534
100	0xbcdbdea6	-0.026839565
101	0xbc4a6929	-0.012354174
102	0xbdfd429f	-0.123662226
103	0xbd11c5ba	-0.035588957
104	0x3dbe551a	0.092935756
105	0x3d96c1bf	0.07361173
106	0x3d9ca27a	0.076481774
107	0x3dcc904c	0.0998846
108	0x3cfbf632	0.030757044
109	0x3e0b446f	0.13600324
110	0xbd37db0a	-0.044886626
111	0x3cff525a	0.031167198
112	0xbc9d9669	-0.01923676
113	0x3db6bb1a	0.089224055
114	0xbc7a5c60	-0.015280813
115	0x3d9d30da	0.07675333
116	0x3cd38a90	0.025822908
117	0x3d8163c6	0.063178584
118	0x3d4eea2e	0.0505163
119	0x3e0b30b5	0.13592799
120	0xbc941e93	-0.018080985
121	0xbcc3633d	-0.023851031
122	0x3c6013ca	0.013676593
123	0xbdb434dd	-0.08799145
124	0xbd03c2ae	-0.032168083
125	0x3e1186a2	0.14211515
126	0x3d01c165	0.031678576
127	0xbd60fab5	-0.054926593
128	0x3d234b59	0.03986678
129	0x3c0029c2	0.007822456
130	0xbd24a870	-0.040199697
131	0x3d8cafe3	0.06869485
132	0x3d5b51fa	0.053544976
133	0xbe0b8bed	-0.13627596
134	0xbd90e9cc	-0.07075843
135	0xbc0a8c84	-0.008456353
136	0x3dce0841	0.10060168
137	0xbdd46a44	-0.10371831
138	0x3d723f55	0.05914243
139	0xbddb8c83	-0.1072016
140	0xbe007116	-0.12543139
141	0xbe0d936b	-0.13825767
142	0x3de0a83a	0.10969587
143	0x3e12a176	0.14319405
144	0x3db5058c	0.088389486
145	0x3deca2bc	0.115544766
146	0x3d210588	0.039311916
147	0xbd2f4614	-0.04279144
148	0xbd129931	-0.035790626
149	0xbdbb047b	-0.09131714
150	0xbc6f16ac	-0.014592808
151	0xbda582b9	-0.08081574
152	0xbc935191	-0.01798323
153	0x3cd13c47	0.025541438
154	0xbdf11e52	-0.11773361
155	0x3d62df70	0.055388868
156	0xbe1bdf1a	-0.15221825
157	0x3d8f6ee9	0.07003576
158	0xbdaf79eb	-0.08568176
159	0x3d8b050b	0.06788071
160	0xbdcf8f71	-0.10134781
161	0xbd730848	-0.05933407
162	0x3cf96919	0.030445622
163	0x3d2b2427	0.041782524
164	0x3e1045f2	0.14089182
165	0xbd26f6b5	-0.040762622
166	0x3c989976	0.018627863
167	0xbd94f669	-0.072735615
168	0xbc73a5e4	-0.014871094
169	0xbcc56114	-0.024094142
170	0xbd950a6b	-0.07277378
171	0xbdecae2d	-0.11556659
172	0x3d74d53e	0.059773676
173	0xbda6adfa	-0.08138652
174	0x3ca9e0b2	0.020737026
175	0xbe06a9ae	-0.13150665
176	0x3d3edb33	0.046595763
177	0x3d8d321a	0.06894322
178	0xbcf76576	-0.030199748
179	0xbdfae7b7	-0.12251227
180	0x3d199b53	0.037501644
181	0x3dd10785	0.10206512
182	0xbc89baed	-0.016812766
183	0x3d8df658	0.06931752
184	0xbd80319b	-0.062594615
185	0xbda86258	-0.082218826
186	0x3cac2faa	0.021018822
187	0xbcb37bdd	-0.021909649
188	0x3d2ee901	0.04270268
189	0x3c05baed	0.008162242
190	0x3dab5573	0.083659075
191	0xbc0ec198	-0.0087131485
192	0xbd82c17b	-0.0638456
193	0xbdf9ac99	-0.121911235
194	0xbd00747a	-0.03136108
195	0x3d9c978c	0.07646093
196	0xbd7f6aa7	-0.06235757
197	0xbe12a1f3	-0.14319591
198	0xbd541cee	-0.051785402
199	0xbd9bf285	-0.07614616
200	0x3d99006c	0.074707836
201	0xbd33e5ab	-0.0439202
202	0x3d12117e	0.035661213
203	0xbc8f6a1c	-0.017506652
204	0xbdb2f537	-0.08738177
205	0xbd2fcb7f	-0.04291868
206	0x3c81ac12	0.01582912
207	0x3da281cc	0.07934913
208	0xbd7cd3f8	-0.061725587
209	0xbb79ce14	-0.0038117217
210	0xbd816f65	-0.06320075
211	0x3ca9d381	0.020730736
212	0x3ab6813f	0.0013924016
213	0xbdfd66b2	-0.12373103
214	0xbc1da204	-0.009621147
215	0x3d46656b	0.048436563
216	0xbd3741d8	-0.044740528
217	0xbd123d54	-0.03570302
218	0x3d37a30d	0.04483323
219	0xbc20d582	-0.009816529
220	0xbd1c9a12	-0.03823287
221	0x3dcf1f09	0.10113341
222	0x3d451495	0.04811533
223	0xbdf70c6e	-0.12062918
224	0x3b8afccd	0.004241562
225	0xbd079bfd	-0.033107746
226	0x3d03ddca	0.032193936
227	0x3dafc7fc	0.08583066
228	0xbcb41386	-0.021981966
229	0xbcbb69bd	-0.022877568
230	0x3d61adb1	0.055097286
231	0x3e03abca	0.12858501
232	0xbd93ce70	-0.07217109
233	0xbd72cf74	-0.059279874
234	0x3ce9f0b7	0.028557165
235	0xbde30870	-0.11085594
236	0x3d3ecc1e	0.04658138
237	0xbd5a1349	-0.053241048
238	0x3dab7367	0.083716206
239	0xbd9e0ba3	-0.07717063
240	0x3e184411	0.14869715
241	0xbd77a8d9	-0.06046376
242	0x3dcef507	0.10105329
243	0xbd9a3855	-0.07530276
244	0xbd4bd320	-0.04976189
245	0xbd2ebe30	-0.042661846
246	0x3d226a26	0.039652012
247	0xbdb7a2ad	-0.08966575
248	0x3d95aae0	0.073079824
249	0xbcac3e6e	-0.021025863
250	0x3dd41acb	0.10356673
251	0x3d049169	0.032365236
252	0x3dca4d02	0.09877969
253	0x3db631dd	0.088962294
254	0xbdb7de2d	-0.089779235
255	0x3d0fd7f0	0.035118043

lstm.weight_hh_l1 f4 [256, 64]
0	0x3d433879	0.04766128
1	0xbd70cfd5	-0.058791954
2	0x3d8ee072	0.06976403
3	0x3d300a2f	0.04297846
4	0x3cc1a99f	0.023640452
5	0x3dccbc30	0.099968314
6	0x3dbb5df2	0.09148778
7	0xbbb9a007	-0.0056648287
8	0xbd67540d	-0.05647664
9	0xbce9e0e4	-0.028549619
10	0xbd8774b9	-0.0661406
11	0x3db5a668	0.0886963
12	0xbdc5fc37	-0.09667247
13	0xbda6b37c	-0.08139703
14	0xbdbc20f0	-0.0918597
15	0xbdda68d0	-0.10664523
16	0x3d05dcee	0.032681398
17	0xbdcf192d	-0.10112224
18	0x3d500004	0.050781265
19	0xbd1a2fa7	-0.0376431
20	0x3c92588a	0.017864484
21	0xbd9782a4	-0.073979646
22	0xbd6e9005	-0.058242816
23	0x3daf3f96	0.0855705
24	0x3dd32623	0.103100084
25	0x3df3f52d	0.11911998
26	0x3a27884a	0.0006390853
27	0xbdb5fd78	-0.08886236
28	0x3d90c94b	0.070696436
29	0x3a40ecf4	0.00073595275
30	0x3ca42837	0.020038707
31	0x3d684c84	0.056713596
32	0xbd56c1f2	-0.052431054
33	0x3defa301	0.117010124
34	0xbd93b8e5	-0.07213
35	0xbb24e79d	-0.0025162466
36	0xbc8de2d0	-0.017320067
37	0x3ddf0ad7	0.108907394
38	0xbd81bb42	-0.06334545
39	0xbd4caded	-0.049970556
40	0x3d70a1f3	0.058748197
41	0x3c90be63	0.017668908
42	0xbc5216f8	-0.012822859
43	0x3d16164b	0.036642354
44	0x3daeb465	0.08530501
45	0x3db6fd13	0.08934989
46	0x3deda3f9	0.11603541
47	0x3d8597f0	0.065231204
48	0xbdf3d391	-0.119055875
49	0xbdddb86d	-0.10826192
50	0xbb2aff5f	-0.0026092154
51	0x3b378f14	0.0028008865
52	0x3deb8b89	0.115012236
53	0x3c09e335	0.008415987
54	0x3d845a85	0.06462578
55	0x3de1508e	0.11001693
56	0xbdce94da	-0.10086985
57	0xbde420c4	-0.11139062
58	0xbd0a585b	-0.03377567
59	0xbdc2ca9f	-0.09511303
60	0x3c29c66e	0.010362251
61	0x3d92effa	0.07174678
62	0xbdd9e614	-0.10639587
63	0x3c78620c	0.015160095
64	0xbbd68530	-0.006546639
65	0xbd841a34	-0.0645031
66	0xbad7eaa7	-0.001647313
67	0x3d199a0b	0.037500422
68	0xbda5c854	-0.0809485
69	0xbc42d747	-0.011892146
70	0xbdaadf48	-0.08343369
71	0x3dc853b8	0.09781593
72	0xbca88554	-0.020571388
73	0x3dcac41d	0.09900687
74	0x3ccd8886	0.025089514
75	0xbe0ee950	-0.13956189
76	0xbd65b7cb	-0.05608348
77	0x3d8dab17	0.069173984
78	0xbde14bb7	-0.110007696
79	0x3df1c8f5	0.11805908
80	0x3dc1a744	0.094557315
81	0xbd66919a	-0.0562912
82	0x3de4416e	0.11145292
83	0x3d9d5ddb	0.07683917
84	0xbda9cf9f	-0.08291554
85	0x3d7ba003	0.061431896
86	0xbd5d2f52	-0.054000206
87	0x3be27936	0.006911422
88	0x3dd68f86	0.10476594
89	0xbccdb494	-0.02511052
90	0x3dbc80b2	0.09204234
91	0xbb15afa0	-0.0022840276
92	0x3d2872b3	0.04112501
93	0x3d9bb1e4	0.07602289
94	0x3cbd2472	0.023088668
95	0xbdf0039d	-0.11719439
96	0x3dc29fa1	0.09503103
97	0xbde8f7ac	-0.11375365
98	0x3db583e9	0.088630505
99	0xbdcb5d1e	-0.0992987
100	0xbd179bde	-0.03701388
101	0xbd7d73b8	-0.061877936
102	0xbdcb349e	-0.09922145
103	0x3d34fd56	0.044186912
104	0x3bb5c5d5	0.005547265
105	0x3d3bdd9b	0.045865636
106	0x3da45a35	0.08025018
107	0x3d4eddf9	0.05050466
108	0x3d33ad5f	0.04386651
109	0x3d6af66a	0.057363905
110	0xbcdc27c2	-0.026874427
111	0xbe0a086d	-0.13479777
112	0xbbbf7fd3	-0.0058440953
113	0x3bfe0958	0.0077525787
114	0x3d5edd9f	0.054410573
115	0xbe09a503	-0.13441853
116	0x3bbddaee	0.0057939207
117	0x3dda9d9d	0.106745936
118	0x3dbdf764	0.09275702
119	0x3ced950b	0.029001733
120	0x3d007e7a	0.031370617
121	0xbbd0280a	-0.0063524293
122	0x3de35765	0.111006536
123	0xbdaae80b	-0.0834504
124	0x3d8a79a7	0.067614846
125	0x3d7954c1	0.060871843
126	0xbdc13f7b	-0.09435936
127	0x3d9988c1	0.07496787
128	0x3dbbd0e8	0.09170705
129	0xbd6a2fc2	-0.05717445
130	0x3d973bce	0.07384454
131	0xbd743f79	-0.059630845
132	0xbdec0fd8	-0.115264595
133	0x3da154fd	0.07877538
134	0xbdccc70a	-0.09998901
135	0xbd91cc58	-0.071190536
136	0x3dd8ee33	0.10592308
137	0xbdba01e8	-0.09082395
138	0x3daf7790	0.085677266
139	0x3be5592b	0.006999155
140	0x3dfe050f	0.124033086
141	0xbe01e44d	-0.12684746
142	0xbce18181	-0.027527573
143	0x3d11b7bd	0.035575617
144	0x3d37d37e	0.04487943
145	0x3dc7cc1c	0.09755728
146	0x3cf1ffe1	0.029540958
147	0xbded666f	-0.11591803
148	0xbd5c4b5d	-0.05378281
149	0xbda5d066	-0.080963895
150	0xbd3cc332	-0.04608459
151	0xbd8c9177	-0.06863683
152	0x3d30a6c6	0.043127798
153	0xbd66a757	-0.05631193
154	0x3dab2766	0.08357124
155	0x3d35d362	0.044391043
156	0x3dd46f11	0.10372747
157	0xbdf6c231	-0.12048758
158	0xbdec01cc	-0.1152378
159	0x3da77ab6	0.08177702
160	0x3d1fc46a	0.039005674
161	0x3db0390e	0.08604632
162	0x3d999f70	0.075011134
163	0xbc8a0be5	-0.016851375
164	0xbd9c6fd6	-0.076385185
165	0x3d498764	0.049201384
166	0xbddf5bef	-0.10906207
167	0xbd438b72	-0.047740407
168	0x3da12c0a	0.07869728
169	0x3de58aa1	0.11208082
170	0x3de64fb3	0.1124567
171	0xbd521e70	-0.05129856
172	0x3ddfaf18	0.10922068
173	0xbbcdcc91	-0.0062804897
174	0xbd29fd49	-0.041501317
175	0x3d8888c3	0.0666671
176	0x3d94e59d	0.07270358
177	0xbcb5c554	-0.02218882
178	0x3c399fde	0.011329619
179	0xbdc8f909	-0.09813125
180	0xbd5b6d2d	-0.053570915
181	0xbd9ba312	-0.075994626
182	0x3da0d1a4	0.07852486
183	0x3df632db	0.12021419
184	0x3a8268b3	0.0009949416
185	0xbd8e0bbb	-0.06935831
186	0x3df7e6b1	0.12104548
187	0x3dd0b64a	0.10191019
188	0x3da477d6	0.080306694
189	0xbd5f887e	-0.05457353
190	0xbd465074	-0.04841657
191	0xbcca53d4	-0.024698175
192	0x3d4b4c6e	0.049633436
193	0xbdf516ee	-0.11967264
194	0x3dc473db	0.0959241
195	0x3dfad2c6	0.12247233
196	0xbd985a36	-0.07439081
197	0x3cafdbc6	0.0214671
198	0xbd828ee6	-0.06374912
199	0xbe04ff8e	-0.12988111
200	0x3dbeb672	0.093121424
201	0x3d4739f8	0.048639268
202	0xbd958367	-0.07300454
203	0x3d8c5166	0.06851463
204	0xbddcf28d	-0.107884504
205	0xbcf21c11	-0.029554399
206	0x3ca6436c	0.020295821
207	0xbd97d6f0	-0.07414043
208	0x3d477c5b	0.04870258
209	0x3d691b10	0.056910574
210	0x3cd09abc	0.025464408
211	0x3db12503	0.086496376
212	0x3d7d1f18	0.06179723
213	0xbd160725	-0.036627907
214	0x3dc26724	0.09492329
215	0x3c67cc17	0.01414778
216	0x3de0f7e6	0.10984783
217	0x3dcc733f	0.09982919
218	0x3c4b22ce	0.012398435
219	0xbdeffb9b	-0.11717912
220	0xbaaf0510	-0.0013352949
221	0xbd714ac1	-0.05890918
222	0x3d36e4e7	0.044651892
223	0xbdce9265	-0.10086516
224	0x3d54b1e5	0.051927466
225	0x3e031bb9	0.12803544
226	0xbd3d82a8	-0.04626718
227	0xbddad2ec	-0.106847614
228	0xbda598ed	-0.08085809
229	0xbcc3ea06	-0.023915302
230	0xbc582184	-0.0131915845
231	0x3c35a960	0.011087745
232	0xbd851c1c	-0.06499502
233	0x3d1d47a3	0.038398396
234	0x3da111fe	0.0786476
235	0x3dd1e40d	0.10248575
236	0xbce93372	-0.028466914
237	0xbd165390	-0.036700785
238	0xbd27b824	-0.040947095
239	0x3dd257ac	0.10270628
240	0x3cfa54ee	0.030558076
241	0xbd9cd024	-0.07656887
242	0x3d1d774e	0.038443856
243	0xbba20020	-0.0049438626
244	0x3d161db0	0.036649406
245	0x3b1cfec6	0.0023955568
246	0xbd6858be	-0.056725256
247	0xbe0139ed	-0.12619753
248	0xbd82d45a	-0.06388159
249	0x3de1460a	0.10999687
250	0x3cd2905e	0.025703605
251	0x3dde0d5b	0.10842391
252	0xbc140a62	-0.009035679
253	0xbdb0375d	-0.0860431
254	0xbd83eaf9	-0.06441302
255	0x3dae03fd	0.084968545

lstm.bias_ih_l1 f4 [256]
0	0x3d2cf1de	0.04222285
1	0xbd9881ff	-0.0744667
2	0x3def569e	0.11686443
3	0x3df4a60c	0.119457334
4	0xbdd38d17	-0.10329645
5	0x3d878886	0.06617837
6	0xbde49be9	-0.1116255
7	0x3c252416	0.010079404
8	0x3dd1d7d5	0.10246245
9	0xbda258c4	-0.07927087
10	0x3d9de7a8	0.077102005
11	0x3dcfaced	0.10140405
12	0x3d79b376	0.060962163
13	0xbdbe0859	-0.09278936
14	0x3dee5000	0.116363525
15	0x3de989f6	0.11403267
16	0x3d29b197	0.04142913
17	0x3dd42b53	0.10359826
18	0x3d5f8c94	0.054577425
19	0x3d24b60f	0.040212687
20	0x3d9bdfcc	0.07611045
21	0x3d4fcd4e	0.050732903
22	0xbd259703	-0.04042722
23	0xbda4e7ae	-0.08052002
24	0xbb18a908	-0.002329411
25	0x3a5eeefa	0.0008504238
26	0x3d57e74e	0.052710824
27	0xbdf980db	-0.1218278
28	0x3d376eae	0.044783287
29	0x3ddf1d9a	0.10894318
30	0x3d83c275	0.06433574
31	0xbdfe359f	-0.12412571
32	0xbd1ad11d	-0.037797082
33	0xbd974b30	-0.07387388
34	0x3d49d473	0.049274873
35	0xbd9d4f27	-0.07681113
36	0xbd098fcb	-0.033584397
37	0x3d399f2c	0.045317814
38	0x3d047f46	0.03234794
39	0x3e0566a6	0.13027439
40	0xb90b7e9e	-0.00013303242
41	0xbca20b3e	-0.019780751
42	0xbdce75b4	-0.10081044
43	0xbded123b	-0.11575743
44	0x3ded7979	0.11595435
45	0xbd422a77	-0.04740378
46	0x3cad22d6	0.021134775
47	0x3dca5aec	0.09880623
48	0x3cde0c59	0.027105497
49	0xbd92aa8d	-0.07161436
50	0x3db7fbea	0.08983596
51	0x3d05d0c0	0.032669783
52	0xbc3b625f	-0.011437028
53	0x3d94868c	0.07252225
54	0x3d04ae47	0.032392766
55	0x3ce9eec8	0.028556243
56	0xbd2286c6	-0.03967931
57	0x3e0c3f92	0.13696125
58	0xbcf3ef85	-0.029777298
59	0x3c5946c7	0.013261504
60	0x3d70599c	0.05867921
61	0xbd94bd51	-0.07262672
62	0x3d478f45	0.048720617
63	0x3e0d679b	0.13809054
64	0x3db4ab42	0.08821727
65	0xbd8fb7ab	-0.07017454
66	0x3daf2652	0.08552231
67	0x3d1098f0	0.035302103
68	0x3db7393d	0.08946464
69	0xbd930075	-0.071778215
70	0xbde72819	-0.11286945
71	0x3c40eb4f	0.011774852
72	0x3d8c547b	0.06852051
73	0xbe1d5aa8	-0.15366614
74	0xbdffe5b9	-0.12494988
75	0xbd8c635e	-0.0685489
76	0x3b9dc5b5	0.0048148283
77	0xbdef82e2	-0.11694886
78	0x3dbd5365	0.09244422
79	0xbd90b92b	-0.07066568
80	0x3daef862	0.08543469
81	0xbdbdc628	-0.09266311
82	0xbd3b2247	-0.045686986
83	0x3d7ef021	0.062240724
84	0xbdb44e53	-0.08804002
85	0x3c316e2f	0.0108294925
86	0x3d636890	0.05551964
87	0xbd529fd3	-0.05142195
88	0x3daca007	0.0842896
89	0x3dc3d932	0.09562911
90	0x3cae0501	0.02124262
91	0xbde45b4c	-0.11150226
92	0xbd8325ea	-0.06403716
93	0x3cd06fd2	0.025443945
94	0x3d41987e	0.04726457
95	0xbdd10096	-0.1020519
96	0x3dbf1fd6	0.09332244
97	0x3ccbba0e	0.024868991
98	0x3ddbb67a	0.10728164
99	0x3c3aa428	0.011391677
100	0x3dc56bf9	0.09639735
101	0xbdb4cc0d	-0.08827982
102	0x3cc38cca	0.023870844
103	0x3de2def9	0.11077685
104	0x3d800926	0.06251745
105	0xbdc2bc84	-0.09508613
106	0xbd8cee70	-0.06881416
107	0xbd477332	-0.048693843
108	0x3ae47067	0.0017428518
109	0x3d90e222	0.070743814
110	0xbb6370db	-0.0034704718
111	0xbdac835a	-0.08423491
112	0x3da65b50	0.08122885
113	0x3cacafe2	0.021079961
114	0xbdbdecb3	-0.092736624
115	0x3d946b2c	0.07247004
116	0xbd6ad4ce	-0.057331853
117	0xbd98e8d5	-0.07466284
118	0x3db48246	0.0881391
119	0x3d7e1600	0.0620327
120	0xbd831ee4	-0.06402376
121	0xbc32cda9	-0.010913291
122	0xbdd54a66	-0.10414581
123	0xbdc338cd	-0.09532318
124	0x3db325fd	0.0874748
125	0xbcaca2a7	-0.021073652
126	0xbd7f55a3	-0.06233753
127	0xbdd28233	-0.1027874
128	0xbccf7372	-0.025323603
129	0x3c99d741	0.018779399
130	0xbd7760f2	-0.06039519
131	0x3deb5384	0.11490539
132	0xbbabc4fb	-0.0052419878
133	0xbd9c9bbd	-0.07646892
134	0xbc7abddf	-0.015304058
135	0x3d0344aa	0.032047905
136	0xbcbccc68	-0.023046687
137	0xbdc88fd0	-0.09793055
138	0xbd93ca65	-0.07216338
139	0x3de6beba	0.11266847
140	0x3cc6f766	0.02428789
141	0xbdd8695b	-0.1056697
142	0x3dde0853	0.108414315
143	0x3d5613ce	0.05226498
144	0xbda12f4d	-0.0787035
145	0x3da8fe07	0.08251577
146	0xbca283eb	-0.019838294
147	0x3ba7d9df	0.005122408
148	0x3d02d0f5	0.03193756
149	0x3c9475c5	0.018122563
150	0xbca763a3	-0.020433253
151	0x3de3683d	0.11103866
152	0x3da7ab1f	0.08186936
153	0x3de8a43d	0.11359451
154	0xbdaa7d2e	-0.083246574
155	0xbdd6f880	-0.10496616
156	0x3dcd2197	0.100161724
157	0x3d023baf	0.0317952
158	0x3d72551a	0.05916319
159	0x3ca09cf1	0.019606085
160	0xbe05b84a	-0.13058582
161	0x3d6ab51c	0.057301626
162	0x3dda3172	0.10653962
163	0x3db12734	0.086500555
164	0xbc86498b	-0.01639249
165	0xbe00cdb9	-0.12578477
166	0xbdb6f3c4	-0.08933213
167	0xbd4b05d8	-0.04956612
168	0x3dc7b703	0.097517036
169	0x3d6b3afd	0.057429302
170	0x3d15159c	0.03639756
171	0x3d802ca0	0.062585115
172	0xbd9d21e6	-0.07672481
173	0x3dfd23dc	0.12360355
174	0xbda81e32	-0.08208884
175	0x3d8b88db	0.068132125
176	0xbda145c0	-0.07874632
177	0xbdd805ca	-0.10547979
178	0xbc8acaeb	-0.016942462
179	0x3d97021a	0.07373448
180	0xbd0f68f6	-0.035012208
181	0xbc51f94f	-0.012815787
182	0xbd2cf851	-0.042229
183	0xbd597765	-0.05309238
184	0x3e11ec4c	0.14250296
185	0x3d960b14	0.07326332
186	0xbbe8e3c7	-0.0071072313
187	0xbd6255e1	-0.05525768
188	0x3e0a55ae	0.13509247
189	0x3dc85f02	0.09783746
190	0xbdb22902	-0.08699228
191	0x3dac7f68	0.08422738
192	0xbd8ae965	-0.06782798
193	0x3ba35f46	0.0049857227
194	0xbdd069bf	-0.101764195
195	0x3d8cd0d2	0.06875767
196	0xbc657e6b	-0.014007191
197	0xbdbf20e7	-0.093324475
198	0x3d8eb70b	0.069685064
199	0xbd987018	-0.07443255
200	0x3db1f83f	0.08689927
201	0x3c15f889	0.009153494
202	0xbdc73032	-0.097259894
203	0xbad11dc3	-0.0015954304
204	0x3d6093b7	0.05482837
205	0xbd9835f6	-0.07432167
206	0x3e13e0f0	0.14441276
207	0xbd4ac601	-0.049505237
208	0xbdf5e964	-0.12007406
209	0xbddc420c	-0.10754785
210	0xbdefa7be	-0.11701916
211	0x3d330c6d	0.043713022
212	0xbd9e69c0	-0.07735014
213	0x3e01ea9a	0.1268715
214	0xbd20fb84	-0.039302364
215	0x3db7d9a5	0.08977059
216	0x3dbd6178	0.09247106
217	0xbd8d75a0	-0.06907201
218	0x3d953af2	0.072866336
219	0xbbd1b908	-0.0064002313
220	0x3ca090a4	0.01960022
221	0x3e0d3969	0.13791431
222	0x3cd1bd5e	0.025602993
223	0xbdb3156a	-0.08744319
224	0xbc7a9327	-0.015293873
225	0xbdbd7f86	-0.09252839
226	0x3df6e40d	0.12055216
227	0x3c3202d9	0.010864937
228	0x3d9414ab	0.072305046
229	0xbd2f1ed4	-0.04275401
230	0xbe02c19a	-0.12769166
231	0x3bb5d860	0.0055494756
232	0xbcc6b8a2	-0.024257962
233	0xbd5834ef	-0.052784856
234	0x3d03fb73	0.032222223
235	0xbd85a32d	-0.06525264
236	0x3e024e6d	0.1272523
237	0xbd9775e5	-0.073955335
238	0x3d9cbe4c	0.07653484
239	0x3c1f9a89	0.009741434
240	0xbc8564d7	-0.016283436
241	0x3df43992	0.11925043
242	0x3dffa1fa	0.124820665
243	0x3d1bcf24	0.03803934
244	0x3dcac6f9	0.09901232
245	0x3e00925a	0.12555829
246	0xbdc28195	-0.09497372
247	0x3d35bf12	0.044371672
248	0x3de25ffa	0.11053462
249	0x3df9ebe3	0.12203195
250	0xbd4fdd32	-0.050748058
251	0xbd15ea9d	-0.036600698
252	0x3d8ae0d3	0.06781163
253	0xbd95db8b	-0.07317265
254	0xbd9b8c3b	-0.07595106
255	0x3d726aef	0.05918401
