src/Backend-Information/Clod-weather_predict/Hunan_lstm_model.pth (torch, 208379 bytes, 11 tensors)

lstm.weight_ih_l0 f4 [256, 3]
0.070998475 0.08593019 -0.04177951 -0.046141215 -0.13189636 -0.03678014 -0.02662118 0.05381216
-0.0025944437 -0.14984432 0.10387873 0.035726637 -0.10086351 0.008576002 0.08468388 0.032325003
0.13461229 -0.107017435 -0.05693466 -0.10971216 -0.086956546 0.100742586 0.05032127 -0.10613751
-0.024167232 -0.12319471 -0.081001066 0.043299083 -0.031120982 -0.10989979 -0.10095972 0.1197083
-0.0064536715 0.07856962 0.038358986 0.019367842 -0.14930351 0.04743865 0.05908807 0.08756422
-0.02628843 -0.03827811 0.022080854 -0.10700562 0.08517089 0.0063404366 -0.08608756 0.051507026
0.050337378 0.13053793 0.041362867 0.040056337 -0.004519743 0.098342784 -0.0478046 -0.053398054
-0.058412027 0.018919667 0.10438178 0.097996816 0.042120934 -0.029810747 -0.0650992 -0.08287375
0.11344806 -0.016703103 0.110028334 -0.010360373 0.09698604 0.12956154 0.067848295 -0.013840817
-0.083249085 -0.00019513216 -0.11659775 -0.09322581 -0.042770974 0.0029501813 0.026065873 0.0037522062
-0.06301634 0.08808898 0.03160644 -0.06861183 0.013030826 0.09730502 0.09489568 -0.11688981
-0.007227653 0.055763382 0.13414873 -0.14287637 0.09186518 -0.1413928 0.04912225 0.05800949
0.09235874 -0.07095055 0.1036895 0.1465673 -0.06846865 0.16101539 0.098151125 -0.012857533
0.0003188127 0.15194395 -0.06856216 0.145806 0.0017014958 -0.13822645 0.10779376 -0.118707515
0.04197565 -0.12735522 0.018915137 -0.14756364 0.05625041 -0.007549497 -0.027128048 0.09554053
-0.04224003 0.11838227 -0.11090735 0.033532403 0.05601081 -0.056245193 0.01434442 0.04405755
0.03230728 -0.085703805 -0.050858483 0.1381146 0.0777997 0.1155739 -0.12374795 -0.06365703
0.08263093 -0.118482016 0.085862994 -0.070197865 -0.06390199 0.1275825 -0.018709106 -0.023550525
-0.13288239 0.0496038 -0.09378256 -0.0016427689 0.008731748 -0.061505817 -0.05776597 0.09570308
-0.086815484 0.0783556 0.08149452 0.13571398 -0.044094853 0.058721952 -0.06905526 0.12274266
-0.15171596 0.0005296618 0.039587136 0.11549413 -0.1502239 -0.061641198 -0.038865555 -0.06678033
0.09504651 0.02087297 -0.107903495 0.093096636 -0.014250396 0.0064906646 -0.11067388 -0.057151947
-0.02875045 0.046310805 -0.12864041 0.018190447 0.13424216 -0.12197495 0.13693327 -0.013069072
0.06358761 -0.09954698 -0.13009955 0.006941253 -0.050102934 0.020067364 0.048361067 0.004546161
0.050672743 -0.009679258 -0.1406062 0.14719677 -0.09269431 0.0037121165 -0.0011845717 -0.08724487
-0.113762505 0.07012642 -0.028279858 0.048426006 -0.062637396 -0.08363836 0.09271051 -0.16447687
-0.013077292 -0.15683 -0.09052057 0.07732828 -0.092922434 -0.035082202 0.030747408 -0.039085664
0.054065432 -0.14304401 -0.051151793 0.059503827 -0.022730248 0.0553962 0.07660244 0.120047025
-0.103623845 -0.13821447 0.07413256 -0.16024435 0.003393747 0.1470664 -0.0044689695 -0.13207805
0.020412 0.018828716 0.01149977 0.04574107 -0.0064999876 -0.02874312 0.023853917 0.07568002
-0.01841279 0.08464856 0.005288667 -0.0713286 0.13618769 -0.13167213 -0.028764436 0.05442966
-0.013367841 -0.00783527 0.11906354 0.05829425 -0.01879052 0.08716103 -0.051979084 -0.13037649
00000000: a667 913d 2bfc af3d fe20 2bbd 92fe 3cbd
00000010: d70f 07be c6a6 16bd a914 dabc 246a 5c3d
00000020: 8b07 2abb ca70 19be 5fbe d43d 1856 123d
00000030: 8791 cebd 5c82 0c3c be6e ad3d 3967 043d
00000040: ced7 093e f52b dbbd 5134 69bd c5b0 e0bd
00000050: 4616 b2bd 2152 ce3d ad1d 4e3d 9f5e d9bd
00000060: 5cfa c5bc 824d fcbd e3e3 a5bd 615a 313d
00000070: 6ef1 febc 2413 e1bd f8c3 cebd a029 f53d
00000080: 5279 d3bb 1ce9 a03d 501e 1d3d 4fa9 9e3c
00000090: 05e3 18be 084f 423d 5506 723d df54 b33d
000000a0: d55a d7bc 82c9 1cbd e8e2 b43c c325 dbbd
000000b0: 136e ae3d 70c3 cf3b ad4e b0bd 08f9 523d
000000c0: 912e 4e3d bcab 053e 1c6c 293d 1d12 243d
000000d0: 5a1a 94bb f167 c93d c2ce 43bd ebb7 5abd
000000e0: 7341 6fbd 6bfd 9a3c 1dc6 d53d 8eb2 c83d
000000f0: 0087 2c3d ab35 f4bc bb52 85bd b6b9 a9bd
00000100: 7557 e83d f2d4 88bc 8956 e13d 8ebe 29bc
00000110: 9ea0 c63d c8ab 043e 0cf4 8a3d 98c4 62bc
00000120: 7f7e aabd 649c 4cb9 cdca eebd 2ced bebd
00000130: 9e30 2fbd d457 413b 1988 d53c 93e7 753b
00000140: b60e 81bd ff67 b43d c175 013d 5c84 8cbd
00000150: 3f7f 553c db47 c73d ab58 c23d ed63 efbd
00000160: f3d5 ecbb 2568 643d 495e 093e 2f4e 12be
00000170: d023 bc3d 46c9 10be 6a34 493d 5c9b 6d3d
00000180: 9426 bd3d 864e 91bd 295b d43d bd15 163e
00000190: 4b39 8cbd 38e1 243e 7503 c93d 67a8 52bc
000001a0: 5126 a739 3297 1b3e 516a 8cbd 2b4e 153e
000001b0: ba04 df3a 3c8b 0dbe fac2 dc3d ed1c f3bd
000001c0: a9ee 2b3d 6869 02be ebf3 9a3c ec1a 17be
000001d0: d466 663d c561 f7bb a43b debc c1aa c33d
000001e0: e203 2dbd 6772 f23d 6523 e3bd 4659 093d
000001f0: 976b 653d 5c61 66bd dc04 6b3c b175 343d
00000200: a354 043d 7a85 afbd fc50 50bd ea6d 0d3e
00000210: 7355 9f3d 02b2 ec3d 916f fdbd 9e5e 82bd
00000220: 683a a93d b3a6 f2bd f0d8 af3d e6c3 8fbd
00000230: 0cdf 82bd fda4 023e d743 99bc 08ed c0bc
00000240: 5212 08be 5b2d 4b3d 1211 c0bd 2d52 d7ba
00000250: 9b0f 0f3c 86ed 7bbd 029c 6cbd faff c33d
00000260: 51cc b1bd e778 a03d 99e6 a63d 9bf8 0a3e
00000270: ce9c 34bd 6e86 703d d86c 8dbd 8160 fb3d
00000280: 6e5b 1bbe 00d9 0a3a 1f26 223d 3088 ec3d
00000290: 4bd4 19be 7b7b 7cbd 7d31 1fbd 20c4 88bd
000002a0: bfa7 c23d cafd aa3c 82fc dcbd 73a9 be3d
000002b0: 7e7a 69bc a4af d43b fda8 e2bd 2918 6abd
000002c0: 1086 ebbc 66b0 3d3d 50ba 03be 2204 953c
000002d0: c776 093e 01ce f9bd 3c38 0c3e a91f 56bc
000002e0: 393a 823d 49df cbbd d138 05be 7373 e33b
000002f0: bc38 4dbd 5064 a43c 4116 463d f6f7 943b
00000300: 398e 4f3d c095 1ebc 12fb 0fbe c0ba 163e
00000310: 84d6 bdbd fb46 733b a143 9bba 70ad b2bd
00000320: 51fc e8bd 719e 8f3d 29ab e7bc 595a 463d
00000330: 0948 80bd 974a abbd 02df bd3d a06c 28be
00000340: 2342 56bc 0b98 20be d962 b9bd 4a5e 9e3d
00000350: 1e4e bebd 5bb2 0fbd fde1 fb3c 4a18 20bd
00000360: b773 5d3d 217a 12be 8b84 51bd 49ba 733d
00000370: c934 babc 20e7 623d bde1 9c3d 37db f53d
00000380: bd38 d4bd 1888 0dbe d0d2 973d 1817 24be
00000390: a069 5e3b 9398 163e 6f70 92bb 783f 07be
000003a0: 1137 a73c ae3e 9a3c 8869 3c3c fd5a 3b3d
000003b0: d9fd d4bb b176 ebbc 4a69 c33c 20fe 9a3d
000003c0: 6bd6 96bc 395c ad3d 8e4c ad3b bb14 92bd
000003d0: c974 0b3e 0fd5 06be 65a3 ebbc a3f1 5e3d
000003e0: ca04 5bbc 815f 00bc 96d7 f33d f4c5 6e3d
000003f0: 94ee 99bc 7b81 b23d 05e8 54bd 6a81 05be

lstm.weight_hh_l0 f4 [256, 64]
0.054869033 -0.0805722 0.13568556 0.10517371 -0.049005996 0.057063855 -0.059199553 -0.056613125
-0.0739746 -0.047269117 0.07479252 0.06768958 0.022263797 -0.053542104 -0.053602006 -0.1311868
-0.07289166 0.07715483 -0.109737985 0.09466902 -0.012468567 -0.06684659 -0.091004394 -0.044141527
-0.068478264 -0.045382347 -0.05431447 -0.053109918 0.09383262 0.04398507 0.033354107 -0.06590732
-0.06115062 0.08203543 0.15006872 0.039217044 0.13583003 -0.14208874 -0.06576527 0.022513852
0.058678366 0.093649715 -0.07112577 -0.06497863 0.12271203 -0.16226722 -0.116969705 -0.0888501
0.00687502 0.13663532 -0.025407791 0.06937586 -0.04134145 0.13725138 0.04105677 0.037028998
-0.047909852 -0.15943763 0.014502266 -0.15273544 0.055255476 -0.04108678 -0.023397973 -0.07447127
0.09140472 -0.069211274 0.13310543 0.058307324 -0.027479714 -0.0686928 -0.018300025 0.080625586
-0.036894515 -0.03514342 0.027315836 0.10979047 -0.06600394 0.0010099814 -0.048636526 0.00046168687
0.085499026 0.022410627 -0.13645196 0.08748536 -0.035044197 -0.048372287 0.027446542 0.07450367
-0.07130408 -0.009112637 -0.025809035 -0.02587858 0.06268622 0.13073245 0.12588699 -0.14780942
-0.06195564 -0.023444124 0.0995459 0.014922101 -0.069984645 -0.042721868 0.08880317 -0.01991062
-0.020312538 -0.06857972 -0.16103655 -0.06146536 -0.048442345 0.07809296 0.01508129 -0.038034894
-0.05453389 0.005525804 -0.029270839 -0.08579205 0.05709862 -0.011419556 -0.100081414 -0.14597347
-0.107225165 -0.043343257 0.05063718 -0.06991418 -0.02109836 -0.048129138 -0.022799524 -0.13534123
-0.025400907 0.14538616 0.059472226 0.029205533 0.047356598 -0.03522857 -0.022879926 -0.1410585
0.06013351 0.16113141 0.0009380829 0.1375306 0.1401162 0.14876194 -0.01527007 -0.017960848
-0.0620896 -0.052578777 -0.11262974 0.037883528 -0.03571506 0.11577144 0.03663549 -0.03449554
0.07318814 -0.063249655 0.0648805 0.0035408046 0.13598779 -0.04666019 -0.030994188 -0.15229133
0.07719312 0.13300495 0.124814615 -0.013279095 -0.040123146 -0.10249013 0.022185396 0.064725265
0.0012955912 0.045902558 -0.12843718 -0.023153776 -0.04014391 0.020845406 -0.055719644 0.097167276
0.07433001 0.041251417 0.03327407 -0.1253252 -0.0037731105 -0.07013785 0.080281 -0.029581413
-0.072658785 0.05096777 -0.076221675 -0.1392485 0.104797326 0.0145623125 -0.020599676 0.042273868
-0.031029424 -0.0067766146 -0.07486836 0.10027608 -0.051215034 -0.00442594 -0.00027079342 -0.118752524
0.117592596 0.107038856 -0.00031046782 0.12862964 0.015910089 -0.06695066 -0.033046428 0.043872893
-0.025866369 -0.10488308 0.051145665 0.10834622 0.0522958 0.16258618 -0.003783455 0.0483471
-0.09011271 -0.0317043 0.043668326 0.06799909 0.029661989 0.13302737 0.089241765 0.0024916956
-0.0015136955 -0.03419356 0.09305164 -0.029985998 0.05876236 -0.0252943 -0.10565555 -0.0691568
-0.026326148 -0.023006026 0.017110577 -0.053377867 -0.058196638 -0.003189233 -0.12886459 0.11876273
0.0765885 -0.046578992 0.0037911488 -0.043641705 0.014493624 -0.076989114 -0.11950858 -0.13369627
0.010370257 -0.04935572 0.05023994 -0.1180229 -0.0004166573 0.11521538 0.11256394 -0.036210008
00000000: 5abe 603d 0a03 a5bd 28f1 0a3e 5065 d73d
00000010: 83ba 48bd cabb 693d 3b7b 72bd 2ae3 67bd
00000020: ff7f 97bd 439d 41bd d22c 993d d6a0 8a3d
00000030: 9162 b63c f74e 5bbd c78d 5bbd d555 06be
00000040: 3948 95bd 5a03 9e3d 4fbe e0bd d5e1 c13d
00000050: f648 4cbc dde6 88bd 8360 babd bfcd 34bd
00000060: 553e 8cbd d7e2 39bd da78 5ebd c989 59bd
00000070: 512b c03d b029 343d 519e 083d 6bfa 86bd
00000080: 1379 7abd 3102 a83d 9dab 193e 0da2 203d
00000090: 0717 0b3e b67f 11be f1af 86bd f86e b83c
000000a0: ba58 703d 6ccb bf3d 63aa 91bd 8413 85bd
000000b0: 7250 fb3d 6129 26be d08d efbd 0bf7 b5bd
000000c0: d947 e13b 21ea 0b3e 0024 d0bc ee14 8e3d
000000d0: a755 29bd a08b 0c3e 252b 283d b8ab 173d
000000e0: 1f3d 44bd 9e43 23be ea9a 6d3c ae66 1cbe
000000f0: 9153 623d 9d4a 28bd 1bad bfbc 6584 98bd
00000100: 6632 bb3d a4be 8dbd ca4c 083e a9d3 6e3d
00000110: 231d e1bc d0ae 8cbd efe9 95bc 071f a53d
00000120: b41e 17bd 8cf2 0fbd 76c5 df3c d3d9 e03d
00000130: 132d 87bd 5a61 843a 1837 47bd 900e f239
00000140: 1d1a af3d 7e96 b73c 10ba 0bbe 862b b33d
00000150: 818a 0fbd 0522 46bd 92d7 e03c 6195 983d
00000160: e007 92bd 2b4d 15bc 786d d3bc 51ff d3bc
00000170: a261 803d bade 053e 85e8 003e 5a5b 17be
00000180: 32c5 7dbd e40d c0bc b9de cb3d d47b 743c
00000190: 1c54 8fbd 20fd 2ebd 70de b53d 991b a3bc
000001a0: 7b66 a6bc 8673 8cbd c4e6 24be 1ac3 7bbd
000001b0: 7b6b 46bd 34ef 9f3d 8417 773c 7aca 1bbd
000001c0: ee5e 5fbd ce11 b53b 66c9 efbc beb3 afbd
000001d0: 3ee0 693d 1719 3bbc 7cf7 ccbd 127a 15be
000001e0: de98 dbbd b388 31bd ef68 4f3d 2a2f 8fbd
000001f0: 78d6 acbc 0f23 45bd 11c6 babc e496 0abe
00000200: 9015 d0bc 1ce0 143e 2699 733d 7140 ef3c
00000210: fef8 413d d54b 10bd af6e bbbc a471 10be
00000220: 8e4e 763d a2ff 243e aee9 753a d2d4 0c3e
00000230: 9f7a 0f3e 0d55 183e 512f 7abc a122 93bc
00000240: aa51 7ebd d85c 57bd 6caa e6bd c22b 1b3d
00000250: f449 12bd 9419 ed3d 180f 163d 324b 0dbd
00000260: aae3 953d 0989 81bd 11e0 843d d80c 683b
00000270: 6240 0b3e c11e 3fbd 86e7 fdbc 42f2 1bbe
00000280: 6d17 9e3d 7332 083e ce9e ff3d 9090 59bc
00000290: 2b58 24bd 58e6 d1bd 26be b53c ae8e 843d
000002a0: d4d0 a93a 5204 3c3d 0985 03be fdac bdbc
000002b0: f16d 24bd fcc3 aa3c 483a 64bd a3ff c63d
000002c0: 553a 983d 3ff7 283d 644a 083d 4055 00be
000002d0: 4a46 77bb 6fa4 8fbd 5d6a a43d b854 f2bc
000002e0: 21ce 94bd 95c3 503d 1c1a 9cbd 2997 0ebe
000002f0: fb9f d63d c496 6e3c a7c0 a8bc 5d27 2d3d
00000300: 6b31 febc 5d0e debb 9554 99bd 8c5d cd3d
00000310: dbc6 51bd 7a07 91bb 47f9 8db9 8634 f3bd
00000320: 63d4 f03d 3037 db3d 49c6 a2b9 7db7 033e
00000330: e055 823c 6d1d 89bd b15b 07bd 10b4 333d
00000340: b5e5 d3bc f1cc d6bd 1e7e 513d 9fe4 dd3d
00000350: 1f34 563d fe7c 263e d7f3 77bb 9c07 463d
00000360: 038d b8bd 5edc 01bd 8fdd 323d 1b43 8b3d
00000370: b3fd f23c 5438 083e 63c4 b63d b74b 233b
00000380: 3167 c6ba 8c0e 0cbd dc91 be3d 32a5 f5bc
00000390: cdb0 703d fe35 cfbc f061 d8bd 15a2 8dbd
000003a0: efa9 d7bc 2277 bcbc 7b2b 8c3c c0a2 5abd
000003b0: 995f 6ebd 7302 51bb 14f5 03be e039 f33d
000003c0: 6eda 9c3d 9dc9 3ebd ec74 783b a5c1 32bd
000003d0: aa76 6d3c 78ac 9dbd eac0 f4bd ade7 08be
000003e0: 03e8 293c 3929 4abd 65c8 4d3d fdb5 f1bd
000003f0: cc72 dab9 0bf6 eb3d ec87 e63d f250 14bd

lstm.bias_ih_l0 f4 [256]
0.13444489 0.12890856 0.044450223 -0.094677806 0.026763175 0.043207306 0.09099736 0.029698623
-0.0765173 -0.055897765 0.035933644 0.16510752 0.0330903 0.12280971 0.08693222 0.13934422
0.06357433 0.027640324 0.088390134 0.07638758 0.020029414 -0.04463485 -0.06165457 -0.063980505
0.13074458 -0.037500083 0.082555674 0.013010378 0.06373608 -0.032979645 0.07502592 -0.038002413
0.014859224 0.06653109 -0.06959729 0.029464884 -0.054507706 0.10311197 -0.055876832 0.0887124
0.112374246 0.061284322 -0.035342824 0.15667933 -0.093644306 -0.034116868 0.031839177 -0.06395569
0.1463179 0.010059622 0.07205631 0.024424408 0.1318159 -0.053258356 0.114447944 0.027588053
0.05089138 0.10475786 -0.031528078 0.08730957 -0.012159234 0.036222328 0.09929695 0.15965024
0.11192871 -0.08466881 0.030843597 0.09142217 0.099710345 0.002867349 0.059291672 0.012192444
0.11951178 0.037449364 0.02974279 -0.07407576 0.09588033 0.024569422 0.10208899 0.05641474
-0.06578849 -0.10145524 0.13382807 0.105142765 0.09127915 -0.07929174 -0.05882966 0.06019535
0.10470212 0.09690804 -0.009330817 0.011255908 0.045137137 -0.046386745 -0.061386973 0.1142871
-0.07366392 0.069107026 -0.0752111 0.016068293 0.093914874 0.058357317 -0.007354272 -0.039211385
0.012755638 0.114926554 0.047349144 -0.015770392 -0.094421074 0.09421003 0.12635754 -0.008964955
-0.05632111 0.03866705 0.03027195 -0.07401848 -0.09648413 -0.06659052 -0.053803384 -0.09035245
-0.07796267 0.039600182 -0.026885584 0.113324426 0.05623854 -0.06916782 0.08431698 -0.017557807
-0.013272486 0.10344409 -0.046051525 0.017983487 -0.07386194 -0.14108726 0.08325941 -0.107535556
0.009341585 0.098875545 0.07716874 0.08325185 0.123841695 0.005344027 0.0110044805 -0.11098266
-0.005880603 0.015022207 -0.06354418 -0.060847282 0.071361445 -0.023309613 -0.10960422 -0.0067689638
0.07718346 -0.03276089 0.01548527 0.025888778 0.08725817 0.066269726 0.06295566 -0.07111051
0.09900088 0.048653025 -0.062198695 0.059383802 0.15344286 -0.117234506 -0.080729686 0.097585194
-0.0061290795 -0.014679812 -0.10287047 0.0029260037 0.055901375 0.11070007 0.0023859127 -0.13423917
-0.0014104703 0.03678268 -0.05257546 -0.024169486 0.050894774 -0.15166299 -0.106537014 -0.09264048
-0.046901185 0.032956842 -0.11533866 0.1418086 0.06769351 -0.023325738 0.092422575 -0.07822711
-0.041974213 0.05972492 0.067732446 0.10881952 0.13351877 0.09447592 0.08669879 0.09903871
0.064791046 -0.06436521 -0.028409937 0.04735701 0.15013227 0.12184111 0.008826821 0.104674146
-0.0077851485 -0.021335013 0.045892656 -0.07336009 0.07413055 -0.03964682 -0.03640669 -0.094328396
0.14113684 0.12192106 0.054827724 0.0061041526 0.10677449 -0.030708503 -0.020814423 0.13470615
0.0924699 0.08001586 -0.048886567 -0.0013313704 -0.01044756 0.06897944 0.15251046 -0.04247481
-0.05041123 0.08023964 0.089389496 -0.014210666 -0.045068555 0.14400768 0.09291566 0.037684012
-0.07652538 -0.052057788 0.06861936 -0.06536993 0.01960601 0.013381938 -0.040236384 0.083542526
0.06314349 0.03767671 0.042300485 0.14311922 0.09078592 0.014200935 -0.0024824184 0.0827653
00000000: ecab 093e 9b00 043e 7011 363d 70e6 c1bd
00000010: 723e db3c 25fa 303d d35c ba3d 874a f33c
00000020: 1ab5 9cbd 0ef5 64bd 282f 133d f211 293e
00000030: b289 073d a883 fb3d 8509 b23d 40b0 0e3e
00000040: 4233 823d f66d e23c e305 b53d 1771 9c3d
00000050: ba14 a43c 08d3 36bd 8189 7cbd 3608 83bd
00000060: e8e1 053e b099 19bd f312 a93d 7b29 553c
00000070: 1088 823d aa15 07bd 31a7 993d 6ba8 1bbd
00000080: 1a74 733c 7441 883d 0689 8ebd 5760 f13c
00000090: 7943 5fbd 5e2c d33d 1bdf 64bd d9ae b53d
000000a0: 7824 e63d 4505 7b3d a3c3 10bd 8c70 203e
000000b0: 96c8 bfbd 21be 0bbd cc69 023d 33fb 82bd
000000c0: 5cd4 153e 1dd1 243c 4292 933d b215 c83c
000000d0: bffa 063e 6f25 5abd af63 ea3d 5700 e23c
000000e0: 7b73 503d 4a8b d63d 9623 01bd 5ccf b23d
000000f0: 8637 47bc dd5d 143d 335c cb3d 5a7b 233e
00000100: e13a e53d d766 adbd b6ab fc3c 8c3b bb3d
00000110: f034 cc3d 22ea 3b3b d3db 723d d1c2 473c
00000120: 98c2 f43d 8164 193d 27a7 f33c 08b5 97bd
00000130: e85c c43d d045 c93c 0814 d13d 2413 673d
00000140: 1ebc 86bd c4c7 cfbd 3a0a 093e 1755 d73d
00000150: 90f0 ba3d b563 a2bd 5ff7 70bd 668f 763d
00000160: 116e d63d b977 c63d 48e0 18bc b36a 383c
00000170: b8e1 383d 0700 3ebd e870 7bbd 5b0f ea3d
00000180: 1cdd 96bd fc87 8d3d 4708 9abd a7a1 833c
00000190: 7156 c03d 1508 6f3d 1bfc f0bb 1e9c 20bd
000001a0: 06fd 503c 9d5e eb3d 2df1 413d e930 81bc
000001b0: d65f c1bd 30f1 c03d df63 013e bfe1 12bc
000001c0: f7b0 66bd 5761 1e3d e1fc f73c 0097 97bd
000001d0: 7999 c5bd 9c60 88bd f060 5cbd b50a b9bd
000001e0: e4aa 9fbd cd33 223d 283f dcbc a316 e83d
000001f0: 625a 663d dca7 8dbd 61ae ac3d 64d5 8fbc
00000200: d774 59bc 7fda d33d 86a0 3cbd 1b52 933c
00000210: ee44 97bd 2e79 10be e983 aa3d 9a3b dcbd
00000220: 730d 193c 437f ca3d a50a 9e3d f27f aa3d
00000230: b7a0 fd3d f31c af3b 234c 343c e04a e3bd
00000240: 13b2 c0bb b41f 763c 7323 82bd 003b 79bd
00000250: f325 923d cdf3 bebc 2d78 e0bd 2fce ddbb
00000260: 5d12 9e3d 4830 06bd eeb5 7d3c b414 d43c
00000270: 69b4 b23d 6cb8 873d e6ee 803d 63a2 91bd
00000280: f9c0 ca3d 6548 473d 0fc4 7ebd 6e3c 733d
00000290: 2020 1d3e a518 f0bd 9b55 a5bd bfda c73d
000002a0: 72d6 c8bb 9883 70bc c1ad d2bd 32c2 3f3b
000002b0: d7f8 643d b8b6 e23d f95c 1c3b fe75 09be
000002c0: 88df b8ba 6fa9 163d 5e59 57bd 16ff c5bc
000002d0: 0a77 503d 8b4d 1bbe 1430 dabd 4bba bdbd
000002e0: 751b 40bd c1fd 063d ad36 ecbd 4636 113e
000002f0: e5a2 8a3d 9e15 bfbc 0c48 bd3d 8935 a0bd
00000300: 27ed 2bbd 1ea2 743d 4fb7 8a3d c5dc de3d
00000310: 25b9 083e 977c c13d 238f b13d cfd4 ca3d
00000320: 2bb1 843d e8d1 83bd f5bb e8bc 6df9 413d
00000330: 46bc 193e d587 f93d 5f9e 103c 665f d63d
00000340: 8f1a ffbb c4c6 aebc f0f9 3b3d d13d 96bd
00000350: c2d1 973d b464 22bd 2e1f 15bd 3f2f c1bd
00000360: 2d86 103e c0b1 f93d 0993 603d 5805 c83b
00000370: 95ac da3d 6690 fbbc 0283 aabc 69f0 093e
00000380: dc60 bd3d 5bdf a33d 483d 48bd 6181 aeba
00000390: 3e2c 2bbc 1845 8d3d b42b 1c3e 11fa 2dbd
000003a0: 027c 4ebd ae54 a43d d711 b73d dad3 68bc
000003b0: ce99 38bd c076 133e 914a be3d 8d5a 1a3d
000003c0: 57b9 9cbd 8c3a 55bd 4f88 8c3d abe0 85bd
000003d0: c89c a03c eb3f 5b3c e8ce 24bd 5818 ab3d
000003e0: 6051 813d e552 1a3d 4643 2d3d d88d 123e
000003f0: f8ed b93d 0aab 683c 12b0 22bb db80 a93d

lstm.bias_hh_l0 f4 [256]
-0.07163458 0.11237994 0.030733846 0.05146106 -0.025360793 0.14071219 -0.054569356 0.14645258
0.11275714 0.13020587 0.05675396 -0.021189896 -0.07283505 0.043184187 0.023649618 -0.015538836
-0.02385981 0.100563124 0.09113534 0.10178385 -0.08617817 0.0018731997 -0.00971034 0.07414029
-0.07855662 -0.06952089 -0.051571395 -0.0911597 -0.0054900437 0.028953264 0.058079183 0.13700591
0.038016666 0.06993894 0.13252044 0.042880088 -0.05481421 -0.051581714 0.14240107 0.01512436
-0.006362673 -0.046962526 0.111840166 0.03931581 -0.07500537 0.0027863511 -0.048668537 -0.07723334
-0.08415232 0.13797079 0.065183975 -0.03727127 0.13035959 -0.08212081 -0.060408574 -0.029138712
0.11692738 0.0634349 0.08236363 0.1143074 0.10423154 0.0029269473 0.15735383 0.12019513
0.029941443 0.055254977 -0.047744676 0.08212699 0.13761567 0.07393707 -0.063335255 -0.010244212
-0.027804475 0.060108725 0.030135524 -0.06357372 0.076401435 0.1504627 0.022500867 -0.118272044
0.06646885 -0.0046018674 0.10921475 0.032692563 0.004345865 0.09573916 0.02493163 0.12566832
0.12144177 0.0659916 -0.07450338 0.03570219 0.08122749 -0.0608161 0.08815781 0.037536208
0.07861356 0.12334193 -0.060690805 -0.030112075 0.06327231 0.06785606 0.11217951 0.105902255
-0.009300094 -0.08401316 -0.009071603 0.035936967 0.036004424 -0.064266406 -0.00072703976 -0.016417222
-0.101563625 -0.026605805 -0.038658407 0.040548038 0.0849848 -0.04196407 0.10769765 0.08588331
-0.03594948 0.07754896 -0.038951997 0.093212195 0.13611531 -0.06055948 0.090151854 0.06237414
0.11734118 0.09697575 0.113094814 0.03928381 0.019787109 -0.004318912 0.06326126 0.06555112
0.07380452 0.056737244 0.021802193 0.03810692 0.06337184 0.0824421 -0.06140755 0.10273618
-0.028862052 -0.022957124 -0.09235114 0.10690748 -0.07113446 0.09476643 -0.04522158 0.12292644
-0.12694085 0.07936295 -0.14832626 0.0075586257 -0.0131827975 -0.03339518 0.009677018 -0.02645431
-0.017202409 0.13935602 -0.006328321 -0.055028964 -0.04372927 -0.100044094 0.075464584 0.13872138
-0.09998395 0.028353717 -0.042128064 -0.07379108 0.107880116 -0.10315032 0.017920626 0.011293342
0.018213911 0.12825868 -0.011017823 -0.12910289 -0.046458147 0.08005776 -0.06836562 -0.10105502
-0.12825507 -0.05154773 -0.044538576 -0.06487205 -0.07950762 -0.027831895 0.083777666 -0.028312605
0.14585565 0.0037257771 0.1539867 0.14426115 -0.063062884 0.08971942 0.04471324 -0.014276699
0.0060396325 -0.0016293144 -0.05666145 0.16283754 0.03916035 -0.07872685 0.0016680651 0.14508669
0.042726956 0.080471955 0.013693795 0.05423531 -0.067967564 0.039225854 0.0030789175 0.12536311
0.021012926 -0.06289652 -0.021945234 -0.09630311 0.03475485 0.072915405 0.012756245 0.0101197595
0.16469207 0.0017647039 0.11710226 0.11143567 -0.015470212 -0.045578986 0.10241334 -0.04314591
0.053507496 0.14912824 0.06364048 -0.044484243 -0.057333536 -0.05500761 0.007909614 0.1627228
-0.034442604 0.012520436 -0.040190008 0.11510581 0.07551329 -0.024643734 0.021720778 0.1316695
0.032677393 -0.06795737 -0.07783711 -0.048070077 -0.013819164 0.007561691 0.023008179 0.009468402
00000000: 27b5 92bd 7427 e63d 8cc5 fb3c d5c8 523d
00000010: 70c1 cfbc db16 103e 1e84 5fbd aaf7 153e
00000020: 37ed e63d b054 053e d776 683d 6f96 adbc
00000030: 8b2a 95bd e7e1 303d d8bc c13c 9a96 7ebc
00000040: a675 c3bc 0af4 cd3d 2aa5 ba3d 0d74 d03d
00000050: 2e7e b0bd 2786 f53a 1e18 1fbc ddd6 973d
00000060: 4be2 a0bd f860 8ebd 873c 53bd f0b1 babd
00000070: d3e5 b3bb 652f ed3c 70e4 6d3d 474b 0c3e
00000080: 5db7 1b3d 263c 8f3d 70b3 073e 08a3 2f3d
00000090: dd84 60bd 5947 53bd 96d1 113e 2acc 773c
000000a0: f87d d0bb c75b 40bd 750c e53d 9d09 213d
000000b0: 6a9c 99bd 379b 363b a958 47bd 832c 9ebd
000000c0: 0d58 acbd 3748 0d3e 2d7f 853d c2a9 18bd
000000d0: fc7c 053e f52e a8bd fb6e 77bd 4fb4 eebc
000000e0: 9f77 ef3d 28ea 813d 43ae a83d 001a ea3d
000000f0: 5877 d53d 07d2 3f3b 5d21 213e dd28 f63d
00000100: c247 f53c 0b53 623d ec8f 43bd 3232 a83d
00000110: 1feb 0c3e 526c 973d eab5 81bd 57d7 27bc
00000120: 36c6 e3bc 9134 763d c6de f63c f032 82bd
00000130: 5b78 9c3d e512 1a3e bd53 b83c 9d38 f2bd
00000140: d220 883d 43cb 96bb fcab df3d a3e8 053d
00000150: c267 8e3b e512 c43d 6b3d cc3c 32af 003e
00000160: 76b6 f83d 9b26 873d 3a95 98bd 763c 123d
00000170: 995a a63d 4e1a 79bd 158c b43d 91bf 193d
00000180: 2500 a13d b29a fc3d ec96 78bd 99ad f6bc
00000190: ea94 813d 1ef8 8a3d 5fbe e53d 48e3 d83d
000001a0: 6c5f 18bc 170f acbd 10a1 14bc a432 133d
000001b0: 6079 133d 1b9e 83bd d096 3eba 697d 86bc
000001c0: 9700 d0bd 6bf4 d9bc 4758 1ebd b315 263d
000001d0: 830c ae3d 84e2 2bbd 9690 dc3d 97e3 af3d
000001e0: c33f 13bd fdd1 9e3d 218c 1fbd 09e6 be3d
000001f0: d061 0b3e 380d 78bd 89a1 b83d 077c 7f3d
00000200: 9350 f03d 399b c63d 419e e73d 0fe8 203d
00000210: 9318 a23c a985 8dbb 1f8f 813d aa3f 863d
00000220: d326 973d 5065 683d 839a b23c 0016 1c3d
00000230: 18c9 813d 67d7 a83d 7c86 7bbd 5967 d23d
00000240: 1c70 ecbc 9410 bcbc 9822 bdbd 4ff2 da3d
00000250: f2ae 91bd e714 c23d 433a 39bd dbc0 fb3d
00000260: c8fc 01be 0b89 a23d d7e2 17be 59ae f73b
00000270: a9fc 57bc 62c9 08bd 5b8c 1e3c b6b6 d8bc
00000280: 11ec 8cbc 58b3 0e3e ce5d cfbb 0d66 61bd
00000290: 771d 33bd ebe3 ccbd 2d8d 9a3d fa0c 0e3e
000002a0: 63c4 ccbd 0e46 e83c 7a8e 2cbd c71f 97bd
000002b0: 40f0 dc3d 7a40 d3bd 47ce 923c b607 393c
000002c0: 5735 953c 3e56 033e 1984 34bc 8c33 04be
000002d0: e64a 3ebd 53f5 a33d 4603 8cbd eff5 cebd
000002e0: 4c55 03be b623 53bd 156e 36bd a3db 84bd
000002f0: e4d4 a2bd b7ff e3bc a093 ab3d d6ef e7bc
00000300: 2f5b 153e 2b2c 743b b1ae 1d3e 32b9 133e
00000310: 1d27 81bd d1be b73d 3b25 373d d1e8 69bc
00000320: 1ce8 c53b b88e d5ba d615 68bd e2be 263e
00000330: 9a66 203d 8b3b a1bd faa2 da3a 9b91 143e
00000340: 7602 2f3d 7bce a43d f05b 603c d825 5e3d
00000350: 9432 8bbd 4aab 203d aac7 493b 305f 003e
00000360: 4d23 ac3c e4cf 80bd 7ec6 b3bc 913a c5bd
00000370: 1a5b 0e3d ac54 953d 92ff 503c 59cd 253c
00000380: 0aa5 283e a34d e73a 4fd3 ef3d 6238 e43d
00000390: c676 7dbc 08b1 3abd 16be d13d c4b9 30bd
000003a0: ad2a 5b3d 13b5 183e f155 823d 1c35 36bd
000003b0: 92d6 6abd a94f 61bd 5397 013c cea0 263e
000003c0: b013 0dbd 8422 4d3c 479e 24bd 98bc eb3d
000003d0: b6a6 9a3d a8e1 c9bc c6ef b13c 5fd4 063e
000003e0: bbd8 053d 3c2d 8bbd 1069 9fbd 21e5 44bd
000003f0: c669 62bc 10c8 f73b a67b bc3c 5b21 1b3c

lstm.weight_ih_l1 f4 [256, 64]
-0.11091066 0.16164388 0.047138516 -0.09931217 -0.0030896987 0.10536366 0.10934509 0.029875169
0.001990187 -0.07555537 -0.06541337 -0.0049086954 -0.06455123 0.119721234 -0.06677977 0.061352286
0.112719476 0.008502704 0.08004604 0.076220326 0.03911327 0.040489223 -0.11344162 0.09862369
0.050932832 -0.08624797 -0.016001781 0.14402911 0.091933295 -0.1506469 0.12511162 0.027777744
0.023855118 0.17161384 0.06221155 -0.041983668 -0.007530677 -0.11388224 -0.017177712 0.086274646
0.03988149 -0.03306699 -0.07674033 -0.046478033 0.01525625 0.11601555 -0.03074906 0.07190987
0.10916772 0.021219462 -0.01571298 -0.07704698 0.009905209 -0.07747486 0.074805364 0.07585942
-0.08457873 -0.038001996 0.06257934 -0.028811652 0.04886172 -0.01374083 -0.030777253 0.028732428
0.023322087 0.09643983 -0.07360772 -0.06846063 -0.089470826 0.017196052 0.016027194 -0.06834123
0.10801151 -0.08422676 0.1260819 -0.076228574 0.07664691 0.076610096 -0.01186626 0.07979848
0.056701653 -0.030978797 -0.11896498 -0.02327361 -0.12114522 0.06317246 -0.06678476 0.01664135
0.018979685 -0.08870595 0.10272414 -0.047959052 0.045328308 0.06680848 0.0058507565 -0.016146349
-0.088704996 0.00975359 -0.01113404 0.059598565 0.037703782 -0.061540805 0.14813606 -0.0694678
-0.036716465 0.0050677503 0.1362103 -0.10175431 0.12519489 -0.041599564 -0.022776173 -0.14139575
-0.11636219 -0.06776216 0.004064948 -0.08569821 -0.061297376 -0.11861055 0.044592652 -0.073389016
-0.10505812 0.11567064 -0.065922 0.15113568 0.09523562 0.010541309 -0.04071486 -0.039690837
0.08465527 0.11066134 0.06936754 0.092117146 0.08103713 -0.1379683 0.042626206 0.020869052
-0.06523586 -0.023278363 0.1633583 -0.04594721 -0.048090216 -0.023503447 0.13535108 -0.14669722
-0.0026435354 -0.03648513 -0.04898578 -0.002052088 -0.03947738 -0.02013058 0.0027101375 0.08032715
0.08156136 -0.0697906 -0.013639304 -0.039871704 0.10040257 0.15226325 -0.05943218 0.04295916
0.05860093 0.034906186 0.16417265 0.040286034 0.1306117 -0.07241511 -0.07143649 0.10095966
0.020001516 0.052550573 -0.16282679 0.13139743 0.12215743 0.07439965 -0.10592791 -0.024590693
0.10672299 -0.0607135 -0.038256884 -0.10165348 -0.061722923 0.06527528 0.08065171 -0.09686977
-0.040610198 -0.024591058 0.054861628 0.0053612925 -0.016241072 0.03822663 0.055550598 0.06983935
-0.1475419 -0.041589133 0.10969608 -0.099953115 0.03083536 -0.042600047 0.095263354 -0.007986279
-0.064866096 -0.024477504 -0.012284428 0.06004513 -0.105712414 -0.036253057 -0.069444574 0.061370272
0.08263135 0.08115923 -0.09496085 -0.12415326 0.036045685 0.09338669 -0.048485704 0.03190632
-0.024464034 0.086623065 -0.06751388 -0.0717663 -0.031282153 0.053744566 -0.051517755 -0.021586671
0.12836589 0.13694257 -0.0066032317 0.027481368 0.0007972752 0.07933904 -0.080997944 0.15492114
0.030617232 0.041264184 0.13922581 -0.11702053 -0.098479085 -0.09398366 -0.010086002 0.004688088
-0.03662077 -0.0012808971 0.013225296 -0.13759464 0.112479605 0.11038105 -0.040163517 0.15442376
0.024302963 0.0247365 -0.016295593 0.14313763 0.059650466 0.016171612 0.03377079 -0.13947344
00000000: 2125 e3bd f985 253e 5114 413d 2e64 cbbd
00000010: 8b7c 4abb e7c8 d73d 52f0 df3d c5bc f43c
00000020: cc6d 023b c6bc 9abd 72f7 85bd 1fd9 a0bb
00000030: 6f33 84bd 6830 f53d d5c3 88bd 894c 7b3d
00000040: 78d9 e63d ed4e 0b3c 2eef a33d 6719 9c3d
00000050: 3c35 203d 07d8 253d 1454 e8bd 38fb c93d
00000060: f29e 503d c7a2 b0bd 2b16 83bc 5e7c 133e
00000070: 8647 bc3d 2e43 1abe 431d 003e 278e e33c
00000080: cf6b c33c 8abb 2f3e 8ad1 7e3d 11f7 2bbd
00000090: e6c3 f6bb 183b e9bd 46b8 8cbc c3b0 b03d
000000a0: c65a 233d 4171 07bd 092a 9dbd c05f 3ebd
000000b0: 5af5 793c 9099 ed3d 74e5 fbbc 7b45 933d
000000c0: 5393 df3d 70d4 ad3c 82b8 80bc cfca 9dbd
000000d0: 7549 223c 24ab 9ebd 8e33 993d 2f5c 9b3d
000000e0: 9d37 adbd fba7 1bbd 9929 803d 6a06 ecbc
000000f0: 3a23 483d 3821 61bc 9420 fcbc 4560 eb3c
00000100: f60d bf3c 3f82 c53d a5bf 96bd 1635 8cbd
00000110: 7b3c b7bd bcde 8c3c 764b 833c 7df6 8bbd
00000120: 2335 dd3d 147f acbd 9d1b 013e ba1d 9cbd
00000130: 0ef9 9c3d c1e5 9c3d b46a 42bc 636d a33d
00000140: fe3f 683d 3fc7 fdbc e9a3 f3bd 4ca8 bebc
00000150: fc1a f8bd 9060 813d 73c6 88bd 7153 883c
00000160: 497b 9b3c 77ab b5bd 0961 d23d b670 44bd
00000170: 2daa 393d e2d2 883d b4b7 bf3b 5945 84bc
00000180: f7aa b5bd 86cd 1f3c 8c6b 36bc a01d 743d
00000190: 486f 1a3d 3612 7cbd fbb0 173e 2245 8ebd
000001a0: 0164 16bd 5f0f a63b b67a 0b3e 9064 d0bd
000001b0: 1733 003e 4e64 2abd 1995 babc 0cca 10be
000001c0: 4d4f eebd e3c6 8abd 4133 853b 8b82 afbd
000001d0: f512 7bbd 17ea f2bd c9a6 363d fb4c 96bd
000001e0: b628 d7bd bae4 ec3d 1d02 87bd 50c3 1a3e
000001f0: e50a c33d 74b5 2c3c a0c4 26bd dc92 22bd
00000200: be5f ad3d 6aa2 e23d 9210 8e3d eaa7 bc3d
00000210: cbf6 a53d 9047 0dbe d198 2e3d 93f5 aa3c
00000220: 619a 85bd 44b2 bebc 6647 273e 2433 3cbd
00000230: 3ffa 44bd 4d8a c0bc 7999 0a3e cc37 16be
00000240: 2a3f 2dbb 6f71 15bd 50a5 48bd 537c 06bb
00000250: 09b3 21bd e3e8 a4bc 909c 313b 9082 a43d
00000260: a409 a73d 60ee 8ebd 6377 5fbc 8350 23bd
00000270: dd9f cd3d e6ea 1b3e 286f 73bd f2f5 2f3d
00000280: 8707 703d caf9 0e3d e01c 283e f802 253d
00000290: 13bf 053e 604e 94bd 4b4d 92bd f0c3 ce3d
000002a0: 38da a33c 453f 573d 11bc 26be 0c8d 063e
000002b0: ad2d fa3d d85e 983d bbf0 d8bd 6c72 c9bc
000002c0: 9591 da3d b8ae 78bd 40b3 1cbd b32f d0bd
000002d0: 2dd1 7cbd 0caf 853d b92c a53d a863 c6bd
000002e0: e156 26bd 3073 c9bc 96b6 603d c8ad af3b
000002f0: ff0b 85bc 8793 1c3d 0689 633d ef07 8f3d
00000300: 3915 17be 5e59 2abd 57a8 e03d 38b4 ccbd
00000310: 709a fc3c 637d 2ebd 6f19 c33d e2d8 02bc
00000320: 84d8 84bd 0c85 c8bc a044 49bc e2f1 753d
00000330: c07f d8bd 167e 14bd f538 8ebd 655f 7b3d
00000340: a03a a93d cf36 a63d d67a c2bd 1044 febd
00000350: a4a4 133d 8541 bf3d f298 46bd 34b0 023d
00000360: cc68 c8bc 6f67 b13d b844 8abd 36fa 92bd
00000370: b721 00bd 4323 5c3d 4804 53bd 88d6 b0bc
00000380: 5972 033e ac3a 0c3e ec5f d8bb 9b20 e13c
00000390: 3c00 513a 827c a23d 40e2 a5bd a6a3 1e3e
000003a0: fdd0 fa3c a204 293d 3691 0e3e 76a8 efbd
000003b0: 67af c9bd 817a c0bd c23f 25bc 889e 993b
000003c0: a9ff 15bd c6e3 a7ba e9ae 583c 9ce5 0cbe
000003d0: b55b e63d 760f e23d 8082 24bd 4321 1e3e
000003e0: 0217 c73c 33a4 ca3c 567e 85bc ac92 123e
000003f0: 0c54 743d 547a 843c 3d53 0a3d 20d2 0ebe

lstm.weight_hh_l1 f4 [256, 64]
0.061893623 0.04721916 0.076110326 0.008797709 0.070789956 -0.04183869 -0.06412712 -0.03323185
-0.12424207 -0.102349974 0.080683306 -0.04410064 0.06086223 -0.02439839 0.11807501 0.044532176
0.031839486 0.11915694 0.04890169 0.092042446 0.12987939 -0.045724027 0.030706406 -0.07591357
0.13350928 0.10190836 0.14428404 0.037489347 -0.081458785 0.040177267 -0.010431253 -0.03684582
-0.10334846 0.06278588 -0.078093156 -0.06302889 -0.037466496 0.13468802 0.04014963 0.113740005
-0.053120434 0.06467653 0.013626267 0.06670966 0.0138324015 -0.08455322 0.027170938 -0.08302771
0.074449055 0.1046335 0.0706164 -0.06853046 -0.14888708 -0.045275338 0.025215594 -0.021873334
0.027361188 -0.05099621 -0.11791148 -0.14897136 -0.013684222 -0.111251004 -0.032739628 0.00787763
0.045244224 0.076276414 -0.08168428 0.06891799 0.12501954 -0.037713416 -0.0903832 -0.015588445
-0.043133434 -0.08442497 0.054998808 0.0059347963 0.004883998 0.1250526 -0.037399076 0.11684571
0.05868793 0.021747775 -0.10343598 -0.07994212 -0.067301944 0.052781474 0.057968076 -0.07882383
-0.048568975 0.097556315 0.015036877 0.017067838 0.05297162 0.07607699 -0.041463777 0.11143388
-0.047049306 0.086603776 -0.043999344 0.02712357 -0.0157965 0.111881584 0.083430395 -0.016765915
0.0906592 0.03356576 -0.051581804 -0.10486247 -0.08337641 0.06307157 -0.07328913 0.06313075
0.117875166 0.07400124 0.08529079 -0.10297575 -0.03610131 0.093239374 0.103550434 0.0001059564
0.14868504 -0.08066583 -0.08979364 0.10785293 0.011644591 0.05209388 0.075393885 0.13174972
-0.049290046 -0.023231212 -0.115000546 -0.1520269 0.1275413 -0.056900945 0.10640822 0.034952637
0.04048368 0.0363642 0.0014973523 0.039526384 0.09361394 0.05204731 0.019618 0.016359866
-0.12696652 0.10526847 0.07046434 -0.04877306 -0.045180406 -0.023746695 0.14520727 0.03763314
-0.027083563 0.16022839 -0.0061881845 0.12631133 0.06677818 0.088659324 0.032403447 -0.02644261
-0.07782942 0.006610121 0.099075206 -0.0809675 0.09296747 0.07097829 0.016385851 0.046806585
-0.065565884 -0.036162417 0.006209103 0.038539864 0.10729803 0.042317435 -0.014288294 0.095475115
-0.028364748 0.039632536 0.05370472 -0.018224223 0.110793255 0.06147552 -0.06796032 0.0044659
0.094574146 0.0034395312 -0.11251236 -0.13674845 0.067282885 0.024017762 -0.15805213 0.056048814
0.11048626 -0.05480091 0.12740496 -0.10469366 -0.01158244 -0.012361249 -0.095239796 0.08779191
-0.055352774 -0.025270572 0.14510351 0.07486279 0.077174984 0.019311141 -0.004574538 0.09033778
-0.07961972 -0.06034732 -0.1504504 -0.009187279 -0.030326856 0.13006751 0.081554666 0.015818756
-0.0910861 0.013043814 -0.037783325 -0.051045638 0.0797188 0.05804546 0.12287224 -0.08983684
-0.06752399 5.9228973e-05 0.07723834 0.1772474 0.0007718828 0.061782774 -0.03022555 0.1076792
0.10463813 -0.07665674 0.12743995 0.12157156 0.036462396 -0.09477173 0.010493869 -0.06400355
0.07808193 0.090752065 0.15882775 -0.10809274 0.15445675 0.025133664 0.052082665 0.099686064
0.11512825 0.017809054 -0.05988208 -0.08848708 -0.025535677 0.015736435 0.062345028 0.08517226
00000000: 2b84 7d3d e168 413d bbdf 9b3d 4424 103c
00000010: 53fa 903d 0c5f 2bbd 1455 83bd 1f1e 08bd
00000020: a072 febd dd9c d1bd 4a3d a53d dfa2 34bd
00000030: ac4a 793d 22df c7bc 50d1 f13d 5f67 363d
00000040: 1f6a 023d 8e08 f43d 234d 483d c080 bc3d
00000050: 1aff 043e 1e49 3bbd 008c fb3c 9378 9bbd
00000060: a8b6 083e 55b5 d03d 32bf 133e 6e8e 193d
00000070: ddd3 a6bd eb90 243d d9e7 2abc a4eb 16bd
00000080: 5ba8 d3bd e295 803d 4eef 9fbd 4a15 81bd
00000090: 7876 19bd a8eb 093e f073 243d 85f0 e83d
000000a0: d094 59bd 2175 843d b540 5f3c 139f 883d
000000b0: 4ca1 623c 3d2a adbd 9695 de3c 6f0a aabd
000000c0: bf78 983d 174a d63d 559f 903d b359 8cbd
000000d0: db75 18be a272 39bd ef90 ce3c b52f b3bc
000000e0: 9224 e03c 67e1 50bd 937b f1bd f38b 18be
000000f0: c933 60bc 91d7 e3bd fd19 06bd 2d11 013c
00000100: 0252 393d cf36 9c3d 164a a7bd e024 8d3d
00000110: 1f05 003e 6279 1abd d41a b9bd ad66 7fbc
00000120: afac 30bd 00e7 acbd 6e46 613d ae78 c23b
00000130: f209 a03b ca0d 003e c62f 19bd ce4c ef3d
00000140: c162 703d 6428 b23c 3ed6 d3bd b2b8 a3bd
00000150: 9ad5 89bd 6331 583d ef6f 6d3d 636e a1bd
00000160: 43f0 46bd 9bcb c73d 3c5d 763c dad1 8b3c
00000170: c5f8 583d 41ce 9b3d ecd5 29bd 7237 e43d
00000180: c6b6 40bd 525d b13d a838 34bd 4032 de3c
00000190: a967 81bc 2c22 e53d 8edd aa3d ac58 89bc
000001a0: 88ab b93d 407c 093d 7147 53bd 22c2 d6bd
000001b0: 40c1 aabd ab2b 813d 9d18 96bd b24a 813d
000001c0: 8968 f13d f68d 973d f0ac ae3d f3e4 d2bd
000001d0: f8de 13bd 49f4 be3d 4012 d43d e934 de38
000001e0: e440 183e 2034 a5bd bae5 b7bd ffe1 dc3d
000001f0: f4c8 3e3c 6460 553d 1c68 9a3d 66e9 063e
00000200: 5ce4 49bd 624f bebc 6885 ebbd f1ac 1bbe
00000210: 309a 023e f710 69bd 8eec d93d 7f2a 0f3d
00000220: 37d2 253d a1f2 143d ce42 c43a 6be6 213d
00000230: aab8 bf3d 8f2f 553d eeb5 a03c 2005 863c
00000240: 8303 02be ff96 d73d 9c4f 903d 43c6 47bd
00000250: 170f 39bd 6e88 c2bc 37b1 143e 3525 1a3d
00000260: 59de ddbc e912 243e 41c6 cabb c257 013e
00000270: 00c3 883d 0593 b53d 7ab9 043d 2c9e d8bc
00000280: 0865 9fbd b799 d83b f1e7 ca3d 4ad2 a5bd
00000290: bb65 be3d 115d 913d 9f3b 863c 43b8 3f3d
000002a0: 6847 86bd 0b1f 14bd bb75 cb3b fadb 1d3d
000002b0: 12bf db3d 0c55 2d3d 7319 6abc 7588 c33d
000002c0: 305d e8bc ba55 223d 7bf9 5b3d f74a 95bc
000002d0: 93e7 e23d c1cd 7b3d c82e 8bbd af56 923b
000002e0: 17b0 c13d c269 613b e16c e6bd c907 0cbe
000002f0: 9ccb 893d e6c0 c43c 6bd8 21be 7193 653d
00000300: 9f46 e23d eb76 60bd 7276 023e a169 d6bd
00000310: 46c4 3dbc d686 4abc 150d c3bd 3fcc b33d
00000320: 97b9 62bd 3b04 cfbc 0496 143e aa51 993d
00000330: eb0d 9e3d 6632 9e3c 02e6 95bb 0403 b93d
00000340: aa0f a3bd c02e 77bd ab0f 1abe 3e86 16bc
00000350: 0770 f8bc 6b30 053e 2206 a73d 5696 813c
00000360: 598b babd b9b5 553c b0c2 1abd 3b15 51bd
00000370: 9c43 a33d 14c1 6d3d 71a4 fb3d 61fc b7bd
00000380: 054a 8abd a06c 7838 232f 9e3d 5880 353e
00000390: 2e58 4a3a ef0f 7d3d 939b f7bc ea86 dc3d
000003a0: 844c d63d 35fe 9cbd 9e7f 023e 83fa f83d
000003b0: 9859 153d ae17 c2bd 7aee 2b3c 4b14 83bd
000003c0: 6be9 9f3d 38dc b93d bea3 223e ba5f ddbd
000003d0: e929 1e3e 1de5 cd3c a254 553d 3528 cc3d
000003e0: 5cc8 eb3d 4be4 913c e946 75bd b738 b5bd
000003f0: 3230 d1bc b2e9 803c 805d 7f3d cb6e ae3d

lstm.bias_ih_l1 f4 [256]
-0.09030646 -0.0014542029 -0.014383698 0.10158086 -0.05075685 0.11551439 0.053565457 -0.0022005397
0.06489577 0.11342072 -0.0149543695 0.1002812 -0.071521774 0.13725859 -0.06536523 0.040065434
-0.08482758 -0.08867501 -0.016503053 -0.04515156 -0.027941596 0.08866749 0.072749995 -0.027273908
-0.03428116 0.08178702 -0.039363615 -0.025707336 -0.07127837 0.104912736 -0.086892724 0.073255576
0.026197098 0.07700803 -0.085942954 -0.0016293151 0.037220433 0.061269253 -0.02375649 -0.020894965
0.12519972 0.051718354 -0.053337377 0.11271828 0.09003763 -0.030919962 0.037712365 0.11394027
0.11924436 -0.10240673 -0.03500082 -0.00789238 -0.019354036 -0.037224595 -0.01731166 -0.07894809
0.028456919 -0.06035019 -0.074196056 0.011027379 0.12792027 0.028561456 0.065689534 0.12726009
-0.07605697 0.049231056 0.01652969 0.035259575 0.0832412 -0.037514206 -0.071680844 0.020383622
0.004141354 -0.038355898 -0.010203405 0.018277405 -0.036598433 -0.019780988 -0.13827017 0.07532134
0.06073384 -0.08508985 -0.049929276 0.1018216 -0.08607604 -0.028846141 0.098474465 0.094510786
-0.11940977 -0.076820634 -0.09685258 0.07209714 0.012440053 -0.056226447 0.11392301 -0.05033788
0.036738366 -0.032335382 -0.119312085 -0.014562288 -0.05456279 0.13014336 0.06706759 0.08229364
0.026034337 -0.14191931 -0.08061826 0.008221108 -0.0031499567 -0.089643635 -0.030837573 -0.010096525
0.023917753 -0.11075368 -0.059435274 -0.15693471 -0.090882786 0.11182284 0.08657258 0.059070643
-0.078066856 -0.0810236 0.1090178 -0.06505877 0.11145619 -0.050548144 0.02514353 -0.08627992
0.07574699 -0.13816737 -0.05339002 -0.13695319 0.0114681 -0.033119604 -0.0912249 -0.08144743
0.04807456 -0.0054065934 0.017183522 -0.0056022573 0.054368507 0.054152012 0.054454956 0.008221074
0.026875244 0.08258896 0.031772822 0.054727543 0.0045439485 -0.020551965 0.012018926 0.10125719
-0.10555052 0.080992274 0.11249351 0.03896018 -0.042441487 0.11973547 0.12356319 0.06219877
-0.052110393 -0.049819473 0.006564301 0.055266447 0.11892358 0.022894785 -0.044593584 -0.023452362
-0.11358193 -0.042303354 0.0027093329 0.005888074 0.000662855 0.04300101 -0.020132864 0.12736571
-0.02607349 0.022367505 0.096176855 0.00839572 0.009872017 -0.053198148 -0.07101014 0.09832673
0.013029578 -0.03941674 0.04718498 0.09074466 -0.11089933 -0.045081526 0.0018059534 -0.08731282
0.08718174 0.12092572 -0.011806935 0.07861511 0.09747831 0.0069489162 0.0865608 -0.05892286
0.081246816 0.07444447 -0.009774769 0.08116351 0.06752246 0.12554105 0.09285795 0.13559912
0.1553168 0.056486234 0.027192423 0.00958566 -0.056005668 0.14285888 0.018366804 0.14685571
-0.06976228 0.077202 -0.015318869 0.011950912 0.07099372 -0.10107696 0.026934763 0.14195809
0.08667397 -0.06483112 -0.077058405 0.060275942 0.08842605 -0.08617479 0.020538384 0.09643679
-0.031640492 0.057666015 0.097045064 0.040071543 0.041146446 -0.025015905 -0.08816013 0.06790495
0.13853109 0.049927887 0.026185883 -0.07104702 0.03659207 -0.012910283 0.04344619 -0.033641715
0.1371782 0.021898862 0.06313514 -0.07394218 0.13384455 0.06647762 -0.07580359 0.0674052
00000000: 98f2 b8bd f49a beba 9aa9 6bbc a009 d03d
00000010: 6ae6 4fbd cf92 ec3d 7467 5b3d ee36 10bb
00000020: 13e8 843d 1f49 e83d 2c03 75bc 3b60 cd3d
00000030: 027a 92bd 848d 0c3e 35de 85bd a71b 243d
00000040: 15ba adbd 3e9b b5bd 6931 87bc d8f0 38bd
00000050: c6e5 e4bc 4d97 b53d f3fd 943d 886d dfbc
00000060: 676a 0cbd f47f a73d be3b 21bd 3198 d2bc
00000070: 65fa 91bd 7ddc d63d d0f4 b1bd 0507 963d
00000080: 4c9b d63c 63b6 9d3d dc02 b0bd be8e d5ba
00000090: 7474 183d 78f5 7a3d f89c c2bc eb2b abbc
000000a0: 5b34 003e a0d6 533d 4b78 5abd d7d8 e63d
000000b0: a665 b83d dc4b fdbc 4878 1a3d 8459 e93d
000000c0: 6336 f43d 9fba d1bd 055d 0fbd 0a4f 01bc
000000d0: 5b8c 9ebc d178 18bd 2fd1 8dbc 89af a1bd
000000e0: 7c1e e93c c331 77bd 1af4 97bd 2eac 343c
000000f0: 88fd 023e b7f9 e93c 3c88 863d 7850 023e
00000100: c2c3 9bbd 81a6 493d 4669 873c 586c 103d
00000110: 5d7a aa3d 7fa8 19bd 68cd 92bd 8efb a63c
00000120: 32b4 873b 131b 1dbd 2f2c 27bc 7fba 953c
00000130: 3de8 15bd bd0b a2bc b296 0dbe 1342 9a3d
00000140: 0cc4 783d 9643 aebd a482 4cbd d887 d03d
00000150: a348 b0bd be4e ecbc fbac c93d df8e c13d
00000160: 1c8d f4bd 2354 9dbd a55a c6bd aaa7 933d
00000170: 5dd1 4b3c b44d 66bd 7850 e93d 182f 4ebd
00000180: f87a 163d 1b72 04bd e559 f4bd aa96 6ebc
00000190: 3b7d 5fbd 4d44 053e bc5a 893d 9189 a83d
000001a0: f645 d53c 4c53 11be 301b a5bd d3b1 063c
000001b0: 816f 4ebb 1597 b7bd 149f fcbc e56b 25bc
000001c0: 2aef c33c d3d2 e2bd 6772 73bd 7eb3 20be
000001d0: c120 babd 6003 e53d f74c b13d 0ff4 713d
000001e0: 84e1 9fbd b4ef a5bd b944 df3d 883d 85bd
000001f0: 2543 e43d 920b 4fbd cef9 cd3c 87b3 b0bd
00000200: 3d21 9b3d bf7b 0dbe 7eaf 5abd 753d 0cbe
00000210: b3e4 3b3c 6ca8 07bd 1fd4 babd e9cd a6bd
00000220: d4e9 443d cb29 b1bb 75c4 8c3c 2493 b7bb
00000230: 83b1 5e3d 80ce 5d3d 290c 5f3d afb1 063c
00000240: 7929 dc3c 6724 a93d 3824 023d fd29 603d
00000250: 67e5 943b 985c a8bc 08eb 443c ee5f cf3d
00000260: df2a d8bd 47df a53d ff62 e63d b694 1f3d
00000270: 20d7 2dbd df37 f53d b30e fd3d 23c4 7e3d
00000280: b571 55bd 810f 4cbd 5919 d73b 125f 623d
00000290: 358e f33d d88d bb3c c3a7 36bd 2b1f c0bc
000002a0: a59d e8bd 4846 2dbd 108f 313b bff0 c03b
000002b0: 72c3 2d3a d421 303d aded a4bc 286c 023e
000002c0: 1298 d5bc 0f3c b73c 5ff8 c43d 348e 093c
000002d0: 3ebe 213c 4de6 59bd c46d 91bd 865f c93d
000002e0: 037a 553c 7373 21bd 0a45 413d 56d8 b93d
000002f0: 301f e3bd 68a7 38bd beb5 ec3a 10d1 b2bd
00000300: 578c b23d e7a7 f73d e071 41bc f500 a13d
00000310: b5a2 c73d bcb3 e33b ca46 b13d 1959 71bd
00000320: bb64 a63d 5876 983d 5a26 20bc 0e39 a63d
00000330: 3749 8a3d d58d 003e 4f2c be3d 7fda 0a3e
00000340: 5e0b 1f3e 1c5e 673d a5c2 de3c 2c0d 1d3c
00000350: 3366 65bd 9949 123e fb75 963c 5861 163e
00000360: 87df 8ebd 151c 9e3d fefb 7abc c2cd 433c
00000370: 2865 913d 7001 cfbd 4ba6 dc3c 765d 113e
00000380: 1f82 b13d 2ec6 84bd ccd0 9dbd e8e3 763d
00000390: b818 b53d 697c b0bd 1d40 a83c a780 c53d
000003a0: 7699 01bd 3333 6c3d 90bf c63d 0f22 243d
000003b0: 2d89 283d 28ee ccbc 4c8d b4bd c011 8b3d
000003c0: 18db 0d3e 2f81 4c3d c783 d63c 1a81 91bd
000003d0: 91e1 153d a785 53bc a2f4 313d e5cb 09bd
000003e0: 7178 0c3e 3e65 b33c ff4c 813d ff6e 97bd
000003f0: 8c0e 093e 6b25 883d ea3e 9bbd bd0b 8a3d
