src/Backend-Information/Clod-weather_predict/Inner Mongolia_lstm_model.pth (torch, 208379 bytes, 11 tensors)

lstm.weight_ih_l0 f4 [256, 3]
00000000: 55b3 983d ff3f abbd df70 943d a177 debd
00000010: 0b23 6dbc fa75 cbbd 6b8d e33d b5a5 bcbd
00000020: e0f3 e73d 9def debd 2610 80bd b61a 8e3d
00000030: f5e6 dfbd 0e93 02be f408 fdbc 24f4 7ebd
00000040: 1712 413d 47d9 e53d 914e fdbc e501 c0bd
00000050: 2034 cabc fff6 7f3d 3871 f9bd e371 eb3d
00000060: 75ac f9bc c9db b5bd e9a8 183c 70bf 403c
00000070: 1cd2 cebd ec13 31bb cda5 96bd 72ad 863d
00000080: 73d8 2ebd 9dc2 c43c e1df 063d 5be0 b1ba
00000090: bf67 3c3d a163 9dbd 1f6f 5f3d 407a a4bd
000000a0: 5aa4 963d 02c3 cd3c f55c c33d de84 a1bd
000000b0: 4d91 0d3d a8e5 813c 10c7 9ebd 1733 e1bd
000000c0: bb22 dbbd c993 bcbc d081 92bd 578a dc3b
000000d0: 7dd8 4fbd 7b25 2ebd 9c7b c43d ca8a bd3d
000000e0: a8c3 a43b 2692 a33b 6b32 9cbd 111b 743d
000000f0: d004 9b3c 079f 7b3d bd46 8d3d 9432 7bbd
00000100: 4ae4 4fbd deeb f23d 29d1 fcbd affe 5fbd
00000110: b76f f63c 6f78 89bd 7544 0f3e 7506 2ebc
00000120: 45c4 b13d 9e71 0a3c 1660 ba3d b431 7f3d
00000130: 4ce5 b23c db2e b23d 7866 76bc 6018 15bd
00000140: a4b6 febd 13be 05be 7991 febd ad7a e9bd
00000150: 6461 5e3d c59c e73d c62d 08bd 7a7e 2dbd
00000160: 7825 d1bd 5f92 0c3e 34f6 b13d 02a1 ac3d
00000170: b26e 13be fa1e 3bbd 8d06 87bd d431 87bd
00000180: e086 973d 7f02 64bd a25e c13d ecf5 143d
00000190: eb63 fbbc 1f33 a63b dde6 103c 312f 95bd
000001a0: b6e2 783d f35d 473d 16d9 d9bd e091 523d
000001b0: f3a1 9dbd 0b24 cbbd b519 c3bc fe95 acbb
000001c0: 0e6c 033e 74fd 5c3d 32b9 f63d a3b4 83bd
000001d0: 06ea abbc 96c7 38bd d2bc bdbd 9d3e 13be
000001e0: 82ce 083c 3b06 a23d 66f9 07be b4a4 d93d
000001f0: cd9a b23d 355a d4bd 1ff2 c83d fe64 983d
00000200: 57d6 8fbd d2cb 9cbd f5ca 403d 9a25 c23d
00000210: f8d5 de3c bf2a b13d 8422 ee3d fa27 ed3d
00000220: e017 d93c be01 e13d befd b93d 78ee efbd
00000230: 7dd9 ee3d 0bcf febc 3b72 e3bd e379 d5bb
00000240: 9932 ac3d 3149 b3bd 075c dabd bc05 143d
00000250: 7920 d6ba 01a5 35bd 5623 e63d 3495 103d
00000260: 5bbe 1fbd d279 74bd 1679 aa3d d7c5 b9bc
00000270: e4fb c43d 8faa 0d3d dcb0 b3bc b950 55bd
00000280: 09e4 97bd fccb 993c 5e25 953b 455a 203d
00000290: 61f9 513d 4b78 eb3b 920d bfbd edc8 ce3d
000002a0: 434c 103c c083 e83d a55a 573d 8a7b e7bc
000002b0: d487 d6bc 29aa c2bc 81cb a73c 8973 083e
000002c0: fb7c f1bc 289c 013d 8dda b3bc 0c0e a83d
000002d0: fab5 9a3c aadf c6bb 3709 ba3d b3bc 293b
000002e0: 2d67 3b3c 6045 e53d 351d 91bd bd90 5e3d
000002f0: bef3 913d e85b 5cbc 2f2d e3bd 3be9 b13c
00000300: b260 eebc ab1c a4bd 95d0 b7bd b93e ad3d
00000310: fa2a 78bd f6d2 c3bb 28c3 d03c 44b4 ae3c
00000320: 096b c7bd 8e52 45bc df77 f13c 9e3e 8dbc
00000330: 4cca e73c f962 ec3d 3a60 debd a49d c6bd
00000340: a9b7 4cbd c2ce c9bc 5b58 8a3d 1214 623c
00000350: 8c55 fdbd 4fe7 2bbd 11c2 c93d f0a2 463d
00000360: 4f6c 823d a4be 0ebd 6cd0 88bd daf5 98ba
00000370: 6174 c43d 7a7b 8c3b 0788 e6bc 9f3c 82bd
00000380: 5e86 a3bd d3bf bcbd 71e6 55bd fd7d 92bd
00000390: 79fc b43d ac0e 573d 2e69 093b b744 3bbc
000003a0: 95ea 86bd fd49 33bd 2a7b c7bd ba89 c0bd
000003b0: 1e5d 84bb 9045 963d a3ec 023e ec55 05bd
000003c0: c7ec b2bd da3f eebc c240 e63d 5ca1 fd3d
000003d0: ee38 ba3d 0c21 bcbd 65c5 053e 6900 713d
000003e0: 0494 5fbd 269b 3ebd b740 58bd 9a62 a73a
000003f0: 3632 95bd 3f7f d8bd 6451 c4bd 2ea3 e5bc
0.0745608 -0.08361816 0.07248091 -0.10862661 -0.014473687 -0.099346116 0.11110958 -0.092112936
0.11325812 -0.10885546 -0.0625308 0.069386885 -0.109327234 -0.1275141 -0.030888058 -0.06224455
0.047136392 0.11223083 -0.030921252 -0.09375361 -0.024683058 0.062491413 -0.12179798 0.114963315
-0.030477742 -0.08879811 0.009317615 0.011764392 -0.10098669 -0.002701993 -0.07355843 0.06576051
-0.04268689 0.02401858 0.03292835 -0.0013570891 0.045997377 -0.07685018 0.054549333 -0.0803113
0.07355566 0.025117401 0.095392145 -0.078866705 0.034562398 0.015856579 -0.07752812 -0.10996073
-0.10699984 -0.023019688 -0.07153666 0.0067303586 -0.05074357 -0.042516213 0.09593889 0.092549875
0.005028207 0.0049917875 -0.07626804 0.059596125 0.018923193 0.061430957 0.06898258 -0.061327532
-0.050754823 0.11861394 -0.12344582 -0.054686245 0.030082567 -0.06712424 0.13990958 -0.010621657
0.086800136 0.00844994 0.09100358 0.06230326 0.021837853 0.08700343 -0.015039079 -0.0364002
-0.1243718 -0.13060789 -0.124300905 -0.11400352 0.054292098 0.11309198 -0.033246778 -0.042356946
-0.10212225 0.13727711 0.08689538 0.08429147 -0.14397696 -0.04568384 -0.06593046 -0.06601301
0.07398772 -0.055666443 0.09441878 0.036367342 -0.030687293 0.005072012 0.008844105 -0.07284392
0.060763083 0.04867358 -0.10637109 0.05140865 -0.07696905 -0.09918984 -0.023815969 -0.005266904
0.12834188 0.05395265 0.12047042 -0.06430938 -0.020985615 -0.045112215 -0.0926453 -0.14379354
0.008350017 0.079113446 -0.13278732 0.10627118 0.08720932 -0.10368768 0.09811806 0.07441138
-0.07023304 -0.07656063 0.047068555 0.09479828 0.027201638 0.08650731 0.11627677 0.115798905
0.026500642 0.109866604 0.090816006 -0.11715406 0.11662576 -0.031104585 -0.11105772 -0.006514774
0.08408088 -0.087541945 -0.10662084 0.03613828 -0.0016336582 -0.044346813 0.112372085 0.03529854
-0.038999896 -0.05968649 0.083238766 -0.022677345 0.09618357 0.034586485 -0.021934919 -0.052078936
-0.07416541 0.018774025 0.0045515737 0.039148588 0.051263217 0.007185971 -0.0932876 0.10096917
0.008807245 0.11353254 0.05257668 -0.02825715 -0.026187815 -0.02376278 0.02048278 0.13325323
-0.02947854 0.031643063 -0.0219548 0.08205804 0.018885601 -0.0060691433 0.09083789 0.0025899827
0.011438173 0.11194873 -0.07085649 0.054337252 0.07126568 -0.0134496465 -0.110926025 0.021717658
-0.029098842 -0.080132805 -0.08975331 0.08459229 -0.06058786 -0.0059760762 0.025483683 0.021326192
-0.09737212 -0.012043608 0.029476104 -0.017241772 0.028294705 0.11542315 -0.108581975 -0.09698036
-0.04997984 -0.024634723 0.06755134 0.01379873 -0.123698324 -0.04196864 0.09851468 0.048495233
0.063683145 -0.034849778 -0.06680378 -0.0011669949 0.0959251 0.0042871805 -0.028141035 -0.06359219
-0.07984613 -0.09216275 -0.05222172 -0.071529366 0.08837218 0.052504227 0.0020967233 -0.011429957
-0.06587712 -0.043771733 -0.097402886 -0.09401269 -0.0040394207 0.07337487 0.12785582 -0.032552645
-0.08736568 -0.029083181 0.1124282 0.123842925 0.0909289 -0.09185991 0.13063581 0.05883828
-0.054584518 -0.04653468 -0.052796092 0.0012770474 -0.072849676 -0.10571145 -0.095858365 -0.028031912

lstm.weight_hh_l0 f4 [256, 64]
00000000: 3915 d9bd 1414 853d 6f95 203d 9ac2 b9bd
00000010: af63 3bbd 7b18 853c f7aa 10bd 9b53 a23c
00000020: 0fe3 773c 097b 2cbd d8e1 84bd aad2 1a3d
00000030: 4759 20bd 9601 23bd df96 f1bd 642c 153d
00000040: 7d10 2c3d c689 c6bd c44e 653b f5cd ed3d
00000050: 5799 e13d 7eab 7cbd 9330 fcbd a471 5ebd
00000060: ed37 0d3d 1e40 a6bd de22 1dbd fe44 a3ba
00000070: 9243 08bd 8876 76bd 5954 8c3c de84 2f3b
00000080: 63d5 0abe 1db1 903c 2d23 5ebc 12e8 ca3d
00000090: 6217 843d d183 af3d 9221 51bc d559 0ebd
000000a0: 6396 173d bf92 703d 9c74 58bc 2403 903d
000000b0: f7ab bf3d e79f ebbc 3615 9ebd f7e0 20be
000000c0: c050 d5bd 71ec a13d e19d 5fbd 5037 d23d
000000d0: 7f40 c53c 4bef 053e c21d 83bd 69b6 a23d
000000e0: b864 acbd 3b0f b7bd e8a5 0f3c 3471 113d
000000f0: 8b61 a2bc dc20 c93c ef09 3e3d b682 95bd
00000100: 4282 eebd 5bc6 ed3d 4264 3f3c 6f91 3f3d
00000110: ca05 dcbd 954e e63c e20d 3fbd 8d80 d5bd
00000120: 6220 3c3d e83a 133c 4548 a33d a043 23bc
00000130: c877 c03d d22d ff3c ad97 1e3d 2606 033e
00000140: 1943 0fbe 5c27 e0bd 5f95 6cbd e634 53bd
00000150: eb86 0ebb 914b cbbc 19ca 35bc 320b acbc
00000160: 0a3d 5d3d 5d64 063d 3b49 9c3d 0ed0 613d
00000170: 6cfc 463c 27f9 913d 72bc 6abd 7ab8 8a3d
00000180: 6972 d7bd 0d42 533c 44c3 abbc f0ea e4bd
00000190: 5368 a23c 82ab d93b 0b8e 2b3d 4d40 b7bd
000001a0: a719 f2bd 34b1 cbbb 0ada 5c3d 0cc6 8ebb
000001b0: ed12 e9bb bf38 b73b c964 133d 1b6f b2bd
000001c0: 22c3 1bbd 8144 fbbc 7e14 803c 7068 5b3d
000001d0: b1bd bebd f071 1e3c e89e 023b 7896 5cbc
000001e0: e794 f3bd 67d7 05be 3f6a cebd 6400 c13d
000001f0: 7430 a03c 1963 d1bd 6203 94bd 392c 763d
00000200: 73b1 073e 09d6 a5bd bdde 02be 4b92 ba3c
00000210: dcb0 fb3b 45b9 513d 987d f23d 18c8 a33d
00000220: 11d9 383c 1b88 debd d210 5f3c 54fe 9bbc
00000230: f860 b7bd f8fe a83d 503a 36bd 49ba bdbd
00000240: c38d 5b3d 9d17 52bd 8d9d cbbc 6aae b8bd
00000250: 3dac 553d 2266 193b c528 e2bd c9ec 52bd
00000260: cb33 cdbb 1cc0 db3d 7856 92bc 40b5 afbd
00000270: 6a41 c83d 57f3 17bd 8452 093e 5624 67bd
00000280: fe90 8b3d eb4e 21bd bc76 2bbd c258 5e3d
00000290: 2cfc e83d fd44 fabc 2e96 57bd 81f2 0b3d
000002a0: b2fe 2bbd 7e9b 8dbd 02d8 2ebd 20d5 92bd
000002b0: eec1 b73d 958a b6bd 5878 c4bd e9c3 dc3d
000002c0: 05a9 313d 7a62 76bd decf 07b9 28cd c3bd
000002d0: 648e 723d 8d2f 053d 8f24 0dbe 867e 9bbd
000002e0: 406c c93d 96ff 693d 4ad5 603d df01 f1bd
000002f0: 3c62 babd 39f2 83bd aa4e ee3b 6932 873c
00000300: f8ef f93d 9ab3 9f3c e9d7 b73d aa2c ca3d
00000310: ce4e 6ebd eacb 66bd ef12 ccbd cbbc eabc
00000320: f337 8f3d fb87 e4bd b838 b6bd 08cb 0fbe
00000330: 968b dfbd 3004 8b3d fc27 0c3e 9e7a 84bd
00000340: ced6 4e3d 83f9 703d 2347 bb3d f05b 033e
00000350: 629f d4bd 31a0 58bd 497f 04bd 8a0c 9e3d
00000360: d46e 943d 2c67 443d 47eb b6bd 279d ac3d
00000370: 76c1 ff3c 6ad8 7f3d 4e73 b6bb 3c0b 17bd
00000380: fe23 893d 7687 eabd 1a15 9c3d a186 9f3d
00000390: 8c5b 993d edbd ef3c 11a8 773d 6e00 983b
000003a0: ec1a 91bd 2a7a c33d 65d8 d83c 2b13 ddbc
000003b0: fb70 7d3d ce6d e8bc b20e 623c 836e b7bd
000003c0: a3a1 8e3d ec35 16bc 0c40 6b3d 54ae a2bc
000003d0: 70d5 15bd 6cfb b13d 7600 1a3c 7e93 25bd
000003e0: 078b 933c e91f d9bd 000f 363b a53e e9bd
000003f0: 585c 273c 1284 263c df3e b7bc eeeb 76ba
-0.10599751 0.0649797 0.03920501 -0.090703204 -0.045749363 0.016247025 -0.035319295 0.019815257
0.015129819 -0.042109523 -0.06488389 0.03779856 -0.03914764 -0.039796434 -0.117963545 0.036419287
0.042007912 -0.09694247 0.0034989575 0.11611549 0.110155754 -0.061686985 -0.12313952 -0.054307595
0.034477163 -0.08117698 -0.03836333 -0.0012456474 -0.033267565 -0.060171634 0.017130064 0.0026782076
-0.13557963 0.01766258 -0.013558191 0.09907545 0.064497724 0.08570064 -0.012764351 -0.03475364
0.037008654 0.058733698 -0.013211396 0.07031849 0.093589716 -0.02876277 -0.077188894 -0.15710817
-0.104157925 0.07906426 -0.054593924 0.10264456 0.024078606 0.13079564 -0.0640216 0.07944948
-0.08417648 -0.08938452 0.0087675825 0.03550835 -0.019821903 0.024551801 0.046396192 -0.07300322
-0.116459385 0.11610099 0.011681618 0.046769556 -0.10743292 0.028113643 -0.0466441 -0.1042491
0.04592932 0.008986212 0.07972769 -0.0099648535 0.093978465 0.031149779 0.038718868 0.12795314
-0.1399044 -0.10945007 -0.05775964 -0.05156412 -0.0021747898 -0.024816306 -0.011095547 -0.021001432
0.05401329 0.032810558 0.07631155 0.055130057 0.012145143 0.071276 -0.05730862 0.06773467
-0.10519869 0.012894166 -0.020967133 -0.11177623 0.019825136 0.00664276 0.04188351 -0.08947811
-0.11821299 -0.0062161926 0.053918876 -0.004357105 -0.007112852 0.0055914815 0.035984788 -0.08712598
-0.03802789 -0.030672314 0.015634771 0.053566396 -0.093135245 0.0096707195 0.0019931141 -0.013463609
-0.11893635 -0.1307045 -0.100788586 0.09423903 0.019554354 -0.102239795 -0.07227208 0.060100768
0.13251285 -0.080974646 -0.1278028 0.022774836 0.0076809954 0.051202077 0.11840361 0.07997149
0.011282221 -0.10865804 0.01361485 -0.019042172 -0.08954042 0.082517564 -0.044489205 -0.09264047
0.05360199 -0.05129205 -0.0248554 -0.09017642 0.052166212 0.0023406823 -0.110429324 -0.051495347
-0.0062622777 0.10730001 -0.017863497 -0.085794926 0.09778102 -0.0370973 0.13410383 -0.056431137
0.068147644 -0.039381903 -0.04186128 0.054283865 0.11376223 -0.030550474 -0.052633457 0.034166817
-0.041990943 -0.069144234 -0.04268647 -0.071695566 0.08972536 -0.08913151 -0.09593266 0.107795544
0.04337408 -0.06015251 -0.0001295204 -0.09560615 0.059217826 0.03251605 -0.13783477 -0.07592492
0.098351 0.05712851 0.05489091 -0.11767935 -0.09100768 -0.06442685 0.007272561 0.01650353
0.122039735 0.01949482 0.089767285 0.098718 -0.058180623 -0.05634681 -0.09964549 -0.028654477
0.06993093 -0.11158749 -0.08897537 -0.14042294 -0.10915296 0.06787908 0.13687128 -0.064687
0.050497822 0.058831703 0.091444276 0.1282804 -0.10381962 -0.052887145 -0.03234795 0.077172354
0.07247701 0.047949955 -0.08931594 0.08428412 0.031220179 0.062462248 -0.0055679446 -0.03687595
0.06696318 -0.114516184 0.07621212 0.0778935 0.07488164 0.029265368 0.060463015 0.004638723
-0.07085213 0.09544785 0.026470372 -0.026986679 0.061875325 -0.028372671 0.013797449 -0.08956625
0.069644235 -0.009168129 0.057434127 -0.019858517 -0.036580503 0.08690533 0.009399524 -0.040423863
0.01801063 -0.106017895 0.0027779937 -0.113889016 0.010214888 0.010163324 -0.022368846 -0.00094193115

lstm.bias_ih_l0 f4 [256]
00000000: fe12 ec3d 7cf7 ad3d f106 e83d 739c 62bd
00000010: ce50 833d 55f3 d03d 7f52 3c3d 4922 b1bd
00000020: 5f17 29bd 670a b6bd f96d bcbd cfc7 3fbd
00000030: f8d4 c73d e8a1 a739 3336 72bd fd01 e73c
00000040: 69f8 9fbd 2e36 25bd 7628 1d3d cd53 2ebd
00000050: e3cb 7e3d e506 aa3d d7b0 5dbd 0ba5 f7bd
00000060: 388c ce3d ec63 e33d 87dc 883a 38f4 17bd
00000070: c2e4 e5bc 889e 89bd 455c 4ebc 778c df3d
00000080: 715a 8fbd ec8d 0d3d 5518 40bd 5351 1a3d
00000090: 5ded 50bd 422c ccbc dc58 a5bd eccb ebbd
000000a0: 4ce8 143e 42eb d3bb f87c d2bc b5b8 8d3d
000000b0: 13de 2ebd ed72 fa3d d083 16bc ec74 053c
000000c0: abf7 33bd f358 743d 255f 8d3d e104 b4bd
000000d0: 2db5 c6bd 05bf 0abd 5547 973c 7fbc d1bd
000000e0: bcc3 87bd ced7 063e 0b41 5dbd d877 99bd
000000f0: d7f0 2fbc 4214 243b 9755 2d3c bf56 9e3d
00000100: bf32 0abc 7948 e23d 7127 aebd 5d65 5e3d
00000110: 90ad 2e3d 8923 ac3d fe89 5abd 0c2a d1bd
00000120: 34f9 70bd 2e42 e5bc 3edb 1e3d 09b4 0b3d
00000130: 1fab 0d3e 15f9 e13d cce8 9bbd fa45 893d
00000140: 1ad8 dfbd 5745 423d 8c04 91bd efed a23d
00000150: 190c f7bc a134 d5bc 0634 f03d e89a eabd
00000160: 68e1 b6bd 0fe5 843c 42ce 0a3d 04cc 9b3d
00000170: 0a48 123e e157 4a3d 9eb0 023b 1082 bbbd
00000180: ccbe ce3b 7f35 e83c f03c 523c b4ae 79bd
00000190: dcf1 f9bb ed5c 2e3c 8275 c83d b66a bf3b
000001a0: 0f6c 4e3d 0967 a43d 1db8 1d3d d257 1abd
000001b0: 7d7f c7bd 8d53 ddbd 8f87 f5bc 77b7 f8bd
000001c0: 10c6 4c3c 6cb8 1d3b b620 c13d dde9 d93d
000001d0: 55f3 d13d 1352 bebd b387 bc39 13a8 41bc
000001e0: 7f6f 74bd c431 34bd 164c 823d 14e4 d83d
000001f0: 7578 cfbd 67a7 58bd 14df 85bb a805 533d
00000200: 1a71 aa3d 43d8 a83d 53a3 4d3d cf0b de3d
00000210: 68fe 363d 789a 02be b045 003e 8c30 debd
00000220: 2b16 0fbd 5abc aabc 673a 40bd 036e f9bd
00000230: 2e4b fdbd ec44 043d 10d1 663d 28af 85bd
00000240: 5e6b 81bc 0604 b1bc 11f3 92bd c8ec 0e3e
00000250: 60b3 353d aa79 4dbd a890 7739 0a8b 63bd
00000260: d6bf fb3b a65a b23d a95a 443d 2f16 e9bd
00000270: 8895 08be bd26 3fbd 6ef2 a33c 35fe ee3d
00000280: 49c6 a6bd 4205 a93d 2750 63bd 48e6 b5bd
00000290: f077 bd3d f5cd ee3c 191b 90bc be1f f1bd
000002a0: 137b 0fbd e6a7 8b3d 32e2 ac3d e332 57bd
000002b0: ad92 ac3d 9f70 893d 7085 67bb d35a 99bc
000002c0: 71ff 863d 2465 0f3e 7d6a c83d e906 d23d
000002d0: 4b2a 45bd 2573 cc3d fa4a a4bd e682 1abd
000002e0: d072 453d 4f1c 92bd 7b45 b53d 53dc bcbd
000002f0: 8100 0bbe 62c8 443d 4b21 9a3d 1978 92bd
00000300: d948 99bc 3b3d 13bb 0256 17bd 88c9 7bbd
00000310: c0c0 dabd 1456 37bb cb90 c2bd 001b a1bd
00000320: 908d 62bd 0acb 1cbc 7427 debd 6045 9bbd
00000330: 7b44 6ebc 299d d3bd fd47 a3bd 983a 6b3c
00000340: 321e b13d a4cb 27bc 9ced 2d3c 1887 88bd
00000350: 47db 1b3d 7a6a 1c3d 2647 833c 37e2 dfbb
00000360: 20e4 6cbb 86ab 843b 2d21 933d a274 813d
00000370: ae51 bdbd 6a1f 98bd 000d aa3d 263c 4cbd
00000380: 2a9b 9cbd 8876 86bc 235c 21bd 4fc1 dbbb
00000390: db1b 2b3c 6cb9 393c 9413 b0bd 0267 97bc
000003a0: 9369 323d 08e1 acbc 1cd4 f73b 543a 303c
000003b0: 9231 8fbd a3e8 93bd 9b41 9abd 603e 4a3d
000003c0: 9b49 b9bd de54 b8bd bf4c 4fbd db3a 36bd
000003d0: 3210 a93d ccc1 31bd e0d6 ad3d c56e f43d
000003e0: e561 c7bc 5be4 863d d171 5abc eba8 dd3d
000003f0: 3bdc 88bd adaa a53d 78cb 54bd fa1f 95bd
0.1152706 0.084944695 0.11329449 -0.055324983 0.06411897 0.10202662 0.045977112 -0.086491175
-0.041282054 -0.08888703 -0.09200663 -0.04682141 0.097574174 0.00031973352 -0.05913372 0.02819919
-0.07811052 -0.040334873 0.038368665 -0.042560387 0.06220616 0.08302096 -0.054123726 -0.12092026
0.10085338 0.11103043 0.0010441699 -0.03709814 -0.028063182 -0.067196906 -0.012595241 0.109154634
-0.06999672 0.034559175 -0.046898205 0.037675213 -0.051007617 -0.024923448 -0.08073589 -0.115135044
0.14541739 -0.006467254 -0.025694355 0.06919996 -0.042692255 0.122289516 -0.0091867 0.008145552
-0.043937366 0.05965514 0.06902913 -0.08789993 -0.09702525 -0.033873577 0.018466631 -0.10241031
-0.0662913 0.1316826 -0.054017108 -0.074935615 -0.010738573 0.0025036489 0.010579488 0.07731389
-0.00843495 0.11048979 -0.085036166 0.054295886 0.04264599 0.08405215 -0.053354256 -0.10213098
-0.05883141 -0.027985658 0.038783304 0.03410724 0.13834809 0.11033837 -0.07612762 0.067028
-0.1092989 0.04742941 -0.070809454 0.079555385 -0.030157136 -0.026026072 0.11728673 -0.11455327
-0.089297116 0.016222505 0.03388811 0.07607272 0.14285293 0.049400214 0.0019941698 -0.09155667
0.006309366 0.028345821 0.012831911 -0.060957626 -0.007627709 0.010642272 0.09788038 0.0058415784
0.05039602 0.08027465 0.038505662 -0.03768141 -0.09741113 -0.10806952 -0.029971866 -0.12144368
0.012498394 0.0024066223 0.09430067 0.10640309 0.1025149 -0.09292998 0.00035959258 -0.011819857
-0.059676643 -0.043992773 0.063621685 0.105903774 -0.10130397 -0.052894022 -0.004085431 0.051519066
0.08322354 0.08244374 0.050204586 0.10842096 0.044676214 -0.12754238 0.12526584 -0.10849103
-0.03493325 -0.020841766 -0.046930697 -0.12179186 -0.12367855 0.03229229 0.05635172 -0.06527549
-0.015798267 -0.021608364 -0.071752675 0.13957512 0.04436052 -0.050164856 0.00023609644 -0.05555252
0.0076827807 0.08708696 0.047938023 -0.11381184 -0.13338292 -0.046667803 0.02001306 0.1166958
-0.08143289 0.08252956 -0.05549636 -0.08881813 0.09251392 0.029150942 -0.017591046 -0.117736325
-0.035029482 0.068191335 0.08441581 -0.052538764 0.08426414 0.06710934 -0.0035327338 -0.018720066
0.0659169 0.14003426 0.09785936 0.10255224 -0.048136037 0.099828996 -0.08022113 -0.03772249
0.048205197 -0.07134306 0.08851143 -0.09221711 -0.13574411 0.048042662 0.075258814 -0.07151813
-0.018711494 -0.0022466916 -0.036947258 -0.061471492 -0.106812954 -0.002797489 -0.09500273 -0.07866478
-0.055310786 -0.009569893 -0.10847369 -0.075815916 -0.014542694 -0.1033271 -0.07972715 0.014357232
0.086483374 -0.010241423 0.0106157325 -0.06666392 0.038050916 0.03818748 0.016025137 -0.006832387
-0.0036146715 0.0040487675 0.07184062 0.06321074 -0.09244095 -0.07427867 0.08303261 -0.04986205
-0.07646783 -0.016413942 -0.03939451 -0.006706394 0.010443653 0.011335712 -0.08597484 -0.018481735
0.043557715 -0.021103397 0.007563127 0.010756094 -0.06991877 -0.07222106 -0.075320445 0.04937589
-0.09047242 -0.09000562 -0.0506103 -0.044489723 0.08255042 -0.04339771 0.0848825 0.1193519
-0.024338672 0.06586524 -0.0133328 0.10823234 -0.06682631 0.080891944 -0.051951855 -0.0728149

lstm.bias_hh_l0 f4 [256]
00000000: 4aac d5bc 3f98 d0bc 1a50 88bd 92af 04bd
00000010: bb92 d03d ffa2 0bbd 4755 513d 2593 d8bb
00000020: b6cc ca3d 1530 0abd dff9 083e 1a35 873d
00000030: 2dfd 0ebd 6194 6abd 39d1 eabd ad77 ba3d
00000040: 034a 4b3d e4ee b33d 36d1 ca3d 1af5 c13d
00000050: 3578 953d a36c acbd 0d35 083e 24f2 bebc
00000060: d087 3ebd 890e 943d 8255 e3ba 6dd8 253d
00000070: ea61 42bb 4bd8 d3bc ca27 693c d6a1 28bd
00000080: f864 c6bd 8847 873c 7e82 e5bd 8959 2abd
00000090: 46fa 563d 8146 ea3d 36cb 2a3c a3da d23b
000000a0: ab8f 0a3e 6db9 313d e45d b9bd 85e2 fd3d
000000b0: 4997 e1bc 59c9 a4bd b6c9 cfbd 2dad b4ba
000000c0: 74be bebd 2e3c 703c 771e ca3d 854c 64bc
000000d0: 5e83 08be 655e 053e efc8 ddbd 9b93 93bd
000000e0: a9f9 d0bc abd5 9b3d e90f 45bd ea8e ccbd
000000f0: bfed efbc 32e5 6b3d 297e 053e bdd6 78bd
00000100: 1738 db3c 5d91 c83d 8715 88bd 31d7 583d
00000110: 580a 0cbd d214 f63d 5df7 b83d a5af 413d
00000120: 7859 9bbd 9371 8b3d 61e0 c7bd 59b9 bcbd
00000130: 2715 8b3a 6fb4 c6bd 4ec2 c93c eb62 bd3d
00000140: 8ff1 8d3d 45e0 f63d ae54 9fbd 9d2d c9bd
00000150: 18ae e7bd 47b8 3a3c f729 043c 13e2 8b3d
00000160: b403 b13c 1825 91bd ecc7 64bd d6a1 cc3c
00000170: f858 5dbd 77e6 42bc d5ee 5f3d 473f 02bd
00000180: 24ff dd3d 1a98 963d 57b0 cebc bd1b 04be
00000190: 2f08 1c3c ab7d 1c3c eec5 b03d c7be ee3d
000001a0: 4c84 b6bc f38a 9bbd 3d7c 8b3b 6cec ebbc
000001b0: fe39 513b 53c5 e4bc b3c3 e53c fd9d 56bc
000001c0: ecfd c23d d2fa d13d 8cc9 d3bd 64e1 073e
000001d0: 7aae ab3b 99c3 10bd be8c bb3d 2e0a 003e
000001e0: 61bf 213d 3d37 f33d 8859 e4bd 3523 95bc
000001f0: 0a4c 9bbd 5161 88bb cd97 793d 8f9a bebd
00000200: 74fc 5abd cb03 963d 6658 0dbe 23c9 643d
00000210: 4696 0b3e a3f8 163c 11c7 1a3d 1951 793c
00000220: 60fd 8abd b25a f1bc 8348 c1bd 5dd4 76bc
00000230: 9cd5 0cbe fa5c 14bd f978 27bc d03a 953d
00000240: baae 413d 2a94 073e 7138 55bd a496 0bbd
00000250: 627a bd3d 589b 273d bf78 e7bc b113 d9bc
00000260: 5099 3a3d 3ed7 8abd eda6 933d d95c b13c
00000270: c918 e4bd 9634 123e 89f2 f73d 9132 76bd
00000280: e36c b33d 0f74 5abd 3841 bfbd a9a9 4bbc
00000290: 62eb af3c dcd9 a13b 81c7 a93d aa4d 673d
000002a0: 5b60 fc3d c968 0ebe 9b92 9d3c dc01 913d
000002b0: 67c5 173d 394f 4dbd 32ae 86bd 2bce ad3b
000002c0: 0cd1 d53d 35c6 813c 753e 8d3d c12d d63d
000002d0: 9448 05bd 93c8 e03d 95ba 85bd bf42 803d
000002e0: 5270 d43a 25ff 333d 806d 1d3d 3d4b f4bb
000002f0: 20e3 96bd 730c debd 9bdb a93d 5b32 3339
00000300: 7bac f03d 93a6 bebd 1766 a3bd 88d1 ca3d
00000310: d187 ce3d 237c cfbd 35da a0bd deb8 b83d
00000320: 4eaf b93d 770a f7bd 42f6 433c 4c26 0b3e
00000330: 5992 2d3d 8afa a83c 3ac3 aebb 9a57 453d
00000340: b69d b43d 45fa 0e3d 18e8 78bc ba22 2cbb
00000350: 9804 5fbc cc7d a13d 5bf0 fa3d 6768 163d
00000360: 2ab1 e0bd 69d3 9dbd 02fa 023e 4691 833d
00000370: 8310 ba3d fa0b 9dbd f9e4 5fbd 6244 dabd
00000380: 9e1e 58bc 3194 ecbd 7b97 743d fdbc 553d
00000390: 5fcf 0b3d 030a ce3d 16fb 023e 04d8 193d
000003a0: 2ed8 f53d b457 f23d cf90 a8bd cf0e 7e3b
000003b0: 8db1 7cbc 8fc9 6fbd e1dd 0a3e 62bc af3d
000003c0: ffb4 a63d 113c 6b3d 2ec9 c2bb ae87 94bd
000003d0: ca8c be3d 2ad2 d8bd 3521 89bd a927 ca3d
000003e0: b2ac af3c ceb6 203c 8775 853c ae20 263d
000003f0: b94e d23d 6e21 79bd 66aa cbbc 8418 e43d
-0.02608313 -0.025463222 -0.06655903 -0.032394 0.101842366 -0.034090992 0.051106717 -0.006609338
0.09902327 -0.03373726 0.13376568 0.06601925 -0.034909416 -0.05727041 -0.11465687 0.091048576
0.04963113 0.08785799 0.09903185 0.094705775 0.07298318 -0.08419158 0.13301487 -0.023308821
-0.04651624 0.07229335 -0.0017344209 0.040489603 -0.0029660412 -0.025859972 0.014230678 -0.041169964
-0.09687227 0.016513601 -0.1120653 -0.041589294 0.052484773 0.11439229 0.010424426 0.006434755
0.13531367 0.043389726 -0.09051111 0.12396721 -0.027537959 -0.080462165 -0.10145895 -0.001378452
-0.0931367 0.014662785 0.09869092 -0.013934259 -0.13331363 0.1302429 -0.10829341 -0.07205888
-0.025509672 0.07609113 -0.048110876 -0.09988196 -0.02928817 0.057591625 0.13036408 -0.060751665
0.026760144 0.09793351 -0.06644731 0.052939598 -0.034189552 0.1201569 0.09031556 0.04728665
-0.07585424 0.06808772 -0.09759594 -0.0921504 0.0010611162 -0.09702384 0.024628785 0.09247383
0.06930839 0.12054495 -0.07779823 -0.09823153 -0.113125026 0.011396474 0.008066646 0.068302296
0.021608211 -0.07087153 -0.055854723 0.024979513 -0.054039925 -0.011895767 0.054671127 -0.031798627
0.1083968 0.0735323 -0.02523057 -0.12901206 0.0095234355 0.009551446 0.08631502 0.11657482
-0.022279881 -0.07594862 0.0042567537 -0.028799258 0.0031925435 -0.027926123 0.028047418 -0.013099191
0.09521088 0.10252918 -0.103411764 0.13269573 0.005239305 -0.035342786 0.09157704 0.12503883
0.039489154 0.1187577 -0.11149889 -0.018205265 -0.07582863 -0.0041619916 0.060935784 -0.093068235
-0.053463414 0.07324942 -0.13803253 0.05585588 0.13631544 0.009214553 0.0377875 0.015217089
-0.06786609 -0.029462192 -0.09437659 -0.01506528 -0.1375336 -0.03622148 -0.010221713 0.07286608
0.047285773 0.13240114 -0.05205578 -0.03407921 0.09251858 0.04091963 -0.028255818 -0.026498647
0.045556366 -0.067793354 0.07209573 0.021650719 -0.1113754 0.14277872 0.12106807 -0.060106818
0.08761003 -0.05333334 -0.09338611 -0.012430587 0.021474544 0.004939301 0.082900055 0.05647055
0.12323066 -0.1390716 0.019234946 0.07080433 0.037053492 -0.05012438 -0.06576194 0.005304118
0.10440263 0.015841583 0.06896678 0.104579456 -0.03253992 0.109757565 -0.06529728 0.06262731
0.001620779 0.043944497 0.038434505 -0.007455258 -0.073675394 -0.10842218 0.082938395 0.00017089529
0.11751648 -0.09309115 -0.079784565 0.09903246 0.10084499 -0.10131099 -0.0785412 0.090196356
0.0906664 -0.12062543 0.011960568 0.13588828 0.042375896 0.020627279 -0.0053333314 0.048179246
0.088191435 0.034906644 -0.015192054 -0.0026265816 -0.013611935 0.07885322 0.122528754 0.03672066
-0.10971291 -0.07706339 0.12790683 0.06424193 0.090851806 -0.076683 -0.054661725 -0.10657574
-0.013190893 -0.11551703 0.059714776 0.052182186 0.03413331 0.10060503 0.12791094 0.037559524
0.12004124 0.11833134 -0.08230745 0.003876615 -0.015423191 -0.05854183 0.13561203 0.08580853
0.08139991 0.05743033 -0.0059443926 -0.07252441 0.09304197 -0.105869606 -0.06695787 0.09870846
0.021444652 0.009809209 0.016291393 0.04055851 0.102689214 -0.060822897 -0.024861526 0.111374885

lstm.weight_ih_l1 f4 [256, 64]
00000000: 8575 283d bcdb e9bc 7855 cb3d 276a 7abc
00000010: 4883 c13b a718 66bd 9585 133e bb31 983d
00000020: 8d09 3b3d fb5d 14be 64a5 e1bd 328d ccbc
00000030: 3447 e0bd 1b32 183d ced3 f43d 931b 83bc
00000040: 4211 d5bc 40a5 d23d 8a9a 9dbc cb4e b5bd
00000050: 3aad 183c 39c5 c8bd e53a de3c a818 ce3b
00000060: f66e ccbc e4c6 093e d2e2 e53b 9e26 52bd
00000070: 5751 903d 3b70 a9bd 813e 853d fff2 c33d
00000080: 4eba c23d dcf1 05bc 953d 26bc 9180 253d
00000090: 54e0 a8bd 378e 023e 9362 f03d bd50 ac3d
000000a0: f4c8 ec3d ba18 653d e4a4 243c 426b 933d
000000b0: 0ab6 a4bc 517e 193d 5e66 6dbd 5509 a1bd
000000c0: d6e2 133d 6cb8 b33c fa20 ce3c 57fc de3c
000000d0: d4a6 dcbd 79c2 81bd 5a7f 6f3d 7690 c2bd
000000e0: fdda 8abc 9439 453b 4896 8f3d 3235 4dbd
000000f0: 59ca 66bd e043 d03d 585d 6a3c a50a c33d
00000100: 8235 653b 25d4 11bd 10f6 c8bd 0f21 c23d
00000110: 94d4 a1bd 011d d03d af52 4dbd 501b b33d
00000120: 6278 f7bd a8f0 a0bc 5746 f7bd 3817 f9bc
00000130: 74ec 50bd bbf4 e53d eeb4 8abd 1ba8 9cbd
00000140: 9054 043d c744 443d e06a d83d 44b9 bd3b
00000150: f32f 91bd 843c 793d 043d 4cbd 30de 293d
00000160: bcc7 e53d 1665 11bd 53e8 a4bd c7d6 963d
00000170: a7e1 5b3d 102a e5ba 21a6 243d e8cb cc3d
00000180: 01eb 443d cd0b aebd a787 f1bd af14 c43c
00000190: bf7a fb3d 7240 df3d dd9d 91bd 40d8 d43d
000001a0: d57f 37bd ee77 c73d 0d41 abbd 2c44 12bd
000001b0: ca37 2bbb f883 f93d 9809 86bd 4d93 0cbd
000001c0: 6c9a 063d 7f29 8abd e053 fb3d cbc0 033d
000001d0: 6d3f 863d 2e44 0a3e 8582 7abd 49fb f7bc
000001e0: 48e7 77bd 1378 bbbd 613e 143d 11d3 39bd
000001f0: b6c9 76bd b301 b7bd ae85 413c df50 e9bc
00000200: f8db 973d 8a6f e9bc 183e 033d 5a42 1b3c
00000210: a7ea 2abd 2615 73bb f845 4dbd 82c5 14bd
00000220: 862b 183d 60b6 103d f8da fa3c fd55 fcbd
00000230: d1ff b4bd 99de 90bd 17d6 fb3d 4f6f 9dbd
00000240: de51 b13d cc3a bc3d ab10 f7bc e665 58bd
00000250: 2ba5 a93c ee4b f83d c441 f3bd 600b 993d
00000260: cda1 62bd 5752 753d a547 2fbc 7d4b c73d
00000270: 54f2 00be c112 8d3c 08b6 e3bd 0f72 cabd
00000280: e23f d23d c325 debd 8bbd 91ba 8dff afbd
00000290: 148e 87bd 6cdd f43d c73e dc3d f0b3 b6bd
000002a0: e374 8fbc b562 db3d d48c a1bd 9065 803c
000002b0: d995 443d ee22 f23c 8103 b03d 8b2b a6bb
000002c0: c7db 9d3d d8eb 78bd a8f8 bfbd 48cd a93d
000002d0: 86fb 3dbd b8df 6ebd c20a 8b3d 7a98 993d
000002e0: 3523 083e ce90 b5bc e4e8 693d 380b 93bd
000002f0: cb3d 7c3d 1027 00be f9b3 f43c e653 e3bd
00000300: 90dd 2e3d 7b4c b53d 9201 9d3d 79a6 e43c
00000310: c5d0 f1bd 5f82 7d3d 5c47 9d3b 8562 57bd
00000320: 7268 c93d 7077 a3bd 8ea2 873d 67c0 3bbc
00000330: a194 62bd 8005 503c ae0c 11bd 8544 8dbc
00000340: 5b89 8c3d 26f6 80bd f161 c2bd fe7a 5abd
00000350: 2b4b 753d e53c adbc ce53 493d 48d6 c63c
00000360: 6867 bc3d 05d1 a7bd 94e9 eb3c 8203 433c
00000370: 4b31 e3bd 8d91 32bd 6fec 6cbd 2f04 49bc
00000380: cdae 033e 19ac 02bb 9e2b a13d f43d 963d
00000390: a3fc 4a3d 9e88 e23d ea73 1a3e e3ee 5d3c
000003a0: ca28 ee3d 9491 d0bd dbd3 733d d890 fcbd
000003b0: c618 1bbd 0087 febd da0c dfbd 26ee 213e
000003c0: 0d18 b3bd 6170 93bd bf20 c8bd 8195 323d
000003d0: f1b1 b13d eeff 923d beaa a4bc 4525 adbd
000003e0: 2753 d63d 29ce a83d 7371 38bd 4558 743d
000003f0: 5c09 a23d b0f2 bfbc 2ff4 96bb 226b 32be
0.0411277 -0.02854716 0.09928411 -0.015284098 0.0059055425 -0.056175854 0.14406426 0.0743136
0.045663405 -0.14488976 -0.11017874 -0.02496967 -0.10951081 0.03715716 0.11954461 -0.01600436
-0.026009206 0.10285425 -0.019238729 -0.08852919 0.009318644 -0.09803242 0.027127692 0.0062895603
-0.024955254 0.13454777 0.0070155645 -0.05130636 0.07046764 -0.082733594 0.06506062 0.09567832
0.09508191 -0.00817534 -0.010146518 0.040405814 -0.08245912 0.12749563 0.117375515 0.08413837
0.11561766 0.055931784 0.010049079 0.07198192 -0.020106334 0.03747398 -0.057958953 -0.07863108
0.036105 0.021938525 0.025162209 0.027219934 -0.107740074 -0.06335921 0.05847106 -0.0950021
-0.016950125 0.0030094134 0.07011086 -0.05009956 -0.056345318 0.10169196 0.014304481 0.09523515
0.003497452 -0.035602707 -0.09812558 0.09478962 -0.07901874 0.10161782 -0.05012768 0.08745444
-0.12083508 -0.019646004 -0.12073963 -0.03040658 -0.05100675 0.11228319 -0.06772791 -0.07649251
0.032307208 0.047917154 0.1056726 0.0057899076 -0.07089224 0.060848728 -0.049862877 0.04147166
0.11219737 -0.035496794 -0.08052125 0.07365184 0.053681996 -0.0017483849 0.040197495 0.099998295
0.04807568 -0.084983446 -0.11793452 0.023935644 0.12279271 0.10900964 -0.07110188 0.10392809
-0.044799645 0.09739672 -0.08362017 -0.035709545 -0.0026125782 0.12183374 -0.065447986 -0.034320164
0.032862112 -0.06746196 0.12271857 0.032166284 0.06555066 0.13502571 -0.06115963 -0.03027119
-0.0605233 -0.09153762 0.0361923 -0.045367304 -0.06025096 -0.08935871 0.011811657 -0.028480945
0.074150026 -0.028495569 0.03204164 0.009476269 -0.04172769 -0.0037091463 -0.050115556 -0.03632117
0.037150882 0.035330176 0.03062199 -0.123210885 -0.088378556 -0.07073707 0.12296694 -0.07687246
0.08658193 0.09190902 -0.030159315 -0.052831553 0.020708641 0.121238574 -0.11877778 0.07472873
-0.055330086 0.05989298 -0.010698234 0.09731195 -0.12592441 0.017220857 -0.11118704 -0.09885036
0.10266091 -0.10847046 -0.001111911 -0.08593664 -0.06618896 0.11956295 0.10754161 -0.08921039
-0.01751179 0.10712186 -0.07888189 0.015673429 0.04799447 0.029557671 0.08594418 -0.0050711087
0.07707935 -0.060771793 -0.09373599 0.082911074 -0.04638245 -0.058318824 0.06789161 0.07499786
0.1329468 -0.022163775 0.057106867 -0.07179874 0.061582368 -0.12514901 0.029870974 -0.11099987
0.042691767 0.08852478 0.07666315 0.027911412 -0.11807398 0.06189191 0.0047997665 -0.05258419
0.098343745 -0.07981765 0.06622802 -0.0114594465 -0.055317525 0.012696624 -0.035412483 -0.017244587
0.06862136 -0.06296949 -0.09491337 -0.05333995 0.05988614 -0.0211472 0.049152188 0.0242721
0.09199411 -0.08194164 0.028797902 0.011902692 -0.11093386 -0.04359584 -0.05784267 -0.012269064
0.1285965 -0.0019939004 0.078696474 0.07336035 0.04955734 0.11061214 0.1508328 0.013545725
0.11628874 -0.10184017 0.059528213 -0.12332314 -0.037865423 -0.12428093 -0.10891123 0.15813503
-0.08744822 -0.07199169 -0.09771871 0.04359961 0.08676518 0.07177721 -0.020100947 -0.08454374
0.10465079 0.08242447 -0.04503007 0.059654493 0.079119414 -0.023431152 -0.0046067457 -0.1742368

lstm.weight_hh_l1 f4 [256, 64]
00000000: f1f1 693d ea23 9c3d 2eae d6bd 9170 b3bd
00000010: e733 a3bd 0e45 a83d aa27 94bd 0b58 bebd
00000020: e36c 17bc 8b54 a93d b315 23be aacc e3bd
00000030: 3283 343d a008 93bc cb74 9ebd 847b 213c
00000040: e501 70bd f50b 6bbd 984f e23b 8770 21bd
00000050: 4053 87bd c47e e8bd 17c8 803d 8939 0c3e
00000060: 4994 59bd ec73 e2bd 0311 663b 6b44 debc
00000070: 7a72 8f3c 1fe7 d53d bed2 de3c b0c4 46bd
00000080: eecd f23d e9ab b0bc a508 78bd 8243 f6bd
00000090: 5a97 c93b 0ee6 b93c 4935 03be 097b 89bd
000000a0: 4ab1 9c3d 19a3 cc3d e1b2 6bbc 9a2f 133d
000000b0: 9ecf dfbc fd6c 02bc b31a 3f3d a3f8 4e3b
000000c0: b6d8 95bd 0e4c 10be 44ec 4d3b 19cf 933d
000000d0: 7181 b03c 384f 71bd 3fe3 f3bc bc5b 713d
000000e0: cc84 28bb cfe3 aa3b 66dd debb ea8c 823d
000000f0: 0ad3 a63d 0aef de3c 9679 0c3d d940 48bd
00000100: 77bc 92bd 7231 f6bc c1d6 d9bd c99d ba3d
00000110: 69df bdbd dcac e63d 6e67 3d3d 2179 94bd
00000120: 8c5d 083e 2ea2 673c a3e6 dbbd 80ad 48bd
00000130: 26db 903d daf1 f8bd bdb8 ba3d bf51 433d
00000140: 8ad2 083e f5aa 293d a0c9 a33d 153d 9e3d
00000150: fde7 183d a985 223c 9015 d1bd 45c9 293d
00000160: 89f0 cbbd 27c4 99bd 926a bd3d 5194 b43d
00000170: 5b6e d5bd 42a9 213d 267d cb3d 4872 37bd
00000180: 9f44 943d c8cf babd bdd6 8fbd 9c7b 19bd
00000190: 2d59 cbbb fe92 ecbc dd69 e63d 4cff a03d
000001a0: ad3e a73d 734c fdbd ea9d 8b3d 782f 52bd
000001b0: 852f 5e3d 94c2 993d 68d2 c43d 493c d0bc
000001c0: 3bab 51bd d3c5 563d 03a2 823d a743 cabd
000001d0: c3b1 8ebd 940a adbb 5fdc 9abd 311f c73d
000001e0: 102f e1bc a892 193d 754e b13d 490c 343d
000001f0: 5535 443d 6a43 00be 9bb0 293c c8bc 023e
00000200: 863d bc3c 5852 f1bd 47f9 b33d bca1 38bd
00000210: cd37 f83d fa97 dc3d b17e f83c fb92 e53c
00000220: f4ba b43d 3786 61bd 3e83 d63c dc85 68bd
00000230: 2d45 0d3d cc9d 89bd 1dda 1bbc 89f8 9fbd
00000240: 0c1d 61bd 04ea ed3c ec0b af3d 1444 073d
00000250: 2c9a f7bc f441 f0bd 915d 2cbd 86b3 4b3b
00000260: 65b7 c4bd 54de e2bd 8579 dabd 0820 a4bd
00000270: d0a6 123d 21fe 0c3c e51b bdbd fae9 a23d
00000280: cba7 903d 8b92 823d 897a 013e 1cc7 b93d
00000290: a1fa 18bd 5621 fa3b 5051 ef3d 212c 713d
000002a0: b03f cd3d 372e a3bd 0349 a2bd b1e2 93bd
000002b0: 1118 343d 0489 8d3c 0781 0e3d a7b8 a43c
000002c0: 9282 703a b065 5dbd 4178 cebd 584b d43d
000002d0: 5a07 90bc 7a41 a53d f992 f63d 0363 e3bd
000002e0: 6320 cb3d bb16 6abd 81a2 203d 5ff7 023d
000002f0: 6b84 88bd 47a6 89bd 5349 56bd 207c 803c
00000300: 82cd 013d 3fe9 7bbd 5af3 ad3d 0ef2 96bd
00000310: 9e71 acbd a467 a9bd 14e3 8abd fae1 f23c
00000320: 9ddb a8bd 4c0a 31bd 2932 2bbe 42b2 bbbd
00000330: acd4 903d b246 bfbc 8e9e 343d cb25 55bc
00000340: b97f bb3d 672f 17bd edcf 8fbd 1028 2c3d
00000350: 97fb 813d 0db1 dcbd cc57 eabd 61e8 3d3c
00000360: 4ba3 3d3d 773b 423d 974e f03c 91e8 b9bd
00000370: 53e5 84ba 4f41 f33d 24b9 993c 6156 9bbd
00000380: e634 073d d3ad 3f3c eb32 33bb 3843 57bd
00000390: 0304 b23d 9475 aa3d 34a3 b7bd 1bfe 09bd
000003a0: 1d9b 08bd 1509 b9bd 1eae cfbd 5e23 80bd
000003b0: 240b cc3c 6fe7 aa3d 94e1 6a3d 4ffe 9f3d
000003c0: 33d9 2b3d d46a d9bd 4a6a 9a3d f76d e7bd
000003d0: dd70 fbbd 9670 d03d e7b8 a1bd 6987 0d3e
000003e0: 6522 f13c 9426 68bb 9746 a63d acce d7bd
000003f0: eaf0 d33d 39af 90bc 24e7 7dbb 4eaf d13d
0.0571155 0.076240376 -0.10482441 -0.08761705 -0.07968884 0.08216296 -0.07234128 -0.092941366
-0.009242269 0.082680784 -0.15926246 -0.11123021 0.04407043 -0.017948449 -0.0773712 0.009856109
-0.058595557 -0.05738445 0.006906461 -0.039413955 -0.066076756 -0.113523036 0.06288164 0.13693823
-0.05311993 -0.110572666 0.0035105355 -0.027132234 0.017510641 0.104444735 0.0272001 -0.04852742
0.11855684 -0.021566348 -0.06055512 -0.12024595 0.0061520757 0.022692706 -0.12813295 -0.0671292
0.07651003 0.09992046 -0.01438591 0.03593407 -0.02732068 -0.007960555 0.04665632 0.0031581305
-0.07316725 -0.14091513 0.0031421343 0.07217235 0.021546097 -0.05891344 -0.029771445 0.058925375
-0.0025713919 0.005215145 -0.006801295 0.063745335 0.08145721 0.027213592 0.03429564 -0.04888997
-0.07164853 -0.030052874 -0.10636664 0.091121264 -0.09271128 0.11263439 0.046241216 -0.07249666
0.13316935 0.014137788 -0.1073735 -0.048993587 0.07073049 -0.121555045 0.09117267 0.04768538
0.13361564 0.041422803 0.07997441 0.07726494 0.037330616 0.009919562 -0.10209191 0.04145171
-0.09957988 -0.07508116 0.09248842 0.088173516 -0.10421439 0.039468057 0.099359795 -0.04478672
0.07239651 -0.091216624 -0.0702338 -0.0374714 -0.006205699 -0.028878685 0.112506606 0.07861194
0.08166251 -0.12368097 0.06817229 -0.0513148 0.054244537 0.07507816 0.09610444 -0.025419371
-0.05118869 0.052434754 0.063785575 -0.09876185 -0.06967499 -0.005280802 -0.07561564 0.09722746
-0.027488261 0.037493378 0.086575426 0.04395703 0.047902424 -0.12525716 0.010357047 0.12767327
0.022978555 -0.11783284 0.0878778 -0.045076117 0.12120018 0.10771175 0.030333849 0.028024187
0.08824721 -0.055059638 0.026185628 -0.056768283 0.0344898 -0.067195505 -0.0095124515 -0.07811076
-0.054959342 0.029042251 0.08547196 0.03302391 -0.030224882 -0.117313296 -0.04208142 0.0031082346
-0.09605292 -0.11077562 -0.10667709 -0.08013922 0.035803616 0.008605511 -0.09233836 0.07954784
0.07063254 0.06375607 0.126444 0.0907118 -0.037348393 0.0076333685 0.11685431 0.058879975
0.10021913 -0.07967799 -0.07924082 -0.07220972 0.043968264 0.017277248 0.03479102 0.02010758
0.000917473 -0.054052055 -0.1008153 0.10365933 -0.01758163 0.08069129 0.120397516 -0.11102869
0.09918287 -0.057150584 0.039217476 0.031974193 -0.06665882 -0.06721168 -0.05231602 0.015684187
0.03169013 -0.061501738 0.08493681 -0.07370387 -0.08420108 -0.08271721 -0.06781593 0.02964877
-0.08245013 -0.04322271 -0.16718353 -0.09164859 0.07071814 -0.02334914 0.044096522 -0.013009499
0.091552205 -0.03691044 -0.070220806 0.042030394 0.06346815 -0.10775957 -0.11442527 0.011591048
0.046298306 0.04741999 0.02933435 -0.09077562 -0.0010139145 0.11877691 0.01876504 -0.07584835
0.033009432 0.011699158 -0.0027343582 -0.05255434 0.086921714 0.083232075 -0.089666754 -0.0336896
-0.033351053 -0.090349354 -0.10140632 -0.06256746 0.024907656 0.08344924 0.057344034 0.078121774
0.041955184 -0.10616079 0.07539804 -0.11300271 -0.12277386 0.10177724 -0.078965954 0.13821186
0.029435346 -0.0035423385 0.08118933 -0.105374664 0.10348685 -0.017661678 -0.0038742507 0.10238515

lstm.bias_ih_l1 f4 [256]
00000000: 8272 ae3c 687d 073e 535c acbd 749f 533d
00000010: 13ea 143d fb6e 003c 1d1c a93d 5c78 023e
00000020: 7674 153e 10b8 153e ab0b 693d 903b 8a3d
00000030: 47f3 8abd 9095 6f3d 9920 04bc afc1 d53d
00000040: 66ae 0e3e 3a3a 713d 73fb 89bd ab90 2f3c
00000050: 22d1 d73d c2db adbd 3b69 a73c 7f14 bdbd
00000060: 67e3 463c 3dc8 2cbd 31b8 c53d 5059 d2bd
00000070: f448 93bc f327 e4bd 473e 2fbd df83 26bd
00000080: 0cf1 9c3d 2171 9bbd a281 e73d 2b76 47bd
00000090: b670 e73d 154f d53c d546 273d 5c0f 643d
000000a0: 5e45 1ebc 58f9 f63d 1fbb a13d 2e7f 683c
000000b0: 0b89 c03d 65cf a83d 92b9 173c eec6 413d
000000c0: 2da6 3d3d 4c94 7e3c 913b d0bc 9ab8 c1bd
000000d0: 5114 c3bc b0be 893d 40e2 ed3d d44d 6bbc
000000e0: 1031 a2bd 80e5 263d 78d9 a93d 8fe8 c83d
000000f0: 4ef8 8cbd ae28 87bd ac60 39bd 4bae 84bd
00000100: 1517 17bd 627d bd3d 08f3 fb3d db7e e13d
00000110: 6a6e 76bb 3f92 0ebc 6be3 89bd d220 28bd
00000120: 9a8f 8f3d 8d63 f4bc e1cf 223d ad0c 04bd
00000130: 812b 563a 223d c03c ea15 003d e9b2 26bc
00000140: c4bc 9a3d e1fa d83d 5cd8 3abd f7fd d2bd
00000150: 9ccb d0bc 481b 04bd b4d9 9bbd 0b3c 80bc
00000160: 4e81 d0bd 76d9 c3bd 213a 1b3c 9dcd 5b3d
00000170: 0965 a13d 5b32 9a3c 5200 9b3d a713 96bd
00000180: 7260 4f3d 9b0f 06be 126c 0fbd 39e5 edbd
00000190: 3e4a 823c fde7 f4bc 1f9a 19bd 5362 36bd
000001a0: c628 2ebd 0b17 d73d 1b3c 9ebd d852 3cbd
000001b0: 2fcc 913d e51c d43d 97a8 9dbd 762e dbbd
000001c0: dfd9 303d 6fb6 b9bd 9ce5 9e3d 81ef 043e
000001d0: 9560 5e3d ec9e 2b3c c7ab 123e 7623 72bd
000001e0: 33e9 623d 12dd d83d 430a a3bd eda1 a63d
000001f0: 9ae3 87bd ac56 febc a783 89bd a321 00bd
00000200: b64e 0fbd 1a51 edbd 51c1 02bd f8a9 07be
00000210: e206 103e ec39 7dbc b3ab acbc e89f dbbd
00000220: 248a 20bc 4e53 41bc 310d b83c b3b9 a73d
00000230: a7b8 703d 841c d6bc c52d 89bd f8d0 e43c
00000240: c8fc 733c 79d8 e93c a455 21bd 0dc8 d63d
00000250: e509 913d 1b37 94bd 4a25 973d 83c0 cd3c
00000260: 19f0 96bd ee82 cabd 9254 97bd 7f58 1dbd
00000270: d65b 87bd 4cd2 023d fac5 fa3d 31b2 423d
00000280: 094c a53c a8d7 a83d 14ed ab3d da93 c5bd
00000290: 9512 6e3c 39d7 4a3d ee50 a7bd 6f3d 88bd
000002a0: 8ccb e6bd 27fd ad3d fc4d 9ebc 4983 963d
000002b0: c560 4d3a 4799 713d 2f0e ce3b fedd e63c
000002c0: 307a 903d 6b11 aebd 3ddf 813d 3108 64bd
000002d0: aa50 06bb 6de0 fc3d eb7b e5bd c09b b13a
000002e0: be32 90bd 86c2 a43d bebb a2bd 1be9 dc3c
000002f0: 0d2d 8e3d 6109 18be fa6d 9d3d a143 6b3d
00000300: e7ca 883d 7043 7b3d 9653 b5bc 6658 053e
00000310: 2603 72bd 9038 8abd 5832 45bc d93f 063e
00000320: 8957 41bd 8a19 e13d 84a2 153d 0ec3 6c3d
00000330: fa54 8a3d fe08 47bd 5df7 87bd a357 19bc
00000340: c664 0e3e 3a36 493d 14a6 673d 5350 73bd
00000350: 9268 80bd adad 013d 0952 b9bd cc86 b23d
00000360: d01e 063d 0026 a6bd 9699 55bd c28f a3bc
00000370: 3a3e 683d 6672 923d 32eb 76bb a088 a33d
00000380: ffca fe3c 1653 e1bc 47f4 b6bd 183f a43d
00000390: cd43 3c3d 0ab4 22bd 7d34 ee3d 9cbc 69bc
000003a0: 3459 9fbd d4e4 ca3d dbc9 c6bd 5e25 783d
000003b0: 4c63 8fbc b545 853d 0a45 36bd d5e2 ec3c
000003c0: 9e54 9abd 0a0d 0ebe bb81 f23c e0de 283d
000003d0: ee99 b03d c0ac 61bd 4de0 9d3d 20d5 e1bd
000003e0: e014 0b3d ae6c a8bd 0fad c8bd f45c e2bc
000003f0: 068c 003e efeb 1abd b52a 22bd 0199 c43d
0.021294836 0.13231432 -0.08416047 0.05166574 0.036356043 0.00783896 0.08257315 0.12741226
0.14595208 0.14620996 0.056895893 0.06749642 -0.06784683 0.058492243 -0.0080644125 0.10437333
0.13933715 0.05889342 -0.06737413 0.010715644 0.10537936 -0.08489181 0.02043592 -0.09232425
0.012139178 -0.04218315 0.09654272 -0.10270941 -0.017979123 -0.11140432 -0.042784 -0.040653106
0.076631635 -0.07589937 0.11304022 -0.048696678 0.11300795 0.026038686 0.040839035 0.05567871
-0.009660093 0.12059277 0.07897019 0.014190478 0.09401139 0.08242682 0.009260552 0.047308855
0.046301056 0.015538286 -0.025419028 -0.09459038 -0.023813399 0.06725824 0.116154194 -0.014361817
-0.07919514 0.040746212 0.08293432 0.09809982 -0.06883298 -0.06599556 -0.04525821 -0.06478556
-0.036887247 0.092524305 0.12302214 0.11010524 -0.0037602433 -0.00870186 -0.0673283 -0.041046925
0.07009812 -0.029832626 0.03974903 -0.03223865 0.0008169935 0.02346665 0.0312709 -0.010174491
0.075555354 0.10594726 -0.045616493 -0.10302346 -0.025487714 -0.03225258 -0.07609883 -0.01565363
-0.10180913 -0.09562962 0.009474308 0.053662885 0.07880599 0.01882284 0.075684205 -0.07327967
0.050629087 -0.1309189 -0.035015173 -0.116159864 0.015904542 -0.029895777 -0.037500497 -0.044527363
-0.042519353 0.10502442 -0.07726308 -0.045977443 0.07119023 0.10357074 -0.076981716 -0.10702221
0.043176528 -0.090679996 0.07758638 0.12981988 0.054291327 0.010474902 0.1432334 -0.05911585
0.055398177 0.10589041 -0.07960942 0.08136354 -0.066352084 -0.031047188 -0.06714564 -0.03128208
-0.034987174 -0.115877345 -0.031922642 -0.13248432 0.14065126 -0.015455704 -0.021077966 -0.10723859
-0.00979856 -0.011799647 0.022467228 0.08189716 0.05876985 -0.026136644 -0.06698183 0.027931675
0.014891811 0.028545605 -0.039388314 0.104873754 0.07081965 -0.07237073 0.07380159 0.02511621
-0.07370014 -0.09888254 -0.073891774 -0.038414475 -0.06609313 0.031938836 0.12244792 0.047533218
0.020177858 0.08244258 0.083948284 -0.09647341 0.0145307975 0.04952166 -0.08169733 -0.066523425
-0.11269292 0.084955506 -0.019324295 0.073492594 0.0007834549 0.058984067 0.006288312 0.028182026
0.070545554 -0.08499416 0.063414074 -0.055671874 -0.0020494857 0.12347493 -0.11205276 0.0013550445
-0.07040928 0.08044915 -0.07945965 0.026966622 0.069421865 -0.14847328 0.07686992 0.057437543
0.066793256 0.06134361 -0.022134583 0.13022003 -0.059085034 -0.0674907 -0.012035929 0.13110293
-0.04720262 0.10991199 0.03653194 0.057803206 0.06754489 -0.04859256 -0.06638978 -0.009359273
0.1390563 0.04912398 0.05655487 -0.059402775 -0.06269945 0.03165977 -0.0904885 0.08717117
0.03274423 -0.08112717 -0.052148424 -0.01996601 0.05669997 0.07150726 -0.0037676808 0.079850435
0.031102655 -0.027505439 -0.08933311 0.08019847 0.045963097 -0.03972248 0.11631105 -0.014266159
-0.07780686 0.09906927 -0.097064696 0.06058251 -0.017503403 0.06507436 -0.044499435 0.028916756
-0.07535671 -0.13872162 0.029602876 0.041228175 0.0862311 -0.055096388 0.077087976 -0.110269785
0.033955455 -0.08223854 -0.09798633 -0.027632214 0.12553415 -0.03782266 -0.03959151 0.09599496
