src/Backend-Information/Clod-weather_predict/Jiangxi_lstm_model.pth (torch, 208379 bytes, 11 tensors)

lstm.weight_ih_l0 f4 [256, 3]
0	0x3d993c4c	0.07482204
1	0x3d0ef90f	0.03490549
2	0xbdc2e29e	-0.0951588
3	0x3dfbeb2a	0.12300713
4	0xbbc65888	-0.006053034
5	0xbcffba90	-0.03121689
6	0x3d1393e6	0.03602972
7	0x3c96fd89	0.018431442
8	0xbc883430	-0.016626447
9	0xbd038a5c	-0.03211437
10	0xbdbd8a65	-0.09254912
11	0x3dcf8222	0.10132243
12	0xbdba94b0	-0.09110391
13	0x3d5e739b	0.05430947
14	0x3d22b5b0	0.039724052
15	0xbaa144c6	-0.0012303821
16	0x3b95dd13	0.0045734732
17	0xbdc85718	-0.09782237
18	0xbdcae09d	-0.09906123
19	0x3dd6b8a0	0.10484433
20	0xbd2437bc	-0.040092215
21	0xbdc7aa60	-0.09749293
22	0x3d8b01d1	0.06787456
23	0xbded6396	-0.1159126
24	0x3d849170	0.064730525
25	0x3d4a0857	0.04932436
26	0xbdf5c802	-0.12001039
27	0xbdc22d57	-0.09481304
28	0xbdea038f	-0.1142646
29	0xbd86925a	-0.06570883
30	0x3bd97dab	0.0066372952
31	0xbd4aff4d	-0.04955988
32	0x3d813f26	0.06310873
33	0x3d639244	0.05555941
34	0xbe2b1ab0	-0.16709399
35	0x3d8265c4	0.063670665
36	0xbcddd8be	-0.02708089
37	0xbcd04fed	-0.025428737
38	0xbce0da48	-0.027447835
39	0x3d69706c	0.05699198
40	0x3cab7a68	0.020932391
41	0x3ce16b80	0.02751708
42	0xbd8d2cfa	-0.06893344
43	0xbd5419b9	-0.051782344
44	0xbce74638	-0.028231725
45	0x3d3814c6	0.044941686
46	0xbd428f57	-0.04749998
47	0xbd8612b0	-0.06546533
48	0x3ba3008a	0.0049744295
49	0xbbdedf69	-0.006801535
50	0x3ce641d8	0.028107569
51	0xbdb577b4	-0.08860722
52	0xbd7ce458	-0.061741203
53	0x3d0c4610	0.034246504
54	0xbe0410fc	-0.12897104
55	0xba78eb32	-0.0009495496
56	0x3cce7138	0.025200471
57	0x3d1cf32e	0.03831785
58	0xbe16a401	-0.14711
59	0xbcce7e80	-0.025206804
60	0xbda6e31f	-0.08148789
61	0x3dfff9dc	0.12498829
62	0xbca7d988	-0.02048947
63	0xbbb3bd1a	-0.005485189
64	0xbd615c0e	-0.05501943
65	0xbd4c72e4	-0.049914256
66	0x3ca9bd9a	0.020720292
67	0x3dbf261c	0.09333441
68	0xbd8c0cae	-0.06838356
69	0xbd192914	-0.03739269
70	0x3e161343	0.14655785
71	0xbccbfeb8	-0.024901733
72	0xbc958a59	-0.018254446
73	0x3db1ba2c	0.086780876
74	0x3ad0be80	0.0015925914
75	0xbd9be17f	-0.07611369
76	0xbd652b82	-0.055949695
77	0x3d3cc760	0.046088576
78	0x3bf88d56	0.007585208
79	0xbd5718dd	-0.052513946
80	0xbdfeba3e	-0.12437867
81	0x3d3b6a77	0.04575583
82	0x3d429ed5	0.047514755
83	0xbcd8f3d8	-0.026483461
84	0x3dd959a2	0.10612799
85	0xbdb91588	-0.0903731
86	0xbc669b10	-0.014075056
87	0xbb888fa9	-0.0041675163
88	0xbc9d511e	-0.019203719
89	0xbd0a3244	-0.033739343
90	0xbdd4377a	-0.10362144
91	0x3c9a6a5a	0.01884954
92	0x3cc32a30	0.023823828
93	0x3da0d75b	0.07853576
94	0xbd4b5daf	-0.04964989
95	0x3dad591e	0.084642634
96	0xbe1c7451	-0.15278746
97	0x3cb897a6	0.02253325
98	0x3d28b460	0.041187644
99	0x3e1832ed	0.14863177
100	0xbdd1b67c	-0.10239884
101	0x3d2b3310	0.041796744
102	0xbd24c463	-0.04022635
103	0x3c509f4f	0.012733295
104	0xbd3adbdc	-0.04561983
105	0xbbd3243d	-0.006443529
106	0x3b529263	0.003213071
107	0x3c4e4590	0.012589827
108	0x3dc0318f	0.093844526
109	0xbdde1e3a	-0.10845609
110	0x3d8cd2e4	0.06876162
111	0xbd1bad0b	-0.038006824
112	0xbd237af2	-0.03991217
113	0x3d9451c2	0.072421566
114	0x3c8eae56	0.017417114
115	0x3c11f33c	0.008908089
116	0x3d7e3aa4	0.062067643
117	0x3dd90f96	0.10598676
118	0xbd0dc378	-0.03461024
119	0xbc8d7780	-0.017268896
120	0xbc72e675	-0.014825453
121	0xbdb7fa96	-0.08983342
122	0x3dae4b6c	0.08510479
123	0x3d162a66	0.036661528
124	0x3d8e354b	0.069437586
125	0x3caf9810	0.021434814
126	0xbce3d59d	-0.02781182
127	0x3dd7a337	0.10529178
128	0x3d75939c	0.059955224
129	0x3e034db2	0.12822607
130	0x3db475b8	0.088115156
131	0xbd90db6c	-0.070731014
132	0xbcadecec	-0.021231137
133	0x3db62718	0.08894175
134	0x3d6faa58	0.05851206
135	0x3d439b44	0.047755495
136	0x3e14fbd0	0.14549184
137	0xbd8956ce	-0.0670601
138	0x3def11fd	0.11673353
139	0x3b3c023e	0.002868786
140	0x3dc22506	0.09479718
141	0xbcf0cb12	-0.029393706
142	0x3d909c7b	0.07061096
143	0xbbc1f800	-0.0059194565
144	0xbd66e4d5	-0.056370575
145	0xbc3debae	-0.011591835
146	0xbd10c174	-0.03534074
147	0xbd018153	-0.031617474
148	0x3d83a4c7	0.06427913
149	0xbd5c797c	-0.053826794
150	0x3c9580e8	0.018249944
151	0xbbeba9ce	-0.007191873
152	0x3d8e9546	0.069620654
153	0xbd9d5a9e	-0.076832995
154	0xbce5c95b	-0.028050115
155	0xbd32a368	-0.043612868
156	0xbccf3517	-0.02529387
157	0xbe0ca90e	-0.13736364
158	0x3deda830	0.11604345
159	0x3e01a88d	0.12661953
160	0xbdd7fcef	-0.1054629
161	0xbdca1320	-0.09866929
162	0xbce65b1f	-0.028119622
163	0x3e150d49	0.14555849
164	0x3db37b8c	0.08763799
165	0xbe1264aa	-0.14296213
166	0x3dee7d9b	0.11645051
167	0x3c424e40	0.011859477
168	0xbc4cd6c3	-0.012502375
169	0x3c6046c8	0.013688751
170	0x3bd67f00	0.0065459013
171	0xbdc4b0b4	-0.09604016
172	0x3e0b74d4	0.13618785
173	0x3dfa49ae	0.122210845
174	0x3d3907a5	0.045173306
175	0x3bf6890a	0.0075236605
176	0xbdab99d8	-0.08378953
177	0xbdcaac9c	-0.09896204
178	0xbe17211f	-0.14758728
179	0xbd90dd0c	-0.07073411
180	0xbe09100d	-0.13385029
181	0x3d5ab79e	0.053397767
182	0x3d304058	0.043030113
183	0x3cbbb222	0.022912089
184	0x3d0a4102	0.033753403
185	0x3d3bb080	0.04582262
186	0x3a9b5c58	0.0011853082
187	0xbd18da0c	-0.03731732
188	0xbdeaf58c	-0.114726156
189	0xbda645e1	-0.08118797
190	0x3dafc35a	0.08582182
191	0xbdcf3102	-0.101167694
192	0xbe076161	-0.13220741
193	0x3e34db3e	0.1766176
194	0xbde577c4	-0.11204484
195	0xbda8063f	-0.08204316
196	0xbc6c89ea	-0.014437178
197	0xbd9a958a	-0.075480536
198	0x3da595eb	0.08085235
199	0x3c4bc5c3	0.012437287
200	0xbdbc7648	-0.09202248
201	0x3d4fc897	0.050728407
202	0xbdac5e5a	-0.08416434
203	0x3ced5af8	0.028974041
204	0x3d2eeb0a	0.04270462
205	0x3d88e5c7	0.066844516
206	0x3d8d8422	0.06909968
207	0x3d90117e	0.07034586
208	0x3da18300	0.078863144
209	0xbdf54bb4	-0.1197733
210	0x3c38b5a4	0.011273775
211	0x3d14de9a	0.036345102
212	0x3dcd6164	0.100283414
213	0xbe2711ac	-0.16315335
214	0xbd2df9db	-0.04247461
215	0x3d85a1ec	0.06525025
216	0xbd28e23a	-0.04123137
217	0xbd135154	-0.035966232
218	0x3c9914a8	0.018686607
219	0x3c906d57	0.017630262
220	0xbd0c63ec	-0.03427498
221	0x3dbbbe46	0.09167151
222	0xbd83237c	-0.064032525
223	0x3cca4132	0.02468929
224	0x3d17cab4	0.037058547
225	0x3de3349b	0.11094018
226	0xbe09f948	-0.13474
227	0x3deb4e16	0.11489503
228	0xbba2090a	-0.004944925
229	0xbcee4b9d	-0.02908879
230	0x3d909d6e	0.07061277
231	0xbd90850f	-0.07056629
232	0x3bb094f5	0.005388851
233	0x3ce55340	0.027993798
234	0xbdeeb4a1	-0.11655546
235	0x3dcb5065	0.099274434
236	0x3d288f9c	0.04115258
237	0x3c48ef6f	0.012264117
238	0x3d81f8c2	0.06346275
239	0xbc3bf050	-0.011470869
240	0x3d822bd8	0.06356019
241	0xbdaddc47	-0.0848928
242	0xbd5fe178	-0.054658383
243	0x3df93d1d	0.121698596
244	0x3c8acb71	0.016942712
245	0x3d5dd440	0.054157495
246	0xbd84c94c	-0.06483707
247	0xbd9378be	-0.07200764
248	0x3d9b76c0	0.07591009
249	0x3ac5d323	0.0015092831
250	0xbe069e0c	-0.13146228
251	0x3dfaa1d4	0.122378975
252	0xbbaeb7ba	-0.0053319605
253	0x3d6fe3dd	0.058566917
254	0xbd12c4dc	-0.03583227
255	0x3cd73dc8	0.026274577

lstm.weight_hh_l0 f4 [256, 64]
0	0x3e1f3715	0.15548356
1	0x3d33e21b	0.043916803
2	0xbc92e7ea	-0.01793285
3	0x3dab262a	0.083568886
4	0xbc2bfd96	-0.010497471
5	0xbd1cc1db	-0.038270812
6	0x3dc78e75	0.097439684
7	0xbb2d4d2c	-0.0026443703
8	0xbd6896ba	-0.05678437
9	0x3d9ae1ac	0.07562575
10	0x3d1b6287	0.03793576
11	0x3dc6de42	0.09710361
12	0xbd8edf53	-0.069761895
13	0x3d7d6131	0.061860267
14	0x3ccb0a5a	0.02478521
15	0xbe0faebd	-0.14031501
16	0x3d5deeda	0.054182865
17	0x3c67c1b8	0.014145307
18	0x3d88c030	0.06677282
19	0x3db5a122	0.08868624
20	0xbe16c86f	-0.14724897
21	0x3e115344	0.1419192
22	0x3dc6857c	0.09693429
23	0xbe02ed58	-0.12785852
24	0x3de5d2e5	0.112218656
25	0xbcb59704	-0.022166736
26	0x3de665c5	0.1124988
27	0xbd3c6b20	-0.0460006
28	0xbcf53081	-0.029930355
29	0x3d525d9b	0.0513588
30	0xbbf8782e	-0.007582686
31	0xbcd5d203	-0.026101118
32	0x3d4ef1c9	0.050523553
33	0xbdc8897e	-0.097918496
34	0x3e094c47	0.13408004
35	0x3c84306b	0.016136369
36	0xbd82f3fe	-0.06394194
37	0xbd0ed2fb	-0.034869175
38	0xbd97c063	-0.07409742
39	0xbd45fce7	-0.04833689
40	0xbdb58ee4	-0.08865145
41	0x3d2c8679	0.04212043
42	0x3bf785f6	0.007553811
43	0x3deee81a	0.116653636
44	0xbd9be31c	-0.07611677
45	0x3d6cc943	0.057809126
46	0x3d0e0478	0.03467223
47	0x3e104cca	0.14091793
48	0xbdecaa4b	-0.11555918
49	0xbcb2d43e	-0.02182972
50	0x3dc35b8c	0.095389456
51	0x3cdab756	0.02669875
52	0x3dbbba75	0.09166423
53	0x3bd90862	0.0066233138
54	0xbda251e5	-0.079257764
55	0xbe087f6d	-0.13329859
56	0x3cacbd33	0.021086311
57	0xbd2bd572	-0.041951604
58	0xbda35d35	-0.07976762
59	0x3d1240c2	0.03570629
60	0x3dab1f88	0.083556235
61	0xbdd15e9f	-0.10223126
62	0x3d8b8d27	0.06814032
63	0xbda30755	-0.07960383
64	0x3dcc80a6	0.09985475
65	0x3e0f0a3d	0.1396875
66	0xbdf6af0a	-0.12045105
67	0xbe1d77e3	-0.15377764
68	0xbd126acb	-0.035746377
69	0xbd9a393e	-0.07530449
70	0x3d3dbefa	0.046324708
71	0xbe1bd57d	-0.15218158
72	0xbc8ba497	-0.017046256
73	0x3d1f5ea6	0.038908623
74	0xbdb202f1	-0.08691967
75	0x3dbf455c	0.09339401
76	0x3dbdd35f	0.092688315
77	0xbe0e62aa	-0.13904825
78	0xbded886c	-0.11598286
79	0xbdc990d4	-0.09842077
80	0xbdc75e53	-0.09734788
81	0x3de60f68	0.11233407
82	0xbdf5b27e	-0.11996935
83	0x3b056c88	0.002035888
84	0xbc6780b0	-0.014129803
85	0xbc80b152	-0.015709553
86	0x3d758db5	0.059949595
87	0xbd8283f8	-0.06372827
88	0x3dae1c53	0.08501496
89	0x3d98ec7d	0.074669816
90	0x3d5b9e95	0.053618032
91	0x3e1f10df	0.1553378
92	0xbd203dcd	-0.039121438
93	0x3c618be0	0.013766259
94	0xbe19e10f	-0.1502726
95	0xbde200ca	-0.11035307
96	0x3dea023e	0.11426209
97	0xbdb48741	-0.0881486
98	0x3d4623fb	0.048374157
99	0xbcdddc2e	-0.027082529
100	0xbd97c2c5	-0.07410196
101	0x3d664513	0.056218218
102	0x3d7894c8	0.060688764
103	0xbc1e68a4	-0.009668503
104	0xbccfbea5	-0.025359461
105	0x3d92a361	0.07160068
106	0xbd664c15	-0.0562249
107	0x3c64ee3e	0.013972817
108	0x3c721b0e	0.014776958
109	0x3d65be46	0.056089662
110	0x3d7f32be	0.06230425
111	0xbda039d9	-0.078235336
112	0xbd8b1966	-0.06791954
113	0x3c5a4a81	0.013323427
114	0xbcac1417	-0.021005673
115	0xbd82dc74	-0.06389704
116	0x3da75de3	0.08172204
117	0xbdd1f626	-0.10252027
118	0x3d73390a	0.05938057
119	0xbe18ffb0	-0.14941287
120	0xbd0b2afe	-0.033976547
121	0x3d5519c9	0.052026544
122	0xbc41ab9d	-0.011820701
123	0xbd96b2a8	-0.07358295
124	0xbd8057a5	-0.06266717
125	0xbda3f268	-0.0800522
126	0xbe2f89a1	-0.17142345
127	0x3c978b1e	0.018498953
128	0x3c9a0d9d	0.01880532
129	0xbc0c7ce2	-0.008574696
130	0x3e06c5d8	0.13161409
131	0x3d766379	0.06015346
132	0x3cb3ff6b	0.021972379
133	0xbe120496	-0.14259562
134	0xbd88f904	-0.06688121
135	0x3d41ffde	0.047363155
136	0xbdd1d4a1	-0.10245634
137	0xbc7dc745	-0.015489404
138	0x3d97225c	0.073796004
139	0x3e15e013	0.14636259
140	0x3d0406b1	0.032232944
141	0x3db8deb7	0.090268545
142	0xbdacf651	-0.084454186
143	0xbd9d26a5	-0.076733865
144	0xbdb397ed	-0.08769212
145	0x3dab4984	0.08363631
146	0x3dc3fcc9	0.09569699
147	0x3de87122	0.11349703
148	0x3d870375	0.06592456
149	0xbdb606af	-0.088879935
150	0xbdb4fb6b	-0.08837017
151	0x3e11866c	0.14211434
152	0xbdd847a2	-0.10560538
153	0x3d1228b3	0.035683345
154	0xbb4fddf5	-0.003171799
155	0x3d985b21	0.074392565
156	0x3d8246a3	0.06361129
157	0x3de2a3c9	0.11066396
158	0x3db298f7	0.08720582
159	0x3c98ef77	0.018668873
160	0x3d09fce6	0.03368845
161	0xbdfe5ab8	-0.12419647
162	0x3cb3947d	0.02192139
163	0x3db2ac71	0.08724297
164	0x3e0c4fa1	0.13702251
165	0xbe31ad2e	-0.17351219
166	0xbd95ab0b	-0.073080145
167	0xbd4208c8	-0.047371656
168	0x3d679cb8	0.056545943
169	0xbd3bd73f	-0.04585957
170	0xbde91365	-0.11380652
171	0x3cd7e192	0.026352677
172	0xbcd2c08d	-0.025726581
173	0x3c8cf50b	0.01720669
174	0x3e11a278	0.14222133
175	0x3d80e931	0.06294478
176	0xbd3fa46e	-0.04678767
177	0x3d4d5517	0.050129976
178	0xbae4dc50	-0.0017460678
179	0xbe329d20	-0.17442751
180	0x3c9deba1	0.019277396
181	0x3e0633c4	0.13105685
182	0xbe16e5ff	-0.14736174
183	0xbd7d065d	-0.061773647
184	0xbc44d8b6	-0.012014559
185	0xbd2384ce	-0.039921574
186	0x3d843509	0.06455428
187	0x3cd44bda	0.025915075
188	0xbc4e0fc4	-0.012577001
189	0x3d04fb74	0.032466367
190	0xbc4fbee9	-0.012679794
191	0x3dd2bbc7	0.10289722
192	0xbd84f3f9	-0.064918466
193	0xbd732dee	-0.059369974
194	0x3d3713fc	0.044696793
195	0xbda3c5f8	-0.07996744
196	0xbd251834	-0.040306285
197	0xbc8d80c6	-0.017273318
198	0xbd91eb5e	-0.07124971
199	0xbda8ca5b	-0.08241721
200	0xbcc442a8	-0.023957565
201	0xbd6ac88d	-0.057320166
202	0xbd7d8dff	-0.061902996
203	0x3c8df292	0.01732758
204	0x3cb6be6f	0.022307603
205	0x3d218b18	0.03943929
206	0xbd8c7057	-0.068573646
207	0xbddc116c	-0.107455105
208	0x3d009ed2	0.031401463
209	0xbd98dc0e	-0.07463847
210	0xbcda689b	-0.026661208
211	0xbd9ee9d6	-0.077594444
212	0xbdb2cf89	-0.087309904
213	0x3cf52c0a	0.029928226
214	0xbc5b4459	-0.013382995
215	0xbd5db7cc	-0.05413036
216	0x3dbfc13c	0.093630284
217	0x3d06f339	0.0329468
218	0x3d02bee4	0.03192033
219	0x3ded74ad	0.1159452
220	0xbd263e70	-0.04058689
221	0x3d541cd6	0.051785313
222	0xbd410a79	-0.047129128
223	0xbc38867a	-0.01126253
224	0x3d9fe082	0.07806493
225	0xbc92e956	-0.017933529
226	0xbd48fd23	-0.049069535
227	0xbde4d197	-0.111727886
228	0x3dfbfd9c	0.123042315
229	0xbdaecc57	-0.085350685
230	0xbdbab320	-0.09116197
231	0xbdce17e1	-0.10063148
232	0xbc838997	-0.016056819
233	0xbc77bb85	-0.015120392
234	0x3df26a3e	0.1183667
235	0x3d76a3c8	0.060214788
236	0xbd347573	-0.04405732
237	0x3de6eb70	0.11275375
238	0x3dd81b09	0.105520315
239	0x3d930879	0.071793504
240	0xbc52d2cc	-0.012867641
241	0x3cd9175b	0.026500395
242	0xbdb87c43	-0.09008076
243	0xbd9893b1	-0.07450045
244	0x3d9302a2	0.071782365
245	0x3d85317b	0.06503578
246	0xbd22d6df	-0.0397557
247	0x3dbb1a20	0.09135842
248	0xbd9fdfd7	-0.07806366
249	0x3d9d490c	0.07679948
250	0xbd9ca6c3	-0.07648995
251	0x3d04449c	0.032291993
252	0xbc3d6b8f	-0.0115612885
253	0xbdd41f62	-0.10357548
254	0x3e17109b	0.14752428
255	0x3d64e1b3	0.055879306

lstm.bias_ih_l0 f4 [256]
0	0x3e2325a3	0.15932326
1	0xbce9891d	-0.028507764
2	0xbd3b2ff7	-0.04570004
3	0xbd5134bd	-0.051075686
4	0xbd9ed892	-0.07756151
5	0xbdabc049	-0.08386285
6	0x3c7edce2	0.015555592
7	0xbd15b2b4	-0.036547378
8	0x3cfbc45c	0.03073328
9	0xbd84b731	-0.064802535
10	0x3c8928b5	0.016743043
11	0xbdb4240e	-0.087959394
12	0x3e1a781d	0.15084882
13	0x3cf1b3e5	0.029504726
14	0x3d92b82a	0.07164033
15	0x394485e4	0.00018741895
16	0xbd04f4de	-0.032460086
17	0x3dcb4ce0	0.09926772
18	0xbd083c39	-0.033260558
19	0xbd73c3a9	-0.059512768
20	0x3e0ffecc	0.14062041
21	0xbd1e4c00	-0.038646698
22	0xbd8103c4	-0.06299546
23	0x3c9e9aa6	0.019360851
24	0x3cfa4699	0.030551242
25	0x3d974180	0.0738554
26	0x3e013676	0.12618431
27	0xbd8bf63c	-0.06834075
28	0xbda8f30c	-0.082494825
29	0x3d5fd62b	0.054647606
30	0xbddc231d	-0.10748885
31	0xbc80c261	-0.015717687
32	0x3e15ae77	0.14617334
33	0x3dc1b8c9	0.09459073
34	0xbdb9742f	-0.090553634
35	0x3dada31b	0.084783755
36	0xbd6d35cc	-0.057912633
37	0xbd10484a	-0.03522519
38	0xbdaa3d33	-0.08312454
39	0x3d046d27	0.03233066
40	0xbdd0a95f	-0.10188555
41	0xbdd9691a	-0.1061575
42	0x3d310718	0.043219656
43	0x3d0e491c	0.03473769
44	0xbb9c3384	-0.0047668833
45	0x3da96b63	0.082724355
46	0xbdab7d5a	-0.08373518
47	0x3d31dcf8	0.043423623
48	0xbd27fdb6	-0.041013442
49	0xbb60d3f0	-0.0034306012
50	0x3e03dc0f	0.12876914
51	0xbc71edb0	-0.014766142
52	0xbdb8a664	-0.090161115
53	0xbbfcb8fc	-0.0077124815
54	0x3df492e9	0.119420834
55	0xbd0de437	-0.03464147
56	0x3d0a8246	0.033815645
57	0x3d3c9268	0.04603806
58	0x3d6eea1d	0.058328737
59	0x3dc85dcc	0.09783515
60	0xbd1fafad	-0.038985897
61	0x3d122039	0.03567526
62	0x3ddfc00c	0.10925302
63	0x3dc06008	0.093933165
64	0x3c8a77e6	0.016902875
65	0xbd468224	-0.048463956
66	0x3c652693	0.013986248
67	0x3d8f1b17	0.06987589
68	0x3de06e54	0.109585434
69	0x3e0790b8	0.132388
70	0x3c8263da	0.015916754
71	0x3e069574	0.1314295
72	0x3e1d093d	0.15335555
73	0xbd290b89	-0.041270766
74	0x3cb65afd	0.022260183
75	0x3d43b81f	0.047783013
76	0xbc8aa79f	-0.016925631
77	0xbcd53154	-0.026024498
78	0x3e179d46	0.14806089
79	0x3c644181	0.013931633
80	0xbd948a3a	-0.07252927
81	0x3ce33d20	0.027739108
82	0x3db378d7	0.08763283
83	0x3d116483	0.035496246
84	0x3d9903d4	0.07471433
85	0xbd8012d7	-0.062535934
86	0x3c94ec59	0.018179106
87	0x3d941f28	0.07232505
88	0x3c8d37b9	0.017238485
89	0x3d4dded4	0.050261334
90	0x3da037ff	0.078231804
91	0x3d9909be	0.07472561
92	0x3c90060d	0.01758101
93	0x3d26f8ed	0.040764738
94	0xbdaee7c5	-0.085403
95	0xbcc8bc26	-0.024503779
96	0x3cde7efb	0.027160158
97	0xbd5f6187	-0.05453637
98	0x3d258695	0.04041155
99	0xbda07d7d	-0.07836435
100	0x3d9ff397	0.07810133
101	0x3c9889e4	0.018620439
102	0x3d8dc19e	0.06921695
103	0x3e21003b	0.15722744
104	0xbdf12628	-0.11774856
105	0x3dfd362a	0.123638466
106	0x3e06b1f9	0.13153829
107	0xbdf7d39c	-0.12100908
108	0xbda6e0d6	-0.08148353
109	0x3d9284dd	0.07154248
110	0x3dd590e9	0.1042803
111	0x3dbf422c	0.09338793
112	0xbdc7b55d	-0.09751389
113	0xbcfbdede	-0.03074592
114	0x3da12dc6	0.07870059
115	0x3de70234	0.11279717
116	0xbdc1d73e	-0.09464882
117	0x3d6fe56f	0.058568414
118	0x3dde6641	0.10859347
119	0x3ccc98dd	0.024975235
120	0xbd2f4f30	-0.04280013
121	0x3dd85290	0.105626225
122	0x3d0cfc9d	0.0344206
123	0xbd83a500	-0.064279556
124	0x3da67e80	0.08129597
125	0xbde6e83d	-0.11274765
126	0x3e0f3db2	0.13988379
127	0x3dd33ef7	0.10314744
128	0x3ca331fd	0.019921297
129	0x3e01b0ad	0.12665053
130	0xbb866067	-0.0041008475
131	0x3cfd958d	0.0309551
132	0xbdff10c1	-0.124543674
133	0xbc75a6dd	-0.014993397
134	0x3c28bc9a	0.010298872
135	0x3d0284c1	0.031864885
136	0x3dec2bb8	0.11531776
137	0x3d9e5f00	0.077329636
138	0xbc6a52af	-0.01430194
139	0x3d89aab6	0.06722014
140	0xbd0ee4c4	-0.034886137
141	0xbc8af4b8	-0.016962394
142	0xbd90c71a	-0.070692256
143	0xbd032bb7	-0.03202411
144	0xbdc5ef1c	-0.09664747
145	0x3d102d0e	0.035199217
146	0xbd0f81bc	-0.035035834
147	0x3dcc7276	0.09982769
148	0xbdee31c6	-0.11630587
149	0x3daf74ea	0.085672215
150	0xbdf3f9fa	-0.119129136
151	0xbcced35f	-0.025247274
152	0xbd4793f8	-0.0487251
153	0x3db9b00a	0.0906678
154	0x3cc4fb2a	0.024045546
155	0x3df88fa3	0.121367715
156	0x3bd57019	0.006513607
157	0xbcfa3a82	-0.030545477
158	0xbd8022c0	-0.06256628
159	0x3da6f5e5	0.081523694
160	0x3e114b57	0.14188896
161	0xbd7c79f9	-0.06163976
162	0x3d21b40d	0.03947835
163	0x3cd903eb	0.026491126
164	0xbdc3909e	-0.09549068
165	0xbdee3d8e	-0.116328344
166	0xbdd2bea7	-0.1029027
167	0x3e12d112	0.14337566
168	0xbb966e36	-0.004590775
169	0x3dccd93e	0.10002373
170	0x3dc7bbd2	0.09752621
171	0x3d7575d3	0.05992682
172	0xbcc9feed	-0.02465769
173	0x3d946723	0.07246234
174	0x3c0a5034	0.0084419735
175	0x3c13f5eb	0.009030799
176	0xbe012805	-0.12612922
177	0x3dc54fcd	0.096343614
178	0x3ca220e2	0.01979107
179	0x3d9b8333	0.07593384
180	0x3b7516ff	0.003739774
181	0x3dc29ea1	0.09502912
182	0xbd2fc7d8	-0.042915195
183	0xbc5cbef3	-0.01347326
184	0xbe01c48c	-0.12672633
185	0xbc75f0c5	-0.015011017
186	0x3c282737	0.010263256
187	0x3e011a7b	0.12607758
188	0x3d4d360e	0.05010038
189	0xbbf2f842	-0.0074148485
190	0x3d36e889	0.044655357
191	0x3d9b85db	0.0759389
192	0x3dc9ec6f	0.09859549
193	0xbd5de872	-0.054176755
194	0x3db3316d	0.087496616
195	0x38d44be4	0.000101230835
196	0x3c70ca88	0.014696725
197	0xbd0bef3c	-0.0341637
198	0x3e2d28f6	0.16910157
199	0xbdc4dde6	-0.09612636
200	0x3da2be4b	0.07946452
201	0x3d9b58f6	0.07585327
202	0xbd87ee41	-0.0663724
203	0xbde4643d	-0.111519314
204	0x3de4fe98	0.111813724
205	0xbda7b076	-0.08187954
206	0xbd06427b	-0.032778244
207	0xbd676c96	-0.05650004
208	0x3c4bbe46	0.012435501
209	0xbd82b9a4	-0.063830644
210	0x3d140e5d	0.03614651
211	0xbc53b4e3	-0.012921545
212	0x3da14532	0.07874526
213	0x3cd09fcc	0.025466822
214	0x3d618f87	0.05506852
215	0xbd6db37c	-0.058032498
216	0xbd65bafb	-0.05608652
217	0x3dd44a5c	0.103657454
218	0x3dc7f678	0.09763807
219	0x3d3e63d2	0.046481915
220	0x3a5db005	0.000845671
221	0xbd5b1f15	-0.05349644
222	0x3dd8bf38	0.10583347
223	0x3d0476da	0.03233991
224	0x3dea0e09	0.11428458
225	0xbc3cc2e2	-0.011521073
226	0xbd903525	-0.070413865
227	0xbd0796af	-0.033102687
228	0xbda9ce8a	-0.08291347
229	0x3df41aa6	0.11919145
230	0x3d8c3488	0.06845957
231	0x3dc34582	0.09534742
232	0x3dfb6f5e	0.12277101
233	0x3dbc3c41	0.0919118
234	0x3e0ddfcc	0.13854903
235	0x3df11980	0.11772442
236	0xbd59d45c	-0.053181037
237	0x3e01bde9	0.12670101
238	0x39329afe	0.00017033142
239	0xbc9b6c6d	-0.0189726
240	0x3df49742	0.11942913
241	0x3dff213b	0.1245751
242	0xbd38f720	-0.04515755
243	0xbd4ef228	-0.050523907
244	0x3b0fa110	0.002191607
245	0xbd7a51f0	-0.061113298
246	0xbda45490	-0.080239415
247	0x3da96b92	0.082724705
248	0xbd75ca01	-0.0600071
249	0xbd479c2f	-0.048732933
250	0xbd754e37	-0.059889045
251	0x3d87b9fb	0.0662727
252	0xbc149f9a	-0.009071255
253	0x3d5fcec7	0.054640558
254	0x3d5951c7	0.053056505
255	0xbaf2d5ba	-0.001852683

lstm.bias_hh_l0 f4 [256]
0	0x3e0e08d6	0.13870558
1	0xbdb23664	-0.087017804
2	0xbcae1936	-0.021252256
3	0x3e035589	0.12825598
4	0x3dad3e68	0.08459169
5	0xbc30d80c	-0.010793697
6	0xbc8e6e86	-0.017386686
7	0xbdb8a8e4	-0.09016588
8	0xbc012b99	-0.00788393
9	0xbdb22853	-0.086990975
10	0xbd0fd9ba	-0.03511975
11	0x3ce20eb2	0.027594898
12	0x3e103f75	0.14086707
13	0x3d243a48	0.040094644
14	0xbd252710	-0.040320456
15	0xbdbf6e73	-0.093472384
16	0x3c684750	0.0141771585
17	0x3cd63dbd	0.026152486
18	0xbd4e969b	-0.050436597
19	0xbdc618a5	-0.09672669
20	0xbc52a458	-0.012856565
21	0xbd872b54	-0.06600061
22	0xbc4eef35	-0.012630274
23	0x3d922170	0.07135284
24	0x3db67dcd	0.08910713
25	0x3e1a5a9d	0.15073629
26	0xbce1ccb6	-0.027563434
27	0x3b48ebd5	0.0030658145
28	0x3d595f93	0.053069662
29	0x3d14db39	0.03634188
30	0x3d9063f4	0.070503145
31	0x3da51827	0.08061247
32	0xbc9a7b75	-0.018857697
33	0xbd153c48	-0.03643444
34	0xbd8dfdb1	-0.069331534
35	0x377187c0	1.4396326e-05
36	0x3cebf53e	0.028803464
37	0x3e06c603	0.13161473
38	0x3c355bce	0.011069251
39	0x3d37daf3	0.04488654
40	0xbd75eddc	-0.060041294
41	0xbbbb7f62	-0.0057219723
42	0xbcc25148	-0.023720399
43	0xbcc30cb9	-0.023809778
44	0xbd3d06ce	-0.046149068
45	0xbdae6033	-0.08514442
46	0x3dc69272	0.09695901
47	0x3da5c578	0.08094305
48	0x3e135346	0.14387235
49	0x3d8da477	0.06916135
50	0xbddd6445	-0.108101405
51	0x3d0b2be5	0.033977408
52	0x3c598d93	0.013278383
53	0xbdd1f763	-0.102522634
54	0x3d537060	0.05162084
55	0x3dbc1365	0.09183387
56	0x3db34ca8	0.087548554
57	0x3ddf5555	0.10904948
58	0xbdbae9bf	-0.09126615
59	0x3d019634	0.031637385
60	0xbd99affa	-0.07504268
61	0x3dba3bde	0.0909345
62	0xbd24312f	-0.040085968
63	0x3ddb8340	0.10718393
64	0xbcf092b2	-0.029366825
65	0x3d86ee3b	0.065884076
66	0x3c192332	0.00934677
67	0xbd007d08	-0.03136924
68	0x3db4cb1a	0.08827801
69	0x3e06b3c2	0.1315451
70	0xbda0e04c	-0.07855281
71	0xbdb038cd	-0.08604584
72	0x3cee2afe	0.029073235
73	0xbdb222b1	-0.08698023
74	0xbd42fc75	-0.047604043
75	0xbbbd6c6e	-0.005780748
76	0x3d612210	0.054964125
77	0xbd9d152d	-0.076700546
78	0xbd982e31	-0.07430685
79	0x3ddad623	0.106853746
80	0x3dbb8d20	0.09157777
81	0xbe041dd0	-0.12901998
82	0xbd5e37a8	-0.054252297
83	0x3d7c2c83	0.061565887
84	0xbcd10f4b	-0.025519988
85	0xbd1390e5	-0.036026854
86	0x3d732505	0.059361476
87	0x3ddc8f91	0.107695706
88	0x3e0f506f	0.13995527
89	0x3de058ec	0.109544605
90	0x3e0a4c1f	0.135056
91	0xbdaf4956	-0.085589096
92	0x3ddadc0c	0.10686502
93	0x3d8c4a7a	0.06850143
94	0x3d37430f	0.044741686
95	0x3dca9a69	0.09892733
96	0xbd6b2bb1	-0.057414714
97	0x3dc55d9e	0.09636997
98	0x3dee69ec	0.11641297
99	0x3c698459	0.014252746
100	0x3d497a87	0.049189117
101	0xbd1cd82a	-0.038292088
102	0xbca69749	-0.02033581
103	0xbdac5811	-0.08415235
104	0xbdfc3303	-0.12314417
105	0xbdc82a57	-0.09773701
106	0xbdac3bc7	-0.08409839
107	0xbdf0b183	-0.11752608
108	0xbc6c3fb2	-0.014419483
109	0xbd4823ec	-0.048862383
110	0x3dce0867	0.10060196
111	0x3d54409b	0.051819425
112	0xbd43adcd	-0.04777317
113	0x3e06a413	0.13148527
114	0x3d9c849e	0.07642482
115	0x3d0a8daf	0.033826526
116	0x3ca15928	0.019695833
117	0xbd5f2597	-0.054479208
118	0x3e0b0c10	0.1357882
119	0xbdbbf845	-0.09178213
120	0x3d355fc4	0.044280782
121	0xbdad6a94	-0.08467594
122	0xbdbb0562	-0.09131886
123	0x3c8d7a6a	0.017270286
124	0x3e02ab4b	0.12760656
125	0x3cf60a4a	0.030034203
126	0xbcb8c16d	-0.02255317
127	0x3da0d815	0.078537144
128	0x3d9e1289	0.07718379
129	0x3dfef0c7	0.124482684
130	0x3dcde8e5	0.10054187
131	0xbd652b06	-0.055949233
132	0xbdacf64a	-0.084454134
133	0xbd8e513c	-0.06949088
134	0x3e18daa0	0.14927149
135	0x3d3c3a13	0.04595382
136	0x3c734167	0.014847136
137	0xbd9b6ced	-0.07589135
138	0xbdec46a9	-0.11536915
139	0xbcdfe56a	-0.027331073
140	0x3c035592	0.008016007
141	0xbe00859a	-0.12550965
142	0xbe11b616	-0.14229617
143	0xbd601d61	-0.054715518
144	0xbdb43deb	-0.088008724
145	0x3d9b8dc8	0.07595402
146	0xbdf513cf	-0.11966669
147	0xbc9850f6	-0.018593293
148	0x3c88577e	0.016643282
149	0x3d98d450	0.074623704
150	0x3c94de6d	0.018172467
151	0x3d170cd5	0.036877472
152	0x3d5bf5c2	0.05370117
153	0xbcd16ae1	-0.02556366
154	0xbbd73ed4	-0.006568769
155	0x3ddf3ff2	0.109008685
156	0x3d8ea5e8	0.06965238
157	0x3dd5362e	0.104107246
158	0x3de89396	0.11356275
159	0x3d91a5bb	0.07111689
160	0x3e0e0bbd	0.13871665
161	0xbdad810c	-0.08471879
162	0x3d2f0f54	0.042739227
163	0xbdb95f56	-0.09051387
164	0x3e136043	0.1439219
165	0x3d3c3488	0.045948535
166	0x3bc0b225	0.0058806115
167	0xbd229c7f	-0.039700028
168	0xbdb5964b	-0.08866557
169	0x3db47d00	0.08812904
170	0x3d7ea764	0.062171355
171	0x3d5cd7bb	0.053916674
172	0x3c759e57	0.014991364
173	0x3dee0c6f	0.11623465
174	0x3daf08d1	0.085466035
175	0x3da64b7e	0.08119868
176	0xbdea242e	-0.11432682
177	0x3db9ed2a	0.090784386
178	0xbdafbb99	-0.08580703
179	0xbdd23bbd	-0.102653004
180	0x3ddbfc4a	0.1074148
181	0x3c7bf1d5	0.0153774815
182	0x3dd816f3	0.10551252
183	0xbdab6e87	-0.08370691
184	0xbd9e7a24	-0.0773814
185	0xbd5480bb	-0.05188058
186	0x3d1426dc	0.03616987
187	0x3dac2921	0.08406282
188	0x3db674ba	0.089089826
189	0xbdce2511	-0.100656636
190	0x3d5c379c	0.05376397
191	0xbd4f2acd	-0.050577927
192	0x3e218eb7	0.15777098
193	0x3df230d8	0.118257225
194	0xbb81a82f	-0.0039568166
195	0xbda0b61d	-0.07847235
196	0x3d903e81	0.07043172
197	0x3e14fbf1	0.14549233
198	0x3e2521e8	0.16126215
199	0xbdbbdd44	-0.091730624
200	0x3c96fda5	0.018431494
201	0x3cdec4ee	0.027193513
202	0xbcce736c	-0.025201522
203	0x3d8ac0f6	0.06775086
204	0x3d4c3358	0.049853653
205	0x3e03fe44	0.12889963
206	0xbd707146	-0.058701776
207	0x3cee1167	0.029061032
208	0xbce08eaf	-0.027411787
209	0xbde52850	-0.111893296
210	0x3e0a244f	0.13490413
211	0xbbe58aff	-0.007005095
212	0x3d5336e4	0.05156602
213	0x3cae4606	0.021273624
214	0xbd0e4c65	-0.034740824
215	0x3dff4a6d	0.124653675
216	0xbc8321de	-0.01600736
217	0x3de864fe	0.11347388
218	0xbd959a9e	-0.073048815
219	0xbda3a10a	-0.079897
220	0xbd81f950	-0.06346381
221	0xbd2f8fa1	-0.042861585
222	0xbd660980	-0.056161404
223	0x3dcf101e	0.10110496
224	0x3d8b9294	0.06815067
225	0x3d60f1a6	0.054917954
226	0x3e059643	0.13045602
227	0xbd52036d	-0.0512728
228	0x3c07ec79	0.008296126
229	0xbdb31578	-0.08744329
230	0x3cdcead9	0.026967453
231	0x3bf1e364	0.0073818434
232	0xbd838c4f	-0.06423246
233	0xbdb17bed	-0.08666215
234	0x3e0f3c75	0.13987906
235	0x3ca7281a	0.020404864
236	0x3d3c6b38	0.04600069
237	0x3e09eabb	0.13468449
238	0xbbf27b89	-0.0073999804
239	0x3cfa1c58	0.030531093
240	0xbd435aa8	-0.04769388
241	0xbd2ec59d	-0.042668927
242	0xbd9b9638	-0.07597011
243	0x3c86882c	0.016422354
244	0x3d076a3f	0.03306031
245	0xbdecf801	-0.115707405
246	0x3d1661de	0.036714427
247	0x3d2f9d1b	0.042874437
248	0x3de2e3f3	0.11078634
249	0xbd4b8d0d	-0.049695063
250	0x3df67bbc	0.12035319
251	0xbcb3b80b	-0.021938344
252	0xbd9a8508	-0.07544905
253	0x3d374c2c	0.044750378
254	0xbd93a0ac	-0.0720838
255	0xbb70b9df	-0.0036731882

lstm.weight_ih_l1 f4 [256, 64]
0	0xbd83df46	-0.064390704
1	0x3c30cc75	0.010790934
2	0x3d37f29d	0.04490911
3	0xbca70182	-0.020386461
4	0x3d8b1698	0.06791419
5	0x3aa7f186	0.0012813068
6	0x3d9b8717	0.07594126
7	0x3d225559	0.039632175
8	0xbdb3f153	-0.08786263
9	0xbdcaa1fd	-0.09894178
10	0xbe0eb77e	-0.13937184
11	0xbd8edcda	-0.06975718
12	0x3c70d0d1	0.014698223
13	0x3d5e5b48	0.05428627
14	0xbcbb2530	-0.02284488
15	0xbd9bbe32	-0.07604636
16	0x3c440c83	0.011965874
17	0xbc6fd5b0	-0.014638349
18	0xbe2949e1	-0.16532089
19	0x3dd569b7	0.10420554
20	0x3d67beff	0.056578632
21	0xbc8b6141	-0.017014148
22	0x3d0a6404	0.03378679
23	0xbdeee84f	-0.11665403
24	0x3c8f095f	0.017460523
25	0xbc68d5c1	-0.014211119
26	0xbdf45e7e	-0.119320855
27	0xbdbdce5d	-0.09267876
28	0x3c9b94dc	0.01899188
29	0xbd4b5019	-0.049636934
30	0xbd860c80	-0.06545353
31	0x3dc7c8f7	0.09755128
32	0x3e0794ba	0.13240328
33	0xbe121880	-0.14267159
34	0x3e0482aa	0.1294047
35	0xbd2bb468	-0.041920096
36	0x3cc5ef05	0.024161825
37	0xbd715be8	-0.05892554
38	0x3d7c2b59	0.061564777
39	0x3d9dcf8f	0.07705604
40	0xbced3cf1	-0.028959723
41	0xbdca9856	-0.09892337
42	0xbd031619	-0.032003496
43	0x3d1056e0	0.0352391
44	0x3cbb4c9f	0.022863684
45	0xbc549830	-0.012975737
46	0x3d5e8d1e	0.0543338
47	0xbd5e62f2	-0.05429358
48	0xbd16b345	-0.03679206
49	0xbd8b2797	-0.067946605
50	0xbda008d3	-0.07814183
51	0x3da738b9	0.08165116
52	0xbd25fe39	-0.04052565
53	0xbc3dad20	-0.011576921
54	0x3da612e4	0.08109072
55	0xbd4eb3ba	-0.05046437
56	0x3a9e2176	0.0012064415
57	0xbd265bbc	-0.04061483
58	0xbd12e4e8	-0.035862833
59	0x3ccbaaf3	0.024861788
60	0x3e0043e1	0.12525894
61	0x3d04394e	0.032281213
62	0x3da429ae	0.08015762
63	0x3dd53887	0.10411172
64	0x3db538e7	0.08848744
65	0x3cb19184	0.021675833
66	0x3d603f55	0.054747898
67	0xbd7a5ee2	-0.061125644
68	0x3dd71f90	0.10504067
69	0xbc8ab7ee	-0.016933408
70	0x3e1c3fba	0.15258685
71	0xbdc3ec42	-0.09566547
72	0x3dcfa71d	0.10139296
73	0x3c22498d	0.009905231
74	0xbda05ddd	-0.07830403
75	0x3c5484f0	0.012971148
76	0x3d56b9ad	0.052423168
77	0xbddc86db	-0.10767909
78	0xbe2d7855	-0.16940434
79	0x3d760d65	0.060071368
80	0x3d46ee1a	0.048566915
81	0x3d597560	0.053090453
82	0xbcc789c4	-0.024357684
83	0x3e014ef5	0.12627776
84	0x3c10a2ba	0.00882786
85	0xbd137c69	-0.03600732
86	0xbe1f99ef	-0.15586065
87	0x3d5bee39	0.053693984
88	0xbdf7789b	-0.120835505
89	0xbd12087a	-0.035652615
90	0xbde0bb09	-0.10973174
91	0x3e05c7c0	0.1306448
92	0xbdd98948	-0.106218874
93	0xbcefe9b7	-0.029286249
94	0xbdc7ac98	-0.097497165
95	0x3dd26846	0.10273795
96	0x3d398818	0.045295805
97	0x3dd0f354	0.10202661
98	0x3db5ec9e	0.08883022
99	0x3d966dcd	0.073451616
100	0xbdaea116	-0.085268185
101	0xbdb1a397	-0.086737804
102	0x3d0f392f	0.034966644
103	0x3d057b2d	0.032588173
104	0xbe31c3f2	-0.17359903
105	0xbd849a1c	-0.064747065
106	0xbd47a81a	-0.0487443
107	0xb8d36bb9	-0.00010081329
108	0xbca9b662	-0.02071685
109	0x3e16cf08	0.14727414
110	0x3d156ee3	0.036482703
111	0x3d213b17	0.039362993
112	0xbbd6a232	-0.006550097
113	0xbdbdaaf2	-0.09261121
114	0xbd2ae4c4	-0.041722074
115	0x3dcc2a35	0.09968988
116	0xbcdc845e	-0.026918586
117	0x3cc3ebf7	0.023916228
118	0xbd8cf44a	-0.06882532
119	0xbe16cc48	-0.14726365
120	0x3dcae8c4	0.09907678
121	0xbd692c95	-0.056927282
122	0xbdb1798b	-0.086657606
123	0xbd97f2bf	-0.07419347
124	0x3e18ccd7	0.1492189
125	0x3d5ede3e	0.054411165
126	0x3c6c68aa	0.014429251
127	0xbd9b6d3f	-0.075891964
128	0x3d071961	0.032983188
129	0x3e02c5e9	0.12770809
130	0x3c9141a3	0.017731493
131	0xbdfb805b	-0.12280341
132	0x3cf9198c	0.03040769
133	0x3d2d44ca	0.04230193
134	0x3ca37a94	0.01995591
135	0xbd2528ea	-0.04032222
136	0xbc373895	-0.011182924
137	0xbd019659	-0.031637523
138	0xbd98c2b2	-0.0745901
139	0x3e0f2bf4	0.1398161
140	0xbdf4c83f	-0.119522564
141	0x3d7bcc6f	0.06147426
142	0xbd9e17e8	-0.077194035
143	0xbdb56b90	-0.088584065
144	0xbd1955b1	-0.037435237
145	0x3d71daed	0.059046675
146	0xbbd3cd50	-0.006463684
147	0xbd0af9e0	-0.033929706
148	0x3d3a1f3a	0.045439936
149	0x3d23b957	0.039971676
150	0x3dd6d529	0.10489876
151	0x3d7ed6d2	0.062216587
152	0x3de645e5	0.112438
153	0xbc869925	-0.016430447
154	0x3b25ee21	0.0025318938
155	0xbb1316a4	-0.0022443915
156	0xbde5ae63	-0.11214902
157	0x3da0a8db	0.078447066
158	0x3d78bec9	0.060728822
159	0xbd9275ef	-0.071514
160	0x3db14f3b	0.0865769
161	0x3d71f8f6	0.05907532
162	0xbd80c4c1	-0.06287528
163	0x3ce7ad52	0.028280888
164	0x3d97ea4a	0.07417734
165	0x3bebf95e	0.0072013577
166	0xbd942e10	-0.07235348
167	0x3ce54952	0.027989063
168	0xbd576000	-0.052581787
169	0x3dc82862	0.097733274
170	0xbc87f134	-0.016594507
171	0xbddf3140	-0.108980656
172	0xbdf968c9	-0.12178189
173	0x3dbd6a27	0.092487626
174	0x3dbf7dd2	0.0935017
175	0x3d0ea819	0.03482828
176	0xbce27d64	-0.027647682
177	0x3dcee08b	0.10101422
178	0xbda3b11c	-0.07992765
179	0x3d704270	0.05865711
180	0xbc359cf8	-0.011084788
181	0x3b975b1f	0.004619017
182	0x3d46f78a	0.048575915
183	0x3dfb00b2	0.12255992
184	0x3c806f23	0.015677994
185	0x3e1b8f1d	0.15191312
186	0xbdbf29a6	-0.09334116
187	0x3d800d02	0.06252481
188	0xbdee1c03	-0.116264366
189	0xbbdf0208	-0.006805662
190	0x3d8bb166	0.068209454
191	0x3df9a26b	0.12189182
192	0xbdb03cd8	-0.08605355
193	0x3e1782e5	0.14796026
194	0xbd75806a	-0.05993692
195	0xbe0f3cfd	-0.13988109
196	0x3d7eea6e	0.06223529
197	0xbc8aca2a	-0.016942102
198	0x3da0807c	0.078370064
199	0xbe0b5009	-0.1360475
200	0x3d9f3ced	0.077752925
201	0x3db2bc56	0.087273285
202	0x3d105780	0.035239697
203	0xbcfcccf7	-0.030859454
204	0x3d0d0d16	0.034436308
205	0xbdee78d7	-0.11644142
206	0xbc9316dc	-0.017955236
207	0x3d614a4c	0.055002496
208	0x3d2b41ae	0.041810684
209	0xbd5233c8	-0.051318914
210	0xbdcc0e13	-0.09963622
211	0xbaf2b904	-0.0018518274
212	0xbc4671cd	-0.012112093
213	0x3d096c68	0.03355065
214	0xbd801d94	-0.062556416
215	0xbca77c6e	-0.020445075
216	0xbd639ae8	-0.055567652
217	0x3df00eba	0.11721559
218	0xbbd1db4a	-0.006404315
219	0xbde1bab6	-0.110219404
220	0xbbfa6fa9	-0.0076427055
221	0x3d9f1c58	0.07769078
222	0xbc9b62c9	-0.018968003
223	0x3d7359c0	0.059411764
224	0x3c568803	0.013093951
225	0xbd3cddc0	-0.046109915
226	0x3b990a80	0.004670441
227	0xbdc8db27	-0.09807425
228	0xbdd994ef	-0.1062411
229	0xbdaadc25	-0.083427705
230	0xbd02e2de	-0.03195464
231	0x3dbeedef	0.09322726
232	0x3d9ddcf4	0.07708159
233	0x3d7c2602	0.061559685
234	0x3c32bd25	0.010909353
235	0x3d1da07b	0.038483124
236	0x3ce5011c	0.02795463
237	0x3e163e64	0.14672238
238	0xbd8207b7	-0.06349128
239	0x3d025668	0.031820685
240	0x3cec045f	0.028810678
241	0x3d45e484	0.048313633
242	0x3d9af148	0.07565552
243	0x3d929064	0.071564466
244	0xbdc9edbe	-0.09859799
245	0xbdd3dcf7	-0.1034488
246	0x3daa576e	0.08317457
247	0xbe23c70a	-0.15993896
248	0xbe0bf6fe	-0.13668439
249	0xbe01a144	-0.12659174
250	0xbe095bcc	-0.13413924
251	0xbd8c0fae	-0.06838928
252	0x3e176be7	0.14787255
253	0xbd5620a9	-0.05227724
254	0xbd8e52c2	-0.069493786
255	0xbdc82a03	-0.09773638

lstm.weight_hh_l1 f4 [256, 64]
0	0xbd9a8444	-0.07544759
1	0x3d9b188d	0.07573042
2	0x3dc2c477	0.09510129
3	0xbddcb9f7	-0.107776575
4	0xbdd2c23a	-0.10290952
5	0xbc1ebea1	-0.009689004
6	0xbcdc5f94	-0.026901044
7	0xba8a6711	-0.0010559281
8	0xbe0b69a1	-0.13614513
9	0xbb56d999	-0.0032783507
10	0xbe0a2647	-0.13491164
11	0xbde82a3d	-0.11336181
12	0x3d969d0b	0.07354172
13	0xbdb9105b	-0.09036323
14	0x3c550c68	0.013003446
15	0xbd945875	-0.07243434
16	0xbe2e6273	-0.17029743
17	0x3d37557c	0.04475926
18	0x3c9e73b5	0.019342283
19	0x3e06a9e1	0.13150741
20	0x3be10359	0.006866854
21	0xbdcc49fb	-0.09975048
22	0xbdbd0371	-0.09229172
23	0x3dec3a1e	0.115345225
24	0x3db051a6	0.08609323
25	0x3e04b4d5	0.12959607
26	0x3c642bfc	0.013926502
27	0xbd98ac2b	-0.074547134
28	0x3d03a2a6	0.032137536
29	0xbbdcb7e3	-0.006735788
30	0xbcbec134	-0.023285486
31	0x3d21ae35	0.039472777
32	0x3e0d89aa	0.13822046
33	0xbd67b6c5	-0.056570787
34	0x3daf8f46	0.08572249
35	0xba4ccbbc	-0.0007812341
36	0x3dd71196	0.10501401
37	0x3dc5a99f	0.09651493
38	0xbe08b534	-0.13350374
39	0x3cae9030	0.021308988
40	0x3c93057f	0.017946957
41	0xbcd7e6d0	-0.026355177
42	0x3dd7cacc	0.10536727
43	0xbc6c778d	-0.0144328
44	0xbcf30ac9	-0.029668229
45	0x3d1a9c38	0.037746638
46	0x3dbfb47e	0.09360598
47	0xbdd40cab	-0.10353979
48	0xbcbb82d4	-0.022889532
49	0x3d517e8f	0.051146086
50	0xbd622a80	-0.055216312
51	0x3d8c3b25	0.068472184
52	0x3dff0b81	0.12453366
53	0x3d3dce9d	0.04633962
54	0x3d578a4f	0.052622136
55	0xbd71fb83	-0.05907775
56	0xbdfce35e	-0.12348054
57	0xbd91270a	-0.07087524
58	0x3dfc9a41	0.12334109
59	0xbdeeba70	-0.11656654
60	0x3db3ddc8	0.08782536
61	0x3b9bbf46	0.004753026
62	0xbd835355	-0.06412379
63	0xbcda9a9e	-0.026685055
64	0xbbfff7f7	-0.007811542
65	0x3ad3ba2e	0.0016153508
66	0x3c8f8dab	0.017523607
67	0xbb83da9b	-0.0040238625
68	0x3d91eb95	0.07125012
69	0x3df9d3ae	0.12198578
70	0xbdae0a25	-0.08498029
71	0xbda66fc4	-0.08126786
72	0x3da48bc8	0.08034474
73	0x3e1af8d3	0.15133981
74	0x3d475bf3	0.048671674
75	0xbd130cc0	-0.03590083
76	0xbdd36b4f	-0.10323202
77	0x3cc13acb	0.023587605
78	0xbdf7cb05	-0.1209927
79	0x3d3161b1	0.043306056
80	0xbe1fb545	-0.15596493
81	0xbe19c034	-0.15014726
82	0x3d6e3ccb	0.058163445
83	0x3df5a2e8	0.119939625
84	0x3d4b54e4	0.049641505
85	0xbb3e4a74	-0.0029036077
86	0x3c96fd75	0.018431405
87	0x3cef5ca2	0.029218975
88	0x3d90774c	0.07054004
89	0x3da9d2ee	0.08292185
90	0x3aea9bd2	0.0017899221
91	0xbdf7fc5c	-0.121086806
92	0xbc9b6b9d	-0.018972212
93	0x3db630db	0.08896037
94	0x3dd66674	0.1046876
95	0x3cdb147c	0.026743166
96	0x3cab7128	0.02092798
97	0x3df7f381	0.121069916
98	0xbd5e85f9	-0.054326985
99	0xbddc8882	-0.10768224
100	0xbd3c1f83	-0.04592849
101	0x3d381d9b	0.04495011
102	0x3d58dfec	0.052947924
103	0xbc1601e7	-0.009155727
104	0x3c9c3048	0.019065991
105	0xbbd88443	-0.0066075637
106	0x3b963479	0.004583892
107	0x3cfa3d1f	0.030546723
108	0xbd9bc454	-0.07605806
109	0x3d77301a	0.060348608
110	0x3d8792c7	0.066197924
111	0x3bf9bc82	0.007621349
112	0xbd9e9fd1	-0.07745326
113	0xbe13b92c	-0.14426106
114	0xbcc25b6b	-0.023725232
115	0xbba6336c	-0.005072048
116	0x3d57a19a	0.05264435
117	0xbcceddf2	-0.025252316
118	0xbe2188b3	-0.15774803
119	0x3a686bd4	0.00088661653
120	0xbdeee49c	-0.116646975
121	0x3c9602c2	0.018311862
122	0x3b05ab94	0.0020396458
123	0x3dc3cb79	0.09560294
124	0xbd6594c4	-0.056050077
125	0xbc50bfbe	-0.012741027
126	0x3dc31e76	0.09527294
127	0xbbb61d45	-0.0055576884
128	0x3da3ce16	0.07998292
129	0xbd5f199d	-0.054467786
130	0xbd0ce0a3	-0.034393918
131	0xbd36e4d3	-0.044651818
132	0xbbad959e	-0.005297377
133	0xbde3954c	-0.111124605
134	0xbddc9f48	-0.10772568
135	0x3cd9c67f	0.026583908
136	0xbda92685	-0.082593
137	0x3c5f007d	0.013610956
138	0x3d681646	0.056661867
139	0xbd15a0f1	-0.03653044
140	0xb98dacaa	-0.0002702226
141	0x3e1b5522	0.15169194
142	0x3df97fab	0.12182554
143	0xbdae42b3	-0.085088156
144	0xbbce1e1c	-0.0062902104
145	0xbd9a2819	-0.07527179
146	0xbdf5be2a	-0.119991615
147	0xbd640092	-0.055664606
148	0xbd42e36f	-0.04758018
149	0xbd977012	-0.073944226
150	0x3d7ed5aa	0.062215485
151	0x3dd40cee	0.10354029
152	0xbe055ab7	-0.13022886
153	0x3dae00d1	0.084962495
154	0xbdbe1f18	-0.092832744
155	0x3c72e3a5	0.0148247825
156	0x3d7f5e35	0.062345702
157	0x3e181141	0.14850332
158	0x3e00c0b1	0.12573506
159	0x3e02b7eb	0.12765472
160	0xbd17bd64	-0.03704585
161	0x3c97ec93	0.018545425
162	0xbd3e2add	-0.046427596
163	0xbd5b3922	-0.053521283
164	0x3bd41517	0.0064722407
165	0xbced0204	-0.028931625
166	0xbd931ae4	-0.07182863
167	0xbd47852f	-0.048711
168	0x3cac79ca	0.021054167
169	0x3df4a784	0.119460136
170	0x3df27013	0.11837783
171	0xbd2d1081	-0.042252067
172	0xbc1f82d8	-0.009735785
173	0x3dcc622f	0.099796645
174	0xbb122ff8	-0.0022306424
175	0x3e118d81	0.14214136
176	0xbd012cf7	-0.031537022
177	0xbe2d3cd2	-0.16917732
178	0x3c87584c	0.016521595
179	0xbcd27c48	-0.025694028
180	0x3d3d2f53	0.04618771
181	0xbd950379	-0.07276053
182	0xbe07e330	-0.13270259
183	0xbd72697d	-0.059182633
184	0x3da37462	0.07981183
185	0x3d73fac8	0.059565336
186	0xbd71d0a7	-0.059036877
187	0xbd613754	-0.054984406
188	0x3cc11130	0.023567766
189	0x3db8864c	0.0900999
190	0xbd8aa2a2	-0.06769301
191	0xbcc98cb9	-0.024603235
192	0x3cc80f68	0.024421409
193	0x3d1e81fd	0.038698185
194	0x3df54222	0.119755045
195	0xbda50521	-0.08057619
196	0xbdbc4ad9	-0.091939636
197	0x3d8d224f	0.068913095
198	0x3dc476cf	0.095929734
199	0xbc039e4c	-0.008033346
200	0x3d2ab935	0.041680533
201	0x3d5e6ba5	0.054301877
202	0x3c7514ee	0.014958603
203	0xbdaff5e0	-0.08591819
204	0xbdfdc053	-0.123901986
205	0xbd3db02f	-0.0463106
206	0x3d5f6989	0.054544006
207	0xbbdc6a82	-0.006726564
208	0xbd440858	-0.04785952
209	0xbda9f2f3	-0.08298292
210	0xbd807a3f	-0.062733166
211	0x3d306cbc	0.043072447
212	0x3ac57b3e	0.0015066636
213	0xbca1d9a1	-0.019757094
214	0xbb8dd1ce	-0.004327989
215	0x3d494067	0.049133684
216	0xbd0afaae	-0.033930473
217	0x3d23ebb5	0.04001971
218	0x3c81328e	0.015771177
219	0xbd9577ae	-0.07298218
220	0x3d5503d7	0.052005615
221	0x3df0312a	0.11728127
222	0x3da2fde8	0.07958585
223	0xbd276bf9	-0.040874455
224	0xbdab75dd	-0.0837209
225	0x3d9553cf	0.07291376
226	0x3cfd9a73	0.030957436
227	0x3dacce5d	0.08437798
228	0x3e0d3dfb	0.13793175
229	0xbcefcdcb	-0.029272934
230	0x3d882696	0.06647985
231	0xbcb31bff	-0.021863936
232	0xbdd4a3db	-0.103828155
233	0xbdc89184	-0.0979338
234	0x3c4bef8b	0.012447248
235	0x3d81df60	0.063414335
236	0x3d47bd71	0.04876465
237	0x3dda19f0	0.106494784
238	0xbc5622de	-0.013069836
239	0xbd02dd3b	-0.031949263
240	0xbdf12a5f	-0.1177566
241	0x3dd299e6	0.1028326
242	0x3db1becc	0.0867897
243	0xbc5e88c7	-0.013582415
244	0x3d20e987	0.03928521
245	0xbd871d2c	-0.06597361
246	0xbdb94a9a	-0.09047432
247	0xbb57f0da	-0.0032949955
248	0xbe01fb82	-0.12693599
249	0x3dc71ad1	0.09721912
250	0x3e1cdcd8	0.1531862
251	0x3d7e774a	0.06212548
252	0xbcc02eae	-0.023459759
253	0xbc0a08f6	-0.008424988
254	0xbd89834a	-0.067144945
255	0xbdac9028	-0.08425933

lstm.bias_ih_l1 f4 [256]
0	0x3df63a2c	0.12022814
1	0x3cbe19ea	0.023205716
2	0x3d4c407e	0.049866192
3	0x3dddef48	0.10836655
4	0xbcb87f58	-0.02252166
5	0x3db7abc7	0.08968311
6	0x3e19ba5b	0.15012495
7	0x3dc7ea0a	0.09761436
8	0x3dde96ee	0.10868631
9	0x3d9852d9	0.07437677
10	0x3e0f8551	0.140157
11	0xbcb989bd	-0.022648687
12	0xbd563fbd	-0.05230688
13	0xbbbe2ea2	-0.005803899
14	0x3d0a306f	0.033737596
15	0x3da089c5	0.078387775
16	0xbcbdd020	-0.02317053
17	0xbd910911	-0.070818074
18	0xbdaf8baa	-0.08571561
19	0xbd9826e1	-0.074292906
20	0x3d0baf8e	0.03410297
21	0x3df8e524	0.1215308
22	0x3e024e43	0.12725167
23	0xbe1099e4	-0.14121205
24	0x3c9abc08	0.018888488
25	0xbcbce91a	-0.02306037
26	0xbdbaca0b	-0.09120568
27	0xbd3b9425	-0.04579558
28	0x3d6c6449	0.057712827
29	0xbdab77e8	-0.0837248
30	0x3df5612a	0.11981423
31	0x3d661296	0.05617007
32	0x3d92ece0	0.071740866
33	0x3d4f4893	0.05060632
34	0x3d421b78	0.047389477
35	0x3d97cbe6	0.074119374
36	0xbda7c6e8	-0.08192235
37	0x3db60aea	0.088888004
38	0x3d9d92b9	0.07694001
39	0xbd890115	-0.066896595
40	0xbd7aeb00	-0.06125927
41	0xbcc2f9a7	-0.023800684
42	0x3dbdee58	0.09273976
43	0x3e01725d	0.12641282
44	0xbde36ed0	-0.1110512
45	0x3e1be061	0.15222313
46	0x3c985aac	0.018597923
47	0x3e045c91	0.12925936
48	0x3da692f7	0.081335
49	0x3b76a0b6	0.0037632412
50	0xbd637b09	-0.055537257
51	0xbde7ef90	-0.1132499
52	0xbc2864d1	-0.010277943
53	0xbde46485	-0.11151985
54	0xbd797090	-0.060898364
55	0xbc4220d1	-0.011848644
56	0xbde24092	-0.11047472
57	0x3e11e37d	0.14246936
58	0x3dfaecc8	0.12252194
59	0xbd53aa7d	-0.051676262
60	0xbd12a24c	-0.03579931
61	0xbdf27458	-0.11838597
62	0x3da5b51b	0.08091184
63	0xbda39507	-0.07987409
64	0x3df49707	0.11942869
65	0x3d815f53	0.0631701
66	0x3ddc2714	0.10749641
67	0xbd0a45d0	-0.033757985
68	0x3d17d60d	0.03706937
69	0x3d4224fc	0.047398552
70	0x3e2388cf	0.15970157
71	0x3d60a968	0.05484906
72	0x3bfb7915	0.007674346
73	0xbd81475d	-0.063124396
74	0xbb8127d1	-0.003941514
75	0x3d8bb54e	0.068216905
76	0x3e06abc9	0.13151468
77	0x3bf019ba	0.0073272856
78	0x3dc94400	0.09827423
79	0xbd5cf027	-0.053939965
80	0x3c0be6a5	0.008538877
81	0xbe09fa80	-0.13474464
82	0xbd5dd401	-0.05415726
83	0xbdc7ca0a	-0.09755333
84	0xbcc79d27	-0.024366928
85	0x3dadb64e	0.084820375
86	0x3d3317f0	0.043724
87	0xbddfef73	-0.10934343
88	0x3acfa42f	0.0015841777
89	0xbdc8328e	-0.097752675
90	0xbdcdadf6	-0.10042946
91	0x3df6e48d	0.12055311
92	0xbd94b2dd	-0.07260678
93	0xbd8786c9	-0.06617505
94	0x3d5317f1	0.051536504
95	0xbde058df	-0.10954451
96	0xbda44f15	-0.08022896
97	0x3e07e4b7	0.13270842
98	0x3a1a2014	0.0005879414
99	0xbcb2b69a	-0.021815587
100	0xbd4e59ae	-0.050378494
101	0x3d845a38	0.0646252
102	0x3db699ac	0.08916029
103	0x3d825bff	0.06365203
104	0xbd50ac25	-0.05094542
105	0x3d34d3a1	0.044147138
106	0xbca75a81	-0.020428898
107	0x3bb76857	0.005597155
108	0x3dc92275	0.09821025
109	0xbce8bbe9	-0.028409915
110	0x3d5d4b64	0.054026976
111	0x3dbdfcf9	0.09276766
112	0xbd8cea24	-0.06880596
113	0x3de30d54	0.110865265
114	0xbdc499f8	-0.0959968
115	0x3d4480c5	0.047974367
116	0xbdfda0af	-0.123841636
117	0xbd8b268e	-0.06794463
118	0xbd2ca775	-0.042151887
119	0x3b08dca2	0.002088346
120	0x3ca91094	0.020637788
121	0xbc9d0c5f	-0.019170938
122	0x3de45868	0.11149675
123	0xbd9dffc6	-0.077148005
124	0xbd797892	-0.060906
125	0xbdac9e29	-0.08428604
126	0xbd9f8900	-0.077898026
127	0x3c1cac63	0.009562585
128	0xbdb7452b	-0.089487396
129	0x3e001658	0.12508523
130	0x3d6dfe5c	0.058103904
131	0xbdc226f6	-0.094800875
132	0xbde27aee	-0.11058603
133	0x3c7c39d8	0.01539465
134	0x3d2d8644	0.042364374
135	0x3d6c7278	0.057726353
136	0x3d62ae4d	0.055342007
137	0x3cb24f51	0.021766337
138	0x3cf5fce4	0.030027814
139	0x3bbaa729	0.0056961966
140	0xbded8e1c	-0.11599371
141	0xbdebe3ce	-0.1151806
142	0xbc15d37c	-0.00914466
143	0xbd8797e8	-0.06620771
144	0x3d9502ae	0.07275902
145	0xbd1cd7fd	-0.03829192
146	0xbdc35e87	-0.09539514
147	0x3d6c4008	0.057678252
148	0x3dd8f7f1	0.10594166
149	0xbd80e0fc	-0.06292912
150	0x3b28a444	0.0025732676
151	0x3dd3e05a	0.10345526
152	0x3d7df551	0.06200153
153	0x3d548777	0.051887
154	0xbdbfdecd	-0.09368668
155	0xbe09aeb8	-0.13445556
156	0x3d5d65c4	0.05405213
157	0x3dbdbd2d	0.09264598
158	0xbd88f017	-0.066864185
159	0x3de885af	0.11353623
160	0xbb336bf5	-0.002737758
161	0x3df4cf29	0.11953575
162	0x3c3821c6	0.011238521
163	0x3da2a11a	0.07940884
164	0xbd7f7172	-0.06236405
165	0xbb61e98f	-0.0034471487
166	0xbd1a38e7	-0.037651923
167	0x3da81d3c	0.08208701
168	0x3d92b749	0.07163865
169	0x3dcae9e9	0.09907896
170	0x3dad12c3	0.08450844
171	0xbdcbb06c	-0.09945759
172	0x3d59a368	0.053134352
173	0xbc7bf0f5	-0.015377273
174	0xbc57fcfd	-0.013182876
175	0xbd810525	-0.06299809
176	0x3dd6dbb1	0.104911216
177	0xbd22d6e2	-0.03975571
178	0xbdcfe8b3	-0.10151806
179	0xbcb37784	-0.021907575
180	0x3cb73a41	0.022366645
181	0xbd0c6db1	-0.034284297
182	0x3c8ca21d	0.017167145
183	0x3d2f70c1	0.04283214
184	0xbdf74605	-0.12073902
185	0xbd4a5c17	-0.04940423
186	0x3c922d54	0.01784388
187	0x3d882e2c	0.066494316
188	0xbd8d88e2	-0.06910874
189	0xbd84ac45	-0.0647817
190	0xbce10c29	-0.027471619
191	0x3d394250	0.045229256
192	0xbd994e0f	-0.074855916
193	0xbbca4e78	-0.006173905
194	0x3d747faa	0.059692062
195	0xbdb43837	-0.08799785
196	0xbcf5c34f	-0.030000357
197	0xba7bce5a	-0.0009605639
198	0x3dd7c0c6	0.105348155
199	0x3de491be	0.111606106
200	0x3d69d2f2	0.05708594
201	0x3d6abca1	0.057308797
202	0xbaf1927b	-0.0018430495
203	0x3d63ab5a	0.055583335
204	0x3daa900e	0.083282575
205	0xbd1694cc	-0.036762998
206	0xbd7dbf52	-0.061950035
207	0x3dfba770	0.122877955
208	0x3d96af13	0.073576115
209	0x3d229f0e	0.039702468
210	0xbc6cd53f	-0.014455139
211	0x3de9b303	0.11411097
212	0xbdbb4873	-0.09144678
213	0x3de6608b	0.11248883
214	0x3e05c1c1	0.13062192
215	0x3cb8a925	0.022541592
216	0x3d61d6f6	0.055136643
217	0x3ce6271f	0.028094826
218	0x3dc319bc	0.09526393
219	0x3e141060	0.14459372
220	0x3da3419a	0.07971497
221	0xbcb8f2bb	-0.02257668
222	0xbdb6c922	-0.08925082
223	0x3b535cff	0.0032251475
224	0x3e02c1f3	0.12769298
225	0xbd9856df	-0.07438444
226	0x3dd4d886	0.10392861
227	0xbd51ec4f	-0.051250752
228	0x3de3d531	0.111246474
229	0xbdb57e9c	-0.088620394
230	0x3d7180f8	0.058960885
231	0xbd62596f	-0.05526107
232	0x3dd906c3	0.10596993
233	0x3dd5158f	0.104045026
234	0x3d1fd5d6	0.03902229
235	0x3e23c609	0.15993513
236	0x3db0198d	0.085986234
237	0xbc899aa2	-0.016797367
238	0xbd50b804	-0.05095674
239	0x3d090d7b	0.03346012
240	0x3e18ce05	0.1492234
241	0x3e0f1366	0.13972244
242	0x3d04dcfc	0.03243731
243	0x3d9fe6f4	0.07807723
244	0x3d749c00	0.059719086
245	0xbcd98a80	-0.0265553
246	0x3dee8f33	0.11648407
247	0xbddd8b99	-0.10817642
248	0x3c01b80a	0.0079174135
249	0xbd9d208d	-0.07672224
250	0x3b760079	0.0037536903
251	0xbdaa0281	-0.08301259
252	0xbbcaa6cb	-0.006184434
253	0xbd872151	-0.065981515
254	0xbdbafbfd	-0.09130094
255	0xbcc768fe	-0.024342056
