src/Backend-Information/Clod-weather_predict/Liaoning_lstm_model.pth (torch, 208379 bytes, 11 tensors)

lstm.weight_ih_l0 f4 [256, 3]
-0.027771292 0.09890523 0.009575963 -0.119684145 0.028802972 0.09607406 0.05020464 0.09067502
-0.12031765 -0.08713987 0.11229715 0.10334636 0.05163134 0.05373576 -0.08150244 -0.117321
-0.11241866 -0.09442811 -0.1297051 0.119042285 0.008483395 0.13561718 0.045956597 -0.0913658
-0.10538348 0.03394073 -0.04852386 0.058619946 0.123884 -0.1117408 0.013827098 -0.0940192
0.02505584 0.03741658 0.07486142 -0.096628755 0.060421202 -0.10796047 -0.016674891 0.069515035
0.015583349 -0.051251084 -0.05206167 -0.04175049 0.11400086 -0.076761074 0.003355759 0.019965053
-0.015268522 -0.11870196 0.08336741 0.013825963 -0.052127823 -0.069387704 -0.039997645 -0.059149425
0.08102965 0.051868666 0.01626049 -0.0791388 0.12855382 -0.01752528 -0.013747394 0.076641835
0.14363971 0.041420266 -0.10271799 -0.080253966 0.05722837 -0.008682962 -0.12339726 -0.03570296
-0.057000913 -0.032784652 -0.08868374 -0.068069234 -0.032601435 -0.006389469 0.05701181 -0.04678727
-0.073469415 0.084776506 0.035246644 0.03975153 -0.15613446 0.0022769321 -0.035544008 -0.09358379
0.014819079 -0.10817364 -0.083401434 0.04858146 0.027755424 0.08469476 -0.12030259 -0.055953667
0.01555369 -0.1035103 -0.02490522 -0.033415116 -0.09914474 -0.06484707 -0.09581196 -0.0044204923
0.08642818 -0.016063256 0.04051919 0.041075274 -0.118986614 0.00257546 0.10934736 -0.041680887
-0.13327917 0.0771907 -0.017717343 0.060252365 -0.12089674 -0.050488334 0.056551907 -0.0034181178
-0.115414314 -0.043979533 -0.048343554 0.006405758 -0.029716989 0.054930106 -0.069504604 -0.14788678
0.053124756 -0.06514529 0.059306398 0.10438907 -0.0021963473 -0.026718723 -0.11400549 -0.03718308
-0.056486644 -0.016245037 0.072661966 -0.04025512 0.04355502 0.015589742 0.041672565 -0.10219966
-0.050659083 0.06021586 -0.04569228 0.08154306 -0.039336413 -0.004047781 -0.13477245 0.049545992
0.03399211 -0.021899128 0.023928652 -0.04626538 0.061098516 -0.018453656 0.014084801 -0.025088295
-0.058918074 -0.040212885 -0.054364108 -0.018810114 0.044467017 0.031526748 -0.07003369 -0.07205504
0.041394874 -0.0756874 -0.06378819 0.021946056 0.044977088 -0.10869461 0.054252595 -0.017258214
0.116118 -0.057553932 0.066755936 0.049822137 0.01823973 -0.03627497 -0.08253826 -0.08069078
0.07314959 -0.03757 -0.09649751 0.07136764 0.08863704 0.1057036 0.08860258 -0.061065882
0.021196837 -0.09273953 0.025997698 -0.020132825 -0.07312529 0.10265805 -0.036719933 0.11097404
-0.10344207 -0.06662951 0.16471972 -0.05160536 0.08769718 0.085129865 -0.09484315 0.024873031
-0.058505584 0.10770412 -0.06852688 0.025962157 0.11142817 -0.07140451 0.0478805 0.058182463
-0.07961912 -0.099139765 -0.018976867 -0.059274513 0.082802266 -0.0884112 0.12247672 -0.056527287
-0.09824693 0.08955058 -0.031081485 -0.030096471 0.082497604 -0.16499846 0.045351654 -0.04769983
-0.011623823 -0.05911748 0.061158795 0.07804391 -0.0166509 0.1250233 -0.13911133 0.11489752
0.1028716 0.04097779 0.12226318 0.020317262 0.093407996 0.114859655 0.081324 -0.061942358
-0.031433865 -0.15949616 0.06426866 -0.057052717 0.08883679 -0.14402196 0.06969909 -0.013212759
00000000: 9f80 e3bc d38e ca3d 80e4 1c3c f61c f5bd
00000010: 36f4 eb3c 7ac2 c43d 61a3 4d3d d3b3 b93d
00000020: 1a69 f6bd 6376 b2bd 0cfc e53d 42a7 d33d
00000030: 627b 533d 071a 5c3d c0ea a6bd fe45 f0bd
00000040: c13b e6bd 8663 c1bd 6ad1 04be 71cc f33d
00000050: f0fd 0a3c 3bdf 0a3e fc3c 3c3d fe1d bbbd
00000060: 4bd3 d7bd 6f05 0b3d f4c0 46bd 781b 703d
00000070: e5b6 fd3d 5cd8 e4bd 0d8b 623c 238d c0bd
00000080: e841 cd3c 2142 193d f250 993d 4ce5 c5bd
00000090: 397c 773d 611a ddbd c899 88bc e65d 8e3d
000000a0: 4e51 7f3c a8ec 51bd 9e3e 55bd 9002 2bbd
000000b0: 4879 e93d e934 9dbd 4bec 5b3b c08d a33c
000000c0: d328 7abc 031a f3bd 88bc aa3d 4b86 623c
000000d0: fc83 55bd 241b 8ebd 92d4 23bd ab46 72bd
000000e0: e0f2 a53d 3d74 543d b834 853c 8613 a2bd
000000f0: 9da3 033e 2d91 8fbc c03c 61bc 65f6 9c3d
00000100: 4a16 133e 4ca8 293d cf5d d2bd 315c a4bd
00000110: 4c68 6a3d fb42 0ebc b4b7 fcbd 443d 12bd
00000120: ca79 69bd 3349 06bd d29f b5bd e267 8bbd
00000130: 1589 05bd c05e d1bb 3785 693d 02a4 3fbd
00000140: 2277 96bd 4e9f ad3d c95e 103d 80d2 223d
00000150: b6e1 1fbe 9538 153b 9896 11bd dca8 bfbd
00000160: b9cb 723c 248a ddbd 5fce aabd 5afd 463d
00000170: 585f e33c 7274 ad3d 3461 f6bd ac2f 65bd
00000180: e7d4 7e3c 35fd d3bd 0806 ccbc 4ade 08bd
00000190: 660c cbbd 8ace 84bd 1039 c4bd c7d9 90bb
000001a0: 4201 b13d 1797 83bc 73f7 253d 8c3e 283d
000001b0: 41af f3bd 0cc9 283b 82f1 df3d 94b9 2abd
000001c0: 567a 08be 2816 9e3d f623 91bc 2fcb 763d
000001d0: b698 f7bd dbcc 4ebd f9a2 673d 8002 60bb
000001e0: 575e ecbd e223 34bd e403 46bd 65e7 d13b
000001f0: 0b71 f3bc 64fe 603d 6e58 8ebd a26f 17be
00000200: 5899 593d e56a 85bd 44eb 723d f0c9 d53d
00000210: 98f0 0fbb 39e1 dabc b67b e9bd 494d 18bd
00000220: 8a5e 67bd 5014 85bc cccf 943d 8de2 24bd
00000230: c066 323d 1e6c 7f3c dab0 2a3d 0e4e d1bd
00000240: e67f 4fbd e8a4 763d d427 3bbd 0c00 a73d
00000250: 381f 21bd 40a3 84bb ca01 0abe bdf0 4a3d
00000260: 503b 0b3d cd65 b3bc 0506 c43c c480 3dbd
00000270: 7042 7a3d 1f2c 97bc f0c3 663c f885 cdbc
00000280: 1454 71bd 44b6 24bd e6ac 5ebd ab17 9abc
00000290: 0c23 363d 3122 013d d36d 8fbd 9891 93bd
000002a0: ac8d 293d ff01 9bbd 62a3 82bd 37c8 b33c
000002b0: e539 383d 489b debd f837 5e3d 1961 8dbc
000002c0: 46cf ed3d acbd 6bbd 56b7 883d 4c12 4c3d
000002d0: 7c6b 953c 1095 14bd d209 a9bd 3541 a5bd
000002e0: 74cf 953d 00e3 19bd 7da0 c5bd 3229 923d
000002f0: 5687 b53d 217b d83d 4575 b53d 3820 7abd
00000300: fda4 ad3c 39ee bdbd 20f9 d43c 98ed a4bc
00000310: b6c2 95bd 623e d23d a467 16bd 5c46 e33d
00000320: 70d9 d3bd 0d75 88bd 49ac 283e 2460 53bd
00000330: 949a b33d 9158 ae3d 203d c2bd 87c2 cb3c
00000340: 8da3 6fbd fa93 dc3d d257 8cbd 97ae d43c
00000350: 7434 e43d 873c 92bd 581e 443d bc50 6e3d
00000360: 590f a3bd ca09 cbbd 6075 9bbc d5c9 72bd
00000370: 3c94 a93d ee10 b5bd 13d5 fa3d 2889 67bd
00000380: b035 c9bd 4b66 b73d 999e febc e08c f6bc
00000390: 81f4 a83d 5bf5 28be a8c2 393d e660 43bd
000003a0: d971 3ebc 2c25 72bd a581 7a3d 7cd5 9f3d
000003b0: 7867 88bc 1c06 003e 3373 0ebe 644f eb3d
000003c0: 58ae d23d 54d8 273d 1e65 fa3d 6370 a63c
000003d0: b14c bf3d 8a3b eb3d 338d a63d 45b7 7dbd
000003e0: ccc0 00bd f652 23be 4a9f 833d 1cb0 69bd
000003f0: 10f0 b53d 7e7a 13be 66be 8e3d 547a 58bc

lstm.weight_hh_l0 f4 [256, 64]
0.04862856 -0.14238688 -0.018371707 0.0026847846 0.08206448 -0.11005231 -0.0077209393 -0.07531054
-0.13505197 -0.025493613 0.13720468 0.11292101 0.00067530916 -0.052582964 -0.031316772 -0.11441722
0.07187984 -0.011320832 -0.069986574 -0.07123317 -0.15993543 -0.07973342 0.034783427 -0.056972526
0.004010803 -0.053155385 -0.029451663 0.003693073 -0.04283804 0.025801964 -0.07769174 -0.052070722
0.055372935 -0.12960117 0.063280806 -0.027287561 0.06820897 0.14410938 -0.005965784 -0.0550917
-0.02564277 -0.123074874 -0.052702192 0.048994087 -0.10021318 -0.15227172 -0.039056506 0.03681045
-0.09356121 0.08491788 -0.06973336 0.047867056 -0.11189491 -0.04747315 -0.060651492 -0.12989555
-0.12500124 -0.07181765 -0.0097700935 -0.053645667 -0.11247744 -0.11716366 0.11182386 0.06365907
-0.12294004 -0.0588756 0.11380749 0.06572656 -0.0040032794 -0.010616504 0.02826651 -0.005326635
0.080488436 -0.11434179 -0.11000467 0.12555493 0.009344716 -0.07027771 -0.021148827 0.08364152
-0.11782989 -0.047930796 0.07372395 0.08876719 0.05270494 -0.011909047 -0.017583324 0.03324391
0.011031524 0.07536232 -0.09250639 -0.007275382 -0.10948296 0.03894778 -0.03867861 -0.14762603
0.13351972 -0.018154822 0.07159124 -0.057204284 -0.055011947 0.061783228 -0.014525915 -0.14495407
0.07491151 0.027474144 -0.12178562 -0.15456171 -0.079560585 0.14435345 0.01754054 -0.017052682
0.09765832 -0.102971785 -0.04104363 0.061139014 -0.076687835 0.056171205 -0.06676398 -0.06386769
0.07546793 -0.15310404 0.022012616 -0.071976386 0.08692343 -0.1167001 0.003319464 -0.06010066
0.04031085 -0.009221957 -0.09911418 -0.085658856 0.05090743 0.102094844 -0.10802516 -0.09077658
-0.019047413 0.03680681 -0.09249264 -0.0356694 0.089522436 0.10011174 0.0043766894 0.01331589
0.12098106 -0.009473804 -0.0016455826 -0.024707792 -0.0859478 -0.14848067 -0.040197894 0.13664022
-0.065610066 0.0831566 -0.11053577 0.006337701 -0.14705443 0.036879715 0.14653 -0.03961587
-0.08031065 0.07314896 -0.052867934 0.0042901225 0.13386059 -0.05946244 -0.056200672 0.0024275938
0.03286406 0.011027372 -0.09112517 -0.06701445 -0.044018526 0.0504953 -0.031596348 0.038885083
-0.062313218 0.04468352 0.07179462 0.03755778 -0.08755395 0.10409909 -0.015550711 0.14259385
-0.09912934 -0.032733575 0.00029107125 -0.023318574 -0.06125537 -0.012187637 0.115340285 0.13274626
0.023425767 0.1353317 0.09197664 -0.0028963848 0.111002885 -0.07770096 -0.044952724 -0.014789579
0.020099862 -0.021867711 -0.08294827 -0.008017419 -0.08239711 -0.10810371 -0.05901964 -0.060886543
-0.08007271 -0.04357991 -0.08223504 0.03866943 0.007433217 -0.12049925 -0.0012406863 -0.083554454
0.15078935 0.03813444 -0.12780067 0.005383734 0.054557327 0.00871888 0.0812853 -0.03398473
0.07512618 -0.15459973 0.08136993 0.032142 0.107834786 0.0741025 0.120063074 -0.15345187
0.019346371 -0.05853417 -0.15229759 -0.12872846 -0.15657245 0.09738022 0.031685114 -0.033691633
0.045043893 0.01906355 -0.00095314207 0.03158467 -0.054335445 0.028738417 0.10524646 0.0934967
0.030622989 -0.0008937422 -0.049711302 0.07334485 0.09478817 -0.07217449 0.14376278 0.08324031
00000000: be2e 473d decd 11be 4380 96bc 36f3 2f3b
00000010: 6c11 a83d 1b63 e1bd efff fcbb 6a3c 9abd
00000020: 104b 0abe fbd7 d0bc 627f 0c3e 2143 e73d
00000030: 3b07 313a 3c61 57bd 0446 00bd 9353 eabd
00000040: bd35 933d 037b 39bc 1f55 8fbd b2e2 91bd
00000050: 1dc6 23be 464b a3bd 1179 0e3d 065c 69bd
00000060: 0e6d 833b 76b9 59bd 9d44 f1bc 7c07 723b
00000070: f176 2fbd a45e d33c d91c 9fbd 1c48 55bd
00000080: bbce 623d 2bb6 04be 5e99 813d 2a8a dfbc
00000090: 25b1 8b3d 6991 133e a07c c3bb d6a7 61bd
000000a0: c910 d2bc ae0e fcbd 41de 57bd 06ae 483d
000000b0: 913c cdbd 1eed 1bbe b7f9 1fbd 8ec6 163d
000000c0: 059d bfbd 6de9 ad3d 5dd0 8ebd 3f10 443d
000000d0: 2929 e5bd 3573 42bd b36d 78bd 5703 05be
000000e0: 5300 00be 2215 93bd be12 20bc 8fbb 5bbd
000000f0: 925a e6bd 80f3 efbd e803 e53d b05f 823d
00000100: fdc7 fbbd 8b27 71bd e713 e93d a69b 863d
00000110: f12d 83bb d8f0 2dbc 2b8f e73c 0e8b aebb
00000120: 1fd7 a43d 072c eabd 214a e1bd 7991 003e
00000130: 941a 193c c3ed 8fbd 4e40 adbc 3f4c ab3d
00000140: cc50 f1bd 1553 44bd 95fc 963d 93cb b53d
00000150: 23e1 573d 2a1e 43bc e70a 90bc c42a 083d
00000160: 91bd 343c 8f57 9a3d fd73 bdbd 5466 eebb
00000170: 9a38 e0bd b587 1f3d 766d 1ebd 472b 17be
00000180: 65b9 083e 6cb9 94bc 6e9e 923d 0a4f 6abd
00000190: 3554 61bd 6910 7d3d 1afe 6dbc d76e 14be
000001a0: 356b 993d 7511 e13c bd6a f9bd 6d45 1ebe
000001b0: a9f0 a2bd 64d1 133e 2eb1 8f3c 11b2 8bbc
000001c0: 1601 c83d dfe2 d2bd 5e1d 28bd e76c 7a3d
000001d0: 830e 9dbd c713 663d 8ebb 88bd 10cd 82bd
000001e0: ee8e 9a3d 4ec7 1cbe cd53 b43c 5b68 93bd
000001f0: e904 b23d 7600 efbd 5d8b 593b 1c2c 76bd
00000200: fd1c 253d b117 17bc 60fc cabd e96d afbd
00000210: 4f84 503d 1a17 d13d 4c3c ddbd 12e9 b9bd
00000220: 5209 9cbc bdc2 163d c86c bdbd 141a 12bd
00000230: 8a57 b73d 6207 cd3d 556a 8f3b e42a 5a3c
00000240: ebc4 f73d 0438 1bbc 97b0 d7ba ff67 cabc
00000250: 6605 b0bd 510b 18be 8ca6 24bd 6aeb 0b3e
00000260: 925e 86bd 024e aa3d 9460 e2bd 7dac cf3b
00000270: 7095 16be 2f0f 173d f60b 163e 4044 22bd
00000280: e979 a4bd 1fcf 953d 0c8c 58bd 2894 8c3b
00000290: c012 093e e38e 73bd ad32 66bd 4418 1f3b
000002a0: 779c 063d 27ac 343c d59f babd df3e 89bd
000002b0: c54c 34bd 29d4 4e3d 2c6b 01bd f745 1f3d
000002c0: 253c 7fbd 1106 373d 0f09 933d 30d6 193d
000002d0: 7c4f b3bd e731 d53d 69c8 7ebc 1f04 123e
000002e0: 5304 cbbd a413 06bd ec9a 9839 9806 bfbc
000002f0: e9e6 7abd a8ae 47bc 8737 ec3d a3ee 073e
00000300: 65e7 bf3c 6594 0a3e 405e bc3d 46d1 3dbb
00000310: 7b55 e33d ae21 9fbd 5920 38bd fe4f 72bc
00000320: 77a8 a43c ea23 b3bc c8e0 a9bd 7e5b 03bc
00000330: d1bf a8bd 7a65 ddbd 94be 71bd 2b64 79bd
00000340: 29fd a3bd d980 32bd d86a a8bd d663 1e3d
00000350: 5892 f33b 50c8 f6bd 869e a2ba 991e abbd
00000360: 8668 1a3e dc32 1c3d 2ede 02be 096a b03b
00000370: 8177 5f3d a2d9 0e3c e878 a63d 9233 0bbd
00000380: c1db 993d 644f 1ebe 47a5 a63d 54a7 033d
00000390: 7cd8 dc3d 0dc3 973d a1e3 f53d 7d22 1dbe
000003a0: 487c 9e3c 87c1 6fbd e6f3 1bbe 65d1 03be
000003b0: 8754 20be 486f c73d 40c8 013d 3d00 0abd
000003c0: f27f 383d 292b 9c3c 48dc 79ba ed5e 013d
000003d0: d88e 5ebd d46c eb3c 758b d73d 337b bf3d
000003e0: 10dd fa3c 064a 6aba 149e 4bbd d335 963d
000003f0: 4d20 c23d 38d0 93bd 8d36 133e e579 aa3d

lstm.bias_ih_l0 f4 [256]
0.021234341 0.0072128084 0.020563688 0.13669656 0.07131387 0.028130192 -0.009894656 0.1418977
0.063916445 0.05647907 0.16005953 0.12982725 -0.021626012 -0.07326583 0.041111797 -0.08200382
-0.009536966 0.0767109 -0.008291661 0.05349689 -0.009092991 0.03362498 0.07499294 -0.043368764
0.021618456 -0.025405873 0.07052724 0.1323157 0.018145263 -0.08700219 0.034948274 -0.012630401
0.10150056 0.098937385 -0.06779497 -0.008167449 0.116855666 0.06260479 -0.09232659 -0.025804384
0.04452659 0.15484504 0.0018420779 0.061613545 -0.018468454 -0.043697685 0.058061164 -0.079807796
0.06496983 -0.03317276 0.09673125 0.00091873197 -0.026512807 -0.05970356 0.12198967 -0.0073173586
0.038774353 -0.008753405 0.098924205 0.13820155 -0.08171688 0.026335644 -0.08251879 0.080866486
-0.10924319 0.058014717 0.14602816 0.073493846 0.07081459 0.021991994 -0.086407036 0.082747266
0.041246023 0.075909734 -0.0037324284 -0.1030628 0.065088116 0.08687901 0.0010380804 0.10277419
0.0745646 -0.092484966 -0.0061714225 -0.0011387018 0.029863384 -0.067001395 0.08228805 0.10433385
0.04195062 -0.07884629 -0.08236141 -0.022369595 -0.04662581 -0.09090239 0.01101542 0.07029115
0.03760014 -0.032963093 0.11716384 0.06998767 0.022206316 0.15356135 0.117815875 -0.07035317
-0.116794795 -0.010458122 0.022722727 0.09609763 -0.107534565 -0.105889186 -0.03383921 -0.08354718
-0.016309692 -0.07198715 -0.029994383 -0.037035756 0.011957461 -0.062219445 0.0035935089 0.1561833
0.071980976 0.00728129 0.08465232 -0.0710763 0.06802324 -0.089265876 -0.07237202 0.11081399
-0.064433955 0.08491178 -0.05913727 0.03048317 -0.017171586 -0.04267288 -0.12821019 -0.05833801
-0.09800079 -0.023846878 0.10551894 0.020388411 -0.0002737974 0.06885962 0.11723744 -0.009696888
-0.087839104 0.0125404615 -0.017684216 0.082886145 -0.124350965 0.017950367 0.041185845 0.11627937
0.088788025 0.014184046 0.07465546 -0.0694028 -0.12542045 0.014379254 0.14695105 0.028330952
-0.00018956582 -0.029220091 0.05351024 -0.070214465 0.0074242125 0.029103749 0.0108795585 -0.09449947
-0.05730787 -0.08438691 -0.0762927 -0.07403643 -0.08689621 0.07673379 0.0624596 0.08253954
-0.022158662 0.005513321 0.055600055 0.11946557 0.048313204 0.049958833 0.07382594 -0.014190497
0.053513806 -0.108212866 -0.089624025 -0.047823347 0.10694008 -0.0029261059 0.08472857 0.039258234
0.082928054 -0.07837828 -0.094392516 -0.043137487 0.15257595 0.07219801 -0.03054766 0.01405872
-0.048530996 0.10934978 0.011988603 -0.016691124 0.10529952 -0.034000657 0.11307866 0.04016632
-0.07745153 -0.057058983 -0.053570073 0.04165479 0.023255156 -0.045492735 -0.022941196 -0.044270158
-0.026309296 0.11585988 0.026930032 -0.01478981 0.1596211 0.07101688 -0.004131349 0.118979454
0.11727639 0.085088715 -0.026291097 0.11989999 0.13872795 0.11762536 0.02123616 -0.012634244
-0.07678928 0.11388239 -0.036408387 -0.101218395 0.100207575 0.07609802 0.05600604 -0.07959719
-0.03113414 0.027797347 0.039469793 0.05615116 0.008631594 -0.051633727 -0.012542833 0.04869586
0.015465475 -0.06991202 0.073460594 -0.0917121 0.076365165 0.133355 -0.099657156 0.043180026
00000000: a4f3 ad3c 6c59 ec3b 2e75 a83c 2ffa 0b3e
00000010: 020d 923d 4a71 e63c 321d 22bc a14d 113e
00000020: a0e6 823d 9956 673d a5e6 233e 6ff1 043e
00000030: 0929 b1bc 650c 96bd d864 283d 9ef1 a7bd
00000040: ef40 1cbc 9b1a 9d3d bfd9 07bc 8e1f 5b3d
00000050: c5fa 14bc 59ba 093d e695 993d 72a3 31bd
00000060: 3019 b13c fa1f d0bc 9670 903d c47d 073e
00000070: 60a5 943c 342e b2bd ec25 0f3d beef 4ebc
00000080: 87df cf3d af9f ca3d 17d8 8abd c4d0 05bc
00000090: 0652 ef3d f136 803d b915 bdbd b763 d3bc
000000a0: 8361 363d b38f 1e3e e171 f13a 7c5e 7c3d
000000b0: 284b 97bc 58fc 32bd 8bd1 6d3d 4572 a3bd
000000c0: e70e 853d 29e0 07bd 091b c63d 0fd7 703a
000000d0: 6331 d9bc b88b 74bd b8d5 f93d 74c6 efbb
000000e0: dbd1 1e3d 716a 0fbc c698 ca3d b584 0d3e
000000f0: 2e5b a7bd d9bd d73c 9dff a8bd 549d a53d
00000100: e5ba dfbd d7a0 6d3d 6888 153e f183 963d
00000110: 3d07 913d 8e28 b43c 2cf6 b0bd 6677 a93d
00000120: 97f1 283d 9076 9b3d c29b 74bb 9712 d3bd
00000130: eb4c 853d 9fed b13d 3310 883a 467b d23d
00000140: 53b5 983d c268 bdbd a539 cabb 7e40 95ba
00000150: 0ea4 f43c 0738 89bd a386 a83d fcac d53d
00000160: 6ad4 2b3d 2a7a a1bd 19ad a8bd 7140 b7bc
00000170: b5fa 3ebd 082b babd 057a 343c cef4 8f3d
00000180: 9b02 1a3d 4f04 07bd 98f3 ef3d b255 8f3d
00000190: 05ea b53c 303f 1d3e 7349 f13d 5315 90bd
000001a0: 1c32 efbd 8b58 2bbc 0325 ba3c d6ce c43d
000001b0: 153b dcbd 6edc d8bd fc9a 0abd c91a abbd
000001c0: e79b 85bc 006e 93bd c8b6 f5bc ceb2 17bd
000001d0: 3ae9 433c d1d9 7ebd 1381 6b3b 84ee 1f3e
000001e0: c36a 933d e397 ee3b 325e ad3d 7490 91bd
000001f0: c54f 8b3d 07d1 b6bd c837 94bd 72f2 e23d
00000200: f3f5 83bd 3ae6 ad3d ec39 72bd d7b7 f93c
00000210: 6dab 8cbc c2c9 2ebd 8849 03be d6f3 6ebd
00000220: a3b4 c8bd 875a c3bc 501a d83d 9905 a73c
00000230: 778c 8fb9 4606 8d3d 2f1a f03d b2df 1ebc
00000240: fde4 b3bd 8276 4d3c 7dde 90bc 36c0 a93d
00000250: b8ab febd a60c 933c 7db2 283d e123 ee3d
00000260: 7fd6 b53d 3364 683c f6e4 983d 0e23 8ebd
00000270: 386e 00be f696 6b3c 567a 163e 5016 e83c
00000280: 30c6 46b9 f95e efbc 8e2d 5b3d 9acc 8fbd
00000290: cf46 f33b fc6a ee3c 2d40 323c f088 c1bd
000002a0: a8bb 6abd 0bd3 acbd 593f 9cbd 69a0 97bd
000002b0: a4f6 b1bd 9b26 9d3d a3d5 7f3d 7e0a a93d
000002c0: 1586 b5bc 17a9 b43b e2bc 633d 5daa f43d
000002d0: 11e4 453d a2a1 4c3d 0e32 973d 427f 68bc
000002e0: 4b31 5b3d b59e ddbd cd8c b7bd 6ae2 43bd
000002f0: 6703 db3d e9c3 3fbb 2c86 ad3d 3ecd 203d
00000300: 2fd6 a93d cb84 a0bd dd50 c1bd efb0 30bd
00000310: df3c 1c3e 8ddc 933d 163f fabc 8c56 663c
00000320: 70c8 46bd c7f2 df3d d86b 443c d3bb 88bc
00000330: 46a7 d73d 4644 0bbd c995 e73d 7085 243d
00000340: e89e 9ebd aeb6 69bd 4b6c 5bbd 379e 2a3d
00000350: 9981 be3c 9756 3abd 2def bbbc a054 35bd
00000360: 9886 d7bc f247 ed3d 5f9c dc3c f650 72bc
00000370: b773 233e 4c71 913d 4460 87bb 80ab f33d
00000380: 9b2e f03d fe42 ae3d 6d60 d7bc 208e f53d
00000390: b30e 0e3e 91e5 f03d 75f7 ad3c dcff 4ebc
000003a0: b343 9dbd 2c3b e93d f620 15bd 974b cfbd
000003b0: a139 cd3d 47d9 9b3d 9766 653d da03 a3bd
000003c0: 060d ffbc 43b7 e33c 14ab 213d c2fe 653d
000003d0: 876b 0d3c e37d 53bd 7480 4dbc 4f75 473d
000003e0: e762 7d3c 082e 8fbd 8272 963d 8ed3 bbbd
000003f0: 5765 9c3d 378e 083e 0d19 ccbd 8add 303d

lstm.bias_hh_l0 f4 [256]
-0.05517481 -0.060239978 0.14241084 -0.052375413 0.054342516 -0.05974382 0.11379764 0.011330629
-0.048576556 0.066655226 0.082444996 -0.064713575 0.07124593 -0.07622719 0.083800755 -0.024584092
0.048708174 -0.07983917 -0.07771966 -0.016111461 -0.047429077 0.044769157 0.12928016 -0.041402623
0.087313406 0.030843547 -0.012089559 -0.014651049 0.14155138 -0.035443153 0.0010672281 0.001700353
0.07024647 -0.111020334 -0.07771481 0.043066315 -0.07655383 0.114835136 -0.077899136 0.040087227
-0.12826553 -0.000421122 -0.04403335 -0.0072771157 -0.06341505 -0.06617428 0.018249145 -0.09456389
0.059308067 -0.05588713 0.021750504 0.007587139 0.042721152 -0.060408413 0.053993564 0.0656425
0.1094242 0.03235587 -0.07409135 0.0827126 0.1433219 0.040591598 0.074641176 -0.12198408
0.095208414 -0.03609231 0.057972178 0.00034852675 -0.07426918 0.011350393 -0.020461125 0.023322996
0.056684263 0.1041607 -0.014408009 -0.04358076 0.010093858 -0.039728962 0.1255561 -0.106067844
0.01766578 -0.094795145 -0.07807254 0.028686073 0.08628266 0.07961503 0.02693023 -0.083506845
0.113351054 -0.019264212 -0.028463377 0.10351683 0.03285928 -0.052484978 0.12284456 0.06356268
0.0028625305 0.035309486 0.15400882 -0.00038209037 -0.0055002025 -0.024206452 0.051064055 -0.013824549
0.036921263 0.09067453 -0.011508294 -0.06678933 -0.06317023 0.04389552 0.057732888 -0.01179922
0.027075032 -0.028635105 0.11065888 0.011506079 0.14672954 -0.052381188 0.07421022 0.004702149
0.11988751 0.07130665 -0.08989818 0.020489722 0.12059542 0.11269378 0.05948679 0.16657484
-0.057263426 0.05484888 0.1015491 0.008905888 0.03717182 -0.04221069 -0.12701188 0.033566155
-0.02493608 -0.027181637 -0.041274276 0.11442368 -0.09392092 -0.055011705 0.022878213 -0.090581864
0.118768364 0.031892143 0.0642781 0.1148548 0.08520843 -0.06225588 -0.015725354 0.06756279
-0.11279138 0.09100648 -0.14191285 0.00091523107 0.054593775 0.061119754 0.082010075 -0.11428632
0.087082125 -0.057381168 -0.016976807 -0.05970386 0.0027603568 -0.013815913 0.06692186 -0.08672638
-0.034942597 0.09475235 0.040061947 -0.07474971 -0.100080684 0.08569821 -0.061040003 -0.02857225
0.08665706 -0.035836685 -0.061405335 -0.008610657 0.015431014 0.0023807492 -0.07651036 0.06529495
0.003276116 -0.032565698 -0.08254764 -0.024177993 0.14671588 -0.09274186 -0.023409458 -0.04972612
-0.1107796 0.10344576 -0.09838497 0.06200593 0.13320516 -0.051162302 0.035318926 -0.07978741
-0.11225259 -0.015014587 0.021772038 -0.012158024 -0.06277984 0.13261682 -0.0041678404 -0.103122495
0.010623874 0.011676339 -0.0066877864 -0.10460595 0.093854256 0.14558828 0.11128597 0.1465077
-0.071158856 -0.07911607 0.10333246 -0.024647275 0.111462414 -0.06372782 -0.10164425 0.051112264
-0.07620133 0.004803262 0.030164978 0.07093817 0.13330576 0.12769015 0.08324351 -0.08884283
-0.03835456 0.14799349 0.04225162 -0.05803653 0.1125542 0.004938353 0.00084586965 0.028270755
0.095741615 0.1139973 0.058161654 0.05338394 -0.05693207 -0.06728893 0.09691026 0.086532794
0.06272271 0.1282637 -0.01988449 0.05971376 0.050214425 0.0072070304 -0.06423938 0.07404224
00000000: fbfe 61bd 32be 76bd 26d4 113e 9a87 56bd
00000010: 4296 5e3d f0b5 74bd bd0e e93d 1aa4 393c
00000020: 36f8 46bd 8982 883d ecd8 a83d 8d88 84bd
00000030: 63e9 913d 001d 9cbd bb9f ab3d 9464 c9bc
00000040: 3982 473d b882 a3bd 7c2b 9fbd 2ffc 83bc
00000050: fe44 42bd dd5f 373d 0562 043e cc95 29bd
00000060: 5fd1 b23d 9bab fc3c 4913 46bc f40a 70bc
00000070: d8f2 103e d72c 11bd 3ce2 8b3a 61de de3a
00000080: 62dd 8f3d a15e e3bd f128 9fbd 4e66 303d
00000090: 41c8 9cbd af2e eb3d 9589 9fbd 8132 243d
000000a0: 0a58 03be 0aca dcb9 505c 34bd df74 eebb
000000b0: c0df 81bd 6286 87bd 3b7f 953c b6aa c1bd
000000c0: 04ed 723d e7e9 64bd 1d2e b23c 899d f83b
000000d0: 60fc 2e3d d06e 77bd 5b28 5d3d 936f 863d
000000e0: cc19 e03d 9787 043d 35bd 97bd 3965 a93d
000000f0: fac2 123e 6043 263d 79dd 983d cad2 f9bd
00000100: a1fc c23d 88d5 13bd 3c74 6d3d 78ba b639
00000110: 711a 98bd 00f7 393c 179e a7bc de0f bf3c
00000120: c22d 683d 3552 d53d 920f 6cbc bd81 32bd
00000130: b660 253c d6ba 22bd c791 003e 193a d9bd
00000140: d3b7 903c f523 c2bd 7fe4 9fbd 0eff ea3c
00000150: f7b4 b03d 340d a33d c99c dc3c a305 abbd
00000160: 9924 e83d fbcf 9dbc 072c e9bc a200 d43d
00000170: 7497 063d 7dfa 56bd ee95 fb3d 262d 823d
00000180: 4b99 3b3b aea0 103d 7db4 1d3e 4d53 c8b9
00000190: 0b3b b4bb 9c4c c6bc 8b28 513d 5c80 62bc
000001a0: c03a 173d 91b3 b93d 498d 3cbc d8c8 88bd
000001b0: 655f 81bd cacb 333d 5279 6c3d 8451 41bc
000001c0: 75cc dd3c 2b94 eabc 1fa1 e23d fe83 3c3c
000001d0: 4540 163e a88d 56bd 87fb 973d 7c14 9a3b
000001e0: 9587 f53d 3909 923d 891c b8bd 10da a73c
000001f0: bbfa f63d ffcb e63d 6ca8 733d 9892 2a3e
00000200: 0e8d 6abd 38a9 603d f9f8 cf3d 00ea 113c
00000210: 7a41 183d 1ee5 2cbd 670f 02be aa7c 093d
00000220: c046 ccbc 06ac debc 370f 29bd f656 ea3d
00000230: 9c59 c0bd f453 61bd 176b bb3c fc82 b9bd
00000240: d43c f33d 56a1 023d 3da4 833d fe38 eb3d
00000250: c281 ae3d 0600 7fbd 75d2 80bc 5c5e 8a3d
00000260: 2bff e6bd 9b61 ba3d 9a51 11be 1eec 6f3a
00000270: b99d 5f3d b558 7a3d e6f4 a73d f20e eabd
00000280: 1d58 b23d 8408 6bbd f212 8bbc 098c 74bd
00000290: 1ae7 343b 245c 62bc 540e 893d 9a9d b1bd
000002a0: f81f 0fbd 850d c23d ff17 243d 6016 99bd
000002b0: 1af7 ccbd 8b82 af3d 1505 7abd 5a10 eabc
000002c0: 4279 b13d 7dc9 12bd 2984 7bbd b713 0dbc
000002d0: 5dd2 7c3c 5806 1c3b 77b1 9cbd 5cb9 853d
000002e0: 1bb4 563b 9c63 05bd bd0e a9bd ed10 c6bc
000002f0: b03c 163e 72ef bdbd 31c5 bfbc 9ead 4bbd
00000300: 6ae0 e2bd 5fdb d33d 0f7e c9bd eef9 7d3d
00000310: ef66 083e 908f 51bd 94aa 103d 9567 a3bd
00000320: b0e4 e5bd beff 75bc 465b b23c 7332 47bc
00000330: b792 80bd b4cc 073e 6192 88bb e331 d3bd
00000340: c20f 2e3c 1e4e 3f3c 3825 dbbb a53b d6bd
00000350: a936 c03d 1815 153e e6e9 e33d 1d06 163e
00000360: bcbb 91bd 9b07 a2bd f89f d33d 15e9 c9bc
00000370: 6846 e43d bb83 82bd dc2a d0bd 185b 513d
00000380: 710f 9cbd af64 9d3b 8b1c f73c 0848 913d
00000390: 4e81 083e 35c1 023e 937b aa3d 3bf3 b5bd
000003a0: ac19 1dbd 9b8b 173e 0910 2d3d b6b7 6dbd
000003b0: d182 e63d e8d1 a13b 5abd 5d3a 1298 e73c
000003c0: 2e14 c43d 6b77 e93d ea3a 6e3d 1ea9 5a3d
000003d0: 9a31 69bd c7ce 89bd e378 c63d 1b38 b13d
000003e0: c474 803d 8f57 033e cce4 a2bc 6a96 743d
000003f0: a4ad 4d3d f428 ec3b f08f 83bd 75a3 973d

lstm.weight_ih_l1 f4 [256, 64]
0.07668293 -0.16847529 -0.020646371 -0.084431455 0.16384652 0.066683404 0.048358817 -0.07808365
-0.010497569 0.13758963 0.12504949 -0.11029035 -0.10308748 -0.047779106 0.011822307 -0.12950969
-0.12827769 -0.0071850615 0.05763446 0.08374253 0.067190915 -0.026648602 -0.021603443 -0.07178787
-0.06885024 0.08864485 -0.120689884 0.13009267 0.056428287 -0.034516092 -0.119077496 0.025151554
0.0052642506 -0.07608136 0.00045166555 -0.10003135 -0.13715328 0.052001532 -0.16093494 0.09173723
-0.067915626 0.026539218 -0.13655387 0.033812292 0.11410139 -0.041342318 0.10395759 0.1315731
0.032758318 -0.13132909 0.09227269 0.034292568 0.026829971 -0.06340068 0.073366195 -0.13941355
-0.066717766 0.08175175 -0.032113392 0.026900833 -0.16326968 -0.134518 0.11938493 -0.0026734476
0.09021015 0.012340336 -0.02933325 0.060930442 0.10992025 -0.046062604 0.11438057 -0.06243889
0.1385837 0.027146015 0.07285602 -0.018790841 -0.104218654 0.09246464 -0.08601947 -0.048638504
-0.105397806 -0.07824105 0.07943017 0.031773623 -0.123385556 0.004444392 -0.05764066 -0.00612891
0.022421991 -0.10687158 0.07282788 0.058814123 0.059563924 -0.10228577 -0.13031045 -0.014189654
0.07290434 0.026136268 -0.080608025 -0.06764952 -0.03584989 0.030842733 -0.09283741 -0.024828782
-0.017476607 -0.10250912 -0.005030777 0.014091465 -0.12990412 -0.04321781 0.13650694 -0.0056438507
0.008722235 -0.14926352 -0.027100664 -0.076065786 0.03931476 0.12904298 -0.058674898 0.07405257
0.00948682 -0.06633848 -0.10041649 -0.091285 -0.030280914 0.069858104 -0.123194955 -0.0022658696
0.046501122 0.021816475 0.06005522 0.0467015 0.0033976168 -0.10942189 0.032958087 -0.09095061
-0.10379193 0.050368275 0.14932583 0.029192768 -0.021026945 0.0038013954 0.12322921 0.011564572
-0.09289342 0.0019451025 0.0037715822 0.08614057 -0.13837951 0.033542164 -0.07656066 0.088921264
0.0400022 -0.1335003 -0.12135521 0.14267938 -0.040259045 -0.15352702 0.04061863 0.006594832
0.12371927 -0.11769219 -0.07443771 0.0029406128 -0.11665516 0.12579769 -0.15183252 0.093699835
0.070362456 -0.14769623 0.0039589438 -0.11443698 0.02723288 -0.042921923 0.08641894 -0.09518545
-0.10889334 0.001749248 -0.020903954 -0.06050588 0.013172532 -0.05651475 0.11305044 0.0331719
-0.046125833 0.08378794 0.0075683305 -0.042628624 -0.07656093 -0.09063907 -0.0391343 -0.10937608
-0.06263628 -0.016587172 -0.038347017 -0.051116306 0.13917679 0.03568349 -0.0786949 -0.14243244
-0.07831842 0.0019629472 0.0070789238 -0.06620578 0.007035182 0.010214229 0.11719879 0.05469642
-0.029764503 0.07654011 0.009547558 -0.06266748 -0.10152506 0.0072785798 0.058782138 0.15184252
-0.1290605 0.047169186 -0.087264836 0.021175852 0.057599653 -0.056893434 0.0010369441 -0.09030644
0.0028787288 -0.023015818 0.025430372 -0.030900462 -0.05905574 0.0034830254 0.084066406 -0.061601654
-0.06020186 0.07746836 -0.14777166 0.025007982 -0.07361836 0.08341333 0.007967912 0.05852877
-0.15738668 -0.137356 -0.07099727 -0.06866149 0.082518466 0.13804527 0.1453809 -0.1299635
-0.07277886 -0.07868906 -0.023685634 0.018120473 0.035233293 0.03873885 0.087723605 -0.089341894
00000000: f10b 9d3d c984 2cbe 9422 a9bc 66ea acbd
00000010: 62c7 273e 4f91 883d e513 463d 52ea 9fbd
00000020: fffd 2bbc 4ce4 0c3e f90c 003e e8df e1bd
00000030: 871f d3bd 06b4 43bd 59b2 413c 309e 04be
00000040: 3a5b 03be aa70 ebbb 1d12 6c3d 3481 ab3d
00000050: 649b 893d 2b4e dabc b4f9 b0bc 8505 93bd
00000060: 5b01 8dbd 6e8b b53d 422c f7bd 0337 053e
00000070: 5921 673d bf60 0dbd e7de f3bd a20a ce3c
00000080: bc7f ac3b 8bd0 9bbd 86cd ec39 3ddd ccbd
00000090: e971 0cbe 8fff 543d 21cc 24be bbe0 bb3d
000000a0: 5917 8bbd c668 d93c c7d4 0bbe c27e 0a3d
000000b0: fdad e93d 9056 29bd b8e7 d43d 19bb 063e
000000c0: 962d 063d 227b 06be 77f9 bc3d 5d76 0c3d
000000d0: 87ca db3c 37d8 81bd 0441 963d 6dc2 0ebe
000000e0: 53a3 88bd 766d a73d 5589 03bd 235f dc3c
000000f0: 2b30 27be 16bf 09be 1680 f43d 0235 2fbb
00000100: 19c0 b83d 1f2f 4a3c 494c f0bc 3392 793d
00000110: de1d e13d 24ac 3cbd 5c40 ea3d ecbf 7fbd
00000120: e3e8 0d3e 5261 de3c 8935 953d 40ef 99bc
00000130: 9770 d5bd 1a5e bd3d fa2a b0bd 2b39 47bd
00000140: ceda d7bd d83c a0bd 49ac a23d 0f25 023d
00000150: 91b1 fcbd 43a2 913b 9d18 6cbd 06d5 c8bb
00000160: 53ae b73c 7ddf dabd c926 953d 14e7 703d
00000170: 4df9 733d 347b d1bd 1a70 05be b97b 68bc
00000180: df4e 953d ba1b d63c d215 a5bd d58b 8abd
00000190: 56d7 12bd e6a9 fc3c 8a21 bebd bb65 cbbc
000001a0: 1a2b 8fbc 4df0 d1bd 37d9 a4bb e3df 663c
000001b0: 9605 05be 2905 31bd 7ac8 0b3e 0df0 b8bb
000001c0: b5e7 0e3c 89d8 18be 3602 debc 61c8 9bbd
000001d0: 8408 213d d823 043e 1755 70bd e0a8 973d
000001e0: 9b6e 1b3c 78dc 87bd 29a7 cdbd a1f3 babd
000001f0: ae0f f8bc c411 8f3d a34d fcbd fc7e 14bb
00000200: f677 3e3d 77b8 b23c 76fc 753d 124a 3f3d
00000210: 8daa 5e3b 9518 e0bd 0fff 063d 5044 babd
00000220: dd90 d4bd f74e 4e3d dfe8 183e ac25 ef3c
00000230: b340 acbc d520 793b 995f fc3d 5579 3d3c
00000240: e83e bebd cff2 fe3a a62c 773b 786a b03d
00000250: 5cb3 0dbe 8263 093d d6cb 9cbd 5a1c b63d
00000260: 59d9 233d 4db4 08be 1589 f8bd 8b1a 123e
00000270: abe6 24bd 3036 1dbe b85f 263d 7619 d83b
00000280: 8760 fd3d 9a08 f1bd cc72 98bd 4cb7 403b
00000290: e7e8 eebd 1cd1 003e fc79 1bbe b3e5 bf3d
000002a0: 311a 903d ae3d 17be 07ba 813b ef5d eabd
000002b0: 7d17 df3c e6ce 2fbd 6afc b03d 97f0 c2bd
000002c0: 7903 dfbd 0647 e53a c53e abbc 03d5 77bd
000002d0: 9bd1 573c 037c 67bd fd86 e73d 42df 073d
000002e0: 71ee 3cbd 0399 ab3d c2ff f73b 5a9b 2ebd
000002f0: facb 9cbd faa0 b9bd 4a4b 20bd 9100 e0bd
00000300: 7347 80bd d2e1 87bc c311 1dbd 555f 51bd
00000310: 5c84 0e3e da28 123d cb2a a1bd cfd9 11be
00000320: 6865 a0bd caa4 003b 51f6 e73b e596 87bd
00000330: 6287 e63b 9559 273c eb05 f03d 5a09 603d
00000340: b0d4 f3bc 10c1 9c3d 5c6d 1c3c cf57 80bd
00000350: 5fec cfbd 2781 ee3b 8ac5 703d 9b7c 1b3e
00000360: 7028 04be 7a34 413d e8b7 b2bd fb78 ad3c
00000370: 9ded 6b3d 1709 69bd 12ea 873a 95f2 b8bd
00000380: 0ea9 3c3b ab8b bcbc 5b53 d03c f722 fdbc
00000390: 6ee4 71bd 7843 643b 022b ac3d 0452 7cbd
000003a0: 3a96 76bd bba7 9e3d 7451 17be 8add cc3c
000003b0: 39c5 96bd 9cd4 aa3d d88b 023c ddbb 6f3d
000003c0: f929 21be 0da7 0cbe 0467 91bd 659e 8cbd
000003d0: 71ff a83d bd5b 0d3e bbde 143e 2715 05be
000003e0: 150d 95bd bb27 a1bd 6008 c2bc 6371 943c
000003f0: c950 103d a1ac 1e3d 6fa8 b33d e2f8 b6bd

lstm.weight_hh_l1 f4 [256, 64]
0.04254193 0.03001604 -0.020720271 -0.06342043 0.0027956662 0.0068905894 0.004866289 0.033128466
0.013881139 -0.1533828 -0.014124917 0.079458155 0.11752778 -0.062207684 -0.02729515 0.05775338
0.12924843 0.14013042 -0.114329465 -0.11269398 0.032225735 -0.04856039 -0.13166234 0.062334925
-0.032344207 0.06277109 0.0097403 0.093199305 0.038070846 -0.0030021938 -0.032186855 -0.10303094
0.018236943 -0.025233325 0.046476286 -0.06763324 -0.09387118 0.078985594 -0.005606544 -0.123608604
0.043103866 -0.044924967 0.041604538 0.015645482 -0.14840305 -0.1309357 -0.0349846 -0.02512384
0.033062026 -0.012420659 0.033239942 0.0016111106 0.008280983 0.023445997 -0.07329905 0.15034921
0.14774086 0.059415855 -0.021506784 0.110869296 -0.009117806 -0.054281488 -0.06721487 0.04367677
0.034648206 -0.13168296 0.1328168 -0.027379345 0.0065966425 -0.003847399 0.08371799 -0.14393668
-0.005590082 -0.12161265 -0.08103944 -0.10076127 -0.064338654 0.13602619 -0.059784345 -0.0008882775
0.088776805 -0.011091141 0.090506464 -0.0963677 -0.04499865 0.14709531 -0.09789585 0.08404712
-0.07744831 -0.064387485 0.11737037 0.12484543 0.04953624 -0.1351608 -0.036842495 -0.0015217427
0.013471389 0.07133925 -0.050487727 -0.122565195 0.08939254 0.008836954 0.032634072 0.09312056
0.00692573 -0.0075432174 0.069647945 0.13177551 0.07169279 0.0378611 -0.051825397 -0.094182126
0.10554558 -0.040022086 -0.05530237 -0.103987955 0.028638834 0.11114171 0.010008662 0.12948062
0.0976758 0.07236242 0.003735261 0.062200896 -0.032639027 -0.11020044 -0.09873655 0.10829748
0.06742403 0.055857997 0.013167967 -0.013886438 0.1284435 -0.03509374 0.096680045 -0.08402327
0.10606839 -0.056645665 0.01082536 0.049076796 -0.116717435 -0.07883265 -0.07328553 0.13385414
-0.030364411 0.1697832 -0.06613926 -0.036793143 -0.016915051 0.062575534 -0.034128353 -0.14605659
0.09764088 -0.06206446 0.089608364 -0.059861492 -0.08584885 0.012733227 -0.029279228 -0.010148139
-0.022692598 0.019001879 -0.108826414 0.0043918258 0.10580379 -0.03792611 -0.12467551 0.08446356
-0.05633414 0.08484973 -0.071465395 0.1283625 0.055811398 -0.0005747702 0.113639474 -0.038896244
0.10431065 -0.09764661 -0.017339533 -0.03227004 -0.07459083 -0.12817416 0.018588474 -0.103321895
-0.021315822 -0.018134639 0.08989059 0.078123346 0.10054589 -0.06304726 0.015611 -0.10284686
-0.048642036 0.054510664 -0.014018507 0.12325675 0.05858919 -0.07208592 0.042743478 -0.015550016
0.15208532 -0.01243688 -0.096241124 -0.14832504 0.027445255 -0.06068708 0.027545396 -0.08548436
0.02456642 -0.04867483 0.12223996 0.03016086 -0.029056953 0.11296645 -0.0800419 -0.082317986
-0.070741706 -0.11510014 0.012266992 0.09446774 -0.11317155 0.07295686 0.054111976 0.053672966
0.11717946 0.037302352 0.011792874 0.0207659 0.08627599 -0.07225004 -0.16444147 -0.036153067
-0.04889611 -0.17244865 -0.038635913 -0.07444095 -0.030385457 0.06310841 -0.096370086 -0.03998399
0.060155116 0.014345356 -0.07102896 0.089847736 -0.09320768 0.15950862 0.005776242 -0.10423907
0.04858387 -0.015892684 -0.093214214 -0.09465458 0.026161822 -0.12681998 0.08992272 0.07472357
00000000: 7240 2e3d 33e4 f53c 8fbd a9bc 92e2 81bd
00000010: 7f37 373b 74ca e13b 6475 9f3b b7b1 073d
00000020: b86d 633c 6110 1dbe 326c 67bc f5ba a23d
00000030: 68b2 f03d 7ccd 7ebd 149a dfbc cf8e 6c3d
00000040: b359 043e 597e 0f3e 9125 eabd 1acc e6bd
00000050: 22ff 033d 42e7 46bd 7ed2 06be e852 7f3d
00000060: 5c7b 04bd 218e 803d c795 1f3c 47df be3d
00000070: 2df0 1b3d 74c0 44bb 5dd6 03bd e301 d3bd
00000080: a465 953c 1eb6 cebc eb5d 3e3d 4c83 8abd
00000090: 893f c0bd 33c3 a13d 1ab7 b7bb 8226 fdbd
000000a0: ae8d 303d 3e03 38bd 8569 2a3d f42a 803c
000000b0: f8f6 17be 0214 06be 034c 0fbd 83d0 cdbc
000000c0: 0c6c 073d 0580 4bbc 9b26 083d e72b d33a
000000d0: f6ac 073c d211 c03c d01d 96bd 25f5 193e
000000e0: 6149 173e 0a5e 733d ff2e b0bc 710f e33d
000000f0: da62 15bc 4456 5ebd f3a7 89bd 6ae6 323d
00000100: 47eb 0d3d e6d7 06be 2101 083e a64a e0bc
00000110: a628 d83b a524 7cbb 5674 ab3d 2364 13be
00000120: 022d b7bb 0e10 f9bd 02f8 a5bd ed5b cebd
00000130: fcc3 83bd 734a 0b3e 6ee0 74bd 4bdb 68ba
00000140: 9dd0 b53d 9eb7 35bc 745b b93d 6e5c c5bd
00000150: 8150 38bd 27a0 163e 9f7d c8bd e520 ac3d
00000160: 389d 9ebd 96dd 83bd e05f f03d f6ae ff3d
00000170: 83e6 4a3d 9867 0abe 28e8 16bd 3675 c7ba
00000180: 1ab7 5c3c 501a 923d 38cc 4ebd 7603 fbbd
00000190: 7013 b73d dfc8 103c 4eab 053d feb5 be3d
000001a0: 3cf1 e23b 182d f7bb 95a3 8e3d 29f0 063e
000001b0: abd3 923d 3e14 1b3d de46 54bd 8fe2 c0bd
000001c0: 4828 d83d 33ee 23bd bd84 62bd a3f7 d4bd
000001d0: fd9b ea3c 449e e33d 5ffb 233c 9196 043e
000001e0: 400a c83d c032 943d 48cb 743b 5ec6 7e3d
000001f0: 80b0 05bd c5b0 e1bd 6336 cabd 12cb dd3d
00000200: 9c15 8a3d 5bcb 643d 75be 573c f183 63bc
00000210: b186 033e 74be 0fbd 3000 c63d 6414 acbd
00000220: 623a d93d 4905 68bd da5c 313c c004 493d
00000230: 8d09 efbd 0373 a1bd b916 96bd 0f11 093e
00000240: c9be f8bc a6db 2d3e 0574 87bd 68b4 16bd
00000250: 6f91 8abc 9a27 803d 2cca 0bbd dc8f 15be
00000260: f1f7 c73d 4e37 7ebd 9784 b73d 5331 75bd
00000270: 86d1 afbd 069f 503c feda efbc 6144 26bc
00000280: d4e5 b9bc d4a9 9b3c 62e0 debd 4ee9 8f3b
00000290: a8af d83d 6958 1bbd e055 ffbd 3bfb ac3d
000002a0: a1be 66bd b2c5 ad3d 735c 92bd 7671 033e
000002b0: 7e9a 643d 2dac 16ba d0bb e83d ab51 1fbd
000002c0: d2a0 d53d f2fa c7bd a30b 8ebc 972d 04bd
000002d0: 14c3 98bd 1640 03be db46 983c 6e9a d3bd
000002e0: 859e aebc 188f 94bc 8f18 b83d 22ff 9f3d
000002f0: 01eb cd3d ec1e 81bd 48c5 7f3c 60a1 d2bd
00000300: df3c 47bd 9346 5f3d e1ad 65bc 096e fc3d
00000310: 38fb 6f3d c8a1 93bd c913 2f3d 7fc5 7ebc
00000320: 41bc 1b3e 0ec4 4bbc 111a c5bd 85e2 17be
00000330: dfd4 e03c 0493 78bd e2a6 e13c 6d12 afbd
00000340: 843f c93c 425f 47bd f258 fa3d e813 f73c
00000350: d908 eebc f45a e73d 02ed a3bd 5596 a8bd
00000360: 07e1 90bd 9fb9 ebbd 7efb 483c 4d78 c13d
00000370: 7cc6 e7bd 686a 953d 85a4 5d3d 2fd8 5b3d
00000380: c9fb ef3d 5aca 183d e636 413c 401d aa3c
00000390: 77b1 b03d d4f7 93bd 5863 28be 3d15 14bd
000003a0: 4a47 48bd 6196 30be b140 1ebd 7f74 98bd
000003b0: ecea f8bc fb3e 813d ae5d c5bd 41c6 23bd
000003c0: 3665 763d c908 6b3c a277 91bd 1702 b83d
000003d0: abe3 bebd 3a56 233e a146 bd3b 4b7b d5bd
000003e0: e1ff 463d 6031 82bc 18e7 bebd 43da c1bd
000003f0: 5151 d63c 19dd 01be 6729 b83d ac08 993d

lstm.bias_ih_l1 f4 [256]
0.10795875 -0.0033264817 -0.008117278 -0.035207648 0.09390849 0.054257877 0.10503879 -0.11422455
0.15935308 0.04037823 -0.025701141 -0.011437082 -0.004815625 0.12766759 0.149483 0.018183453
0.1246927 -0.058480743 -0.09335902 0.10479774 0.13174619 -0.075047866 0.032134503 -0.0045459783
-0.016106693 0.048379272 -0.01579099 0.014151275 0.10457736 -0.056667812 -0.04957751 0.08096473
0.026435273 0.03689224 0.12902984 -0.026660634 0.02845127 0.12440661 0.09285817 -0.082179494
0.11640292 0.14032784 0.00683808 0.010471768 0.16056177 -0.05914034 0.11236077 -0.068952814
-0.13643782 0.10248292 -0.039011773 0.10216519 -0.064200856 0.13128692 -0.07699963 0.06451973
-0.06691956 0.00082050625 -0.0073825005 -0.082113184 -0.0684164 -0.018565575 0.0034813895 0.055165567
-0.07626417 0.10008413 -0.0811309 0.050672125 -0.101753876 0.053826682 -0.018294767 0.02329183
-0.018472772 -0.0019440716 -0.04812599 0.0044370755 -0.08216138 0.13116735 -0.07842519 -0.08034163
0.08244635 -0.04800981 -0.0036036188 0.107390106 0.12309304 0.087249495 -0.084590085 0.010457461
0.0907463 -0.12293308 -0.05416868 -0.023332123 0.10512926 -0.026693083 -0.01883587 0.014429609
0.019197255 0.07923173 -0.031009344 -0.012838504 0.015958484 -0.01163852 -0.08520016 -0.0888619
-0.09928533 -0.008906642 -0.070755385 -0.103519745 0.10173824 0.10781624 -0.0043131085 0.051617447
0.052255314 -0.0777874 0.0054447586 -0.07120752 0.04663061 -0.08936734 -0.10137255 -0.048633747
-0.03387671 -0.11033223 -0.0057550566 0.111121595 -0.07064622 -0.04379269 0.1256489 -0.10962726
0.090864554 0.020785494 -0.10243539 0.022544272 0.1119076 0.10504803 -0.061268814 0.056605116
0.030544925 -0.10699429 0.019390149 -0.08903657 -0.03122321 -0.009958683 -0.061575446 -0.06071138
0.10696682 -0.05790142 0.10993972 -0.10351605 0.03038525 -0.055783827 -0.032228872 -0.10288993
-0.08028014 0.11757571 -0.098170586 -0.079082005 0.030461587 0.095451824 -0.02969554 0.07544915
0.107433066 0.00068216823 -0.06134026 0.058464367 -0.024683237 -0.09704813 -0.1231661 0.009024709
-0.04318433 0.062421713 -0.06588248 -0.06854164 -0.044420265 -0.08078559 -0.11136936 0.08042781
-0.06502535 0.1210467 -0.09654131 0.06318504 0.068584524 -0.0060871816 -0.0048803324 -0.12908967
-0.07763127 -0.120393805 -0.112149216 -0.014718369 -0.039734412 -0.12866825 0.06828265 0.1186099
0.11581214 -0.06840248 0.00850372 -0.060926955 -0.11195098 -0.12842652 0.038579177 -0.09138981
0.015670592 0.09635926 0.12840647 0.048379563 -0.065189786 0.075139284 0.04788165 0.022534786
-0.074162684 -0.10455969 0.12175285 0.092405185 -0.0047954493 -0.022301558 0.11298758 -0.025166541
-0.072574064 0.12831402 -0.06924785 0.13148731 0.15052596 0.076583534 0.11317515 -0.010683675
-0.006387904 -0.01614 0.03302729 0.07020923 -0.12229148 -0.07351649 0.1377001 0.023270875
0.11158436 -0.07845412 0.022397459 0.02931593 0.04266984 0.09015491 -0.01813822 -0.103093885
-0.062312327 0.045298766 0.13572004 -0.03904789 0.01930523 -0.05829126 -0.06302651 0.12567425
0.08895898 -0.0001059777 0.11392616 0.12577105 0.04607811 -0.045073677 0.02161367 0.06755835
00000000: 7a19 dd3d 1a01 5abb 55fe 04bc e535 10bd
00000010: 1853 c03d 823d 5e3d 941e d73d 90ee e9bd
00000020: 742d 233e a563 253d 338b d2bc 9962 3bbc
00000030: 64cc 9dbb 4bbb 023e 1212 193e 77f5 943c
00000040: e35e ff3d 8189 6fbd 0433 bfbd 33a0 d63d
00000050: 79e8 063e b2b2 99bd 789f 033d 6ef6 94bb
00000060: 2ff2 83bc 5829 463d 1b5c 81bc c0da 673c
00000070: a82c d63d 821c 68bd ca11 4bbd d6d0 a53d
00000080: c98e d83c 511c 173d 6620 043e 6767 dabc
00000090: a312 e93c e5c8 fe3d 6d2c be3d b94d a8bd
000000a0: a764 ee3d 1ab2 0f3e f911 e03b c791 2b3c
000000b0: 4e6a 243e 243d 72bd 671d e63d 2237 8dbd
000000c0: 5bb6 0bbe 91e2 d13d cfca 1fbd fc3b d13d
000000d0: bd7b 83bd 1470 063e fbb1 9dbd ec22 843d
000000e0: 1f0d 89bd 3e17 573a e7e8 f1bb f52a a8bd
000000f0: e61d 8cbd d516 98bc 0628 643b 4af5 613d
00000100: 6430 9cbd e9f8 cc3d f527 a6bd 938d 4f3d
00000110: 5664 d0bd 5e79 5c3d e8de 95bc 82ce be3c
00000120: 3654 97bc 38d0 feba c21f 45bd e364 913b
00000130: 3a44 a8bd bc50 063e 639d a0bd 278a a4bd
00000140: a2d9 a83d efa5 44bd b12a 6cbb 58ef db3d
00000150: 3418 fc3d ddaf b23d 913d adbd c555 2b3c
00000160: 32d9 b93d 57c4 fbbd fadf 5dbd 0223 bfbc
00000170: 024e d73d 74ab dabc af4d 9abc 2b6a 6c3c
00000180: 9043 9d3c 3f44 a23d 4f07 febc 9758 52bc
00000190: 5ebb 823c 7eaf 3ebc 6c7d aebd 3afd b5bd
000001a0: 1b56 cbbd 2aed 11bc 33e8 90bd 2902 d4bd
000001b0: 235c d03d c3ce dc3d fa54 8dbb d16c 533d
000001c0: ab09 563d 004f 9fbd f269 b23b 40d5 91bd
000001d0: bdff 3e3d 3906 b7bd 699c cfbd 2e34 47bd
000001e0: 4ec2 0abd ddf5 e1bd ea94 bcbb b893 e33d
000001f0: f7ae 90bd f75f 33bd 1baa 003e 4284 e0bd
00000200: 3217 ba3d 5746 aa3c a5c9 d1bd c4ae b83c
00000210: d02f e53d 6c23 d73d 02f5 7abd c4da 673d
00000220: 5a39 fa3c d31f dbbd 17d8 9e3c ce58 b6bd
00000230: d1c7 ffbc be29 23bc 8936 7cbd 7fac 78bd
00000240: 6c11 db3d 0a2a 6dbd 1328 e13d 3900 d4bd
00000250: 7dea f83c 957d 64bd 6c02 04bd f5b7 d2bd
00000260: ea69 a4bd 89cb f03d a90d c9bd bff5 a1bd
00000270: 948a f93c 3f7c c33d 1044 f3bc 1585 9a3d
00000280: de05 dc3d 89d3 323a ed3f 7bbd 5578 6f3d
00000290: 8034 cabc 2cc1 c6bd 823e fcbd 60dc 133c
000002a0: 0de2 30bd e9ad 7f3d 65ed 86bd 8f5f 8cbd
000002b0: 06f2 35bd ea72 a5bd 9e15 e4bd 56b7 a43d
000002c0: 032c 85bd 55e7 f73d 73b7 c5bd 2967 813d
000002d0: 0b76 8c3d fb76 c7bb 32eb 9fbb 1530 04be
000002e0: 25fd 9ebd 0791 f6bd 7dae e5bd 5025 71bc
000002f0: 8dc0 22bd 9cc1 03be c6d7 8b3d bfe9 f23d
00000300: ea2e ed3d 9916 8cbd 3053 0b3c 8b8e 79bd
00000310: 8e46 e5bd 3e82 03be 3305 1e3d 952a bbbd
00000320: 9d5f 803c 0158 c53d fc7c 033e a629 463d
00000330: 3982 85bd a0e2 993d 8d1f 443d df9a b83c
00000340: 9be2 97bd 6423 d6bd 8f59 f93d ee3e bd3d
00000350: 2523 9dbb c2b1 b6bc 0866 e73d 102a cebc
00000360: b6a1 94bd c064 033e d1d1 8dbd 9ca4 063e
00000370: 7a23 1a3e d4d7 9c3d 5fc8 e73d 950a 2fbc
00000380: 9f51 d1bb 0938 84bc a047 073d dbc9 8f3d
00000390: f573 fabd d08f 96bd 4101 0d3e 90a2 be3c
000003a0: 5786 e43d 8eac a0bd e07a b73c f627 f03c
000003b0: 92c6 2e3d 23a3 b83d 9b96 94bc e322 d3bd
000003c0: 363b 7fbd 338b 393d 32fa 0a3e aef0 1fbd
000003d0: 0026 9e3c d1c2 6ebd 0b14 81bd c0b0 003e
000003e0: 2030 b63d 5840 deb8 1e52 e93d 20ca 003e
000003f0: 66bc 3c3d 2d9f 38bd 270f b13c 085c 8a3d
