src/Backend-Information/Clod-weather_predict/lstm_model.pth (torch, 208379 bytes, 11 tensors)

lstm.weight_ih_l0 f4 [256, 3]
-0.043956675 -0.007113665 -0.0044172187 -0.0028889137 0.077660725 0.12069663 -0.0081394315 0.0702026
-0.038788296 0.03237216 -0.122401185 -0.03209978 0.0487351 -0.13496092 0.025996972 0.0784165
-0.0018429128 0.118834525 -0.10368281 -0.020005409 0.049941026 -0.04738862 0.05902957 0.03031804
0.0664618 -0.07214454 0.0052404874 -0.093941376 -0.005174983 0.068823144 -0.16623771 0.04499308
0.16928592 -0.11798701 -0.057964455 0.057299413 -0.06431072 0.03745984 -0.018155392 -0.07338914
0.06810431 0.07138391 -0.16753347 -0.14572376 0.08303746 0.05443447 -0.10131718 0.12508653
-0.03986357 0.039676536 0.0256627 0.07164059 -0.08846415 0.13785164 0.003940462 0.031435378
-0.016239151 -0.1352913 0.0016567514 0.019936386 -0.1442193 -0.070338696 0.14979301 -0.044057656
0.05334574 0.021033384 0.0021462566 -0.11930093 -0.022514524 -0.099872805 -0.11568378 0.017653601
0.04002715 0.054782834 -0.025350446 -0.03399505 0.02286808 -0.05260428 -0.11705164 -0.08288451
0.13873167 0.10524289 -0.07337793 -0.020352913 -0.05637233 -0.040387556 -0.026718387 0.023898836
0.011355692 0.158959 0.082172744 -0.07860152 0.13899001 -0.05335153 0.06397138 -0.039684087
0.03704622 -0.05320866 -0.041483182 -0.09985205 0.07757876 -0.000585196 0.042204488 -0.056112673
0.07007892 0.057497684 0.07080222 0.07675332 -0.042937864 -0.04204353 0.14547923 0.08443431
-0.07289635 0.04927879 -0.07030699 -0.14490177 -0.02001115 -0.006751247 -0.10149146 0.09763784
-0.084250376 -0.067278124 0.031048637 -0.009595725 0.050464857 -0.09533012 0.028264744 0.062357992
0.10019518 -0.009276428 -0.01899829 -0.13066645 0.04106041 0.0044460455 0.04092422 -0.13126965
-0.040063605 -0.04411295 0.07527582 -0.14559984 -0.03354036 0.034205362 0.009513901 0.039499827
-0.087371185 -0.15110809 0.07043881 0.092370234 -0.10590648 -0.016419575 0.02673672 -0.1258365
0.083465375 -0.023744749 0.01023329 0.13326126 -0.031904653 0.01857106 0.027581016 0.02329533
-0.07678358 -0.059971817 -0.05545883 0.08095452 -0.070705995 -0.0101907775 0.008073452 0.060778037
-0.039916728 -0.09442427 0.096876346 -0.060046103 0.008140172 0.017316975 0.008290013 -0.025222473
-0.0252845 -0.13643596 0.083395936 0.15811367 0.041774172 -0.13834792 0.044679668 0.028053025
0.043893617 -0.060134947 -0.16554092 -0.015401541 -0.04916002 -0.086082675 0.065311134 0.070221245
-0.092130885 -0.14187941 -0.029283803 -0.13991769 0.09087613 -0.049842525 -0.13700306 0.024299258
-0.028373899 0.063526 -0.1189591 0.11802867 -0.03377064 -0.14908117 -0.062080197 0.005198787
-0.004181078 0.054540366 -0.08836205 -0.034033805 0.02735448 -0.06542073 0.035274107 0.01761948
0.015709266 0.0012271795 -0.014114924 0.03162962 0.008488605 0.06919453 -0.08356559 0.022891002
0.047415297 0.04008437 -0.12981825 -0.08209441 0.13667506 -0.12705293 0.042960957 -0.024570104
0.07998752 0.043823913 -0.07228804 -0.12989387 0.118210085 0.06928508 -0.07382172 0.08314752
0.060289983 -0.15971681 -0.06775439 -0.0022057388 -0.0835817 0.083476044 0.028629674 -0.08803716
0.14444844 -0.15845822 0.10313024 0.044043563 -0.0122321565 -0.10661672 -0.042473197 0.05812069
00000000: ea0b 34bd bf19 e9bb 51be 90bb ee53 3dbb
00000010: 960c 9f3d cb2f f73d 405b 05bc 61c6 8f3d
00000020: 7ae0 1ebd ac98 043d 79ad fabd 0f7b 03bd
00000030: 759e 473d 3233 0abe 9af7 d43c d498 a03d
00000040: e48d f1ba 845f f33d a757 d4bd 62e2 a3bc
00000050: f68e 4c3d 921a 42bd fec8 713d 8a5d f83c
00000060: 201d 883d 84c0 93bd 65b8 ab3b 5664 c0bd
00000070: e792 a9bb 26f3 8c3d 383a 2abe aa4a 383d
00000080: 4a59 2d3e 2ca3 f1bd 236c 6dbd cab2 6a3d
00000090: 57b5 83bd 7d6f 193d 9eba 94bc 0c4d 96bd
000000a0: 467a 8b3d ba31 923d e58d 2bbe 9c38 15be
000000b0: 8b0f aa3d aef6 5e3d 627f cfbd af16 003e
000000c0: fc47 23bd dd83 223d 953a d23c 4db8 923d
000000d0: b12c b5bd fb28 0d3e fe1e 813b 62c2 003d
000000e0: f807 85bc cd89 0abe 5a27 d93a a251 a33c
000000f0: 39ae 13be bc0d 90bd 5763 193e cd75 34bd
00000100: 1081 5a3d 344e ac3c 36a8 0c3b 0c54 f4bd
00000110: 6170 b8bc 1d8a ccbd 9eeb ecbd 499e 903c
00000120: 82f3 233d f763 603d bdab cfbc 653e 0bbd
00000130: d755 bb3c 9677 57bd c5b8 efbd 5bbf a9bd
00000140: ad0f 0e3e 9689 d73d 2b47 96bd 27bb a6bc
00000150: ace6 66bd 6c6d 25bd 85e0 dabc 7ec7 c33c
00000160: 390d 3a3c 26c6 223e 2f4a a83d d5f9 a0bd
00000170: 6653 0e3e 2287 5abd 6d03 833d c88b 22bd
00000180: c7bd 173d 53f1 59bd 45ea 29bd 3b7f ccbd
00000190: 9de1 9e3d d767 19ba 9dde 2c3d 67d6 65bd
000001a0: 8985 8f3d b182 6b3d c100 913d d830 9d3d
000001b0: 9ddf 2fbd d635 2cbd 82f8 143e e5eb ac3d
000001c0: ae4a 95bd 8ed8 493d 1cfd 8fbd 2161 14be
000001d0: 6cee a3bc 9139 ddbb c1da cfbd 59f6 c73d
000001e0: 768b acbd 1dc9 89bd b659 fe3c 6337 1dbc
000001f0: 3db4 4e3d 703c c3bd 778b e73c 186b 7f3d
00000200: 2133 cd3d 29fc 17bc 4da2 9bbc 6dcd 05be
00000210: f62e 283d 22b0 913b 28a0 273d 8d6b 06be
00000220: bc19 24bd c8af 34bd 362a 9a3d 2018 15be
00000230: 9e61 09bd ec1a 0c3d 31e0 1b3c 92ca 213d
00000240: aaef b2bd 14bc 1abe 3942 903d 9b2c bd3d
00000250: 7fe5 d8bd 5882 86bc f706 db3c 49db 00be
00000260: e5ef aa3d 5984 c2bc 87a9 273c a475 083e
00000270: 74ae 02bd 5622 983c 95f1 e13c d9d5 be3c
00000280: b640 9dbd 02a5 75bd cc28 63bd 7ccb a53d
00000290: 4ece 90bd 38f7 26bc 8346 043c 64f2 783d
000002a0: b97f 23bd 8361 c1bd 1b67 c63d e7f2 75bd
000002b0: 5b5e 053c 54dc 8d3c d6d2 073c 5c9f cebc
000002c0: 7121 cfbc deb5 0bbe 7dcb aa3d 8de8 213e
000002d0: 651b 2b3d 14ab 0dbe 0702 373d 75cf e53c
000002e0: cbc9 333d 1050 76bd 8f83 29be bf56 7cbc
000002f0: 045c 49bd 1d4c b0bd d8c1 853d 28d0 8f3d
00000300: 1eaf bcbd d648 11be 96e4 efbc 9546 0fbe
00000310: 441d ba3d ad27 4cbd 884a 0cbe 3d0f c73c
00000320: 6170 e8bc eb19 823d d4a0 f3bd 04b9 f13d
00000330: 1553 0abd bca8 18be ce47 7ebd 965a aa3b
00000340: 6d01 89bb b865 5f3d 2af7 b4bd 0867 0bbd
00000350: 8116 e03c 4efb 85bd 957b 103d ba56 903c
00000360: b8b0 803c 50d9 a03a 4842 67bc 0f8e 013d
00000370: ca13 0b3c ddb5 8d3d 7024 abbd e985 bb3c
00000380: 8b36 423d 822f 243d 13ef 04be 1d21 a8bd
00000390: 8cf4 0b3e 2a1a 02be d4f7 2f3d 3e47 c9bc
000003a0: 7fd0 a33d b480 333d c00b 94bd e602 05be
000003b0: 2118 f23d 56e5 8d3d d82f 97bd 3f49 aa3d
000003c0: a1f2 763d ce8c 23be d0c2 8abd 288e 10bb
000003d0: e22c abbd 7df5 aa3d c788 ea3c d44c b4bd
000003e0: 4bea 133e df42 22be f335 d33d 0667 343d
000003f0: 6269 48bc de59 dabd 60f8 2dbd f60f 6e3d

lstm.weight_hh_l0 f4 [256, 64]
-0.028796585 -0.088870555 0.083656296 0.050414864 -0.09137945 -0.03577585 0.05406578 0.15907
0.037703585 0.06570046 0.07120754 0.0167007 0.15185648 -0.112684324 0.025166562 -0.04349317
-0.15155974 -0.0401086 -0.041752703 -0.043613523 0.071030624 -0.07411324 0.058673706 0.05415953
0.06428818 0.02011574 -0.13225135 0.053012136 0.0027540498 -0.030571755 -0.0070527443 0.13968071
-0.08234754 -0.0031422377 -0.05493865 -0.03413727 -0.034265302 0.089842066 0.06781437 -0.008636649
0.062524535 0.048084605 -0.0068559037 0.037353527 -0.03144955 0.03850825 0.0012821077 0.16590934
0.012040614 -0.07617914 -0.054460563 0.030252378 0.062049348 0.17650852 -0.04310189 0.0119631905
0.06335868 0.13796027 0.047953036 -0.079854 -0.12983471 0.079625934 -0.0653239 -0.07396377
-0.13445678 -0.1115976 -0.16611007 0.08163382 -0.06807217 0.09020153 0.053703938 0.11945434
-0.1081887 -0.13936473 0.10186414 -0.046346948 -0.049123645 -0.113409676 0.09545277 0.13984138
0.0178573 -0.06594123 0.06025922 0.10179811 -0.06985344 0.003009097 0.011506476 0.018201444
0.061682455 -0.035395708 -0.06540483 -0.015305848 0.11316529 -0.06278796 0.028776608 0.108163565
0.08636106 -0.09550136 -0.0562141 0.09192807 0.12227978 0.123522654 -0.015042269 0.0042172996
-0.029772485 -0.09118555 0.101869226 -0.007632224 -0.11812368 0.15336117 0.07913107 0.043659333
-0.10440848 -0.049816437 -0.05962507 0.073203295 -0.013769127 0.03657588 -0.06921879 -0.10834997
0.09487216 -0.048939165 0.035557307 -0.03134883 -0.016175937 -0.0051120156 0.008475407 0.005781047
0.044803042 -0.09371406 -0.04220253 -0.018879594 0.055932086 0.010225915 -0.07337266 0.01880568
0.084148444 0.026888216 0.10254441 -0.06410211 0.11034747 0.07792557 0.010073012 -0.03413539
-0.071687914 -0.031506624 -0.06353151 -0.026105106 0.016732775 -0.12560174 0.104264915 -0.05523186
0.121933416 0.013690736 0.019400343 0.10608008 -0.12235333 -0.06793676 0.14018185 0.12159449
0.025621802 -0.13638198 0.08109465 -0.057496864 0.050356913 0.078537 -0.051590227 0.053191446
0.060900275 -0.09776209 -0.09637966 -0.016313862 -0.07048066 -0.0751292 -0.09498707 0.14183596
0.08804728 0.09647453 -0.10273692 0.040660273 -0.04060368 -0.0875301 0.15234652 -0.057040464
-0.010910359 -0.051687 0.04785333 0.09942689 -0.030658495 0.06527525 -0.09665086 0.059582546
0.0058482625 0.02316467 -0.07712441 0.10385215 -0.017603615 0.074050084 0.017765477 0.15162872
-0.014304216 0.02080301 -0.059632454 -0.11773336 0.06338416 -0.04924871 0.035967145 0.048616976
-0.1365063 -0.011980891 -0.020706862 0.08882003 0.012210797 -0.038567048 0.03188069 0.0067763217
0.10772761 -0.05332577 0.016239647 -0.105588995 -0.0056838514 0.120015495 0.039715555 0.06712024
0.14980443 -0.14489287 -0.028017957 -0.10667621 0.1303512 0.023951203 0.13959932 -0.15718685
-0.03751313 -0.100006066 -0.04226016 -0.05298137 0.0018981197 0.043665785 -0.16317646 0.15147607
0.0040179715 -0.09687983 0.014257679 -0.15694305 0.07931804 0.1349528 -0.025778996 -0.04538382
-0.13307014 -0.00215405 0.056145813 -0.09163664 -0.028295029 0.06442494 -0.027907887 0.13165458
00000000: d1e6 ebbc c401 b6bd fe53 ab3d d17f 4e3d
00000010: 2625 bbbd b389 12bd 1474 5d3d 3fe3 223e
00000020: 136f 1a3d f68d 863d 42d5 913d e8cf 883c
00000030: 4480 1b3e 0ac7 e6bd 1b2a ce3c e525 32bd
00000040: 7a32 1bbe ea48 24bd e204 2bbd 18a4 32bd
00000050: 8178 913d afc8 97bd d753 703d 62d6 5d3d
00000060: 85a9 833d c4c9 a43c e66c 07be 4123 593d
00000070: 4a7d 343b 9e71 fabc b51a e7bb 7608 0f3e
00000080: d4a5 a8bd 00ee 4dbb 5a07 61bd 86d3 0bbd
00000090: c659 0cbd 1eff b73d 43e2 8a3d bb80 0dbc
000000a0: dd0c 803d 5df4 443d 7da7 e0bb 0300 193d
000000b0: 3ed1 00bd d4ba 1d3d 650c a83a 23e4 293e
000000c0: ff45 453c cf03 9cbd 0a12 5fbd d6d3 f73c
000000d0: 7527 7e3d a6be 343e 9b8b 30bd 4201 443c
000000e0: 32c2 813d 7545 0d3e 676a 443d 7e8a a3bd
000000f0: 64f3 04be ec12 a33d 89c8 85bd 517a 97bd
00000100: 0aaf 09be 488d e4bd c218 2abe a22f a73d
00000110: 6c69 8bbd 94bb b83d a9f8 5b3d 7aa4 f43d
00000120: 0a92 ddbd a1b5 0ebe 259e d03d 4cd6 3dbd
00000130: e035 49bd 5543 e8bd be7c c33d 9432 0f3e
00000140: 7949 923c 320c 87bd 5fd2 763d 877b d03d
00000150: 520f 8fbd 4534 453b a985 3c3c 321b 953c
00000160: bea6 7c3d 17fb 10bd f8f2 85bd 61c5 7abc
00000170: 34c3 e73d f996 80bd ecbc eb3c dc84 dd3d
00000180: 11de b03d 3896 c3bd c240 66bd c944 bc3d
00000190: d26d fa3d 72f9 fc3d d973 76bc 4631 8a3b
000001a0: 6de5 f3bc 7dbf babd d0a0 d03d bc17 fabb
000001b0: d4ea f1bd b60a 1d3e 780f a23d 21d4 323d
000001c0: 1dd4 d5bd 520c 4cbd 6b39 74bd 9ceb 953d
000001d0: e897 61bc 97d0 153d 95c2 8dbd 97e6 ddbd
000001e0: 564c c23d 6f74 48bd 8aa4 113d a167 00bd
000001f0: 6683 84bc b282 a7bb 6fdc 0a3c f06e bd3b
00000200: 6583 373d 28ed bfbd 8fdc 2cbd 61a9 9abc
00000210: 0b19 653d 998a 273c 6844 96bd 5f0e 9a3c
00000220: 0556 ac3d ad44 dc3c ce02 d23d f847 83bd
00000230: dbfd e13d 7197 9f3d 4609 253c 8dd1 0bbd
00000240: 1dd1 92bd 170d 01bd cf1c 82bd 60da d5bc
00000250: 2c13 893c be9d 00be d888 d53d ce3a 62bd
00000260: 3ab8 f93d 1c4f 603c 78ed 9e3c 8340 d93d
00000270: 6294 fabd 6e22 8bbd d58b 0f3e 8806 f93d
00000280: d0e4 d13c b8a7 0bbe f414 a63d d581 6bbd
00000290: 0d43 4e3d 02d8 a03d 4650 53bd 46df 593d
000002a0: 9172 793d 7e37 c8bd b362 c5bd a6a4 85bc
000002b0: 2a58 90bd 57dd 99bd 9588 c2bd 723d 113e
000002c0: 2252 b43d 7094 c53d bc67 d2bd 638b 263d
000002d0: 0b50 26bd fb42 b3bd ba00 1c3e 43a3 69bd
000002e0: 5dc1 32bc bfb5 53bd da01 443d 53a0 cb3d
000002f0: 8627 fbbc 08af 853d e3f0 c5bd d40c 743d
00000300: c8a2 bf3b d6c3 bd3c 67f3 9dbd 70b0 d43d
00000310: 7535 90bc 92a7 973d e888 913c 8f44 1b3e
00000320: 3b5c 6abc 136b aa3c 2941 74bd 301e f1bd
00000330: 8ecf 813d 04b9 49bd 4952 133d 9822 473d
00000340: 4fc8 0bbe 804b 44bc 70a1 a9bc 47e7 b53d
00000350: cb0f 483c 7bf8 1dbd 5495 023d e80b de3b
00000360: 4ba0 dc3d 1f6c 5abd 0209 853c 0b3f d8bd
00000370: 9a3f babb afca f53d c7ac 223d 5676 893d
00000380: 5566 193e cc5e 14be ea85 e5bc 0f79 dabd
00000390: c97a 053e 5035 c43c 20f3 0e3e 97f5 20be
000003a0: 5ea7 19bd fbcf ccbd fd18 2dbd fe02 59bd
000003b0: 54ca f83a e5da 323d bb17 27be 8b1c 1b3e
000003c0: 30a9 833b ef68 c6bd 0a99 693c aeb5 20be
000003d0: 7f71 a23d 1131 0a3e 792e d3bc 62e4 39bd
000003e0: 8a43 08be f62a 0dbb 27f9 653d feab bbbd
000003f0: faca e7bc 39f1 833d 159f e4bc 75d0 063e

lstm.bias_ih_l0 f4 [256]
-0.04747196 0.050395582 -0.07212451 -0.040595014 0.11894053 0.050689436 0.14668344 -0.040020198
0.074707456 0.050261352 -0.005867311 0.117362 -0.10382917 -0.025757428 0.095026866 0.10135859
0.10672876 0.15413629 0.025505163 0.14386432 -0.016748177 0.09596368 -0.03965615 -0.08195038
0.002846332 0.06279008 -0.07236709 -0.02581519 0.08305665 0.14223605 -0.033990294 -0.006346583
0.10891778 0.07026625 0.116748676 0.059294604 0.06624251 -0.050442073 0.101708174 0.15759608
-0.030828478 -0.099371254 0.043985397 0.024425933 0.115221836 0.08058824 0.020996071 -0.013795709
0.06542205 0.030519588 0.08753876 0.03550312 0.12515786 -0.005084724 -0.007493606 0.091314495
0.12700808 -0.07059289 0.054062776 0.1354902 0.06138869 0.068466745 0.15889348 0.16844893
0.040646512 -0.05868325 0.036929507 -0.07016581 -0.07978884 0.06798254 -0.055910137 0.035594016
0.13095438 0.0242591 -0.029572628 -0.06288959 -0.07971683 0.1562355 -0.08065103 -0.051460024
0.120000035 0.13533314 0.0075248433 0.13935366 0.117517665 -0.05687364 -0.014630284 0.13895571
0.03458898 -0.015597927 -0.0022212488 0.051010285 -0.050251827 0.073199995 -0.06891643 0.08669221
-0.044531677 0.13682544 0.09282171 0.0032660423 -0.05513837 0.064048275 0.09513257 -0.063721836
0.15839396 0.09681179 -0.09060441 -0.0994369 0.14541826 0.012695595 -0.0884955 0.10195284
-0.09275036 -0.077976376 -0.040671326 0.07057104 0.05846111 0.06665005 0.10504113 0.054477073
0.117051594 0.1405361 -0.020995663 0.055390548 0.05136814 -0.059611205 -0.023499664 -0.060151055
-0.08780156 0.055408027 -0.08187355 0.0022243648 -0.099739425 -0.1343668 -0.048609555 -0.08850553
0.07222474 0.051692285 0.08559864 -0.011397101 0.018602673 -0.022266254 -0.10249747 0.15021269
0.022148304 -0.07120514 -0.0867988 0.12428727 -0.11885167 0.036695644 -0.007644977 0.04840032
-0.07398946 -0.006739785 0.086088955 -0.07978902 0.13983402 0.05035868 -0.039138213 0.08488383
0.029720154 0.0015280561 0.015104927 0.07881464 0.023239005 -0.06981533 -0.09066039 -0.05913244
0.05788522 -0.08049019 0.089246586 0.10021172 -0.031516004 0.12653631 -0.054323446 0.14778648
0.13902214 -0.033601467 0.108490616 -0.003133527 0.11254515 0.13929155 0.13631341 0.009631724
0.0626615 0.002281199 -0.15373857 -0.09927979 -0.06520106 0.0043920577 0.113995455 0.07310205
0.13657892 0.076244324 0.0068853726 -0.028874665 -0.03167438 -0.046968453 -0.06963678 -0.004446174
0.15603493 0.08080718 0.14628316 0.0072818226 0.00030728805 -0.06741624 0.14843476 0.072107404
0.08630836 0.07835111 -0.032670334 0.07112312 0.03778063 0.009988595 0.021431495 0.096982874
0.117563814 -0.023095725 0.08339779 0.1146717 0.069483496 0.08669945 0.15447177 0.0038254648
-0.0061127073 0.051914204 0.0066910908 0.035577774 0.009703655 0.04168067 0.14561243 0.09194857
0.04967411 -0.022493383 -0.092969164 0.096432894 0.009195899 0.014066543 0.03518514 -0.05066753
-0.0812756 -0.07753143 0.044230405 0.12962893 -0.030254956 -0.06583466 0.078269035 -0.03310926
0.027659277 0.05962568 0.015192478 0.0049154516 0.07712364 0.07649933 0.09779022 -0.060353573
00000000: f571 42bd 996b 4e3d 04b6 93bd f546 26bd
00000010: 1897 f33d ba9f 4f3d 2f34 163e 38ec 23bd
00000020: 3900 993d d9de 4d3d 9242 c0bb 7d5b f03d
00000030: 63a4 d4bd 3e01 d3bc 729d c23d 1895 cf3d
00000040: 9c94 da3d e7d5 1d3e 34f0 d03c 2b51 133e
00000050: 7933 89bc 9b88 c43d 7d6e 22bd 9ad5 a7bd
00000060: 8789 3a3b 1698 803d 3235 94bd 617a d3bc
00000070: 9b19 aa3d 54a6 113e 6839 0bbd fff6 cfbb
00000080: 4910 df3d c0e7 8f3d ee19 ef3d e6de 723d
00000090: 27aa 873d 599c 4ebd 604c d03d de60 213e
000000a0: 018c fcbc 2883 cbbd 082a 343d e518 c83c
000000b0: 6df9 eb3d 720b a53d f4ff ab3c 6607 62bc
000000c0: fffb 853d 3704 fa3c 8547 b33d b86b 113d
000000d0: 6229 003e c29d a6bb ec8c f5bb 1803 bb3d
000000e0: 680e 023e 0193 90bd ee70 5d3d f1bd 0a3e
000000f0: b572 7b3d 4b38 8c3d f9b4 223e e07d 2c3e
00000100: f57c 263d d95d 70bd 6543 173d 18b3 8fbd
00000110: 5568 a3bd 6e3a 8b3d 0702 65bd 08cb 113d
00000120: e818 063e 05bb c63c 4c42 f2bc 42cc 80bd
00000130: 9442 a3bd 33fc 1f3e 5e2c a5bd bfc7 52bd
00000140: 94c2 f53d c594 0a3e f692 f63b bab2 0e3e
00000150: 1aad f03d 55f4 68bd dcb3 6fbc 684a 0e3e
00000160: 2dad 0d3d 738e 7fbc 5f92 11bb 29f0 503d
00000170: dcd4 4dbd e1e9 953d 0f24 8dbd af8b b13d
00000180: d966 36bd f81b 0c3e 4f19 be3d 190b 563b
00000190: c5d8 61bd be2b 833d ddd4 c23d 9880 82bd
000001a0: 0732 223e 4245 c63d ce8e b9bd 93a5 cbbd
000001b0: 86e8 143e 2f01 503c 213d b5bd a7cc d03d
000001c0: e7f3 bdbd 14b2 9fbd fa96 26bd 8d87 903d
000001d0: eb74 6f3d d27f 883d ce1f d73d 5a23 5f3d
000001e0: bfb8 ef3d b2e8 0f3e 19ff abbc 33e1 623d
000001f0: 6667 523d e12a 74bd 5e82 c0bc f460 76bd
00000200: 4ed1 b3bd 87f3 623d 52ad a7bd a6c6 113b
00000210: 2f44 ccbd 7397 09be d01a 47bd 6342 b5bd
00000220: 91ea 933d 4abb 533d 574e af3d e8ba 3abc
00000230: a264 983c b867 b6bc 32ea d1bd 5bd1 193e
00000240: 5c70 b53c 00d4 91bd 92c3 b1bd 538a fe3d
00000250: 8168 f3bd 2c4e 163d b782 fabb 6a3f 463d
00000260: c987 97bd 6ad9 dcbb 684f b03d 6d68 a3bd
00000270: a630 0f3e e744 4e3d 644f 20bd 93d7 ad3d
00000280: ae77 f33c 0e49 c83a a87a 773c 9269 a13d
00000290: ba5f be3c 57fb 8ebd 28ac b9bd db34 72bd
000002a0: 0d19 6d3d 0ad8 a4bd eac6 b63d cd3b cd3d
000002b0: ed16 01bd bc92 013e 4382 5ebd 5755 173e
000002c0: d25b 0e3e b1a1 09bd 5430 de3d dc5b 4dbb
000002d0: 127e e63d 72a2 0e3e be95 0b3e 61ce 1d3c
000002e0: ac54 803d 2b80 153b a56d 1dbe 3453 cbbd
000002f0: 2288 85bd 40eb 8f3b 7376 e93d 87b6 953d
00000300: 58db 0b3e fc25 9c3d b19e e13b 908a ecbc
00000310: ffbc 01bd fe61 40bd ba9d 8ebd 36b1 91bb
00000320: 9fc7 1f3e 3c7e a53d 41cb 153e 5b9c ee3b
00000330: 811b a139 8711 8abd 48ff 173e 0cad 933d
00000340: 70c2 b03d 8c76 a03d 54d1 05bd 00a9 913d
00000350: ddbf 1a3d 34a7 233c 1a91 af3c f59e c63d
00000360: 4cc5 f03d 3f33 bdbc 76cc aa3d ffd8 ea3d
00000370: 5d4d 8e3d 7b8f b13d d92d 1e3e a6b4 7a3b
00000380: 1b4d c8bb fda3 543d f040 db3b 00ba 113d
00000390: 14fc 1e3c 5ab9 2a3d 6d1b 153e 884f bc3d
000003a0: 1477 4b3d 0b44 b8bc 9e66 bebd 9c7e c53d
000003b0: 65aa 163c 5c77 663c 4b1e 103d c288 4fbd
000003c0: d273 a6bd ccc8 9ebd f12a 353d 72bd 043e
000003d0: 3ed9 f7bc 52d4 86bd 844b a03d 939d 07bd
000003e0: b595 e23c 0f3a 743d dfe9 783c cc11 a13b
000003f0: 00f3 9d3d aeab 9c3d 3d46 c83d 4f35 77bd

lstm.bias_hh_l0 f4 [256]
0.12145285 0.10471145 0.038748894 0.04408435 0.0693524 0.020725178 -0.033193946 0.06790464
0.03381085 -0.06357404 0.12380754 0.049407296 0.04716419 0.08282354 -0.05367052 0.09629112
0.13636321 0.13470629 0.047495794 0.0056691417 0.011709261 0.12904304 0.023449387 0.044653494
-0.026487418 -0.054456796 0.10678445 0.08654411 0.002057353 0.15151182 -0.07768272 -0.07422857
0.094589636 0.06476664 0.13150291 0.09209218 -0.083962195 -0.040804997 0.08171831 0.15168087
-0.05803188 0.08236407 -0.05968923 -0.111881554 -0.015916405 -0.014323556 0.121340394 0.10887444
0.01790122 0.08314787 0.087424226 0.02696707 0.15949298 0.048756447 -0.029811729 0.07446693
0.10671559 0.10289762 -0.005514586 0.062043477 0.034991745 -0.044995986 0.013835249 -0.06704443
-0.061302066 -0.083903424 -0.10648736 0.10645471 0.10135018 -0.04512764 -0.07120911 0.010911156
0.09419558 0.15046512 0.09552839 -0.05725777 0.04358039 -0.044026114 0.12371312 0.07823464
0.14643168 0.04861673 -0.07204183 -0.014520103 -0.016532218 0.10670756 -0.039045095 0.06586843
-0.07722134 0.09798114 0.14705291 0.13155434 0.15111119 -0.068490565 0.0762614 0.082081415
-0.07721181 -0.06340514 -0.0841773 0.10769965 0.082318544 -0.010166984 0.15595296 0.058055524
-0.07714571 -0.018996038 -0.034023333 0.010572801 -0.0431354 0.018396476 -0.015242585 0.0965009
0.07600758 -0.049137887 -0.016326744 -0.06451338 0.07350877 0.14163205 0.0038928152 -0.0755808
-0.09462306 0.1405503 -0.08560064 0.036944974 0.07625009 -0.026669458 -0.03454379 0.12087873
-0.037192274 0.048308484 -0.041274253 0.14848857 -0.021544868 -0.054414585 0.08999086 0.14279962
-0.03979339 -0.02341814 -0.102469854 0.13246265 -0.027157262 0.069097266 0.08554408 0.15971667
0.035240505 0.030355427 -0.0042979475 0.07377089 -0.08873903 -0.034132775 0.067761876 0.13643984
-0.036076818 -0.02453791 -0.046312574 0.12526979 0.099614106 -0.032804113 0.15233059 0.01598247
0.02210558 -0.12051583 0.050930396 -0.1159848 0.025078407 0.025325593 0.11669934 -0.04095879
0.029373964 -0.004693361 0.094396904 0.000555916 0.0669637 0.060916714 -0.042900026 0.13278192
-0.08148684 0.077872306 0.093322024 -0.104342684 -0.08378576 0.070209146 0.09783885 -0.010447486
0.03900176 0.08743215 -0.06313994 0.0019787669 0.06473868 0.04092383 0.029242162 -0.0015926245
0.114515156 0.02735637 -0.032135416 0.07490051 0.087051116 0.14088967 0.16677892 0.11793455
-0.050078027 0.012511528 0.10892316 0.09656252 -0.06346462 0.10377235 0.113841794 0.034536146
0.14702338 0.1068075 0.08810187 0.10078742 0.09307924 0.1407751 -0.01871654 0.08139494
-0.1062402 -0.04054009 0.03578047 -0.08774493 0.16028036 0.13006575 0.14516114 -0.036921885
0.032088075 0.13019381 -0.068399265 0.030113762 0.020060502 -0.0010702463 0.16664618 -0.06984665
0.0065089283 -0.0154239945 -0.021255972 0.12330352 0.0057255467 0.05557402 -0.09234175 0.1546577
0.10334323 0.006694682 -0.0090552205 -0.057575252 -0.013025679 0.035868373 -0.017047409 0.13982187
0.11472468 0.03338592 0.14445533 0.15148945 -0.075216606 0.13173999 0.010112069 -0.015587072
00000000: 46bc f83d f572 d63d 29b7 1e3d cb91 343d
00000010: a208 8e3d d9c7 a93c 60f6 07bd 9711 8b3d
00000020: 3f7d 0a3d 1b33 82bd cf8e fd3d 4e5f 4a3d
00000030: 3d2f 413d 639f a93d 9fd5 5bbd 4734 c53d
00000040: cca2 0b3e 72f0 093e f38a 423d 35c4 b93b
00000050: 33d8 3f3c dc23 043e ee18 c03c 95e6 363d
00000060: 24fc d8bc 170e 5fbd ceb1 da3d 0a3e b13d
00000070: a8d4 063b ea25 1b3e 1e18 9fbd 2605 98bd
00000080: 36b8 c13d 5fa4 843d b3a8 063e d39a bc3d
00000090: 5ff4 abbd 2423 27bd ee5b a73d 3b52 1b3e
000000a0: d6b2 6dbd 7eae a83d b27c 74bd 2822 e5bd
000000b0: 1f63 82bc 59ad 6abc 5081 f83d 90f9 de3d
000000c0: 94a5 923c 6e49 aa3d 790b b33d 0bea dc3c
000000d0: 2152 233e d7b4 473d ba37 f4bc 1e82 983d
000000e0: b48d da3d fdbb d23d b3b3 b4bb 4d21 7e3d
000000f0: 8153 0f3d b64d 38bd 3dad 623c 974e 89bd
00000100: e017 7bbd 8fd5 abbd 0c16 dabd ed04 da3d
00000110: af90 cf3d c3d7 38bd 15d6 91bd b5c4 323c
00000120: 9de9 c03d 8713 1a3e 63a4 c33d 2087 6abd
00000130: 5a81 323d ba54 34bd 4e5d fd3d 7c39 a03d
00000140: 30f2 153e 5622 473d ab8a 93bd bae5 6dbc
00000150: 936e 87bc 7e89 da3d c0ed 1fbd 07e6 863d
00000160: 3926 9ebd 56aa c83d 0a95 163e 2eb6 063e
00000170: e4bc 1a3e c844 8cbd f02e 9c3d 4d1a a83d
00000180: 3a21 9ebd 8eda 81bd 2665 acbd a291 dc3d
00000190: a096 a83d 6c93 26bc 22b2 1f3e a1cb 6d3d
000001a0: 92fe 9dbd 949d 9bbc 0d5c 0bbd 8b39 2d3c
000001b0: bfae 30bd 35b4 963c 09bc 79bc 44a2 c53d
000001c0: dda9 9b3d cf44 49bd aabf 85bc 971f 84bd
000001d0: c48b 963d fe07 113e 9a1e 7f3b 1bca 9abd
000001e0: bcc9 c1bd 6bec 0f3e 634f afbd 9d53 173d
000001f0: 0229 9c3d e879 dabc ca7d 0dbd 458f f73d
00000200: ed56 18bd 1edf 453d 310f 29bd 630d 183e
00000210: dd7e b0bc d4e1 5ebd 214d b83d 103a 123e
00000220: 65fe 22bd 66d7 bfbc b7db d1bd 4aa4 073e
00000230: e878 debc de82 8d3d bc31 af3d c48c 233e
00000240: 5958 103d f2ab f83c ccd5 8cbb 3115 973d
00000250: cfbc b5bd cfce 0bbd bdc6 8a3d e3b6 0b3e
00000260: 49c5 13bd ba03 c9bc 41b2 3dbd b946 003e
00000270: 7b02 cc3d 9b5d 06bd 8dfc 1b3e abed 823c
00000280: c316 b53c 01d1 f6bd 649c 503d 7089 edbd
00000290: 3b71 cd3c 9e77 cf3c 1000 ef3d 67c4 27bd
000002a0: aba1 f03c c4ca 99bb 2a53 c13d e4ba 113a
000002b0: 4424 893d ce83 793d f0b7 2fbd fcf7 073e
000002c0: 93e2 a6bd 847b 9f3d 9e1f bf3d 9eb1 d5bd
000002d0: de97 abbd d0c9 8f3d bc5f c83d ef2b 2bbc
000002e0: 4fc0 1f3d a10f b33d 834f 81bd 33ae 013b
000002f0: b795 843d bf9f 273d 428d ef3c 9cbf d0ba
00000300: ec86 ea3d 771a e03c 6da0 03bd 7065 993d
00000310: db47 b23d 6245 103e 18c8 2a3e ab87 f13d
00000320: 9e1e 4dbd 27fd 4c3c 1b13 df3d 92c2 c53d
00000330: bdf9 81bd 9986 d43d e325 e93d c675 0d3d
00000340: 4c8d 163e e4bd da3d c16e b43d a369 ce3d
00000350: 54a0 be3d 5927 103e 6e53 99bc 64b2 a63d
00000360: 7694 d9bd 5e0d 26bd 8b8e 123d 9db3 b3bd
00000370: 8920 243e f52f 053e 1fa5 143e 673b 17bd
00000380: c96e 033d 8751 053e ea14 8cbd 23b1 f63c
00000390: ec55 a43c 8247 8cba 4ca5 2a3e c30b 8fbd
000003a0: d948 d53b ecb4 7cbc 0121 aebc 8e86 fc3d
000003b0: 5e9d bb3b 95a1 633d ac1d bdbd 975e 1e3e
000003c0: 9ea5 d33d 105f db3b 595c 14bc 07d4 6bbd
000003d0: a869 55bc b7ea 123d 02a7 8bbc 772d 0f3e
000003e0: c6f4 ea3d adbf 083d 19ec 133e 0d20 1b3e
000003f0: 2a0b 9abd d9e6 063e 17ad 253c eb60 7fbc

lstm.weight_ih_l1 f4 [256, 64]
-0.07595392 0.023581497 0.15877219 0.09234062 -0.16999783 0.05272428 0.06369372 0.08323651
-0.06836508 -0.035038542 -0.033895183 0.021210464 -0.020981714 -0.15330419 0.119161166 0.03369911
0.036581926 -0.0050303717 0.13969307 0.03268856 0.045701962 -0.0112812705 0.040310565 0.12141491
-0.022949113 -0.049519565 -0.041202497 -0.14641233 -0.16806708 0.02929015 0.073573746 0.030068923
-0.04741078 0.09162657 0.06454069 0.062351312 0.02786834 -0.04807745 0.15371111 0.058334272
-0.0036433148 0.04252746 -0.06519697 -0.0074489126 -0.059794895 0.14702888 0.039026327 -0.050033625
-0.0147154955 0.035936456 -0.07540037 -0.10622479 -0.010462053 0.033734556 0.10910351 -0.15567677
-0.057202954 -0.037979413 -0.05230452 -0.04497056 -0.136679 -0.0038478614 0.0045355246 0.049243722
-0.1313094 0.033567593 0.10130881 -0.012109543 -0.08583147 0.009447077 -0.11195596 0.15125419
0.02883181 -0.16402866 0.07372294 0.0017269829 0.005727633 0.019504623 0.08480482 -0.039825514
0.06519664 0.11133719 0.019542573 0.121353246 -0.033311162 -0.107111976 -0.018050551 -0.07392195
0.015653847 0.034073226 -0.018171888 -0.019341309 -0.04348365 0.16486058 -0.06453375 0.07589192
0.13998173 0.028976811 0.06041812 -0.14109096 -0.07642234 -0.020300794 -0.037297767 -0.043886095
-0.02995095 -0.17132577 0.00783076 0.03649317 0.03587221 -0.057642963 -0.13620043 -0.014339678
-0.13915892 -0.15986583 -0.06701175 0.039262135 0.10742997 0.0516625 -0.053514756 0.008860529
-0.008208431 0.049771607 0.019947698 0.15308765 -0.12857747 0.16919751 0.08487689 0.15668838
-0.14502032 -0.029851742 0.08542445 -0.011273825 0.06605584 0.029851997 0.04223723 0.027466359
-0.08929333 -0.04688073 -0.10614463 -0.023438625 -0.112876095 0.07380093 -0.022182778 0.11364858
0.018706927 -0.07374482 0.052017014 0.14195338 0.012180667 -0.017904231 0.07124666 0.09703589
-0.09452172 0.018171405 0.03264373 0.049842 -0.10311203 0.010934936 0.0059955586 0.12132691
-0.10670755 -0.017081093 -0.08778842 -0.03549425 -0.08692219 -0.10810873 0.13918956 0.0047094687
0.11340699 0.034654923 0.107771754 -0.07400126 -0.1391088 0.013712098 -0.028617697 0.09936691
0.027107228 0.09334869 -0.038552407 -0.0009051179 -0.008159658 -0.09232717 -0.030201372 -0.022031087
0.009566743 -0.07438706 0.08016434 0.06327844 -0.13295968 0.010114531 -0.041199334 -0.08838073
-0.14551504 -0.158117 0.17585339 0.11625462 -0.009987491 0.008460552 0.024793252 -0.049258083
0.04799376 -0.13483879 0.106856786 0.004847585 0.00096984435 -0.05712159 0.14006394 0.012798185
-0.069683895 0.045221087 0.15890639 -0.049635824 -0.00531675 0.057131547 0.11784241 0.16660516
-0.012550421 -0.058584865 0.07352512 -0.04830214 -0.15568784 -0.029339073 0.09910298 0.14490771
0.13228418 -0.062143058 -0.08028089 -0.03634032 -0.06364422 0.079464175 0.14768927 0.05806467
0.049262878 -0.12822537 0.04972902 0.13430876 -0.039081357 -0.07850842 0.06367558 -0.04253635
-0.010811513 -0.09338081 -0.05001608 -0.097885475 0.16777778 -0.05472252 -0.011997759 -0.04248532
-0.11894636 0.018177746 -0.12224959 -0.024359856 0.06540718 0.098379895 0.13210402 0.052767795
00000000: bb8d 9bbd fc2d c13c 2d95 223e 141d bd3d
00000010: e913 2ebe 6af5 573d da71 823d e777 aa3d
00000020: fe02 8cbd 9384 0fbd add5 0abd 91c1 ad3c
00000030: d8e1 abbc c6fb 1cbe c50a f43d 1408 0a3d
00000040: eed6 153d d1d5 a4bb b30b 0f3e 71e4 053d
00000050: fb31 3b3d 14d5 38bc b11c 253d 61a8 f83d
00000060: c7ff bbbc 07d5 4abd f3c3 28bd 1ded 15be
00000070: c719 2cbe e6f1 ef3c d5ad 963d 1a53 f63c
00000080: ce31 42bd b6a6 bb3d e92d 843d 1764 7f3d
00000090: 254c e43c dcec 44bd 7266 1d3e ebef 6e3d
000000a0: aec4 6ebb 4631 2e3d fd85 85bd 0216 f4bb
000000b0: 7eeb 74bd bd8e 163e 12da 1f3d 0ff0 4cbd
000000c0: 4319 71bc 1b32 133d 826b 9abd 628c d9bd
000000d0: 0869 2bbc 3f2d 0a3d a971 df3d bb69 1fbe
000000e0: a54d 6abd 4d90 1bbd 443d 56bd 0d33 38bd
000000f0: 94f5 0bbe 672c 7cbb bd9e 943b c9b3 493d
00000100: f975 06be 2c7e 093d fe7a cf3d 1b67 46bc
00000110: 69c8 afbd eac7 1a3c 2b49 e5bd 61e2 1a3e
00000120: b030 ec3c 21f7 27be 0efc 963d ee5b e23a
00000130: deae bb3b 29c8 9f3c 26ae ad3d 1420 23bd
00000140: d185 853d c104 e43d bf17 a03c 0d88 f83d
00000150: 4971 08bd 865d dbbd c0de 93bc 6464 97bd
00000160: 7f3c 803c 5e90 0b3d 36dd 94bc aa71 9ebc
00000170: e91b 32bd 36d1 283e 452a 84bd 396d 9b3d
00000180: 5f57 0f3e c760 ed3c fe78 773d 267a 10be
00000190: 5183 9cbd da4d a6bc 8bc5 18bd e8c1 33bd
000001a0: b25b f5bc 0670 2fbe 974c 003c dd79 153d
000001b0: bdee 123d 071b 6cbd 2078 0bbe f8f0 6abc
000001c0: ad7f 0ebe deb3 23be 753d 89bd 55d1 203d
000001d0: 3e04 dc3d 0f9c 533d 4a32 5bbd c12b 113c
000001e0: a87c 06bc 50dd 4b3d 5b69 a33c 02c3 1c3e
000001f0: d0a9 03be 1d42 2d3e efd3 ad3d eb72 203e
00000200: 3580 14be a48b f4bc 04f3 ae3d d9b5 38bc
00000210: 4948 873d 2d8c f43c f200 2d3d 2101 e13c
00000220: 6cdf b6bd 0206 40bd 5b62 d9bd 5c02 c0bc
00000230: 952b e7bd f124 973d a8b8 b5bc 96c0 e83d
00000240: 453f 993c 8607 97bd cb0f 553d 3a5c 113e
00000250: 6c91 473c e5ab 92bc c5e9 913d c1ba c63d
00000260: 9b94 c1bd 33dc 943c 6fb5 053d 2027 4c3d
00000270: 662c d3bd 7228 333c 6476 c43b 3e7a f83d
00000280: 7d89 dabd a6ed 8bbc 6aca b3bd 6b62 11bd
00000290: 4304 b2bd 1c68 ddbd b587 0e3e e351 9a3b
000002a0: ed41 e83d 52f2 0d3d 70b7 dc3d f98d 97bd
000002b0: 8a72 0ebe b5a8 603c a96f eabc e180 cb3d
000002c0: fa0f de3c 992d bf3d 21e9 1dbd 6f45 6dba
000002d0: 16b0 05bc 0716 bdbd de68 f7bc 8a7a b4bc
000002e0: d4bd 1c3c 3e58 98bd 342d a43d 2098 813d
000002f0: 9526 08be 6bb7 253c a2c0 28bd f500 b5bd
00000300: e501 15be 6ce9 21be e912 343e e716 ee3d
00000310: 93a2 23bc 219e 0a3c 381b cb3c d8c2 49bd
00000320: 1b95 443d 2e13 0abe bbd7 da3d 7ed8 9e3b
00000330: 273d 7e3a 54f8 69bd ec6c 0f3e 7baf 513c
00000340: 6eb6 8ebd bf39 393d 5bb8 223e ef4e 4bbd
00000350: 2238 aebb c502 6a3d 5d57 f13d 8b9a 2a3e
00000360: 48a0 4dbc aff6 6fbd 5794 963d 77d8 45bd
00000370: a26c 1fbe 7f58 f0bc 81f6 ca3d b062 143e
00000380: 8175 073e b889 7ebd 4f6a a4bd 96d9 14bd
00000390: e757 82bd 1dbe a23d db3b 173e 38d5 6d3d
000003a0: dfc7 493d 834d 03be a8b0 4b3d 3c88 093e
000003b0: c613 20bd 06c9 a0bd 5868 823d 993a 2ebd
000003c0: c622 31bc 703e bfbd a9dd 4cbd 2e78 c8bd
000003d0: f0cd 2b3e b924 60bd 4092 44bc 1605 2ebd
000003e0: 269a f3bd 7fe9 943c fe5d fabd 528e c7bc
000003f0: 33f4 853d 667b c93d 4746 073e 0b23 583d

lstm.weight_hh_l1 f4 [256, 64]
0.06711773 -0.0026981165 0.026921446 -0.006539808 -0.039806515 0.0172996 0.036058825 -0.0089366315
0.034005906 0.08407885 -0.041476186 0.119373284 -0.05441133 -0.059936106 -0.029558523 0.113184355
0.03528216 0.02298242 0.091646716 0.12519607 -0.07942952 0.07622381 0.09106424 -0.13917817
-0.09133308 -0.050468452 0.1084388 0.026515495 -0.080771565 -0.042667255 -0.06752841 -0.080564454
0.1305052 -0.04626033 -0.010655105 0.046852697 0.016788846 0.038288064 -0.15664092 -0.097479336
-0.0018262081 0.033322804 0.030964077 0.04241232 0.099009745 -0.11993662 -0.077083096 0.06061885
0.012826423 0.08732337 0.07281741 -0.03448259 0.09992382 0.099871606 -0.08742027 0.010678809
-0.012513226 0.0046033543 0.009213182 0.009023571 -0.023458056 0.0046534883 -0.14687762 -0.014619648
-0.0015315705 0.010979539 0.06299314 0.060229458 0.15542087 0.022601958 -0.056348648 0.060573597
-0.111161985 0.1064663 -0.09166496 -0.060835153 0.13539295 -0.07017271 -0.1644134 0.012894839
-0.013837836 -0.033499967 -0.07468081 0.061820537 0.059840586 0.06977431 -0.14974909 0.06813063
-0.08748114 -0.0545135 0.15450634 -0.07440667 -0.043996945 0.0765177 0.025601689 0.00317576
-0.03231864 0.046842907 -0.12400046 0.05951614 0.104689956 0.003911539 -0.031527217 0.06806885
0.07772018 0.12313703 -0.021668782 -0.008946441 -0.046960425 -0.08543164 0.016621262 -0.12250507
-0.035767853 0.025004135 0.0018770604 0.042502433 -0.036840513 -0.029152105 -0.04320018 -0.1644146
0.009202772 0.04506054 -0.010330344 0.14399363 0.1575032 -0.014509491 -0.14478037 0.06749548
0.12991956 0.04259466 0.058503974 0.021619055 0.1345719 -0.026200598 0.11024437 0.039767668
-0.11260712 0.014873657 -0.023823727 0.10509437 -0.028364029 0.08767652 0.045148145 -0.03503493
0.010373885 -0.15311982 -0.15711646 -0.05469426 0.099793166 0.031347454 0.07331946 -0.12583917
-0.02292183 0.12203466 -0.06881826 0.10903012 -0.04948008 -0.12066092 -0.05812965 -0.040113218
0.08883744 0.016314691 0.072962664 -0.051985424 0.12070653 -0.09423929 -0.024305347 0.13462597
-0.015619536 0.035986666 0.0060795723 0.051124085 -0.030129531 -0.12441338 -0.043499764 0.020659184
-0.060719896 0.012200903 0.021216504 -0.12576218 -0.06395382 -0.072300754 -0.10869733 -0.027022157
0.117102414 0.09074081 0.0636347 0.06854954 -0.038989462 0.035461236 0.05219471 -0.15116902
0.08954347 0.016862324 0.049118895 0.012267796 -0.081508145 0.022154288 -0.070079386 -0.02633809
-0.047642674 0.10335604 0.041442815 -0.017064411 -0.020859847 -0.015383772 -0.1284461 -0.006976258
0.041490145 -0.0039535416 0.08008285 0.020831585 -0.04589249 0.13432905 0.010668033 -0.051737715
0.06596056 0.14001569 0.028707538 0.04723419 0.14869505 -0.0816627 0.03266413 0.0011212988
-0.05712436 0.06090419 -0.053462427 0.090164594 0.027091702 0.15068589 0.052808095 0.024874732
0.057672694 0.16861787 -0.093517914 0.11435403 -0.09904611 -0.029538453 -0.021982176 -0.053098723
0.004707057 -0.05801664 0.0008168339 0.05152904 0.08715575 0.14273612 -0.16615808 0.054741494
0.068966426 0.16037372 -0.027472511 0.045054454 0.14726482 -0.10747648 -0.12645075 -0.07149274
00000000: 0575 893d e2d2 30bb 5d8a dc3c e34b d6bb
00000010: 280c 23bd e4b7 8d3c 6bb2 133d f36a 12bc
00000020: c749 0b3d 8831 ac3d efe2 29bd fb79 f43d
00000030: 6ade 5ebd 907f 75bd b724 f2bc 33cd e73d
00000040: 0784 103d a145 bc3c 46b1 bb3d 6633 003e
00000050: f2ab a2bd 3b1b 9c3d e37f ba3d b984 0ebe
00000060: d60c bbbd 02b8 4ebd 2915 de3d 0637 d93c
00000070: 906b a5bd dcc3 2ebd 564c 8abd fafe a4bd
00000080: 28a3 053e 797b 3dbd c092 2ebc 9de8 3f3d
00000090: c388 893c f2d3 1c3d 7a66 20be 3fa3 c7bd
000000a0: 605d efba 7e7d 083d 60a8 fd3c 8ab8 2d3d
000000b0: 9fc5 ca3d 55a1 f5bd bedd 9dbd 794b 783d
000000c0: eb25 523c 98d6 b23d 4b21 953d 9e3d 0dbd
000000d0: dca4 cc3d 7c89 cc3d 6609 b3bd 2cf6 2e3c
000000e0: 4604 4dbc bcd7 963b e3f2 163c 9ad7 133c
000000f0: 1c2b c0bc 4a7c 983b 1667 16be 4087 6fbc
00000100: fabe c8ba 86e3 333c 8c02 813d 2ab3 763d
00000110: a626 1f3e be27 b93c d7cd 66bd 051c 783d
00000120: e5a8 e3bd 010b da3d d7ba bbbd 482e 79bd
00000130: 73a4 0a3e b6b6 8fbd fd5b 28be e044 533c
00000140: 17b8 62bc 4337 09bd 41f2 98bd 8837 7d3d
00000150: 671b 753d d5e5 8e3d d357 19be 1288 8b3d
00000160: 5029 b3bd 8c49 5fbd e936 1e3e 8662 98bd
00000170: 2436 34bd 50b5 9c3d a2ba d13c 6920 503b
00000180: 8d60 04bd 59de 3f3d f4f3 fdbd 32c7 733d
00000190: b067 d63d 5e2c 803b af22 01bd ae67 8b3d
000001a0: c22b 9f3d 442f fc3d bb82 b1bc 1894 12bc
000001b0: 9359 40bd c9f6 aebd 5029 883c f0e3 fabd
000001c0: 5081 12bd 79d5 cc3c b207 f63a 0817 2e3d
000001d0: 14e6 16bd 65d0 eebc acf2 30bd 4d5c 28be
000001e0: 39c7 163c 6791 383d 9a40 29bc 1173 133e
000001f0: 8548 213e 37b9 6dbc 4e41 14be 123b 8a3d
00000200: a209 053e bd77 2e3d dda1 6f3d 721a b13c
00000210: 37cd 093e a3a2 d6bc cdc7 e13d 6ce3 223d
00000220: 909e e6bd a4b0 733c fa29 c3bc b83b d73d
00000230: ae5b e8bc bf8f b33d 43ed 383d c980 0fbd
00000240: 3af7 293c 71cb 1cbe 23e3 20be 1707 60bd
00000250: 5c60 cc3d 3066 003d 8328 963d fcdb 00be
00000260: 90c6 bbbc 4fed f93d 97f0 8cbd 2f4b df3d
00000270: a0ab 4abd 131d f7bd 5b19 6ebd c24d 24bd
00000280: 67f0 b53d 63a6 853c 736d 953d abee 54bd
00000290: fc34 f73d 8700 c1bd 021c c7bc 64db 093e
000002a0: 15e9 7fbc c166 133d 2637 c73b 7d67 513d
000002b0: 35d2 f6bc 71cc febd cf2c 32bd 733d a93c
000002c0: 6db5 78bd 4ce6 473c 3cce ad3c cdc7 00be
000002d0: 38fa 82bd 6b12 94bd b59c debd 925d ddbc
000002e0: 64d3 ef3d 51d6 b93d e952 823d b463 8c3d
000002f0: 6ab3 1fbd cd3f 113d 1fca 553d 0dcc 1abe
00000300: 9162 b73d db22 8a3c e530 493d defe 483c
00000310: beed a6bd e97c b53c c885 8fbd fac2 d7bc
00000320: f724 43bd 55ac d33d f1bf 293d aaca 8bbc
00000330: 45e2 aabc 370c 7cbc 6087 03be 1899 e4bb
00000340: 92f1 293d b68c 81bb 7a02 a43d 00a7 aa3c
00000350: c3f9 3bbd 8e8d 093e f9c8 2e3c edea 53bd
00000360: 5516 873d 4660 0f3e 122c eb3c a378 413d
00000370: 8443 183e c63e a7bd d3ca 053d 8bf8 923a
00000380: 3cfb 69bd ac76 793d 6bfb 5abd 37a8 b83d
00000390: 6bef dd3c 674d 1a3e 4d4d 583d 18c6 cb3c
000003a0: 343a 6c3d 2aaa 2c3e 5286 bfbd 7232 ea3d
000003b0: b0d8 cabd a0fa f1bc f713 b4bc 0c7e 59bd
000003c0: a83d 9a3b dba2 6dbd cc20 563a 1d10 533d
000003d0: b77e b23d 6b29 123e 5825 2abe 9e38 603d
000003e0: 453e 8d3d 0239 243e 080e e1bc 058b 383d
000003f0: 97cc 163e a11c dcbd 4e7c 01be c96a 92bd

lstm.bias_ih_l1 f4 [256]
0.12738615 0.012450852 0.100686885 -0.04831296 -0.07550753 0.14100672 -0.052398894 -0.08050225
-0.008249386 0.13922536 -0.09218028 -0.049654838 0.06976394 0.15284702 -0.018763095 0.124454655
0.07910255 -0.06448837 -0.023587363 0.037537787 0.048007842 -0.088701 -0.025231643 -0.0042776098
-0.025717925 -0.02642386 -0.0116557 -0.007054158 0.029061265 0.06453331 0.063359305 0.041268725
0.08910562 0.034075916 0.02225166 0.1099072 0.10050635 0.08884803 -0.02267939 0.021544896
0.039382275 0.08123773 -0.074884966 0.113716535 -0.050117146 0.024275176 0.09867567 -0.020993583
-0.036462974 -0.00078358065 0.096950546 0.065926105 0.1209096 -0.018856425 -0.030351758 -0.07277158
-0.048556328 0.09862219 0.09493251 -0.090559475 0.123850964 0.10759751 -0.006061884 0.1285713
-0.06678265 -0.034500267 -0.015680058 -0.060467374 -0.028876685 0.11250396 0.13393769 -0.015919631
0.13713261 -0.019115075 0.060122576 0.056698777 -0.027772464 -0.0614864 -0.09482675 0.07250846
0.021167297 0.005056707 0.038461715 0.0032302367 0.09700398 0.025031043 -0.032253444 -0.05840926
0.015381555 0.1130391 0.07234974 0.06569678 0.08485933 -0.057493955 0.00750735 -0.01153795
0.047234386 0.08007941 0.04652683 0.0068591633 -0.09023516 -0.051616464 0.04043675 0.031196032
0.03416271 0.036988784 -0.05375644 -0.048373625 -0.10541879 -0.070297256 0.15490319 0.06164885
0.0024760684 -0.079287715 0.0061045145 -0.05825416 -0.019921057 -0.05208075 0.07014291 0.0072775586
-0.01744208 0.07908365 0.099631116 -0.06955195 0.10276086 -0.0136672575 0.030713363 0.0671858
-0.007815678 0.0669728 0.018214768 0.011362549 0.12734365 -0.08469998 0.038424302 -0.068948075
0.111717395 0.05038095 -0.0919547 0.11629377 -0.037667625 -0.038535703 -0.112971105 -0.014926318
0.0110760555 -0.13905965 0.044011027 0.13547793 0.056620944 0.10061255 -0.056755822 -0.1026601
-0.12645459 -0.015570865 -0.060126025 0.100384004 0.009758251 0.09212859 0.036570236 -0.060586553
0.078828864 -0.07050806 -0.04148524 -0.020112019 0.0514971 0.07320054 0.02350421 0.06400265
0.08523373 0.02231135 0.04454424 0.037848715 -0.09818162 -0.10055845 -0.037981335 -0.10384411
0.121208034 -0.06608275 0.02981664 0.02192458 -0.090521954 0.107289374 0.055662703 -0.13201137
-0.079104014 -0.08903775 -0.04080301 0.053081483 0.1364788 -0.11141502 -0.14080372 -0.08357702
0.115247704 -0.05173291 -0.0340699 -0.06378073 -0.06857712 0.12550856 -0.030447416 0.055564813
0.09483221 0.11564684 0.11201636 0.13697454 0.06034136 -0.05817944 0.00026563613 -0.050502703
-0.005184941 0.017902728 -0.012128893 0.073777996 0.039088503 0.12564997 -0.05152567 0.023500226
0.05279421 -0.05109022 0.04340507 0.046021506 0.13768753 0.06263276 0.06571483 0.045886423
0.019970404 -0.029613 0.0628359 0.12945002 0.0898731 -0.07859649 -0.014531461 -0.01575704
-0.009170741 -0.03246023 0.15134363 0.082015604 0.040205505 -0.0684661 -0.07187737 0.021950282
-0.011204426 -0.034315463 -0.040852897 -0.04139511 0.06651401 0.0071388595 0.032759577 0.06889898
0.08156691 -0.058035273 -0.07201185 0.097606756 0.10164565 0.02799268 -0.021721357 0.10987699
00000000: 8471 023e a9fe 4b3c ed34 ce3d cfe3 45bd
00000010: b1a3 9abd 1164 103e 39a0 56bd 5dde a4bd
00000020: 6f28 07bc 1891 0e3e 04c9 bcbd df62 4bbd
00000030: 66e0 8e3d ee83 1c3e 10b5 99bc 15e2 fe3d
00000040: 8500 a23d 7b12 84bd 493a c1bc 39c1 193d
00000050: dfa3 443d dfa8 b5bd 97b2 cebc 312b 8cbb
00000060: 66ae d2bc da76 d8bc 8df7 3ebc 9126 e7bb
00000070: e411 ee3c 0a2a 843d 86c2 813d 6509 293d
00000080: 027d b63d 3093 0b3d 1d49 b63c 0717 e13d
00000090: 46d6 cd3d f5f5 b53d 21ca b9bc ec7e b03c
000000a0: 4f4f 213d f85f a63d 4a5d 99bd 37e4 e83d
000000b0: a347 4dbd bcdc c63c 7816 ca3d bcfa abbc
000000c0: 335a 15bd 3569 4dba 028e c63d 4404 873d
000000d0: 749f f73d ca78 9abc 40a4 f8bc 4409 95bd
000000e0: 00e3 46bd 6efa c93d fa6b c23d 3f77 b9bd
000000f0: 93a5 fd3d 155c dc3d c5a2 c6bb 32a8 033e
00000100: 58c5 88bd 2750 0dbd 7773 80bc a3ac 77bd
00000110: cc8e ecbc 7a68 e63d f626 093e e369 82bc
00000120: 7e6c 0c3e 3897 9cbc 1743 763d fa3c 683d
00000130: 1483 e3bc 2ad9 7bbd 8734 c2bd 517f 943d
00000140: 0a67 ad3c bcb2 a53b 088a 1d3d 61b2 533b
00000150: 06aa c63d e70d cd3c 301c 04bd 8c3e 6fbd
00000160: eb02 7c3c 0b81 e73d 1a2c 943d 098c 863d
00000170: baca ad3d c87e 6bbd 3700 f63b ab09 3dbc
00000180: d878 413d ac00 a43d eb92 3e3d d5c2 e03b
00000190: 36cd b8bd c96b 53bd 01a1 253d d28e ff3c
000001a0: 33ee 0b3d 8d81 173d b62f 5cbd 6c23 46bd
000001b0: cee5 d7bd 02f8 8fbd f19e 1e3e 8183 7c3d
000001c0: 8945 223b 9961 a2bd 6108 c83b ea9b 6ebd
000001d0: 7c31 a3bc a052 55bd 16a7 8f3d 9678 ee3b
000001e0: b1e2 8ebc 9cf6 a13d 660b cc3d 4171 8ebd
000001f0: 4974 d23d a2ec 5fbc 979a fb3c b598 893d
00000200: 540d 00bc 0929 893d 2337 953c fc29 3a3c
00000210: 6066 023e 2f77 adbd cd62 1d3d a634 8dbd
00000220: 17cc e43d 415c 4e3d bf52 bcbd 6e2b ee3d
00000230: 5e49 1abd 9dd7 1dbd 655d e7bd 848d 74bc
00000240: 5878 353c a765 0ebe e844 343d baba 0a3e
00000250: 5deb 673d f40d ce3d cb78 68bd 753f d2bd
00000260: 507d 01be f11c 7fbc b546 76bd 2196 cd3d
00000270: 12e1 1f3c eaad bc3d acca 153d 9b29 78bd
00000280: 0771 a13d 8866 90bd 6dec 29bd f6c1 a4bc
00000290: a0ee 523d 2aea 953d e78b c03c d213 833d
000002a0: 068f ae3d 4bc6 b63c 0574 363d 4107 1b3d
000002b0: 7213 c9bd 97f1 cdbd 5192 1bbd 39ac d4bd
000002c0: eb3b f83d 6556 87bd 0742 f43c 2d9b b33c
000002d0: 9363 b9bd 88ba db3d 93fe 633d fd2d 07be
000002e0: 4901 a2bd 6d59 b6bd 0f21 27bd f86b 593d
000002f0: 19c1 0b3e 8f2d e4bd da2e 10be 6e2a abbd
00000300: fd06 ec3d e3e5 53bd e18c 0bbd 799f 82bd
00000310: 2972 8cbd 5185 003e dc6c f9bc ee97 633d
00000320: 6437 c23d 40d8 ec3d d568 e53d 0e43 0c3e
00000330: 8028 773d 914d 6ebd 1445 8b39 ecdb 4ebd
00000340: 70e6 a9bb bea8 923c 44b8 46bc eb18 973d
00000350: 441b 203d 63aa 003e 950c 53bd 8c83 c03c
00000360: be3e 583d fb43 51bd 84c9 313d 0c81 3c3d
00000370: f6fd 0c3e 9b45 803d 7f95 863d 67f3 3b3d
00000380: f998 a33c f696 f2bc 1cb0 803d 8c8e 043e
00000390: 630f b83d 32f7 a0bd 5d15 6ebc e814 81bc
000003a0: e040 16bc 05f5 04bd d3f9 1a3e ccf7 a73d
000003b0: 87ae 243d f437 8cbd 7134 93bd 14d1 b33c
000003c0: c592 37bc 5f8e 0cbd 5e55 27bd eb8d 29bd
000003d0: 7f38 883d 18ed e93b e82e 063d e91a 8d3d
000003e0: 8d0c a73d 65b6 6dbd f37a 93bd 0de6 c73d
000003f0: 982b d03d e850 e53c fdf0 b1bc 3007 e13d

lstm.bias_hh_l1 f4 [256]
0.11088546 0.12651046 0.07668791 0.031244928 0.15143278 0.08074999 0.10242743 -0.037901454
-0.02731439 0.037624676 0.13576265 0.16320427 0.06698426 0.13610494 0.04083235 0.044295188
-0.033809565 0.13239166 0.13044564 -0.026043987 0.12754832 -0.02845387 -0.06966497 0.0939859
0.12910274 -0.052917615 0.064339 -0.08313983 0.13036162 0.122199036 -0.0369595 0.16261612
0.16128178 0.1242954 -0.03584388 0.0038201173 -0.090464056 0.08203005 0.13187374 -0.056848496
-0.06454545 -0.033163488 0.003418387 0.097579755 -0.11853927 0.058603052 0.04162573 -0.08085187
0.09480583 -0.044072554 0.0011703601 -0.046248227 0.037558246 0.03303227 0.0032466776 0.026531935
0.057011828 0.06352279 0.17264594 0.15253308 0.07087113 -0.022451371 -0.016825955 0.0006507058
-0.064521916 0.050817713 0.10935553 -0.070160866 -0.021431256 -0.028183492 -0.06620564 0.07637099
-0.042700868 0.10834626 0.024254296 0.06625947 0.049017306 0.13304892 0.059256453 -0.05256682
-0.019294735 0.053219 -0.09872861 0.12786788 -0.061700214 -0.0856987 -0.014785245 0.018557886
0.15011878 0.107676126 -0.026043667 0.046150804 -0.08179831 0.048425272 -0.042396978 0.13426083
-0.08146017 -0.12741396 0.15942678 0.057249304 -0.1015266 -0.100539334 0.027613759 -0.029506003
-0.01698742 0.029640296 0.024263358 -0.06074047 0.030616311 -0.056696434 0.11435641 0.12782282
-0.066684715 0.08821711 0.07511592 -0.036622338 0.07688801 -0.0116638765 -0.0455698 0.15449525
-0.09175261 -0.05805181 -0.06760594 0.06862901 -0.05654701 0.055911765 -0.05529785 0.15370524
-0.048600134 -0.01746617 0.12421435 0.041648123 0.13198738 -0.05094421 0.111490436 0.08943872
0.00061699026 -0.09599705 -0.058877718 -0.061907873 0.110120304 0.059889574 -0.11379 0.027460588
-0.052095804 0.037383914 -0.13503 0.091114506 0.09262571 0.08051695 -0.024439523 0.057678863
-0.13767716 -0.09319434 0.14554852 0.03778024 0.1237131 0.05852833 0.08968587 -0.08380347
-0.09926248 0.110477895 -0.030894572 0.06527931 0.11382438 -0.029501118 0.00805144 -0.033304594
-0.10521446 0.005928256 -0.044124924 -0.08612414 -0.019572798 0.096014686 -0.119396135 0.09298212
0.04437871 0.034525573 0.08216811 0.024777468 -0.10405751 0.08180233 0.014209589 0.04704999
0.0565466 0.117925204 -0.018836264 0.12472676 -0.019407548 -0.044089157 0.0495722 -0.04996841
0.11527109 0.04652592 -0.0005071665 0.12631011 0.14011917 -0.084996566 -0.067045674 0.12314758
0.060607906 -0.05422505 -0.04233591 -0.017765982 -0.08652703 0.078220814 -0.028859641 0.07279914
0.088179186 0.025486466 -0.083214484 0.061532535 -0.043098673 0.0072143986 -0.061107673 0.041737232
-0.03203868 -0.029515468 0.12279975 0.102364674 0.0045509753 0.06263987 -0.014476502 -0.071581624
0.011928839 -0.016501851 -0.054583296 0.14546311 0.044897128 0.11674979 0.1486925 0.16674572
-0.06143825 0.012482472 0.14502397 -0.050218914 -0.0222607 0.16611283 -0.03023719 -0.012528788
-0.059113193 0.14929003 0.02508174 -0.019022286 0.09414794 0.13215148 -0.06293463 0.0007650941
-0.029660277 0.023755692 0.0022112573 0.0009203963 0.05543139 -0.00023480298 0.1674943 -0.02577334
00000000: eb17 e33d f58b 013e 8d0e 9d3d 5df5 ff3c
00000010: 3211 1b3e 4060 a53d 79c5 d13d 8e3e 1bbd
00000020: 6dc2 dfbc 551c 1a3d 5d05 0b3e 051f 273e
00000030: 0b2f 893d 185f 0b3e d23f 273d df6e 353d
00000040: e67b 0abd ae91 073e 8b93 053e 335a d5bc
00000050: 079c 023e 1718 e9bc 82ac 8ebd ae7b c03d
00000060: 8233 043e 24c0 58bd 2ac4 833d 3745 aabd
00000070: 847d 053e 7d43 fa3d d862 17bd d784 263e
00000080: 0d27 253e 968e fe3d 08d1 12bd ef5a 7a3b
00000090: 3845 b9bd 5fff a73d e909 073e f8d9 68bd
000000a0: 6830 84bd 70d6 07bd 0407 603b e5d7 c73d
000000b0: b7c4 f2bd c109 703d be7f 2a3d aa95 a5bd
000000c0: 8f29 c23d 6c85 34bd c566 993a c86e 3dbd
000000d0: add6 193d d84c 073d 36c6 543b 8059 d93c
000000e0: 3c85 693d 3d18 823d 19ca 303e a231 1c3e
000000f0: e224 913d f0eb b7bc 96d6 89bc 2194 2a3a
00000100: 1124 84bd 3c26 503d cbf5 df3d 80b0 8fbd
00000110: 9a90 afbc 11e1 e6bc d396 87bd 6568 9c3d
00000120: 1be7 2ebd a5e4 dd3d f2b0 c63c 0cb3 873d
00000130: 5fc6 483d fa3d 083e e5b6 723d 4e50 57bd
00000140: fe0f 9ebc 2bfc 593d 3a32 cabd ccef 023e
00000150: 5db9 7cbd cd82 afbd d03d 72bc b506 983c
00000160: bdb8 193e 4d85 dc3d 8759 d5bc a008 3d3d
00000170: df85 a7bd 9459 463d 74a8 2dbd ac7b 093e
00000180: 97d4 a6bd ce78 02be c640 233e 3f7e 6a3d
00000190: 2eed cfbd 91e7 cdbd 4036 e23c 93b6 f1bc
000001a0: 3429 8bbc 35d0 f23c f3c3 c63c 00cb 78bd
000001b0: 0fcf fa3c 853a 68bd b233 ea3d fce3 023e
000001c0: ff91 88bd 2cab b43d 60d6 993d 4e01 16bd
000001d0: 7677 9d3d d819 3fbc 66a7 3abd 0134 1e3e
000001e0: cbe8 bbbd bcc7 6dbd fc74 8abd 5e8d 8c3d
000001f0: d69d 67bd bc03 653d 0080 62bd e864 1d3e
00000200: ef10 47bd 3715 8fbc 1864 fe3d 3997 2a3d
00000210: b327 073e e0aa 50bd 1955 e43d a62b b73d
00000220: 84bd 213a 1a9a c4bd c329 71bd 1c93 7dbd
00000230: c186 e13d c54e 753d bb0a e9bd 07f5 e03c
00000240: 6962 55bd e01f 193d 4e45 0abe 3e9a ba3d
00000250: 8cb2 bd3d 12e6 a43d 6535 c8bc ac40 6c3d
00000260: 3efb 0cbe addc bebd ac0a 153e 74bf 1a3d
00000270: 4b5d fd3d 67bb 6f3d 3aad b73d 27a1 abbd
00000280: 214a cbbd 3c42 e23d 9d16 fdbc 29b1 853d
00000290: c21c e93d 54ac f1bc 30ea 033c 666a 08bd
000002a0: ae7a d7bd d141 c23b 56bc 34bd da61 b0bd
000002b0: 2257 a0bc 59a3 c43d f685 f4bd 696d be3d
000002c0: 73c6 353d b06a 0d3d c147 a83d 1efa ca3c
000002d0: 1b1c d5bd fb87 a73d 56cf 683c 7eb7 403d
000002e0: 689d 673d c582 f13d 824e 9abc be70 ff3d
000002f0: 94fc 9ebc d596 34bd 380c 4b3d adab 4cbd
00000300: 4013 ec3d f791 3e3d 5ef3 04ba 7057 013e
00000310: 667b 0f3e ae12 aebd 3e4f 89bd cc34 fc3d
00000320: ff3f 783d 161b 5ebd 6b68 2dbd f789 91bc
00000330: 1535 b1bd 3c32 a03d 0e6b ecbc b717 953d
00000340: 4a97 b43d fec8 d03c 5b6c aabd 8a09 7c3d
00000350: 3c88 30bd c366 ec3b 0a4c 7abd a9f4 2a3d
00000360: fe3a 03bd 6cca f1bc 6f7e fb3d 92a4 d13d
00000370: 5920 953b 5549 803d da2e 6dbc 6399 92bd
00000380: 2d71 433c e42e 87bc bc92 5fbd 48f4 143e
00000390: 0de6 373d 841a ef3d d942 183e 64bf 2a3e
000003a0: ada6 7bbd 4883 4c3c 2a81 143e 59b2 4dbd
000003b0: 125c b6bc 7b19 2a3e fcb3 f7bc 8c45 4dbc
000003c0: ad20 72bd 7cdf 183e 3978 cd3c a0d4 9bbc
000003d0: a3d0 c03d b852 073e dfe3 80bd 9990 483a
000003e0: 1cfa f2bc 4c9b c23c beea 103b c046 713a
000003f0: 060c 633d 7235 76b9 a083 2b3e 9d22 d3bc
