src/Backend-Information/Clod-weather_predict/Macau_lstm_model.pth (torch, 208379 bytes, 11 tensors)

lstm.weight_ih_l0 f4 [256, 3]
00000000: 6889 ce3c 2309 e2bd c8c7 0fbd 1015 0c3c
00000010: ab24 6c3d 0057 a3bb 00f7 b83b 9b81 f63d
00000020: 88ea 953c b04a f63d ea65 57bd 10de 87bd
00000030: 20c8 e0bd 5340 deba 5a20 913d d8f5 653d
00000040: 467e be3d 0458 ed3d 12b7 c3bd 039a 393d
00000050: b26e 8c3d 7c4e 2dbd 1309 82bd 2878 b33c
00000060: 4011 1b3d 72e1 ef3c b04a 043c 0c66 73bd
00000070: da18 97bd d8b9 9bbd 8061 8b3b 525c ee3c
00000080: dcca 1fbd 5e4f 8cbd 180e 72bd 189c 173d
00000090: 38af 5e3d 8497 91bd ea75 c23d f885 02bd
000000a0: e71a 32bd 30cb 733c 7047 c3bc 5903 303d
000000b0: 888e 93bd 46dd e5bd 42ce 05bd a8fd b8bd
000000c0: 1a3f ab3d 4d7a dbbd 229d cb3d ae82 d93d
000000d0: c4c9 84bd 92ec a4bd 808e 92ba cfd0 d4bd
000000e0: 0019 37ba ec79 30bd d385 a5bc 4037 d4bc
000000f0: 00e2 6dbd 7c62 463c da9c e8bd 0c03 7c3d
00000100: 5b23 0d3d a0ed d7bc c04c 873c b435 c8bd
00000110: a435 5bbd 6e93 8cbd ddbd edbd dc44 4dbd
00000120: 7650 e0bd 00a1 643d be6c e4bd d0f5 2abd
00000130: 2ffa f03d d8f4 d53d 6ed1 ae3d b4c5 95bd
00000140: 909e 37bd 861a cf3d 018b a7bc 4a84 f7bd
00000150: 080a 4dbd 14d0 843c 4a9d fe3d 640c 24bd
00000160: 048b 0d3e 8425 68bd d65a a33d 7d4b 843c
00000170: 5006 61bd 9886 db3c a5db d3bd 98b4 31bd
00000180: 44d5 683d df89 a6bc 24e7 723d 08d5 e63d
00000190: af53 013e 7442 3cbd a0fd 9bbb 42bd c7bc
000001a0: 4083 38bb 3c59 73bd a185 f0bd de20 c0bd
000001b0: a031 7c3d a1e8 3cbd ce2d adbd 8e4e a83d
000001c0: 7838 e7bd 0007 e8bd 06c2 e9bd 4078 463c
000001d0: 9458 db3d fa5d f03d 012f 3d3b 002e c7ba
000001e0: 6802 9f3c 8c2a 033e 30d5 54bd 46ce a1bd
000001f0: 721c 853d 5e47 88bd 7849 853d c1e6 2c3d
00000200: 20c2 24bc 00f0 3e3c 9adc 393c bc1e 24bd
00000210: f42a 2b3d 0fdc e2bd 5894 823d a006 b23d
00000220: 8298 b93d 945c 2f3d 9aff 8c3d 008e b53d
00000230: ea48 953d 4a4f a83d e8c2 d4bc 74b6 8f3d
00000240: fcb9 42bd fe41 edbd c0b5 febd 7c2e b63d
00000250: c805 f13b 8836 4a3d c0d0 62bc e468 afbd
00000260: 10b0 f83c 2244 d73d 723e 8a3d 8e66 ae3d
00000270: 94c9 59bd 8ee8 8cbd b4be b93d c668 c93d
00000280: d057 18bd 6cbe ffbd 0037 81ba dd42 c33d
00000290: 6228 bebd 0a36 eebd 814f 873d d2f4 963d
000002a0: 82c2 ffbd 37b1 893d cec9 8b3d d8bb 53bd
000002b0: e338 8ebd 28c7 6ebd 203b abbd 14a2 073e
000002c0: 5019 b5bc 8e45 b6bd 8c51 09bc 24ee 2a3d
000002d0: 881f 683d c991 0a3d e23f d8bd c4ac 8c3d
000002e0: f86d 1d3c b45d d53d 58c2 7d3d 81a2 5a3d
000002f0: 5a91 cabd c8e3 babc bcb4 9c3d b0e7 2c3c
00000300: 74d2 2f3d 0e12 023c 3c97 1b3d 4842 ccbd
00000310: 7542 87bd 68ee 293d 96a9 c2bd 21e4 84bd
00000320: 2094 113d 26b1 ebbd 9ad3 dbbd eac4 df3d
00000330: 7ad1 9abd 3ce7 ad3d 3846 fc3d 00a9 323a
00000340: 704e 81bd a4da a13d 646f f5bd fc35 e4bd
00000350: 061c 90bd d6a6 893d 90ae e2bd ac0f 90bd
00000360: a068 a3bc cfd4 873c 1294 a3bd 1018 a53d
00000370: 814c 35bd 40c8 2ebc cce5 f33d 7c6a 90bd
00000380: b0ca fdbd a2cc 983d 5a53 563d f2ec e2bd
00000390: e8ab 3b3d 93ac 0a3d 34c5 473d 4433 b6bd
000003a0: 3c06 9f3d 6ea9 b8bd 78d0 e83d d045 ac3d
000003b0: 4050 52bd f001 1cbc 787b 513d b40a 4f3d
000003c0: 0013 573a 50f0 713d f48c 783d 009a 713b
000003d0: 9975 dabd 8ade 953d bcd5 5ebd 6b56 a93d
000003e0: 2087 89bb 9052 033d 5dd1 99bd 4000 64bb
000003f0: 9a8b ac3d fdca 7f3c 50a2 993c 00b5 f23b
0.025212005 -0.11036899 -0.035102636 0.008549944 0.057652157 -0.0049847364 0.005644679 0.12036439
0.01830031 0.12025964 -0.052587427 -0.06634152 -0.10975671 -0.0016956426 0.07086249 0.056142658
0.093014285 0.11589053 -0.09556402 0.045312893 0.06857051 -0.042311177 -0.06349387 0.02190788
0.037858248 0.029282305 0.0080744475 -0.05942349 -0.07377787 -0.07603806 0.0042535663 0.029096756
-0.03901182 -0.068510756 -0.059095472 0.037014097 0.05436632 -0.071089774 0.094951466 -0.031866044
-0.043482687 0.014879987 -0.023837775 0.042971943 -0.0720492 -0.11223845 -0.032667406 -0.09032756
0.08361645 -0.107166864 0.0994208 0.10620628 -0.06483796 -0.08052935 -0.0011181384 -0.103913896
-0.0006984621 -0.043085024 -0.020205414 -0.025905252 -0.05807686 0.012108441 -0.11358042 0.061526343
0.034457546 -0.026358426 0.01651609 -0.09775868 -0.053517953 -0.068640575 -0.11608479 -0.050114498
-0.10952847 0.055817604 -0.111535534 -0.04173833 0.11766469 0.10447091 0.08536039 -0.073130995
-0.04482895 0.10112481 -0.020452024 -0.12085779 -0.050058395 0.0162125 0.12432344 -0.04005088
0.13822562 -0.056676403 0.0797631 0.016149277 -0.05493766 0.026797578 -0.10344628 -0.04338512
0.05684401 -0.020329414 0.059302464 0.11271101 0.12629579 -0.045961812 -0.004760459 -0.024382237
-0.0028154403 -0.059411272 -0.11744238 -0.09381269 0.061570764 -0.04612029 -0.08456002 0.08218108
-0.112900674 -0.1132946 -0.1141396 0.012113631 0.10710254 0.117366746 0.0028867128 -0.0015196204
0.019410327 0.12809199 -0.051961124 -0.07900672 0.06499566 -0.06654237 0.06508154 0.04221225
-0.010056049 0.0116539 0.011344099 -0.040068373 0.04178901 -0.11077129 0.063759506 0.0869267
0.09062292 0.0428129 0.0688469 0.08864975 0.07289298 0.08218248 -0.025971845 0.07017222
-0.04754065 -0.11584853 -0.1243701 0.08895585 0.0073554255 0.04936841 -0.013843715 -0.08564928
0.03035739 0.10511042 0.06750192 0.085156545 -0.053170756 -0.06880294 0.09069577 0.09834437
-0.03719312 -0.12487492 -0.000985831 0.095342375 -0.09285046 -0.11631401 0.06606961 0.073709145
-0.12488271 0.06723254 0.068256006 -0.051692814 -0.06944444 -0.0582954 -0.083608866 0.13245422
-0.022106797 -0.08899985 -0.008381259 0.041731015 0.056670696 0.033830438 -0.1055906 0.0686889
0.009608738 0.10418263 0.06195292 0.053377632 -0.09891005 -0.022813693 0.0765166 0.0105532855
0.042925313 0.007938875 0.037986025 -0.0997358 -0.066044725 0.041487128 -0.09505002 -0.06488825
0.035541654 -0.11508398 -0.10733719 0.1092623 -0.07559486 0.0849137 0.12318081 0.0006815344
-0.06313789 0.079030305 -0.11984137 -0.11143109 -0.07036595 0.067212746 -0.110684514 -0.07034239
-0.01994735 0.016580967 -0.079872265 0.0806123 -0.044262413 -0.0106678605 0.11909065 -0.0705156
-0.12392175 0.074609056 0.052325584 -0.1108035 0.04581824 0.033855986 0.048772052 -0.08896497
0.07764861 -0.09016691 0.11367887 0.08411753 -0.051346064 -0.009521946 0.05114314 0.050547317
0.00082044303 0.05906707 0.0606813 0.0036865473 -0.10666961 0.073178366 -0.05440305 0.08268436
-0.0041970164 0.03206116 -0.07510636 -0.0034790188 0.084250644 0.015612361 0.018754154 0.007406831

lstm.weight_hh_l0 f4 [256, 64]
00000000: e4b9 ed3c 0911 48bd 2c73 e0bd 4b93 54bd
00000010: a88f f03b d7c2 563c bc3a 37bd f0c5 983d
00000020: aa61 f83c 9c94 80bd 381c 8abd 1f06 98bd
00000030: 5391 02be 1c4c 3e3d bc00 43bd 0820 ae3b
00000040: 76ee 01bd 4305 c7bd f514 0bbe b526 ec3b
00000050: a1ab 023d 5af4 e33d 63c5 c6bd d510 633d
00000060: 8765 9ebd bd6c 083e 4ac7 7a3d 1b04 923d
00000070: a3fb 15bd 36b9 d5bd ca2c ef3d d86f b7bd
00000080: 8199 553c 1d20 3dbd f795 86bc 6efd 023d
00000090: 1cd8 b73d b697 a63d e24c 2e3d ef06 dabd
000000a0: 0d83 85bd 5edf c9bd 880f 70bd bc2f edbd
000000b0: c924 063e 6f8d cebd f71b e03d 8fa4 533b
000000c0: 9c64 993d a959 9ebc 0e6f fe3d 2394 f13d
000000d0: 0564 c33c 9c0f 4d3d 0822 253c 0324 b93d
000000e0: 598c cbbd db66 df3c 6e12 813d 7a85 39bd
000000f0: eb42 003d 03e6 e03d d754 d0bd 8721 29bd
00000100: 64f9 b7bd a9f7 04be d23f 8abc 41cc 9cbc
00000110: 8d50 22bd 667a d93d 3f34 aebd 4022 383d
00000120: 2c46 1bbd 4601 a43d de79 903d 5664 26bd
00000130: 32dd b53d 6c65 2e3a f797 abbc 5d86 063d
00000140: 9ebb fabd 0d33 a53c 3669 d3bd 11b7 883d
00000150: 909f b5bd 2339 01bc 54c0 f33c d0fe a9bd
00000160: 9a86 d83d cbb1 8c3d c7df aabd 986d 98bd
00000170: 4b20 17bd 099a 473d de8f 92bd b028 40bc
00000180: 6790 033d 4e3d fd3c 9bde 0abe 0683 65bd
00000190: f875 69bd 70af 6bbc 4800 05be 74a4 7f3d
000001a0: d733 95bc b250 b2bd 8c88 b8bd f3fe 103d
000001b0: f520 953d b137 3a3d 3fc3 103d 5514 d03d
000001c0: 7e3e 993d 1594 b1bc 6941 aa3d fe6a 8b3d
000001d0: 3da5 32bc a14d 76bb d7b0 923d 3487 df3d
000001e0: a179 18bd 5495 5c3c 62af 0abe 98ea 063c
000001f0: 8ad6 ce3d 5bc1 913d ae5f 0cbd f6c4 503d
00000200: d5a0 ce3d 817a 06bd 397e e23d f4dd c2bc
00000210: 3fd8 433d e6b6 1bba 1fa3 81bd 8230 9d3b
00000220: 3f41 1b3b 1da2 95bd abb8 b63d 34d8 f93d
00000230: 3f2e e6bc e128 87bd 1ad0 1bbd 908c c3bd
00000240: af90 9b3d ca1b fdbd ab71 a63d 0f48 88bd
00000250: fe15 d6bd b50a 6d3d 34ad a83d 4782 a53b
00000260: dd5d 03be 4fa5 9f3d c59b 0c3e c9fd e13d
00000270: 98d3 debc 96c1 cdbd a6fe 613d ebb4 10bd
00000280: a3e4 a03d ff50 71bd 4d12 0bbc 6f3b e23d
00000290: 65af 9c3d 9799 1f3d d5a0 15bd bc53 f23d
000002a0: 5c3d 8b3c a68e dabd fc5c bbbd 9174 b9bc
000002b0: 07fb dc3c 575e 02bc f1c4 c83d 0e63 d3bd
000002c0: 5bfe a63d f4da 89bc 6854 d13d 0299 c83b
000002d0: f302 87bc cfd2 dabd 9fc9 8fbc ee13 b3bd
000002e0: 2081 c73d e047 ea3d 9377 c33c bcd9 ad3d
000002f0: ef0d 6abd 446a c03c b329 9dbc 6bce 85bd
00000300: 3fb9 f7bb f52b 1dbc aa69 9c3d f1af 903c
00000310: cbb3 90bd 170c efbd d9ea bb3d 5cf8 c2bd
00000320: 3a1f 2dbd c7fb 833d eb58 933c 63b7 dc3c
00000330: 9626 673d be65 f43d 968f acbd 94df 9d3d
00000340: 2578 acbd 3bc7 8d3c 5c11 c1bd 7ef8 a2bc
00000350: 584b bdbd e8ff 0bbd 3d62 633c 4ae1 dbbd
00000360: 255d ddbd 7981 35bc 1ded fe3b db3b 953d
00000370: da3b a93d 4a86 a13d 8d12 8fbd a8a4 86bd
00000380: 538b c8bc 08e4 873d 6015 f8bc 7472 153d
00000390: f296 e33d 44ab f03d da45 cf3a 1d43 c3bd
000003a0: f04d 4dbd be09 473d 57d2 aabd cdf6 aabd
000003b0: da9f f73c 993c 88bd 49b7 b9bd e20a ba3d
000003c0: 706f 533d 3d67 d73d 3164 98bd 1206 0bbd
000003d0: db2a 0c3e 3dca ef3d 84be e53d 9712 f53d
000003e0: e226 87bd f77c 323d f1fd 2fbc 2055 f33c
000003f0: 558a 953d 361f 243d ad34 a6bd c575 e93d
0.029019304 -0.04884437 -0.10959467 -0.051898282 0.007341344 0.013107977 -0.044733748 0.074596286
0.030320007 -0.06278345 -0.067436635 -0.074230425 -0.1275075 0.046459302 -0.047608122 0.005313877
-0.031721555 -0.097178005 -0.13582213 0.0072067627 0.03190196 0.11130591 -0.09705617 0.055435974
-0.077342086 0.1332273 0.061225213 0.07129689 -0.036616933 -0.10435717 0.11678465 -0.089568794
0.013037086 -0.046173204 -0.01642893 0.03197997 0.089767665 0.08134405 0.04255379 -0.10645854
-0.065191366 -0.09857057 -0.05860856 -0.1158137 0.1309997 -0.1008557 0.10942834 0.003229413
0.07489893 -0.019329863 0.12423526 0.11795833 0.023851404 0.050063714 0.010078914 0.09040072
-0.099388786 0.027270725 0.06302343 -0.04529331 0.031313818 0.10981371 -0.10172432 -0.04129174
-0.08983114 -0.129851 -0.016876135 -0.019140365 -0.0396276 0.10619049 -0.08506059 0.04495454
-0.037908718 0.080080554 0.07054494 -0.04062303 0.0888008 0.0006652686 -0.020946486 0.032842983
-0.122428164 0.020165944 -0.10322802 0.06675542 -0.08868325 -0.007887158 0.029754795 -0.08300555
0.10572548 0.06869849 -0.083434634 -0.07442778 -0.03689603 0.048730884 -0.07156347 -0.011728451
0.032120135 0.030913021 -0.1356148 -0.056033157 -0.05699727 -0.014385089 -0.12988389 0.062412694
-0.018213196 -0.08706798 -0.09010419 0.03539939 0.07281677 0.045463268 0.03534245 0.10160128
0.074826226 -0.021677056 0.08313257 0.068075165 -0.010903654 -0.0037582892 0.07162636 0.1091446
-0.03722537 0.013463337 -0.13543466 0.008234642 0.10099514 0.07116958 -0.034270935 0.050969087
0.1008927 -0.032831673 0.11059231 -0.023787476 0.04781365 -0.0005940035 -0.06329941 0.0047970423
0.0023690013 -0.07306311 0.08921941 0.121994406 -0.028098224 -0.06599594 -0.038040258 -0.095482945
0.075959556 -0.12358816 0.08127149 -0.06654369 -0.104534134 0.05787154 0.08236161 0.0050509307
-0.12828775 0.07795202 0.13731296 0.11034734 -0.027200505 -0.10046689 0.055174492 -0.035328787
0.07856109 -0.058915135 -0.00848825 0.11046492 0.07650641 0.038964834 -0.036530335 0.11832377
0.016997032 -0.10671739 -0.09148595 -0.022638591 0.026975168 -0.007957063 0.098031886 -0.103216276
0.08153983 -0.016828038 0.10221177 0.0061217556 -0.016480898 -0.1068474 -0.017552195 -0.08744036
0.097414255 0.1143949 0.023860728 0.08488795 -0.057142194 0.023488171 -0.019184923 -0.06533512
-0.007559925 -0.009593 0.07637341 0.01766202 -0.07065543 -0.11672228 0.09175653 -0.09520027
-0.042266108 0.06444507 0.017986735 0.026942914 0.056433283 0.11933468 -0.08425824 0.0770866
-0.08421353 0.017306915 -0.09427139 -0.019893881 -0.09242886 -0.034179598 0.013878402 -0.1073633
-0.108087815 -0.011078232 0.007779731 0.07286807 0.08263369 0.07886942 -0.0698596 -0.065743744
-0.024480497 0.066352904 -0.03028363 0.036486104 0.11112775 0.11751416 0.0015813664 -0.09534285
-0.050123155 0.048593275 -0.083409004 -0.08347855 0.03022759 -0.06652183 -0.09068162 0.09084107
0.051619947 0.10517738 -0.07440985 -0.033941336 0.13688223 0.11708496 0.112179786 0.11966436
-0.06599213 0.043576207 -0.010741697 0.029703677 0.07301775 0.040068828 -0.08115516 0.11399416

lstm.bias_ih_l0 f4 [256]
00000000: c56b aebd 408c d93d 3d6e dcbd d3b1 15bd
00000010: df85 e7bc fafe 38bd 67eb 71bd 5dde e7bd
00000020: f946 bbbd 089a e23d a59b 453d da9b bfbd
00000030: 0ad1 d33d d6a4 b73c 4351 c0bd 1abd 34bb
00000040: 9705 df3c 37fb a3bd 80e8 06bb 4763 9339
00000050: cc7d 91bd d6fa ccbd 3146 aabd 7644 c03c
00000060: e398 0bbe dff3 59bd a666 08be 2475 8e3d
00000070: c951 f8bd a5ac 513c 17c9 44bc a93b 463d
00000080: b8c3 5a3d 9ab2 873d 3d3b ec3d 079a 34bd
00000090: fe22 abbd abea 85bd 5f19 a3bd 95b2 943d
000000a0: 4720 cfbd e79a 66bd 4a16 523c c43a 37bd
000000b0: cb27 acbd f270 2c3b e28d f9bd 51aa 53bc
000000c0: 6fd5 f73d 7489 023a efa9 cb3d 5ad8 4ebd
000000d0: f152 c7bd 7c9c 8a3d 19f4 5bbd cc5a 683d
000000e0: b55a 8c3d c1d8 103d 6796 88bd 5c78 edbd
000000f0: f37d b63d 960c efbb c366 a93d b1cc 2e3d
00000100: c5b6 313c 27cc 2bbd 1e85 f8bd 9029 40bd
00000110: 28d1 ca3d 305f fb3c 6056 df3d d16a 20bb
00000120: d0fc cdbd 7617 54bd 9db4 bc3d 44e7 ea3d
00000130: f6c2 efbd 0f4a 433d b984 e93d 813c 4cbd
00000140: c403 4c3d d156 46bd d626 babc 5c51 673d
00000150: f9d7 c8bb 357a 03bd 036e 0b3d 0fbe 8e3d
00000160: ad96 8abd 4901 0bbe 98be d43d ff66 fb3d
00000170: fff2 863d 2d45 b4bd 0b97 27bd 94fa be3d
00000180: 6989 e4bc b63c 02be 6508 c03d 2025 373d
00000190: f947 b4bd 070e 653d fe77 6b3c 0375 f9bd
000001a0: 94da b2bd f7f4 473d a409 85bd 6d99 dc3d
000001b0: bcb0 a9bd 1a59 58bd 17d8 b93d 2e3d c0bd
000001c0: ea3c 9ebd c9f6 91bc f058 dabd 926a c93b
000001d0: 6b82 5a3d a9bb 1c3d 51b7 2dbd 19ed f4bd
000001e0: fd4e 033e a496 adbd 41ee 9ebc 206b 57bd
000001f0: a09e cdbd b737 b0bc 6733 c53d c32d 803d
00000200: 11f0 5e3b 998b d23d 6672 153d e04d f03d
00000210: 07ec c6bc a898 d0ba d70a c63d 46e5 ff3d
00000220: 4213 d43c 419b 2e3d faef 9cbd bc06 85bd
00000230: c3a4 2dbd 9652 863d 40b6 e5bd 3256 af3d
00000240: 35ee 443d 2221 a1bd 3ec0 833d 4cdc 19bd
00000250: 901b b2bd 8c52 c0bc 6413 80bd b485 eb3d
00000260: 38ad ca3d ba2b 453d e56a f43c f60b c5bd
00000270: 807b 98bc 8d53 723d f03a f5bc c7b5 893d
00000280: 3961 cb3d c44c 923d 905a d73c 34a8 25bd
00000290: 7e89 8d3a 189d 773d 6e2d ad3d 5349 8abd
000002a0: dedf b7bd 05b9 d13b 528b 2abd f616 97bd
000002b0: 1126 45bd d3d3 41bd dee1 e53d d217 033e
000002c0: 33a7 013d 4927 86bd 3f2d 1abd e7d6 433c
000002d0: 76a5 a3bd 4a00 813c 8df8 98bd f9d2 2c3d
000002e0: 77fb 523d 0bab cb3d adef fa3a 36d7 c63d
000002f0: 1331 3bbd 9158 b13d 4a59 3e3d 6e44 40bd
00000300: e9b4 d53d 0a84 01be ceea bf3d 5557 11bd
00000310: 6fb2 3abc 43ce fc3d 5a30 80bd 7265 12bd
00000320: 74c0 d5bc 38c4 acbd 0250 e73d 6ab4 0b3d
00000330: f5f7 f8bc 8daa b2bd aa7d 92bd 035d 4a3d
00000340: 65fa 6dba 6d72 013d 0175 9dbc 5068 003e
00000350: 3e3d f2bd 939e 2c3d ffa8 093d 1f27 bfbd
00000360: f997 c23d 0a7c e83c 49f5 5f3d 7a2b 913d
00000370: 1429 8cbd e62b b7bd 89d0 05be f430 eabd
00000380: f829 96bd 4f99 443c 6555 a43c 0171 723d
00000390: 7592 8fbd 3a1f e03d 8aea 613d dcb0 08be
000003a0: 1722 ebbb 58d5 993d 583e 3abd b6a7 a6bd
000003b0: 5eb3 efbd d26a 9d3d ec4a 81bd da66 bcbd
000003c0: 230a 193d 8295 383d e738 6b3d dff4 dabc
000003d0: 6254 bb3d fdcf 4a3c 4577 d43c c494 423d
000003e0: f176 c8bd 1403 653d 92f5 163d 022b 69bd
000003f0: 0b8a de3d 1521 ad3d 2d1e 803d 5fdb da3d
-0.08516649 0.10622454 -0.10763214 -0.03654654 -0.028262077 -0.04516504 -0.059062388 -0.11321709
-0.09144396 0.110645354 0.048244137 -0.09355898 0.103426054 0.022417467 -0.093904994 -0.0027578534
0.027224345 -0.080069 -0.0020585358 0.00028111992 -0.07104072 -0.10008781 -0.08314169 0.023470145
-0.1363254 -0.05321109 -0.13320407 0.069559366 -0.12124974 0.012797509 -0.012010834 0.04839674
0.05340931 0.066258624 0.11534736 -0.044092204 -0.083562836 -0.065389 -0.079638235 0.07260624
-0.10113578 -0.05630007 0.012822697 -0.044733778 -0.084060274 0.0026312438 -0.12185265 -0.012919025
0.12101256 0.00049795886 0.09944522 -0.050499298 -0.09732617 0.06768128 -0.053699587 0.056727216
0.068532385 0.035362963 -0.06669312 -0.11595222 0.08910742 -0.0072952015 0.08271553 0.042675678
0.010846798 -0.04194274 -0.12134765 -0.046914637 0.09903175 0.030685037 0.109051466 -0.002447773
-0.10057986 -0.051780187 0.09214137 0.11469892 -0.11707108 0.04767805 0.11402268 -0.04986239
0.04980828 -0.04842264 -0.022723597 0.056474075 -0.0061292616 -0.032098968 0.034040462 0.069698445
-0.067670204 -0.13574709 0.103879154 0.12275504 0.065893166 -0.08802257 -0.04091553 0.09325138
-0.027897554 -0.12718472 0.09376601 0.04471314 -0.0880279 0.05592158 0.01437187 -0.12180521
-0.08733097 0.0488176 -0.064959794 0.10771451 -0.082856625 -0.05281935 0.09074419 -0.09386669
-0.07726462 -0.017817872 -0.10661495 0.0061467374 0.053347033 0.038264904 -0.042411152 -0.11959285
0.128231 -0.08475998 -0.019400718 -0.052592397 -0.10040021 -0.021510942 0.09628945 0.06258728
0.0034017602 0.102805324 0.036486052 0.117336035 -0.024282468 -0.0015914636 0.09670036 0.12494902
0.02588809 0.04262853 -0.076629594 -0.06495425 -0.042393457 0.06558721 -0.11216402 0.08561362
0.048078734 -0.07867648 0.06433152 -0.037563607 -0.086966634 -0.023476861 -0.062536985 0.11500111
0.0989632 0.048137404 0.029836128 -0.09621422 -0.018613577 0.05916171 -0.02993533 0.067241244
0.09930653 0.07143548 0.0262883 -0.040443614 0.0010798422 0.06045255 0.08455931 -0.06752267
-0.08978246 0.00640023 -0.041636772 -0.07377426 -0.048132006 -0.047321152 0.11224721 0.12802055
0.031653594 -0.06550462 -0.037640806 0.011953092 -0.079905435 0.015747208 -0.07469282 0.042193387
0.051509347 0.09944733 0.0019144915 0.09709017 -0.045701098 0.08659471 0.04647187 -0.04694026
0.104348965 -0.12648025 0.09370957 -0.035483677 -0.011395081 0.12344029 -0.06259222 -0.035741277
-0.026092745 -0.08435863 0.11294557 0.034107603 -0.030391673 -0.08723936 -0.07152875 0.04940511
-0.0009078144 0.031603266 -0.01922083 0.12539792 -0.11828087 0.042143416 0.033608433 -0.09333634
0.09501643 0.028379459 0.05467728 0.070883706 -0.068437725 -0.0894392 -0.13067831 -0.11435118
-0.07332224 0.011999442 0.02006025 0.0591898 -0.07010356 0.10943456 0.055155315 -0.13348716
-0.0071756947 0.07511395 -0.045469612 -0.08137457 -0.117041335 0.0768639 -0.06313118 -0.09199305
0.037363183 0.045064457 0.057427313 -0.026728092 0.09146954 0.01237869 0.025935778 0.047505155
-0.09788311 0.05591114 0.036855288 -0.05692578 0.10866173 0.084535755 0.062557556 0.10686373

lstm.bias_hh_l0 f4 [256]
00000000: f5aa ecbc b4b3 c63d 8576 183c 812e 83bd
00000010: 162c fabd 1b6f 343d 245c a6bd 1b26 f1ba
00000020: c8f1 1bbd 5b41 113d cff3 8abd 08a8 623d
00000030: 59f0 25bb cf73 f1bd 7f14 7e3c 4490 45bd
00000040: 8581 f7b8 25b2 cbbc 2504 f2bc ba6f 9cbd
00000050: ee7f d33c 5be6 223d a98d d33d 6c1a c2bd
00000060: 2bbf 863d 6df8 81bd 69e0 d33d c37b 09bd
00000070: 4ca4 e9bb 9d4f c2bd b3c4 e1bd e186 0d3d
00000080: 37cc f8bd a2c0 d63b 23a8 b3bd f0d9 fbbc
00000090: 7412 dbbd cfc7 eb3d 9aaf 503d de0d 04be
000000a0: a380 9f3d 2ac8 863d 3202 ff3d a04b 853c
000000b0: 2ac5 df3c 57cf 59bd 44ff e1bc e806 84bd
000000c0: a149 78bd d943 c73d afc7 4ebd 9925 a53d
000000d0: 7225 c4bd f066 c83d 209c a7bc 3153 3f3c
000000e0: 4872 ba3d f741 c03b 1712 f2bd da6b b33d
000000f0: 94de 733d 266a fe3c 3f18 99bd c5a1 7d3d
00000100: 2b0d ca3d 5dcc ddbd 9090 efbd dadc dcbd
00000110: ee78 973d 6c22 efbc 122f bdbd 78fb da3d
00000120: 2f4c c8bc e12a fb3c 41db f1bc 66af b5bd
00000130: 5270 94bc ca63 30bd c673 b73a 529c 0bbe
00000140: cd64 ccbd 1176 d4bd d6f8 8a3d 7730 d73d
00000150: 5ddd 6fbc 692e 18bd ada1 6fbd 0aaa 1fbd
00000160: e452 2bba e423 b9bd b913 0bbd 16b4 9abd
00000170: 937d 963d f270 dbbd de60 813d d6cb d73d
00000180: 1109 cebd 3ee4 0dbe 05a3 7c3d 7637 9b3a
00000190: 2557 ab3d 7e74 ca3c 0b4a fabd 5f58 cc3d
000001a0: c931 03be 5c50 4d3d 6a1e b3bd 5cce 26bd
000001b0: 8090 8f3d 58ed 9b3d 31b5 40bd 0207 003e
000001c0: a4cc c73c b5f5 083d 7432 b6bd 7f79 6b3d
000001d0: 46ca 13be 6e7b ba3d d928 023e 988a 89bd
000001e0: 7478 b5bd 208c fb3d e46e 593d c438 263d
000001f0: 3284 9ebd d371 6c3d ba54 23bd 60ff 48bd
00000200: 98cf c4bc 2668 3c3d 8944 fdbd 148d 293d
00000210: 4d7c 9cbc 0e32 84bd 1c41 4abd 558a ee3d
00000220: 0c52 033d 4e63 34bd 3234 e4bd d020 ee3d
00000230: a3d8 aa3c 6f8b 913d 1e6d b3bd e6bc c93c
00000240: 4993 c03d d246 e9bd 12e5 1a3c 3941 013e
00000250: 7894 d1bd 8ebc e33d 165f 1fbc c149 ec3d
00000260: d035 9bbd 00a4 b0bd b623 e43c 74c7 7b3d
00000270: 53a2 75bc cd29 26bd 8003 613d 15ff 713d
00000280: ed00 4c3d 4a2e 5abd 79a6 efbb e189 00be
00000290: 5c1e 8e3b 38a1 943d 0058 d9bc a932 4dbb
000002a0: 7dce 84bc b5eb 26bd 52f9 d93c 64b2 a53d
000002b0: 8f66 9f3d 4984 c83d 6b39 0abe a8ce e93d
000002c0: 643e 9bbd 7c1b 19bd 7ef1 a5bd c910 02bd
000002d0: f0c6 8c3d f396 cc3d fa25 00be 58f6 64bd
000002e0: bdc8 dabc 4de3 013e 1c69 203d e404 85bd
000002f0: 11b2 5f3d 8f43 dabd 70c2 b4bd e5bb a53d
00000300: 05db e63d 3e1f f7bd 61c3 aebc 73ad ddbb
00000310: 61d7 d23d d80b b3bd 7bca 5fbd f7e6 ce3c
00000320: 729d 87bd 846a 053d ea40 4ebc 5e2b 1c3d
00000330: d2ea 31bd 34b4 af3c c2cc d5bc ff98 20bc
00000340: f57b 68bc 88ae b03c 142e 783c 5381 0c3c
00000350: 405a 1b3d b93d b13d 176f 03bd f3fb a7bd
00000360: c8a6 6abd b9a7 c6bd ed7d a13d d0f3 603b
00000370: 70c6 6b3d 86ff a13d 73f4 bebd 6e73 a13d
00000380: ef82 f1bc 7958 8f3c 272f e4bd 247e 0cbc
00000390: 4519 e2bc 5e79 b83d c4d0 3c3d d559 353d
000003a0: f937 523d 549c adbd ad3f 41bc 80c1 b6bd
000003b0: 42d8 133d 845d 92bd 9baa b53d 5d9e 45bd
000003c0: 4994 7abd 7cb7 d6bd 217a cabc ec77 08be
000003d0: 47ba bbbd 653f 6c3d df3c a1bd 1163 a13d
000003e0: 83a8 ebbd 5cf3 24bd 359a d9bd fc92 d3bd
000003f0: 4da7 c93d 20a7 673d 90a2 94bc 1cc9 b6bd
-0.028890112 0.097022444 0.009305601 -0.06405354 -0.1221544 0.04405127 -0.08123043 -0.0018398197
-0.038072377 0.03546272 -0.06784784 0.05533603 -0.002532026 -0.11789667 0.015507816 -0.048233286
-0.00011802003 -0.02486522 -0.029542992 -0.07638498 0.025817838 0.039770465 0.10329754 -0.09477696
0.06579431 -0.063462116 0.10345537 -0.033565294 -0.0071301814 -0.09487841 -0.110238455 0.03455246
-0.12148326 0.0065537253 -0.08772304 -0.03074357 -0.10696879 0.1151272 0.050948717 -0.12895915
0.077882074 0.06581147 0.124515906 0.016271412 0.027315695 -0.05317625 -0.02758754 -0.0644663
-0.060617093 0.09729738 -0.050483402 0.08063812 -0.095774546 0.09785259 -0.020460188 0.011677549
0.09103829 0.0058672386 -0.118198566 0.087608054 0.05953844 0.031056475 -0.07475328 0.061921854
0.09865793 -0.10829995 -0.11697495 -0.107843116 0.073961124 -0.029191218 -0.092374936 0.10692495
-0.02445039 0.030660095 -0.029523494 -0.08871345 -0.018119965 -0.043063916 0.0013996295 -0.1363385
-0.09980164 -0.10374082 0.06785743 0.10507291 -0.014640179 -0.037153635 -0.058503795 -0.03898052
-0.0006535484 -0.09040049 -0.033954356 -0.0755388 0.0734817 -0.10714902 0.06317304 0.105369255
-0.10060323 -0.13856599 0.061678905 0.001184209 0.08366231 0.02471375 -0.12221154 0.09977793
-0.1281196 0.050125465 -0.087460354 -0.040724143 0.07009983 0.07613629 -0.047047798 0.12502673
0.024389572 0.03343745 -0.08896342 0.057488915 -0.1443263 0.091055736 0.12710895 -0.06715888
-0.08860865 0.12282586 0.05308427 0.04058148 -0.07740058 0.05772574 -0.039875723 -0.04907167
-0.02402477 0.04599776 -0.12366588 0.04139431 -0.01910224 -0.0645486 -0.0493785 0.116474785
0.032060668 -0.044040017 -0.11142768 0.11627352 0.020855254 0.07106673 -0.08761047 0.024626207
0.094030924 -0.11390461 0.009454029 0.12622537 -0.10233396 0.11119948 -0.00972726 0.11537505
-0.07578623 -0.086250305 0.02784906 0.06146951 -0.014992314 -0.040567208 0.05493498 0.059081156
0.04980557 -0.0532668 -0.0073135463 -0.12552597 0.004337115 0.072573125 -0.02653122 -0.0031310713
-0.016211743 -0.04075213 0.026608143 0.08090666 0.077832334 0.097908564 -0.13498466 0.1141637
-0.075802594 -0.037379727 -0.081027016 -0.03175429 0.06873882 0.09989729 -0.12514487 -0.055898994
-0.026707048 0.12684365 0.03916274 -0.064950734 0.054613177 -0.10657417 -0.088261485 0.08092479
0.112722434 -0.12066506 -0.021333398 -0.0067650615 0.102949865 -0.087424934 -0.05463646 0.025256617
-0.06621827 0.032572284 -0.012588719 0.038127296 -0.043436833 0.021448232 -0.026098613 -0.009802102
-0.01418971 0.021567598 0.015147705 0.008575755 0.037927866 0.08654351 -0.032088365 -0.082023524
-0.05728796 -0.09699959 0.078853466 0.003432501 0.05756229 0.07910065 -0.09323969 0.078833446
-0.02948138 0.017498242 -0.11141806 -0.008574996 -0.02759994 0.09007524 0.046097532 0.044275124
0.05132291 -0.08477083 -0.011794967 -0.08923626 0.03609491 -0.07146743 0.08870431 -0.04824673
-0.061176572 -0.104842156 -0.024716439 -0.13326997 -0.09166389 0.057677645 -0.07872938 0.078802235
-0.115067504 -0.040271148 -0.10625116 -0.103307694 0.09846363 0.056555867 -0.018143922 -0.08925077

lstm.weight_ih_l1 f4 [256, 64]
00000000: 2d87 b43d e808 62bc bbf6 f3bd 5a2f 7f3d
00000010: 548f b4bd 707b 72bd e2d1 35bd bd0b 053e
00000020: 6124 793d a6cd fdbc 282e 693d 84e9 c1bc
00000030: 65d9 d13d a11c 7fbc 836c 533d 5790 87bd
00000040: 5621 24bd e691 66bd 7f2b 7d3d 05dd 443d
00000050: 5d27 8fbb 5e2a d4bc 5c5f 793d 10c1 a7bd
00000060: e412 793d d4f6 d8bc 2d4c c2bc dcb7 4cbc
00000070: ff2e e5bc 9946 803d f255 6b3c 20d0 7abd
00000080: c6c6 14bd d8cc 873d 96f7 30bd adad c73d
00000090: 2d89 813c 4e54 883d c741 a6bd 4409 46bd
000000a0: 242f 033d 2ea1 c5bd 2b50 c53d 507f 8f3d
000000b0: de3a 2dbd cd87 56bd e317 f93d d870 e93d
000000c0: bc67 b4bd ef8f 85ba 1ace e23d db23 d2bd
000000d0: c281 b73d c314 f5bc 145c b7bd 4aa0 be3d
000000e0: f4ec 643d c16b 9f3d a5ec 383d 71c5 9ebd
000000f0: c9ff 293d c8d6 babd 1cdd a8bd fa5a cfbd
00000100: 256d cebd 71f4 1d3d 257c dabd efb0 5f3d
00000110: 761f b43d 070d 183c afae d83d 7af1 b53c
00000120: 0da8 fb3d 6b0b bdbc 28d0 be3d cf04 f0bd
00000130: 2560 c1bd a5c9 fe3b fc54 17bd 0423 8fbd
00000140: 9b47 cbbc 00aa 883d d70d 343d 1245 503d
00000150: 7f58 0fbd 3fdd ed3c 6bc0 d43d d0e4 9e3d
00000160: 86cf 273d 64a4 0bbd bb53 98bd cca8 a9bb
00000170: a2d1 133d 32c6 dbbd c06e 8c3d 8759 373c
00000180: 35c6 6ebd b65f 663d 4d4b 9bbd cfcc d43b
00000190: cacc c5bd 753c ab3d d1d1 8c3d b7b6 c0bd
000001a0: 4f99 80bd 1950 c63d 896e dabd 0eee f83c
000001b0: 4a9a debd a92e 8d3d d743 63bd 3f83 8e3d
000001c0: 76d3 bd3d 495c dabd e124 1d3d a800 eabd
000001d0: 23ba 01bd 2b71 183d 1199 b9bd d47e ac3c
000001e0: 27ae ca3d 637c 50bd 4535 7dbc f7b8 9ebd
000001f0: 46ab 8fbd 5dd8 d53d dc87 9abc 8c31 dfbd
00000200: aad9 c4bd 70fd 573b aa66 9e3d d140 ae3d
00000210: 0aa7 c3bd 987a c03d 9c71 1ebd 5f3b 0bbe
00000220: 027c 843d 0bcd 073b c27d ff3d 8cf3 733d
00000230: 5fc2 c43d 385b a6bd 186c cd3b cf06 c43b
00000240: c462 efbd 86a5 b43d e9da 9abc 082c b2bd
00000250: 17de 0b3e 4549 0abe 2232 b2bd c956 bc3d
00000260: d408 be3d cfc3 aabd 3a08 04be 5d1e 903d
00000270: 8ce8 2a3d 8938 e73c 2052 2d3d a07f de3c
00000280: 9e53 8f3d b1a3 943d d2ea 62bc 99ad debd
00000290: 23c4 de3c 64f7 a63d 6a4f 9a3d f817 ad3d
000002a0: c132 b43d 42de 9abd 8a71 763c 62f5 503d
000002b0: 70f0 99bd 83b1 c03d 9d79 00be fec5 7abc
000002c0: a624 d8bd f7cf bdbb 3304 82bd b414 f53d
000002d0: f59f c1bd 2e98 e9bd 45ab d4bd 997a f1bc
000002e0: 861f 78bc 5a8a 05be 5435 5b3d 0fbc 993d
000002f0: c680 f73d a0db c93d 882e d3ba 7f61 e93c
00000300: aae0 74bd 6247 00bd 0a7d 663c 83ad d4bc
00000310: 95f8 86bd a349 f0bc a962 d43d 01a2 eb39
00000320: 9ff6 88bd a4c3 d8bd 3557 d63c 241d aa3d
00000330: fc65 373d 83b1 813c 8ac8 473d 25a6 1d3d
00000340: 51d8 a63d 6758 aabd dfa3 8dbd 17a2 22bd
00000350: 7fd3 40bd 865e 66bd 57e5 f73d d94f ebbc
00000360: 4101 65bc 49d7 363d 77b5 1bbc b2fb c1bd
00000370: 1db6 9bbd 914c 2abd d9bf bbbd 1ba7 03be
00000380: ab42 48bd fa33 45bd 4822 b43b c22a ffb9
00000390: 89c0 543d 657c ce3d a27e 91bd f199 023e
000003a0: 33a2 c2bd c19d 053e 8cda 52bd 6baa 0fbc
000003b0: fad9 af3d 44eb e4bc 3aa4 08bd c418 9bbd
000003c0: 3d95 d8bd e43e 0b3e 1ad7 303d 4e78 eb3d
000003d0: 08aa 71bd 8b33 a7bd 0229 2f3c 62de a2bc
000003e0: 40a6 ffbd bd7f b6bd 3174 bdbd e5fd 88bd
000003f0: 45f2 f13d 37a9 d43b 3f4d f23d 1d46 a2bd
0.08814845 -0.013796069 -0.119122945 0.062301017 -0.088164 -0.05919975 -0.044389613 0.12992759
0.06082571 -0.03098185 0.056928784 -0.02367092 0.10246543 -0.0155707905 0.051617157 -0.066193275
-0.040070854 -0.056291483 0.06180906 0.048062343 -0.004368706 -0.025899108 0.060881957 -0.081911206
0.06080903 -0.026484884 -0.023717964 -0.012495007 -0.027976511 0.062634654 0.014363753 -0.06123364
-0.036322378 0.06630868 -0.043204866 0.09749923 0.01581248 0.06656705 -0.08118015 -0.04834868
0.03202738 -0.09649883 0.096344315 0.07006705 -0.04229247 -0.052375603 0.12162759 0.11398476
-0.08808848 -0.001018999 0.11074467 -0.10260745 0.08960296 -0.029917127 -0.089531094 0.093079165
0.05589004 0.07784224 0.045147557 -0.07752503 0.0415037 -0.091229975 -0.08245298 -0.10124774
-0.100794114 0.038563196 -0.1066821 0.054612096 0.08795063 0.00928045 0.10580193 0.022209872
0.122879125 -0.023076734 0.093170464 -0.11719667 -0.09442166 0.0077755027 -0.03694628 -0.069891006
-0.024814418 0.0667305 0.04395851 0.05084712 -0.034996506 0.029036162 0.10388263 0.07758486
0.040969394 -0.034092322 -0.07437845 -0.005177593 0.036088593 -0.10731162 0.068570614 0.011190779
-0.058294494 0.05624362 -0.07582722 0.0064941416 -0.09658201 0.08361141 0.06875957 -0.0940985
-0.06279241 0.09683246 -0.10665614 0.03038695 -0.10869272 0.06893665 -0.05548462 0.06958627
0.092688486 -0.10662133 0.03836525 -0.114259064 -0.031671654 0.0372173 -0.09062398 0.02105657
0.09896498 -0.050899874 -0.015454595 -0.07750123 -0.0701509 0.10441659 -0.01886361 -0.10898122
-0.096118286 0.0032957457 0.07734425 0.085084565 -0.095533445 0.09398383 -0.038682565 -0.13596867
0.06468965 0.002072158 0.12475158 0.059558436 0.09607386 -0.08122867 0.0062689893 0.005982257
-0.1168876 0.088206336 -0.018903213 -0.086998045 0.1365894 -0.13504513 -0.08700968 0.091962405
0.092790276 -0.08338129 -0.12893763 0.07037041 0.04172568 0.0282252 0.04231465 0.027160466
0.069983706 0.07257784 -0.013849931 -0.10872955 0.027193135 0.08152655 0.07534678 0.08451837
0.08798743 -0.075619236 0.015041718 0.051015265 -0.07516563 0.09408858 -0.12546392 -0.015305994
-0.10553865 -0.0057926136 -0.06348457 0.119668394 -0.094543375 -0.11405979 -0.103842296 -0.029477404
-0.0151442345 -0.13041058 0.053517655 0.075065725 0.120851085 0.09856343 -0.001611189 0.028488873
-0.05978457 -0.031318076 0.014067898 -0.025961643 -0.06590382 -0.029331988 0.103703804 0.00044943395
-0.06687664 -0.105841905 0.02616463 0.083063394 0.044774994 0.015831714 0.048775233 0.038488526
0.08146728 -0.08317643 -0.069160216 -0.039705362 -0.0470767 -0.05624249 0.1210429 -0.028724598
-0.01397735 0.044638906 -0.009503714 -0.09471835 -0.07603095 -0.041576926 -0.091674514 -0.12856714
-0.048891705 -0.04814527 0.0054972507 -0.00048669247 0.05194143 0.1008232 -0.071042314 0.12754036
-0.09503593 0.1304846 -0.051477954 -0.008768658 0.085864976 -0.027944215 -0.033359744 -0.07573083
-0.1057534 0.1359821 0.043173887 0.11497556 -0.059000045 -0.08164128 0.010690929 -0.019881431
-0.124828815 -0.08911083 -0.092506774 -0.066890515 0.11813787 0.0064898985 0.1183114 -0.07923529

lstm.weight_hh_l1 f4 [256, 64]
00000000: c40a edbd 3277 eb3d c57b 10be aec0 053d
00000010: 1086 e03d 59ba 85bd 20da 30bd 8471 d83c
00000020: 1ba1 953d 7e11 4d3d 01a9 403d aa80 66bd
00000030: ac73 0d3d ffe3 2f3d 02ac bb3c e854 a23d
00000040: aa85 cd3d 68ca 86bd 50d3 af3d b853 663d
00000050: bfb6 d63d 66e8 cbbb 4a1b 07be 01e9 eabd
00000060: 588b b83d da27 22bc 6c02 183d cc70 1d3d
00000070: ce3a b23d cacb 5238 b462 38bd d616 d8bc
00000080: 667c 73bd 941f d13c 6920 adbd c6c2 d4bd
00000090: 998b 2cbd 440d d9bc 3478 f1bc 5f0f b33c
000000a0: f563 0d3d 21c3 3f3a 03ac b9bd 3962 34bd
000000b0: e0b1 a2bd 12be 563d d2fd a13d f078 4cbc
000000c0: 092a 953d 0f54 d9bd b518 c33d 0a40 bd3d
000000d0: 775b c1bd 8e80 c73d 9d93 4d3d 3e56 26bd
000000e0: 2a72 3bbd be7a bfbc 9902 4a3c cde3 d4bc
000000f0: 90a2 3cbd 8c2c 8abc 7ec8 a8bd 24ce 14bc
00000100: dc23 2bbd 08fa aabd 87a1 a73d 4392 d23d
00000110: 31bb 16bc b64f babd f865 75bc 675d 683d
00000120: 6285 e93d 98ba 32bb 0ff4 a7bd 807c 4fbd
00000130: 1ab9 e33d 59da 44bc 66fd 963d 2567 c0bb
00000140: 9312 0abe d36b d0bd a4a3 28bd 382c e0bd
00000150: b194 f63d 9838 ebbc b8b1 bc3d 48ec ea3d
00000160: 457e 26bd c8a1 e43d 9916 6a3d ebe8 edbc
00000170: c9f7 953d e370 873d 7185 17bd b2a1 a33d
00000180: 29fb 94bd 1961 43bd 8032 81bd aba3 7b3d
00000190: 6323 85bc d729 d6bd 3740 9e3d d25a 4ebb
000001a0: ac42 8abc df92 f6bd 8b39 453d be60 513d
000001b0: 1a15 e3bd 7cff d13d 13b0 ac3d 3901 61bd
000001c0: 8660 87bd c081 923d edf7 ac3d 04d3 ce3c
000001d0: aef8 1dbd d3f7 4b3d 621b af3d 342b babd
000001e0: 8335 bebd 4bd6 e83d 7d60 a53c 57ca abbd
000001f0: e3be 54bc f63f c13d 2d4e d03d 876e acbd
00000200: 76d4 0a3e 1953 a3bc fada 403d bacf 433c
00000210: 8456 7f3d b14e 0dbe 7f8d 8c3d e9ab b0bd
00000220: eab2 b6bd dc96 4e3d 329d c7bc 5d87 583d
00000230: 4eaf 893d 0e15 973d 18d7 363c e10f 4e3d
00000240: 5594 cebd 0714 733d e798 aebd 701f 89bd
00000250: da1e 933b 68d2 d3bd 6228 cfbd 3760 b1bc
00000260: 9562 4e3d 9eb1 0b3d ca10 643d 47fd 5b3c
00000270: c83b 1abc c36b edbb bec8 2abd 2a01 33bd
00000280: 9950 46bd b775 003d 9c63 993d aafc c23c
00000290: d2fd a9bb 77cb 92bd b644 583b 87eb a43d
000002a0: 0567 a43c 491b 213d a18f 1b3d 1d36 dc3d
000002b0: 8575 ae3d 5118 913d f962 a4bd 29e3 49bd
000002c0: 02fc cdbd ba69 99bd 4528 b5bd 4c46 5b3c
000002d0: 2f65 afbd 4de1 1cbc 434b aabc 7822 523c
000002e0: b088 f4bc 4e53 6a3b 18bd b7bd 04cb 12bd
000002f0: 5372 c2bd 8b70 d53d 2556 e9bc 3a3c 4c3d
00000300: bd7d a83d 2203 573d 1c44 c13c b792 e93c
00000310: b79b 77bd 60ba ce3d 4ada 153d ca5e 57bd
00000320: 84d6 403d 0626 403d 4544 53bb 552c 153d
00000330: 35e2 d93c d511 873d be5f 3b3d 4cad e4bc
00000340: 41a5 cbbd 3aa6 513c e184 8ebd 5079 103d
00000350: 9718 c6bd 7415 d53c a51c 8abd 4fa7 9ebd
00000360: 659b 15bc 91a1 da3d 05ce b1bc ca85 c83d
00000370: c827 1dbd 566e d3bd d2ef c7bd 36a7 573b
00000380: 247e 78bd b9ee 89bd d602 073d 6cce 07be
00000390: 9ed5 973d 883f 073e 5e24 95bd a832 603d
000003a0: b84a a8bd 67fc e6bd cb34 89bd de6a dfbb
000003b0: 2cbc 2f3d a61b 9abc 74cc eb3c ca9d 103d
000003c0: da2e 803d 516f b5bd 4b86 cfbd 14e4 95bd
000003d0: 946e a8bd 5ce9 893d 2c84 e13d 8934 75bd
000003e0: aeef 353d bb8d a4bc 215c 683d b793 88bd
000003f0: 4b88 b73d 1365 bb3d 5d53 8cbd 02f1 1ebd
-0.11574319 0.11497344 -0.14109714 0.032654457 0.109630704 -0.065296836 -0.04317677 0.026421316
0.07306119 0.05006551 0.047036175 -0.056275047 0.03453414 0.042942043 0.022909168 0.07926351
0.1003526 -0.06581575 0.085852265 0.056232184 0.10484075 -0.0062227724 -0.13194004 -0.11470223
0.09010953 -0.009897197 0.037111685 0.03843765 0.08702622 5.0257695e-05 -0.045016006 -0.026378077
-0.059444807 0.025527753 -0.08453447 -0.103887126 -0.04212532 -0.026495583 -0.029476263 0.021857915
0.034519155 0.0007315148 -0.09066012 -0.044038985 -0.07944083 0.05242736 0.079097405 -0.012480006
0.07283408 -0.10611736 0.09526197 0.0924073 -0.09441274 0.09741317 0.050189603 -0.04060959
-0.045763172 -0.023373958 0.012329721 -0.02598753 -0.04605347 -0.016866945 -0.08241366 -0.009082351
-0.041782245 -0.08348471 0.08185106 0.102818035 -0.009199903 -0.09097235 -0.0149779245 0.0567297
0.11402394 -0.0027271863 -0.08200847 -0.05065584 0.1111929 -0.012014949 0.07372551 -0.005871671
-0.13483648 -0.10176816 -0.041171685 -0.10945934 0.120400794 -0.02871351 0.09213585 0.11470848
-0.040647764 0.1116367 0.057150457 -0.029041728 0.07322652 0.06613328 -0.036992494 0.07989825
-0.072744675 -0.04770002 -0.0630846 0.061435383 -0.016252225 -0.10457199 0.07727092 -0.0031487239
-0.016877495 -0.12039732 0.04815058 0.05111765 -0.11088009 0.10253808 0.08432021 -0.054932807
-0.06610207 0.07153654 0.084457256 0.025247104 -0.038567238 0.04979689 0.08550145 -0.090902716
-0.0928755 0.11368998 0.02018761 -0.08388203 -0.012984964 0.09436028 0.10171161 -0.08419519
0.1355761 -0.019937085 0.047083832 0.011951381 0.062338367 -0.1379955 0.06862926 -0.08626539
-0.08920844 0.05043684 -0.024366949 0.052863467 0.0672289 0.07377063 0.011159681 0.050308112
-0.10086886 0.05934527 -0.085252576 -0.06695449 0.004489762 -0.10342866 -0.10115124 -0.021652324
0.050386984 0.034104936 0.055680074 0.013427085 -0.009413667 -0.007245512 -0.04169535 -0.043702282
-0.048416708 0.03136226 0.07489702 0.02380212 -0.0051877284 -0.07167714 0.003299994 0.08052736
0.020068655 0.03933266 0.037978772 0.10752509 0.08518509 0.07084716 -0.0802669 -0.049288902
-0.10057832 -0.07490869 -0.088455714 0.013383459 -0.08564221 -0.0095752 -0.02078784 0.012825601
-0.029850334 0.003575522 -0.08971614 -0.035838142 -0.09494462 0.104218565 -0.02848346 0.049862124
0.08227108 0.052493222 0.023592047 0.028512342 -0.060451236 0.10094142 0.03658513 -0.052580632
0.047079578 0.046911262 -0.0032236737 0.03641923 0.026597122 0.06595198 0.045745604 -0.027914666
-0.09943629 0.012795979 -0.069589384 0.035271943 -0.09672659 0.026011206 -0.06743745 -0.07746755
-0.009131287 0.106753476 -0.021704683 0.09791143 -0.038368016 -0.10323779 -0.09762539 0.0032906062
-0.060667172 -0.06734986 0.03296169 -0.13262337 0.07413791 0.13207829 -0.07282327 0.05473581
-0.082173765 -0.11278611 -0.066995226 -0.0068181595 0.042904064 -0.018812012 0.028784014 0.03530673
0.06258936 -0.088591225 -0.10133036 -0.07318893 -0.08224216 0.06733963 0.11011538 -0.059864555
0.04441803 -0.020087114 0.056728486 -0.06668799 0.08961543 0.09150138 -0.06851838 -0.03880406

lstm.bias_ih_l1 f4 [256]
00000000: 172b 233d d175 c83c 78d4 b43d 634f 9fbd
00000010: e626 373d bf17 17bd edf9 da3d 0fd2 523c
00000020: 0ca0 b83d 0a2c a2bd b904 82bd e668 d53d
00000030: f752 a23d d1c7 c7bd f6f0 5bbd 6d21 ebbc
00000040: 41a9 8f3d f67d 963c 1cbd 353b 3f11 e03d
00000050: 0248 b33d e2b6 08bd 5ecb ab3d 7c7c 0cbd
00000060: 627f 1c3d 8dc3 e53c 4018 c7bd 3282 e53d
00000070: e7a1 3a3d 9091 663c 751b 8a3d 2550 7cbd
00000080: 52c5 5ebd 83ee acbd de81 a43b 2725 42bd
00000090: 7bce 38bd 4d92 833d b5ff f2bc f7b7 29bd
000000a0: bf84 bdbd 4dc6 fb3d b1d3 8a3c 0b71 fb3d
000000b0: 40de 373d 38cc e1bd 704d 743d 1e03 83bc
000000c0: cb47 033e c6ef cd3d 2f66 6fbd 8e6d e4bc
000000d0: 93fc ad3d 25cf c93c 29bc 813d d268 1bbc
000000e0: 13f6 9f3d a74d c039 c4bc 1d3d 7121 543d
000000f0: a138 6c3d 3e8f c63d 53fa 443d 39b4 973d
00000100: d062 3f3d c5a4 0d3d 9d50 62bc 6cc6 873c
00000110: d2e8 aa3c 60bc efbd c8a8 2a3d 6360 86bc
00000120: dda6 f23d 62d1 003d 8d3f 083d 394c b53d
00000130: acc6 e83b 251f ebbc f298 e7bd 101e 473d
00000140: bd3b f5bd 12a9 143d a146 57bd 5b36 c53d
00000150: b65e 05bd 07e4 49bd 7f4f aebd e061 8d3d
00000160: 0c57 833b 4083 1b3d 6759 dabc c2a4 8dbd
00000170: ee76 edbd 03ec 3c3d 0e2b 8cbc 0068 3f3d
00000180: 56d6 cfbc 469b ee3d 6567 513c 5dc0 b1bd
00000190: 1384 cb3d d45c 9a3d fdc3 c5bd 2c54 17bd
000001a0: 5178 ae3d 1e25 97bd 9df3 24bd 9ec8 b7bd
000001b0: a618 ea3d 8a0a 63bb a2fb 933d 5a17 203d
000001c0: 2e6f 74bd 42ae b8bc 5389 de3d d901 cdbd
000001d0: 008b 0abd b326 d1bd b084 473b 0607 763d
000001e0: 3de6 e23d f5ae 17bd ae02 f1bd becb cd3d
000001f0: 5f7d 06be e7ac 513c 67a7 02bb 5ecb 23bc
00000200: 16fa f3bd d06d 86bd a20c 64bd 3043 86bd
00000210: 4b66 95bd 1501 bd3d 9f58 b73d c8ca 953d
00000220: d1f9 02be 9412 7a3b 6ad4 223d 1ff6 9e3d
00000230: c0b4 cb3d 2bea 433a 3cd7 c0bd 3450 fb3d
00000240: 139d bcbd 611c 773d 0b2e 8b3d e3ed c0bc
00000250: a5d5 a83d 04ba c33d 3106 b8bd 75ac 4a3d
00000260: 14f2 d53d 6515 a43d 1959 9abd 1c9c bdbc
00000270: 97e5 ffbd 05b4 0cbd a63c 01be 5ee9 edbd
00000280: 4b77 543d 18a7 adbd 25e5 f6bd 8c91 a53d
00000290: 0ce2 bebd 54c1 08be c211 58bd 2360 8abc
000002a0: c321 bdbd c642 9b3d 4ca4 65bc 1ffb ebbd
000002b0: e88e c7bd 404c 183d a62d b93c 06d2 c43c
000002c0: 1c3e 7e3d b99b 863b 2e5d 55bc 4aca 823d
000002d0: 50fa bd3d 1408 6b3d e213 84bd afce be3c
000002e0: c736 6b3c 80d7 8fbd e594 8c3a 3b0d 56bd
000002f0: 5493 d6bd 0dd1 12bd 9130 95bd 4c02 b6bd
00000300: b3ee a93d a7b8 8d3b 0a6d b23d 3d64 223d
00000310: 5e83 d03d eacb e43d d389 e4bc 309f 64bd
00000320: c7d4 c6bd 2626 cc3d b0c6 abbd b30b 72bd
00000330: 9eb2 d0bd 4bab e739 6d89 93bb a8ce 0bbd
00000340: 043e b03d cafa 03be 6efe a43d 0b91 4f3d
00000350: 9329 b23d 6152 36bc b32e c3bd 8cd3 2b3d
00000360: 690a c3bc 9fd2 cfbc 0e0f 073d 8f95 9abd
00000370: 4fa0 e73d f904 d83d 2f57 9c3d 04cd a8bc
00000380: 0359 c6bd 8e0e c4bd 6301 203c 9146 8dbd
00000390: c716 b3bd 36c3 3d3d f81b 2e3d fde1 9bbd
000003a0: 6c11 9dbd dfb3 043c dba5 933d ea9e ad3d
000003b0: 6c59 b8bd 8900 23bd a810 5039 037b 90bd
000003c0: 5034 e0bd c2fd 9cbd f57e 24bd c482 8fbd
000003d0: 2bf9 fcbd 0b8f fb3d 88d0 15bd bb4b 79bd
000003e0: ea1f a0bd 4ff5 8bbd 47f7 e23c 30eb 1c3d
000003f0: 8bf4 da3d b09c edbc 60fc d8bd 6f96 db3d
0.039836016 0.024470242 0.08829588 -0.07778814 0.04471483 -0.03688788 0.10692201 0.012867465
0.090149015 -0.07918556 -0.06348557 0.104203984 0.079259805 -0.09754909 -0.053696595 -0.028702462
0.070147045 0.01837061 0.0027731126 0.109407894 0.08753969 -0.033377536 0.083883986 -0.034298405
0.03820742 0.028047347 -0.09721422 0.112064734 0.04556456 0.014072791 0.06743518 -0.06159987
-0.054387398 -0.0844393 0.005020364 -0.047398712 -0.04511879 0.06424389 -0.029662946 -0.04143521
-0.09253835 0.12293682 0.016946645 0.122774206 0.04488969 -0.1102528 0.059644163 -0.015992697
0.12820356 0.10055499 -0.05844706 -0.027884271 0.0849544 0.024634907 0.06334717 -0.00948544
0.07810607 0.0003667895 0.0385101 0.051789705 0.057671193 0.0969529 0.04809029 0.074074216
0.046725094 0.034580965 -0.013813165 0.016574107 0.02086297 -0.117058516 0.04166487 -0.016403383
0.11848233 0.031449683 0.03326373 0.08852429 0.0071037617 -0.028701374 -0.11308469 0.048612654
-0.11974285 0.03629405 -0.05255759 0.09629508 -0.032561027 -0.04928973 -0.085112564 0.06903434
0.0040081795 0.037966967 -0.026653958 -0.06916191 -0.1159495 0.046123516 -0.017110374 0.04673004
-0.025370758 0.1165071 0.012780999 -0.086792685 0.099373005 0.07537237 -0.096565224 -0.036945507
0.08519042 -0.073801264 -0.04027139 -0.089738116 0.114304826 -0.0034643733 0.072257295 0.03908477
-0.05967634 -0.02254403 0.10866036 -0.10010118 -0.033823967 -0.102124594 0.0030444078 0.06006529
0.11079071 -0.037032086 -0.11768089 0.10048626 -0.13133763 0.012797571 -0.0019936205 -0.009997217
-0.119129345 -0.06563914 -0.05567611 -0.06555784 -0.072949015 0.09228722 0.0895245 0.07314068
-0.1279061 0.0038158046 0.039753355 0.077617876 0.09946585 0.00074735534 -0.09416053 0.12271157
-0.09209647 0.0603298 0.067958914 -0.023550933 0.082438745 0.09556964 -0.08985556 0.049480874
0.10446563 0.08011893 -0.07536525 -0.023145728 -0.12494963 -0.034351368 -0.12620792 -0.11616777
0.05187158 -0.08479136 -0.120554246 0.080844015 -0.09320459 -0.13354999 -0.05275131 -0.016891545
-0.09234955 0.075810954 -0.014016222 -0.11522507 -0.09744054 0.037182093 0.022604775 0.024025928
0.06207095 0.004107919 -0.013022704 0.0638624 0.09276259 0.05738075 -0.06449105 0.023291914
0.014356322 -0.07023525 0.0010725526 -0.05225871 -0.10477319 -0.035843898 -0.07284654 -0.08887157
0.082974814 0.004324991 0.08712204 0.039646376 0.10181306 0.11171706 -0.027897751 -0.055815876
-0.09708553 0.09968214 -0.08387506 -0.05909319 -0.101903185 0.00044187377 -0.0045024664 -0.03413263
0.086055785 -0.12888637 0.08056341 0.050675433 0.08699336 -0.011128039 -0.095303915 0.041949794
-0.023808675 -0.025368987 0.03297334 -0.07548057 0.11309873 0.105478235 0.076338165 -0.020605572
-0.096849464 -0.095730886 0.009765956 -0.06898225 -0.08744579 0.046328746 0.04250714 -0.07611463
-0.076693386 0.008099525 0.07209369 0.08477576 -0.09001431 -0.039795432 0.0001984263 -0.070547126
-0.10947478 -0.07665588 -0.04016014 -0.070073634 -0.123522125 0.12283143 -0.036575824 -0.060863238
-0.07818587 -0.06833898 0.027705802 0.03831023 0.10691174 -0.029005378 -0.10595012 0.10722052
