src/Backend-Information/Clod-weather_predict/Ningxia_lstm_model.pth (torch, 208379 bytes, 11 tensors)

lstm.weight_ih_l0 f4 [256, 3]
000000 ae f6 55 bd d4 cd 7a 3d 20 e5 3f 3d 74 22 06 bd
       -0.052237205 0.06123145 0.04684937 -0.0327477
000010 21 0f bd bc 06 61 e1 bd 99 16 12 3d aa f4 00 bb
       -0.023078503 -0.11004834 0.035666082 -0.001967708
000020 78 fa e3 bc 6c ca ca bd 3a 83 03 bd d4 08 5b 3d
       -0.027829394 -0.0990189 -0.03210757 0.053475216
000030 19 49 87 bd 2c fd 27 39 88 e2 f4 bc f4 95 bd bd
       -0.06605739 0.00016020675 -0.029893175 -0.09257117
000040 1f 9a d3 3d 10 28 ee bd a6 37 93 3d 75 03 2e bd
       0.10332131 -0.11628735 0.071883485 -0.042483766
000050 6e 25 e4 bd 9c 10 24 3e 53 a2 fe 3c ec 39 ad 3d
       -0.11139952 0.16021961 0.031083262 0.08458313
000060 f6 61 c1 bd e3 31 b1 3c d0 10 52 bc 55 f1 d0 bd
       -0.09442513 0.021630233 -0.012821391 -0.102022804
000070 46 d3 95 3d c0 a5 d2 bb 46 1a e6 bc 1e 09 23 bc
       0.07315688 -0.0064284503 -0.0280887 -0.009950904
000080 a0 47 8a 3d 0f a7 dc bc 7f 76 ce 3d 94 26 1f bd
       0.06751943 -0.026935128 0.10081195 -0.03885515
000090 88 73 c8 3d f2 3c ed bd de 96 8f bd 2b 40 99 3d
       0.09787661 -0.1158389 -0.070111975 0.07482942
0000a0 2a 79 11 3a f0 4d e7 3d c5 dc 81 3c f1 82 a0 3d
       0.0005549366 0.11294162 0.015852341 0.07837475
0000b0 da 48 91 3d e9 14 d7 3d cb d0 83 3d 54 65 7b bd
       0.070939735 0.10502035 0.064363085 -0.06137593
0000c0 9a 98 94 3d 7b 5b 03 be b0 69 3b bc 3e 97 f3 b9
       0.07255669 -0.12827866 -0.011438772 -0.00046461256
0000d0 80 6b 19 3e b4 5e 54 3d 82 99 97 3d 2f 11 8a bd
       0.14982414 0.05184813 0.07402326 -0.06741559
0000e0 3c 3f e1 bd 86 e1 08 3e e5 f4 ad bd e0 9d d0 bd
       -0.10998389 0.1336728 -0.084939755 -0.10186362
0000f0 a5 27 8b 3d 12 79 06 3d a0 0c 98 3d 03 4b c9 bd
       0.06794671 0.032830305 0.07424283 -0.098287605
000100 f4 9b dc ba d4 ef 09 3d 84 66 de 3d 65 55 6d bd
       -0.0016831146 0.033675984 0.10859397 -0.057942767
000110 d6 c3 db 3d c5 82 14 3e 60 3b 7e bd 7e b5 a4 bd
       0.10730712 0.1450301 -0.062068343 -0.080424294
000120 09 d7 6a 3a 71 f4 48 bd b0 d7 89 3d bb 07 2a bd
       0.00089584343 -0.049061242 0.06730592 -0.04151128
000130 23 9f 63 bd 00 e2 a7 3b a5 74 f9 3b bd f2 46 3d
       -0.055571686 0.005123377 0.007612782 0.048571337
000140 f0 5b 29 3d 56 0b 88 3d bc ac 8c 3d bc 37 e0 3d
       0.041347444 0.06642787 0.06868884 0.109481305
000150 1d 0a 7a ba 26 d6 2b 3d a0 73 d0 bc 73 03 ed ba
       -0.000953825 0.041952275 -0.02544576 -0.0018082693
000160 dd a1 85 3d 20 ce 40 3d 15 a1 12 bd 90 13 43 bd
       0.065250136 0.047071576 -0.03579815 -0.047626078
000170 e8 8b 26 bd cd 3e d8 3d 37 f7 41 bd e4 1e e8 bd
       -0.04066077 0.10558853 -0.047354903 -0.11334017
000180 e6 30 8f bd 42 2c d1 3c f6 9b d6 3d 05 4a db bd
       -0.069917485 0.0255338 0.10478966 -0.107074775
000190 ad 6b a7 bd 8c 9c e7 bd d5 d7 a3 3d 91 3e 91 3d
       -0.081748344 -0.11309156 0.08000151 0.07092012
0001a0 84 27 49 3d c2 09 68 3c 51 d9 47 3d d2 c7 e4 3d
       0.04910995 0.014162483 0.048791233 0.11170925
0001b0 71 72 e7 3d 9f 0e 20 3d bc 53 a5 3d 3b 83 32 bd
       0.11301125 0.039076444 0.08072612 -0.043582182
0001c0 c0 69 7d ba 80 98 97 3c 44 c8 01 be 75 46 5f 3b
       -0.0009666942 0.018505335 -0.12674052 0.0034069095
0001d0 80 9b c5 bd 3f 04 ec 3c 71 88 00 3e 66 50 f5 3d
       -0.096488 0.028810618 0.12552048 0.119782254
0001e0 dc 65 ab bd 8a 32 6a 3d 26 ee ec 3d 9d 0d 52 3c
       -0.083690375 0.057177104 0.11568861 0.0128206285
0001f0 90 64 9e bc 56 fe 97 bd 37 26 ae 3d dd 02 df 3d
       -0.019335061 -0.074215576 0.08503383 0.10889218
000200 08 a2 52 bd 5a 36 a1 bd f6 71 87 3d 18 e5 f2 bc
       -0.051424056 -0.07871695 0.06613533 -0.029650256
000210 17 f6 ed 3d dd 75 b6 3d ec 37 41 3d 97 37 2e 3d
       0.116192035 0.089091994 0.047172472 0.042533483
000220 c4 b7 c0 3d 66 88 ca bd d6 48 84 bd 06 dd d1 3d
       0.094100505 -0.09889297 -0.06459205 0.10247235
000230 10 14 84 3d fe 5f 4f bd 82 64 e0 bd ae 58 99 3d
       0.06449139 -0.050628655 -0.1095667 0.074876174
000240 5d 4f f8 bd 58 b1 00 be 28 73 39 bd d0 ac 4f 3d
       -0.12124512 -0.12567651 -0.045275837 0.050701916
000250 84 6e 1d bd 60 bd 24 bc 49 3b 12 3e d9 a0 50 3d
       -0.038435474 -0.010054916 0.14280428 0.050934646
000260 d8 b6 09 3d 26 eb df 3d be aa 09 bd 3a 3f 88 3d
       0.03362164 0.10933523 -0.033610098 0.066526845
000270 a0 72 85 3d 32 91 00 3e f0 a9 8f 3d fa 90 5e bd
       0.065160036 0.12555388 0.07014835 -0.05433748
000280 11 26 dd 3d 9a 28 d7 bd 07 74 d4 bd af 78 c3 bc
       0.10798276 -0.10505791 -0.10373693 -0.023861257
000290 6e 9f aa bd 95 81 e3 3d 40 2c ea bc 60 9a 10 bd
       -0.0833119 0.111087 -0.028585553 -0.035303473
0002a0 55 23 d8 bd 18 5d 1e 3e ae be e5 3d ed be 10 bd
       -0.10553614 0.154652 0.1121801 -0.03533833
0002b0 50 ac 55 3d 20 8b f4 3d ad 0a 8f 3d 3e f8 ab bd
       0.052166283 0.119405985 0.06984458 -0.08396958
0002c0 10 15 b2 bc c7 ce 0a 3d 7e 87 6b 3d 58 aa 31 3d
       -0.021738559 0.033888604 0.057502262 0.043375343
0002d0 2e be b3 3c b0 03 a1 3d 18 9e fd bc 43 3d 8a bd
       0.02194127 0.078620315 -0.030959174 -0.06749966
0002e0 31 64 87 3d 18 ed 06 bd d8 ad 1e ba ee 11 f4 3d
       0.06610907 -0.032940954 -0.00060531264 0.11917482
0002f0 5e 82 a5 bd 8a 7b dd 3d a9 76 8f 3b 86 2f bc bd
       -0.08081506 0.10814579 0.004378159 -0.09188752
000300 19 b0 bc 3b 22 19 1b 3b 80 da a8 3c 85 e9 cd bc
       0.005758297 0.0023666103 0.020612001 -0.025135765
000310 30 42 fe 3c e8 b4 bb bd 9b 24 04 3e 65 59 b9 bd
       0.03103742 -0.091653645 0.12904589 -0.09050254
000320 ae 6e ba bd 98 17 13 bd c8 c8 99 bd c0 80 9e bb
       -0.09103142 -0.035911173 -0.07508999 -0.0048371255
000330 b9 4d a6 3d 08 c1 01 be d8 2d 52 bd 18 a0 0a 3d
       0.08120293 -0.12671292 -0.05131325 0.033844084
000340 24 f9 02 bc 24 c8 ce 3d 6b 7b 98 bc e3 f7 c0 bd
       -0.00799397 0.100967675 -0.018613538 -0.09422281
000350 16 74 ae bd dc 99 5c 3d 00 a9 76 bd 1e e4 ab 3d
       -0.085182354 0.05385767 -0.060219765 0.08393119
000360 bc ff c4 3d 09 2f 23 be 38 fe ff bc 19 7d a6 3c
       0.0961909 -0.15935911 -0.03124915 0.020323323
000370 1c 15 8f bd 24 ea 74 bd 02 db 8d bd 36 e7 28 be
       -0.06986448 -0.059793606 -0.06926538 -0.1649445
000380 f4 bb 4c bd e9 94 57 bd 2b c6 32 3d 04 fd 05 3d
       -0.049983934 -0.052632246 0.04364602 0.032711998
000390 41 40 03 3e 87 ba 90 bd 0c f1 08 3d 54 09 bf 3d
       0.1281748 -0.07066827 0.033433005 0.09327951
0003a0 5a b5 9b 3d 78 69 0b 3d fa b6 25 3e 00 8e 30 be
       0.076029494 0.03403613 0.16183081 -0.17241669
0003b0 b0 92 42 3d f2 86 29 3e 9a 46 b5 bc d0 67 83 3d
       0.047503173 0.16555384 -0.022128392 0.06416285
0003c0 62 5c c6 3d 36 78 4a 3c c0 fa b4 3b 9a d5 e3 3d
       0.096855894 0.012357762 0.005523056 0.11124726
0003d0 7f 11 25 3d 82 86 da 3d e8 59 5d 3d 31 4f ab 3c
       0.04029989 0.106701866 0.05404082 0.020911785
0003e0 cc 2b 4b 3d 7a c3 34 3e c6 99 2a bd 60 c4 43 3d
       0.049602315 0.17652693 -0.041650556 0.0477947
0003f0 24 e3 cb 3d 63 43 8c bd 32 31 e1 bd e1 0b 33 bd
       0.09955433 -0.068487905 -0.109957114 -0.0437125

lstm.weight_hh_l0 f4 [256, 64]
000000 d4 b4 d6 3d 8b 4a 8e 3c 1a 6c 1e 3e 78 90 0b 3d
       0.10483709 0.01736953 0.15470925 0.034073323
000010 e5 fc 0e be a1 ba fd bd 38 58 03 be 88 59 f3 bd
       -0.13963659 -0.12389112 -0.12826622 -0.11882311
000020 2b 78 50 bc 90 e5 d0 bd 42 9d f2 3d cf 33 93 3d
       -0.012723963 -0.102000356 0.11846401 0.07187616
000030 df 94 c7 3d 42 46 68 3c 3a 4b 16 be 69 39 10 bd
       0.09745192 0.014176907 -0.14677134 -0.035211
000040 79 79 2f 3d b7 e4 16 bd a6 74 59 bd bf 4e 71 bd
       0.042840455 -0.036839213 -0.05308976 -0.05891299
000050 30 c7 85 3d 38 73 0b 3e 8f 12 27 3c 39 fc 4e 3d
       0.065321326 0.13618171 0.010197296 0.050533507
000060 bf ee 29 be a2 52 02 3d 8c 9f 5f bd 5a b5 7d bd
       -0.1659498 0.031817086 -0.054595515 -0.06194053
000070 49 95 8b 3d c7 8f e7 3b a4 32 96 3d 83 50 d1 3c
       0.06815583 0.0070667 0.07333878 0.025551086
000080 8a 46 a4 bd df 46 94 bd df a9 4c 3d 28 59 26 3e
       -0.08021267 -0.0724008 0.04996669 0.16244948
000090 de 07 bd 3d 97 27 b4 3d 55 11 0c be d1 ae f0 bd
       0.09230016 0.08796614 -0.13678487 -0.117520936
0000a0 92 5f eb bb 0d 06 79 bd 00 ab f5 3d 8d cf 29 bc
       -0.0071830237 -0.060796786 0.11995506 -0.010364425
0000b0 f9 c4 11 bd b0 9c 87 3d 80 88 c5 3d fb d2 14 be
       -0.03558824 0.06621683 0.09645176 -0.14533608
0000c0 eb 39 1d 3e fd 1f 62 3d f3 16 58 bd 57 70 b6 3d
       0.15354125 0.055206288 -0.05275626 0.08908146
0000d0 bf ed 20 3d c1 2a 97 bd 2e ba 5c 3c fe 18 5c 3a
       0.039289232 -0.073812015 0.013472123 0.0008396058
0000e0 22 30 bf bd 13 36 0b bd ec 54 7e 3d b9 f1 80 bd
       -0.093353525 -0.033987116 0.062092707 -0.06296105
0000f0 1d fc 6a bd 96 6d 07 be d6 11 ec 3d fb 35 18 3e
       -0.05736934 -0.13225397 0.115268394 0.14864342
000100 2e f4 ca 3d 85 07 60 bd ed 4f b1 3d 64 d7 15 3d
       0.09909855 -0.05469467 0.08657823 0.036582366
000110 24 e7 ad bc 8d bc 13 3c dd 89 7f 3d cf a8 63 3d
       -0.02122838 0.009017122 0.062387336 0.05558091
000120 28 c6 8a bc 8a 2b b5 bc 70 7e 52 bd 8e 58 94 bd
       -0.016940191 -0.022115488 -0.05139011 -0.07243453
000130 b1 e3 ce bc 28 69 91 3c a3 27 a3 3d 9d 50 bc bc
       -0.025255056 0.017750338 0.079665445 -0.022987658
000140 b6 cf 38 bd e1 ae 6e 3d 78 6a 8a 3d 97 ee 28 3d
       -0.045119964 0.058272246 0.067585886 0.041243162
000150 86 27 1b be 44 57 7d bc 7d 0d a4 3d f3 93 f5 3c
       -0.15151796 -0.0154627 0.08010385 0.029977774
000160 1c c0 b0 bd 41 b4 d4 3d 8d 65 e3 3c fd 20 af bd
       -0.08630392 0.10385943 0.027758384 -0.08551214
000170 3b d8 37 bd f2 d8 a9 3d 31 21 a8 3d c0 8f ee 3c
       -0.044883948 0.08293332 0.08209456 0.02912128
000180 1e af 2e bd 8b 9e 80 3c ef 6b 95 3c 1e e0 03 3e
       -0.042647474 0.0157006 0.018239943 0.12878463
000190 bc 7a 5a ba bf 33 74 3d 23 60 ec bc 4c e0 97 bd
       -0.0008334329 0.05961966 -0.028854435 -0.07415828
0001a0 4e bd a8 bc dc fa f1 3c c4 de d4 3d 5e 64 ab 3d
       -0.02059808 0.029538564 0.10394052 0.08368753
0001b0 09 38 b7 3d 84 e6 9c 3d 1e d2 ca 3d fd 92 87 bc
       0.08946235 0.07661155 0.09903358 -0.016549582
0001c0 7e 2a df 3d 58 ae 91 bd 37 dd 32 3d 72 f5 8b bd
       0.108967766 -0.071133316 0.043668 -0.06833924
0001d0 c9 09 58 bd fb 50 5a 3b 4f ea b7 bd 28 25 e7 3d
       -0.052743707 0.0033312428 -0.08980238 0.11286384
0001e0 f2 51 92 3d 31 8e 2a 3d 1b 64 65 bd e2 63 d3 bd
       0.07144536 0.04163951 -0.05600367 -0.103217855
0001f0 16 c2 97 3d 22 55 2e bc 0f 5c 14 3e c9 05 0d 3e
       0.07410066 -0.010640414 0.14488243 0.13771738
000200 3d 15 e1 bc 35 de da 3d 3d 61 b0 bc e3 bf 26 3d
       -0.027475948 0.10686914 -0.021530742 0.04071034
000210 99 c9 aa bc d2 39 d8 bc 8f 4d ec 3c ae ff 39 bd
       -0.020848082 -0.026394758 0.028845577 -0.04540985
000220 e1 37 8b bd b1 94 6c 3d e9 ec 90 3d c1 7f 86 bd
       -0.067977674 0.05775899 0.07076437 -0.06567336
000230 a7 64 e1 bc 20 da e4 bd 89 2e a2 3d 9a c5 dc bd
       -0.027513815 -0.111744165 0.07919032 -0.10779877
000240 a7 f3 77 3d 2a 11 39 3b 36 ec 01 3e 3b e0 02 be
       0.0605351 0.002823899 0.12687764 -0.1278085
000250 af 3c c9 bd 51 63 cf bd 2c c6 a3 3c 11 4d 7c bc
       -0.098260276 -0.10126365 0.019991957 -0.015399233
000260 76 7a 5d bd b4 0f cc 3d 30 7e b8 bd f9 88 a2 3c
       -0.054071866 0.09963933 -0.09008443 0.019840704
000270 42 6d 00 3b e3 8b 7d bd 5c 65 e5 bc 4f 15 bf bd
       0.0019596373 -0.061900984 -0.028002433 -0.09330236
000280 e8 d8 8d 3c a9 e9 5a 3d 76 05 fb 3d 29 d5 94 3d
       0.017315343 0.053445492 0.12256901 0.072672196
000290 97 33 77 3d 18 d5 bf 3d f2 02 f0 bd 26 0f 65 bd
       0.060351934 0.09366816 -0.11719312 -0.05592265
0002a0 ee e8 0c 3d 3d b4 fe 3d d2 36 6a bd ea 96 38 3d
       0.034401827 0.124367215 -0.057181187 0.045065798
0002b0 4f 9e 0b 3d a5 f2 e0 3d 17 e9 d6 bd 7d 6c b7 3d
       0.03408652 0.10983781 -0.10493677 0.08956239
0002c0 bc 87 58 bd 53 ec 9d 3d 5d 68 8c bd 49 f0 82 3d
       -0.05286382 0.07711091 -0.06855843 0.06393487
0002d0 03 3b 00 be fd ec a5 bd c8 89 89 3c e6 d5 c8 bd
       -0.12522511 -0.081018426 0.016789332 -0.09806423
0002e0 a8 e0 11 3d a7 7e 81 3c 9a 0a 3c 3d d1 16 25 bd
       0.03561464 0.015807463 0.045908548 -0.040304963
0002f0 f3 14 a2 3d 39 f3 f5 bd 87 0c e9 3b cf 40 cf 3d
       0.07914152 -0.12009282 0.007112089 0.10119783
000300 24 e9 d6 bc 2a 5e 95 bd c4 ea 36 bd c2 0d e6 bc
       -0.026234217 -0.07293351 -0.044657484 -0.028082732
000310 a5 20 be bd 24 a9 81 bd bb 3c 14 bd 71 40 49 bd
       -0.0928357 -0.06331089 -0.03619073 -0.04913372
000320 00 99 88 bd ce a4 e9 3c c5 6e c7 3d a5 ad f1 3c
       -0.066698074 0.028520968 0.097379245 0.029501745
000330 77 e8 07 bd 2d 53 95 3d 89 a3 9a bd 36 67 00 3e
       -0.03318068 0.07291255 -0.07550723 0.12539372
000340 90 de 71 bd 82 1c fe 3d 0d 29 11 bd 11 22 ca 3d
       -0.059050143 0.12407781 -0.03543954 0.09869779
000350 de 63 b9 bd 6e bc c0 3d 6c 2b 91 bd 3c 22 a8 bd
       -0.09052251 0.0941094 -0.0708836 -0.08209655
000360 15 69 21 3d d2 e7 77 bd 5c cc d7 bd 94 e8 a6 3d
       0.039406855 -0.060523815 -0.10537025 0.081498295
000370 7e 1b 14 3d 50 6c aa bc 81 50 b6 3d 05 98 b6 3d
       0.03615903 -0.0208036 0.08902074 0.08915714
000380 79 5a 6a bd ad e3 e8 3d 24 15 4c bd e8 31 0c 39
       -0.057215188 0.11371551 -0.04982485 0.00013370032
000390 f3 ea 55 bc 6a 0f f1 3d 22 c0 dd 3d a0 24 93 bd
       -0.013056505 0.11770518 0.10827662 -0.0718472
0003a0 69 6b c8 bd a6 53 4a bb c3 54 5b 3c 0e 8e ad bd
       -0.09786112 -0.0030872612 0.013386908 -0.084743604
0003b0 ed bc b8 3c 86 4f 75 bc ce 2d f4 bd de ee 10 bd
       0.022551024 -0.014972573 -0.11922799 -0.03538405
0003c0 55 31 ff bc de 2a 27 bd 5b 5e f8 bd 04 99 8a bb
       -0.031151453 -0.040812366 -0.12127372 -0.0042296667
0003d0 98 9c d4 bd 01 30 b9 3d 8f 75 a3 3d 99 bd dd 3d
       -0.103814304 0.09042359 0.07981407 0.108271785
0003e0 a4 24 89 3d fe bf d0 3d 04 cc 0f bb de 09 9e 3c
       0.06696442 0.101928696 -0.002194167 0.019291814
0003f0 bf 95 82 bd 98 71 a2 bb 5f a8 d5 3d 89 5c 90 3d
       -0.06376218 -0.004957389 0.10432505 0.070489

lstm.bias_ih_l0 f4 [256]
000000 02 ce ba 3d 58 9e 93 3d 95 7f 61 bd 1b bc 81 3d
       0.09121324 0.07207936 -0.055053312 0.063347064
000010 7d 8b 70 bd 4b 5b 50 3d 95 0c cc bd 6c 54 bb bd
       -0.058726776 0.050868314 -0.09963337 -0.091469616
000020 38 3e dc 3d c9 b7 85 3d a8 ab 72 bd f7 22 bb bd
       0.10754055 0.06529195 -0.059245735 -0.091375284
000030 3b 11 2b bd 39 08 56 bd 32 b2 c3 bd 5b 6e cb bc
       -0.04176448 -0.052253935 -0.095554724 -0.024832895
000040 b6 89 b2 3c 51 55 30 3e f1 2b e1 3d 0d f2 95 bd
       0.021794181 0.17220046 0.10994709 -0.07321558
000050 72 7c 62 3d 17 15 02 3e 6c 45 c2 bb 65 dc 6a bd
       0.05529446 0.12703358 -0.005928686 -0.05733909
000060 eb b2 88 bd e3 7a 1a 3e 59 8b 94 bc 0b 23 28 bc
       -0.06674751 0.1508594 -0.018132852 -0.010262261
000070 be af e8 3d 13 84 f0 3d 61 71 6b bc 96 5a b4 3d
       0.11361645 0.11743941 -0.014370293 0.088063404
000080 70 e6 c6 3d 8c a5 b6 3d de 48 06 3d a1 fe 01 3e
       0.09711921 0.08918294 0.032784335 0.1269479
000090 0a 46 8c 3a 95 58 67 bd cf d4 23 3d db 43 a0 3d
       0.0010702026 -0.056480963 0.039997872 0.078254424
0000a0 ad 74 85 bd 69 c2 a5 3d 0b eb da 3d b5 5e df bc
       -0.06516395 0.080937214 0.10689362 -0.02726684
0000b0 68 12 cb bd c6 30 ab 3d 60 97 60 3d 43 df 15 3e
       -0.0991562 0.08358912 0.054831862 0.14635949
0000c0 77 82 f9 3c 79 e8 d9 bd 97 df cf bd 68 89 ae 3d
       0.030457718 -0.10640044 -0.10150068 0.08522302
0000d0 15 5b 68 3c e3 ca 15 bd 9f a9 98 bd ba 3f fb bc
       0.014181872 -0.03657044 -0.07454228 -0.030670036
0000e0 2e 18 27 3a 33 d7 d2 3c cd c4 0c 3e 6f 38 05 bd
       0.00063741475 0.02573738 0.13746949 -0.032524522
0000f0 de f6 a0 3b e0 3d 7a 3d 4e f8 6b 3d c6 0f 9e bd
       0.0049122414 0.061094165 0.05760985 -0.07717852
000100 74 1e fc bd 93 97 3d 3d 2f 71 8d bb 80 4e 15 3d
       -0.12310496 0.04628713 -0.004316471 0.036451817
000110 e5 ec 01 3c 3c c6 7d bd e3 aa 86 3d 74 1a f2 bd
       0.007930015 -0.06195663 0.06575563 -0.11821452
000120 1c 84 ff 3d c0 8e f2 bd f6 e6 4c 3c 7c b7 85 3a
       0.1247637 -0.11843634 0.012506237 0.0010201777
000130 9b ff fd 3c 68 d4 01 bd 56 6c cf 3c 16 e3 c8 bd
       0.031005671 -0.031696707 0.025320213 -0.09808938
000140 26 72 bf bd 26 5a 87 3d e5 ec a8 bd 5b a1 93 3d
       -0.09347944 0.06608991 -0.08248309 0.072085105
000150 15 6d 95 bd b1 a5 b8 bd 18 6e 07 3e 30 62 b4 bd
       -0.07296196 -0.09015978 0.13225591 -0.0880779
000160 fc c0 e8 3d 78 9d da 3b af aa bf 3d 4d eb 0f 3e
       0.11364934 0.006671604 0.09358727 0.14054604
000170 0b a8 91 3c 9d f8 37 3d fb 00 15 3e d5 0a 9c bd
       0.017780324 0.04491483 0.14551155 -0.076192535
000180 20 55 94 bd 78 7e 48 bd c4 a5 75 bd 42 ae ab 3c
       -0.07242799 -0.048948735 -0.05997254 0.020957116
000190 4b 3c 18 bd d6 f4 78 3d 84 dc 1f bd 3a 9b 42 3d
       -0.037166875 0.06078037 -0.03902866 0.047511317
0001a0 18 93 d3 3d 1d e4 a0 bc f2 f1 30 bd 75 1f 8c 3c
       0.1033079 -0.019640023 -0.043199487 0.017104844
0001b0 a9 74 b5 3d 35 93 f4 3d b6 76 8a 3c 02 5c f7 3c
       0.08860142 0.1194214 0.016902309 0.03019524
0001c0 18 c5 ae 3c c3 58 9b bd ab cc 25 bb 78 a3 99 bd
       0.021334216 -0.07585289 -0.0025298994 -0.07501882
0001d0 42 c9 4c bd ab d5 2c 3d 85 fa e7 bd c5 ae 35 3d
       -0.049996622 0.042195957 -0.1132708 0.044356126
0001e0 9e 50 1f 3e 15 32 00 bd f6 90 00 3e 3c b7 c8 bd
       0.15558097 -0.031297762 0.12555298 -0.09800574
0001f0 f8 4a 1a bd 69 87 9e bd 91 e9 85 3d 89 4c f3 3d
       -0.037669152 -0.07740671 0.0653869 0.11879832
000200 18 ac c9 bd 1e 7a c4 3d c8 7a bc 3d 87 e6 e4 bd
       -0.098472774 0.095936045 0.09203106 -0.11176782
000210 64 e4 f6 ba 76 94 d4 bd 1a 2b c0 bd 04 2a f3 3d
       -0.0018836376 -0.10379879 -0.09383221 0.11873248
000220 43 e5 c5 bd 24 f2 a5 bd d0 90 cb 3d 59 3f b9 bd
       -0.09662869 -0.08102825 0.0993973 -0.09045286
000230 50 17 fb bc a3 d1 84 3d bc b5 b7 bd 63 0a eb 3d
       -0.030650765 0.064852975 -0.0897021 0.114765905
000240 4a 72 da bd 41 3a 30 3d 79 f1 23 bd b3 44 57 bd
       -0.1066633 0.043024305 -0.04002521 -0.05255575
000250 e1 17 c3 3d 8e 07 85 3d d5 ce cd bd 92 4a 95 3d
       0.09526039 0.064955816 -0.10049216 0.07289614
000260 a2 39 1c 3d 56 1d d3 bd 84 cb 92 bc a3 26 b1 b9
       0.0381409 -0.1030833 -0.01791931 -0.00033788857
000270 84 77 a3 3d 38 f2 da 3d 70 20 1b 3d 3a fc 9d 3c
       0.0798178 0.10690731 0.03787273 0.01928531
000280 14 5f 52 3c 59 41 af 3d 82 72 6d bd e9 8d 39 3c
       0.012840051 0.08557386 -0.05797053 0.011325338
000290 25 31 0f 3d 0d 03 6c 3d cd 3b a2 3c a6 28 d1 3d
       0.034958977 0.057620097 0.019803906 0.10212831
0002a0 1c 22 ad bc 83 6f a8 bd b1 61 60 bd 5c 79 14 bd
       -0.021134429 -0.08224394 -0.054780666 -0.03624855
0002b0 09 7b 34 3d 98 50 dd 3d d0 15 fb bc b4 c7 0c bd
       0.044062648 0.10806388 -0.03065005 -0.03437014
0002c0 9e 51 4d 3d 9f 48 8a bd ba 20 4e bd 58 c6 99 3d
       0.050126664 -0.067521326 -0.05032418 0.07508534
0002d0 a8 0d e7 bd c2 59 b5 bd 1e e0 76 3c f5 c4 93 3d
       -0.112819016 -0.088550106 0.015068082 0.07215301
0002e0 b4 24 82 bd 64 a8 f5 3d 76 80 a6 bd a4 30 80 bd
       -0.06354657 0.119950086 -0.08129971 -0.062592775
0002f0 37 35 08 bd 8a 1f 9f bd 52 e9 95 3d 3b af f2 bd
       -0.033253875 -0.077696875 0.07319893 -0.11849829
000300 c5 8e ad 3d c6 87 c9 bd 94 71 a9 3d 48 ad 0a 3e
       0.08474497 -0.0984035 0.082736164 0.13542664
000310 dd 73 ab 3c 44 bf c7 bd 9c 3f c6 3d 28 1c d0 3d
       0.020929271 -0.09753278 0.09680101 0.101616204
000320 0a a3 03 3d 86 94 58 bd 20 2e be 3b 5e 58 5e bd
       0.032137908 -0.052876018 0.0058038384 -0.054283492
000330 f0 b1 8f bd 4e cb 58 bd 05 1f d7 3d 17 f9 f0 3d
       -0.07016361 -0.05292826 0.105039634 0.1176626
000340 17 f3 4f 3d 28 03 32 bd 9c 35 31 bd 0a 89 19 3e
       0.050768938 -0.04346004 -0.043264017 0.14993683
000350 bd 41 89 bd d4 67 86 ba f9 d7 91 bd b8 07 e4 ba
       -0.06701992 -0.0010254332 -0.07121272 -0.001739732
000360 af 3a c1 3c 6c 1d fd 3c 7c d7 05 3e 9d 32 0f 3e
       0.023587553 0.030897819 0.13070482 0.13984151
000370 5f 4e 00 3d f8 d2 a3 3c ed a1 2b 3d 14 fe 3f bd
       0.03132474 0.019998059 0.04190247 -0.046873167
000380 22 6c 25 3c 2b 74 83 3d 80 06 d0 bd 79 9f 8f bd
       0.010096582 0.06418642 -0.1015749 -0.07012839
000390 68 aa 52 bd 94 ea 2c 3e 93 f2 82 3d 53 06 73 3d
       -0.051432043 0.1688636 0.063939236 0.059332203
0003a0 1e 24 db bd dc 9c 7a 3d e7 97 65 3d 36 40 0a bd
       -0.10700248 0.06118475 0.05605307 -0.033752643
0003b0 ce 9b 08 3b 84 3a 42 bd 89 fb d5 bc db 8d 14 bd
       0.002084482 -0.047419086 -0.026120918 -0.036268096
0003c0 4c 7f 0c 3e a7 6d e0 bd 6f 09 05 bd 80 82 66 bd
       0.13720435 -0.109584145 -0.0324797 -0.0562768
0003d0 8a ab 06 3e 0d 8d a5 3d 58 3d f5 bd 74 61 83 ba
       0.13151374 0.08083544 -0.11974591 -0.001002355
0003e0 d2 4c 02 3b 03 35 ed bd f2 60 2a 3a aa 08 a1 bd
       0.0019882214 -0.11582377 0.00064994313 -0.07862981
0003f0 a7 1b 07 3e 34 c3 d3 bd 19 6c 13 3e cc fc 45 ba
       0.13194142 -0.103399664 0.14396705 -0.0007552623

lstm.bias_hh_l0 f4 [256]
000000 62 cb 38 bd 65 ae c8 bd 31 09 b5 3d 77 2c af 3d
       -0.045115836 -0.09798888 0.08839644 0.08553403
000010 4d bc 8f bd 39 f7 b2 bb 33 36 dd 3d c2 e1 e7 3d
       -0.070183374 -0.0054616 0.10801353 0.11322357
000020 fa ed 37 3d bb e6 69 bd d9 dc a0 3b 3b 10 94 3d
       0.044904687 -0.057104807 0.0049091396 0.07229658
000030 cb 06 22 bd d3 c5 78 3d 8e d3 07 3d e8 9e fc 3d
       -0.03955726 0.060735535 0.03316074 0.123349965
000040 cd 8e e0 bd 64 f8 90 3d d4 b3 41 bd cf 70 f6 3d
       -0.10964737 0.07078627 -0.047290638 0.12033235
000050 29 7e ef 3d 47 8b f5 3c c9 28 6a bd a9 f9 7d 3d
       0.11693985 0.02997364 -0.057167802 0.062005673
000060 ef 82 67 3d a4 33 68 3d e4 3e a4 3d f0 87 15 bc
       0.056521352 0.056689873 0.08019808 -0.009126648
000070 1b 45 86 bd 92 71 9c 3c 1c 34 83 bd d9 e8 38 bd
       -0.065561496 0.019097123 -0.064064234 -0.045143936
000080 d0 43 e5 3d c2 ff ee bd ff b1 8d bd 8a d5 68 bd
       0.11194575 -0.11669876 -0.06918716 -0.05684427
000090 fc 55 75 bd 9b 11 d8 3d 67 45 aa bc d2 35 99 bd
       -0.059896454 0.10550233 -0.020785047 -0.074809685
0000a0 3c 72 50 bd e3 6e 7e bd 8e b2 8c 3c c3 7a 0e 3c
       -0.050890192 -0.06211747 0.017174985 0.008696261
0000b0 c1 20 07 be 89 a7 a3 bc 54 52 5f 3d cb e0 b7 bd
       -0.13196088 -0.019977348 0.054521874 -0.08978423
0000c0 7e fe 7e bc 2b 18 db bd a5 70 ac 3d 90 aa 23 3d
       -0.015563605 -0.10697969 0.08419923 0.039957583
0000d0 c7 78 e4 3d ff a8 0f 3e 08 0b 0d bd 88 51 17 bd
       0.11155849 0.1402931 -0.03443435 -0.03694299
0000e0 8d 56 b6 3d 39 d1 72 bc 61 d7 dc bc b8 82 10 3d
       0.08903227 -0.01482039 -0.02695817 0.035280913
0000f0 8f 69 06 3e 33 b4 c3 3d 1c c5 d0 3a a8 b6 51 bd
       0.13126205 0.09555855 0.0015927884 -0.051199585
000100 d7 77 9a bd ac 90 9e 3d 44 99 bf bd 59 ec b7 3d
       -0.07542389 0.07742438 -0.09355405 0.089806266
000110 20 3b 71 bd e0 8e e1 3d b1 d6 48 3c 93 df 78 bc
       -0.058894277 0.11013579 0.012258218 -0.015190023
000120 b8 dc b7 bd 9d bc b4 3c 59 ba 5d bd 7a c7 60 3d
       -0.08977646 0.022062594 -0.054132793 0.054877736
000130 e3 92 25 3d de 96 8d 3d 0c 8d e4 3d 08 7b 18 bd
       0.040423285 0.06913541 0.11159715 -0.037226707
000140 b7 6e 92 3c d3 2c 93 3d e0 7c ba 3c ad fe 19 3e
       0.017875059 0.07186284 0.022764623 0.15038557
000150 33 73 a8 bd 8e 76 75 3d 83 65 04 bd e5 69 2a bd
       -0.082250975 0.059927516 -0.03232337 -0.041604895
000160 07 ce 4d bd e1 9c 75 3c 4f b0 db 3c 1a 95 56 3b
       -0.05024531 0.014991016 0.026817469 0.003274268
000170 de 81 69 3d d5 63 f5 3c 4b 97 9e 3d ed 80 80 bd
       0.057008617 0.02995483 0.077437006 -0.06274591
000180 3a 44 91 bd 2c c6 44 3c 28 3e 81 bd d5 52 c4 3d
       -0.07093091 0.0120101385 -0.063106835 0.095861115
000190 a1 7d 97 3c 00 0d 0b 3e 7a e9 f1 3d 10 fa d2 bc
       0.018492522 0.13579178 0.1181211 -0.025754005
0001a0 69 1c a9 bc 28 72 12 3e 41 5e 9c 3d 8a e5 de 3b
       -0.02064343 0.1430136 0.07635165 0.0068022655
0001b0 0b 94 b0 3d 2b b9 db 3d e6 4b 14 3b 2f 17 9b 3d
       0.08621987 0.10728677 0.0022628247 0.07572781
0001c0 ad cf b0 3c 8f a9 82 bd 7e 98 03 3d a0 21 af bd
       0.021583403 -0.06379997 0.03212785 -0.08551335
0001d0 87 b6 c1 bd 46 ea 82 3d 26 87 fd bc df cd bd bc
       -0.094586425 0.0639234 -0.030948233 -0.023169456
0001e0 e8 96 78 bb dd 9c 6a 3d c0 64 b7 3d c2 c4 d6 bd
       -0.0037931744 0.057278503 0.089547634 -0.10486747
0001f0 70 69 c2 3d d9 e7 7e bd cf a9 bb bd 72 11 9a 3d
       0.09492767 -0.062232826 -0.09163248 0.07522859
000200 06 48 08 be 46 ca 48 3c c6 a9 85 bc 4e f7 d8 3d
       -0.13308725 0.012255257 -0.016316306 0.105940446
000210 b3 5b 08 bc ed 2a 5e bd ec e8 a5 3d 25 55 db 3d
       -0.008322644 -0.054240156 0.08101067 0.107095994
000220 78 88 15 3d 66 6d 88 3c d8 9b 88 3d d5 ba b0 3c
       0.0365071 0.016653728 0.0667035 0.021573463
000230 b3 89 70 bd 36 f1 65 3d 50 76 82 3d ef c1 14 bc
       -0.05872507 0.05613824 0.063702226 -0.0090794405
000240 56 db 8f bd 7b f7 f5 bb 5c 8b 35 3c 61 07 db 3d
       -0.07024257 -0.0075063086 0.011080589 0.10694767
000250 58 6b 6e 3d bc de c4 bd 6e 00 04 bd bc c0 a0 bc
       0.05820784 -0.09612796 -0.032226972 -0.019623153
000260 5a 36 3f ba af f1 ce bc 19 d8 de 3d 83 31 d3 3d
       -0.0007294171 -0.025261728 0.10881061 0.10312178
000270 d0 35 18 3d 6f bc 06 bd 72 6e cd 3c 3e 4b 0d 3b
       0.037160695 -0.032894548 0.025077078 0.002155974
000280 ee de 4a 3d 3a 29 24 3c f0 c2 7c 3d 86 3f 7e bd
       0.04952901 0.010019595 0.061709344 -0.0620723
000290 b1 30 db bd ef 65 fd bd d5 8d 0a 3e 2e a1 e5 3d
       -0.107026465 -0.12372958 0.13530667 0.11212383
0002a0 1e 60 b7 bd 89 e3 ca 3d c7 f4 af 3c 03 5a e9 3d
       -0.0895388 0.0990668 0.021479024 0.113941215
0002b0 6a c1 a2 3d 64 a7 ec bd 8f 62 94 bd ad b3 54 3c
       0.07947047 -0.11555365 -0.07245361 0.012982291
0002c0 eb 95 d4 3d 9c 2d 71 bd 1d 91 89 bd de b1 51 bc
       0.10380157 -0.058881387 -0.06717131 -0.0127987545
0002d0 d4 d1 d4 bd 72 62 48 3d c5 d8 a0 3d 75 ca 42 3d
       -0.10391584 0.04892201 0.078538455 0.04755636
0002e0 ab 84 1b 3e 59 4a 94 3c 66 33 b3 bd 7f 19 cc 3d
       0.15187328 0.018101858 -0.08750038 0.099658005
0002f0 03 77 d6 3d 65 74 7a bd cb 16 6f bd 53 f7 e8 3b
       0.104719184 -0.06114616 -0.058371346 0.0071095615
000300 75 03 fa 3d e8 ae 68 bd d5 b6 52 3c e2 ac a6 3d
       0.122076906 -0.05680743 0.012860973 0.081384435
000310 a3 98 45 bd d3 a3 d5 3d ea bc ff 3d 5b cd 2d bd
       -0.04824127 0.104316376 0.124872044 -0.04243217
000320 39 f3 10 3d f6 1d dd bd 8b 43 d0 bd e8 72 42 3d
       0.035388205 -0.1079673 -0.10169133 0.047472864
000330 48 94 bb bd 4c fc a3 bd d2 c6 f5 3d aa c0 41 3d
       -0.09159142 -0.08007106 0.120008126 0.04730288
000340 37 80 06 be 8d 8b 0b 3e cf f6 e8 3d 40 80 ea 3d
       -0.13134848 0.13627453 0.113752 0.11450243
000350 8b 4f a5 bd ff a0 bd bd 41 3a 06 3e 7b 06 bb 3d
       -0.08071812 -0.09259223 0.1310816 0.091320954
000360 1c 8e a0 bd 81 01 1e 3e 51 dc c1 3d fa f3 e8 3d
       -0.07839605 0.15430261 0.0946585 0.1137466
000370 09 71 31 3d 22 f1 1c bd 81 7d 0e 3e 4d 62 92 bc
       0.04332069 -0.0383159 0.13915063 -0.01786914
000380 29 aa 55 bd e5 c3 d1 3d bc 0a 61 bc f4 d5 86 bd
       -0.05216423 0.10242442 -0.013735469 -0.06583777
000390 ec f3 d7 bd 69 fe 17 3e 37 4b 1a 3e 4a a4 ea 3d
       -0.10544571 0.14843144 0.15067755 0.11457117
0003a0 34 46 f4 3d 26 7d 62 3d ad 39 de 3d 94 88 41 3d
       0.11927453 0.055295132 0.108508445 0.04724939
0003b0 9f a5 89 3d f8 b1 57 3d eb a9 9c 3c 20 ea b3 bc
       0.06721043 0.05265996 0.019123992 -0.021962225
0003c0 0e a5 54 3c d7 c7 dd 3c a8 b0 bc 3d 73 88 f2 3d
       0.012978805 0.02707283 0.09213382 0.11842432
0003d0 c7 bc 00 3d 09 de 46 3d ce cc 00 3e e8 d1 c2 3d
       0.031430032 0.048551593 0.12578127 0.09512693
0003e0 72 c4 a9 3d f6 a5 7a bd ce ef 2d 3d ce e3 38 bd
       0.08289422 -0.06119343 0.042465024 -0.045139126
0003f0 2a 86 b7 bc 72 4c 8e bb ea 08 b5 bd 57 85 e5 3d
       -0.022402842 -0.004342609 -0.08839591 0.11207073

lstm.weight_ih_l1 f4 [256, 64]
000000 d9 6e c5 3c 94 04 cd bd 76 e2 93 3d 11 6e 66 3d
       0.024100708 -0.10010639 0.07220928 0.05625731
000010 36 8e 6d bd 8e 88 99 bd 8a 61 10 be dd 55 6d bd
       -0.05799695 -0.07496749 -0.14099708 -0.057943214
000020 b4 b1 11 be c0 38 9c bc 57 73 ea bc 2d d1 f8 3a
       -0.14227945 -0.01907003 -0.028619451 0.0018983238
000030 41 ac 44 bd 3c 75 98 3c 5a 59 9f bc 3e aa 75 bc
       -0.048015837 0.01861059 -0.019451786 -0.014994202
000040 74 14 21 3d 7b bd 11 bd 7f 82 d5 3d 8d bd ab bd
       0.039326146 -0.035581093 0.10425281 -0.08385763
000050 92 c5 09 3d 7b dc 00 3e 19 9f 9c bd c5 8e f8 3d
       0.033635683 0.12584107 -0.07647533 0.12136606
000060 54 5c 0e be cc 5a 90 bd 02 88 99 bd 1d 22 1c be
       -0.13902408 -0.07048568 -0.074966446 -0.15247388
000070 7e f6 07 be 18 82 f6 3d cd cd 12 be 1b 18 06 3d
       -0.13277623 0.12036532 -0.1433632 0.032737833
000080 43 d3 aa bd 36 14 10 3d e1 53 5d bd ed 03 c9 3a
       -0.08341076 0.035175525 -0.05403507 0.0015336253
000090 d3 ec bf bd 2f 11 88 3d a0 43 c6 bb b1 b6 ae 3c
       -0.093713425 0.066439025 -0.006050542 0.021327348
0000a0 04 71 06 bd 10 73 c7 3d 22 5a 93 3d a7 1b 30 bd
       -0.032822624 0.09738743 0.07194926 -0.04299512
0000b0 af cc 43 3d f6 ad b2 bd c3 4d cc 3d d9 d2 3d bd
       0.047802623 -0.08724587 0.09975769 -0.046343658
0000c0 42 e9 94 bb 10 cf 22 3c fa 4e a6 bd 3e 9d a1 3d
       -0.004544408 0.009937063 -0.08120532 0.0789132
0000d0 d0 d1 9a 3d be 7b 65 3d 81 44 26 bd 53 57 ff bb
       0.0755955 0.056026213 -0.040592674 -0.0077923923
0000e0 c8 5c c3 bd c2 49 8e 3d e4 b5 cd 3d 62 6e ed bb
       -0.09539181 0.06947662 0.100444585 -0.0072458247
0000f0 7b 66 ec bd 67 ba f9 bc 7e 22 20 3d 62 d3 b6 3d
       -0.11542984 -0.030484391 0.039095394 0.08927037
000100 36 d6 91 3d 14 c8 c2 bd 9e 9f e2 bd 7c 27 79 bd
       0.071209356 -0.09510818 -0.11065601 -0.06082867
000110 cf 0e b8 3d ed b6 c1 bb a7 37 84 3c 52 71 c3 3d
       0.089871995 -0.005911699 0.016139818 0.095430985
000120 e0 8a 0e be 1c 6c ba 3d 3f 56 09 3e 0e c6 e5 3d
       -0.13920164 0.091026515 0.13411807 0.112194166
000130 61 95 08 be 91 7b b6 3d eb 06 3f bb f6 ef cb 3d
       -0.13338234 0.08910287 -0.002914841 0.09957878
000140 e7 a5 f0 bd dd a1 7d bd ce 8f 3a bd 8a 63 16 3b
       -0.11750393 -0.061921943 -0.0455473 0.0022947513
000150 64 93 e9 bc 52 52 57 bd 24 7f 3f 3c 48 42 5d 3c
       -0.028512664 -0.05256874 0.0116880275 0.013504572
000160 5e c8 1e be d4 9b ed bd 06 d8 d2 bd a8 c9 66 3d
       -0.15506122 -0.116019875 -0.102951095 0.056344658
000170 e2 b9 f2 bd 73 62 dc 3b 91 8a 45 bd c6 82 c0 bd
       -0.118518606 0.0067256032 -0.04822785 -0.09399943
000180 6f 3b 01 3e 61 43 ca 3d 74 80 1d 3d 21 c6 27 3d
       0.12620328 0.09876133 0.03845258 0.040960435
000190 89 a1 85 bc d0 1b 31 b9 a2 9b 9e 3d 7c 2f dd 3d
       -0.016312378 -0.00016890396 0.07744528 0.108000726
0001a0 0d 1b c7 bc 1a 1d b2 bc 90 73 05 3e 35 ed 04 3e
       -0.024304891 -0.021742392 0.13032365 0.12981112
0001b0 e9 ab c3 bd 10 6a d9 bc 5c 7c c7 3d 2b 7c 8a 3d
       -0.09554274 -0.026539832 0.097405165 0.067619644
0001c0 92 cd be bd 4d ee c2 bd f2 b2 ad bd b1 e1 7b bd
       -0.09316553 -0.095181085 -0.08481397 -0.061494533
0001d0 8c 99 9f 3a 76 73 0a 3d d7 2f db bc fe 3f 01 3e
       0.0012176498 0.03380152 -0.02675621 0.12622067
0001e0 d7 6c 5e 3a d1 48 81 bd 82 f8 e5 3d 8d 39 30 bd
       0.00084848463 -0.06312717 0.1122904 -0.043023635
0001f0 ff a6 0a be 90 b9 62 bd c4 12 d9 bd f9 68 2f 3d
       -0.13540266 -0.055352747 -0.105992824 0.04282472
000200 a4 1b 1a 3d 86 9f d3 bd e9 73 af 3d 13 df 0e bd
       0.037624016 -0.10333161 0.0856703 -0.03488071
000210 57 3c 51 3d 40 4d c4 bd 2d dd c4 bd da 6d b6 3c
       0.051082935 -0.09585047 -0.096124984 0.022269178
000220 1e d6 49 bd f5 bd 25 3c 89 1d c3 3c e1 bd d6 3d
       -0.049276464 0.01011609 0.023817794 0.10485435
000230 30 e4 ab 3d c1 59 aa 3d 3d 7d ca bd d1 c0 3b 3d
       0.08393133 0.083179004 -0.098871686 0.04583818
000240 f7 f5 dc 3d d9 c7 7d bd fd 19 57 3d 0a f5 80 3c
       0.107891016 -0.061958168 0.05251502 0.015741844
000250 de a3 b9 3c 83 d9 1f bd c8 71 9e bd 6c e3 74 3d
       0.022661146 -0.039025795 -0.07736546 0.0597872
000260 bc 53 d3 bd 90 b8 5b bd 80 d5 03 3d 9d ad ef 3d
       -0.103187054 -0.05364281 0.03218603 0.11703036
000270 f2 6f ec 3c b7 27 e1 bd 0c 29 aa 39 dc ce 0a be
       0.028861973 -0.10993903 0.0003245551 -0.13555473
000280 b0 b1 fb bc d0 78 86 bd 34 62 9c bd b3 22 80 3d
       -0.030724376 -0.06566012 -0.07635918 0.06256618
000290 be 0d 61 bd bd b1 d3 bd 53 a7 c0 bd a4 a5 71 3d
       -0.054944746 -0.10336635 -0.094069146 0.058995858
0002a0 87 93 60 bc ee 7e 49 3d 2f 6e fc bd 30 11 35 bd
       -0.013707048 0.049193315 -0.12325703 -0.044205844
0002b0 1f 51 81 bd c4 f7 78 bd d1 f5 0b 3c 2c 82 0a bd
       -0.06314301 -0.060783163 0.008542494 -0.033815548
0002c0 21 e6 f8 3a a4 c9 21 3c f6 aa 9c 3a 9f 8f c8 bd
       0.0018989482 0.009874735 0.0011952806 -0.097930185
0002d0 b5 33 a9 3d f6 d4 07 3e 69 70 47 bd ec bf 09 bd
       0.082618155 0.13264832 -0.048691187 -0.033630297
0002e0 96 ca 23 bd 3c ec 04 3d 12 5f ea 3b e8 bb 75 bd
       -0.039988123 0.032451853 0.0071524465 -0.059993654
0002f0 1e d4 90 bc 4e cf bf bc e1 9a 38 3c 4b 41 5e 3c
       -0.01767927 -0.02341428 0.011267395 0.013565372
000300 58 fd 93 3d ae 41 85 3d ab 65 ec 3d fe 64 b5 3d
       0.07226056 0.06506668 0.11542829 0.08857153
000310 c9 21 e6 bc a7 67 ca bc cc b9 08 be 79 3a 82 bd
       -0.028092282 -0.024707628 -0.13352126 -0.06358809
000320 b1 88 a1 bc 38 0a 57 bd 9f 6c 3d bd e2 d0 94 3d
       -0.0197185 -0.05249998 -0.046246167 0.07266404
000330 a0 93 d3 bc a1 20 01 3e 5d f9 bc bd 06 5a 1c bd
       -0.025827229 0.12610103 -0.0922725 -0.03817179
000340 98 e2 ca bd a1 b8 29 3d 75 48 77 3d 15 47 d3 3c
       -0.099065006 0.04143584 0.060371835 0.02579073
000350 62 ca a1 bd 1c 42 03 3c 71 47 92 3d a8 31 40 3d
       -0.078999296 0.008011367 0.071425326 0.046922356
000360 fc 0f 84 3d fc 51 1a bc fc dd ff bd 9b d6 48 bd
       0.06448361 -0.009418961 -0.12493512 -0.04903279
000370 6a f7 c2 bd 25 e6 9e 3c 7a 71 51 bd a9 e4 41 bc
       -0.09519847 0.01939685 -0.05113361 -0.011834302
000380 f8 79 92 3c 19 ab 34 3d 90 0d 55 bc cf 4c 78 3c
       0.017880425 0.044108484 -0.013003722 0.015155031
000390 ef 11 aa bd bb 4a 6c 3d dd 8f ee bd d0 a0 85 bd
       -0.08304202 0.057688456 -0.116485335 -0.06524813
0003a0 13 ff b1 bd b6 b0 f3 bb d1 4e 09 bd 30 4a a1 3d
       -0.0869123 -0.007436837 -0.03352243 0.07875478
0003b0 58 76 f0 3d 54 f8 c1 3c 0b 86 9d 3b 81 6f 11 be
       0.11741322 0.023677982 0.004807239 -0.14202692
0003c0 dc 5a 86 bd a7 82 ba bd 61 d7 df bd 84 9a da 3c
       -0.06560299 -0.09106951 -0.10929752 0.026685007
0003d0 fe 4c ae bd 9d b3 91 bd d6 8f 10 3e c9 02 77 bd
       -0.08510779 -0.07114337 0.14117369 -0.06030539
0003e0 f8 fb 47 bc 34 00 d8 bd 6a c8 17 3e b1 63 e9 bd
       -0.01220607 -0.10546914 0.14822546 -0.11395968
0003f0 b9 2f 23 3d 84 e1 02 be f3 b0 af bc 26 59 24 3e
       0.039840434 -0.1278134 -0.02144668 0.16049632

lstm.weight_hh_l1 f4 [256, 64]
000000 8c 53 7c bd 7e 78 89 3d 5c ee b4 bb a4 37 fc 3d
       -0.061603114 0.06712435 -0.0055215787 0.123153
000010 98 27 9d 3d ff d6 88 bc 5c 59 fc bd c2 d0 31 3d
       0.076735675 -0.01670408 -0.123217314 0.043411978
000020 e9 71 46 3d d4 a7 76 3d 0b 14 a6 bd 2a 47 d2 3c
       0.048448477 0.060218647 -0.08109292 0.0256687
000030 24 5e a7 bd 39 85 3c 3c e7 1e 65 3c 87 bd e8 bd
       -0.08172253 0.011506372 0.0139844185 -0.113642745
000040 e5 69 12 3d 16 5e fa bd a8 ac 12 bd f9 de f7 3c
       0.03574552 -0.12224977 -0.03580919 0.030257689
000050 46 a0 58 bd 9d 8b 37 bb 32 58 c2 bc 91 af 03 bd
       -0.052887224 -0.00280068 -0.023723695 -0.032149855
000060 23 e2 b9 3d b7 ad ed 3d 52 34 e5 3d e8 e1 72 3d
       0.09076335 0.11605399 0.1119162 0.059297472
000070 dd 55 07 3e 12 6e e0 3d 72 37 92 bc 95 4f ec 3c
       0.13216348 0.10958494 -0.017848704 0.028846541
000080 04 13 97 3d 7a 8b e9 3d b1 d6 db bc 5e 9b 06 bb
       0.07376674 0.11403556 -0.026835771 -0.0020539383
000090 dd 6e de 3c 43 ec 66 3d 89 28 6d 3d 0c eb ec bc
       0.027152473 0.05637766 0.057899985 -0.028920673
0000a0 1a b1 8d 3c df 68 8b bd 16 1c 12 3d f6 1f 66 bc
       0.017296363 -0.06807112 0.035671316 -0.014045706
0000b0 3a bf 17 bb 1f 5d e7 3d 86 8f 92 bd 82 d4 0d 3e
       -0.0023154751 0.11297058 -0.07156281 0.13850597
0000c0 f0 59 87 3c 9b e8 d7 bb 5f d7 ef 3c 78 1a ef 3d
       0.016522378 -0.006589008 0.029277502 0.116749704
0000d0 fb 65 bc bd bf 2d 2b bd ba 6d 7f ba bd b4 03 bd
       -0.09199139 -0.041791674 -0.00097438286 -0.032154787
0000e0 36 b0 64 3b 8e f0 1f 3d bf 78 06 3c d5 90 a6 bd
       0.003489507 0.03904777 0.008207499 -0.08133093
0000f0 5a e7 8a 3d 6b bf 8d 3d 38 46 00 bc 45 f8 3c bd
       0.06782408 0.06921276 -0.007829241 -0.046135206
000100 8a 16 16 3e d0 ec 69 bd 58 4f 66 bd 2f 19 94 bd
       0.14657035 -0.057110608 -0.05622801 -0.07231366
000110 65 c6 b1 bd 7a 75 cf bb b5 a4 fe bd 5f 83 ee 3c
       -0.08680419 -0.006331143 -0.12433759 0.029115377
000120 ed 4a df bc 6a f2 2a bc b3 55 1d 3d be 71 eb 3d
       -0.027257407 -0.010433773 0.038411807 0.11496304
000130 b8 b7 ad 3c a2 ba 0b 3d e8 92 a1 39 02 b2 30 3b
       0.021205768 0.034113534 0.00030817767 0.002696157
000140 56 aa 1a be 34 a1 ad bc 41 db 6f bd ac 06 a5 bc
       -0.1510404 -0.021195032 -0.058558706 -0.020144783
000150 5c 5f a2 3d 90 17 1a be 0b 70 a1 bd 81 2c a5 3d
       0.079283446 -0.15048051 -0.078826986 0.08065129
000160 16 b1 3e 3a e0 35 27 3d 10 cf 4c bc 8b 97 29 bc
       0.00072743127 0.040822864 -0.012500539 -0.010351072
000170 dc 67 0b 3e 2b f1 ce 3d 5d 53 97 bc 78 64 d6 3d
       0.13613838 0.10104593 -0.018472368 0.10468382
000180 8d f8 4e bd 8c 33 70 3d ac 6f b3 b9 84 3d 2c bc
       -0.050530005 0.05864291 -0.00034224743 -0.010512713
000190 2b e1 1a 3d 4a 08 d0 3d 5c 14 88 3d 95 d3 ff 3d
       0.037812393 0.10157831 0.06644508 0.12491528
0001a0 56 d7 bb 3c 52 6f a7 bd 85 c4 9e 3d 10 1b 86 3d
       0.022929829 -0.081755295 0.07752327 0.065481305
0001b0 c7 af d1 bc 4c 92 e5 bd fb 34 0b bb 7b 54 20 bd
       -0.025596512 -0.112095445 -0.0021241296 -0.039143067
0001c0 86 e2 11 be 44 5c 15 bd 1a f6 57 bd c4 94 3c 3d
       -0.14246568 -0.036464944 -0.052724935 0.04604031
0001d0 9c 89 0d be 6d 7d 84 bd 1b 83 06 bc e4 7c 1f bd
       -0.13822025 -0.064692356 -0.008209969 -0.038937464
0001e0 ae 55 b9 3c 31 25 19 3e 1f 18 07 bd 3f 4d b0 bd
       0.022623863 0.14955594 -0.032981988 -0.086084835
0001f0 ce 76 d2 3d 22 98 14 be 48 03 d3 3d 44 c8 b3 bc
       0.102765664 -0.14511159 0.1030336 -0.02194608
000200 e8 85 df bd a9 ec 6d 3d a0 b1 8a 3d 1d 39 80 bd
       -0.109142125 0.058087025 0.067721605 -0.062608935
000210 b8 eb d7 3d 6e 10 68 3d b1 7a 23 3d 6d 39 86 bd
       0.10543007 0.056656294 0.03991193 -0.06553922
000220 48 ec c9 bd c6 60 b5 bd e9 53 b7 3d 0c 41 c4 bd
       -0.0985952 -0.08856349 0.089515515 -0.09582719
000230 e7 44 7a bd ac 64 0b bd c9 91 3a 3d 50 1b ea 3d
       -0.061100867 -0.034031555 0.045549188 0.11430991
000240 b9 6c ca bd 7c 90 5d 3d 97 b7 d3 3d 4b c1 3c bd
       -0.098840185 0.05409287 0.10337751 -0.046082776
000250 32 be 87 bd a2 63 5e bd 97 98 d3 bb e9 8f 12 3d
       -0.06628074 -0.054294236 -0.006457399 0.035781775
000260 2e f6 f4 3d 88 81 64 bd 30 cb 3d bd 31 73 03 be
       0.119610175 -0.055787593 -0.046336353 -0.12836911
000270 2e a9 59 bd 8c a8 9a 3d 97 49 c9 bd ce 9b 8d 3d
       -0.053139858 0.07551679 -0.09828489 0.06914483
000280 8b b0 9e bd e6 0f d3 3d a4 d4 66 bd 34 c7 e9 bc
       -0.07748517 0.10305767 -0.056355134 -0.02853737
000290 7f d0 c5 3d ac ee e5 bc 8b 6d 6c 3d 2f 57 88 bc
       0.09658908 -0.02806791 0.057721656 -0.016643135
0002a0 83 04 c6 3b 9f e6 cc bd bf 5e 12 bd 94 b1 07 3e
       0.0060430183 -0.10004925 -0.03573489 0.13251334
0002b0 2d ea 66 3d 69 2c 16 bd 29 e6 8d bd e8 6a 43 bd
       0.05637567 -0.036663447 -0.06928665 -0.047709376
0002c0 e3 3a 08 bc 96 a2 9c bd 5d 9a 52 bc c3 36 0b be
       -0.008314821 -0.07648198 -0.012854186 -0.13595109
0002d0 98 18 f2 3d 1b 51 79 3d eb 1e 93 3d 2f 1e 15 3e
       0.11821097 0.060868364 0.071836315 0.14562295
0002e0 7b f6 22 bd e8 42 94 bd 51 aa d7 bd f5 9a 02 3e
       -0.039785843 -0.07239324 -0.10530532 0.12754424
0002f0 9d 33 d6 bd 46 f4 90 3d 6d 7f 8e bc 2d f4 49 3d
       -0.10459063 0.070778415 -0.017394746 0.04930513
000300 44 17 5c bd 85 b9 ec 3d a7 88 a9 3d d3 e6 ec 3d
       -0.053733125 0.115588225 0.082780175 0.11567464
000310 e0 1b a2 3c 24 8d e7 3d c6 e2 38 3d 28 34 7b 3d
       0.019788682 0.11306217 0.045138143 0.061329037
000320 e6 6d 27 3d f5 6b c7 3c 64 3f 11 bd 44 3c ae 3d
       0.04087629 0.02434347 -0.035460845 0.085075885
000330 0a d5 01 be 1d 91 fd 3d d0 92 a3 bd 6b ec b8 3d
       -0.12678924 0.12381194 -0.07986987 0.09029468
000340 f4 c6 69 3d 4b 26 d3 bc 1f 59 9d bd 95 53 d1 bd
       0.057074502 -0.025775095 -0.07683014 -0.1022102
000350 ad da 0d 3d 0b 15 4f 3d 99 4b 71 bd 24 12 5c bd
       0.034632374 0.050557178 -0.058909986 -0.053728238
000360 b3 df c7 3b 82 16 c8 bd e7 dc ce 3d f1 fc 81 3d
       0.006099665 -0.09769918 0.101007275 0.06347073
000370 a5 a2 cc 3d fe a5 42 3c ff fc bd bd 8f 57 af 3c
       0.099919595 0.011880396 -0.09276771 0.021404056
000380 a9 44 7c 3d 70 e6 3c bc 04 02 64 3d 02 2c ce bd
       0.061588917 -0.01152955 0.055665985 -0.100669876
000390 39 17 9d 3d 59 4f 83 bc f1 54 ae bd 1d 22 85 3d
       0.07670445 -0.016029047 -0.08512295 0.06500647
0003a0 62 13 db bd 1b 4a 6f 3c 8a 8d 96 bd 9a a0 c3 3d
       -0.10697056 0.01460507 -0.07351215 0.09552117
0003b0 ec 0c f0 3c 3f b3 26 3d 42 b5 44 bd f8 6c 78 bd
       0.029303037 0.040698286 -0.048024423 -0.060650796
0003c0 c1 a1 9b bd ea 6d c4 3c 4e 84 24 3b 7e 40 d2 3d
       -0.075992115 0.023978192 0.0025103274 0.10266207
0003d0 16 d4 83 bb 0e 44 11 be 01 6c 2f 3d 8c 82 09 be
       -0.0040230853 -0.14186117 0.04282761 -0.13428706
0003e0 7e a4 cf 3d 76 fc 83 3b 1d ba c3 bd 6a c0 16 3d
       0.10138796 0.0040278984 -0.09556983 0.036804594
0003f0 c5 65 ab bc 21 d7 ed 3c a2 cc ff bd 89 6d cc bb
       -0.020922551 0.029033246 -0.124902025 -0.0062386435

lstm.bias_ih_l1 f4 [256]
000000 a1 53 bb bd 73 49 de bc 7d 97 5e bd 01 bf f9 3d
       -0.0914681 -0.027134633 -0.05434369 0.12194634
000010 01 de 7e 3d 64 ba bf bd 1e 4c 12 bd 53 1d 60 3d
       0.06222344 -0.09361723 -0.035717122 0.054715466
000020 9d 53 9f 3d 8e b1 20 3c a6 b5 fc 3d 35 db 59 3d
       0.0777962 0.009807957 0.12339334 0.053187568
000030 f7 10 63 3d 2e 4f ed 3d 2a 20 fd bc 07 6f 05 bc
       0.0554361 0.11587368 -0.030899126 -0.008144147
000040 47 e5 c1 bc c4 15 1b bd f7 5d 65 3d 24 56 87 3d
       -0.023668898 -0.037862554 0.055997815 0.06608227
000050 92 9c a4 3d 25 5a 83 3d 6c 08 cd bd 94 9b 2f 38
       0.08037676 0.06413678 -0.10011372 4.1868145e-05
000060 10 bb 8d bd 5a 50 86 3d 39 ba e4 bc d4 36 cb 3d
       -0.06920445 0.065582946 -0.02792083 0.09922567
000070 88 f7 cb 3d 4e 43 a5 bc d4 b9 a0 bc 19 6d 13 3e
       0.09959322 -0.020173695 -0.01961986 0.14397086
000080 ca 98 53 bd 52 20 a4 3d 00 71 9e 3d e7 95 22 3d
       -0.051659383 0.08013977 0.07736397 0.03969374
000090 ac 4a ac 3d 30 7c 72 3d 6d 5e a9 3c d0 70 2b 3d
       0.0841268 0.059200466 0.020674909 0.041855633
0000a0 67 da 30 bd 84 64 eb bd 34 fb c9 3d 32 c7 01 be
       -0.043177035 -0.11493781 0.09862366 -0.12673643
0000b0 ca 7f 4e bd a1 b5 08 be 08 30 b2 3c 5c 18 b6 3c
       -0.050414838 -0.13350536 0.021751419 0.022228412
0000c0 af d1 4d bd c2 32 c3 3c 91 64 e2 3d d9 42 2b 3d
       -0.050248798 0.023827914 0.11054338 0.041811798
0000d0 21 e6 1e bc ed 51 7e 3d 6d 03 9b 3d dd a2 bd 3b
       -0.009698422 0.06208985 0.07569013 0.005787237
0000e0 85 46 b9 3d d1 9b 55 3d 55 3f 85 3d b3 06 2d bd
       0.09046654 0.05215055 0.0650622 -0.042242717
0000f0 81 34 0e 3d 7b 7e d2 3d 3e ea 03 be a0 e6 4e 3d
       0.03471804 0.102780305 -0.12882325 0.05051291
000100 1e 87 dd 3d c8 a1 d2 bd cb e0 5f bc 54 52 68 bd
       0.10816787 -0.102847636 -0.013664435 -0.05671914
000110 db ee f6 3d 08 1a 73 bd da ec 99 bd be 0a cf 3d
       0.12057277 -0.059350997 -0.07515879 0.10109471
000120 5e 5a e8 bd d1 6f a8 3d db f3 11 3d 02 ec 74 3d
       -0.11345361 0.08224452 0.03563295 0.059795387
000130 7d ce dc bc bc e4 99 3d d1 e0 85 bd 3c 7a 2c bd
       -0.02695393 0.07514331 -0.06537021 -0.04210876
000140 0d ce 83 3d fb ee 8f bc af a5 b7 3d 61 06 db 3c
       0.064357854 -0.01757001 0.089671485 0.02673644
000150 a6 0d 9c 3d d9 5c b0 bd 33 7b ac 3d 42 7c e8 bd
       0.07619791 -0.08611459 0.08421936 -0.11351825
000160 36 68 ed bc 96 a8 34 3d ee ad 0f bd de 7e 57 3d
       -0.028980356 0.04410609 -0.03507798 0.052611224
000170 1b d7 98 bd 51 e2 91 3d a9 41 39 bd 25 16 a7 bd
       -0.07462903 0.071232446 -0.045228634 -0.081585206
000180 0b f0 c0 bd a7 75 f9 bc 40 ab fa 3d 1b 37 dc 3d
       -0.094207846 -0.030451609 0.122396946 0.10752698
000190 15 7a ba 3d 5a e6 0b bd 40 a2 90 bd 11 43 9f 3d
       0.091053165 -0.034155227 -0.07062197 0.07776464
0001a0 15 7e 2d 3d 3d 77 1c 3d 67 1f 36 3c 8f 64 6b 3c
       0.04235657 0.038199652 0.011115885 0.014367237
0001b0 cb 77 a8 3d 56 99 16 3c 9c ef 83 bd 77 c5 b9 bd
       0.08225974 0.009191832 -0.06442186 -0.090708666
0001c0 18 11 02 3e f2 5b 6c bc 49 c0 cb bd 4b f5 d3 bd
       0.12701833 -0.014426218 -0.09948785 -0.1034952
0001d0 10 93 83 bd ec f3 d1 3c ca 7a 8b bc 47 82 49 3d
       -0.06424534 0.025629006 -0.017026324 0.049196508
0001e0 2f de ae bd 05 7a cf bd 8c d3 39 3b c9 f5 5e 3d
       -0.08538472 -0.10130695 0.0028354852 0.054433618
0001f0 70 d8 27 bd 5c b6 d0 3d 37 f6 d4 bd 71 1c 1e bd
       -0.040977895 0.10191032 -0.10398524 -0.038601343
000200 e7 2b 86 3c 9c 4a 9b 3d ac 80 92 bd 34 e9 ac 3d
       0.016378356 0.0758259 -0.071534485 0.084429175
000210 99 a2 d9 3d f6 e2 4c bd d9 87 ba 3d d0 e4 c8 3d
       0.10626716 -0.050021134 0.09107942 0.098092675
000220 ce 68 f4 3d 28 df 5a bc 04 67 c0 bd 03 45 36 3c
       0.119340524 -0.013358869 -0.09394649 0.011124852
000230 51 ce 9f 3d c0 9a a5 3c 76 3b d5 3a ad 36 03 be
       0.078030236 0.020215392 0.0016268331 -0.12813826
000240 e0 c0 93 3c 06 e9 b3 3d 6d 87 2c bd 8b f7 eb bd
       0.018036306 0.0878468 -0.04212134 -0.115218244
000250 dc 39 0e 3b 46 e1 4e 3d ee ac 9f bd b5 b0 09 3b
       0.0021701967 0.050507806 -0.077966556 0.0021009867
000260 2e ca a3 bc b4 4f 4d bd 1d a9 be bd b8 85 9a 3d
       -0.019993868 -0.05012484 -0.093095995 0.07545036
000270 e4 a5 e4 3d e8 48 bd bd 80 98 a5 bd bc d7 54 bd
       0.111644536 -0.092424214 -0.08085728 -0.051963553
000280 4d e9 c6 3c df 7a 23 3d 0a cb 97 3d 88 6b d7 3c
       0.024281168 0.0399121 0.074117735 0.026296392
000290 d3 75 a6 bd c5 7d e5 bb bb 35 84 bd 38 a7 db bd
       -0.08127942 -0.0070035183 -0.06455561 -0.10725254
0002a0 35 08 4d bd 0b e7 46 3b 23 56 85 bd 06 72 2d bd
       -0.050056655 0.0030350115 -0.0651057 -0.04234507
0002b0 14 64 d2 3d 9b 8d 89 bc 5d f5 cb 3d e1 1d 11 3d
       0.10272995 -0.016791156 0.09958909 0.035428885
0002c0 e2 71 97 bd d3 b5 00 be 9e fd ad 3d 34 ab 97 3d
       -0.07394768 -0.1256936 0.08495639 0.07405701
0002d0 18 ce 04 bc 77 e5 2c 3d 26 aa 53 3d cc d4 ee bd
       -0.008105777 0.042211022 0.051675938 -0.116616815
0002e0 ad 47 0e bc 17 86 0e bd c5 20 74 bd 75 cb 19 bd
       -0.008684081 -0.034795847 -0.059601564 -0.037547547
0002f0 9c 41 4d 3d a3 d6 98 bd 6c d8 35 3c 15 d8 21 3a
       0.050111398 -0.07462814 0.011098962 0.00061738613
000300 89 8a d8 3c 38 8c 2f bd 2d 89 de bd f5 c2 47 3d
       0.026433246 -0.042858332 -0.10866008 0.04876991
000310 f5 4a a9 3d 78 65 a0 bd bb 76 c1 bd 1d 06 c8 bd
       0.0826625 -0.07831854 -0.09446474 -0.09766791
000320 d5 f4 fc 3d 06 d9 18 bd 6e 3b b1 3d b1 4e 85 bc
       0.123513855 -0.037316345 0.086539134 -0.016272875
000330 3f 97 ae 3d 7c cc a8 3b b4 c7 a7 3d 5f a8 d5 bd
       0.08524942 0.0051513296 0.08192387 -0.10432505
000340 9c 87 ef bd a0 30 8c 3d 6b e6 73 3c f8 e9 c6 3d
       -0.11695787 0.06845212 0.014886479 0.09712595
000350 04 94 bc 3d 1c 00 a7 bc 43 7b d9 3d c5 70 fd 3d
       0.09207919 -0.020385794 0.106192134 0.12375025
000360 9f 1e 6b 3c 21 e1 8a bd 22 8e e0 bd 82 a0 90 bc
       0.014350562 -0.06781221 -0.1096461 -0.017654661
000370 31 b2 9b bc 9c 75 40 3c ea 61 75 bb 47 e2 81 bd
       -0.019005867 0.01174679 -0.0037442395 -0.06341987
000380 58 c6 15 3b ed 39 80 bc 2f c7 ad bd 64 5d 8d 3d
       0.0022853818 -0.015652621 -0.08485257 0.069025785
000390 70 15 00 3d 77 7c 92 3d a9 02 25 bd 0f e1 84 bd
       0.031270444 0.07152646 -0.04028574 -0.06488239
0003a0 53 6f cd 3d 1d 73 02 3e f2 39 f7 3b cd cc ad bd
       0.10030999 0.12739225 0.0075447494 -0.08486328
0003b0 30 de b4 bd 57 00 9c 3d d4 02 a6 3d 9a 4b 65 bd
       -0.088314414 0.07617252 0.08106008 -0.055980302
0003c0 10 0d de bd da ef 8c 3d b9 c6 8b bd 0e 43 68 3d
       -0.10842335 0.068816856 -0.06825013 0.056704573
0003d0 bb d5 dd bd f4 ce a6 bd 96 35 2a 3c 35 f3 c9 3c
       -0.108317815 -0.08144942 0.010388752 0.024652103
0003e0 e0 13 c4 bc 24 f5 3d 3d ee 37 09 bd a1 4b b9 3d
       -0.023935258 0.046376362 -0.033500604 0.09047628
0003f0 85 c8 a0 bd 63 40 a3 3b 77 8d 92 bb 6c b5 7f bd
       -0.07850746 0.0049820407 -0.0044724303 -0.062428877
