src/Backend-Information/Clod-weather_predict/Qinghai_lstm_model.pth (torch, 208379 bytes, 11 tensors)

lstm.weight_ih_l0 f4 [256, 3]
00000000: 40d9 983c 08ef 643d daf0 af3d 0cb8 08bd
00000010: 3251 113d 0852 9abd cbbd 273d 2a2e 52bc
00000020: ee5b d2bd e5d2 dcbd b652 b1bd 36bd 823d
00000030: 8d25 61bc 4834 6c3d 62b8 ec3d cc93 443d
00000040: f7b4 d53d 1e1e 86bd 7a44 d03c e35c 06bd
00000050: 683f 48bd 446e b03d e5e8 b1bc 0e92 c53d
00000060: d6d0 a43d 933d 13bc a0af 293c 18be ac3d
00000070: 8efd 143d a8f1 a4bc c731 c7bd 7e60 223c
00000080: 8ce5 8d3d cb02 763c 5696 1f3e 4459 a4bd
00000090: 237c ef3d cb8d 73bd 207d b5bc 8241 80bb
000000a0: 57bd e9bd c61b 813d de3f 223e ae83 603d
000000b0: 4007 223d 5095 c53b 4146 b3bd be1a f1bd
000000c0: 5a39 bf3c 8a1a ed3d c0bc c53d 6f6c 223c
000000d0: 659e e73d b0e8 3f3c 4a22 9c3b fc2a 76bd
000000e0: a809 85bc e102 093d cadb 293c a827 a4bd
000000f0: 1e08 0b3e bbc6 1cbe 5650 d13d 6d07 7cbd
00000100: 834c 553d 4e18 de3d 4366 d43d c67e 50bd
00000110: 28e1 bd3d 77ed 61bc 69f7 573d f0be 193c
00000120: 4601 e83d cfd3 9fbd 7c3d 8bbd c95d b33d
00000130: 3782 083e 38bc c1bd 0191 723d 816d 993d
00000140: 48ae b63d 60ee 42bd 38fb bcbd 8aad aa3d
00000150: b776 d03d bb8a 833d ecd5 5fbd a201 823d
00000160: 4112 9b3d 74ab c93d f7de afbc 843e d73d
00000170: 4083 493c e51d 0f3e ce24 5f3d 6c4f 45bd
00000180: b508 b43d e9d1 933d 703b cb3c ee8d b23d
00000190: 76aa f9bc 908e acbc f4b2 d5bc 0b58 bbbc
000001a0: 780d acbd 4260 ef3d ff9a 0fbe 6821 253d
000001b0: a3d1 a8bd 5883 1abe 2010 e6bb c50c b33d
000001c0: 937a 133d 2c2c 1b3d 4ef9 1a3e a0b8 623d
000001d0: 9063 cabc 6191 49bd c842 3fbd ce90 f73d
000001e0: 6261 efbd d419 1e3e 601a dc3b a255 dc3d
000001f0: d6b4 663d c880 e9bd cd93 e63d 05a3 ac3d
00000200: 5011 b73d 6531 81bd ea72 04be b018 d3bc
00000210: 2144 103d b5a2 823d 5846 d5bc 587b 6f3d
00000220: a642 8dbd da69 cabd 7c85 8d3d dd33 56bd
00000230: 9072 a7bc 6533 fd3d 1e40 893b 60f3 bc3d
00000240: 6368 e03d def1 563d a03f d33c 90a3 0d3e
00000250: 7863 19be acd4 e53d 2692 a13d 59d1 6dbd
00000260: 907f ecbd b48e 62bd a258 8b3d 1a5d b4bd
00000270: 81d3 363d dd8c e03d b05b 3f3d ac32 0f3e
00000280: 5b47 8f3d e4b7 703d 57ca 42bb 6bf0 873d
00000290: 7669 c2bd 25a2 693d 7257 68bd a2ce fe3d
000002a0: 29cd f63d dbc1 92bd ba3c a53d f0c1 f83d
000002b0: dc67 b0bc 3494 d4bd 9646 083d bc5e 4c3c
000002c0: 464e a0bd 6dd0 d2bb 853f 2f3d 22c3 babd
000002d0: 70e6 c6bc 897e 943d 3809 4e3d c986 003e
000002e0: 25f5 793b d0a1 f23c cc1b 01bc 9a14 1ebc
000002f0: 6010 023d 7c0a 8c3d 5613 553d 28dd eabd
00000300: 7630 fbbd c2bc e8bc 629f e23d 43d8 c2bb
00000310: d4c9 303d be00 a23d 4281 afbb e521 babd
00000320: 3078 bfbd 88d6 353d 0f87 98bd 387a ffbc
00000330: 6778 3a3b 9a6a dcbc f082 f8bd 34d2 f0bd
00000340: 7780 5c3d a286 bdbd 6806 4dbd 62d8 403d
00000350: 3491 10bd abf6 31bd 75ed 16be dc57 e63d
00000360: bb1a fc3d 8c5c babc a4f1 ebbd 6fcf 0b3b
00000370: d57a 02bd 6a44 b3bd c19b 703d f6a4 ed3d
00000380: 4ef0 9c3d c0de afbd 81ff 063e 18a9 8dbc
00000390: 1d80 083e 8490 333c c8a6 99bd 7ac1 f63d
000003a0: cd23 b83d e8a7 dc3d 704f 113d 3e0e 96bd
000003b0: 4e4e a63d 50b0 443d 4463 7eba fa44 f43d
000003c0: f2af 1f3d 64be 2b3d ee3d e6bd 91c5 0dbe
000003d0: 244f 283e 2403 f5bd 9321 82bd 1798 9f3d
000003e0: 7c33 d7bd 9cb2 803c cee0 7e3c 5e23 eb3d
000003f0: 09e2 ff3d a890 f0bd 8243 b53d 80e4 a2bc
0.01865828 0.05589202 0.08590861 -0.033378646 0.035477825 -0.075351775 0.040952485 -0.012828389
-0.102714404 -0.107824124 -0.08658354 0.06383745 -0.013741863 0.057667047 0.11558606 0.047992513
0.10434907 -0.06548713 0.025423277 -0.032803427 -0.048888594 0.086147815 -0.021717498 0.09646998
0.08047645 -0.008986848 0.010356814 0.08434695 0.03637462 -0.020134762 -0.09726291 0.009910701
0.06928548 0.015015314 0.15584692 -0.080248386 0.11693599 -0.059461396 -0.02215439 -0.003914059
-0.11413067 0.063041255 0.15844676 0.05481308 0.039557695 0.0060297623 -0.08753634 -0.11772679
0.023342777 0.115773275 0.09655142 0.009913548 0.11309508 0.011713192 0.0047648298 -0.060099587
-0.016239956 0.03345001 0.010367343 -0.08015376 0.13577315 -0.15310185 0.10220401 -0.06153052
0.05207492 0.108444795 0.103710674 -0.05090215 0.09271461 -0.013789526 0.052726183 0.009383902
0.11328368 -0.07804071 -0.067988366 0.087581225 0.13330923 -0.09459728 0.059220318 0.07491589
0.0891996 -0.047590613 -0.09227604 0.08333881 0.10178893 0.06422945 -0.05464737 0.06347968
0.07571841 0.09847155 -0.021468623 0.10509971 0.012299359 0.13976248 0.05447846 -0.048171446
0.08790723 0.072177716 0.024808615 0.08718477 -0.03047679 -0.021064073 -0.026086308 -0.02286913
-0.084010065 0.116882816 -0.1402397 0.04031506 -0.0824311 -0.15089166 -0.007020965 0.0874267
0.036005568 0.037883922 0.15134165 0.055351853 -0.024705678 -0.04921091 -0.046694547 0.12088166
-0.11688496 0.1543954 0.0067170113 0.10758521 0.056324802 -0.11401516 0.112586595 0.08429531
0.08938849 -0.063082494 -0.12934461 -0.025768608 0.035221223 0.0637869 -0.02603452 0.05846724
-0.06897478 -0.09883471 0.06910226 -0.052295554 -0.02044037 0.12363318 0.0041885516 0.092261076
0.1095741 0.052476756 0.025787175 0.13831925 -0.1497935 0.112222046 0.07889204 -0.058060978
-0.11547768 -0.055311874 0.06804015 -0.0880682 0.0446353 0.109643675 0.0467183 0.13984174
0.06996032 0.05876912 -0.0029722655 0.06637653 -0.09492771 0.0570394 -0.05672402 0.12441756
0.1205085 -0.07165881 0.08068223 0.12146366 -0.021533899 -0.1037983 0.03327044 0.012473758
-0.078274295 -0.0064335377 0.042785186 -0.0911925 -0.024279803 0.07250697 0.05030176 0.12551416
0.0038140502 0.029618174 -0.007880162 -0.0096484665 0.031753898 0.06837937 0.052020393 -0.114679635
-0.122651026 -0.02841032 0.11065556 -0.0059461906 0.04316123 0.07910298 -0.005355985 -0.09088496
-0.09349096 0.044394046 -0.074476354 -0.031186208 0.0028453113 -0.0269063 -0.12134349 -0.11758843
0.05383345 -0.09254195 -0.050054938 0.04708136 -0.035294726 -0.04344813 -0.1473902 0.112472266
0.12309786 -0.022749208 -0.11520699 0.0021333357 -0.031855423 -0.08753283 0.05874229 0.116037294
0.07663022 -0.08587408 0.13183405 -0.017292544 0.13330121 0.010959748 -0.07502514 0.120486215
0.089912035 0.10774213 0.035476148 -0.07326935 0.08120404 0.048019707 -0.0009704123 0.11927219
0.038986154 0.041929618 -0.11242281 -0.13844897 0.1643644 -0.1196349 -0.0635406 0.07792681
-0.10507867 0.015710168 0.015556527 0.11481355 0.12494285 -0.11746341 0.08850767 -0.019884348

lstm.weight_hh_l0 f4 [256, 64]
00000000: 9d2b 3fbd cdf2 39bd bfeb 81bd 0f90 e6bd
00000010: bb27 823d 849e 0ebe 176b 47bd c3b6 bbbd
00000020: bf03 9fbd 6e8e 6dbd c494 673d 30d4 033d
00000030: eb90 633c 6ce2 a4bc d1ec 8f3d 1ab2 1e3d
00000040: 4faa a93c d760 c3bb 9bdd 8c3d 470d 5d3c
00000050: a457 aebd 3db5 8e3c 3cb5 7abb 7336 28bd
00000060: 6309 af3d 3b4c 1b3e ecaf 3ebd d491 b5bd
00000070: cdee df3d 29e8 3b3d fd0e 213c 2254 05be
00000080: 0d0a 85bd 9534 4f3d 8c52 073e e343 59bc
00000090: 6957 6d3d f412 033d d26a 803d cbea 193e
000000a0: d8ff d63c a811 b73c a9d9 a2bd 738e 96bb
000000b0: 1262 36bc 96b6 afbd 9ede 1b3b af38 2abd
000000c0: b456 ad3d b42d 363d 9bf4 8ebc e046 40bd
000000d0: 4f8f 7bbd a90f f1bb 27ba 923c 1a0d 173d
000000e0: 1e80 ccbc 011f 943d fe50 d0bd d248 1bbe
000000f0: 0812 623c 46bf f03b 1fc7 243d 8dac 8fbd
00000100: f02c 49bd ab96 003e 5145 913d 621b a9bd
00000110: 7ae2 4c3d ad20 1cbd 7dba d83d c4b6 103d
00000120: a1de ccbd 0f56 f4bc b857 4e3c 549d 9dbd
00000130: 707f b9bc 26be c43d adcb 46bd 63f6 633d
00000140: 184a e7bd 1922 36bd 0ea9 4d3d 1898 6ebd
00000150: 6f5c 2abc a501 54bd df11 6a3c 39b4 c7bd
00000160: a4aa 173b 47a5 f63c 7695 a3bd 16f5 c8bd
00000170: 7707 f83d 3fc1 ed3d cd36 e73d 5350 2b3c
00000180: ebc2 c73d 956b d5bd 2c15 013e 02a1 f93d
00000190: 44c0 c8bc 86fd abbc c46b f83d 1f89 de3b
000001a0: e37f 01be a785 f33d 7571 613c 4a40 0bbe
000001b0: d8c2 bc3d d452 ddbb f21b f43d fe1b a6bd
000001c0: f26a 273c 3805 78bd 5f36 2bbd d98c 52bd
000001d0: 48ca 9c3d f482 af3d 3f40 7abd f851 cabd
000001e0: ed72 d33c 100a 8dbc 3c7e 08bd e42f b1bc
000001f0: 8ee1 a0bd a24a d7bd cb19 0dbd d3a7 0f3d
00000200: 90c6 663d 1651 d9bc 9af4 b8bc 738f fdbc
00000210: cd42 c3bc d752 793d 05af b23d 5ab6 83bd
00000220: 195e 893c 799f b33d 9b1b ccbc 50e9 ba3d
00000230: f33d 003d a3c8 25bd f7d7 713d db2b 843d
00000240: 3792 5fbc 7057 3fbd 66b7 6bbd 99a4 f73c
00000250: 2914 083d 71b6 113d 84db 93bd 3958 d8bd
00000260: 28df 023a d56c 60bd 3c47 0dbd 4969 803d
00000270: 9f0d d43d cf31 053e f61a 063e 9e2b ad3d
00000280: d9f2 ecbd b7d7 48bd daa9 d6bd 3d0d 48bd
00000290: fd4b b1bd 7d2d 1f3d 0f4d 3d3d 52fa a23d
000002a0: 17b5 bebd 202e c3bd 837e 09be 6726 473c
000002b0: 7691 d1bd beaf 84bc 313a 953d c3e3 5b3d
000002c0: 0951 8e3d dd1d f3bd 44a2 ae3d 887e 4fbd
000002d0: f1be 2b3d e3d6 59bc f975 a73d 40f0 d33c
000002e0: 475e 85bd bc97 5e3d db5c b43d 3227 9dbd
000002f0: 3d14 e7bd 031c a7bd ca42 923c 3085 f23d
00000300: 5a59 54bd 313f bd3c 16b1 1a3c b169 e63d
00000310: a8cf a0bc 43d1 993d 4748 42bd 1e55 a93c
00000320: 8763 84bd 9eab da3d de90 9cbd 1690 bf3d
00000330: 89e6 b93d bb04 a43d 7bba 843d c8be 9dbd
00000340: 7d88 963c eebc 3cbb ac20 20bc 0bba 9f3d
00000350: 63ae 63bd 2fac b63d fa4a 11be b640 443d
00000360: d59e ca3c 7199 7fbd d84e e7bd 1f93 fbbd
00000370: 3105 283c 33c4 a13d a63c c3bd a408 8ebc
00000380: 7fcf b8bd 0af1 b63c 6805 6bbd 6f37 b4bd
00000390: ca7b 5fbd ec23 20bb 9116 adbd 2775 803c
000003a0: 2399 b6bc 03e7 d73d 3383 3cbd 3c84 7e3d
000003b0: 9e50 243d 95db ccbd 3172 483d aa67 0f3d
000003c0: 982d 853c d8fc 873d e873 d63d 3eb6 2e3d
000003d0: 10b6 4f3d 7257 b03d 2c79 f93d f56b b6bd
000003e0: 7a28 cebd 70a2 a33d c9db 44bd a7d8 303d
000003f0: ec7c ab3d 1294 96bd fef1 67bd 86b9 72bb
-0.046672452 -0.04539757 -0.06343793 -0.11257946 0.06355234 -0.13927656 -0.048686113 -0.091657184
-0.077643864 -0.05799716 0.05653836 0.03218478 0.013889532 -0.020127498 0.07027591 0.03874407
0.020711092 -0.005962472 0.068782054 0.013491935 -0.0851281 0.017420406 -0.0038254997 -0.04106755
0.08546712 0.15165798 -0.04655449 -0.08865705 0.109342195 0.045875702 0.009830234 -0.13020375
-0.06496058 0.050587256 0.13215083 -0.013260814 0.05794469 0.032000497 0.06270374 0.15030973
0.026245043 0.022347286 -0.07951672 -0.004594618 -0.01113178 -0.085797474 0.0023783813 -0.041557964
0.08463803 0.04447718 -0.017450621 -0.04694259 -0.061415967 -0.007356603 0.01791103 0.03687773
-0.024963435 0.07232476 -0.10171698 -0.15164497 0.013798244 0.0073470203 0.04022896 -0.07015333
-0.04911512 0.12557475 0.07093299 -0.08257176 0.050020672 -0.0381171 0.10582445 0.03533055
-0.100034006 -0.029826192 0.012594156 -0.076960236 -0.022643775 0.096065804 -0.048534084 0.055654895
-0.11293429 -0.04446611 0.05021005 -0.058250517 -0.010398014 -0.05175938 0.014286487 -0.097511716
0.0023142481 0.030108107 -0.07987492 -0.098123714 0.12110799 0.116091244 0.11289749 0.0104561625
0.097539745 -0.1042091 0.12605733 0.12188913 -0.024505742 -0.020994913 0.1212993 0.0067912485
-0.12646441 0.118907265 0.01375996 -0.13598743 0.09216851 -0.0067542586 0.11919393 -0.08110808
0.010218369 -0.060551852 -0.0417999 -0.051403854 0.076557696 0.08569899 -0.061096426 -0.098789155
0.025811637 -0.017216712 -0.03332351 -0.021629281 -0.07855521 -0.10512282 -0.034448426 0.03507216
0.056341708 -0.026527923 -0.022577573 -0.030952191 -0.023835564 0.060870018 0.087247886 -0.06431265
0.016768502 0.08770651 -0.024915507 0.09126532 0.03130908 -0.040474545 0.05904385 0.06453677
-0.0136457 -0.046714246 -0.05754795 0.030229853 0.03322235 0.03557438 -0.07219604 -0.10563702
0.00049923593 -0.05479129 -0.034491763 0.062700815 0.103541605 0.13007282 0.13096222 0.08455585
-0.11569757 -0.049033847 -0.10481615 -0.04884075 -0.08657072 0.03886174 0.046216067 0.07957901
-0.09311884 -0.09530282 -0.13427167 0.012155152 -0.102328226 -0.016197082 0.0728649 0.053684007
0.0694905 -0.1187093 0.085270435 -0.05065778 0.041930143 -0.013295862 0.081767984 0.025871396
-0.065121226 0.054343924 0.08806773 -0.076734915 -0.11283157 -0.0815964 0.017854113 0.1184181
-0.051843025 0.023101421 0.009441635 0.11250628 -0.019630268 0.07510617 -0.04743221 0.02067047
-0.06464296 0.10677265 -0.07644819 0.09353654 0.09077174 0.08008715 0.06480881 -0.07702404
0.01837563 -0.0028799134 -0.009773415 0.07799157 -0.05558623 0.0891956 -0.14188758 0.047913276
0.02473394 -0.062402193 -0.11294335 -0.122839205 0.010255144 0.0789875 -0.09533052 -0.017338105
-0.09023952 0.022331733 -0.057378203 -0.087996356 -0.054561414 -0.0024435474 -0.0845157 0.015680863
-0.022289818 0.10542109 -0.04602356 0.062137827 0.040115945 -0.100028194 0.048937026 0.03501097
0.016257092 0.06640023 0.10471326 0.04265427 0.050710738 0.08610429 0.12181315 -0.0890731
-0.10066314 0.07989967 -0.048061166 0.043175366 0.08373436 -0.07352461 -0.056627266 -0.003703685

lstm.bias_ih_l0 f4 [256]
00000000: 11fe b13d 9c2a b23d 03ea b4bd 4495 fc3c
00000010: fb42 1ebd 6666 c9bd 1d1b 063e 0ecf 523d
00000020: 23fc 0ebd b59b 6f3c 1ec6 903d 6233 0bbd
00000030: e263 793c 46a9 6dbd 38ef c8bd c83c 1d3e
00000040: 76cb 01bd 9efb a5bd 93dd 8d3d d78a 0f3e
00000050: 023e d23d 95c3 f3bb f665 b53d 6407 33bd
00000060: 1508 4ebc 23c7 77bd b998 9f3d 12da bd3c
00000070: ead0 a6bd de4f d03d 581e c9bd 500c b93d
00000080: 8009 023e ad13 843d 9c60 2d3d 1d8f 743c
00000090: 9a47 c83b 39b8 bebd 9912 1f3d 0208 06bd
000000a0: 576b c03c 4574 31bd 479d 7f3b 3087 af3c
000000b0: a014 9ebd 4e26 fc3c fd80 d43c 2f95 e33d
000000c0: ccc5 0d3c 9858 8d3c f5e6 c0bd 2390 cebd
000000d0: b1e1 66bd 31fa a8bd b9cc 743d f3b5 d53c
000000e0: 3d46 c23d aae4 4b3d 3029 0f3d 9415 a83c
000000f0: 373e d5bd 0b37 dabc 2cf2 893d ed07 e6bc
00000100: 6698 a73c 364b fd3d d4dd aeba 2e38 97bd
00000110: 9e4e 6d3d 3ae0 4cbd 7e8d 283d cd8c c93d
00000120: b614 7b3d e0a9 223b c988 bdbd 7fef 333d
00000130: 9958 dc3b 5d9e 10bb c6c2 a9bd f035 233e
00000140: c6a0 a7bd 8821 9bbd d099 3abd 5165 f13d
00000150: e883 ccbc e547 b4bd f9c7 0a3d 8e6c 713d
00000160: c162 87bb b885 e83d 2a27 ea3d 91c5 f83c
00000170: 850d 06bd 6ae9 943d d490 ee3d 210c f7bb
00000180: 6e48 e63d a539 893c 0007 573d 5bb4 cebb
00000190: 0419 6bbd 9a07 843b 940a b1bd eeb1 bc3d
000001a0: 0697 4bbd 0975 793d 1fda c93d bc25 de3d
000001b0: 57b8 8cbd b33d 8c3d c145 7abd 178a fd3d
000001c0: d9cf 91bd d6b7 b83d f97c 0cbd c562 96bd
000001d0: 39e9 ffbc fd97 98bc 363c 44bd b06b 043e
000001e0: 5e59 a43b 3660 efbd 6584 92bc e46e 1c3e
000001f0: 372f 5cbc 022f 5ebd 5d59 313d 76ff c33c
00000200: 900e 913c e7b2 97bd 5797 973c 71a1 413d
00000210: 2c16 3c3d 30b6 bdbc 2a13 df3d 99f8 84bd
00000220: 8590 e53d 3019 0ebd 53d1 883c fffd e63d
00000230: 2c11 f33d a2e6 cc3d a6fa 21bd bf8d 403d
00000240: b88a 81bc 64d5 dfbd 3870 f7bd e6c8 8f3d
00000250: 4841 02be bc63 9b3d b294 e7bc 269f d83c
00000260: b492 ec3d 64bc 0abd de5d b83d 1cc0 eebd
00000270: 9a47 943d 3eb5 bdbd b583 943d e058 e3bd
00000280: a7bf da3d 0cf0 dc3d 2e5c 5d3d 8ac0 4dbd
00000290: 9898 843d f4ed bebd fe8b ca3d 72ce b33d
000002a0: 8c2d 05bd dced 3dbd 4862 d13d 2c5a d23d
000002b0: f74e 31bd 1aff 66bb 85a1 cc3d 3016 d5bd
000002c0: 67cd d23d 98f1 f8bc 1266 6b3d 5448 e1bd
000002d0: c94c dd3c c7e7 9b3c 9c5f 5c3d 1dca d93d
000002e0: 149a c23b bb19 99bc f06d d2bd ad01 4bbd
000002f0: 23d2 ccbd 09df 58bc 088b d23d f6a2 c53d
00000300: 29b3 1ebd 1c33 d2bd 252f 103d 10f9 103e
00000310: d6c1 d0bd 9c2c 50bd 41ed 17bd 8383 7a3d
00000320: c2ed 633a 4aab 81bd 3e46 053e cc79 6a3d
00000330: d6fa 76bc 65fd 6b3b 2ff6 2bbd 6dd7 523d
00000340: c196 a43d b043 853d e54f 083e c903 e23d
00000350: 9d6c 5e3c e7e0 823c 2087 b73d c453 2fbd
00000360: 662a a2bd 4d7d 3abd d15d f63d 0439 f33a
00000370: f8eb 893c b974 1cbd 6ae0 0f3c 890b 123e
00000380: 0520 1d3e eb99 d03d 6bc9 1a3e 34f9 dd3d
00000390: 3823 fd3d 1095 96bd 8d3b dfbd 1f0d 42ba
000003a0: 01a7 093d 076e db3d 79bf 253e 0c4b f93d
000003b0: d103 c43d 99fe 033e da08 7cbd c409 053e
000003c0: ef26 923d 21b4 033e e4ad 803d 13c8 8c3d
000003d0: eefd bebc afda 6bbd d640 d43d 9633 053c
000003e0: 8fb5 cb3d adaf 223e 59b3 a9bd f235 853c
000003f0: 5cec 263c 583a 993d f7c4 ca3b 19cf 76bd
0.086910374 0.08699533 -0.08833697 0.030832894 -0.038638096 -0.09833984 0.1309628 0.051466994
-0.034908425 0.014624526 0.07069038 -0.03398455 0.015221568 -0.05802276 -0.09811252 0.15355217
-0.031688176 -0.08104633 0.069270276 0.14017807 0.10265733 -0.0074390867 0.08857338 -0.04370822
-0.012575169 -0.060492646 0.077928014 0.023175273 -0.08145316 0.101714835 -0.09820241 0.090355515
0.12698936 0.06449065 0.042328462 0.014926699 0.006112051 -0.093124814 0.038836095 -0.03272248
0.023488684 -0.043323774 0.0039003657 0.021426767 -0.07718778 0.030779984 0.025940413 0.11112439
0.0086531155 0.017254159 -0.094190516 -0.10086086 -0.05636758 -0.08250845 0.05976555 0.026087737
0.09486053 0.049778618 0.03495139 0.020518102 -0.10412257 -0.026637575 0.06735644 -0.028079951
0.020458411 0.12367861 -0.0013341256 -0.07383762 0.057936303 -0.050018527 0.041150562 0.09841309
0.06129905 0.0024820492 -0.09254605 0.043929573 0.006724429 -0.0022067048 -0.08289103 0.15938544
-0.08184962 -0.07574755 -0.045556843 0.11786903 -0.024965242 -0.08802775 0.033882115 0.058941416
-0.0041316454 0.1135363 0.11433251 0.030367645 -0.032727737 0.07271083 0.116487175 -0.0075392877
0.112442836 0.01675112 0.05249691 -0.006308121 -0.057396904 0.0040292265 -0.08644596 0.09213625
-0.049704574 0.06090263 0.098560564 0.10847041 -0.068710975 0.06847706 -0.06110168 0.12379854
-0.07119722 0.09019439 -0.03429887 -0.073430575 -0.031239139 -0.018627161 -0.047908984 0.12931705
0.005015536 -0.11688273 -0.017885396 0.15276676 -0.013438991 -0.05424405 0.043298114 0.023925524
0.01770714 -0.0740717 0.018504782 0.047273103 0.045919582 -0.023158163 0.10892327 -0.06492729
0.112092055 -0.03469199 0.016701376 0.11278915 0.1186851 0.10004927 -0.039545678 0.04701018
-0.015813217 -0.10929373 -0.12081951 0.0702074 -0.12720215 0.07587382 -0.028269146 0.026443075
0.11551419 -0.03387107 0.09002279 -0.11657736 0.072402194 -0.09263085 0.072516836 -0.11100936
0.10681086 0.10787973 0.054042988 -0.050232448 0.064744174 -0.0932273 0.09889983 0.08779611
-0.03251414 -0.04636942 0.10223824 0.10271105 -0.043288197 -0.0035247267 0.09991745 -0.104046226
0.10293084 -0.030388638 0.05747039 -0.110001236 0.027014153 0.019031418 0.053802118 0.10634253
0.0059387777 -0.018689027 -0.10274875 -0.049562145 -0.10001018 -0.0132367695 0.10280424 0.09650223
-0.03874508 -0.102636546 0.03520121 0.1415751 -0.10193221 -0.050823793 -0.037091497 0.061160576
0.00086947915 -0.06331499 0.13015077 0.05724506 -0.015074452 0.003600919 -0.041982826 0.051474977
0.080365665 0.06507051 0.13311727 0.11035878 0.0135757 0.015976382 0.0896132 -0.042804495
-0.07918243 -0.045529652 0.12029613 0.0018556421 0.016836151 -0.038197253 0.008781532 0.14262213
0.15344246 0.101856075 0.15115897 0.10838547 0.12360233 -0.0735265 -0.1090003 -0.0007402468
0.033606533 0.107143454 0.16186322 0.12172517 0.095710404 0.1289009 -0.06153188 0.12992007
0.07136332 0.12861682 0.06283167 0.06874099 -0.023314442 -0.0575816 0.10363929 0.008129975
0.09946739 0.15887327 -0.08286161 0.016261075 0.010188188 0.07481831 0.006188031 -0.060256097

lstm.bias_hh_l0 f4 [256]
00000000: 63c4 183e 5014 8b3c b19a 853b 107e 9cbd
00000010: 9692 85bd 820e 2bbd c350 13bc ff2d fb3d
00000020: ae4a 51bd b34f ab3d 84f7 a2bd 8115 8a3d
00000030: b01d 623d 8843 ae3d ddcb 14bc fe55 62bc
00000040: a876 003e f138 833d 37fc 8b3d a76a 25bd
00000050: e30a 9fbb fa47 05bc 2c9a 163e ce75 843d
00000060: dafa 82bb bfa2 223e 77fc 96bd 4145 f03d
00000070: 4d74 783d 4313 6e3c 9d8d 74bc 5006 dc3d
00000080: 667b cc3c e716 1e3e ed2a de3c 1bae 83bd
00000090: 7c25 a33d c054 87bd a21d b2bd 66d0 f83d
000000a0: 464c 853d ccce 963d 46db 5bbd 2969 a23d
000000b0: d0ae 69bc 1c4d 0e3e 8af0 ff3d 87cb 8c3d
000000c0: f7d3 943c af8b e33d cd51 0f3c dbdd d63d
000000d0: 7569 bf3d dbce cd3d 3704 f9bc e417 db3d
000000e0: b4eb ca3c 69fa 69bd ea20 f93d 1d4d 49bd
000000f0: 6039 46bc d125 993c ace7 aebc fd2b 1b3d
00000100: 3a7e 9ebd 7d4c 47bb 7d21 f23c 2c67 9cbd
00000110: 05aa f93d 202d 0b3e 02f1 18bc f727 233b
00000120: 598c 8ebd 2b87 073d 4e10 42bb 1833 82bd
00000130: 21ce 91bc d939 a7bc 35bd 06bd 9f21 f9bc
00000140: 9ab1 89bb 0ad9 9a3c 774c dabc 8bb6 36bd
00000150: 986f 203e a217 743d d2ef 23bc 4081 443d
00000160: 5c07 afbd fd10 1e3d dcd3 f13d 171c 403b
00000170: a5d6 2bbd 3749 1e3d 24bb 843d 04f4 d03d
00000180: 9e6d 3abd 6b0a 9dbd 9f16 073e 3451 5d3d
00000190: 60b0 2dbc b776 7f3b e406 24bd a2cf bdbd
000001a0: 84a4 10ba e5ab 9f3d 1873 d23d bc37 413b
000001b0: 1116 4b3c a877 863c 077c 313d 69b4 efbd
000001c0: af76 6fbc e1bd 533d 1f5d 033d 90b1 2c3d
000001d0: 0a54 53bd df1d 263d a819 e43c 6375 4dbd
000001e0: fe48 1a3d 9cbd e03d a5ed b0bc 2a48 7a3d
000001f0: 6403 f1bd a5e6 49bd 221a 9c3d 4ed9 9bbd
00000200: e2ed 47bd a234 8f3d 0126 1ebd 4484 fbbd
00000210: 5655 053c 715c 91bc 7c2c 32bd ec39 c4bc
00000220: a91f 83bc 8449 dd3d 6aa3 e1bd 4510 f53d
00000230: 7e71 af3d 899a 92bd 653f 0cbe 7eae 69bd
00000240: 4c57 9a3c ca27 76bd 0429 3abd 8e92 503d
00000250: 4b2d ccbc e55e 57bd c33e 473c e79d f2bd
00000260: 3988 983b d10e ea3c 93b6 f6bd 6eb6 733d
00000270: 52ea 793d 3400 e23d cb93 953d fd4c 2ebd
00000280: 7646 ecbd 4099 a4bd 51db 373d 8db1 8a3d
00000290: 1b3f 0dbd ee54 143d 84d0 b83d a034 ffbd
000002a0: 5093 03be 3129 80bc 4378 00be b2ff 99bd
000002b0: 4a70 1a3e 231d 8fbc 7b54 a33d 2f76 dc3c
000002c0: 5074 d2bc bb80 acbd dd92 f83d f64d efbd
000002d0: b7e5 0dbe 4618 733d 8eea 9bbc 33c8 9f3d
000002e0: 2973 cabd 9352 b33d c0c5 bebd fb49 95bd
000002f0: fce2 59bc d120 e9bd 8f47 9f3c a890 c13d
00000300: 2a95 693c 146e 063e d2f7 2cbd a60d 40bd
00000310: 13a6 b13c bb0e d8bb 36be b7bc 505e c0bc
00000320: 8553 ed3d cb5b f0bb 9d6e ee3c a162 b33d
00000330: ad63 0c3d 4d93 853d 1215 763d 9d1e 943b
00000340: d630 ed3d a244 0b3d 3cc7 243d 4eab 403c
00000350: 957b d2bc 4e86 b83c 9311 1a3e 819d fc3d
00000360: 0f76 6c3d 21a7 9c3d 33cb 263d 7ebf ad3d
00000370: 75ad 183e c775 2c3c b79e 04bd 2ea8 8a3d
00000380: 820b 933d ed21 f93d 46a2 cf3d 7965 883d
00000390: 812a 993c e617 23bd 7b20 a8bd 3b5e 8c3b
000003a0: e9d9 9c3b 83d4 abbd 4570 833d 4526 fa3c
000003b0: f3cc 9cbd 99aa f03d 7de9 d4bd ae25 ac3c
000003c0: 12cf 703d c3f1 60bd 68cd acbd 73b6 623d
000003d0: 0782 a93c c664 7d3d ab44 50bc e238 743d
000003e0: 949f 513d ea3c 53bd 546c b6bd d17c 143d
000003f0: 7a69 a4bd bfc5 753d 8292 093d a185 42bd
0.14918666 0.01697746 0.0040772785 -0.07641232 -0.065221 -0.041761883 -0.008991423 0.122646324
-0.05109661 0.08364811 -0.07957366 0.06742383 0.055204093 0.08508974 -0.009081808 -0.013814447
0.12545264 0.06407345 0.068352155 -0.040384915 -0.0048535927 -0.008134836 0.1470725 0.06467782
-0.003997189 0.15882395 -0.073723726 0.11731959 0.060657788 0.01453096 -0.014926341 0.107433915
0.024961185 0.15438424 0.027120078 -0.06429692 0.07966134 -0.06607962 -0.08697058 0.12149124
0.06508689 0.07363662 -0.053675912 0.07930214 -0.01426287 0.13896602 0.12497051 0.06874757
0.018167479 0.11110627 0.00874753 0.10491534 0.09346286 0.1004922 -0.030397518 0.10697916
0.024770595 -0.057123575 0.12164481 -0.049145807 -0.01209864 0.01869479 -0.021350704 0.037883747
-0.077389196 -0.003041058 0.029556984 -0.07636866 0.12190632 0.13591433 -0.0093348045 0.0024895647
-0.06960363 0.03308789 -0.002961177 -0.063574016 -0.017798485 -0.020413326 -0.032895286 -0.03041154
-0.00420208 0.01890232 -0.02664779 -0.04460768 0.1566757 0.05959285 -0.010005908 0.047974825
-0.085463256 0.03859042 0.11807987 0.0029313618 -0.041952748 0.038644042 0.06481007 0.10202792
-0.045514695 -0.07668003 0.13192223 0.05403252 -0.010601133 0.0038980672 -0.040045634 -0.092681184
-0.0005517679 0.07796458 0.10275859 0.0029482683 0.012395398 0.016414478 0.043331172 -0.117043324
-0.014615699 0.051694755 0.03207123 0.042161524 -0.051593818 0.04055583 0.027844265 -0.050160777
0.037667267 0.10973665 -0.021597693 0.061103977 -0.11768225 -0.049292225 0.07622172 -0.07609807
-0.048810847 0.06992461 -0.038610462 -0.12281087 0.008138021 -0.017744275 -0.043499455 -0.0239534
-0.016006308 0.108050376 -0.11017497 0.11965994 0.08566569 -0.071583815 -0.13696058 -0.057051174
0.018840455 -0.06009654 -0.04544927 0.050921015 -0.024923941 -0.052580733 0.01216096 -0.11846524
0.004654911 0.028571518 -0.12046542 0.05950015 0.06101448 0.11035195 0.0730358 -0.04255389
-0.11536877 -0.080370426 0.04488689 0.067721464 -0.03448401 0.036213808 0.09024146 -0.12461209
-0.12849164 -0.015644642 -0.12545876 -0.07519473 0.15081897 -0.017469948 0.07975098 0.026911823
-0.025690228 -0.08422991 0.12137387 -0.11684792 -0.1385716 0.05934932 -0.019032743 0.07801857
-0.09885246 0.08755984 -0.093150616 -0.07289501 -0.013298746 -0.11383212 0.019443301 0.09451419
0.014256755 0.13127929 -0.042228527 -0.046888016 0.021685636 -0.006593553 -0.022429567 -0.023482472
0.11588196 -0.0073351613 0.029105479 0.08759046 0.034274746 0.06522236 0.060078688 0.004520251
0.1158158 0.034001 0.040229067 0.011759592 -0.025693694 0.022524979 0.15045767 0.12334729
0.057729777 0.07649065 0.04072113 0.0848379 0.14909919 0.010526127 -0.032377925 0.06770359
0.07179929 0.12164674 0.10138373 0.066599794 0.018697025 -0.039817713 -0.0820932 0.004283694
0.004786719 -0.08390143 0.06417898 0.030535826 -0.076562785 0.11751289 -0.10396097 0.02101406
0.058791228 -0.054918062 -0.08437616 0.05534978 0.020691885 0.061863683 -0.012711684 0.05962456
0.051177576 -0.051571764 -0.08907381 0.036251847 -0.080279306 0.06000304 0.033586986 -0.04749072

lstm.weight_ih_l1 f4 [256, 64]
00000000: 4347 e0bc 53f9 143e ba71 85bd c463 0d3c
00000010: f8ed 0d3d 287f 143e c04a e9bc 17a5 b63d
00000020: 261f 283c d975 f6bb 55bf 933d 1618 0f3d
00000030: e601 b03d 0d55 263e e4c9 fdbc 030c 01be
00000040: 93b9 67bc bc4a c53d 17ba 6cbd 6d96 b93d
00000050: 2d70 ab3b 11a2 163e d183 f6bd e2c5 db3d
00000060: 2c41 e8bc 31a1 d6bd 377e 183e b7a0 643c
00000070: 2de6 8dbd 1e9e 833d b7a5 d43d ba13 753b
00000080: b6e3 42bd 29ec c8bc 35ea 4f3d 73f4 123e
00000090: 791e d93c b519 1f3d 26ca 433b 7aa2 a53d
000000a0: 49a7 b5bd 5bcc 173c a2eb 1f3d 5e12 86bc
000000b0: 0abf 0bbe 4b9c 2bbc bd23 aa3d 926e 0a3d
000000c0: 409a 02be 8eda b23c 10fc fd3d 9410 e63c
000000d0: b6ba cebc 29c9 ae3d bbeb d43c 655a a43d
000000e0: 6251 a83d e664 c0bb 3d50 e0bc a175 eabc
000000f0: 176a c83b 318a d53c 84cc 27bd e253 d73d
00000100: 3d11 8c3d bc0f 2b3e 7ca1 67bd 2d8c 4cbc
00000110: de99 923d 0f41 9f3d 3d20 a13d a43b ad3d
00000120: f3a8 cebc 738b 6c3c fa12 803d fe59 f43b
00000130: 18e2 e43d f12e 563d 4bbc 32bd 937f 7d3d
00000140: 53e0 24bd 3ecb b93d 16df 4f3d 8cc1 08bd
00000150: 60ac 0abd 68ff c7bb 323f 81bd 1e76 bb3d
00000160: f882 e43d 2cf8 043d f369 b7bd 7cc9 f63d
00000170: 7f92 253d 7274 bc3d 3476 bc3d 40a1 b13d
00000180: 9f2e 493d 2705 8ebd 3018 213d 1308 75bd
00000190: 099a b1bc f98f 9abc 267b 2fbc 9fb3 e93d
000001a0: 9529 f93c 1e9d adbd ba4d 4f3d 66c0 01be
000001b0: d3c8 e7bd 2933 85bb 26d7 92bc 308b 733c
000001c0: 141f 5ebd 5251 afbc 74be 213d 2858 c9bd
000001d0: e7d4 da3d 038d e63d ee1c 8abc a817 543d
000001e0: ece7 a73d 4519 0d3e 9126 32bc 545b 89bb
000001f0: dd23 cdbc 7da5 0fbe ddf8 89bd bf00 bebd
00000200: 70c9 073e de83 12bd 594a aabd 78f5 59bd
00000210: fe83 2b3d 2d32 54bd fd45 8abd e494 ad3d
00000220: 4bbe a8bd 4c76 e9bc 60ca d9bd a9f7 673d
00000230: b9e9 013e d578 b73d 24ef 7a3c 7af7 f9bc
00000240: e4b6 223e 1af4 cbbb 33e6 023e 7e5b 393c
00000250: 5b94 e5bd dc3f aebc 6c6b bfbd e8c9 0abc
00000260: 04ac 223e 32b2 963d 8f5e cbbd 584d 0b3e
00000270: 274f ef3d c02e 9dbd 0d30 9bbc 7ea9 113d
00000280: 4444 a13d deb5 2a3e 2432 e7bd 6bc1 143e
00000290: 337e 00bd 9d05 e6bd 450c 5b3c e079 d03d
000002a0: 7688 863d 36f2 b83c 8e28 583c e3a3 f6bd
000002b0: b0d7 23bc 202a 54bd 1155 103c 618b 97bd
000002c0: 4b5f 433d 8798 913b d10c 893d 5780 4ebc
000002d0: 8a7f a2bd 9cef 15bd 6235 af3d dfc6 e3bd
000002e0: cdf4 f7bd 1858 0b3c 7f44 1bbd f183 053e
000002f0: 52f4 543d 817f d4bc 173b 1e3d 8a47 81bb
00000300: 5704 113e af50 4c3d ee8e 873c fadc 67bd
00000310: dcbf 05bc 02dd 9f3c 1fbf be3b e0c6 a73c
00000320: 5850 d13d f310 253c 6123 87bd e53e 95bb
00000330: 27ad 093e 372f f5ba 891a d138 4d7a 6ebd
00000340: edc0 67bc 1013 b9bd e7f3 46bd b306 0a3e
00000350: 92bc f9bd 9a48 dd3d 1b54 22bd 4a61 8c3c
00000360: ec2e 73bb 5f1d 933d f09c a5bd 73e0 123d
00000370: a0ab 7abd 557e 39bd fe21 223d 42c1 fcbc
00000380: a458 f2ba 2fc7 af3d 722f d23d cebd 1d3e
00000390: 3b4d a43c d894 24bd c04e d0bc fefc c53c
000003a0: ea05 343d 32fd e03c 1505 45bd 9999 04bd
000003b0: 8034 603d f9e6 e83d 3ea3 063c 78bb d1bd
000003c0: bf48 98bd 2c59 453d b291 8b3d 2710 abbd
000003d0: 468b be3d 8652 a63d 25b7 bebc 0fc1 693d
000003e0: 5789 03be c456 9ebd a1b2 ad3d 605a 1fbd
000003f0: 7af6 e23d 83f2 36bd 0f2b e3bd 5265 98bd
-0.02737773 0.14548235 -0.06515832 0.008629743 0.034650773 0.14501631 -0.028478026 0.08918207
0.010261333 -0.0075213728 0.07214228 0.03493508 0.08594112 0.16243382 -0.030980058 -0.12602238
-0.014143365 0.09633395 -0.057794657 0.090618946 0.0052318783 0.14710261 -0.12036861 0.107311025
-0.028351389 -0.104799636 0.14891897 0.013954333 -0.06928668 0.06426643 0.1038317 0.003739579
-0.047580443 -0.024526672 0.050760467 0.14351062 0.026503788 0.038842876 0.0029875129 0.080876306
-0.08869798 0.009265031 0.039043076 -0.01636618 -0.13647094 -0.010474275 0.08307598 0.033796854
-0.12754154 0.02183273 0.12401593 0.028084077 -0.025235515 0.08534462 0.025991311 0.08025054
0.082186475 -0.005871403 -0.02738201 -0.028620543 0.0061161625 0.026066871 -0.040966526 0.10514046
0.068392254 0.16705221 -0.056550488 -0.012484592 0.07158254 0.07776081 0.07867477 0.08458641
-0.025227046 0.014437544 0.062536195 0.007457017 0.111759365 0.05229086 -0.0436366 0.061889242
-0.040252995 0.090719685 0.05074986 -0.033387706 -0.033855796 -0.006103445 -0.06310882 0.091533884
0.11157793 0.032463238 -0.08955755 0.12050149 0.040422913 0.09201898 0.09202233 0.08673334
0.049116727 -0.069345765 0.039329708 -0.059822153 -0.021679895 -0.01886748 -0.010710513 0.11411213
0.030415336 -0.08477233 0.050611235 -0.1267105 -0.11317601 -0.0040649367 -0.017924856 0.014864728
-0.054228857 -0.021401081 0.03948827 -0.098312676 0.10685139 0.112573646 -0.016859498 0.051780373
0.081985325 0.13779171 -0.010873453 -0.0041917954 -0.025041515 -0.14027973 -0.0673692 -0.09277486
0.13260436 -0.03577029 -0.08314962 -0.053212613 0.041873924 -0.051805664 -0.067516305 0.08475664
-0.082394205 -0.028498791 -0.10634303 0.05663267 0.12686814 0.08958594 0.015315805 -0.030513514
0.1589008 -0.0062241675 0.12783127 0.011313317 -0.11209937 -0.021270685 -0.09346661 -0.00847099
0.15885931 0.07358207 -0.09930145 0.13603723 0.11685019 -0.076749325 -0.01894381 0.03556203
0.07874349 0.1667094 -0.112888604 0.14526908 -0.031370353 -0.112315394 0.0133696245 0.10179496
0.065689966 0.022576433 0.013193263 -0.12042978 -0.010000154 -0.051797986 0.008809344 -0.07399631
0.0476983 0.0044432315 0.06691898 -0.012603841 -0.079344824 -0.036605462 0.08555104 -0.11121916
-0.12107239 0.00850489 -0.03790712 0.13038613 0.051990815 -0.025939705 0.03863057 -0.0039452957
0.14161812 0.049881633 0.016547646 -0.056607224 -0.008163419 0.019514564 0.0058211233 0.020480573
0.102204025 0.010074842 -0.06598545 -0.0045546168 0.13444959 -0.0018706088 9.970839e-05 -0.058222104
-0.014145118 -0.09036839 -0.048572447 0.13479118 -0.1219417 0.10804863 -0.03963099 0.017136235
-0.0037106825 0.071833365 -0.08086574 0.035858583 -0.06119883 -0.045286495 0.0395832 -0.030853871
-0.0018489552 0.08582913 0.10262956 0.15404436 0.020056358 -0.04018101 -0.025428176 0.024168488
0.043950953 0.027464483 -0.04810055 -0.032373045 0.054737568 0.113721795 0.008217631 -0.10240835
-0.0743575 0.048180744 0.068148986 -0.0835269 0.09303908 0.08121209 -0.02328069 0.05706888
-0.1284536 -0.07731393 0.084813364 -0.038904548 0.11082168 -0.04466487 -0.11092197 -0.074412

lstm.weight_hh_l1 f4 [256, 64]
00000000: e96c a73d a3c0 b33d 8ab1 ddbd da28 bf3d
00000010: c02f 8bbd e385 9d3d ac43 993c 5815 edbd
00000020: 467d 6c3d b010 45bd fe26 64bc b0df 9c3b
00000030: 9b02 3fbd c195 3f3d 4eed a73c 9d5d c2bb
00000040: c063 94bc 988e b53c 6604 69bd f289 21be
00000050: 01dd 443d 6b4c fabd 3f82 f53c c215 15be
00000060: 1cbc cdbd 42cf d73d 5b5b 82bd 5c7b 21be
00000070: 249f 913c 89ad ddbc a92b 1abc e2c5 3b3d
00000080: 740c 1c3e 98ff 0fbe 8c17 9cbd 5527 a83d
00000090: 8b70 0fbe 81e4 13be 0da7 c23b acd7 f5bc
000000a0: ef93 933c 485b c53c af28 753c 560f 47bd
000000b0: fc68 a73d 6e1f 9cbd 712f ef3d 821c babd
000000c0: 44eb 9abb 9665 72bc 071a 9cbd 6d73 113e
000000d0: 1a23 d2ba a61f edbd 6c81 10bc 81ed 863d
000000e0: 57cf e93d 5030 e6bd 0d74 1cbd c24f 133e
000000f0: 49ba 6a3d 17dd f7bc cdc9 a3bd 53b6 c7bc
00000100: 94cd 0d3e 0734 59bd e4e9 85bc f625 f23d
00000110: f960 cebd 9d91 f73d d517 f0bc 0a3f 04be
00000120: 2433 dbbd c483 f1bd 130e a43d ac28 ab3a
00000130: 1da7 a13d 2ff2 b23d 2833 04bd 696c 3bbd
00000140: ce8d 7bbd 9d7b 20be 1cc3 e0bd 2d21 033c
00000150: 0f39 be3d 55d4 463d d4e8 ec3d 25e4 523d
00000160: f652 91bd 7598 12bd cd9c 88bc c839 93bc
00000170: ccf5 f93d 4324 aabd 55d0 7f3c efe2 0dbe
00000180: 60b4 163e 8585 5f3d ba10 b6bd 9d9d bc3d
00000190: b2ec 66bd 167e e6bd d223 f1bd dfd1 c13d
000001a0: 0b5a bfbd 7c3c 69bd 62f5 35b9 f3a2 803d
000001b0: 5e9a ca3d 18a7 da38 23d3 003e 95b2 dabd
000001c0: 73ac b93d 9528 14be aa28 35bd 6f7b 4cbd
000001d0: 13f0 43bd 5d29 c2bd 4132 203d 15df dc3d
000001e0: 1abc c23d 0c3e 973d 3a17 573d 7407 173e
000001f0: edf2 a4bd 5927 3abc f376 ee3d c7eb 97bc
00000200: 7bb4 d53d 4de4 51bd cd11 903c cc4e b33d
00000210: 082f 10be 3459 18bd c3b4 15be 0ee9 4cbc
00000220: 4913 20be 8ff6 1cbe 96e5 573d 6b5f dd3d
00000230: 6516 183e 3cac c03d 713e bf3d 105a 13bb
00000240: 19a4 ea3d 0b9c d53b 9bd2 cc3d 9c98 66bd
00000250: e930 d6ba 801c bdbd c329 c43c e4e6 663d
00000260: 9425 a93d 9fa0 88bd cbaa 323c 30e2 d3bc
00000270: c46e 83bb 997f 7dbd edf6 683d 2685 283d
00000280: 9087 95bd ce2e 5d3c affb 6ebd e3ec ab3d
00000290: a9fa 193d 0ca5 14be 5022 1bbe 1bd6 083e
000002a0: bac0 c8bd d8c4 27be d721 12bd 1c23 9fbb
000002b0: 0f34 123e f30a 0dbd a7d6 e9bc 6e35 95bd
000002c0: 475c 183e 7f98 89bd 7ef0 9ebd 095e 9a3d
000002d0: 041d 60bd c52f fbbd e3ac 98bd f276 693d
000002e0: e1fd ccbc d4b5 97bd d7a6 22be 4b1e dc3d
000002f0: 25fa 6bbc 67a2 45bd 9844 eabd b2ad 093e
00000300: 0bab 023e 63aa d63d 15f0 87bd d1ea 343d
00000310: 71e7 09be 1e60 81bc 327e 1fbe 619d 55bc
00000320: a085 503d 6bfe 06be f6cd fd3b 4166 f33c
00000330: f5c6 493d 231a 84bc 2819 b03d 34f9 c739
00000340: 99d0 22bd b2d4 db3b b0e3 5abd 441a f7bc
00000350: 48c3 9fbd ae80 203d 18a5 423d 1597 e5bd
00000360: b880 7c3d e395 b2bd d99d 9d3d 6c56 0f3d
00000370: 2903 d83d 3558 dcbd 59aa 0e3e 551e 983d
00000380: 3709 cb3d 0fa9 853c 360a 0bbe 15ae 9b3c
00000390: 40fe 6c3d 3305 a73d 6dde 05be 51a0 c23d
000003a0: 95aa 993c 0368 9abd d05c bcbd 00aa 4ebd
000003b0: 6c6e 25bb 8288 f4bd 67ae 953d 8480 e83d
000003c0: 3d5b 03bd 1ac9 a5bd e72e ccbd 9c2f 033e
000003d0: 82b4 a93d 2baf 9ebb a484 843d 1f1d a53d
000003e0: 5761 8dbc 377e 103d b634 7f3d f48d 85bd
000003f0: 5c40 99bd 20ef b2bd bd96 243c 55b9 d83d
0.0817507 0.08776977 -0.108248785 0.09333964 -0.06796217 0.076915525 0.018709026 -0.115763366
0.057736658 -0.048111618 -0.013925312 0.004787408 -0.046633344 0.046773676 0.020498898 -0.0059315697
-0.01811397 0.02216272 -0.05688896 -0.15775278 0.04806233 -0.12221607 0.029969333 -0.14559081
-0.10045645 0.10537578 -0.06365081 -0.15769714 0.01777608 -0.027060287 -0.009409823 0.045843013
0.15239125 -0.14062345 -0.07621679 0.08210627 -0.14007775 -0.14442636 0.005940324 -0.030010067
0.018014876 0.024091378 0.014963313 -0.04859861 0.08174321 -0.07623182 0.116789706 -0.09087469
-0.004727753 -0.014794728 -0.07622152 0.14204188 -0.001603219 -0.11578302 -0.008819919 0.06588269
0.114165 -0.11239684 -0.038196612 0.14385894 0.05730656 -0.030256791 -0.07997475 -0.024378931
0.13847953 -0.053028133 -0.01634688 0.11823647 -0.1007709 0.120883204 -0.029308239 -0.12914672
-0.10703114 -0.117927104 0.08010497 0.0013058386 0.078932025 0.08737599 -0.03227535 -0.045757685
-0.061414532 -0.15672155 -0.10974714 0.008003515 0.09288227 0.04854234 0.11567846 0.051487107
-0.07095902 -0.035789926 -0.016676331 -0.017971888 0.12205085 -0.083076976 0.015613635 -0.138561
0.14717245 0.054570694 -0.08889909 0.0920975 -0.056378074 -0.11254518 -0.1177441 0.09463858
-0.09343346 -0.056942448 -0.00017352917 0.0628108 0.098927245 0.00010426174 0.12580542 -0.10678593
0.09066095 -0.14468606 -0.044228233 -0.049922403 -0.047836374 -0.09480546 0.039110426 0.10784737
0.09508534 0.073848814 0.052512385 0.14748937 -0.08054147 -0.01136192 0.116437815 -0.018545045
0.104348145 -0.051243115 0.017586613 0.08755264 -0.14080441 -0.037194446 -0.14619736 -0.012506736
-0.15632357 -0.1532843 0.052709185 0.10809215 0.14852293 0.09407851 0.09338082 -0.0022484101
0.114570804 0.006518846 0.10001107 -0.056297883 -0.0016341481 -0.092339516 0.023945695 0.05637254
0.082591206 -0.06671261 0.010904978 -0.02586469 -0.004011007 -0.061889265 0.05687611 0.041142605
-0.07301247 0.013499929 -0.058345493 0.08394792 0.037592564 -0.14516085 -0.15149808 0.13362925
-0.09802385 -0.16383684 -0.035676803 -0.0048564803 0.14277671 -0.03443427 -0.028544737 -0.072855815
0.14878951 -0.067185394 -0.07760714 0.07537467 -0.05471517 -0.12264971 -0.074548505 0.0569982
-0.025023403 -0.07407728 -0.15883957 0.107479654 -0.014402901 -0.048250582 -0.114388645 0.13445166
0.1276056 0.104817174 -0.06637589 0.04416925 -0.13467194 -0.015792903 -0.15575483 -0.01303801
0.050908685 -0.1318299 0.0077454997 0.029711844 0.049262006 -0.016125744 0.08598548 0.0003814191
-0.039749715 0.006708705 -0.053439796 -0.030163892 -0.07800919 0.03918522 0.047520727 -0.11210457
0.061646193 -0.08719995 0.07696123 0.034994528 0.10547478 -0.10759012 0.1393217 0.074276604
0.09913867 0.016315965 -0.13578114 0.019003907 0.05785966 0.081552885 -0.1307313 0.09503234
0.018758098 -0.0753937 -0.0919739 -0.050455093 -0.0025242819 -0.11940099 0.07308655 0.113526374
-0.032069433 -0.08094998 -0.099698834 0.1281113 0.08286382 -0.004842659 0.06470612 0.08062195
-0.01725833 0.035276618 0.06230613 -0.06521216 -0.07482979 -0.08737016 0.010045704 0.10582224

lstm.bias_ih_l1 f4 [256]
00000000: f943 6c3d 81bf 023d b990 a2bd 4332 e3bc
00000010: 74c4 f6bb 48d8 10bd e309 9dbc a62a d7bc
00000020: 4cf5 913d beee ef3d 9511 9e3c ec16 d13d
00000030: 5a51 76bd 3308 0f3e bcf3 403d 14c0 f03d
00000040: 3247 bcbd 9637 de3d e9c3 0dbd 23a4 be3d
00000050: ed2e 1c3d ad3b 0f3d 9eb1 273d b43a b93d
00000060: 7255 1c3e 205b 92bd b612 0fbd 4e03 d33c
00000070: 555c a93d 04d4 843c c287 c33d 9da9 a43c
00000080: bdac 8e3d ccd2 dd3d 2397 f73d 699c 693d
00000090: ad8a 3a3d c401 5a3d d19a 1cbd edff f73d
000000a0: 4f1b b13d 07c5 95bc b117 dd3d a37b 153c
000000b0: 018f 2dbd 244a f33c 426e 6d3d 92f1 803d
000000c0: 44bd c0bd d691 313d bacc 77bc a084 e63d
000000d0: 6901 b43d c599 d7bd 278b 723d 613e 163e
000000e0: 75aa 253d b7d9 e53d 43f0 5dbd 3a21 b73c
000000f0: 5af6 0abe 1d26 5cbd 791d 2fbd 09fb c93d
00000100: 9bb7 05bd f9a4 f0bd efb0 0e3e 3867 f63d
00000110: ce9a ab3d bc96 e83d 9982 723d 6401 6dbd
00000120: e651 12bd a09b bbbc e52c adbd 6b95 68bc
00000130: 7a73 db3d 3927 123c 0f61 f03d d0a6 b33b
00000140: 500e 8f3d 94bc 94bb 5d2c b33d 597b f2bd
00000150: efd8 fcba d592 fb3b 8a5b d83d 69ef 8fbd
00000160: cf7d b33d 3cd7 e63c bba8 aebd 7c00 213e
00000170: abfe 283d 5d0a 73bd 01b0 b33d 0334 b7bb
00000180: a502 c5bc a10e d63d 7720 a33d e403 933d
00000190: 410d 953d 6c42 d0bd 2faa e53d f024 58bc
000001a0: f234 f8bd fc74 b33d 7774 91bd d11c 6a3d
000001b0: 5e44 7ebc a848 f93d 3316 313d 971a d13c
000001c0: 818c 513c bf57 2fbd 7213 dbbc 5c24 40bd
000001d0: e384 90bd 1b23 70bd 6061 afbd d100 fdbc
000001e0: c4ec 6b3d e5b6 d03d 6ea2 db3d 22c4 ad3d
000001f0: da6f b9bd 8ed9 96bd ea6b d13d df55 c3bd
00000200: 850a 5ebb 3649 833d 3bbb cdbd c294 efbc
00000210: 2499 03bd 5d82 f4bd ae1a d53c a1db 093d
00000220: f6c9 12bd 9f02 94bd 1c1d d6bd fd62 bf3d
00000230: 61b4 673d 859f 0f3d 3d74 bebd e9bf b3bd
00000240: 1e35 14bd dd1e 6c3d e303 fa3d 831c 33bd
00000250: 4950 a9bd 0d96 253d 3811 8e3c 117c 2dbd
00000260: f4fa efbd 94e0 7cbd 31d3 4c3d bebe 28bd
00000270: 1f71 8cbd 847e 1fbd c1b2 443d 6645 a3bd
00000280: 63a7 783d 7097 483d 858d c43c 4921 cb3d
00000290: 8432 89bd 9681 c63c e74b 233c 0cff 88bd
000002a0: 2f63 97bd 09be 843d 74ae 45bd 6b5f ce3c
000002b0: 36ff 7c3d 24d0 25bd adcd 9abb abc9 a5bd
000002c0: d5f6 a83d 9f43 4a3d 9bd7 cdbd 585a a2bb
000002d0: 4fb1 f6bc f1e1 013d 994c f3bd fc58 853d
000002e0: b8fd b23b 0b08 cb3d 9d2e babd c8af df3d
000002f0: 201f e63d c782 e5bc 7b3e 4f3d e3ab 4d3d
00000300: add1 5a3d 3f38 84bd 298c afbd ec9f 92bd
00000310: 481f d73a 95dd d5bc b8e8 17bd 6f15 91bd
00000320: d9e1 6dbd ba43 223e 9a48 8bbd ef54 79bc
00000330: 50f0 83bd a52c ba3d 57cf b2bd fb53 ac3d
00000340: 22e7 29bd 96c8 173e 9829 95bd aa98 723c
00000350: b4a1 073d 4caa 1dbd 286a d5bd 0972 6a3d
00000360: 8f82 b8bd de04 9cbd 6b10 303d 8993 9d3d
00000370: f396 1e3d 5c77 b03d 04f1 98bc fc77 04bb
00000380: 0301 023c 9844 853d d752 b33d ccb6 39bd
00000390: cbdd b9bb d51c c23c 408e 36bd 281e de3d
000003a0: 0371 b33d 0f75 e43c d9e2 2d3d 96eb e63d
000003b0: a850 953d d02e 49bd ff0f 533d 7ca4 2d3d
000003c0: 79a6 e8bd 50dc 18bd f846 d93d 9187 ef3d
000003d0: 01e2 a6bd cc1e b83b 3f55 b7bd 37f2 dbbc
000003e0: b821 253d 31b4 083e b6ef febd 3fc7 34bd
000003f0: 0cdd f3bd a7eb 103e c452 ae3d 9ad8 75bd
0.05768201 0.031920914 -0.0793776 -0.027733928 -0.0075307433 -0.035362512 -0.019169753 -0.026265454
0.07126865 0.11715458 0.019295493 0.1020945 -0.060136177 0.13967972 0.047107443 0.11755386
-0.09193267 0.10850446 -0.034610663 0.0930865 0.03813069 0.03496902 0.040940873 0.090444
0.1526697 -0.07146287 -0.034929954 0.025758412 0.08269564 0.016214378 0.09547378 0.02010041
0.06966541 0.10831222 0.12089374 0.05703393 0.045542408 0.05322434 -0.038233582 0.12109361
0.08647787 -0.018282427 0.107955344 0.009123716 -0.042372707 0.029698439 0.05796648 0.06296076
-0.094110996 0.04335197 -0.015124494 0.11255765 0.087893315 -0.10527376 0.059214737 0.14672233
0.040445764 0.112231664 -0.05418421 0.02235471 -0.13570538 -0.053747285 -0.042752717 0.09862334
-0.032645803 -0.11750216 0.13934682 0.12031406 0.08379136 0.11356875 0.05920658 -0.057862654
-0.035722636 -0.022901356 -0.084558286 -0.01419578 0.10715385 0.008920484 0.117372625 0.005482532
0.06985152 -0.004539082 0.08748696 -0.11839933 -0.0019290725 0.007677416 0.10564335 -0.07028086
0.087642305 0.028178804 -0.085282765 0.15722841 0.041258495 -0.059336055 0.087738045 -0.005590917
-0.024049113 0.10452009 0.079651766 0.071784765 0.072779186 -0.10168919 0.112141006 -0.0131924
-0.121194735 0.087625474 -0.07102292 0.057156388 -0.01551923 0.12172061 0.04323406 0.025525374
0.012789846 -0.04280829 -0.02674267 -0.046909675 -0.07056596 -0.05862723 -0.08563495 -0.030884178
0.057598844 0.10191134 0.107243404 0.08484675 -0.09054537 -0.07365714 0.10225661 -0.09537863
-0.0033880782 0.06410448 -0.10045477 -0.029245738 -0.03212847 -0.11938927 0.026013698 0.03365672
-0.035837136 -0.072270624 -0.10454771 0.093450524 0.056568507 0.03506424 -0.092995144 -0.08776838
-0.03618347 0.05764662 0.122077726 -0.043728363 -0.08267266 0.040426303 0.017342195 -0.042354647
-0.117177874 -0.061737612 0.050006095 -0.04119753 -0.06857514 -0.038939014 0.048022036 -0.07972221
0.060706507 0.048972547 0.023993263 0.09918458 -0.06699088 0.024231713 0.009966827 -0.06689271
-0.07391965 0.06481559 -0.048262075 0.025191983 0.061766826 -0.0404817 -0.0047242255 -0.08095106
0.082502045 0.049380895 -0.10050889 -0.0049546175 -0.030113844 0.031709615 -0.11879844 0.06511113
0.0054623745 0.099136434 -0.09090922 0.109221995 0.112364054 -0.028016461 0.050596695 0.050212752
0.05342262 -0.064560406 -0.08571655 -0.07159409 0.0016412521 -0.026106635 -0.037087172 -0.07084166
-0.058076713 0.15846148 -0.06800957 -0.015218004 -0.0644232 0.090905465 -0.08730953 0.084144555
-0.04148019 0.14822611 -0.07283324 0.014806906 0.033113196 -0.038492486 -0.10420638 0.05723766
-0.09009277 -0.07618116 0.042984407 0.07694156 0.038718175 0.08616516 -0.018669613 -0.0020213118
0.0079348115 0.06507224 0.08756035 -0.045340344 -0.0056721917 0.023695389 -0.044569254 0.108455956
0.0876179 0.02788785 0.042452667 0.11275403 0.072907746 -0.04911691 0.051528927 0.042393193
-0.11359877 -0.03731948 0.10609239 0.11695779 -0.081485756 0.0056189056 -0.08951806 -0.026848895
0.04031536 0.13349988 -0.12448065 -0.04413533 -0.11907396 0.14152394 0.0851188 -0.06002102
