src/Backend-Information/Clod-weather_predict/Shaanxi_lstm_model.pth (torch, 208379 bytes, 11 tensors)

lstm.weight_ih_l0 f4 [256, 3]
000000 5c d9 0c 3e 3c 6d 64 3d 3e bf e7 bd 55 14 fd bd
       0.13754791 0.055768237 -0.113157734 -0.12357394
000010 75 77 2f bd b8 54 91 3c 34 02 eb 3d 5c 67 dd bd
       -0.042838532 0.017740592 0.114750296 -0.1081073
000020 dc 80 e6 3d 7a 79 c5 ba 14 d9 d9 3d 6a 69 d3 bd
       0.11255047 -0.001506611 0.106371075 -0.103228405
000030 a4 f3 c6 bc f8 07 71 bd 46 e9 90 bd 88 b5 9e bd
       -0.024286099 -0.05884549 -0.070757434 -0.07749468
000040 51 0f 73 bd cc 38 50 bd e6 6d 9d bd 72 86 75 3d
       -0.05934078 -0.050835416 -0.07686977 0.05994267
000050 f8 e6 fc bc 68 ee 9c 3d 1d fd f0 3d b4 a6 a1 3d
       -0.030871853 0.0766266 0.117670275 0.07893124
000060 2f e5 a2 bd 7d 36 df 3d a0 78 1a bc 35 03 34 bd
       -0.079538696 0.10899065 -0.009428173 -0.04394837
000070 7d 3e c2 bc 94 5c ed bd 55 a4 3d bd d8 c0 d4 bb
       -0.023711437 -0.115899235 -0.046299297 -0.0064927153
000080 14 13 4b bd 40 c5 64 bb 7e 6b f2 bc f8 9b d6 bc
       -0.04957874 -0.003490761 -0.029592272 -0.026197419
000090 99 0f be 3d 2e 55 87 bd 6e 30 9a 3d 3c 12 0d 3d
       0.09280319 -0.066080436 0.075287685 0.034441218
0000a0 86 31 f1 bb a8 6a 32 3d 54 e1 bf bd be 4d 1b bd
       -0.00736064 0.043558747 -0.0936915 -0.037915938
0000b0 b8 50 c3 3c 39 de c9 3d 94 03 f3 3c 50 ab cf bd
       0.0238422 0.09856839 0.029664792 -0.10140097
0000c0 0e a8 2e 3c 6f eb ca bc fe 00 b0 bd 06 28 18 3e
       0.010660185 -0.024770467 -0.08593939 0.14859018
0000d0 52 d1 21 3d a0 46 ac bc 0e 13 c9 bd 74 10 d7 3b
       0.039506264 -0.02102977 -0.098180875 0.0065632407
0000e0 1e 97 89 bd 8e f3 93 bd a4 59 41 3d f0 3a f9 3d
       -0.067182764 -0.07224189 0.04720463 0.121694446
0000f0 e0 18 62 3d 56 5d ea bc f8 2f 33 bd 51 23 4a bd
       0.055199504 -0.02860896 -0.04374692 -0.049350087
000100 ae c7 06 be c6 7a ac bd 1a 28 23 3e d8 bc d4 bc
       -0.1316211 -0.08421855 0.15933266 -0.025968954
000110 b4 2b 26 3d 13 63 8c bd 1c 50 d8 3c 66 18 b1 3d
       0.040569022 -0.068548344 0.026405387 0.08647232
000120 e0 c6 9b bd f5 79 0c 3e b8 af 4e 3d 48 67 9c 3d
       -0.07606292 0.13718398 0.050460547 0.07636887
000130 29 bf 06 be c4 d3 ed bd 98 3b b6 3d 6f cb db 3d
       -0.1315886 -0.11612657 0.08898085 0.10732161
000140 b0 99 53 3d bc be 7b bd 3a e9 95 bd 76 18 b4 3d
       0.05166024 -0.061461195 -0.07319875 0.08793728
000150 48 6e 0e 3d 8b c6 83 bd 00 2d 12 bc 3e 09 76 3d
       0.03477314 -0.064343534 -0.008921862 0.060067408
000160 9e 01 08 3e c0 18 9c bb 8c 8e a0 3c bc 96 f3 bd
       0.13281867 -0.0047636926 0.019599222 -0.11893985
000170 0a ec e7 3d 90 e9 91 3d c9 3f d6 bc 08 ae 09 3d
       0.11324318 0.07124627 -0.026153462 0.033613235
000180 af dc 8e bc 47 6d b6 3c 30 ae 41 bd ed 52 f2 3c
       -0.017439215 0.022268904 -0.04728526 0.029580558
000190 f0 b8 e9 3d 28 8a 59 3d 72 aa 34 bd c7 b3 df bc
       0.11412227 0.05311027 -0.04410786 -0.027307404
0001a0 90 00 98 3c 8b 91 c1 bc bf 4a b7 bc 14 63 d7 bd
       0.018554956 -0.02362897 -0.022374509 -0.105169445
0001b0 6a fa a7 3d 7d da 5f bc 68 a3 d6 bc 11 cc 00 bd
       0.082020596 -0.0136629315 -0.026200965 -0.031444613
0001c0 b0 f5 2a bc d6 6b e3 3d 48 08 12 3c fd bd f6 ba
       -0.010434553 0.111045524 0.008913107 -0.0018824931
0001d0 52 fd d2 3d 4a 7a 0d 3c 32 38 f1 3d 7e 93 9c 3d
       0.10302223 0.008635113 0.117782965 0.076453194
0001e0 c9 94 96 3d 4b b2 9d bc 5e f1 fc 3d e8 30 7e 3d
       0.07352597 -0.019250056 0.12350725 0.06205836
0001f0 45 5a e5 3c a0 bd bf bd b8 a4 b5 3c 35 95 bd bd
       0.027997145 -0.0936234 0.02217327 -0.092569746
000200 72 bf d0 bd 40 d0 13 3d 75 e4 97 3d ce f6 97 bd
       -0.10192765 0.036087275 0.074166216 -0.07420121
000210 5b c2 0c 3e b2 a9 a5 ba 68 32 31 3d c5 63 b3 3c
       0.13746016 -0.0012639074 0.04326096 0.02189816
000220 24 50 13 be f2 4e d1 3d 14 13 cd bd 41 2c c9 3d
       -0.1438604 0.10220136 -0.100134045 0.09822894
000230 96 56 cd bd 3a 0a ee 3d 75 01 51 bd e2 d8 9c 3d
       -0.100262806 0.11623044 -0.05102678 0.076585546
000240 ab 55 c6 3d 9b 74 95 bd e2 34 f3 bd 6c f7 d4 3d
       0.096843086 -0.07297631 -0.11875321 0.103987545
000250 f9 b2 b9 3d b0 76 6a bd 5f 24 d4 bd d8 ea 06 bb
       0.090673395 -0.057242095 -0.103585 -0.0020586755
000260 1c 1d b4 3d 26 a0 ae bd d0 d0 b1 bc c0 5d a0 3c
       0.08794615 -0.0852664 -0.021706015 0.019575953
000270 25 f2 71 3d ad 52 8a bd 60 f6 a6 bd 5b f6 a8 3c
       0.059068818 -0.067540504 -0.08152461 0.020625284
000280 61 41 85 3d d2 9a b6 bd a2 24 8e bd fe da 71 3d
       0.06506611 -0.089162484 -0.06940581 0.059046738
000290 96 34 91 3d 93 e7 60 3d 9b ef fe 3d 6a ea d3 bd
       0.07090108 0.054908346 0.12448045 -0.10347445
0002a0 e6 c9 9d 39 a6 9c 6d 3d 4c 60 9b 3d da 0c 9e 3d
       0.000300958 0.05801072 0.075867265 0.07717295
0002b0 de fa fc bd f4 44 1b bd 9e da 83 bc 5e bc ed bc
       -0.123525366 -0.037907556 -0.016095456 -0.029020485
0002c0 b8 28 85 bd e7 a1 f0 3d fd e9 e8 3c 80 c1 2e 3d
       -0.06501907 0.117496304 0.028431887 0.042665005
0002d0 ae 25 ce 3d c1 b1 db bd 70 da e6 3c 52 5c 50 bd
       0.100657806 -0.10727263 0.028180331 -0.050869294
0002e0 8a c4 dc bd 00 9f f2 ba fd 05 6a bc 87 85 0e 3e
       -0.10779674 -0.001851052 -0.014283654 0.13918124
0002f0 c4 e8 26 3d 50 c2 74 bd af d5 a7 3d d4 65 2a bd
       0.040749326 -0.059755623 0.08195054 -0.041601017
000300 c5 b3 42 3d 14 3e 1b be 2e d7 e8 bd 86 19 8b 3c
       0.047534723 -0.151604 -0.11369167 0.016979944
000310 6b b6 20 bd 80 ac 06 3c a7 1c c7 3d 7d 2d 7a bd
       -0.039236467 0.008219838 0.09722262 -0.061078537
000320 a6 e6 8f bd 80 43 07 3e 3f bd ed bc 20 8d 2b bc
       -0.070264146 0.13209343 -0.029020904 -0.010470659
000330 a4 fe 8b 3c 5e d0 d8 3d 74 c2 22 3d a6 ac 1b 3d
       0.017089196 0.10586618 0.039736226 0.038006447
000340 c5 73 d3 bd 1c 78 c4 bd 4c d8 4a bd 4c 6f bb 3d
       -0.10324816 -0.095932215 -0.049522683 0.091520876
000350 48 03 8f bc 59 58 ef bd 10 a9 a8 bb f8 de b8 bd
       -0.01745762 -0.11686773 -0.005147107 -0.09026903
000360 45 35 bf 3d 52 1b 95 3d f2 18 92 bd 99 98 dd 3d
       0.09336332 0.072806016 -0.07133664 0.10820121
000370 15 68 d5 bd ea 98 8e 3d 90 b2 7d bd 19 eb 00 be
       -0.10420243 0.0696276 -0.06193787 -0.12589683
000380 10 8d 9f 3c 2a f1 4d bd 15 c9 b6 3c 54 ee 0c bd
       0.019476444 -0.05027882 0.02231268 -0.034406975
000390 2d 83 ad 3d f8 51 7f bd b8 34 bc 3c 9c 3f 1b bc
       0.084722854 -0.06233403 0.022974357 -0.009475615
0003a0 8e 77 76 3d c0 4b 1e 3b f7 40 df 3d a9 c1 f1 bd
       0.06017261 0.0024154037 0.10901063 -0.11804516
0003b0 dc c3 99 bd 3f 1e cc bd ab d2 96 3c 1a bf cd 3d
       -0.0750806 -0.099667065 0.018411001 0.10046215
0003c0 33 e7 66 3d ef 00 e2 bd 4c 9f 8f 3d f4 58 0d bd
       0.056372833 -0.11035334 0.07012805 -0.03450866
0003d0 a4 04 a0 3d f2 5c a9 3d 07 f0 fd 3c ed 2f ad bd
       0.07813385 0.08269681 0.030998243 -0.08456407
0003e0 06 4f 9b bd 7e cf 20 3c 47 68 6b 3b 32 93 ef bd
       -0.07583432 0.009815095 0.0035920308 -0.11697997
0003f0 32 4a cb bd 2b b0 29 bd b8 35 bd 3d c6 2c bf bd
       -0.09926261 -0.041427772 0.09238762 -0.09334712

lstm.weight_hh_l0 f4 [256, 64]
000000 4e cb d3 bd fa d4 f0 3d b4 80 8f bd 81 fc d7 bd
       -0.10341512 0.11759372 -0.0700697 -0.10546208
000010 ec 0f d3 3d b7 39 8e bc 31 ac a9 3c 66 da aa bd
       0.10305771 -0.017361505 0.02071199 -0.083424374
000020 df 17 d0 bd f1 f4 12 3e 45 db eb 3b 61 4d 27 bd
       -0.10160803 0.1435125 0.00719777 -0.04084528
000030 b5 a4 91 bd 25 0d cd bb af 02 a0 bd 0f 56 4a bd
       -0.071114935 -0.0062576705 -0.07813012 -0.049398478
000040 bc 0b da 3d ef 59 a5 3d 62 fd 4f 3d 42 0d 99 bd
       0.106467694 0.08073794 0.050778754 -0.07473232
000050 b8 8b 88 3d 51 4e 31 3d b9 ac c6 3d 9e 4d 85 bd
       0.06667274 0.04328758 0.09700913 -0.06508945
000060 a1 d0 bf 3d 8d 3b c0 bd 23 1c 66 3d 07 34 d2 3d
       0.09365965 -0.093863584 0.056179177 0.1026383
000070 da e0 01 3d 2d 74 f8 bc ec 0b 5c bd 61 96 80 bd
       0.031708576 -0.030328834 -0.053722307 -0.062786825
000080 3b 7a c5 3d 23 ff 98 bd 98 b6 b9 bc 0a 9d 08 be
       0.09642454 -0.074705385 -0.022670075 -0.13341156
000090 23 a0 0e 3e 8a 92 0b bd cd 1c 9e 3d 92 26 72 3d
       0.13928275 -0.034075297 0.07720337 0.059118815
0000a0 84 65 c2 3c b7 29 65 3c 65 80 12 bd fc e8 d7 3d
       0.023730047 0.013986996 -0.035766978 0.10542485
0000b0 ea f9 72 bd c9 56 09 bd 6e 99 37 bd ef 6f 03 be
       -0.059320368 -0.03353003 -0.044824056 -0.12835668
0000c0 a0 23 dd 3d 1b df 95 3d 5e 0a 95 3d 76 cc 5e 3c
       0.107978106 0.073179446 0.07277368 0.013598552
0000d0 e3 21 be 3d b4 95 59 3d 76 14 f5 bd 2f 77 d0 bd
       0.09283807 0.053121284 -0.11966793 -0.101789825
0000e0 ba 8f 53 3c 32 49 55 bd 04 aa 99 bd 16 8f 1d bd
       0.012912685 -0.052071758 -0.07503131 -0.038466536
0000f0 0a 45 d0 b9 7c 94 be 3d f5 63 e0 bc 52 0a 59 3d
       -0.0003972429 0.09305665 -0.027391413 0.052988358
000100 e5 0f a8 3d de 8e 55 3d d8 b3 02 be 81 c7 f3 3c
       0.08206157 0.052138202 -0.12763917 0.029758217
000110 d4 68 75 3c 78 6b f7 bd 0b e9 80 bd fa 23 05 3d
       0.014978606 -0.12081045 -0.062944494 0.032505013
000120 9a 21 7e bd ad b0 02 3e c8 92 be bc 75 7d b6 bd
       -0.062043764 0.12762709 -0.02326335 -0.08910648
000130 e2 61 cb bd 6a e0 b7 3d 12 b0 33 3c a4 46 65 3d
       -0.09930779 0.089783505 0.010967271 0.05597557
000140 ea 11 b5 3c 12 4e 84 bd 07 0a ad 3d 6c ef b1 3d
       0.022103269 -0.06460203 0.08449178 0.08688244
000150 12 70 c9 bd a9 4c d3 bd e8 7d 02 be 01 45 db bb
       -0.09835829 -0.10317356 -0.12743342 -0.0066915755
000160 0d b3 ec 3d 80 a2 93 bd 63 85 ea bd ba 12 02 3d
       0.11557589 -0.07208729 -0.11451223 0.03175614
000170 ff 9a 8b bd d5 77 c2 bd 00 b7 03 bd 62 65 d1 bd
       -0.068166725 -0.094955124 -0.032156944 -0.10224415
000180 3e 92 29 bd fe e3 00 be cc 04 9d 3d ec 63 d9 bd
       -0.041399233 -0.12586972 0.076669306 -0.10614762
000190 86 bf da bd 89 2d ba 3c 5d 28 03 bd bf 7b fd bd
       -0.106810614 0.022726791 -0.032020915 -0.12377118
0001a0 e2 ec 22 3d 6e 94 8f bd 2e 73 e3 bd a0 e3 0c 3e
       0.03977669 -0.070107326 -0.11105953 0.13758707
0001b0 ca aa 93 bd 14 72 9d 3d b1 3e 0f 3e 2f f3 77 bd
       -0.0721031 0.07687774 0.13988759 -0.060534652
0001c0 c7 99 13 3c 85 12 21 3d 44 5d 03 3d 1f 37 47 3c
       0.009008831 0.039324302 0.032071367 0.012159138
0001d0 33 57 b7 bd 0b e8 06 bd a7 49 5f 3b f7 49 c7 bc
       -0.08952179 -0.032936137 0.0034071 -0.024327261
0001e0 f9 e7 41 3c 94 3b 86 bd 32 43 04 3e 77 71 8b 3d
       0.011835092 -0.065543324 0.12916258 0.06808751
0001f0 7d 25 84 3c 95 ba 09 3d 14 64 e9 bd 84 5e aa bd
       0.016131157 0.033625204 -0.113960415 -0.08318809
000200 07 05 21 3d f1 72 44 3d e7 5f 0c be d1 ef be bd
       0.039311435 0.04796118 -0.13708459 -0.09323085
000210 6a 81 08 3e 50 74 39 bd 54 6d 84 3d d5 9f 4b 3d
       0.13330618 -0.04527694 0.06466165 0.049712975
000220 5f 71 b5 3d c0 7d af bd 66 b7 b2 3d 77 91 0c be
       0.088595144 -0.08568907 0.08726387 -0.13727365
000230 74 c3 ec 3c bd 69 91 bd fe eb 71 3c 26 79 f1 bd
       0.028901793 -0.07100246 0.014765738 -0.11790685
000240 b1 ce 00 3e b0 ab 0c be 73 62 38 3d aa ec a2 3c
       0.12578847 -0.13737369 0.045015763 0.01988824
000250 ff 90 0f bd 5a 91 db bd 34 9b c1 3d f4 19 8a bd
       -0.03505039 -0.10721083 0.09453431 -0.067432314
000260 3e 5c fd 3c 57 81 0d be 22 80 75 3b 15 6e 80 3c
       0.030927774 -0.1381887 0.0037460406 0.015677491
000270 58 45 e7 bd e5 c1 7c bd 8d 7b 21 bd 72 3c 01 be
       -0.11292523 -0.06170835 -0.039424468 -0.12620714
000280 83 d7 1a 3d 6a 72 d6 3d e1 80 07 3e df 50 5f 3d
       0.037803184 0.104710415 0.13232757 0.054520484
000290 ab 3a ea 3c 76 08 c3 3c 03 8c ce 3d 9d 1a e0 bd
       0.028592428 0.023807745 0.10085299 -0.10942576
0002a0 51 ce bc 3d a9 f6 86 bd 1a 2d 78 bc e2 ee 1a 3d
       0.09219039 -0.065900154 -0.015147472 0.037825473
0002b0 1f c3 86 bc 51 1b 92 bd e8 44 21 bd bb fe 6c bd
       -0.016450463 -0.071341164 -0.039372355 -0.057860117
0002c0 21 d4 8a bd ba 57 8a 3d 3a 2f 16 3e 2e 75 f7 bd
       -0.06778742 0.06755014 0.14666453 -0.12082897
0002d0 2a b8 e0 3d f8 d2 d1 3d a2 21 ad bd 86 df 0f 3d
       0.109726265 0.10245317 -0.084536806 0.035125278
0002e0 a3 50 86 3d bd c2 02 3e fe c9 63 3d e7 b9 c4 3d
       0.06558349 0.127696 0.055612557 0.096057706
0002f0 e6 ec cd 3c 70 df 3d ba 78 a1 f5 bd c2 d3 3c 3b
       0.025137376 -0.00072430726 -0.11993688 0.002881274
000300 56 e6 59 3d f3 3f d2 bd 70 ce 6f 3d 8c 00 c2 bd
       0.05319818 -0.102661036 0.058546484 -0.094727606
000310 96 1f c9 bc b4 bf 09 3e 62 c2 52 bd be d3 58 3d
       -0.024551194 0.13452035 -0.05145491 0.052936308
000320 f5 46 40 bd 60 5c be bd 9b 2d 11 3d 3c e3 76 3d
       -0.04694267 -0.09294963 0.035443883 0.0602753
000330 85 2e 73 bc b5 90 c4 3c 5f 9b 94 3d 04 18 29 bb
       -0.014842634 0.023994783 0.07256197 -0.0025801668
000340 23 66 0e 3e e0 f2 b8 bd 02 68 aa bd 34 db d2 bd
       0.1390615 -0.090307 -0.08320619 -0.10295716
000350 38 65 ac bd 56 dc c5 bd 39 00 b5 3d 82 d2 ff 3d
       -0.084177434 -0.09661166 0.08837933 0.12491323
000360 d3 0e 9d bd 35 3a 48 3d 47 2f b2 3d 06 19 51 bb
       -0.07668843 0.048883636 0.08700424 -0.0031905784
000370 d6 5d d3 3d b0 b0 91 3c d1 bb 8d 3b 09 51 88 bd
       0.10320632 0.017784446 0.004325368 -0.06656081
000380 d4 cf cf bd 3f ee 8c 3c 1b 13 b9 3d fe 8d b6 bc
       -0.10147062 0.017203448 0.09036847 -0.022284504
000390 bb 3b 29 3d d2 57 be 3d da 77 8e 3d 8c 49 66 3d
       0.04131673 0.09294094 0.069564536 0.056222484
0003a0 04 7e 02 be 1b fd f8 3d 1d f3 a0 bc 1e 0a 4d bc
       -0.12743384 0.12157651 -0.019647175 -0.012514619
0003b0 d7 70 81 bd 35 92 57 3d 41 83 e3 3d 38 5c 83 3d
       -0.063203506 0.05262967 0.11109019 0.06414074
0003c0 ca f9 f3 3d 88 74 d8 3d 10 b0 3b bd 14 ad 29 3d
       0.11912878 0.105691016 -0.045822203 0.041424826
0003d0 94 18 6d 3d 9e aa bb bb e6 ed 9f bd bc bb 39 bd
       0.057884768 -0.0057271263 -0.078090474 -0.045345053
0003e0 8d a1 ec bc b4 0f 0e bd 80 77 d6 bd 99 67 a4 3d
       -0.028885627 -0.034682944 -0.104720116 0.08027572
0003f0 df ab 82 3d 32 b5 4d bd e3 77 b0 bd c3 35 81 bd
       0.06380438 -0.05022163 -0.086166166 -0.06309082

lstm.bias_ih_l0 f4 [256]
000000 d6 9b df bc b3 7e a9 bd 5f 0f aa 3d 30 05 d2 3d
       -0.027295988 -0.08276119 0.08303713 0.10254896
000010 6d 1b 56 bd 6c eb 4b bd ce 2e ce bc bc 78 60 bd
       -0.05227225 -0.049785063 -0.025168803 -0.05480264
000020 e0 fd 5c bd fc a6 cb 3d a4 a7 0b 3d 87 44 ac 3b
       -0.05395305 0.09943959 0.03409542 0.0052571925
000030 e6 a4 0d 3d 08 8d e8 3c d7 a8 bd 3d a6 e6 8a ba
       0.034581088 0.028387561 0.09260719 -0.0010597303
000040 c7 e0 df 3d db 24 54 bd e7 6b 88 bd 23 3a b1 bc
       0.10931545 -0.05179296 -0.06661206 -0.021634167
000050 6c b5 cc 3d 26 16 04 3e e2 ec b2 3d 08 a8 55 3d
       0.09995541 0.12899074 0.08736588 0.0521622
000060 90 9c 7c bc dd 16 e8 ba d5 cf c2 bd 23 a8 e1 3d
       -0.015418187 -0.0017707009 -0.09512297 0.11018398
000070 b0 e9 c4 bd fd 1a 7b bd ac ef c6 3c ed fb 3c bd
       -0.09614885 -0.061305035 0.024284206 -0.046138693
000080 9a 6d cf bd 46 b1 84 3c be af 0d bd 3a 4e 25 bb
       -0.10128327 0.016197812 -0.03459143 -0.0025223629
000090 0f d5 b9 3d 31 2e 9e 3d 08 9f ec 3d 15 e5 d9 bc
       0.09073841 0.07723654 0.1155377 -0.026598493
0000a0 93 99 58 3d 49 93 ca 3c 8e 69 39 bd a2 fa 88 bd
       0.052880835 0.024728434 -0.04526668 -0.066884294
0000b0 37 70 11 bd 33 29 8e 3d 6f 68 9f bc 6d fd b8 3c
       -0.035507407 0.06941452 -0.019458978 0.02258178
0000c0 b7 0c 4c bd 0e c6 10 3c 1a f2 b0 bd 41 b4 fb 3d
       -0.049816813 0.008836282 -0.08639927 0.1229024
0000d0 de af 85 bc 13 e5 4b 3d 4c 1d 0d 3c ef 6b a2 bc
       -0.016319212 0.04977901 0.008612942 -0.019826857
0000e0 cb 96 c0 bd e3 bc 68 3d 26 b4 4f 3d 24 39 9c bd
       -0.094037615 0.05682076 0.050708912 -0.07628086
0000f0 2b 1a ee 3d 18 78 4b 3d e3 d4 fa 3d 3d 91 c6 3d
       0.11626085 0.049675077 0.12247636 0.09695671
000100 a6 b1 46 bb 49 68 90 bd 5e f3 60 3d 89 73 1d bd
       -0.003031829 -0.07051141 0.054919593 -0.03844026
000110 a7 a2 2a 3b aa 0c fa 3d e7 3c b1 3d e7 2b 17 3e
       0.002603689 0.12209447 0.08654194 0.14762841
000120 ea 98 88 b9 27 8f 5b 3d e3 96 75 bd a4 ac d8 bd
       -0.0002605387 0.053603318 -0.05995835 -0.105798036
000130 7c 2f af 3d 1c 87 e1 3d 63 ef cd 3d 17 92 96 3d
       0.08553979 0.11012098 0.10055425 0.07352083
000140 3f 32 d6 bd 68 df ad 3c cb e1 9a 3d c7 bc c5 bd
       -0.104588024 0.021224692 0.07562598 -0.09655147
000150 69 17 e4 3c 17 9a d3 bd 91 db ca 3d 50 60 51 bc
       0.027843194 -0.10332125 0.0990516 -0.01277931
000160 ae 36 f4 3c 97 ec b5 bd 36 d3 85 bb df eb 8b 3d
       0.02981123 -0.088830166 -0.004084016 0.06832098
000170 3c bf 44 3d d8 b7 2a 3d 15 bd e3 bc 10 aa d3 3c
       0.048033938 0.041679233 -0.027800122 0.025837928
000180 c8 c8 56 3d cd 72 93 3d 81 17 2f bd 4b 16 23 3d
       0.052437574 0.07199631 -0.042747024 0.039816182
000190 89 cc b5 bd e3 5d d4 bd da e4 67 3d 30 82 1d 3e
       -0.088769026 -0.1036947 0.056614734 0.15381694
0001a0 45 d9 a2 3d 88 90 77 39 af 5b 9a 3b b4 37 3d 3c
       0.07951597 0.00023609598 0.0047106366 0.011548925
0001b0 fd ad 73 bc 69 03 ff bd 02 78 4a 3d a0 73 56 3d
       -0.014873025 -0.12451822 0.049430855 0.052356362
0001c0 6d 9e b3 3d d7 70 99 bd f4 23 c4 3d 34 e3 53 bd
       0.08770452 -0.074922256 0.0957717 -0.05173035
0001d0 27 32 a8 bd fd f8 73 bc 07 f8 bb bd 65 82 fd 3d
       -0.08212691 -0.014890906 -0.09178167 0.123783864
0001e0 89 8b be 3d 11 7a 68 3d 1d f7 63 bd fc c9 ee 3d
       0.09303958 0.056757037 -0.055655587 0.11659619
0001f0 88 e3 98 bc 78 62 c4 bc 24 65 05 3d ea b8 a0 bc
       -0.018663183 -0.023972735 0.03256716 -0.019619424
000200 f6 d7 a4 bc e5 ce ba 3d 85 30 95 bd d5 31 83 bd
       -0.02012251 0.09121493 -0.07284645 -0.06405989
000210 73 63 98 bc fd 31 b0 3c 88 96 27 3d 78 43 79 bd
       -0.018602109 0.021508211 0.040915042 -0.06085536
000220 28 54 8f bd c4 15 ba 3d f5 04 57 bd a8 6c 28 bd
       -0.069984734 0.09086183 -0.05249496 -0.041119248
000230 4a 5d 0a be fb 39 bf 3d d6 18 b3 3d e7 0c a5 bd
       -0.1351215 0.09337231 0.087449715 -0.080591016
000240 83 3b bd 3d 7a b9 c6 bd b0 63 fa 3d fe e0 6b bd
       0.092398666 -0.097033456 0.12226045 -0.057587616
000250 88 67 bc 3d 4a 38 86 bd d4 1e 48 bd c8 ad 9b 3d
       0.091994345 -0.06553705 -0.048857525 0.076015055
000260 dd 3a 04 be 40 84 ff bc 54 2a d7 3d c8 4f cd 3d
       -0.1291308 -0.031190991 0.1050612 0.10024983
000270 a0 d9 cc bd e0 29 c5 3c d2 19 f0 3d 54 dc b5 bd
       -0.10002446 0.02406782 0.11723675 -0.08879915
000280 c9 13 c1 bd f8 80 da bd ad cc 9b 3c 4c 06 a0 bd
       -0.09427602 -0.1066913 0.019018495 -0.07813701
000290 af a7 e3 3d 3e a4 84 3d 01 65 da bd c6 9c f4 3c
       0.111159675 0.06476639 -0.10663796 0.029859912
0002a0 fd bc 85 3d 96 ff af 3c 6d 28 82 3d f9 18 30 3d
       0.06530187 0.021484178 0.06355367 0.042992566
0002b0 d1 42 0b bc ca 18 ce bd 1d 73 a0 3d 9c bc dd 3c
       -0.008499817 -0.10063322 0.07834456 0.027067475
0002c0 fa d2 9e 3d 63 70 78 3d 10 15 08 bd eb 9e 5a bd
       0.07755084 0.060654055 -0.03322321 -0.053374212
0002d0 33 6d 1e bd 1d 30 5d bd f2 a7 c1 bd a1 da f9 3d
       -0.03867836 -0.054000963 -0.09455861 0.12199903
0002e0 e6 54 5e 3d 0e 44 c5 3d dc ea cb 3d 16 c8 0d 3d
       0.054280184 0.09632121 0.09956905 0.034614645
0002f0 be 01 8d bd 36 b2 7c 3d c7 61 a5 bd d9 30 cf bd
       -0.06885098 0.061693393 -0.0807529 -0.10116739
000300 84 6f 10 3d fb 46 9e bd f0 5b af 3c c0 64 99 bc
       0.0352626 -0.07728382 0.021406144 -0.0187248
000310 c8 d7 9d bd 80 2c f2 3d b9 14 02 3e 02 14 dc bd
       -0.07707173 0.11824894 0.12703218 -0.10746004
000320 45 2b a7 3c 59 71 be 3d 82 80 fb 3d 24 a4 b3 ba
       0.020406375 0.09298963 0.1228037 -0.0013705534
000330 a8 ff c8 bc 75 ee 53 3d e1 1d c0 bd ed 7c b8 3d
       -0.024535969 0.051741082 -0.09380699 0.09008203
000340 dc 6e 14 3c 47 45 8f 3d 98 d1 47 bd ee e6 58 3c
       0.009059634 0.069956355 -0.04878387 0.013238652
000350 4b ea b7 3d 03 47 23 bd e5 4b 59 bc 1b 0d 58 3d
       0.08980235 -0.039862644 -0.013262724 0.052746873
000360 a8 74 bb 3d c6 92 a9 3d 2a aa 49 bd d5 bc ad 3d
       0.0915311 0.08279948 -0.049234547 0.084832825
000370 52 4f 50 3c 03 07 76 3d 7d 2e 78 3b 09 e0 a5 3c
       0.012714224 0.06006528 0.0037869506 0.02024843
000380 3c ae 9d 3d 36 ed 94 3d fb ef be bc e1 0d e3 3d
       0.07699248 0.07271807 -0.023307791 0.110866316
000390 7b 72 e6 3d fd d4 64 3d 50 1d cf bc 25 b5 ed bd
       0.11252304 0.055867184 -0.025282532 -0.11606816
0003a0 1a 48 b9 3d 83 6b 83 3d 7c c2 1c bd 8a ec a5 bd
       0.090469554 0.064169906 -0.038271412 -0.08101757
0003b0 d7 64 b4 bd 44 7b 99 3b ae 5d 19 3d 8e f4 e3 bc
       -0.08808296 0.004683884 0.037442856 -0.027826574
0003c0 10 67 8a bd 85 41 09 ba a9 12 c0 3d 38 d6 cd bc
       -0.06757939 -0.00052358984 0.09378559 -0.025126562
0003d0 c3 bd 39 bd ba 81 de 3d bd 8e 46 3c a9 ee ba 3d
       -0.045346987 0.10864587 0.012118992 0.09127552
0003e0 b1 c2 a7 3d 43 dd 12 bd 95 ed 12 3e 54 bc ad bd
       0.08191431 -0.035855543 0.14348443 -0.08483186
0003f0 48 ae 46 3d c1 70 d6 3c 18 7a 9d 3c dd 46 7d 3d
       0.04850605 0.026176812 0.019223258 0.06183516

lstm.bias_hh_l0 f4 [256]
000000 1b f1 f2 3d d2 f7 ed bc 2b a8 7f bd 3f e7 69 3d
       0.118623935 -0.029048834 -0.062416237 0.0571053
000010 7f 76 0d 3b bf ba 8b bd 76 ad 53 bc 10 44 b2 3c
       0.0021585522 -0.06822728 -0.012919774 0.02176097
000020 44 fe 9e ba 0b f6 31 3d 4a 9f 57 bd f6 a0 0d 3c
       -0.001213022 0.043447535 -0.052642144 0.008644333
000030 e5 a4 3f 3d 5d cf b2 bd 47 9f 0b be 2a 2f e8 3d
       0.046788115 -0.08730958 -0.13634978 0.11337121
000040 95 dd a6 3d 84 a2 a7 bd 5d ef aa 3d 81 81 05 3e
       0.08147732 -0.08185294 0.08346436 0.13037683
000050 56 21 8f 3d 4e 0a 10 3e a2 12 12 bd c8 72 50 3d
       0.0698878 0.14066431 -0.0356623 0.050890714
000060 5a 82 f1 bc 8f 0f ca bd 6d 0b 84 bd 7a 0f 39 bd
       -0.029481102 -0.09866249 -0.06447492 -0.045180775
000070 4a e4 9c 3b a5 9d 65 3d 91 31 5c 3d 9b 9c 55 bc
       0.0047879564 0.056058545 0.053758208 -0.013037826
000080 4b 37 20 bd a5 34 49 bd 74 8c 25 3c 26 40 f4 3d
       -0.03911523 -0.04912247 0.010104287 0.11926298
000090 e0 00 fc bc df d6 fd 3b dc e1 7f 3d c1 c7 cf bd
       -0.030762136 0.007746562 0.062471256 -0.10145522
0000a0 44 93 77 3d 4f 01 b7 bc 08 ab a6 bd b8 cd 06 be
       0.060443178 -0.022339491 -0.0813809 -0.13164413
0000b0 44 68 c8 3d 2c 9f f6 3b 10 d9 98 bc b4 08 d2 3d
       0.09785512 0.007526299 -0.018658191 0.10255566
0000c0 49 14 8a bd 4a 3b 06 bd 7e 96 a3 bc 04 92 5c 3d
       -0.0674215 -0.032771386 -0.019969221 0.05385019
0000d0 dd 42 25 bd 26 12 f1 bc 2d 8f c7 3d 72 fc 1d 3d
       -0.04034697 -0.0294276 0.097441055 0.03857083
0000e0 a3 ff c2 bd 5d 6f 45 3c 3d 4b c3 bd 7e b5 dd bd
       -0.09521415 0.012050477 -0.09535835 -0.108256325
0000f0 3e 30 02 3a 2f f6 6d bd 90 d2 01 3e 6d 8d 38 bd
       0.0004966295 -0.058096107 0.1267798 -0.04505675
000100 37 ac 85 bd 4e a2 7d 3d aa aa af bd 09 c0 9d 3d
       -0.06526988 0.061922364 -0.085774735 0.077026434
000110 f2 01 a9 bd bd a5 00 bd 79 d0 df 3d 61 d1 c3 bd
       -0.08252324 -0.03140806 0.10928435 -0.0956142
000120 0d 2e 41 3d 36 ea c0 3d 38 cf aa bd ec da d7 3d
       0.047163058 0.09419672 -0.08340305 0.10539803
000130 2f cc 95 bd ab df 4d 3a 75 dd af bd 28 69 fe 3d
       -0.073143356 0.00078534585 -0.085871615 0.12422401
000140 ad db c1 bd 8d 2e 3f bd d2 a9 0d 3e bf b6 f7 3d
       -0.09465728 -0.046675254 0.13834313 0.12095403
000150 56 4b 0f be 39 2d bd 3d 93 7e 81 bd 92 b5 0a 3e
       -0.13993582 0.09237141 -0.0632297 0.13545826
000160 9b f4 c5 3d b3 6b 85 bc ac bc 66 bb 81 0d 06 3e
       0.096657954 -0.016286707 -0.0035207672 0.13091089
000170 b5 60 a3 bd f6 2f cf bc 79 40 16 3d ca 16 a1 bc
       -0.0797743 -0.025291424 0.03668258 -0.019664187
000180 b1 95 cd bd 6b 61 56 bd 7b 6d 18 3e b5 e1 12 3e
       -0.10038317 -0.052339 0.14885513 0.14343913
000190 1f be a4 bd eb a2 b9 bd 00 e3 ca bc 5a 10 60 3d
       -0.08044075 -0.09064277 -0.024766445 0.054703094
0001a0 d2 30 93 3d 7e 40 19 3b b7 60 06 bc cf c7 8b 3c
       0.07187046 0.0023384388 -0.00820177 0.01706305
0001b0 7e 2c b0 bd 4d 60 1f 3b 03 77 08 be 4b 49 c0 3d
       -0.08602236 0.0024318874 -0.1332665 0.093889795
0001c0 6b b9 a9 3c 58 d4 7e bd e7 06 c1 bc cb 93 23 bd
       0.020718297 -0.062214226 -0.023562862 -0.03993587
0001d0 9d 68 8c 3d 46 ce 35 3d b8 e5 74 bd 19 45 a6 3d
       0.06855891 0.04438617 -0.05978939 0.08118648
0001e0 53 1a 2d bc df d8 e0 3d b3 b8 2c bd 2a b1 f4 3d
       -0.010565358 0.10978865 -0.04216833 0.11947854
0001f0 15 97 12 bd 9e 7d b2 3d c1 ed 5d bc 0e 7e 06 be
       -0.035788614 0.08715366 -0.0135454545 -0.13134024
000200 25 3c a1 3d d2 b6 85 3d de 70 be 3c 5e e2 67 3b
       0.078728 0.06529011 0.023247179 0.0035382728
000210 59 d6 08 3e ef df 35 3d a0 41 0f bb 35 67 f5 3d
       0.13363017 0.044403013 -0.0021859184 0.11982576
000220 ed b4 4c 3d 73 b2 91 3d 49 04 f8 bd e3 c7 b3 bd
       0.04997723 0.071141146 -0.12110192 -0.0877836
000230 95 d8 79 bd 0d 0e ff bb 62 7a 6f bd 0f 2b 39 3d
       -0.060997564 -0.0077836574 -0.058466323 0.04520708
000240 8b f0 99 bd 50 e3 66 bb 66 11 9a bd 2e 06 11 be
       -0.07516583 -0.0035230704 -0.0752285 -0.14162514
000250 30 ba de bd 95 89 33 bd 9c 8e e6 bb 24 2e f5 3d
       -0.10875356 -0.04383238 -0.0070360433 0.11971691
000260 37 c3 9b bd 48 76 e8 bd f8 45 a4 bd 04 cf 9b bd
       -0.07605594 -0.11350685 -0.08021158 -0.076078445
000270 5f 41 97 bd 2b 5d 3e 3d 43 ad 73 3d 58 d0 4e 3d
       -0.073855154 0.04647557 0.059491407 0.05049166
000280 cd b6 98 bd ec ca 30 bd 16 31 0c 3e 44 38 2b 3d
       -0.074567415 -0.04316227 0.136906 0.041801706
000290 59 cf bc 3d df 90 de 3d 43 43 3c bd e1 3c c2 bd
       0.09219236 0.10867476 -0.045962583 -0.09484268
0002a0 57 77 bd bd e5 d4 d0 3d 11 8f 86 bd 1b ee 34 3d
       -0.09251278 0.101968564 -0.065702565 0.044172388
0002b0 c2 30 f4 bd 0a dd 83 bd 96 f0 6e bd 6e f8 1b bd
       -0.11923362 -0.06438644 -0.05833491 -0.038078718
0002c0 ee 91 5e 3d 06 7f 78 3d 91 90 df 3d 2e c6 d8 3d
       0.05433839 0.060668014 0.10916246 0.10584675
0002d0 1f 70 c3 3d 34 ea 85 bd 84 25 b3 bd f2 3f 5c 3d
       0.0954287 -0.06538811 -0.0874739 0.05377192
0002e0 8b ab dc 3c 1c 05 0a bd 2d 85 11 3e 42 cd fc 3c
       0.026937267 -0.03369628 0.14210959 0.030859593
0002f0 02 f4 a3 bb 74 98 86 3d 87 47 8f bd 62 42 71 3b
       -0.005003453 0.06572047 -0.06996065 0.003681325
000300 9c 38 13 3e 71 ba 8f 3d dd 34 7d 3c 7d bd b6 3c
       0.14377064 0.07017983 0.015454498 0.022307152
000310 b8 8e b6 3d 22 df e5 3d 38 c0 fc bc d4 c2 b9 bc
       0.0891394 0.112242 -0.030853376 -0.02267591
000320 2b 8b 24 bd 37 54 38 bd 0b a5 01 3d a3 aa 91 3d
       -0.040171783 -0.04500219 0.031651538 0.071126245
000330 4e 54 35 bd 55 e7 58 3d 00 3c 0d be cb cc 01 3e
       -0.044269852 0.05295499 -0.1379242 0.12675779
000340 11 5f 08 bd c8 f3 c6 3d 4f 65 ac 3d 09 df 93 bd
       -0.033293787 0.09714466 0.084177606 -0.07220275
000350 62 99 a9 3b f6 c5 31 3d fb 8c e7 3d 78 04 bd 3d
       0.0051757554 0.04340168 0.11306187 0.09229368
000360 1c a2 06 3d a0 d2 cb 3d 85 87 ae 3d e2 5e 69 bd
       0.032869443 0.09952283 0.08521942 -0.056975253
000370 ec 95 c0 3c b6 a0 ab bd c4 17 8d 3d 26 ce aa 3d
       0.023508988 -0.083802626 0.068892986 0.08340101
000380 09 0e 50 3b 7e 2b a1 bd 24 8b 94 bb bf d8 ba bd
       0.0031746647 -0.078696236 -0.0045331884 -0.09123372
000390 f0 e8 81 bd 9c 33 f6 bd 71 8a 33 3c ff ef ed bc
       -0.063432574 -0.120215625 0.0109583 -0.029045103
0003a0 04 e0 ee 3b 7a 5a 29 3d ba d7 ce 3d 28 a8 9a 3d
       0.0072898883 0.04134605 0.1009974 0.075516045
0003b0 32 2a 53 3d 33 e8 11 3d e0 43 e3 bd e2 95 4b 3d
       0.051553912 0.035621833 -0.110969305 0.049703486
0003c0 82 10 02 3d 05 b8 b3 bd 13 eb af bd f8 5a 8e bd
       0.031754024 -0.08775333 -0.08589759 -0.06950945
0003d0 2b bd 0e 3e 17 d0 53 3d 9d a5 17 3d ad 7b 01 3e
       0.1393935 0.05171212 0.037023176 0.12644835
0003e0 39 c6 0a bd be 7c 80 bc 64 6e 5e bd 4b e7 2b bd
       -0.033880446 -0.015684482 -0.054304495 -0.041968625
0003f0 02 70 e7 ba b1 c1 f2 3c 2e a2 61 bc 81 d4 d0 3d
       -0.0017657282 0.029633375 -0.013771577 0.10196782

lstm.weight_ih_l1 f4 [256, 64]
000000 3b 20 97 bd 3c b5 9d 3d 36 3e 2b 3d b8 9f 02 3d
       -0.07379194 0.07700583 0.041807376 0.0318906
000010 cd 32 0d 3d 19 e6 bf bc e1 9b 07 be d1 63 82 3b
       0.034472276 -0.023425149 -0.13243057 0.003979184
000020 a1 70 01 bd 7d 98 1c bd 0b 7a a5 bc db 9d b4 3d
       -0.031601552 -0.03823136 -0.020199796 0.08819171
000030 47 88 2a 3d 94 18 cb bd e1 8f ed bd 85 f4 2e bd
       0.04163387 -0.09916797 -0.11599708 -0.04271366
000040 c8 f2 87 3b 80 ed 60 3d 8d 10 28 3d 81 c0 bd bd
       0.004148815 0.054913998 0.04103141 -0.09265233
000050 ba 03 78 3c a9 53 c3 bd eb 24 fb bc 10 74 fe bd
       0.015137607 -0.09537441 -0.030657252 -0.12424481
000060 72 9e 73 bd f4 a1 f9 3d 91 62 50 3d dc 0a fe 3d
       -0.059477277 0.12189093 0.05087525 0.12404415
000070 09 6a b1 3d af aa ab 3d 50 cf c7 bd 7f 1f 74 bd
       0.08662803 0.08382165 -0.097563386 -0.05960035
000080 12 e3 00 3d 4c 55 61 bd 62 87 68 bd 5c 33 ae 3d
       0.03146655 -0.055012986 -0.056769736 0.0850589
000090 cc 8c c3 bc 56 f5 db bd 2b 55 6a bc 8c 04 9d bd
       -0.023870848 -0.107401535 -0.014302532 -0.07666883
0000a0 f5 00 0b 3d 8f ea 13 bd 2b 75 70 bd 01 f7 0b bd
       0.03393646 -0.036112364 -0.05870549 -0.03417111
0000b0 bf 37 f4 3d 9e ba 01 3e 19 d9 ea bd 53 66 f8 3d
       0.11924695 0.12668845 -0.11467189 0.12128892
0000c0 3b 5b b7 3d 54 52 69 bc f4 39 ba bd 1b a4 ad bd
       0.08952948 -0.01424082 -0.09093085 -0.08478566
0000d0 90 7b a2 b9 af c5 bd 3d 8a 99 35 bd 39 f1 64 bd
       -0.0003099111 0.09266221 -0.04433588 -0.05589411
0000e0 3a 08 0e be b6 9d e2 3d 41 ad 2d 3d ad a2 5f 3d
       -0.13870326 0.11065237 0.042401556 0.0545985
0000f0 d6 15 d0 bd 40 68 cc bb 7f 47 1e 3d 64 23 b0 bd
       -0.10160415 -0.0062380135 0.038642403 -0.086005
000100 9c c8 ec bd 06 42 e4 bd d0 52 9e 3d 58 d7 8a bc
       -0.11561701 -0.111454055 0.07730639 -0.016948387
000110 85 55 fb 3d f0 ee 8a 3d 31 54 d6 bd d2 94 1d 3b
       0.12272171 0.06783855 -0.10465277 0.0024045003
000120 68 40 97 bd df d7 c5 bd b7 53 e3 bd cc 5d db 3d
       -0.073853314 -0.09660315 -0.11099952 0.1071125
000130 34 99 04 bd 52 fc 1b 3d 8f 34 cc bd 4f 97 6d 3d
       -0.03237267 0.03808243 -0.09970962 0.058005627
000140 b0 c7 00 bd 19 1f de bd 2b 1b d3 3c 59 41 22 bd
       -0.031440437 -0.10845775 0.02576979 -0.0396131
000150 c9 30 f1 bd f2 67 2c bc de d2 f7 bd 6a 44 1f 3b
       -0.11776883 -0.010522829 -0.121007666 0.0024302253
000160 3c c9 db bc 23 bf ff 3c 74 79 db bd ff f3 ce bd
       -0.026829354 0.03121907 -0.10716525 -0.10105132
000170 13 09 d6 bd a3 ff 91 bd 81 47 c5 bd 52 89 7d 3d
       -0.104509495 -0.07128837 -0.09632779 0.061898537
000180 6a e8 12 bd 53 db 7d bd 04 77 20 3d aa 5a b1 3d
       -0.03586618 -0.061976742 0.039176002 0.08659871
000190 96 d9 62 bd 4c 77 b0 3d 97 26 da 3d 1c 6e cf 3b
       -0.055383287 0.08616504 0.10651892 0.0063302647
0001a0 7e 4f f9 3c 6d ea 91 3c f0 3d 7d bd dd 0b c5 3d
       0.030433413 0.017811978 -0.061826646 0.09621403
0001b0 9c 48 c9 3c aa bf 0c 3b 83 21 1b bd c3 78 f5 3d
       0.024570756 0.0021476545 -0.037873756 0.11985924
0001c0 c4 07 42 3d dc 91 a4 bd 58 e4 d2 bd cb 4d 87 3d
       0.047370687 -0.08035633 -0.10297459 0.06606635
0001d0 2f 2e c2 3d 05 00 e1 bd d4 47 b2 bd 3e fd 10 bc
       0.09481465 -0.10986332 -0.087051064 -0.00884944
0001e0 b7 a4 3e 3d 39 7e a1 bd 91 d0 72 3d ff b8 64 bd
       0.046543803 -0.07885403 0.059280936 -0.05584049
0001f0 68 64 7d bd 00 8a d9 3d 62 81 44 bd 28 c5 a0 bd
       -0.061863333 0.106220245 -0.04797495 -0.078501046
000200 7b 45 a3 3d 62 d5 ea bd 1b 3c 17 3d 9e 7a 32 3c
       0.07972237 -0.11466481 0.036922555 0.010893492
000210 74 e8 b3 3d 3e 00 36 3d a0 f9 f1 bd a1 b8 cd 3c
       0.08784571 0.044433825 -0.1181519 0.025112452
000220 79 d9 4e 3d fd d1 96 bc 34 a8 6f 3d ae 0f a1 3b
       0.050500367 -0.018410677 0.05851002 0.0049151992
000230 af 12 49 3d 1a c3 ce bd 54 72 cd bd 3a 4f 65 bd
       0.049090084 -0.100958064 -0.10031572 -0.05598376
000240 2b 70 97 bd 00 05 89 bd 40 46 7a 3d 1b 76 0c 3e
       -0.07394441 -0.06690407 0.061102152 0.13716929
000250 7e 85 c0 bb d0 a3 06 3d 60 2d d9 bd 06 58 54 3d
       -0.0058752885 0.032871068 -0.10604358 0.05184176
000260 75 90 d4 3d a7 f6 02 be 0f 6d c0 bd 75 9a a7 3c
       0.103791155 -0.12789403 -0.09395801 0.020459393
000270 f2 0f 97 3d a9 f3 c1 bd 5b 49 9e bd ec b9 89 3c
       0.07376088 -0.094703026 -0.07728835 0.016812287
000280 45 e9 66 bd 1b fb cb 3d b2 be 3b 3c 4b 2b f1 3d
       -0.056374807 0.09960004 0.0114590395 0.117758356
000290 c9 ea c0 3d 47 27 8a 3c 1e 84 9c 3d 6f 99 d0 3d
       0.09419782 0.016864432 0.07642387 0.10185515
0002a0 0c 19 68 3d d3 b9 84 bd 40 8b f2 bd d8 85 02 bd
       0.05666451 -0.06480756 -0.11842966 -0.031865925
0002b0 0e a3 df 3d d2 0b b1 3c 92 53 bf bc 31 db 1c bd
       0.10919772 0.021612082 -0.02335528 -0.038294975
0002c0 c0 e1 31 3d 3c 5e 04 be 65 25 1e 3c 32 34 62 bc
       0.043428183 -0.12926573 0.00965247 -0.01380639
0002d0 a6 fd 33 bd f5 54 2d 3d b9 fe ac 3d 95 bb 7c bd
       -0.04394307 0.04231735 0.08447022 -0.06170233
0002e0 7d 18 bf bd f1 3f c0 bd 13 37 fd bc fe ea 91 3c
       -0.09330843 -0.09387196 -0.03091005 0.017812248
0002f0 6e f3 a0 3d ea 07 0d bd ae 24 8f 3d 7a e5 b0 bd
       0.078589305 -0.034431376 0.06989418 -0.08637519
000300 ec cb d6 bd 42 4b 24 3d 27 b5 e0 bd 16 b9 1e bd
       -0.10488114 0.040110834 -0.10972052 -0.03875073
000310 6a 5f 65 bd db c6 7d bd 45 02 c6 bd f4 aa 20 3d
       -0.055999197 -0.06195722 -0.09668402 0.039225534
000320 dd 28 cf 3b 7d 00 34 bc 2c 17 52 bd 94 c7 04 3d
       0.00632201 -0.010986445 -0.05129163 0.032416895
000330 4f e1 8f bd cf 29 3d 3c 88 62 f7 3b 0f b9 86 3c
       -0.07025396 0.0115456125 0.0075495876 0.016445665
000340 3d f1 f5 bd 31 ba 83 3d e6 ce da 3d 55 36 95 3c
       -0.12008903 0.064319976 0.10683994 0.018214384
000350 32 38 cf 3d 7b 8f 27 3d 3f cb 43 bd 98 6f 26 3d
       0.1011814 0.040908318 -0.047801252 0.040633768
000360 3d 4b 88 bd bc 7f 88 bc 36 0d 79 bd d3 89 03 3d
       -0.066549756 -0.016662471 -0.060803615 0.03211386
000370 e0 73 d1 bd 27 c3 7b 3c de ca 04 3e 3a bf b1 bd
       -0.102271795 0.015366352 0.12968013 -0.08679052
000380 f7 fc 4c bd 21 46 68 3d af 73 68 bd a7 10 c1 3d
       -0.050045934 0.056707505 -0.05675095 0.09427004
000390 fd 23 ad bd ae 7a bd 3d 91 e1 b6 bd 54 0e c1 3d
       -0.0845413 0.09251915 -0.08929742 0.09426561
0003a0 e6 2e 93 3d 40 4f a8 3d 10 68 b6 bd 2c 24 88 3d
       0.071866795 0.08218241 -0.08906567 0.06647524
0003b0 b0 e9 6c bc 81 28 3a bd cd 61 c6 bd 21 8c 93 3c
       -0.014460012 -0.045448784 -0.09686623 0.018011155
0003c0 dc e7 41 bd ee 07 b1 bd 14 35 e4 bd af 9b 13 3e
       -0.04734026 -0.086440906 -0.11142936 0.14414857
0003d0 a0 4d 5e bc 31 c4 81 bd 46 df b5 3c 66 1f 1b 3c
       -0.013568312 -0.06336249 0.022201192 0.009467935
0003e0 b2 0b cb bd 69 57 88 bc d2 25 a1 3d 50 b9 d0 3d
       -0.0991434 -0.016643243 0.07868542 0.101915956
0003f0 c3 35 21 bd 09 1e 2b 3d 95 9d e8 bc a3 c6 67 3d
       -0.03935791 0.04177669 -0.028395453 0.05658592

lstm.weight_hh_l1 f4 [256, 64]
000000 35 bb d8 b9 57 a2 98 3d 1d e6 a6 bd 3a ba 8e 3d
       -0.0004133821 0.07452839 -0.081493594 0.06969114
000010 93 7f fe 3d fa a0 0e 3e 64 f8 f0 bc 32 24 98 bd
       0.124266766 0.13928595 -0.029415317 -0.07428779
000020 9b 22 00 3e d2 8e d4 3b bb 50 24 3b 5c 15 8c bd
       0.12513201 0.006486752 0.0025072533 -0.068400115
000030 b5 af d0 bc 6b 30 d0 bd b6 7f 6d bd 7c b2 ad 3d
       -0.025474409 -0.10165485 -0.057983123 0.08481309
000040 06 4d 88 3d 52 83 f3 bd 78 5f d2 3c 89 b0 29 bd
       0.06655316 -0.11890282 0.025680289 -0.041428123
000050 ae a6 3d 3b 89 97 90 bd 13 ca 1d bd d7 69 c8 3d
       0.002893846 -0.07060153 -0.03852279 0.09785812
000060 3f fd 8f bd ac 08 7d 3d 09 c9 04 3e fa e5 fa 3d
       -0.07030725 0.06177585 0.12967314 0.12250896
000070 ac 37 97 bd e4 c4 a6 bd 6d ce 25 3d 5e e4 8c 3d
       -0.073836654 -0.08143023 0.040480066 0.06879495
000080 3a cb 71 3d dc 6a a3 3d 2d a4 05 be f4 ac 8d 3d
       0.059031703 0.07979366 -0.1305091 0.06917754
000090 2c 0d b5 3d 10 29 a0 bc e3 9b e6 3d 32 59 d9 38
       0.08840403 -0.01955083 0.11260202 0.0001036398
0000a0 ce 11 46 bc 9f eb 4a 3c be 67 e4 bd 9c 58 09 39
       -0.012089206 0.012385278 -0.111526 0.00013098348
0000b0 e4 51 d4 3d 1a ab 39 3d 1f 12 f7 3d ee 1f 62 3c
       0.10367182 0.04532919 0.12064003 0.013801558
0000c0 d2 45 9b 3d 89 65 c7 3d f3 bb 2d bd 34 05 88 bd
       0.075816765 0.09736163 -0.04241557 -0.066416174
0000d0 51 b4 d2 3d 7c 77 78 3d 04 4d 01 be 21 30 ec bc
       0.10288299 0.060660824 -0.12627035 -0.028831543
0000e0 c5 1f a0 bd 8b 8e ae 3c fa 36 0d be d4 08 f3 bd
       -0.078185596 0.021308204 -0.13790503 -0.11866918
0000f0 f4 39 9a bd 42 0e f7 3d b3 be 80 3c 3a 09 ae 3d
       -0.07530585 0.12063266 0.015715932 0.084978536
000100 4b bb c8 3a 85 40 f0 3d c7 68 39 3d c0 e3 ef 3d
       0.0015314607 0.11731056 0.04526594 0.11713362
000110 7f a7 4a bd ee 26 99 3d 4c 41 f4 bd ff 76 27 bc
       -0.049476143 0.074781284 -0.11926517 -0.010221242
000120 7d 22 93 3d 86 8e e3 bd 92 65 02 3e fe c8 a4 bd
       0.071843125 -0.111111686 0.12734058 -0.08046149
000130 25 71 50 bd 1d 07 84 3d aa 71 d7 3d 9b 4b 3b 3c
       -0.050889153 0.06446669 0.105197266 0.0114316
000140 8c 68 01 be b4 0e 21 bd 1d 1b 44 3d 22 fa bb bd
       -0.12637538 -0.039320663 0.04787742 -0.091785684
000150 29 9f 7b bc 5f 06 5d bd 5a 03 8b bd fa 9d 93 bd
       -0.015357771 -0.053961154 -0.06787749 -0.07207866
000160 13 12 8c bd 11 bb bf 3c 81 3f f8 bc 3d a9 13 bc
       -0.06839385 0.02340463 -0.030303719 -0.0090125175
000170 16 05 27 3c c1 19 97 3d ea 14 b2 3c 98 c8 13 3d
       0.010194084 0.07377959 0.021738488 0.036079973
000180 0b b8 61 3c 01 7d 3c 3b 2d 7a c5 bc 2e e1 aa 3d
       0.013776789 0.0028761032 -0.02410611 0.08343731
000190 e2 6c f3 3c b1 dd 13 bd f1 1a 65 bd 6e 32 a0 3d
       0.029715005 -0.036100093 -0.055933896 0.07822119
0001a0 65 88 41 bd 27 2d 43 bd a4 04 91 bd dd 00 03 be
       -0.047249217 -0.047650483 -0.07080963 -0.12793298
0001b0 8a 61 c3 bd 25 ab ee 3d 6f a2 46 3b 2c c0 84 3c
       -0.095400885 0.11653737 0.003030922 0.016204916
0001c0 7b 89 ea bc 9a dd a7 bd f0 61 c5 bc 34 05 f6 bc
       -0.028630009 -0.08196564 -0.024094552 -0.030031778
0001d0 fa 96 b9 3d b2 73 08 3e e1 90 9d 3d 2b 3d 48 3d
       0.090619996 0.13325384 0.07693649 0.04888646
0001e0 ca a8 05 3e 9f df 30 bd 3b ea bc 3d 1b e4 50 bd
       0.13052669 -0.04318201 0.092243634 -0.05099879
0001f0 54 47 f6 3b 81 e8 f7 bd 6b b3 72 bd 0b c8 e5 3d
       0.007515827 -0.121048935 -0.059253138 0.11219796
000200 1f fd 11 3d dd 5d 71 bd ac 8e 3e bd 7d be 6c 3d
       0.035641786 -0.058927406 -0.04652278 0.05779885
000210 48 ce d3 bd e9 d3 6f bd d7 e0 03 3e 43 f7 8b bd
       -0.103420794 -0.058551703 0.12878738 -0.06834271
000220 6d ce fb 3d 31 fb e4 bd a3 ff a5 3d 53 a1 12 bd
       0.12295232 -0.111807235 0.081053995 -0.035798382
000230 6e 77 79 3d 44 5d 8f 3d 18 41 c5 bd a4 a7 c4 bd
       0.060904913 0.07000211 -0.09631556 -0.096022874
000240 e6 9d a1 bd 08 c1 54 3d 58 2c 31 bd 98 fc c4 3d
       -0.07891445 0.0519419 -0.04325518 0.09618491
000250 c8 56 17 bd 8a 41 84 3d 3c 82 15 3d 37 7e a8 3c
       -0.036947995 0.06457813 0.036501154 0.020567996
000260 9c c3 9a 3c 21 cd a7 bd 47 38 cb 3d 17 82 d4 bd
       0.018892102 -0.08193422 0.099228434 -0.10376375
000270 18 98 e6 bc 8c 48 68 3d 9e cb fa 3d b8 b3 b0 bb
       -0.028148696 0.05670981 0.12245868 -0.005392518
000280 db f4 6b 3d c9 8c d8 bd e8 83 ae 3d 5a ac f2 bc
       0.05760656 -0.10573728 0.08521253 -0.0296232
000290 f1 8a e6 bd 0f dd 34 3d a3 94 ed 3d e6 01 d8 3d
       -0.1125697 0.04415613 0.11600616 0.10547237
0002a0 26 b6 97 3b 3c d6 a0 3d 79 b6 5e bd f5 63 09 3d
       0.004629868 0.07853362 -0.05437324 0.033542592
0002b0 5f 87 c5 bd 02 21 2b bd 92 c0 80 bd 76 3e d4 3d
       -0.096449606 -0.041779526 -0.0628673 0.10363476
0002c0 fe 9d 07 bd 5f dd 8d bd 71 ca 02 be 67 b4 b5 3d
       -0.033109657 -0.06926989 -0.12772538 0.088723
0002d0 98 bf a0 3d 68 89 70 3d d7 18 79 bd 3d 8a 61 bd
       0.078490436 0.05872479 -0.060814705 -0.055063475
0002e0 a7 bd 82 bd 3d c5 a6 bd 0c 49 90 bd 03 e6 77 3d
       -0.063838296 -0.08143089 -0.070451826 0.06052209
0002f0 66 b6 0b be e5 0c d3 3d 95 84 09 3e 7b d9 86 bd
       -0.13643798 0.10305194 0.13429482 -0.0658445
000300 a1 1e 7c 3c 5b 7e 2c bd 06 07 32 bd 36 e1 9f 3d
       0.015388162 -0.04211269 -0.04346373 0.078066275
000310 1c 80 1a 39 a9 f5 e5 bd cb cf 1f bc 51 cb db 3d
       0.00014734309 -0.112284966 -0.009754132 0.10732139
000320 1f ee 72 3d 93 49 a4 bd 7f ce 78 3d 99 7e 53 3d
       0.05930912 -0.08021846 0.060743805 0.051634405
000330 0f 05 be 3d 69 f2 12 3c 00 c5 c6 3d 45 5f 76 bc
       0.092783086 0.008968928 0.097055435 -0.015037362
000340 4b c8 b2 3d 73 8d 9c bc 73 0b 4f bd d9 e6 95 bd
       0.08729609 -0.019110417 -0.05054803 -0.07319421
000350 e8 d3 a0 3c a5 5e c6 bd 73 84 fd 3d 30 8f 2f 3d
       0.019632295 -0.09686021 0.12378778 0.042861164
000360 b5 68 fc bd a8 2f b6 bd 15 f9 cc 3c 8b c8 e2 bb
       -0.12324659 -0.088958085 0.025021115 -0.0069208792
000370 19 81 0f bd c4 ce 0b 3e 99 ac 75 3d b9 95 34 bd
       -0.035035226 0.13653094 0.059979055 -0.0440881
000380 8a f1 7e bc 83 f3 2f bd 3e d9 9f bc ec 1e 85 bd
       -0.015560517 -0.04295684 -0.019512769 -0.065000385
000390 f3 77 0b bd 37 65 e3 bc f0 7d 76 bd c2 a4 6f 3d
       -0.03404994 -0.027758224 -0.060178697 0.058506735
0003a0 f4 25 a5 3c e4 29 b6 bb e5 08 1d bd a2 d9 35 bd
       0.020159699 -0.005559193 -0.03833856 -0.044397004
0003b0 b5 da e1 bd 3e dd 21 bd c0 15 cf bb 32 98 c5 3d
       -0.11028043 -0.039517634 -0.0063197315 0.096481696
0003c0 f8 47 86 3d 50 91 65 bd e9 de 8a bc 25 10 9e 3d
       0.06556696 -0.056046784 -0.016951995 0.07717923
0003d0 72 c4 0b 3d f9 80 e1 3d 8c c6 9e 3d bc a8 e5 3c
       0.03412289 0.11010928 0.077527136 0.02803456
0003e0 82 b4 ad 3d 94 16 66 bd 13 47 c8 bd 5d af fe bd
       0.08481695 -0.056173876 -0.09779181 -0.12435792
0003f0 e2 60 e8 3d 02 3c 37 bd 71 dc b8 3d 20 ba 10 be
       0.11346604 -0.044734962 0.09026421 -0.14133501

lstm.bias_ih_l1 f4 [256]
000000 b6 b5 c8 bd 8e 1b 9e 3d 14 99 d7 3d d1 49 01 bd
       -0.098002836 0.077200994 0.10527244 -0.031564537
000010 eb 06 23 bd be cd 1d bc da 3c b6 3d ff 3e 0e bd
       -0.03980152 -0.009631572 0.08898325 -0.034728047
000020 42 9c 19 bd b5 31 14 3e 90 1a 19 3d 1b b6 72 bd
       -0.037502535 0.14472087 0.037378848 -0.0592557
000030 7d 41 0e be a9 93 c1 3c 53 4d 4e 3d 1f 8b 02 3e
       -0.1389217 0.02362998 0.05036671 0.12748383
000040 16 7e 88 bd d8 83 ca 3d ed fc ac 3d c5 98 d6 bd
       -0.06664674 0.098884284 0.08446679 -0.10478357
000050 b9 ac d3 bd 0a d2 ce 3c 95 26 be 3d 3d b8 b1 bc
       -0.103356786 0.025246639 0.09284703 -0.021694297
000060 d1 24 cf bd 30 16 14 3e 2d 21 80 bd cd cd e8 3d
       -0.10114444 0.14461589 -0.06256328 0.113673784
000070 b1 05 d5 bd 3c fd 85 3d a8 55 ac 3c 5c 45 df bd
       -0.10401476 0.06542441 0.021036938 -0.10901901
000080 aa 82 3a 3c 87 d4 ad bd 68 b4 3a bd ec fb a8 bd
       0.011383692 -0.08487802 -0.045582205 -0.08251175
000090 97 7c f1 bd 44 e4 a0 bd b4 ce 98 3d 32 d4 86 3d
       -0.11791342 -0.07856038 0.074613005 0.06583442
0000a0 f3 f2 9c 3c 2c a3 90 bd 4b 84 89 bd 05 0b 62 3b
       0.019158816 -0.070623726 -0.06714686 0.0034491431
0000b0 eb 89 a0 3d 4f 07 0e 3e f0 d4 20 bd 0d f0 2b bc
       0.07838806 0.13869976 -0.039265573 -0.010494244
0000c0 4a 2c 17 3d cf 24 5b bd 68 61 62 3d 54 31 81 bd
       0.03690747 -0.0535019 0.055268675 -0.06308237
0000d0 df 6a 99 3d 31 dc 82 3d 71 6f 21 3d 87 a4 87 bd
       0.07491087 0.063896544 0.03941292 -0.06623178
0000e0 de fa 45 bd 5b 1d d0 bb 02 18 d9 3d 26 97 ae bd
       -0.04833495 -0.0063511557 0.10600282 -0.08524923
0000f0 a1 ad 2f bd b5 0e 11 bd 9c 37 87 3d 23 76 0f be
       -0.042890195 -0.035414416 0.066024035 -0.1400991
000100 30 92 37 3d 31 98 6c 3c f0 17 a5 bd 7d 37 07 ba
       0.04481715 0.014440582 -0.08061206 -0.00051581097
000110 6b 36 82 bd ef 9b ce bd 3a a6 6e bd 1c 99 ef 3d
       -0.06358036 -0.10088336 -0.058263995 0.11699125
000120 99 57 b3 3d 68 32 33 bd 5c 48 48 bd e0 fe ff ba
       0.08756942 -0.043749243 -0.048897132 -0.0019530915
000130 b9 d0 3d bd b8 93 f7 bc e2 0b c6 bd 98 23 c5 3d
       -0.04634163 -0.030221805 -0.09670235 0.096259296
000140 7b 4f f8 3c 5e 29 d9 3b 04 76 ab bd fc d6 bd 3c
       0.030311337 0.006627246 -0.08372119 0.023173802
000150 21 20 ae 3d f4 a0 97 bd 78 bf a2 3d 9d 49 eb bc
       0.08502222 -0.07403746 0.07946676 -0.028721625
000160 87 da c9 bb 69 01 33 bc 98 f4 b4 3d a6 ae 64 3d
       -0.0061600837 -0.010925629 0.08835715 0.05583062
000170 97 06 52 3d af 97 2d 3c 16 cf 17 bc ce 5b d7 3c
       0.051275816 0.010595246 -0.009265682 0.026288893
000180 b6 b1 74 bd 31 8c bd bd 25 3e 50 3d 24 54 1d bd
       -0.05973979 -0.09255255 0.050840516 -0.03841032
000190 6a ec 6a 3d 96 dc c0 3d 67 0c 10 bd 5c 88 11 3e
       0.05735437 0.094170734 -0.035168078 0.14212173
0001a0 9e 39 fe 3d 92 3d 93 3d db d3 3b ba 92 51 16 3d
       0.12413333 0.07189478 -0.0007165053 0.036698885
0001b0 b4 03 af bd 0b 40 96 3b c7 58 a7 bd 38 c0 84 3d
       -0.08545628 0.0045852712 -0.0817123 0.06481975
0001c0 00 90 a8 bc 5a a0 c0 3c 6d 20 83 3d aa ce 90 3d
       -0.020576477 0.023513962 0.06402669 0.07070668
0001d0 21 0b 57 3c 24 d5 92 3d e9 03 aa bc 72 8b c2 3d
       0.013125212 0.071695596 -0.020753818 0.09499253
0001e0 a3 1e b8 bd b2 9b f2 3c 88 f3 8b 3d 8e 62 39 bc
       -0.089902185 0.029615257 0.06833559 -0.011315001
0001f0 79 3c 7f bd 25 43 c3 bd a1 4b e2 3d 5c be 01 be
       -0.06231353 -0.09534291 0.11049581 -0.12670273
000200 7a 66 ef 3c 50 ce b1 3c 90 c2 0e bd c9 31 51 3d
       0.02922367 0.021704823 -0.034853518 0.05107287
000210 b8 af 84 bd 7a 4e 38 bd c6 84 d3 bc f1 96 af bd
       -0.06478828 -0.044996716 -0.025820147 -0.08573712
000220 f3 7b db bd 23 4c 9a bd c2 94 d1 3d 53 34 0b 39
       -0.10717001 -0.07534053 0.102334514 0.00013275565
000230 4e 5c bb 3d f5 0c c1 3d fe aa 61 bd 60 11 fc bc
       0.09148465 0.094262995 -0.05509471 -0.030770004
000240 5e c5 ba bd 74 1b a2 3c 6c fb c0 bc 34 0a 94 bd
       -0.09119676 0.019788481 -0.023557387 -0.072285086
000250 f7 96 ab bd 98 06 09 bd 16 fe 33 bd 99 30 b6 3d
       -0.08378404 -0.033453554 -0.043943487 0.08895988
000260 18 b4 3b 3d cb c9 b6 bd 75 fc 10 be c8 af 71 3d
       0.045826048 -0.08925208 -0.14158805 0.05900553
000270 22 98 a0 bd 9c d0 cc 3d d5 13 23 3c ee ce 95 bc
       -0.07841517 0.100007266 0.009953459 -0.018287148
000280 a2 22 bb 3d b5 33 c8 bd b8 ef bf 3c a8 ca 70 3c
       0.09137465 -0.09775487 0.023429736 0.0146967545
000290 79 eb 0f 3d 1f 57 26 3d 52 b9 cf bd 88 fa ae 3d
       0.035136674 0.04061043 -0.10142769 0.08543879
0002a0 6b c9 3f 3d 05 22 68 3d 84 2e b1 bd 98 25 3d 3d
       0.046822947 0.05667307 -0.0865145 0.04617843
0002b0 70 10 7b 3d b7 2b 6e bc 43 3a f9 3b 65 e2 94 3c
       0.061294973 -0.01453679 0.0076058223 0.01817436
0002c0 57 cb ac 3c e6 7a 0a be 58 eb 19 3d ea 10 2d 3d
       0.021093054 -0.13523445 0.037577957 0.04225246
0002d0 4b 9f bb 3d ae d3 86 3d 75 95 a5 bd 9a e5 91 bd
       0.09161242 0.065833434 -0.08085147 -0.07123871
0002e0 0d b8 54 3d e8 e1 5f 3d ca a5 f0 3d 8a c8 a7 3d
       0.051933337 0.0546588 0.11750372 0.08192547
0002f0 8c be 7a 3d a9 14 cd 3c a4 b9 93 bd d2 0d c8 3c
       0.061216876 0.025034266 -0.072131425 0.024420653
000300 da ca b0 3d b3 43 f2 3d 4d 1f 07 be 4c c7 22 3d
       0.08632441 0.11829319 -0.13195534 0.039740846
000310 91 96 96 3d 32 61 47 bd 8e c4 6c bd ef b9 94 bd
       0.07352937 -0.048676677 -0.057804637 -0.072620265
000320 c5 ae c0 3d b6 c5 06 3d 25 fc ea 3c 66 86 f3 3b
       0.09408335 0.032903396 0.028684685 0.007431793
000330 88 16 48 bd dd 20 f5 3c d6 96 47 3d b0 c5 c2 bd
       -0.048849612 0.029922897 0.048727833 -0.09510362
000340 84 ae 49 bd 92 a8 80 bd 87 74 05 bd 7e 75 1b 3d
       -0.049238697 -0.06282152 -0.032581832 0.037953846
000350 9a 8a cc 3d 3f 80 c0 bc dc 8d 9e 3d 4d 3b 8a 3d
       0.09987374 -0.023498653 0.07741901 0.06749592
000360 55 8f 3f bc 01 e9 9b bc 6f b6 02 3e de 48 f9 bd
       -0.011691888 -0.019032003 0.12764905 -0.121721014
000370 cd 06 ab bd f0 ec c6 bd c4 78 90 bd 62 58 9f bd
       -0.083509065 -0.09713161 -0.07054284 -0.077805296
000380 d4 f7 b7 bd a2 11 44 3d 83 e0 08 be 4b 24 aa bd
       -0.08982816 0.04786838 -0.13366894 -0.083077036
000390 95 49 d6 bc 29 43 e7 bd cf 8f 64 3c 00 35 fe 3d
       -0.026158134 -0.11292107 0.013950302 0.12412453
0003a0 45 c0 dd 3d 6f ff 8d 3d 3a eb ca bd f6 22 2a 3d
       0.10827688 0.06933486 -0.09908147 0.041537248
0003b0 ab ae 31 3b cf 6a dc 3d e7 33 05 3e 1f 49 f2 bd
       0.0027112167 0.107625596 0.1300808 -0.11830353
0003c0 91 93 d7 bd 42 fb 17 bd 8f 91 bc 3b 11 da b4 bd
       -0.10526193 -0.037104852 0.0057546566 -0.08830655
0003d0 a1 d2 e4 bc 50 fb 68 bd ff 9b ea bd 57 13 36 bd
       -0.027932467 -0.056880295 -0.11455535 -0.044452038
0003e0 57 f8 6a bd 87 66 18 3c 69 c6 a5 bd 80 b8 89 3d
       -0.05736574 0.009301788 -0.08094484 0.06724644
0003f0 9f 47 dd bc 29 5e 64 3d aa 1d 7b bd 39 b2 ff bd
       -0.02701169 0.05575386 -0.061307587 -0.12485165
