src/Backend-Information/Clod-weather_predict/Shandong_lstm_model.pth (torch, 208379 bytes, 11 tensors)

lstm.weight_ih_l0 f4 [256, 3]
0	0xbce196c4	-0.027537711
1	0xbdc416b1	-0.095746405
2	0xbd2641c0	-0.040590048
3	0x3c1737df	0.009229629
4	0x3dec1a81	0.11528493
5	0xbd5966d8	-0.053076595
6	0x3dd34b98	0.10317153
7	0x3d1f1f75	0.03884836
8	0x3dcee96c	0.101031154
9	0x3d7fe3dd	0.062473167
10	0xbe210c21	-0.15727283
11	0xbc9a5070	-0.018837184
12	0xbdd7a858	-0.10530156
13	0x3e0e9116	0.13922533
14	0x3c1bdd30	0.009513184
15	0x3ddf5987	0.10905748
16	0xbd78cfe1	-0.060745124
17	0xbdcc9260	-0.09988856
18	0x3cf4250c	0.029802822
19	0xbd1beda3	-0.038068425
20	0x3da93f06	0.08263974
21	0xbd3f6b09	-0.046732936
22	0x3b8c83fc	0.0042881947
23	0xbda3d838	-0.08000225
24	0xbdbc8d41	-0.092066295
25	0x3e0282f1	0.12745263
26	0xbd8c27c6	-0.06843524
27	0xbdfda67f	-0.12385272
28	0x3d5315f4	0.051534608
29	0xbdc18390	-0.09448922
30	0x3d491c2c	0.049099132
31	0xbd96ddaf	-0.073665015
32	0x3dad19a2	0.08452155
33	0xbb900c94	-0.0043960307
34	0xbd668de9	-0.05628768
35	0xbdccdfca	-0.10003622
36	0x3ca62c96	0.020284932
37	0x3c827065	0.015922735
38	0xbc444c90	-0.011981145
39	0x3da0a5ba	0.0784411
40	0xbdf41582	-0.11918165
41	0x3d95a962	0.07307698
42	0xbbef5678	-0.007304009
43	0xbe1e5222	-0.15461019
44	0xbd9f2d40	-0.07772303
45	0x3ddbfdd9	0.10741777
46	0x3d7a660b	0.061132472
47	0xbd61bb2c	-0.05511014
48	0x3d6984db	0.057011466
49	0xbe279aa1	-0.1636758
50	0xbc6a08e0	-0.0142843425
51	0x3e1c800d	0.15283222
52	0xbd9018f2	-0.07036008
53	0x3dcbf0e0	0.09958053
54	0xbce96769	-0.028491693
55	0x3c10f016	0.008846303
56	0xbacca100	-0.0015611947
57	0x3c8a292e	0.01686534
58	0x3d8b7166	0.068087384
59	0xbce60ae0	-0.028081357
60	0x3c6d84e7	0.014497018
61	0x3cfdf9d0	0.031002909
62	0x3d8abd68	0.067744076
63	0xbc467016	-0.012111684
64	0xbdfd5086	-0.12368874
65	0xbd75c5f8	-0.06000325
66	0xbd1e5541	-0.038655523
67	0x3d4af708	0.049551994
68	0xbda5af2a	-0.080900505
69	0xbc238655	-0.009980758
70	0x3da01680	0.078167915
71	0x3c94ff28	0.018188074
72	0x3d86ab1d	0.06575606
73	0xbde40576	-0.11133854
74	0xbcdb7318	-0.02678828
75	0x3d45a50b	0.0482531
76	0x3d6bf4b9	0.057606433
77	0xbc76fdb0	-0.015075132
78	0xbe1c2c6f	-0.15251325
79	0x3e33d457	0.1756147
80	0x3ddddc3a	0.108330205
81	0xbd8532f9	-0.06503863
82	0xbc5f228d	-0.013619077
83	0x3dafe6a2	0.085889116
84	0xbd5ec519	-0.054387186
85	0xbe019017	-0.12652622
86	0x3d9b51d6	0.07583968
87	0xbd21167c	-0.039328083
88	0xbdd209d0	-0.10255778
89	0x3dbd6504	0.09247783
90	0x3d6df1cc	0.058091924
91	0x3d26de3a	0.040739276
92	0x3d6a828c	0.057253405
93	0x3d9b48bb	0.075822316
94	0xbd5ed05e	-0.054397933
95	0xbde2711c	-0.1105673
96	0x3c81e7a1	0.01585752
97	0xbd1303da	-0.035892345
98	0x3d6b37b4	0.05742617
99	0x3dd6b42a	0.10483582
100	0xbdedf4d2	-0.116189614
101	0xbcb26808	-0.021778122
102	0xbc2cab59	-0.010538899
103	0xbe3cdaab	-0.1844279
104	0xbc702560	-0.014657348
105	0x3dccabc8	0.09993702
106	0xbdfaeeed	-0.12252603
107	0xbd1ff2f8	-0.039050072
108	0xbd6ac3bf	-0.057315584
109	0xbd37c733	-0.044867706
110	0x3d4fb800	0.050712585
111	0x3d402fe3	0.04692067
112	0x3d97952b	0.074014984
113	0xbd262a2c	-0.040567562
114	0x3ca2808f	0.019836692
115	0xbdb065b8	-0.08613151
116	0x3db8054e	0.08985387
117	0xbddd4f15	-0.10806099
118	0x3dccdd26	0.10003118
119	0x3dcb0560	0.099131346
120	0x3c1fddeb	0.009757499
121	0x3dcd34d9	0.100198455
122	0x3d79ed7c	0.0610175
123	0x3c6c74d5	0.014432152
124	0xbe2818c9	-0.16415705
125	0xbdb57154	-0.08859506
126	0xbdfccac4	-0.12343362
127	0xbbde015c	-0.0067750644
128	0xbd29d1bc	-0.041459784
129	0xbcfa953b	-0.030588737
130	0x3d960b9e	0.073264346
131	0xbd5b65bc	-0.05356382
132	0x3d4770b8	0.04869148
133	0xbe32b003	-0.17449956
134	0x3d2a8024	0.04162611
135	0xbd7db41c	-0.061939344
136	0xbd3a85b6	-0.045537673
137	0x3d7b85f8	0.06140706
138	0xbd88ece3	-0.066858076
139	0xbca79e22	-0.020461146
140	0x3dc2abe8	0.09505445
141	0x3d2f14ba	0.042744376
142	0x3e01ed5d	0.12688203
143	0xbc249e50	-0.01004751
144	0xbd256fe1	-0.0403899
145	0xbe0900da	-0.13379231
146	0x3dfe6cd6	0.124231026
147	0xbde8536b	-0.11344036
148	0x3a8097d1	0.000981087
149	0x3cd0e8d8	0.025501654
150	0x3e0779af	0.13230012
151	0xbd9910ae	-0.074738845
152	0xbd77d3a4	-0.06050457
153	0x3e12ce5b	0.14336531
154	0xbe24c435	-0.16090472
155	0x3df6f24e	0.12057935
156	0x3d81daa1	0.06340528
157	0x3d35a126	0.044343136
158	0xbd091b70	-0.033473432
159	0xbd3a6437	-0.04550573
160	0x3c7d5337	0.0154617345
161	0x3def3120	0.11679292
162	0x3d5412ab	0.051775616
163	0xbe15baff	-0.14622115
164	0x3cdecff8	0.027198777
165	0x3de0db03	0.10979273
166	0xbdd9b926	-0.106310174
167	0x3dabd50e	0.08390246
168	0x3e3adc88	0.18248188
169	0x3c604c0c	0.013690006
170	0xbd7b38b0	-0.06133336
171	0x3d57e6ab	0.052710216
172	0xbdfe0e98	-0.12405127
173	0x3d877504	0.06614116
174	0x3d9027ec	0.070388645
175	0xbddf1455	-0.1089255
176	0x3d5ea3d8	0.054355472
177	0x3d902bf1	0.07039631
178	0xbda155f2	-0.07877721
179	0xbde732de	-0.11288999
180	0xbdca3e6f	-0.098751895
181	0x3d615b06	0.055018447
182	0x3d423608	0.04741481
183	0xbdc11dc2	-0.09429504
184	0xbd1cc983	-0.038278114
185	0xbdb92924	-0.0904105
186	0xbbca42ce	-0.0061725145
187	0xbe12709a	-0.14300767
188	0x3c7ea760	0.015542835
189	0xbce718b9	-0.02821003
190	0xbd4a7dd4	-0.049436405
191	0xbcec10a8	-0.028816536
192	0xbbdcc9c7	-0.006737921
193	0x3ce39603	0.027781492
194	0x3d55f2e8	0.052233607
195	0xbe04ef08	-0.12981808
196	0xbd4dd751	-0.05025417
197	0xbde9482e	-0.1139072
198	0xbe03cac4	-0.12870318
199	0x3d9844bf	0.07434987
200	0xbdd83ff2	-0.105590716
201	0x3a308882	0.00067342084
202	0x3d6769b7	0.056497302
203	0xbc761fb0	-0.015022203
204	0xbd8fe92e	-0.07026897
205	0x3e227970	0.15866637
206	0xbd21a5b4	-0.039464667
207	0xbe09e52a	-0.13466325
208	0x3e132293	0.14368658
209	0x3d99ef5a	0.07516356
210	0xbe10dfd2	-0.1414788
211	0x3e1c7160	0.15277624
212	0x3c83c540	0.016085267
213	0xbd0a7637	-0.033804145
214	0x3d8398f2	0.064256564
215	0x3d6f3d58	0.05840811
216	0x3ce698c8	0.028149024
217	0xbd2977df	-0.041374084
218	0x3dd8caa2	0.10585524
219	0xbe108755	-0.14114125
220	0x3ba1239e	0.004917576
221	0xbd1acaa8	-0.037790924
222	0x3cc13274	0.023583628
223	0x3d817e46	0.06322913
224	0x3ddf6406	0.1090775
225	0x3d0faec0	0.035078764
226	0x3d970a09	0.07374961
227	0x3d51b018	0.051193327
228	0x3d786129	0.060639534
229	0x3c81c3a8	0.015840366
230	0xbc879f70	-0.016555518
231	0x3c4d83e3	0.012543651
232	0xbc9c1f23	-0.019057816
233	0x3dab9d04	0.08379558
234	0xbd83be4f	-0.06432783
235	0xbd8abd9a	-0.06774445
236	0xbbcc7aa0	-0.006240204
237	0xbddf03a6	-0.10889368
238	0x3de6a9e1	0.112628706
239	0x3c47f4a0	0.012204319
240	0x3b6f1c3e	0.003648534
241	0xbcab8eee	-0.020942178
242	0xbdda3cc2	-0.1065612
243	0x3d98b10a	0.074556425
244	0x3c8c7263	0.017144388
245	0xbdaa590e	-0.08317767
246	0xbe150ce9	-0.14555706
247	0x3e24fd3f	0.1611223
248	0x3c88c068	0.016693309
249	0xbe09c785	-0.13455017
250	0xbd47dcd1	-0.04879457
251	0x3c8306f8	0.015994534
252	0xbd8cb601	-0.06870652
253	0x3e299aab	0.16562907
254	0x3b321640	0.0027173907
255	0x3e08f5b4	0.13374978

lstm.weight_hh_l0 f4 [256, 64]
0	0x3c921427	0.017831875
1	0xbd4310ef	-0.04762357
2	0xbdad150d	-0.08451281
3	0xbd546002	-0.051849373
4	0xbdc1ec30	-0.09468877
5	0x3da52382	0.08063413
6	0xbdd33306	-0.10312466
7	0xbdb78011	-0.089599736
8	0xbd5cd7a7	-0.0539166
9	0x3b2cb4c7	0.002635287
10	0x3d8fdab2	0.07024135
11	0xbcda2533	-0.026629066
12	0x3d89ba90	0.06725037
13	0xbcaeb205	-0.02132512
14	0x3caf16d5	0.021373192
15	0xbc6ba77a	-0.014383191
16	0x3e176fa8	0.14788687
17	0xbdb87d7a	-0.09008308
18	0xbcc9e32b	-0.024644455
19	0x3d7789c4	0.060434118
20	0x3dbf905b	0.093537055
21	0xbde46f36	-0.11154024
22	0xbe1ed974	-0.1551264
23	0x3d86be4f	0.06579267
24	0x3cb17156	0.021660488
25	0x3cf1892e	0.029484358
26	0x3c76ea1f	0.015070467
27	0x3c3b2875	0.01142322
28	0xbe214de1	-0.15752365
29	0x3dc5f6ed	0.09666238
30	0xbd9fbf4d	-0.078001596
31	0xbe047c17	-0.12937962
32	0xbe026e66	-0.12737426
33	0x3dd223ed	0.102607585
34	0x3e0af19c	0.13568729
35	0x3cb52582	0.022112612
36	0xbe272605	-0.16323097
37	0xbc91d778	-0.017802939
38	0x3db803f0	0.08985126
39	0xbc5cb90a	-0.013471851
40	0xbce8a026	-0.028396677
41	0xbde77c2f	-0.11302983
42	0xbd73fe3d	-0.059568632
43	0xbda29210	-0.079380155
44	0xbe0ad633	-0.13558273
45	0x3a2619ca	0.00063362403
46	0x3cba6c51	0.022756727
47	0x3db08ca0	0.08620572
48	0xbdf84f73	-0.12124529
49	0xbe211ed5	-0.15734418
50	0xbce283a7	-0.027650667
51	0x3dd254ae	0.102700576
52	0xbd4cd44c	-0.05000715
53	0xbd350c3a	-0.044201113
54	0xbd00241b	-0.031284433
55	0x3db77b14	0.08959022
56	0x3d8de3c7	0.06928211
57	0xba5e0e78	-0.0008470784
58	0x3de068be	0.10957478
59	0x3e00f053	0.12591676
60	0x3d3c626e	0.045992307
61	0x3d033563	0.032033335
62	0xbd784413	-0.060611796
63	0x3d895e3d	0.06707428
64	0xbe0d65a6	-0.13808307
65	0x3c13a851	0.009012298
66	0xbdfe4faf	-0.12417542
67	0x3d82f8c1	0.06395102
68	0xbb4c3692	-0.0031160456
69	0x3dbf1f26	0.09332113
70	0x3d93b481	0.07212163
71	0x3d679255	0.056536037
72	0x3d15dad7	0.036585655
73	0x3a871b8e	0.0010307895
74	0xbdcb3db1	-0.09923876
75	0x3da28535	0.079355635
76	0xbc9daa57	-0.019246263
77	0xbbc3e75c	-0.005978508
78	0x3d98a9f1	0.07454289
79	0x3d01970d	0.031638194
80	0x3dc1b6f3	0.09458723
81	0x3db16028	0.086609185
82	0xbda947fc	-0.08265683
83	0x3da4299c	0.08015749
84	0x3d9c49e5	0.07631282
85	0x3cf7ec9b	0.03026419
86	0xbda9e331	-0.082952864
87	0x3ca8c9ee	0.0206041
88	0xbd91802d	-0.07104526
89	0x3d123add	0.035700668
90	0x3e0522b7	0.13001524
91	0x3d3836c2	0.044974096
92	0x3de95b07	0.11394315
93	0xbd5c67d0	-0.05380994
94	0xbda98876	-0.08277981
95	0xbd3fe996	-0.046853624
96	0xbde305fe	-0.11085127
97	0xbcc41335	-0.02393494
98	0x3d5f1d29	0.05447117
99	0xbdd63158	-0.1045863
100	0xbde197ac	-0.11015257
101	0x3dd9c394	0.10633007
102	0x3c87c66c	0.016574107
103	0x3d8268f1	0.06367672
104	0x3db28998	0.0871765
105	0x3d9670c1	0.07345725
106	0x3d90d8ff	0.07072639
107	0xbd469123	-0.048478257
108	0x3da200c4	0.07910302
109	0xbd98aecd	-0.074552156
110	0xbd1efe57	-0.038816776
111	0xbd88d626	-0.066814706
112	0x3d27638d	0.040866423
113	0xbe005c91	-0.12535311
114	0xbdb47dd0	-0.08813059
115	0x3e03de8f	0.12877868
116	0xbd2d3ee1	-0.042296294
117	0x3db137dd	0.08653233
118	0x3d198a74	0.037485555
119	0xbdc7df66	-0.09759407
120	0x3de4c67a	0.11170669
121	0xbd0a6e4a	-0.033796586
122	0x3d31cac5	0.043406267
123	0x3c075e29	0.008262196
124	0xbc9b0fee	-0.018928494
125	0x3d43edde	0.04783427
126	0xbdfca582	-0.123362556
127	0xbe173e7a	-0.14769927
128	0xbd8938e8	-0.06700307
129	0xbd3bec35	-0.04587956
130	0xbb8aef0c	-0.0042399224
131	0xbe12118e	-0.14264509
132	0xbe04b317	-0.12958942
133	0x3e22cff6	0.15899643
134	0x3d0602d1	0.03271753
135	0x3d923f29	0.07140953
136	0xbd8aa368	-0.067694485
137	0x3d4f8dc5	0.05067231
138	0xbd5adf0d	-0.053435374
139	0xbe028c10	-0.12748742
140	0xbc46013c	-0.012085255
141	0x3db66e34	0.08907738
142	0x3e02504d	0.12725945
143	0xbd95353d	-0.07285545
144	0xbce4266e	-0.027850356
145	0xbdeffe46	-0.11718421
146	0xbd8d57bb	-0.06901499
147	0xbc50663c	-0.012719687
148	0x3db4eec3	0.08834603
149	0xbd8727d0	-0.065993905
150	0x3d3ac955	0.04560216
151	0x3d98da07	0.074634604
152	0x3d077349	0.03306893
153	0xbdbfc639	-0.0936398
154	0xbc46bd40	-0.012130082
155	0xbd75af47	-0.05998161
156	0xbdf763c3	-0.12079575
157	0xbd409054	-0.047012642
158	0x3de5b47e	0.11216067
159	0x3c906ce6	0.017630052
160	0xbe0b3e10	-0.13597894
161	0x3e0b6299	0.13611831
162	0x3df696db	0.12040492
163	0xbdf1a4ea	-0.11799033
164	0x3d1bf106	0.038071655
165	0x3e197132	0.14984587
166	0x3d97fd68	0.0742138
167	0x3da8d53b	0.082437955
168	0x3d3a2d25	0.04545321
169	0xbde53b41	-0.111929424
170	0xbdb2d040	-0.08731127
171	0x3e0e6c68	0.13908541
172	0xba641784	-0.0008701014
173	0x3cc78193	0.024353778
174	0xbe1dfe97	-0.1542915
175	0x3db860da	0.09002848
176	0x3d09deb6	0.03365966
177	0xbcd9aeda	-0.026572634
178	0xbc8091fc	-0.01569461
179	0xbd86018b	-0.06543263
180	0xbd9297e6	-0.071578786
181	0xbd861f5f	-0.06548952
182	0xbd06ca9f	-0.03290808
183	0x3dcce516	0.10004632
184	0x3d714293	0.05890138
185	0xbd9d5fbb	-0.07684275
186	0x3e1bb44b	0.15205495
187	0xbcb7ac96	-0.022421163
188	0x3d0a83e4	0.033817187
189	0x3ca7ef34	0.020499803
190	0x3d71dbd3	0.05904753
191	0x3d569c7b	0.052395325
192	0xbcb7ae58	-0.022422
193	0xbd44b43c	-0.048023447
194	0xbd9486e5	-0.072522916
195	0x3db3c995	0.08778683
196	0x3db8e9a7	0.09028941
197	0x3ac0e598	0.0014716862
198	0xbd0fea92	-0.035135813
199	0x3d827fb9	0.063720174
200	0x3d03206e	0.03201335
201	0x3d3739b5	0.044732768
202	0x3d0dc194	0.03460844
203	0x3dd29ba7	0.102835946
204	0x3d8f0430	0.069832206
205	0xbd4cd016	-0.050003134
206	0xbd14466b	-0.03619997
207	0x3e20f028	0.15716612
208	0x3d832701	0.06403924
209	0xbe039693	-0.12850408
210	0x3dd66d55	0.10470072
211	0x3c803112	0.015648399
212	0x3db07da7	0.08617716
213	0xbda2a566	-0.079417035
214	0x3dbc7f79	0.09204001
215	0x3dda2fa5	0.10653619
216	0xbe157d36	-0.14598545
217	0xbd738f66	-0.059462927
218	0xbda71492	-0.0815822
219	0xbbfe7a0d	-0.0077660144
220	0x3dc19c4c	0.094536394
221	0x3b5e2f50	0.0033902712
222	0xbdd0132e	-0.10159908
223	0x3dcd28b0	0.10017526
224	0x3d361efe	0.04446315
225	0x3d2fd84b	0.042930882
226	0x3e0c71a3	0.13715224
227	0x3cb439db	0.022000244
228	0xbb9d8982	-0.004807652
229	0xbd59ddd8	-0.053190082
230	0x3d51fedb	0.05126844
231	0xbd7fdc5d	-0.062466014
232	0x3dc5ba1e	0.0965464
233	0xbd637fc1	-0.055541757
234	0x3c8f3f1e	0.017486151
235	0xbd55c700	-0.052191734
236	0xbd1bd4da	-0.038044788
237	0xbd9c6d98	-0.07638091
238	0xbd828368	-0.0637272
239	0xbdd28d82	-0.10280897
240	0x3dbfebfc	0.09371182
241	0x3dd6e372	0.104926005
242	0xbdb46d09	-0.08809859
243	0x3dd78525	0.10523442
244	0xbde6baf3	-0.112661265
245	0xbcb02a80	-0.02150464
246	0x3db52122	0.0884421
247	0xbd8c6fbb	-0.068572484
248	0xbd3ca02a	-0.04605118
249	0xbb7bb005	-0.0038404476
250	0x3d328506	0.043583892
251	0x3cd64144	0.026154168
252	0x3c2b5a73	0.0104585765
253	0x3dfe1a25	0.124073304
254	0xbe05c753	-0.13064317
255	0xbd5ea34c	-0.05435495

lstm.bias_ih_l0 f4 [256]
0	0x3e128f59	0.14312495
1	0x3dceed30	0.10103834
2	0x3e1ad2e5	0.15119512
3	0x3e06f147	0.13177978
4	0xbdb30840	-0.08741808
5	0xbca8dfc4	-0.020614512
6	0xbbaa621b	-0.0051996834
7	0xbd1b5482	-0.03792239
8	0xbd6601a9	-0.056153927
9	0x3d2287a8	0.039680153
10	0x3db513c0	0.08841658
11	0x3e151506	0.14558801
12	0xbd852bda	-0.06502505
13	0xbb3abe90	-0.0028494932
14	0x3dbd48d4	0.092424065
15	0x3d14037e	0.036136143
16	0xbd5d8120	-0.05407822
17	0xbd050de5	-0.032483954
18	0xbd369204	-0.044572845
19	0x3e05a901	0.13052751
20	0x3dc27faf	0.0949701
21	0x3d35f046	0.044418596
22	0x3a39fdea	0.0007095026
23	0x3d2efd9a	0.042722322
24	0xbc67bae4	-0.014143679
25	0x3e14f143	0.14545159
26	0x3e1d71db	0.15375464
27	0x3d12c931	0.035836402
28	0x3c6bb0a8	0.01438538
29	0x3d1590bd	0.036514986
30	0xbc3794f7	-0.01120495
31	0x3d8f12a5	0.06985978
32	0x3c15c73f	0.009141742
33	0x3e0af886	0.13571367
34	0x3e2ead1c	0.17058223
35	0xbc396aba	-0.0113169495
36	0xbcf7213e	-0.030167218
37	0x3d474cac	0.048657104
38	0x3dd27007	0.10275274
39	0xbd6aebf9	-0.057353947
40	0xbb9bd699	-0.0047558066
41	0x3d95ae75	0.07308666
42	0xbc886bfc	-0.016653053
43	0x3e13ea64	0.14444882
44	0x3d8f38ef	0.06993281
45	0x3dccad71	0.09994019
46	0x3d3faa90	0.04679352
47	0x3dec908a	0.11551006
48	0xbdcf4d06	-0.10122113
49	0x3d69720c	0.05699353
50	0xbd68e052	-0.056854554
51	0x3bd0390c	0.006354457
52	0x3deed22c	0.11661181
53	0xbd6234fb	-0.055226307
54	0xbcbd0a67	-0.02307625
55	0x3deb9754	0.11503473
56	0xbd71c52e	-0.059025936
57	0x3d2ccafd	0.042185772
58	0x3dd8170d	0.105512716
59	0xbb86517a	-0.004099068
60	0x3e0a09cf	0.13480304
61	0x3cae3637	0.021266086
62	0x3d8971ac	0.06711134
63	0x3e167788	0.14694035
64	0x3dc5c752	0.09657158
65	0xbd3d9bd2	-0.04629118
66	0xbc26bd83	-0.010177019
67	0x3ddde750	0.10835135
68	0xbd6a4dd8	-0.057203144
69	0xbce4db2f	-0.027936546
70	0xbd6c8785	-0.05774643
71	0x3c26c6f1	0.010179267
72	0xbafb92d9	-0.0019193544
73	0x3dd8684e	0.105667695
74	0x3c0e30ac	0.0086785965
75	0xbd2683bb	-0.04065297
76	0x3e0bc0eb	0.13647811
77	0xbc0af7a2	-0.008481892
78	0xbb6b9d45	-0.0035951894
79	0xbd213c4e	-0.03936415
80	0x3dffe32a	0.124945
81	0x3b68750c	0.0035470156
82	0xbd6c0fd6	-0.05763229
83	0x3cd74213	0.026276624
84	0x3d8cd37d	0.06876276
85	0x3d1a1a30	0.03762263
86	0x3d5204e3	0.05127419
87	0x3d100160	0.03515756
88	0x3e056872	0.13028124
89	0xbd38825a	-0.045046188
90	0x3e02a381	0.12757684
91	0x3e0c583d	0.13705535
92	0x3dc74db9	0.09731621
93	0x3d34d35d	0.044146884
94	0xbc7aadeb	-0.015300254
95	0x3a181580	0.00058015436
96	0x3c31c665	0.010850524
97	0x3db4d307	0.08829313
98	0xb9cc42f0	-0.00038959784
99	0xba5b1160	-0.0008356776
100	0x3e12d957	0.14340721
101	0xbdd21582	-0.102580085
102	0x3cd845c0	0.026400447
103	0xbc091564	-0.008366916
104	0x3da58f79	0.08084006
105	0xbd7704be	-0.060307257
106	0xbdf26eaa	-0.11837514
107	0xbd5d3e6d	-0.054014612
108	0xbd80e714	-0.06294075
109	0xbdcae560	-0.09907031
110	0x3dcbacea	0.0994509
111	0xbdb192e2	-0.08670594
112	0xbbb50688	-0.00552446
113	0xbc58c3f6	-0.0132303145
114	0xbc5fd33e	-0.013661204
115	0x3def7925	0.11693028
116	0xbd903e9c	-0.07043192
117	0x3dee3299	0.116307445
118	0x3e0abeb1	0.13549305
119	0xbd0f292f	-0.034951385
120	0x3df340ab	0.11877569
121	0xbd398861	-0.045296077
122	0x3e195d79	0.14977063
123	0xbb1614b0	-0.0022900514
124	0x3d46dfdd	0.048553336
125	0x3d9ce155	0.07660166
126	0x3be836d7	0.0070866155
127	0x3e05d672	0.13070086
128	0xbdbfcbdf	-0.09365057
129	0xbdb6ae9f	-0.08920025
130	0xbd893a01	-0.067005165
131	0xbd9b385a	-0.075791076
132	0xbe11edd7	-0.14250885
133	0x3d48c3ed	0.049014974
134	0xbdd00d68	-0.10158807
135	0xbdf43ec2	-0.119260326
136	0xbd160d5f	-0.036633845
137	0xbdbc7469	-0.09201891
138	0x3e0563fe	0.13026425
139	0xbb042cf7	-0.0020168403
140	0xbd5fa312	-0.054598875
141	0xbd0cec43	-0.034405004
142	0x3b60422c	0.003421913
143	0xbd6f6d84	-0.05845405
144	0xbdc1d05b	-0.09463569
145	0x3d709bed	0.058742452
146	0xbde944c8	-0.11390072
147	0xbe06e65b	-0.13173811
148	0x3d1f94d4	0.038960293
149	0xbbe56cc3	-0.007001491
150	0xbdc1d1d1	-0.094638474
151	0xbcf72c50	-0.030172497
152	0x3cf85cee	0.03031775
153	0x3d0028cd	0.03128891
154	0xbbf1226e	-0.0073588407
155	0x39ea168b	0.00044648754
156	0xba489a76	-0.0007652411
157	0x3dd84d1a	0.10561581
158	0xbbf3f586	-0.00744504
159	0xbda5a5be	-0.080882534
160	0xbe0506ec	-0.12990922
161	0x3dc7fdb5	0.09765188
162	0xbd5f4ed6	-0.054518543
163	0xbdef1699	-0.11674232
164	0x3d09efdb	0.03367601
165	0x3dde1f12	0.1084577
166	0x3d62b8a6	0.055351876
167	0xbd3fb661	-0.04680479
168	0x3d9dea35	0.07710687
169	0xbd00a132	-0.031403728
170	0x3c98623b	0.018601527
171	0x3df4c4c0	0.119515896
172	0x3d412a01	0.0471592
173	0xbb9ec036	-0.0048446907
174	0xbe08e7a0	-0.13369608
175	0xbb65a415	-0.0035040427
176	0x3d75cd27	0.0600101
177	0xbd04be6f	-0.032408174
178	0x3c4f3d74	0.012648929
179	0xbdc29cd1	-0.095025666
180	0xbd15b859	-0.03655276
181	0xbaf438b2	-0.0018632619
182	0xbdb7fe74	-0.0898408
183	0x3defa426	0.11701231
184	0x3d7151ae	0.058915786
185	0x3e0584c6	0.1303893
186	0x3dc4c064	0.09607008
187	0x3dcf60bf	0.10125875
188	0x3d1059b8	0.035241812
189	0x3db0df0b	0.08636292
190	0xbd1b0c83	-0.03785373
191	0xbbc9b849	-0.0061560017
192	0x3de580ef	0.11206233
193	0x3d92c3c0	0.071662426
194	0x3e219e35	0.15783007
195	0xbd54b390	-0.051929057
196	0xbc5fe626	-0.0136657115
197	0x3e1e9643	0.15487008
198	0x3ca61059	0.020271467
199	0x3d8044df	0.06263136
200	0x3d337c8f	0.04381996
201	0x3dbadd74	0.0912427
202	0x3d72c56f	0.05927032
203	0x3d46b191	0.048509184
204	0x3de77043	0.11300709
205	0x3de7fcc2	0.113275066
206	0x3da48923	0.08033969
207	0x3dc2cef5	0.0951213
208	0x3e17e3fd	0.14833064
209	0x3d85b98f	0.06529533
210	0x3cd6cd41	0.02622092
211	0xbc04acf3	-0.008097875
212	0x3da5ed74	0.08101931
213	0x3d8d4140	0.06897211
214	0x3ae7788a	0.0017659825
215	0x3e17a425	0.1480871
216	0x3e029e90	0.127558
217	0x3df5ed32	0.12008132
218	0x3cb9f591	0.022700103
219	0x3e251267	0.16120301
220	0x3e040c97	0.12895428
221	0x3e026005	0.12731941
222	0xbd9f2a90	-0.0777179
223	0x3b909316	0.0044120653
224	0xbd2577dd	-0.040397514
225	0x3d6f726b	0.058458727
226	0x3de04dcb	0.10952338
227	0xbcdab8bb	-0.026699414
228	0x3ca71464	0.020395465
229	0x3dd24a75	0.10268108
230	0xbccbeb56	-0.02489249
231	0xbdb03c6e	-0.08605276
232	0x3d52d370	0.051471174
233	0x3e15b22f	0.14618753
234	0xbdadd462	-0.084877744
235	0x3dbcd690	0.09220612
236	0xbd63c041	-0.05560327
237	0xbd36662d	-0.044531036
238	0x3a948e98	0.0011334
239	0xbd6b68bd	-0.057472933
240	0x3e01d77a	0.12679854
241	0x3df4571c	0.11930677
242	0x3dcd8ddd	0.10036824
243	0x3dabf824	0.083969384
244	0xbce149ab	-0.027500948
245	0x3c71bf95	0.014755149
246	0x3d8cba25	0.06871442
247	0xbdbdf806	-0.09275822
248	0xbd14825e	-0.03625714
249	0x3df62258	0.12018269
250	0x3e074d8a	0.13213173
251	0x3df821e3	0.121158384
252	0x3c1ebe0e	0.009688867
253	0x3e18a5c8	0.1490699
254	0x3ba9a18b	0.005176728
255	0x3e1a22a0	0.15052271

lstm.bias_hh_l0 f4 [256]
0	0x3d959e1b	0.07305547
1	0xbd24ba80	-0.040216923
2	0x3d9a6b93	0.075400494
3	0x3dc4805a	0.095947936
4	0x3d944303	0.07239344
5	0xbcb741f1	-0.02237031
6	0xbd2e1c78	-0.04250762
7	0xbc08a0c4	-0.008339111
8	0x3d1cccfa	0.03828142
9	0x3e2b5a8b	0.16733758
10	0xbbe388e8	-0.0069438107
11	0x3d16580f	0.036705073
12	0x3deba632	0.115063086
13	0x3d62a106	0.055329345
14	0x3d2e4fb8	0.042556494
15	0x3ca9b5de	0.020716604
16	0x3df68239	0.12036557
17	0x3dd02604	0.10163501
18	0x3dbab2c6	0.091161296
19	0x3e01576c	0.12631005
20	0x3a942380	0.0011302084
21	0x3df22d47	0.11825042
22	0xbd760248	-0.06006077
23	0x3db53ceb	0.0884951
24	0x3d2291fd	0.039690007
25	0xbcc8ddf8	-0.024519905
26	0x3e23f1f4	0.16010267
27	0x3e1fad06	0.15593347
28	0x3dd8d768	0.105879605
29	0xbd7a805f	-0.06115758
30	0xbbe4297a	-0.006962952
31	0x3de4c95c	0.11171219
32	0x3db1869e	0.08668254
33	0x3d5e486e	0.054268293
34	0x3d493813	0.049125742
35	0x3dfee380	0.12445736
36	0xbdb41434	-0.08792916
37	0x3d274eb1	0.04084653
38	0x3d45c21a	0.048280813
39	0x3d866e4f	0.065640084
40	0x3de98970	0.11403167
41	0x3e28ab64	0.1647163
42	0xbdb2f6de	-0.087384924
43	0xbbf2ed33	-0.0074135303
44	0x3e1b5b13	0.15171461
45	0x3aa44dd1	0.0012535398
46	0x3d85dc12	0.06536116
47	0x3cd1364d	0.025538588
48	0xbcca8cb1	-0.02472529
49	0x3e03d877	0.12875544
50	0x3d36ca49	0.044626508
51	0x3d06fd27	0.03295627
52	0x3d758eef	0.059950765
53	0x3da69b63	0.081351064
54	0x3c43990f	0.0119383475
55	0x3e097f7b	0.13427536
56	0x3c4169b5	0.011804988
57	0x3e24b454	0.16084415
58	0xbd4023b9	-0.046909068
59	0x3dd5ac74	0.104332834
60	0x3c16cef0	0.009204611
61	0xbc145d39	-0.009055429
62	0x3ddbf2bb	0.107396565
63	0x3d792a6d	0.060831476
64	0xbd17a0db	-0.037018638
65	0xbcb48a6f	-0.022038667
66	0xbda42024	-0.08013943
67	0x3d43b10d	0.04777627
68	0x3d737462	0.059437163
69	0x3c27b1cf	0.010235264
70	0xbdd01a06	-0.101612136
71	0xbd4bd408	-0.049762756
72	0xbda61288	-0.08109003
73	0x3bb3081a	0.0054636123
74	0x3d7a73c2	0.06114555
75	0xbb5641ce	-0.0032693031
76	0x3d8c5e6c	0.06853947
77	0x3cde01da	0.027100492
78	0x3d3d5290	0.046221316
79	0x3d899f68	0.067198575
80	0xbd76d934	-0.060265735
81	0x3bc0082a	0.005860348
82	0xbcc71679	-0.024302708
83	0x3e08adb9	0.1334752
84	0xbdac182f	-0.0840305
85	0xbdcd6003	-0.100280784
86	0x3dd7348c	0.105080694
87	0xbd88a4a1	-0.066720255
88	0xbd6dfc89	-0.058102164
89	0xbd1fdcb3	-0.039028835
90	0xbca8a5b8	-0.020586833
91	0x3e182703	0.14858632
92	0xbd93d09b	-0.07217523
93	0x3e0d1844	0.13778788
94	0x3df1d874	0.11808863
95	0xbc7fbd04	-0.01560903
96	0x3d9dd3ef	0.07706439
97	0x3dfe2ef3	0.124112986
98	0x3e19d26b	0.15021674
99	0x3ddfbdee	0.10924898
100	0xbc8d7a79	-0.017270314
101	0xbdafc72a	-0.085829094
102	0xbd78c0c4	-0.06073071
103	0xbc84030e	-0.016114738
104	0x3a2855ba	0.00064214657
105	0x3e095a5e	0.13413379
106	0x3d793bba	0.060847975
107	0x3e1030a8	0.14081061
108	0x3caaa150	0.020828873
109	0xbd9af328	-0.075659096
110	0x3d63e337	0.05563661
111	0x3d7d6f9f	0.06187403
112	0x3dcc4298	0.09973639
113	0xbcb84442	-0.022493485
114	0x3dd5d733	0.104414366
115	0xbc6c6c2f	-0.01443009
116	0xbddb8bae	-0.10720001
117	0x3dd6449b	0.10462304
118	0x3da7511f	0.081697695
119	0xbb62b2d4	-0.0034591453
120	0xbc465e88	-0.012107499
121	0x3dcbee02	0.09957506
122	0xbd997742	-0.0749345
123	0x3d2afafe	0.04174327
124	0x3d80f160	0.06296039
125	0x3d814e9f	0.06313824
126	0xbca507ee	-0.020145383
127	0xbd409c91	-0.047024313
128	0xbc5ea040	-0.013588011
129	0xbddacaf5	-0.10683242
130	0xbd94b283	-0.07260611
131	0x3d8a7b69	0.0676182
132	0xbe00375c	-0.12521118
133	0x3d2d3f94	0.04229696
134	0xbd84ce3a	-0.06484647
135	0x3bda1fa9	0.006656606
136	0xbd5a6799	-0.053321455
137	0x3cc23f0a	0.0237117
138	0x3d73b6bf	0.059500452
139	0xbd6b9edf	-0.05752456
140	0xbcd623b1	-0.026140066
141	0xbd1e48e3	-0.03864373
142	0x3df45a23	0.11931255
143	0xbdd18013	-0.10229506
144	0x3d858e71	0.06521309
145	0xbd931835	-0.071823515
146	0xbcb0c2c7	-0.021577252
147	0xbdf81087	-0.12112527
148	0x3cb5f2d8	0.022210523
149	0xbd6b6d0d	-0.057477046
150	0x3c9eced2	0.019385729
151	0x3dfcb8f7	0.12339967
152	0x3c80e582	0.015734438
153	0x3c242319	0.010018134
154	0xbe1053f8	-0.14094532
155	0x3db08158	0.0861842
156	0xbd9b9f93	-0.07598796
157	0x3d5a1106	0.05323889
158	0x3df44ae3	0.11928346
159	0x3ddaa9ab	0.10676893
160	0xbdad982c	-0.0847629
161	0x3dbdc741	0.0926652
162	0xbcf9d797	-0.030498309
163	0x3de1386d	0.109970905
164	0xbd88d40e	-0.06681071
165	0x3d2933de	0.04130923
166	0x3c920e0b	0.017828962
167	0x3dcffe4d	0.10155926
168	0x3ca43e3a	0.020049203
169	0x3dab59b3	0.08366718
170	0xbc5115f5	-0.012761583
171	0x3e012e94	0.12615424
172	0x3dd429d1	0.10359538
173	0x3df9f110	0.12204182
174	0xbd7568c5	-0.05991437
175	0x3d928de4	0.0715597
176	0xbcc6d578	-0.024271712
177	0xbdb4e773	-0.08833208
178	0xbd15b714	-0.03655155
179	0x3daaf3a7	0.08347254
180	0xbdd85916	-0.10563867
181	0xbd4fec6d	-0.050762583
182	0x3d9897c6	0.074508235
183	0x3de9ba14	0.11412445
184	0xbda223e1	-0.079169996
185	0xbda13828	-0.07872039
186	0x3dd3d876	0.10344021
187	0xbdb1db31	-0.086843856
188	0x3d5f74a2	0.05455459
189	0xbc0c4da0	-0.008563429
190	0x3a7e3b25	0.0009698144
191	0xbdfc4127	-0.12317114
192	0x3dbfa4c2	0.09357597
193	0x3c2e34c7	0.0106327
194	0x3df1f726	0.11814718
195	0xbd09616f	-0.033540186
196	0x3d656c3e	0.05601143
197	0x3d20e99c	0.039285287
198	0xbdc931f9	-0.09823985
199	0x3dc49037	0.09597819
200	0x3d8f14b6	0.06986372
201	0x3d9c4f6d	0.07632337
202	0x3d1831d9	0.037156913
203	0x3e094671	0.13405778
204	0x3d8c866d	0.06861577
205	0x3e0cc354	0.13746387
206	0x3e232dd5	0.15935452
207	0x3d83c877	0.0643472
208	0x3e1f467e	0.15554234
209	0xbd85f569	-0.06540949
210	0x3ca8f963	0.02062673
211	0x3e160ede	0.14654109
212	0xbda1c771	-0.078993686
213	0xbc8e64c5	-0.017382035
214	0xbd9ab0fc	-0.07553288
215	0x3ddc33fe	0.10752104
216	0x3e1ad84a	0.1512157
217	0x3d2aafcd	0.041671563
218	0x387d69a0	6.041827e-05
219	0x3e033a49	0.12815203
220	0x3d326695	0.04355486
221	0x3e038bd1	0.12846304
222	0xbcfa52a1	-0.030556979
223	0x3ca1d385	0.01975418
224	0x3d94cde5	0.07265834
225	0x3dc64d9f	0.09682774
226	0x3c83cb38	0.016088113
227	0x3d43f033	0.047836494
228	0xbd8c4c14	-0.06850448
229	0x3d717cf7	0.058957066
230	0xbc34e66b	-0.011041264
231	0x3cd91e4d	0.026503706
232	0x3e194acf	0.14969943
233	0xbc291978	-0.010321014
234	0x3b7db6f6	0.003871379
235	0x3e03a8dd	0.12857385
236	0x3d20afb7	0.039230075
237	0x3df1c160	0.118044615
238	0x3d82fc7a	0.06395812
239	0x3dbd672f	0.09248196
240	0xbdc6996c	-0.09697232
241	0xbc4dc004	-0.012557987
242	0xbcaeca78	-0.021336779
243	0x3e1bddda	0.15221348
244	0x3c4c9778	0.012487285
245	0x3dda103b	0.10647627
246	0x3e00ffc5	0.12597568
247	0xbc19c03d	-0.009384212
248	0x3d07ba48	0.033136636
249	0x3dc8d30f	0.09805881
250	0x3d96898d	0.073504545
251	0x3dbdf848	0.092758715
252	0x3da10a0c	0.078632444
253	0x3cf604ad	0.030031526
254	0xbd81433d	-0.06311653
255	0xbc1b4a90	-0.009478226

lstm.weight_ih_l1 f4 [256, 64]
0	0x3d067dac	0.032834694
1	0xbd835b87	-0.06413942
2	0xbdaf9548	-0.08573395
3	0xbdc0b4f3	-0.09409513
4	0x3983f330	0.00025167456
5	0x3e33cb53	0.17558031
6	0xbd85b61d	-0.06528876
7	0xbcd934f9	-0.026514517
8	0xbe101fd4	-0.14074641
9	0xbdc64565	-0.09681205
10	0x3d938c9b	0.07204553
11	0x3d8d1bd2	0.06890072
12	0xbd03d414	-0.032184675
13	0x3e15fa11	0.14646174
14	0xbdf378c5	-0.11888269
15	0xbd97fa73	-0.07420816
16	0x3d859da2	0.06524207
17	0x3d3b9d8b	0.04580454
18	0x3b4c455f	0.0031169278
19	0xbd6c1531	-0.057637397
20	0x3d311e4e	0.04324179
21	0xbb26d5c4	-0.0025457004
22	0x3d50b186	0.05095055
23	0x3dd2aa74	0.102864176
24	0xbe1ba1da	-0.1519846
25	0x3c973b99	0.018461036
26	0xbd884268	-0.06653291
27	0x3b33d3d4	0.0027439492
28	0x3caa500f	0.020790128
29	0x3e149269	0.14508976
30	0xbda63211	-0.08115018
31	0x3c799683	0.015233639
32	0xbde3fa51	-0.111317284
33	0x3e02c2bb	0.12769596
34	0xbc06a2d9	-0.008217537
35	0xbdc3568c	-0.09537992
36	0xbd6e0ead	-0.058119465
37	0xbc33da4b	-0.010977338
38	0x3cbd8467	0.023134423
39	0x3b800550	0.0039068833
40	0xbe171584	-0.14754301
41	0xbd5d8436	-0.054081164
42	0xbcea6b16	-0.028615516
43	0xbdcb0b78	-0.09914297
44	0xbe385f1f	-0.18005036
45	0xbd100079	-0.0351567
46	0xbde1c3c1	-0.11023665
47	0x3c5196d4	0.012792308
48	0x3d2c2ee0	0.04203689
49	0x3d49b31a	0.04924307
50	0xbd8f5258	-0.06998128
51	0x3ca8d334	0.020608522
52	0x3cec8116	0.028870147
53	0xbd88f77e	-0.066878304
54	0x3e26252b	0.16225116
55	0xbe0508ad	-0.12991591
56	0xbc9bab7b	-0.019002667
57	0xbd72b361	-0.0592531
58	0xbc05ed4e	-0.008174254
59	0x3dc58f7a	0.096465066
60	0xbe211d23	-0.15733771
61	0x3e04a910	0.12955117
62	0xbd2a7835	-0.041618545
63	0xbd8eaaf8	-0.069662035
64	0xbdd7887f	-0.105240814
65	0xbdbc9c0f	-0.09209453
66	0x3d7dab0a	0.061930694
67	0x3dbe1454	0.09281221
68	0xbc92aad1	-0.017903717
69	0xbda045a9	-0.078257866
70	0x3d484402	0.048892982
71	0x3d9350ee	0.071931705
72	0x3d5a60cc	0.05331497
73	0xbcebe60a	-0.028796215
74	0x3df6cfc0	0.12051344
75	0xbdd3fb86	-0.10350709
76	0x3d2137ae	0.03935974
77	0xbd89aa0c	-0.06721887
78	0x3d2808a0	0.04102385
79	0xbd0e3abf	-0.034723993
80	0x3e0dbfb5	0.13842662
81	0x3e03e04a	0.12878528
82	0xbdf7c60b	-0.120983206
83	0x3cdb1180	0.026741743
84	0x3dae9b68	0.08525735
85	0xbd9a1fda	-0.075256065
86	0xbe16bc39	-0.14720239
87	0xbc72fcc0	-0.014830768
88	0xbd782473	-0.060581636
89	0xbe110d03	-0.1416512
90	0xbd61259e	-0.054967515
91	0x3c45dee1	0.012077064
92	0xbcab063b	-0.020876994
93	0xbdc5365f	-0.09629511
94	0xbd6fef33	-0.058577728
95	0xbdf94ba5	-0.12172631
96	0x3cde8e59	0.027167486
97	0x3e072b81	0.13200189
98	0x3dc48f70	0.09597671
99	0x3d46280f	0.048378047
100	0x3d5ccb1a	0.05390463
101	0xbd4324c3	-0.04764248
102	0xbd6dfb65	-0.058101077
103	0xbdb49536	-0.08817522
104	0xbb813f5a	-0.0039443197
105	0xbd48fa01	-0.049066547
106	0x3d514558	0.051091522
107	0x3d225a7e	0.03963708
108	0xbced51dd	-0.0289697
109	0xbd2679b6	-0.040643416
110	0x3d26d572	0.0407309
111	0x3dba76d1	0.09104694
112	0xbd8af9ed	-0.06785951
113	0x3dd21cd2	0.10259403
114	0x3dc6b6bf	0.09702825
115	0x3c4713de	0.012150733
116	0xbdba9a5d	-0.09111474
117	0xbd26ad83	-0.040692817
118	0xbd37b577	-0.044850793
119	0x3d78d372	0.060748525
120	0x3b80df4a	0.003932868
121	0xbe2d3721	-0.16915561
122	0xbd966106	-0.073427245
123	0x3d4472f2	0.047961183
124	0x3dc31948	0.095263064
125	0x3e0f9d37	0.14024816
126	0xbc829e29	-0.015944557
127	0xbd4c4d75	-0.049878556
128	0xbda97d94	-0.08275905
129	0xbdc40f2f	-0.095732085
130	0x3d6c0463	0.05762137
131	0xbd954cd3	-0.07290044
132	0x3caeb1a0	0.021324933
133	0x3e111592	0.14168385
134	0x3cf77d0d	0.030210996
135	0xbb2da8aa	-0.0026498237
136	0x3c86e955	0.016468683
137	0xbd831f6a	-0.06402476
138	0xba144299	-0.0005655676
139	0xbe1da271	-0.15393998
140	0xbd6cbf67	-0.057799723
141	0x3cd0b611	0.025477441
142	0xba7baa84	-0.0009600299
143	0xbd59351a	-0.053029157
144	0x3b8011a0	0.003908351
145	0x3d9c5c12	0.076347485
146	0xbe15cb7f	-0.14628409
147	0xbdca5cb9	-0.09880967
148	0x3ce9d9b4	0.028546192
149	0x3abe4df3	0.001451908
150	0xbe0dc61c	-0.13845104
151	0x3de93e47	0.113888316
152	0xbdab993a	-0.08378835
153	0xbe301a84	-0.17197615
154	0xbd0249bc	-0.0318086
155	0x3e20a6aa	0.15688577
156	0xbdcc8ced	-0.09987817
157	0xba9b41a1	-0.001184512
158	0x3d5b2e73	0.053511094
159	0x3c8f41d8	0.017487451
160	0x3ced1293	0.028939521
161	0x3de24762	0.110487714
162	0x3e26d8da	0.1629366
163	0xbd4a8ab7	-0.049448695
164	0x3d23f6d2	0.040030308
165	0xbc9b2440	-0.018938184
166	0x3a1922dc	0.0005841681
167	0xbd926113	-0.07147422
168	0xbd30ea4c	-0.043192193
169	0xbdf3896b	-0.11891445
170	0x3d301b14	0.042994574
171	0xbdc0024b	-0.09375437
172	0x3d041232	0.032243915
173	0x3dedb5f8	0.116069734
174	0x3d34b1fb	0.044115048
175	0x3ddd0624	0.10792187
176	0xbcb07a22	-0.021542612
177	0x398986a0	0.0002623098
178	0x3e0b0314	0.13575393
179	0xbc9c7b36	-0.01910172
180	0xbd89a170	-0.06720245
181	0x3cf77837	0.03020869
182	0x3d87b297	0.0662586
183	0xbccd23cf	-0.025041489
184	0xbc7e0d00	-0.015506029
185	0x3d089def	0.033353742
186	0x3defe83d	0.11714218
187	0x3b1aadd6	0.002360215
188	0x3d62ff3f	0.055419203
189	0x3d272bce	0.04081326
190	0x3d403fc8	0.046935827
191	0xbe1efab8	-0.15525329
192	0xbd1f33cc	-0.038867757
193	0x3dadea56	0.08491962
194	0xbd8d985f	-0.06913828
195	0x3d2603fb	0.04053114
196	0xbe037809	-0.12838759
197	0x3d80b1d6	0.062839195
198	0xbe035b37	-0.12827764
199	0xbe204050	-0.15649533
200	0xbe018fde	-0.12652537
201	0xbd1a1d7b	-0.03762577
202	0xbdb82a37	-0.08992427
203	0x3d0e27a2	0.034705766
204	0x3cf22abf	0.029561399
205	0xbd87642c	-0.06610903
206	0x3bb9a359	0.0056652245
207	0x3df5d087	0.12002664
208	0x3d979e14	0.07403198
209	0xbd8378b1	-0.064195044
210	0x3d2d47e2	0.04230488
211	0x3d0cf94a	0.034417428
212	0x3d971a91	0.07378114
213	0x3d15f831	0.036613647
214	0x3cd5c328	0.026094034
215	0xbda4dbbc	-0.080497235
216	0xbd928585	-0.07154373
217	0xbdcf6b11	-0.10127843
218	0xbdf9f038	-0.12204021
219	0x3d7351db	0.059404235
220	0x3c8b43a6	0.01700003
221	0x3d9cf42f	0.07663762
222	0x3e1dbfd2	0.15405205
223	0xbdc86cb9	-0.09786362
224	0x3d88cdab	0.06679853
225	0x3e15b524	0.14619881
226	0x3de0475b	0.1095111
227	0xbe0180a2	-0.12646726
228	0xbdccf8d4	-0.10008398
229	0xbc443395	-0.011975189
230	0x3df03ec9	0.11730725
231	0xbdb77258	-0.08957356
232	0x3d6d548d	0.057941962
233	0x3b30ec0e	0.0026996168
234	0x3e02fcaa	0.12791696
235	0xbd1894c0	-0.037251234
236	0xbe294307	-0.16529475
237	0x3d9d1f28	0.07671958
238	0x3dcd290b	0.10017594
239	0xbd6fc8f1	-0.058541242
240	0x3a8a066c	0.0010530478
241	0xbe15a48c	-0.14613551
242	0x3d17ef24	0.037093297
243	0xbca1ea16	-0.019764941
244	0x3da6ad06	0.0813847
245	0xbe3ab951	-0.18234755
246	0x3e256ab8	0.16153991
247	0xbdbccc9a	-0.09218712
248	0x3e0de909	0.13858427
249	0xbdf1eb2d	-0.11812434
250	0x3dbd6fad	0.09249816
251	0x3c808fba	0.015693534
252	0xbe18a725	-0.1490751
253	0xbd674cc7	-0.056469705
254	0xbd62308e	-0.055222087
255	0x3c16db15	0.009207507

lstm.weight_hh_l1 f4 [256, 64]
0	0xbdc44e59	-0.09585256
1	0xbd08a87c	-0.033363804
2	0xbd81ca14	-0.063373715
3	0x3dfcc042	0.12341358
4	0x3cddf035	0.027092079
5	0x3da5fa5e	0.081043944
6	0x3d23ac42	0.0399592
7	0x3da4b318	0.08041972
8	0xbd96de35	-0.073666014
9	0xbe050e51	-0.12993743
10	0x3cf509a9	0.029911833
11	0x3d824b11	0.06361974
12	0x3da6570d	0.08122072
13	0xbd271c43	-0.040798437
14	0xbdb399a6	-0.087695405
15	0x3deaffe5	0.11474589
16	0x3d0ea2d6	0.03482326
17	0x3cc61993	0.024182117
18	0xbd35372e	-0.044242077
19	0xbd3c8d37	-0.04603311
20	0xbd15aa53	-0.036539387
21	0x3d8c0c88	0.06838328
22	0x3d3104a6	0.043217324
23	0x3d8023a1	0.06256796
24	0x3df54df2	0.119777575
25	0xbdc6c536	-0.09705584
26	0xbd695a68	-0.056970984
27	0xbd62d035	-0.055374343
28	0x3a57d864	0.0008233844
29	0xbd91db5d	-0.07121918
30	0x3dc737a6	0.09727411
31	0xbc8ca22b	-0.017167171
32	0xbcf3c626	-0.02975757
33	0xbd4c84bc	-0.049931273
34	0x3e1262b8	0.1429547
35	0x3dc460b5	0.09588758
36	0xbd57c0f5	-0.052674253
37	0xbcb056dd	-0.021525795
38	0xbc962680	-0.018328905
39	0xbd259016	-0.040420614
40	0x3e0b2ad1	0.13590552
41	0x3cfcdfae	0.030868378
42	0xbd030deb	-0.031995695
43	0xbe1dc8fa	-0.15408698
44	0x3c9d1f65	0.01918001
45	0x3de6e05e	0.112732634
46	0xbda2b2ee	-0.079442844
47	0x3e1647c1	0.1467581
48	0x3c1b6afb	0.009485955
49	0xbd567214	-0.052354887
50	0xbd8d438c	-0.06897649
51	0xbd4f7de2	-0.05065716
52	0xbd076503	-0.033055317
53	0x3da950e2	0.0826738
54	0x3d9d8975	0.076922335
55	0x3de81a96	0.11333196
56	0xbcd9c8d7	-0.026585026
57	0xbdc49a19	-0.09599704
58	0x3d914d6e	0.07094847
59	0x3d1f0c3d	0.03883003
60	0xbd6f5c9d	-0.058437932
61	0xbe1d6934	-0.15372163
62	0x3c31e2f9	0.010857337
63	0xbd8a9827	-0.06767302
64	0x3d834166	0.06408958
65	0xbdf6c39c	-0.12049028
66	0x3de5c6c1	0.1121955
67	0x3d083825	0.03325667
68	0xbc25b2f3	-0.010113466
69	0x3cd6d81a	0.026226092
70	0x3d43afe4	0.047775164
71	0x3df59d90	0.11992943
72	0x3cad0fcf	0.021125702
73	0xbd6781c6	-0.056520246
74	0x3d7289e3	0.05921353
75	0xbb0d026e	-0.002151634
76	0x3cb3500e	0.021888759
77	0x3a8866ae	0.0010406577
78	0xbd8fc1eb	-0.07019409
79	0xbc46c420	-0.012131721
80	0x3cca3e47	0.0246879
81	0xbdc796d0	-0.09745562
82	0xbd3e18e3	-0.046410453
83	0x3dd779ac	0.10521254
84	0x3bf89d60	0.00758712
85	0xbdafc832	-0.08583106
86	0x3da1584e	0.07878171
87	0xbd733c16	-0.059383474
88	0x3c8289b2	0.015934799
89	0x3dcf42ba	0.10120149
90	0x3d87b41a	0.066261485
91	0xbdf7485f	-0.120743506
92	0x3d38a9cf	0.045083817
93	0x3db9c194	0.09070125
94	0xbdcc78c2	-0.0998397
95	0x3d825d89	0.06365497
96	0xbccdb272	-0.025109503
97	0x3c8ca3b5	0.017167905
98	0x3dfb7ca9	0.122796364
99	0x3dd075df	0.10178732
100	0x3d53b2c7	0.051684167
101	0xbdc44fc2	-0.09585525
102	0x3c0eae70	0.008708581
103	0xbd39c390	-0.04535252
104	0xbd0ad415	-0.033893663
105	0x3d7aa7c2	0.061195143
106	0xbc14fd47	-0.009093589
107	0xbdac4031	-0.08410681
108	0x3c4428ad	0.0119725885
109	0xbd96e2a7	-0.07367449
110	0xbdf9fb75	-0.12206165
111	0xbdedfa7e	-0.11620043
112	0xbdc598ef	-0.096483104
113	0xbd25e078	-0.040497273
114	0x3dc96062	0.09832837
115	0xbd53c48b	-0.05170111
116	0xbdf3be7e	-0.11901568
117	0xbcec357b	-0.028834095
118	0x3dfced0f	0.12349903
119	0x3d8f0e7f	0.06985187
120	0x3dc664b3	0.096871756
121	0x3ba66281	0.0050776605
122	0x3daac5cc	0.08338508
123	0x3dac883e	0.08424424
124	0xbdb2342b	-0.087013565
125	0xbdb9a41f	-0.09064507
126	0x3d1f006a	0.038818754
127	0x3c1abdeb	0.009444694
128	0x3dcc5c00	0.09978485
129	0x3d373bfd	0.044734944
130	0xbdc491f7	-0.09598153
131	0x3dc456d3	0.09586873
132	0xbc983498	-0.018579766
133	0x3d867470	0.065651774
134	0x3cfcb865	0.030849645
135	0x3c9f71a4	0.019463368
136	0x3cfd0c2d	0.030889595
137	0xbccd75f4	-0.025080658
138	0x3be9eefe	0.007139086
139	0xbe06b073	-0.13153248
140	0x3cbf16a0	0.023326218
141	0xbdcbb6ea	-0.099469975
142	0x3d7eeed6	0.06223949
143	0x3dc2ec67	0.095177464
144	0xbc6c8248	-0.014435358
145	0xbce90638	-0.028445348
146	0xbd0830d1	-0.03324968
147	0xbcc00408	-0.023439422
148	0x3dd5ef16	0.10445993
149	0x3cf5a1ec	0.029984437
150	0x3da2ee2d	0.07955585
151	0x3d3f6c93	0.046734404
152	0xbdbc5390	-0.09195626
153	0xbe09d988	-0.13461888
154	0x3dc8d09e	0.098054156
155	0xbd4d5811	-0.050132815
156	0xbc6bbe3a	-0.014388615
157	0xbdd73e62	-0.105099455
158	0x3c9451a6	0.01810534
159	0x3d7c6ebb	0.06162904
160	0x3c92e6c6	0.017932307
161	0x3da604bb	0.08106371
162	0xbd77ec3c	-0.060528025
163	0xbd98e173	-0.07464876
164	0x3d16f907	0.036858585
165	0xbc87a30f	-0.016557245
166	0xbcd2df78	-0.025741324
167	0x3c7292d9	0.014805519
168	0x3e06cb3f	0.1316347
169	0x3dc8d534	0.0980629
170	0xbaa86d78	-0.0012850007
171	0x3d200e3f	0.039076086
172	0x3d72d901	0.059288982
173	0xbdb37ccf	-0.0876404
174	0x3d9ed5ba	0.07755609
175	0xbd98758c	-0.07444295
176	0xbbbea1c5	-0.0058176243
177	0xbd40ed54	-0.047101334
178	0x3d9bf7b1	0.07615603
179	0x3cf2a7a0	0.029620945
180	0xbd0a5106	-0.033768676
181	0x3cc12f22	0.023582045
182	0xbcf3626a	-0.029710013
183	0xbd670e2c	-0.05641
184	0x3c76b2eb	0.015057306
185	0x3cf26334	0.02958832
186	0x3e02a6c6	0.12758932
187	0xbd909131	-0.07058943
188	0xbc8076e7	-0.015681697
189	0xbd39cb9f	-0.045360204
190	0xbd8c636b	-0.068549
191	0x3cb36d8f	0.021902828
192	0xbc38ed1e	-0.011287002
193	0xbdf698c5	-0.12040857
194	0x3d501dd7	0.050809707
195	0x3dfb7021	0.12277246
196	0xbd674fef	-0.056472715
197	0xbd693cfa	-0.056942917
198	0xbd98b045	-0.07455496
199	0xbc06915f	-0.00821337
200	0xbd15eca9	-0.03660265
201	0xbd94d73d	-0.07267616
202	0xbdbeea1d	-0.09321997
203	0x3d90debf	0.070737354
204	0x3e17cba9	0.14823784
205	0x3dbee031	0.09320105
206	0x3df2a270	0.11847389
207	0x3c2ab536	0.010419181
208	0x3d5da15e	0.05410897
209	0xbda558fb	-0.08073612
210	0x3dc346bc	0.09534976
211	0xbd698640	-0.057012796
212	0x3e0de29e	0.13855979
213	0x3da00179	0.07812781
214	0x3e1ef696	0.15523753
215	0xbda66e2d	-0.08126483
216	0x3cb6c696	0.02231149
217	0xbd673c64	-0.056454077
218	0xbe0caf3d	-0.13738723
219	0xbcc84f4c	-0.024451874
220	0x3d9a0317	0.075201206
221	0xbdb8ec1a	-0.09029408
222	0x3b323517	0.0027192289
223	0xbc4e7ece	-0.012603475
224	0x3d95691d	0.072954394
225	0x3bfc5c59	0.0077014384
226	0x3c9d8b4a	0.019231457
227	0x3e14da7e	0.14536473
228	0xbd56806b	-0.052368563
229	0x3dd4d157	0.10391491
230	0x3d14e199	0.03634796
231	0xbb97591a	-0.004618776
232	0x3d5ea40e	0.054355673
233	0x3c0d4382	0.008622052
234	0xbce78e94	-0.028266229
235	0xba55da06	-0.0008157793
236	0x3d7ea758	0.06217131
237	0xbd8df2a6	-0.06931047
238	0xbdad56e9	-0.084638424
239	0xbd5ccaae	-0.053904228
240	0x3d745c70	0.059658468
241	0xbcac81b7	-0.021057947
242	0x3c6b53bd	0.0143632265
243	0x3dcdbddf	0.10045981
244	0x3d129faf	0.035796817
245	0xbd86364a	-0.065533236
246	0x3d877a92	0.06615175
247	0x3cc32085	0.023819217
248	0x3d1d334c	0.038379
249	0x3d20a6b5	0.039221484
250	0xbcf945b0	-0.030428737
251	0x3da2ff5b	0.079588614
252	0xbdb44075	-0.08801357
253	0xbd43a3ce	-0.04776364
254	0xbccbd1be	-0.024880286
255	0xbe0dd367	-0.13850175

lstm.bias_ih_l1 f4 [256]
0	0xbc1e130a	-0.009648094
1	0xbd998c66	-0.07497482
2	0x3cea9130	0.028633684
3	0xba5d136c	-0.0008433375
4	0xbd9adb9c	-0.075614184
5	0x3d518859	0.051155422
6	0xba97c596	-0.0011579271
7	0x3db9cbe0	0.09072089
8	0x3c7267bd	0.014795241
9	0x3e0724eb	0.13197677
10	0x3d9f2c06	0.07772069
11	0xbd3d4294	-0.046206072
12	0x3c342bf2	0.0109968055
13	0x3e1a826a	0.15088812
14	0x3e118d2d	0.1421401
15	0x3c71dc1a	0.014761949
16	0xbbc42247	-0.0059855315
17	0x3c3f2998	0.011667632
18	0x3d2dc6cf	0.042425927
19	0x3d68f62c	0.056875393
20	0x3cf4c021	0.02987677
21	0xbd1ae63c	-0.037817225
22	0x3d8eecc5	0.06978754
23	0x3ad1f5ea	0.0016018723
24	0xbd8c187b	-0.06840607
25	0x3de81be1	0.113334425
26	0x3e16bb9f	0.1472001
27	0x3b1d5d42	0.0024011885
28	0xbdb01da0	-0.085994005
29	0xbda5b281	-0.080906875
30	0xbcd76038	-0.026290998
31	0xbd5cb35d	-0.05388199
32	0xbc3942c9	-0.011307427
33	0x3d5ad9b8	0.05343029
34	0xbd47d7b9	-0.048789714
35	0x3d8ff923	0.07029941
36	0x3dff01bb	0.12451502
37	0x3dcac390	0.09900582
38	0xbdd7b781	-0.105330475
39	0x3ddba4e6	0.10724811
40	0x3d3717a8	0.044700295
41	0x3e0f39ef	0.13986944
42	0xbda9e73e	-0.08296059
43	0x3b0b0618	0.002121335
44	0x3ddab436	0.10678904
45	0x3e15eb83	0.14640622
46	0xbd9716a6	-0.07377367
47	0x3db24846	0.08705191
48	0x3d122e22	0.035688527
49	0x3de5e3b8	0.112250745
50	0x3ddde032	0.108337775
51	0x3c4a4c10	0.012347236
52	0xbd1113e8	-0.035419375
53	0x3da4bbce	0.080436334
54	0x3daa60c4	0.08319238
55	0x3e0f8298	0.14014661
56	0x3de73d95	0.11291043
57	0x3d8db95d	0.06920121
58	0x3dcf3bbe	0.10118817
59	0xbdc24637	-0.09486049
60	0xbda7b4ab	-0.081887566
61	0x3e00f879	0.12594785
62	0x3d57a914	0.05265148
63	0xbd818134	-0.06323472
64	0xbcd433a4	-0.02590353
65	0xbcd5fe79	-0.026122319
66	0xbd761b19	-0.060084436
67	0xbd4fd747	-0.050742414
68	0x3d8d182f	0.06889378
69	0xbd0331bd	-0.032029856
70	0x3deee2e1	0.116643675
71	0xbce9bd08	-0.02853252
72	0xbd0d326d	-0.034471918
73	0x3d8b3807	0.06797796
74	0xbcfdd3e4	-0.030984826
75	0x3c890def	0.016730277
76	0x3ba2d36c	0.004969051
77	0x3ddd3153	0.108004235
78	0xbc8dca6a	-0.017308433
79	0x3d42de55	0.047575314
80	0x3d4551ac	0.04817359
81	0x3cecaa85	0.028889904
82	0x3b90b5ef	0.0044162194
83	0xbd9bfc5f	-0.07616495
84	0x3d6a4b73	0.05720086
85	0xbd415995	-0.047204573
86	0xbd3b3d55	-0.045712788
87	0x3c91f6ef	0.017817942
88	0x3d5ba61d	0.053625215
89	0xbdbb6b62	-0.09151341
90	0x3e1110cb	0.14166562
91	0xbd1b45e7	-0.03790846
92	0x3dde9c9d	0.10869715
93	0xbc2de772	-0.010614263
94	0xbd6dbe23	-0.058042657
95	0x3d60cfaf	0.054885563
96	0xbd4d3fa4	-0.05010952
97	0x3dd47945	0.10374693
98	0x3dc3f8f2	0.09568967
99	0x3d2da705	0.04239561
100	0xbdb44ffb	-0.088043176
101	0x3d952a71	0.07283486
102	0x3cf3749f	0.029718695
103	0x3e024363	0.12721018
104	0xbdd5a647	-0.104321055
105	0xbdc3d395	-0.095618404
106	0xbdb1665f	-0.08662104
107	0xbd2baf58	-0.041915268
108	0x3c8cb02b	0.017173847
109	0xbda82e60	-0.0821197
110	0xbc9f22c7	-0.019425763
111	0x3db35048	0.08755547
112	0x3e015a15	0.1263202
113	0x3d99c3ef	0.075080745
114	0x3d5d6d3f	0.054059263
115	0x3c058193	0.008148569
116	0x3e04d938	0.12973487
117	0x3dd5bc2f	0.10436284
118	0x3c8ee4ea	0.01744314
119	0x3dd732a0	0.10507703
120	0xbdbcbd76	-0.09215824
121	0x3dcf8861	0.10133434
122	0xbde07c9f	-0.109612696
123	0xbd5de513	-0.05417354
124	0x3dc413ec	0.09574112
125	0x3d6049f1	0.054758016
126	0x3dbc11ba	0.091830686
127	0x3d4e7fc8	0.05041483
128	0x3c2e8fc2	0.010654392
129	0xbd84f7a5	-0.06492547
130	0x3c8a934f	0.016915945
131	0x3d9ca6e1	0.07649017
132	0x3cb33484	0.021875627
133	0x3d8a5e54	0.06756273
134	0x3deac785	0.114638366
135	0xbdc8f3b6	-0.09812109
136	0x3dcd02f6	0.100103304
137	0x3c8f9b26	0.017530035
138	0xbb200785	-0.0024418544
139	0xbb187ba0	-0.0023267046
140	0x3d062089	0.03274587
141	0x3df77fce	0.12084924
142	0x3c7e23aa	0.015511433
143	0xbd8f75f6	-0.07004921
144	0x3d9bc453	0.07605805
145	0xbdf084fd	-0.117441155
146	0xbc960391	-0.018312247
147	0x3e023632	0.12715986
148	0xbdc398a0	-0.09550595
149	0xbccd2c84	-0.02504564
150	0x3d358572	0.044316716
151	0x3d8f8aad	0.07008872
152	0xbd7e5fb5	-0.062102992
153	0xbdbc2639	-0.09186978
154	0x3db19ea3	0.08672836
155	0xbbcbdee7	-0.0062216404
156	0x3ce33829	0.02773674
157	0xbdfca879	-0.12336821
158	0x3e056ef3	0.13030605
159	0xbd27059c	-0.040776834
160	0xbcd9968a	-0.02656104
161	0xbce08876	-0.02740882
162	0xbd008897	-0.031380262
163	0x3dc77cb6	0.097405836
164	0x3ba2537f	0.004953801
165	0x3d1613ba	0.036639906
166	0x3cbcf71e	0.023067053
167	0x3dccf441	0.10007525
168	0x3ce22451	0.027605208
169	0xbd72514e	-0.05915957
170	0xbdc1e1a2	-0.09466864
171	0x3da8f45d	0.082497336
172	0xbd400aea	-0.04688541
173	0xbd425a94	-0.047449663
174	0xbdaa4de9	-0.083156414
175	0x3db3e093	0.087830685
176	0xbdf977f0	-0.121810794
177	0xbce91fa1	-0.028457465
178	0x3dda6eb5	0.10665647
179	0x3d7b2a9d	0.061319936
180	0xbde746ae	-0.11292778
181	0x3d478b70	0.048716962
182	0xbd10f477	-0.03538939
183	0x3dceb48a	0.10093029
184	0xbde65634	-0.11246911
185	0xba85b57e	-0.0010201184
186	0x3db5baf6	0.088735506
187	0xbdd41b1d	-0.10356734
188	0x3dec6420	0.11542535
189	0xbcbc35c8	-0.022974864
190	0xbdf4d60a	-0.11954887
191	0xbc884703	-0.016635424
192	0x3d155ca4	0.036465302
193	0xbdc90d51	-0.09816993
194	0xbd7a5db2	-0.06112451
195	0xba401587	-0.00073274266
196	0xbd99c010	-0.07507336
197	0x3aed1f6e	0.0018091032
198	0x3e084a2c	0.13309544
199	0xbbe94ef4	-0.0071200076
200	0x3b75a346	0.0037481352
201	0xbd070fdb	-0.032974105
202	0x3ddea81b	0.10871907
203	0xbca907e7	-0.020633651
204	0xbd020b9e	-0.03174936
205	0x3e0482da	0.12940541
206	0x3da0df9c	0.0785515
207	0xbc93553d	-0.01798498
208	0xbdb5e257	-0.088810615
209	0xbb95a296	-0.004566501
210	0x3c01e33a	0.00792771
211	0xbce8e2a9	-0.028428392
212	0x3d273e8e	0.04083114
213	0xbdca2a1c	-0.09871313
214	0x3b5160b8	0.0031948518
215	0xbcb4758d	-0.022028709
216	0xbde41f19	-0.11138744
217	0xbd3ff7d2	-0.0468672
218	0xbd0cee8f	-0.034407195
219	0x3d888100	0.0666523
220	0xbc061f16	-0.008186122
221	0x3c35f5b8	0.011105947
222	0xbdd17099	-0.102265544
223	0xbd95435e	-0.0728824
224	0x3d9210ea	0.07132132
225	0x3bfca63e	0.0077102473
226	0xbce0bff6	-0.027435284
227	0x3dfcf35e	0.12351106
228	0xbddfcbdf	-0.10927557
229	0xbbc5666c	-0.0060241725
230	0x3e0ba9c8	0.13638985
231	0x3de30917	0.11085718
232	0xbd7ac145	-0.061219472
233	0x3cb5aa80	0.022176027
234	0xbcee81e5	-0.029114673
235	0x3d5af8a9	0.053459797
236	0xbd9fa6fa	-0.0779552
237	0x3e199886	0.1499959
238	0x3c243120	0.010021478
239	0xbc2eb88e	-0.010664118
240	0xbc16e8bd	-0.009210763
241	0xbd367a96	-0.0445505
242	0xbd401dd6	-0.046903454
243	0xbd2b8230	-0.041872203
244	0xbc1620ce	-0.009163095
245	0xbd73f0c4	-0.059555784
246	0x3e29fb82	0.16599849
247	0x3d905285	0.07046989
248	0xbd5a8528	-0.053349644
249	0xbd11d44f	-0.035602864
250	0xbd8275de	-0.06370138
251	0x3b9a2a94	0.0047047827
252	0x3dde1b6d	0.10845075
253	0x3e2fb82f	0.17160104
254	0x3e2c4517	0.1682323
255	0x3db5fad0	0.08885729
