src/Backend-Information/Clod-weather_predict/Sichuan_lstm_model.pth (torch, 208379 bytes, 11 tensors)

lstm.weight_ih_l0 f4 [256, 3]
000000 76 8b b3 bd 66 b5 14 be e6 7f c4 bd be dd af bd
       -0.087668344 -0.14522323 -0.09594707 -0.08587216
000010 a7 61 b7 3d 58 ab cb bd ae 04 ce bd 68 e5 ae bb
       0.089541726 -0.099447906 -0.10059486 -0.005337406
000020 06 2f d6 3d cb a0 5c 3d 90 91 08 be 7a 77 97 3d
       0.10458188 0.05386428 -0.13336778 0.07395835
000030 95 59 c5 bd e9 00 36 be f0 cc f8 3c e5 4f 5e bd
       -0.09636227 -0.17773785 0.03037116 -0.054275412
000040 66 c0 f5 3c 30 5a 81 3d 09 47 20 be 56 30 a9 3d
       0.02999897 0.0631603 -0.15652098 0.082611725
000050 88 ed d6 3d c0 53 ea bd 47 43 a7 ba 0a 3e c1 3d
       0.10494524 -0.11441755 -0.0012761139 0.09435661
000060 de 54 da 3d d1 37 a9 3d 94 e6 b2 3d 70 83 03 be
       0.106607184 0.08262599 0.087353855 -0.12843108
000070 00 33 ab 3d 40 2a 05 bd 1c 43 df bd cd 45 50 3d
       0.08359337 -0.032510996 -0.10901472 0.050847817
000080 c8 77 dd 3c 8d b8 82 3d 7b 5c a7 bd d2 c5 80 3d
       0.027034655 0.063828565 -0.08171936 0.06287731
000090 a9 39 d1 3d 2f ca 83 bb 48 98 a9 bd 83 9a b8 bd
       0.10216076 -0.004021905 -0.082809985 -0.09013846
0000a0 20 15 bc bd 0a 68 97 3d a5 c7 29 be df c0 ab 3c
       -0.09183717 0.07392891 -0.16580065 0.020965992
0000b0 b0 7a 15 bc 24 dd 15 3e 73 67 7e bd 88 80 41 bd
       -0.009123489 0.1463514 -0.062110376 -0.047241718
0000c0 b3 74 5f 3d a9 b1 46 bd 4a 3d 85 3d e8 85 98 3d
       0.054554652 -0.048509274 0.065058306 0.074474156
0000d0 14 2c ae 3d 50 89 35 bc 1b a1 a7 3b 01 5e b4 bd
       0.08504501 -0.011080101 0.005115641 -0.08806992
0000e0 9a 7d b0 3d 45 15 47 bd 69 94 72 3d 0a 0b d6 bd
       0.086177066 -0.04860427 0.059223566 -0.10451324
0000f0 bb 2e bc bd c5 f5 9c 3d 20 eb c8 bd a1 ab c3 bd
       -0.09188601 0.07664064 -0.098104715 -0.0955422
000100 9c 55 31 be 48 ba de 3c 7d 50 b2 bd 5a 7e a7 bd
       -0.17317814 0.027188435 -0.08706758 -0.081783965
000110 00 2e 38 bb db 40 99 3d 89 5c cf bd 08 40 fb 3c
       -0.002810359 0.07483073 -0.101250716 0.03067018
000120 63 b7 f5 3d a1 e3 98 3a 3c 44 e5 bd 67 4a 6c bd
       0.11997869 0.0011664518 -0.11194655 -0.057688143
000130 71 40 09 3e 14 1b 99 bd b4 a8 20 be 08 a7 2b be
       0.13403489 -0.07475868 -0.15689355 -0.16762936
000140 9c 11 d0 bd a4 c9 0d be d4 5c f3 bd 76 e8 e1 bd
       -0.10159609 -0.13846451 -0.1188294 -0.110306665
000150 1a c3 03 be b6 d3 b7 bc 34 29 06 3d 84 20 cd 3d
       -0.12867394 -0.022439819 0.032754138 0.100159675
000160 1f 06 ae 3d 1c a2 78 3d 23 35 e5 bd ba df 1c be
       0.08497261 0.060701475 -0.11191776 -0.1531972
000170 10 54 bc bc 70 ea aa 3d af 23 0a bc 44 fc 31 bd
       -0.022989303 0.08345497 -0.008431359 -0.04345347
000180 74 b1 f5 3d ee 8c c1 3c 76 2f fb bd a3 6a fb 3d
       0.11996737 0.02362677 -0.12264912 0.12276199
000190 2a 3f 0d 3d 1c dd e3 3d ee 8a d9 3c df eb cd 3d
       0.034484066 0.11126158 0.026555505 0.100547545
0001a0 54 42 52 bd 0e d8 82 bc a8 7b 03 bc 66 62 c9 3d
       -0.051332787 -0.015972164 -0.008025087 0.09833221
0001b0 76 f0 77 3c 55 3f b3 bd d4 1d 35 3d 35 ec d5 bd
       0.015133014 -0.08752314 0.0442179 -0.104454435
0001c0 ae 58 e0 bd d0 6b f1 3d 06 30 90 3d 09 aa 57 3d
       -0.10954414 0.11788142 0.0704041 0.052652393
0001d0 96 41 df 3d ec fc c8 bc 01 50 43 bc b8 f0 fd bc
       0.109011814 -0.024534665 -0.01192093 -0.030998573
0001e0 e6 f9 af bd 11 c5 75 3d 2a ff e4 3d 08 49 a0 bd
       -0.08592586 0.06000239 0.11181481 -0.078264296
0001f0 a1 f1 b6 3c e6 09 a4 bd 1c fb c3 bc 61 a7 93 bc
       0.022332015 -0.080097005 -0.02392345 -0.018024148
000200 82 48 af bd ca 62 3e 3b 95 bd f4 bd a8 80 bc bd
       -0.08558752 0.0029050582 -0.119502224 -0.09204227
000210 36 68 c0 bd af 0e 4d bd e0 e7 e5 bd 71 03 ac bc
       -0.09394877 -0.05006283 -0.11225867 -0.020997735
000220 64 dd b8 bd c4 fb 7a 3d d1 41 df bc ab 45 c0 3d
       -0.09026602 0.06127526 -0.027253063 0.09388288
000230 f4 79 a7 3d 22 88 10 be a1 c0 14 3d 68 cc e2 bc
       0.081775576 -0.1411443 0.036316518 -0.02768536
000240 14 11 d9 3a 93 0f 3e bd d6 0d ee 3d e5 23 50 3d
       0.0016560876 -0.04640157 0.11623733 0.05081548
000250 0c aa 04 bd 0c 5e e6 bd 18 f3 95 3d 00 37 c9 3d
       -0.03238873 -0.11248407 0.07321757 0.098249435
000260 40 f0 80 3b 5d 20 12 bd 91 c8 93 bd 50 89 04 bc
       0.00393489 -0.035675395 -0.072159894 -0.0080893785
000270 85 63 ad 3c aa 9e 8d ba b6 53 ec bd 28 ef 3c bd
       0.021165619 -0.0010804732 -0.11539404 -0.046126515
000280 81 b0 39 bd 70 8f 36 3d 9b df cb bd 1e 9c b0 3b
       -0.045334343 0.044570386 -0.09954759 0.0053897044
000290 c4 54 8b bd 53 d7 91 bd 44 0b 01 bd 42 c6 f5 bd
       -0.06803277 -0.07121148 -0.031504884 -0.12000705
0002a0 18 5d f2 3c 2c 4d cc 3d 7c 04 2d 3d 30 4d 0d be
       0.029585406 0.09975657 0.042240605 -0.13798976
0002b0 62 ba 2a 3d cc 47 37 3d 8f 9e c8 bc 72 47 f3 bd
       0.041681655 0.044746205 -0.02448967 -0.118788615
0002c0 c0 72 55 bb 43 9d b7 3d 47 bb 43 3c 2c 39 2a 3d
       -0.0032569617 0.08965542 0.011946506 0.04155843
0002d0 1d 59 af 3d 0a 65 23 3b de 3f fb 3d 19 cb ac 3d
       0.08561919 0.002493205 0.12268041 0.08437175
0002e0 ea e4 c3 bd 14 79 d5 3d 20 27 48 bd ed c8 98 3d
       -0.09565146 0.104234844 -0.048865438 0.074601986
0002f0 d8 b8 d0 3d 9a b8 ef 3d db f8 9a bc 98 09 b9 bd
       0.10191506 0.11705132 -0.018917492 -0.09035033
000300 a0 03 b5 bd 5b 63 63 bd 20 87 e8 3d ca e4 98 3d
       -0.08838582 -0.055514675 0.11353898 0.07465513
000310 e5 80 f7 3b 8c e2 67 3d 65 aa a3 bd 40 ee 12 be
       0.007553207 0.056612536 -0.079914846 -0.14348698
000320 94 b9 2b bd 45 7d 92 bd f9 cf 26 3d b8 b7 c1 3c
       -0.041925028 -0.071527995 0.040725682 0.023647174
000330 63 f4 14 3d 2a 01 8a bd a2 e9 aa 3d 43 97 9a bd
       0.036365878 -0.06738503 0.08345343 -0.07548382
000340 4b e9 83 bc fa dc 8d bd 1e 9f 0f bd f5 af 06 bd
       -0.016102454 -0.069269136 -0.035063855 -0.03288265
000350 60 d3 7b bc aa 61 91 3c ce 07 04 be fe 31 f3 bd
       -0.01537022 0.017746765 -0.12893602 -0.1187477
000360 8d dd 06 be 55 2e 77 bd ea dd 86 bd fa 74 26 be
       -0.13170452 -0.06034692 -0.065852955 -0.1625556
000370 d4 97 6a bc 72 63 ad bd 7c 7b 7c 3d b9 8f 3b 3d
       -0.014318425 -0.08466233 0.0616412 0.04579136
000380 94 57 a2 bd 59 71 be 3d 3f 40 99 bd 78 97 19 bd
       -0.079268605 0.09298963 -0.07482957 -0.037497967
000390 80 33 4c b7 5f bf 7e 3c 04 69 0c bd 49 10 5d 3a
       -1.2171338e-05 0.015548556 -0.03427984 0.00084329076
0003a0 32 4b 4e 3d 4e f5 c3 bd ec 5c cf bd b9 d1 3d 3d
       0.05036468 -0.095682725 -0.10125145 0.046342585
0003b0 90 76 94 3c 44 5c 09 3e a3 36 eb 3d b0 d0 bc bc
       0.018122941 0.13414103 0.114850305 -0.023048729
0003c0 fe c4 22 be 1a 6d 39 bd a8 11 54 3d 37 54 5e 3d
       -0.15895459 -0.045270063 0.05177465 0.054279532
0003d0 55 68 26 bd c0 6b 74 bb 0f a4 eb bd 15 dc f2 bd
       -0.040626843 -0.003729567 -0.11505901 -0.118583836
0003e0 dc 02 01 bd c2 29 14 bc 6a 6c c3 bd 70 b2 33 3d
       -0.031496868 -0.009043159 -0.09542163 0.043871343
0003f0 5c 3c c5 b9 d6 19 3d bd f0 9b 9c bc ad bc c4 bd
       -0.0003761974 -0.046167217 -0.019117326 -0.096062995

lstm.weight_hh_l0 f4 [256, 64]
000000 4e ce 87 3d af 27 cf 3c 4c b2 6c 3d 98 a0 36 bd
       0.06631146 0.025287477 0.057787225 -0.044586748
000010 b5 ae 99 bc 7a 07 de 3c 68 31 e1 bd 3e 1d a8 3c
       -0.018760065 0.027103174 -0.109957516 0.020521756
000020 78 da 83 3d e0 75 0c be 25 96 91 3d fd 1e a0 3c
       0.06438154 -0.1371684 0.07108716 0.019546026
000030 05 b9 00 3e 09 1c 19 3d 1a 74 c7 bd 12 56 23 be
       0.1257058 0.037380252 -0.097389415 -0.15950802
000040 16 f5 4b bd e4 31 d4 bd 68 dc d2 3d 93 c0 31 3d
       -0.04979428 -0.103610784 0.102959454 0.043396544
000050 bb cc 93 3d 76 ba 60 3d 29 02 24 3d e9 05 f2 bd
       0.072167836 0.054865323 0.040041123 -0.118175335
000060 52 13 b5 bd a3 d7 7f bd bf f2 3a 3d cb cb d0 3d
       -0.08841576 -0.062461507 0.045641657 0.101951204
000070 78 87 13 bd 03 be 77 3d bd e0 37 bd 59 db 30 bd
       -0.036017865 0.060483944 -0.04489206 -0.043177936
000080 81 43 8a bd 04 65 c7 3c d6 8a 15 be 41 17 47 3d
       -0.067511566 0.02434016 -0.14603743 0.04860616
000090 63 b9 ba 3d a8 1b 1e bd 31 38 c5 3d 14 a5 0b bd
       0.09117391 -0.038600594 0.09629858 -0.034092978
0000a0 6d 96 83 bd 34 08 58 3d a7 5e ac bc 8e 85 8c bd
       -0.06425176 0.052742198 -0.021041228 -0.06861411
0000b0 96 7d 8e bd 7a 56 20 bc 85 3d eb bb 01 3f 96 3d
       -0.06957547 -0.009786243 -0.0071789646 0.07336236
0000c0 ad 35 03 be 27 6f 79 3c 97 f1 aa 3d 8d bf dd 3d
       -0.12813444 0.015224255 0.08346861 0.10827551
0000d0 8d cf 05 bd 58 dd 64 3d e9 5e 47 3c 7b fe 8d bd
       -0.03266864 0.055875152 0.012168624 -0.06933304
0000e0 f5 cd 23 3e 6f f1 88 3d df 8b 48 bc 19 24 52 bd
       0.15996535 0.06686675 -0.012240379 -0.051303957
0000f0 49 35 46 3d c6 d6 bc 3d 47 ef 95 bd fa 19 27 3d
       0.04839066 0.09220652 -0.07321029 0.040796258
000100 fb e7 08 3d 5a 46 9a 3d 57 d6 e0 bd 04 f9 e2 bc
       0.03342436 0.0753295 -0.10978382 -0.02770663
000110 52 83 c1 3b 4a d7 8a 3d 3c 21 a6 bd 30 eb f2 3b
       0.005905547 0.067793444 -0.08111808 0.0074132904
000120 c3 e6 ea 3d 9c 2a 17 3d db 4f b7 3c c7 45 1f 3d
       0.114697956 0.03690587 0.022376945 0.038884904
000130 67 b4 a1 3d 09 de 0c be aa 01 56 bd 1a 94 14 3d
       0.07895737 -0.13756575 -0.05224768 0.036274053
000140 44 ce fc bc d4 65 6a bd ba 28 72 3d 01 0a 78 bd
       -0.030860074 -0.057226017 0.05912087 -0.060556415
000150 7c b4 db 3d e1 ba 12 be 41 f7 9a 3d f9 b9 38 bc
       0.10727784 -0.14329101 0.07566691 -0.011274808
000160 a9 09 8e bd d3 a2 d3 bd 0e d5 81 bc 97 29 e0 3d
       -0.06935436 -0.10333791 -0.015848663 0.10945433
000170 58 2e 8c ba 62 ff 2e 3d e8 cb 02 3d a5 bb df bd
       -0.0010694964 0.04272402 0.03193274 -0.10924462
000180 b0 0d 81 3d 9c 77 ce bc 75 65 f8 bd 90 41 d7 3c
       0.06301439 -0.025203519 -0.121287264 0.02627638
000190 22 8f 2c bd fc c4 f6 3d f1 35 18 3e ea f0 59 3c
       -0.04212869 0.120492905 0.14864327 0.013302067
0001a0 0f df 9a 3c 2c 59 4d 3c df 71 86 3b a4 7f 91 3b
       0.01890519 0.012533467 0.00410293 0.004440265
0001b0 8d d5 7c bc 19 58 1c 3c 7b 72 07 be 89 1a 95 3d
       -0.015431774 0.0095424885 -0.13227265 0.07280452
0001c0 28 6e 94 3d 41 21 a1 bc 29 b4 14 3d b2 c0 9b 3d
       0.07247573 -0.019669177 0.036304627 0.07605113
0001d0 cf 0c 8e 3d d4 b4 1a 3d dc 99 9d bd f2 2b 85 3d
       0.06936037 0.037770107 -0.07695362 0.065025225
0001e0 08 e2 53 3d b8 b4 d1 bd e2 cb 8e bc af 3b 70 3d
       0.051729232 -0.102395475 -0.017431203 0.05865067
0001f0 b1 06 3a bc 96 c8 a4 bd ba f2 e1 bd 98 40 bf 3d
       -0.011354134 -0.08046071 -0.110326245 0.09338492
000200 c2 01 cf 3d 7c 6c 0b be 8b f8 c7 bd c7 df a9 3b
       0.10107757 -0.13615602 -0.09764203 0.005184147
000210 68 10 1c bd 01 9f f4 bd 44 e0 10 be 4a 73 dc 3c
       -0.038101584 -0.1194439 -0.1414805 0.026910443
000220 9c da 89 3d 79 c8 3c 3c b2 0c 1a 3d a9 18 67 3d
       0.067311496 0.011522406 0.037609763 0.056420002
000230 af cf 02 3e 3f 54 b5 bc d6 eb b7 bd f7 0e e1 bd
       0.12774538 -0.022134898 -0.08980529 -0.109891824
000240 8c 35 f7 3d 5e 8b ed bd 62 19 4b bd b7 63 c5 3d
       0.1207076 -0.11598848 -0.049584754 0.0963816
000250 9b 3d e9 3d e8 86 5a bc 75 94 a5 bc 4e d0 de 3c
       0.113887034 -0.013337828 -0.020212391 0.027198937
000260 d1 de cc bd 47 b5 3b bd 3c 09 36 3d a4 94 9d bc
       -0.10003436 -0.045827176 0.0444424 -0.019235916
000270 1b cc 3e bb d5 9c b9 bb 87 a7 2e 3c 58 16 a6 3d
       -0.0029113356 -0.005664448 0.010660059 0.081097305
000280 40 fe 2d be 3a fe a5 3d 8d a8 87 3c 0d 42 85 bc
       -0.1699152 0.081051305 0.016559863 -0.016266847
000290 47 84 6f 3d aa b1 db bd c5 4a 6b 3d 81 2f 69 bd
       0.05847576 -0.10727246 0.057444353 -0.05693007
0002a0 7f 77 57 bd 7a 11 b7 3d ae de 0e be d8 4f 5e bc
       -0.052604195 0.0893888 -0.13952133 -0.013568841
0002b0 af 4e 61 3d a0 b0 eb bd a0 b7 4d 3c d6 ee b5 3d
       0.05500668 -0.11508298 0.012555987 0.08883445
0002c0 41 28 94 3d 4d a1 81 3d bb 09 d4 3d fa b2 16 bd
       0.0723424 0.06329594 0.103534184 -0.03679178
0002d0 a6 8b 0d 3d 7f ca f0 3d 43 06 8e 3c f3 57 9b bd
       0.034557007 0.11757373 0.01733697 -0.07585134
0002e0 57 17 d9 3d ac 3c fd 3c 02 b6 17 3d e9 3a b2 bd
       0.10600155 0.03091272 0.03703881 -0.087026425
0002f0 25 ac 71 3b af 1a 93 3c 7a 32 2c 3e c6 e1 6d bd
       0.0036876288 0.01795706 0.1681613 -0.058076642
000300 3c e3 2e 3c 6a ad 20 3d 55 22 0f bd 01 8c ba bd
       0.010674294 0.03922788 -0.03494485 -0.09108735
000310 ff 63 06 3e 01 b9 87 3d 70 28 6d bd 2a cf e6 bc
       0.13124083 0.066270836 -0.057899892 -0.028174955
000320 89 c8 5c bd cb fe 18 bd 72 e7 eb 3c 40 9f 65 3d
       -0.053902183 -0.037352365 0.028796885 0.056060076
000330 83 7f 1a 3d 9a ea 15 be f7 67 92 3d b2 e7 c7 bd
       0.03771926 -0.14640275 0.07148736 -0.09760989
000340 44 3c 30 bd 35 70 dc 3c 1a 66 e3 bc b9 13 24 bd
       -0.043026224 0.026908973 -0.027758647 -0.04005787
000350 8c 41 8a bd 26 5f 4e ba 83 aa df 3d ad cf 11 be
       -0.06750783 -0.00078724546 0.109211944 -0.14239378
000360 55 d8 ef 3d 52 1f 1f 3d 27 1a 70 bc 67 84 f0 3d
       0.11711184 0.03884823 -0.014654673 0.11744004
000370 a0 27 ee b9 06 43 fc bd f6 e5 5d 3d e4 fb 8b 3c
       -0.0004542442 -0.12317471 0.054174386 0.017087884
000380 7e f1 50 3c 3f d1 1c bd b5 31 b5 3d 8c c7 71 3d
       0.012752889 -0.03828549 0.088473715 0.059028193
000390 d0 f9 6b 3d 65 79 1b bd 60 b8 b6 bc 47 28 fc 3b
       0.057611287 -0.037957568 -0.022304714 0.007695231
0003a0 28 6c ab bd 98 f6 83 bb 47 9c cc bd 6c 1b 15 be
       -0.083702385 -0.004027199 -0.09990745 -0.14561242
0003b0 1a c5 91 bd c9 b9 fd 3c 09 9c c6 3d b7 90 2b 3e
       -0.07117672 0.030972378 0.0969773 0.16754423
0003c0 d2 e7 9c bd 8d b9 c0 3d 68 7d a5 3d 7a 64 eb 3c
       -0.07661404 0.09410391 0.0808056 0.028734434
0003d0 4a e6 0c 3d 11 ea ca 3c 35 db 87 3c ec 5c 4f 3d
       0.03439931 0.024769815 0.016584018 0.050625727
0003e0 56 3f 14 3e b8 f8 78 b9 a7 40 42 bd ae f3 54 bd
       0.14477286 -0.00023743778 -0.04742494 -0.051990204
0003f0 bb 6d d2 3d 4c e5 55 bd 28 17 80 3d 13 6c 8e 3c
       0.10274836 -0.052220628 0.06254417 0.017385518

lstm.bias_ih_l0 f4 [256]
000000 40 a4 c9 3d 37 4a cd 3d 44 ef ab bd c0 de 15 3e
       0.09845781 0.10023921 -0.08395246 0.14635754
000010 48 9e 8e bb 2a 4d 3c bc d9 89 21 3d 8b 7a 48 3d
       -0.0043523647 -0.011493007 0.039438102 0.04894499
000020 2f d6 77 3d 70 37 17 3e 08 ab bf bd ab 5b 97 3c
       0.060506996 0.14767241 -0.093587935 0.018476328
000030 84 ab ab bc 42 e9 64 bd 70 fb 97 bc ad 07 b8 3c
       -0.020955808 -0.055886514 -0.018552512 0.022464598
000040 3b 63 e6 3a 45 15 b0 bd 70 d4 85 bd e4 8d 17 3d
       0.001757718 -0.08597807 -0.0653466 0.03700055
000050 03 f6 a7 bd 92 91 0c 3d 87 68 1b bc d3 3b 5e bd
       -0.0820122 0.034318514 -0.0094853705 -0.05425627
000060 52 60 9c 3c fb ce c1 ba b8 18 8c bd e9 e6 94 3d
       0.019088898 -0.0014786416 -0.06840652 0.07270605
000070 72 27 bf bd 0f b1 0b 3e c2 c9 af bd cb 35 07 3e
       -0.093336955 0.13641761 -0.08583404 0.13204114
000080 f5 d3 ed 3d 18 da b0 3d 87 2e 17 bc 33 e3 a1 3d
       0.11612693 0.08635348 -0.009227402 0.07904663
000090 ce 42 ae 3c d5 04 a5 bd 3c 15 40 3d 1f 7c d5 3c
       0.02127209 -0.08057562 0.04689525 0.026060162
0000a0 29 88 e2 3b dd 34 79 3c ef aa 36 bd 3e 2c a0 3d
       0.006913204 0.0152103575 -0.04459661 0.078209385
0000b0 27 23 d1 3d 8b b5 8a bd 51 a3 e8 3d 4b fa 10 3d
       0.10211783 -0.06772908 0.11359275 0.035394948
0000c0 4e cf d3 bd ce ca 4e 3d c7 85 4c 3d 07 28 97 3d
       -0.103422746 0.05048638 0.049932268 0.073806815
0000d0 1e 9a 8e bd e5 f0 61 bd 05 4b 70 3d b1 03 04 3d
       -0.06962989 -0.055161376 0.058665294 0.032230083
0000e0 e0 fa 22 bc cb 9b 06 bc 68 62 0f bd ac 75 48 3d
       -0.009947509 -0.008215855 -0.035005957 0.048940346
0000f0 c5 3b a9 3c 64 3b e3 bc d8 dd a4 3d 36 5f 32 3c
       0.020658383 -0.02773828 0.08050126 0.010886958
000100 34 c7 aa 3d 80 d7 1b 3d a5 f5 bb 3d 34 79 1f 3d
       0.08338776 0.038047314 0.09177712 0.038933948
000110 5a 2f 2f 3d 47 9b ce bd 4a 1e 95 bd b4 4c 77 3c
       0.042769767 -0.100882106 -0.07281168 0.015093971
000120 16 52 a9 bc 25 00 b2 3a d8 ae 81 3c 11 9f 5a bd
       -0.020669024 0.0013580365 0.015830442 -0.053374354
000130 00 7c ce bd e6 29 0f bd 2c dd f2 3c 5d e7 8d 3d
       -0.10082245 -0.034952067 0.029646479 0.06928895
000140 87 69 2f bd 0b ab 0c 3e 26 f6 ba bc d3 9b d0 3d
       -0.042825248 0.13737123 -0.02282245 0.10185971
000150 b0 f2 27 bd 41 60 d9 3d b2 7e c5 bd 12 cf 2d 3d
       -0.04100293 0.10614062 -0.09643306 0.042433806
000160 32 91 2f bd 1c 47 e1 bd 83 9c d8 bc 87 9b ea 3d
       -0.04286308 -0.10999891 -0.026441818 0.11455446
000170 38 66 6d bd a9 79 ad 3d c2 da f1 3d 49 21 17 3e
       -0.05795881 0.084704705 0.11809303 0.14758791
000180 dc 17 91 bc 3d a7 08 3e 23 9e 0a bc 3b 92 d5 bc
       -0.017711572 0.13345046 -0.008460554 -0.026070705
000190 c6 7b aa 3c 6f 13 9d bd 40 31 af bd 93 eb b4 3c
       0.020810973 -0.07669722 -0.085543156 0.022084987
0001a0 92 98 07 bc 05 90 d0 3c e0 9d d0 bd 00 13 9f b6
       -0.008276122 0.025459299 -0.10186362 -4.740781e-06
0001b0 40 e4 08 3e bf b7 05 3e cd d3 60 3c 8e 4e a4 bc
       0.1336832 0.13058375 0.013722372 -0.020056989
0001c0 1d 53 cf bc c8 ec 71 bd b4 73 96 bd 4d 2c 8b 3d
       -0.025308186 -0.059063703 -0.07346287 0.06795559
0001d0 2b 61 84 bb e0 f5 56 3d 4e ff ad bc de a0 ae bd
       -0.0040399036 0.05248058 -0.021239903 -0.08526777
0001e0 b2 91 7b bd 7a 9a 9b bd c0 58 e9 3d d5 88 90 bb
       -0.061418243 -0.075978234 0.11393881 -0.004410843
0001f0 f4 3d 49 bc a1 72 6f 3d ba 52 b5 3d f3 88 1d 3d
       -0.012282837 0.058458928 0.088536695 0.038460683
000200 5e 27 06 be 0e 35 be bd 1e 79 e2 bd 7e 3d ba 3d
       -0.13100955 -0.09287463 -0.110582575 0.0909376
000210 3d be 56 3d b8 fb 0a bd 32 4e 63 bd 08 5a e6 bd
       0.05242752 -0.033931464 -0.055494495 -0.11247641
000220 6d a0 c5 bd 88 b7 1a bd f0 91 a4 bd 08 48 d6 3c
       -0.096497394 -0.037772685 -0.08035648 0.026157394
000230 80 23 a4 3c 14 38 df 3c b3 18 ae 3d ad 8d 98 bd
       0.020036459 0.02724842 0.08500805 -0.074488975
000240 d8 fb f1 bc 76 4c f3 bd 36 0a df 3d 26 3e ea 3b
       -0.029539034 -0.11879818 0.108906195 0.007148522
000250 6b 18 cd bd 18 f6 08 be ba 3e 8b 3d 80 53 b0 3d
       -0.10014423 -0.13375127 0.067990735 0.08609676
000260 17 c1 a2 bd 15 d6 8e 3d a3 75 c1 3d 2e 3b 9c 3d
       -0.07946985 0.06974427 0.094462655 0.07628475
000270 8d 1e a1 3d 95 86 94 3c aa f9 c3 bd 70 5e 45 bd
       0.07867155 0.01813058 -0.09569104 -0.048185766
000280 3d 5f 49 3d 52 b1 a5 3c 40 cf 96 3d 17 d3 a8 3d
       0.049163092 0.020226154 0.073637486 0.08243387
000290 a3 2c 0a 3e a6 ef 3d bd 58 e5 8c 3d 80 6c 90 bd
       0.1349359 -0.046371125 0.06879681 -0.07051945
0002a0 bf dd 98 3d 6f bb 01 3e 78 51 d3 bd fe 92 a8 bd
       0.0746417 0.12669156 -0.10318273 -0.082311615
0002b0 76 af 3a bd 51 16 b2 bd eb b3 0d bd ed 5c 09 3d
       -0.04557749 -0.08695663 -0.03459541 0.033535887
0002c0 5b 72 57 3b a8 de 98 3c 7f ec b7 bc b4 22 d7 bd
       0.0032874558 0.018660858 -0.022451637 -0.10504666
0002d0 cd a8 82 3c e4 e5 78 bd 55 ea 3d 3d 82 c2 ea bd
       0.015949631 -0.060766116 0.046366055 -0.11462881
0002e0 47 d5 8c 3d 90 40 e2 bd dd 4e f6 bd df 11 f3 3d
       0.06876617 -0.110474706 -0.12026761 0.11868643
0002f0 fc 9a a0 bc 69 54 f3 3d 1e 1a bc 3d 27 4e cd 3d
       -0.019605152 0.11881334 0.09184669 0.10024672
000300 71 40 69 3d 67 b3 05 3e e4 7c c8 3d e9 9e 29 3c
       0.05694622 0.13056718 0.09789446 0.010352829
000310 d9 c5 8a 3d 11 b9 a5 bd c0 95 c1 bd 80 d6 84 3b
       0.06776018 -0.08091939 -0.09452391 0.0040538907
000320 f9 d5 47 3d 58 a9 40 bd 21 c2 24 3d 0d ea d9 3d
       0.048788045 -0.0470365 0.0402242 0.10640345
000330 9b 44 d9 3d 39 25 a3 3d 34 3a c7 3d ac 51 b3 3d
       0.106087886 0.07966084 0.09727898 0.08755812
000340 5d 1f 2a 3e 6a cb 44 bd c3 2f f8 3d 8c 48 ef 3d
       0.16613527 -0.048045553 0.12118485 0.11683759
000350 da b9 b2 3d 3d 4e 75 3d 71 33 ed 3c 1a 5f c1 3d
       0.087268546 0.059889067 0.028955193 0.09441967
000360 11 f3 c0 3c b6 f0 2a bd 84 0c 60 bd ea f1 7e bd
       0.023553403 -0.041733466 -0.054699436 -0.062242426
000370 f1 d3 97 3d 98 e7 03 bd ee 0d ab 3d 4d 4e b6 3d
       0.074134715 -0.032203287 0.08352266 0.089016534
000380 60 f3 a8 bd 54 e2 e1 3d 51 0a a0 3d e4 38 04 3e
       -0.08249545 0.11029497 0.07814468 0.12912327
000390 99 20 85 bd 5a 3c 5c bb 68 2f 4f bd 43 4a ac bd
       -0.06500358 -0.0033605308 -0.05058232 -0.08412602
0003a0 5a 5d b4 bd 2d b9 36 bd 61 3f 54 3c 39 ac 86 3d
       -0.08806868 -0.04461019 0.012954564 0.065758176
0003b0 24 fe 28 bd 9f 95 8c 3d 97 72 26 3d 02 bd 7d bd
       -0.041257992 0.068644755 0.040636625 -0.06194783
0003c0 2c be 86 bb 69 4b 40 3c 5f 4f cb 3d cc e9 ca bc
       -0.0041120257 0.011736729 0.09927248 -0.024769686
0003d0 09 75 e2 3d 3a c4 48 bd 91 d2 a6 3d 07 39 ad bd
       0.11057479 -0.04901526 0.08145631 -0.08458143
0003e0 85 0a 02 bd 82 11 cb bd a3 a6 07 3d b9 b4 2f bd
       -0.031748313 -0.09915449 0.0331179 -0.04289696
0003f0 40 c1 1e ba f7 89 0b bd d9 28 f2 3d 09 73 97 bd
       -0.0006056018 -0.03406712 0.11824197 -0.07394988

lstm.bias_hh_l0 f4 [256]
000000 78 dc bc bc 4d 9e bd bd 03 c9 99 3c 2d ed 7e bd
       -0.023054346 -0.09258709 0.018772608 -0.062237907
000010 7e da 66 3d af ae ce bd bc da a0 3d 36 e0 9b bd
       0.056360714 -0.10091912 0.0785422 -0.07611124
000020 81 ba d8 3d 3c d5 92 bd d9 f9 1e 3d f9 85 30 3d
       0.10582448 -0.071695775 0.038812492 0.043096516
000030 19 1d 60 3d 7e c9 c6 bc 2c a2 86 bd 4d ba 65 3d
       0.05471525 -0.024266 -0.065739006 0.056085873
000040 93 2d aa 3d 61 f6 96 3d 2e 01 cd 3b 30 d4 c2 3c
       0.08309474 0.07371212 0.006256244 0.02378282
000050 6c 6d dc bd 22 14 1f bd 0d 1a 6a bd 42 0d 4a bc
       -0.10763058 -0.03883756 -0.05715375 -0.0123322625
000060 54 40 f4 3c d7 f3 a9 3d e9 bb 11 3d e4 e9 dc 3d
       0.02981583 0.08298462 0.035579596 0.107867986
000070 4c 92 23 3d 37 da aa 3d 08 b4 d8 3d cb 33 2a bd
       0.03993444 0.083424024 0.10581213 -0.0415533
000080 c5 ec fe 3d 86 01 cc bc 3c 07 46 3d 5d e3 88 bc
       0.12447504 -0.02490307 0.048346743 -0.016709978
000090 33 78 c9 3d 52 4e 84 3d 7e eb 3e 3b e8 56 25 3e
       0.09837379 0.06460251 0.0029132064 0.16146433
0000a0 19 95 a7 3d 46 b7 8b bd 99 f8 1f 3d 52 6d 88 3d
       0.08182735 -0.06822066 0.03905544 0.06661476
0000b0 4b ea fe 3d 68 87 dd 3c 9b e3 d2 3d f9 ad fc 3d
       0.124470316 0.027042106 0.102973185 0.1233787
0000c0 e1 9f a2 3d 72 f1 5e bd d1 ca 4a bd 2f 7f 47 bd
       0.07940651 -0.05442948 -0.049509827 -0.048705276
0000d0 a5 e8 b1 bd 27 c3 f0 3d 11 56 6c bb 3f 8c 36 3d
       -0.086869515 0.11755972 -0.0036062042 0.044567343
0000e0 30 87 ad 3d 33 9b d7 bd 37 f9 8c 3b c0 39 b2 3c
       0.084730506 -0.10527649 0.0043021697 0.021756053
0000f0 f0 5d 90 bd 51 a1 ae bd 22 68 81 bd f4 dc 30 3d
       -0.07049167 -0.085268624 -0.0631869 0.043179467
000100 ac f5 d8 3c a1 24 8f bd 5d 09 09 3e 91 f5 23 bd
       0.026484333 -0.06989408 0.13382478 -0.040029112
000110 8c 14 e0 3d ec fb a5 3c 0a a7 a3 3c 79 6a ea 3c
       0.10941419 0.020261727 0.019977111 0.028615223
000120 b6 43 63 bd ba 56 29 bd f0 7f 2e 3d 45 f0 b8 bd
       -0.055484496 -0.041342475 0.04260248 -0.09030203
000130 6b 25 09 bd 83 9e 6a bc 85 f9 79 bc 82 9e fb 3d
       -0.03348295 -0.014320019 -0.015257244 0.12286092
000140 3f d2 85 3d b9 09 3f bd cf a2 f1 ba bb 5f 81 bd
       0.06534242 -0.04664013 -0.0018435362 -0.06317087
000150 03 5b c0 bc 9a 58 29 bd c6 d7 76 3d aa 52 09 3e
       -0.023480898 -0.041344263 0.06026437 0.1341044
000160 4f bf 63 bd 71 b5 9d 3d ce 39 d2 3c 67 03 ab 3c
       -0.055602368 0.07700623 0.025662329 0.020875646
000170 c9 b3 9d 3d 35 fb 91 bd df 7d 8b bd 90 96 5d 3d
       0.07700307 -0.07127992 -0.068111174 0.054098666
000180 ae 58 40 bd ec 7f 79 3d 04 ba 10 3d 88 c9 cc 3d
       -0.04695957 0.06091301 0.03533365 0.099993765
000190 ce cf 2b bd a6 30 75 3d de d5 d6 3c 98 b3 96 bd
       -0.041946225 0.059860848 0.026225027 -0.073584735
0001a0 4c 8b 73 3d b2 df 9a bd c9 f3 7b 3c 30 86 d6 3d
       0.059459016 -0.07562198 0.015377947 0.10474813
0001b0 c8 90 f3 bc d6 ef fc ba c4 08 8d 3c 38 ed cc 3d
       -0.029732123 -0.0019297551 0.017216094 0.100061834
0001c0 2c d4 e3 3d 6e 04 c8 3c 94 69 a8 bd a3 93 d4 3b
       0.11124453 0.024416175 -0.082232624 0.006487326
0001d0 67 fa 0b bd 8f 0f 81 3c d1 0f 09 3d 8b b2 a3 3b
       -0.03417435 0.01575449 0.03346235 0.004995649
0001e0 8d 2a 0a 3e 84 a8 e4 bd a8 b5 d9 3d 5e b5 dc 3d
       0.13492794 -0.11164954 0.10630351 0.107767805
0001f0 90 5f 2b 3d bd 87 30 3d f3 35 16 bd 73 fb 6d 3d
       0.041839182 0.0430982 -0.036672544 0.05810113
000200 1a 07 7d 3d 56 9b ca bd f7 ba f0 bd 35 01 e7 3c
       0.06177435 -0.09892909 -0.11754411 0.028198818
000210 90 3f 9d 3d f0 b5 9b 3c 5f 22 dd bd 50 c2 ce 3d
       0.07678139 0.019007653 -0.107975714 0.10095656
000220 c8 8f 9a bd 42 2b b3 3d 49 2f 3f bd 8f 52 01 3e
       -0.07546955 0.08748485 -0.046675954 0.1262915
000230 2e 5c 4b 3c a3 de c0 bb e0 10 f1 bd 79 6f a3 bd
       0.012412114 -0.0058859154 -0.11770797 -0.07980246
000240 5c d7 ac 3d 6b 07 8f bd 4a c8 17 3d 3f 56 01 3e
       0.08439514 -0.06983837 0.037056245 0.12630557
000250 ce 7b e4 3d fd 55 59 bd a3 2d e3 3d ea 4c b9 bd
       0.11156426 -0.05306052 0.11092689 -0.09047873
000260 9b 83 f2 3d b7 b6 c1 bd 7b 5f ad bd 6b 19 d4 bc
       0.11841508 -0.09458678 -0.08465477 -0.025891026
000270 2a 29 92 bd 14 9c b5 3d 5c bb d3 bc e6 fc 80 3d
       -0.07136758 0.0886766 -0.025846176 0.062982365
000280 b0 02 84 bd d0 86 fb 3c c0 ee e9 bd fd a0 d6 bd
       -0.06445825 0.030703932 -0.11422491 -0.10479925
000290 76 31 2c bd aa b8 8c 3d 42 a1 52 bd 3b 18 56 3d
       -0.042039357 0.068711594 -0.05142332 0.0522692
0002a0 47 ba 9f 3d df 85 73 3d 87 32 3e bd e8 44 f7 bc
       0.077992015 0.05945384 -0.046434905 -0.030184224
0002b0 b7 fb b2 bd c7 bf d0 bd 18 bd 57 39 8a c6 62 bc
       -0.08739417 -0.101928286 0.0002057444 -0.013841281
0002c0 e9 4f f6 bd f0 14 02 3e 06 41 df bd e3 b6 a9 3c
       -0.120269604 0.127033 -0.10901074 0.02071709
0002d0 c7 b5 a4 bd 86 d2 ab 3d 39 d5 db bd 5e f6 e1 bd
       -0.08042484 0.083897635 -0.10734028 -0.11033319
0002e0 f6 cc 8c bc 1a 5e a6 bd f1 8f 59 3d 3a d4 2b 3c
       -0.017187577 -0.08123417 0.05311579 0.0104876105
0002f0 c1 6f 9a 3d 96 73 91 3c ed bf 22 bd 21 a2 dd 3d
       0.075408466 0.017755311 -0.039733816 0.10821939
000300 0c e5 20 3e 74 86 75 3d bf b6 83 3c ed a6 1c bd
       0.15712374 0.059942678 0.016078351 -0.03824513
000310 f0 0f d9 3d 5d 87 ba bd 48 83 e5 3d 47 a9 ea bc
       0.10598743 -0.0910785 0.112066805 -0.02864517
000320 cd c8 d1 bd ab 3d d2 3a af 7b 0e 3e 1a 3f 4e bd
       -0.10243378 0.0016040107 0.13914369 -0.050353147
000330 49 b0 90 3d b8 bc 12 3e a2 db ba 3d 93 36 1b 3d
       0.07064874 0.14329803 0.09123923 0.037893843
000340 e4 8d 39 3d 13 60 a1 3c 87 10 e3 3d 2a 6c 95 bc
       0.045301333 0.019699132 0.11087137 -0.018240053
000350 e3 8a 59 3d d7 1d 32 bd 70 36 69 3d 3c 1a 21 bd
       0.05311097 -0.04348549 0.05693668 -0.03933166
000360 17 fd da bc 2e 2b c4 3d ae e2 a0 3d 3b 91 04 3c
       -0.02673201 0.09578548 0.07855736 0.008091266
000370 43 9b a8 3d ac 8f 5b 3d e5 e2 2f 3d 0d f1 40 3d
       0.08232739 0.053603813 0.042940993 0.047104884
000380 dd ad 0a 3e 12 77 7c 3d dd bf 9f bd 07 f7 b2 bc
       0.13542886 0.06163699 -0.07800267 -0.021846307
000390 d2 08 39 bd 7f 5c 2d 3d 5c b4 72 3c 70 db b3 3d
       -0.045174427 0.04232454 0.014813509 0.08782089
0003a0 6e be cc 3d f1 52 76 bb e0 72 0c bd b3 82 87 bd
       0.09997259 -0.0037586058 -0.03428924 -0.06616726
0003b0 37 0d b4 3d 67 31 d0 bd 4f 4b 7d 3c 5a a9 82 bc
       0.08791583 -0.10165673 0.0154598495 -0.015949894
0003c0 52 47 8c 3d 96 7d 55 bd 52 f1 0d 3d 54 8f 89 bc
       0.06849541 -0.05212172 0.03465397 -0.016791977
0003d0 ce 66 4c 3d 0b c6 14 3e da 16 fa 3d 6c 13 ac 3c
       0.04990273 0.14528672 0.1221139 0.021005355
0003e0 e8 1a 82 3d 86 ce d8 bd 6f c8 1e bd 04 f0 a1 3d
       0.06352788 -0.10586266 -0.038765367 0.079071075
0003f0 b5 86 25 bd 35 b8 97 3d ea 4c 86 3d ab 3d 1d bc
       -0.04041167 0.074081816 0.06557639 -0.009597222

lstm.weight_ih_l1 f4 [256, 64]
000000 10 91 db 3a 4e 96 9a 3a 11 19 17 be 1f 4c 84 3c
       0.0016751606 0.0011794062 -0.14755656 0.016149579
000010 a1 29 06 bc b1 2f 9a 3a 2b 96 89 bb 07 a4 bd 3c
       -0.008188636 0.0011763481 -0.0041988096 0.023149503
000020 9e ae 28 3c cd 59 0a be 73 f6 84 bd 9c 0d ac bc
       0.010295538 -0.13510819 -0.06492319 -0.021002583
000030 89 52 13 be 65 e8 68 3d f3 41 14 be 33 83 be 3c
       -0.14386953 0.056862254 -0.14478283 0.02325592
000040 b4 08 f3 bc 0d 21 9d 3d c2 c8 9a 3d c0 9b 90 bd
       -0.029667236 0.076723196 0.07557823 -0.07060957
000050 93 8b 78 3d eb 56 19 be 8c 98 7c bd 54 b0 30 be
       0.060679983 -0.14974563 -0.061668918 -0.17254764
000060 0e fe ef bc ae 41 31 bd be 64 be bd 32 af 7c 3d
       -0.029295947 -0.043275528 -0.09296559 0.061690517
000070 1e 39 18 be bb 4b fe bd fa 9a 67 bd b7 fc f1 bb
       -0.14865538 -0.12416788 -0.05654428 -0.0073848623
000080 fa 60 df 3c ea 92 9e 3c 43 94 a0 3c 20 5a fd 3d
       0.027267922 0.019357163 0.019601947 0.123707056
000090 fb 07 17 3e ad 74 06 3e 60 26 1f 3e aa 0c d0 bd
       0.14749138 0.13130446 0.15541983 -0.101586655
0000a0 cd d2 53 3d 8b e7 9e 3c d3 4d 0e 3e 6b 87 6f bd
       0.051714707 0.019397518 0.13896875 -0.058478754
0000b0 01 dc b1 bc 9c 59 c0 bd 52 41 c2 3d 62 a2 f9 bb
       -0.021711351 -0.09392092 0.09485115 -0.0076182345
0000c0 4a 51 9f bd f4 c0 1c bd 4e c5 19 3d 06 c2 a4 bc
       -0.077791765 -0.038269952 0.03754168 -0.020112049
0000d0 a4 bb 86 bc fb 99 05 bc dc 4b 2a 3d d8 d0 a7 3d
       -0.016446896 -0.008154388 0.04157625 0.08194131
0000e0 e0 b7 2b 3c e3 45 00 be 77 f5 59 bd 7d 70 d1 bd
       0.010480851 -0.1252666 -0.05321261 -0.102265336
0000f0 12 4d 22 bc a6 ce 56 3d 75 84 18 be 75 91 bb 3d
       -0.00990607 0.05244317 -0.14894278 0.09158603
000100 4f 1f 8d bc 49 dd b0 3d 4b 2a b7 3d 47 0c d5 bb
       -0.017226843 0.08635957 0.089436136 -0.0065017077
000110 3b ff 9d 3d 45 2e 02 3d 85 ad 27 3d cb ab d3 3d
       0.07714697 0.031782407 0.040936965 0.10335501
000120 a2 32 07 3e 1c 35 84 bd ea 0c 6b bd ce 10 cc bd
       0.13202909 -0.06455442 -0.057385363 -0.09964143
000130 a0 ad aa bd bd 4a 12 3d 9f d8 8a 3d f0 51 bd bd
       -0.083338976 0.035715807 0.067795984 -0.09244144
000140 1a 65 06 3e f9 d5 e7 3d b1 f4 54 3c 31 80 a2 3d
       0.13124505 0.11320109 0.012997792 0.07934607
000150 2b d5 14 3b 04 f1 b0 3d 04 85 8c 3c 89 43 69 3c
       0.0022710066 0.0863972 0.01715327 0.014237293
000160 79 27 a7 bd a6 5f bf bd bf 73 5a 3d 96 bf 96 bd
       -0.08161826 -0.09344415 0.05333304 -0.07360761
000170 55 38 97 bd 0a 1a 89 bd e8 e9 c1 bd 73 78 a4 3b
       -0.07383791 -0.0669442 -0.09468442 0.0050192415
000180 40 68 ae 3d fe f4 e0 3c c8 be aa bd a6 68 08 be
       0.08515978 0.027460571 -0.0833717 -0.1332117
000190 3d de d1 3d 60 2d e4 bd a1 26 54 bd c8 66 1b bc
       0.10247467 -0.11141467 -0.051794652 -0.009484954
0001a0 50 fb 91 3c 5a 20 8c 3d 7c 1d 11 3d 88 96 46 bd
       0.01782003 0.06842108 0.03542851 -0.0484834
0001b0 28 b2 8c bc ca 7a ce 3c c0 a8 d0 bd 28 30 df bd
       -0.017174795 0.025205035 -0.101884365 -0.10897857
0001c0 d9 f6 c6 3b aa b3 7e bc 64 7f b1 3d 27 43 24 3e
       0.006071907 -0.015545765 0.08666876 0.16041242
0001d0 70 9d 44 3d 39 ce f5 bb 0e dd ff bd 66 99 35 bd
       0.048001707 -0.0075013903 -0.12493335 -0.044335745
0001e0 76 98 ae 3d f3 70 99 3c 59 c9 49 bc 60 4b ba 3d
       0.08525173 0.018730616 -0.012316071 0.09096408
0001f0 01 39 12 3b a9 08 10 bd 0e e7 91 bd b2 81 5c 3d
       0.002231181 -0.03516451 -0.07124148 0.053834625
000200 b6 7b ef 3c 31 68 e0 3d f4 af 33 be 82 6a 11 bd
       0.029233795 0.10957373 -0.1754759 -0.035501964
000210 6f 9d 5d 3d 58 b9 12 be 81 5b 98 3d dd 35 38 3e
       0.05410522 -0.14328516 0.07439328 0.17989297
000220 12 c0 06 bd 2a 57 49 3c 80 a8 8e bc 0a 7c d4 3d
       -0.032898016 0.012288848 -0.017414331 0.10375221
000230 64 35 4f 3d f3 22 3b 3c 67 b5 0e bd 77 86 31 3d
       0.050588027 0.011421907 -0.034840968 0.043341126
000240 81 ae 2a bd e3 31 bc bd ae 0a af 3d 96 c9 65 3c
       -0.041670326 -0.09189203 0.08546959 0.014025113
000250 9d c5 c5 3d 93 6d 16 be 60 78 1d 3d 22 37 1b be
       0.09656832 -0.14690237 0.038444877 -0.1515775
000260 b5 04 85 3d e5 21 b1 bd 76 71 37 bd 6c 7d 0c 3e
       0.064950384 -0.08649043 -0.04478594 0.1371972
000270 0d 4d 0d be 5e 1b 8e bd 2f 28 59 bd c1 01 10 3d
       -0.13798924 -0.069388136 -0.053016838 0.035157923
000280 19 53 5f bd fb 6c 8a bd 8e c8 8f 3d 85 ab 96 bd
       -0.054522607 -0.067590676 0.07020675 -0.073569335
000290 86 4a ad 3d dc 7b 81 bd 40 a8 3d 3d 2f 10 51 bd
       0.0846148 -0.063224524 0.046303034 -0.051040825
0002a0 f8 14 05 3e 65 07 92 bc 51 1e a9 3d e4 71 48 bc
       0.1299628 -0.017825792 0.082577355 -0.012234185
0002b0 b0 3d e9 bd 57 26 51 bd f5 82 0d 3c da fd eb 3c
       -0.11388719 -0.051061954 0.00863718 0.02880757
0002c0 0f 21 4b 3d 1f cd 8a bd 5d 2b 8d 3b ce a1 ca 3b
       0.049592074 -0.06777405 0.004308148 0.0061838394
0002d0 ef 17 2f 3e 4a ae e6 3d 10 d3 ab 38 c6 8d 22 be
       0.17098974 0.11263712 8.193229e-05 -0.15874395
0002e0 d9 75 d9 3d 37 59 b9 bc b4 27 27 bd e9 a6 6a 3d
       0.10618181 -0.022625549 -0.04080935 0.057288084
0002f0 d7 57 69 bd 17 e7 88 3d 5e 0c d0 bd 45 27 7f bd
       -0.056968536 0.06684702 -0.10158609 -0.06229331
000300 67 cb 84 bd 8c 88 52 bd fa cd da bc a3 5d 35 bd
       -0.064841084 -0.051399752 -0.026709545 -0.044278752
000310 23 f2 ab bc 69 94 d2 bd 13 52 03 be 31 e0 c4 bd
       -0.020989483 -0.10282213 -0.12824278 -0.096130736
000320 08 a9 f8 bd 95 e7 0e bd 02 b5 9f 3c d6 4c b8 bc
       -0.12141615 -0.034888823 0.019495491 -0.022497576
000330 fd be 05 3e f9 d3 c9 3c 5f 10 cb bd 13 d2 72 3c
       0.13061137 0.02463721 -0.09915232 0.014820593
000340 be 31 b8 bc d8 74 43 bc c3 d4 13 bb a5 d1 00 3e
       -0.022484656 -0.011929713 -0.0022557236 0.12579973
000350 fa 9d e6 3c 7f e8 80 bd 4d 62 93 bd f3 b1 51 bd
       0.028151501 -0.06294345 -0.07196484 -0.051195096
000360 b1 48 38 3d dc a8 06 be a7 87 41 3d bc c5 00 3d
       0.0449912 -0.13150352 0.04724851 0.031438574
000370 46 0b c2 3d b7 9f d6 3c 6c b3 1a 3d 0b 83 f8 bc
       0.094748065 0.026199205 0.037768766 -0.030335924
000380 c5 c9 7d bd c5 6f 89 3d 4c 7f aa bd aa 46 b1 bd
       -0.06196 0.067107715 -0.08325061 -0.08656056
000390 7c f1 88 3b 2a ab 31 bd 3c ee 2d bd be 00 91 3c
       0.004179178 -0.043376125 -0.042463526 0.01770055
0003a0 1e d5 80 bd e3 bc 52 3d 21 4f 7c 3c 49 22 9c bc
       -0.06290649 0.051449668 0.015399725 -0.019059317
0003b0 e3 6c de 3d 70 9c 0e 3c 7a b8 b3 bd d9 73 da 3d
       0.10860612 0.00870429 -0.087754205 0.106666274
0003c0 b3 bd 7c bd 65 3d 93 bb f7 9c 3d bd 1f 72 11 3e
       -0.06170435 -0.004493403 -0.04629227 0.1420369
0003d0 71 b3 94 bd 81 56 0e 3d 6b 8a 18 bd 77 a4 dc bd
       -0.07260788 0.034750465 -0.03724138 -0.10773557
0003e0 ec 94 b3 3d 32 03 2e bd 87 b8 9b 3d f0 61 d9 bd
       0.08768639 -0.042483516 0.07603555 -0.10614383
0003f0 37 c0 3f bd 9b 12 93 bd 35 b4 5c bd 85 3c 53 bd
       -0.04681417 -0.07181283 -0.053882796 -0.051571388

lstm.weight_hh_l1 f4 [256, 64]
000000 45 a0 81 bd 44 00 1a 3d 44 73 ab bd de 9d 88 bc
       -0.06329397 0.03759791 -0.083715945 -0.01667684
000010 9f 94 2e bd 61 c6 59 bc a2 84 ac bd da 25 e6 bc
       -0.042622205 -0.013291926 -0.08423735 -0.02809422
000020 18 c7 f0 bc 13 40 da bd 15 c3 00 3d 57 17 1e bd
       -0.02939181 -0.106567524 0.031436045 -0.038596477
000030 74 e2 cc bd 18 c9 bc bd eb 56 f5 3c ac 3f 80 3c
       -0.1000413 -0.09218043 0.029948672 0.015655361
000040 84 2e e2 bd d5 4c 78 3c 8c ad ae ba ee 77 08 3c
       -0.110440284 0.015155037 -0.0013326867 0.008329375
000050 e2 b1 68 3d 28 e3 98 3d b6 4c e3 3d 9d c6 bf bd
       0.056810267 0.074652016 0.11098616 -0.09364054
000060 34 36 b6 3c a1 80 ec 3a c7 0e 11 3b a4 e0 c0 bc
       0.022242643 0.0018043705 0.0022134052 -0.023544617
000070 b4 87 71 bc 49 25 b8 bd cc 3a 29 bd 1e d1 8f 3d
       -0.014741827 -0.089914866 -0.04131584 0.07022308
000080 0a f1 83 bd 36 d4 81 bb 0f c3 03 bd 66 31 8c 3d
       -0.06442459 -0.003962065 -0.032168444 0.068453595
000090 8e da ba 3c 7e da 0d be 75 08 1d 3d aa bb 5a bc
       0.022809293 -0.1385288 0.038338143 -0.013350407
0000a0 0b 52 31 bd b6 9a 64 3d 0d dc bc bd 9c 6f ba 3d
       -0.043291133 0.055811606 -0.09221659 0.09103319
0000b0 0f 68 66 bd ae 85 04 be d0 ab cb 3d 87 23 ba bb
       -0.05625158 -0.1294162 0.0994488 -0.0056805047
0000c0 e9 b9 98 3c d2 49 50 3d db d0 05 be 0d 1d 40 bb
       0.018643336 0.05085165 -0.13067953 -0.002931419
0000d0 10 11 78 bd 10 4f 40 3d 03 7d ea bd 11 6e 89 bd
       -0.060563147 0.0469504 -0.11449625 -0.067104466
0000e0 bc 3b 15 bd 35 26 e3 3d 1c 6b b6 bd a4 7b 71 bd
       -0.03643392 0.11091272 -0.08907148 -0.058955804
0000f0 c1 77 82 3d 3e 34 80 3d 8d 02 f0 bd 49 3e c7 3d
       0.063704975 0.062599644 -0.117192365 0.09728677
000100 ec 48 eb bd eb f4 0a 3d 33 e3 a3 bc e9 e6 25 bd
       -0.11488518 0.03392498 -0.020005798 -0.040503416
000110 1e 08 0e 3d 6f d1 40 bd 4e f1 b5 3d 6b 0f b6 3c
       0.03467571 -0.04707473 0.08883916 0.022224149
000120 62 f7 8f 3d 46 fb 6f bd c1 99 78 3c ec 0d 8c 3d
       0.070296064 -0.058589242 0.015173377 0.06838593
000130 99 59 9d 3c ca 60 14 3d 92 a3 00 3e 25 2b ba bd
       0.019207763 0.036225118 0.12562397 -0.090902604
000140 96 3f ae bd ba 5b 4d bd 44 5a fc 3b a2 c2 72 bd
       -0.08508222 -0.050136305 0.00770119 -0.059267648
000150 44 9c cf 3c 98 a1 e5 bc 56 a1 3d 3d 3e ea d4 bc
       0.025343068 -0.028031155 0.04629644 -0.025990602
000160 98 53 8a bd 74 5a 9c 3d f5 6d 81 bc d0 4b 05 3d
       -0.067542255 0.0763444 -0.015799502 0.032543004
000170 af 9f 89 bd 03 86 55 3d 2d 9a c8 bd 0a f7 60 3d
       -0.0671991 0.052129757 -0.09795032 0.054923095
000180 eb b2 0c 3e ca 7f ba bd 30 2c 9c ba 94 ae 1a 3d
       0.13740127 -0.09106405 -0.0011915024 0.037764147
000190 1e 39 91 3d c0 da be bc 9b 30 b6 3d d5 b1 a5 bd
       0.07090972 -0.023297668 0.088959895 -0.080905594
0001a0 cc 2c 07 3e 8a 17 8e 3d 25 36 cb 3d aa dd c4 3b
       0.13200682 0.069380835 0.099224366 0.0060078697
0001b0 b2 98 f3 bd 18 52 ef 3d 76 f3 1b bd ca 17 f5 3d
       -0.11894359 0.1168558 -0.03807398 0.11967428
0001c0 e8 da fb 3c 58 04 21 be 84 89 4f bd 9a 88 c4 3d
       0.030744031 -0.15724313 -0.050668254 0.09596367
0001d0 85 b2 1e bd 00 b8 8b bd b1 58 a2 3d 05 f9 9c 3c
       -0.03874447 -0.068222046 0.07927073 0.01916171
0001e0 07 8d 97 3d 36 07 b4 bd ac d5 05 be de eb ba 3c
       0.07399946 -0.08790438 -0.1306979 0.022817548
0001f0 5e 5c de bd c0 19 12 bd 31 df d3 3d ec 33 d7 bd
       -0.108574614 -0.03566909 0.10345305 -0.1050795
000200 1d db ed 3d 01 7c 98 3d b1 01 a6 3c 89 86 18 3e
       0.11614058 0.07445527 0.020264478 0.14895071
000210 05 c7 32 3d 21 99 13 be 80 6f 57 3d d0 eb bd 3c
       0.04364683 -0.14413883 0.05259657 0.023183733
000220 4c f7 0c 3d 74 df b5 3d bf 57 c8 3d 86 92 c9 3d
       0.03441553 0.08880511 0.09782361 0.098424
000230 82 22 90 3d e0 28 a5 3c 4d 8d 96 3d e1 38 bd 3d
       0.07037832 0.020161092 0.0735117 0.092393644
000240 d2 4b 12 be e6 74 27 3e 1b ea d3 bc fe 99 90 bb
       -0.14286736 0.16353187 -0.025868466 -0.0044128885
000250 b4 91 f4 3d 3f 9c f4 bc 31 96 fb 3d aa a2 04 bc
       0.11941853 -0.02985966 0.12284506 -0.008095423
000260 d7 63 76 bb 61 6f c0 bd 1e 44 76 3d ff 2f d1 bd
       -0.003759613 -0.09396244 0.060123555 -0.10214233
000270 58 71 1e bd bb 42 61 3d 01 97 00 3e 17 6d 2c 3c
       -0.03868231 0.05499528 0.12557603 0.010524056
000280 65 04 5e bd 16 d8 f5 3d 9f 5c 0d 3d 58 88 19 3d
       -0.05420341 0.12004106 0.03451216 0.037483543
000290 c8 c4 cf 3d b8 0d 99 bd bc cc 55 3d c6 86 44 bc
       0.10144955 -0.0747332 0.052197203 -0.011995023
0002a0 96 81 3e 3d 30 ea 55 bd 05 06 f8 3b aa 44 60 3d
       0.0465103 -0.05222529 0.007569077 0.054752983
0002b0 85 64 65 bd 98 9a 1a be 49 3f 09 be 67 c2 e4 3c
       -0.056004066 -0.15098035 -0.13403048 0.02792473
0002c0 5e 56 8d 3c 49 a5 8e 3d 49 8d e3 bd 38 15 8c bd
       0.017253097 0.069651194 -0.111109324 -0.06839985
0002d0 fd 7a 75 bc 3a e2 2e 3d f3 70 41 3d 3b 76 57 bd
       -0.014982936 0.042696215 0.047226857 -0.052602988
0002e0 4c 74 e1 3d b0 8e d2 bb a8 d4 a9 3d 71 6a 09 3c
       0.1100851 -0.006425701 0.08292514 0.008387194
0002f0 76 3c 1c bb dc 19 aa bc 32 66 38 bd 77 6d 5b bd
       -0.0023839748 -0.020764284 -0.045019336 -0.05357119
000300 c3 78 a0 bd 68 1e e7 bd 71 ca 23 3d d3 0b 86 3d
       -0.078355335 -0.112850964 0.039987985 0.06545224
000310 1b b2 82 bd ba c8 d1 3d c2 f3 3f 3d 33 eb da 3d
       -0.06381627 0.10243364 0.046863325 0.10689392
000320 b2 35 26 bd 7d 20 a7 3d 32 7d 4d 3d fe e4 dc bd
       -0.04057855 0.081604935 0.050168224 -0.10785864
000330 66 12 00 be 02 31 a3 3d 5f e2 de 3c f6 4e 07 be
       -0.12507018 0.07968332 0.027207552 -0.13213715
000340 78 d5 ec 3d a5 bc 8f 3d 9f aa 0a 3d 86 f4 4b bc
       0.115641534 0.07018403 0.033854123 -0.012448436
000350 ba a5 d4 bc 7c 64 63 bd 85 95 78 bd c4 f9 0a 3d
       -0.02595793 -0.05551575 -0.060689468 0.0339296
000360 07 73 60 bd 76 95 32 3d 49 ee d7 3d eb 50 6f 3b
       -0.0547972 0.04359957 0.10543496 0.0036516737
000370 bc 22 e5 3c 54 03 07 3e 05 50 e6 bd 60 11 d8 bd
       0.027970664 0.13184863 -0.11245731 -0.10550189
000380 35 ee ba bd 62 6b b1 bc af f2 dc bd 2f a6 f6 3d
       -0.09127466 -0.02165765 -0.10788476 0.12043416
000390 59 b3 33 3c 23 51 25 bd e3 b7 ef 3d 80 b7 fd bd
       0.010968053 -0.04036058 0.117049955 -0.123885155
0003a0 6a c9 51 3d e9 1d b0 bc c0 cd e1 bd ab 26 02 3c
       0.051217474 -0.021498637 -0.11025572 0.0079437895
0003b0 84 7f 6f bc d4 46 be bd e0 56 15 bd 98 85 0c bd
       -0.014617804 -0.09290853 -0.036459804 -0.034307092
0003c0 48 19 7d bd 30 28 11 3d e3 ef cf bd c2 f5 04 be
       -0.06179169 0.035438716 -0.10153177 -0.12984374
0003d0 eb df 8f bd 26 6c cb 3d aa 04 19 3d 25 62 c3 3d
       -0.07025131 0.09932737 0.037357964 0.09540204
0003e0 f2 bd ad 3d ae df 63 3d 7e 5a 9c bd 93 7f 88 bd
       0.08483495 0.05563324 -0.076344475 -0.06664958
0003f0 a8 ec f6 bc 3a 58 a3 ba aa d4 cc bd 76 69 c9 bd
       -0.030142143 -0.0012462207 -0.100015 -0.09834568

lstm.bias_ih_l1 f4 [256]
000000 36 7a 44 3d ca 98 28 3d b1 74 bc 3d 50 6a 50 bd
       0.047968112 0.041161336 0.092019446 -0.050882638
000010 83 fe 6a 3d bf 2a 9f bd c1 53 a7 bd 52 cb 4b 3d
       0.057371628 -0.07771825 -0.08170272 0.04975445
000020 d2 a8 e6 3d 68 ac fd bc 87 75 80 bc bd 99 0e bc
       0.11262669 -0.030965999 -0.015681041 -0.008703646
000030 ff 5d ae 3d e4 11 c9 3d 7c 26 36 3c f3 1f 3e 3c
       0.08514022 0.098178655 0.011117574 0.011604297
000040 98 f4 80 bd b6 4e a2 bd 1c ee a7 3d 4b bd 50 bd
       -0.062966526 -0.07925169 0.08199713 -0.050961774
000050 a2 a0 ee bc 3d c7 e9 bd 96 cf d0 3d 44 65 9c 3c
       -0.02912933 -0.11414955 0.10195844 0.019091256
000060 bd fa 12 3d 0d e7 98 bd 5a ae e3 bd 5c 73 7b bd
       0.035883654 -0.074659444 -0.11117239 -0.061389312
000070 81 5d 28 bd 89 70 a7 3d 82 7f 1e 3d 27 f7 40 bd
       -0.041104797 0.08175761 0.03869582 -0.047110703
000080 35 cc 7a 3d 6b f8 5e 3d 32 c9 e5 3d 03 83 c1 bc
       0.061229903 0.05443613 0.112200156 -0.023622042
000090 40 9c ff 3c 86 45 23 bd 91 bc 9c 3c 2d 5d a0 3d
       0.031202435 -0.039861225 0.019132884 0.07830272
0000a0 68 7b 07 3c e8 04 90 bd 17 61 e0 3d 46 ea 2f 3d
       0.008269168 -0.07032186 0.109560184 0.04294803
0000b0 77 05 ea 3d bd 96 7a 3d 66 3e b0 bd a9 35 67 bc
       0.114268236 0.06117891 -0.086056516 -0.014111915
0000c0 13 93 49 bd 57 c1 81 3c 40 07 f9 bd a4 39 d9 bc
       -0.049212527 0.015839262 -0.12159586 -0.026516743
0000d0 67 37 43 3d 65 37 1d bd 0b 77 aa 3c b1 a2 54 3d
       0.047660258 -0.038382906 0.020808717 0.051912967
0000e0 ed a7 c5 3d 24 d5 e3 3a 28 d3 0c 3d 64 d8 89 bd
       0.0965117 0.0017382246 0.03438106 -0.06730726
0000f0 cb 82 cb 3c 64 16 da 3d 37 92 b8 3d 79 a7 13 3d
       0.02484264 0.10648802 0.09012263 0.036048386
000100 d6 6a 89 3d 3c 57 af bc c8 ea ba bd a5 72 96 bc
       0.067098305 -0.021403901 -0.09126812 -0.018365214
000110 fe 8f 64 bd 21 2a 9c 3d e3 4f 01 bd a3 15 c8 bd
       -0.055801384 0.07625223 -0.031570327 -0.09769752
000120 1b 44 aa bc 05 de 95 bd 98 e9 56 bd d8 b1 58 3d
       -0.020784428 -0.073177375 -0.052468866 0.05290398
000130 5a 8d aa bd 04 d8 90 3d 72 71 c8 3c 5f 42 be 3b
       -0.08327742 0.07072452 0.024468157 0.005806252
000140 a9 9b e8 3d 4c d0 3e 3b 02 bc 34 3d dc 33 6e bd
       0.11357815 0.0029115854 0.04412461 -0.058154926
000150 82 47 3e bc 80 b7 ce bd bb 46 4c 3d fe ce eb 3d
       -0.0116137285 -0.100935936 0.04987214 0.1151409
000160 a7 fe da 3d 57 cd 89 3d b7 27 ac 3d f3 9b 98 bd
       0.10693102 0.067286186 0.084060125 -0.0745162
000170 73 c3 8f bc 97 30 11 bd 44 25 8a bd 4a 83 8b bd
       -0.017549252 -0.03544673 -0.06745389 -0.06812151
000180 74 c6 78 3d 1a ec 95 3d a4 d3 47 bd 1e f8 22 3d
       0.060736135 0.073204234 -0.04878582 0.039787404
000190 ae ea 91 3d 69 b5 a8 3d d1 d4 8e 3c 7f 3e ba ba
       0.0712484 0.08237726 0.017435463 -0.0014209299
0001a0 8f 83 84 3d 1c 72 41 bd 74 c8 53 bb 1f ee 3a 3c
       0.06470405 -0.047227964 -0.0032315524 0.011409312
0001b0 c0 7c c8 bb b8 71 20 bd ec 13 55 3d 55 03 31 3d
       -0.006118387 -0.03917095 0.052020952 0.04321607
0001c0 de 54 36 3c 28 43 49 bd 9a 4c ef bd 1e 2e 5f 3d
       0.011128632 -0.04913631 -0.116845325 0.05448734
0001d0 12 aa c7 3d ed b8 be 3d 22 c4 de 3b 8f 74 37 bc
       0.09749235 0.093126155 0.006798283 -0.011197223
0001e0 45 06 6e bd 74 4a 7c bd 76 a4 80 3d 48 48 bf 3d
       -0.058111448 -0.06159444 0.062813684 0.093399584
0001f0 d0 96 04 bd 59 6b a4 3d 10 94 8d 3c 41 cd 78 bc
       -0.03237039 0.080282874 0.017282516 -0.015185655
000200 9e 07 92 bc 51 88 ab 3d 30 91 6d 3d a9 45 9e 3d
       -0.017825898 0.0837561 0.05799979 0.0772813
000210 2d 11 2a 3d 8c 5e e4 bc b3 82 a5 bd 37 0b cf 3d
       0.041520286 -0.027877115 -0.080815695 0.10109561
000220 bb 8f 33 3d 12 06 08 be d9 e8 67 3d fb 7c 0d 3e
       0.043838244 -0.13283566 0.056618545 0.13817208
000230 64 ae 2f bd e8 f1 40 ba ff cd 57 bd 31 f9 bc bd
       -0.04289092 -0.00073602656 -0.052686688 -0.09227217
000240 b0 bc 27 bc ce 06 91 3d 49 ea a9 bd 3d f0 09 3d
       -0.010237858 0.07081376 -0.082966395 0.033676375
000250 cb 52 c9 3c 2d 28 99 3b 44 ce 9c bc 1e e0 0d be
       0.024575612 0.004673979 -0.019141324 -0.13855025
000260 10 08 03 be e1 76 ed bc fc 18 dc 3d c5 37 a0 bc
       -0.12796044 -0.02898735 0.10746953 -0.019557843
000270 2e a3 8e 3b f7 15 98 3d 8f 88 b6 3c 59 90 00 bc
       0.0043529486 0.074260645 0.022281913 -0.007846915
000280 a6 85 a5 3d 71 17 b1 bb 1f 68 67 bd 1c 8c 4a 3d
       0.08082132 -0.0054044058 -0.056495782 0.049450025
000290 d6 50 e0 bc 55 98 bd 3d c6 b2 c8 3d 1a 2c 19 3d
       -0.027382296 0.09257571 0.09799723 0.037395574
0002a0 53 e6 14 3d e8 df ac bc 01 85 db bd f5 1d cb 3d
       0.036352467 -0.02110286 -0.10718728 0.09917823
0002b0 26 64 7e bc 25 66 cf bd bd c9 7e bd eb be 52 bd
       -0.015526807 -0.101269044 -0.06220411 -0.051451605
0002c0 de f9 7b bd ef 5c 75 3d c5 fc d2 bb 99 60 b0 3d
       -0.06151759 0.05990308 -0.006438824 0.086121745
0002d0 89 65 f6 3c 05 1d 55 bd 66 e0 ba bc 8d 6a 8a bd
       0.030077713 -0.05202963 -0.02281208 -0.06758604
0002e0 b5 e8 8e 3c 5d c8 df 3d a5 60 06 bc f8 98 b8 3d
       0.017444948 0.10926888 -0.008201753 0.090135515
0002f0 70 b3 1d 3d fd 79 ae 3d 75 34 d8 bd 3b 56 66 3d
       0.038501203 0.08519361 -0.105568804 0.05623458
000300 e7 dc 5d bd 2e 3a b4 3d 84 19 06 3e 25 61 da bd
       -0.054165747 0.088001594 0.13095671 -0.1066306
000310 fb 15 80 bd 80 d0 ed 3d b8 9e 5e bc bf dc b6 bd
       -0.062541924 0.11612034 -0.013587646 -0.08928823
000320 52 9b b7 bd 7c b9 14 3e bc 47 57 3d 54 13 33 3c
       -0.08965172 0.14523882 0.052558646 0.010929901
000330 99 fe 8c bd be a6 1f 3d 86 f2 67 bd a7 6d cf bd
       -0.06884498 0.038977377 -0.056627773 -0.101283364
000340 0a f9 a9 3d d6 2f a5 3d c2 83 07 3e aa 66 10 bc
       0.082994536 0.080657646 0.13233855 -0.0088135395
000350 e5 5b 60 3c 27 49 04 3e 26 e9 07 be 21 cf ba bd
       0.013693784 0.1291853 -0.13272533 -0.09121538
000360 0c 9b 80 3c 11 4e b9 3d 20 2d 57 3c 63 bc b8 3b
       0.015698932 0.09048093 0.013133317 0.005637692
000370 c1 bf ff 3d 17 c7 08 3e 20 87 94 bd 61 33 36 3d
       0.12487746 0.13357197 -0.072523355 0.044482592
000380 24 d5 af bb 04 7f 6f bd 7c 86 a6 bd f0 da 30 bd
       -0.0053659845 -0.05847074 -0.081311196 -0.043177545
000390 72 a9 e9 ba 02 ba 3c 3c ad aa d3 3d 2a 53 ba bd
       -0.0017826988 0.011518957 0.10335288 -0.090978935
0003a0 be 43 d3 bd 75 9e 7d 3c 16 e2 60 bc 6b 25 93 3d
       -0.10315655 0.015479674 -0.013725778 0.07184871
0003b0 7b 48 74 3d 5b 6c 99 3d 7c 49 fa 3d 1a a1 80 3d
       0.059639435 0.0749137 0.12221047 0.06280728
0003c0 ef a1 82 3d d6 31 4b bd ce 56 b6 3d b9 54 a2 bc
       0.06378543 -0.049608074 0.089032754 -0.01981579
0003d0 1c 5c 71 3d fc 50 95 3d f6 20 ae bd 86 5a 0a 3e
       0.058925733 0.07290837 -0.085023805 0.13511094
0003e0 44 55 cd 3d 14 68 64 bc 95 a6 b3 bc bd 96 13 3e
       0.10026029 -0.01394083 -0.021930018 0.14412971
0003f0 26 78 2c bd 4c 1b f9 3b 05 ec c4 3d ab fb 97 bd
       -0.04210677 0.007602131 0.0961533 -0.07421049
