src/Backend-Information/Clod-weather_predict/Tianjin_lstm_model.pth (torch, 208379 bytes, 11 tensors)

lstm.weight_ih_l0 f4 [256, 3]
00000000: ffd8 523d 4525 4b3d 1f9a e73d b3cd 3bbd
00000010: 8a54 93bd 01e7 fe3c 08ab cf3b 493d 13be
00000020: 1769 08be 0e01 273d d681 84bd 0c4a f63d
00000030: f86a e13a 92e8 173d 88ff cb3d 8a5d e5bd
00000040: 23b1 9b3c 2eda 19bd c6e9 29bd 83f0 093e
00000050: cc99 d23d 4961 fb3c 3db0 b6bd db01 fb3d
00000060: 3f82 e0bd d778 de3c e843 f23d 528c 90bd
00000070: 0f34 98bc 0338 d3bd 3786 96bd b680 033e
00000080: 35d4 d8bc cffd b7bd b834 c9bc 0b72 78bb
00000090: 52c6 933d 70f2 973d 724c 9a3d 8cda bdbd
000000a0: f2d6 b13d cec7 0bbd 67a4 36bd bc78 1c3c
000000b0: dfbf 013e 8162 f5bb d61b 8bbc 3cf1 153d
000000c0: 48d5 883c 1780 80bd c4a4 ef3d f77e cb3c
000000d0: 93cf e1bd 983a 9bbc 30d5 74bd c6c4 a93d
000000e0: e691 9a3c ff19 0cbe c2f9 80bd b705 233a
000000f0: b87d 10be 061e d53c cc55 1a3d 3e91 463d
00000100: 73ec bcbd 53a2 b13d 6b19 b5bd 6b82 033d
00000110: ef4f 713d ec69 25be 1d5f 0f3e c0d8 6ebd
00000120: 84a7 a13d 6295 1b3d ebaf 563d 1b72 193d
00000130: 4948 103e 7b15 a6bd 4843 22be 37c3 033e
00000140: 7e9e f1bc e9c5 c2bd 9f74 2c3e efc3 253e
00000150: 097e d33c 246a 223e edb0 c53d b102 24be
00000160: fff9 aa3d d7dd 5ebd 1ea8 673a 6ff9 52bd
00000170: e7bf b63d ca45 62bd d233 5d3d 0873 103e
00000180: 53e0 f9bc 98cc e3bc 0e11 fe3d 92aa 1abe
00000190: 6034 4a3d dff0 aa3c 21e7 dcbd 022e 8d3d
000001a0: ab07 5ebb 9a83 83bd a7b5 d53c 64a1 dd3c
000001b0: 6417 543c dab2 bc3d 20a8 713c 95ad 84bc
000001c0: fe29 07bd 0e29 8bbc d9d1 bebd 03d8 693c
000001d0: db1f 823d c72f 97bd 4083 da3d 932d 0d3e
000001e0: 8394 a93c 16fb b73c fda1 d5bc 9337 45bd
000001f0: 7a4b 91bc 6e80 063d 4e6b a1bc 3651 e5bb
00000200: dabd a03d 707a a3bd 1885 ff3d 1bca a03d
00000210: fff9 15be 7b8d 1d3e c10a 8dba 7cba 133d
00000220: 0344 00bc a15c 74bd 2093 f0bb ed45 ad3d
00000230: a353 6b3b 3e1a 7b3c b82b 503c 5a62 c3bc
00000240: cab6 5dbd 08b4 a33c c988 9abd 96b0 40bd
00000250: bc39 0a3e be9b 093e cd01 3cbd e997 463c
00000260: 4e21 263e 4582 13be 7e3d 983d b312 62bd
00000270: 558d c9bd 9581 87bd dd23 923d 8618 f8bb
00000280: 81c1 123e c674 1c3e e08c a8bd a755 ef3d
00000290: 54aa 413d 731f 363d 6ae7 cb3c e815 813d
000002a0: 99f5 b1bd e165 143e b704 ec3d dc56 34b9
000002b0: 39e3 9bbc 6a38 2abd 4d4c e33c b673 673d
000002c0: 4fc7 093e 7105 01be 06d5 d2bc 6015 0ebc
000002d0: fee4 943b 09c5 12bd affe 8dbd f6d0 693d
000002e0: d8a4 dc3d 6259 d83d 5ce4 10be 8ef0 903b
000002f0: 1565 ef3d 963c 0fbd 92ef 6c3d f9c6 66bb
00000300: 4911 633d dc77 143e 3c7c 7cbd ab9c b1bd
00000310: 248b 253e 9174 86bd 2160 203d 779d 3dbc
00000320: eca9 9dbd bce3 d63c 1367 a63d 18b8 833d
00000330: 98dd 7cbc f60b f4bc 2f37 f23d ad86 02bd
00000340: 821f 093e 52cc cf3d d490 42bc 1fbf dd3c
00000350: c6e1 093e c1ba 423c 172c c43d 83d4 b8bc
00000360: 4432 043d 74e9 863d bb2a b33c 38c5 9dbd
00000370: b07b 99bd 3a06 17bd 298e b6bd e505 693d
00000380: c6f7 1bbd 3362 0c3d 6f7e eabc 6077 b53d
00000390: 5177 8d3d e99a 9fbd 1294 903a 10d6 ffbd
000003a0: 6811 be3d d25b babd ebae 523d 142c 65bd
000003b0: e076 133e 0498 babc 8267 913c 05a8 61bd
000003c0: 23e0 513c 0a0e a43c dc93 c93c a59d 4f3d
000003d0: 2d94 9c3d 3826 883d 4592 ddbd ada2 75bc
000003e0: 6be9 d0bb eb63 86bd 4866 98bd b0e8 06bd
000003f0: 476a be3d a6bb da3d dbca b23d eddb b7bd
0.051476475 0.04959609 0.11308693 -0.045850467 -0.07193859 0.03111601 0.006337527 -0.14378847
-0.13321339 0.04077249 -0.06470077 0.12025842 0.0017198017 0.03708703 0.09960848 -0.11199482
0.019005364 -0.037561588 -0.04148271 0.13470654 0.10283241 0.030686038 -0.089203335 0.12256213
-0.109623425 0.02715723 0.11829358 -0.07058014 -0.018579511 -0.10313418 -0.07349818 0.12842068
-0.026468376 -0.08983957 -0.024561271 -0.0037909772 0.07215561 0.07419288 0.07534112 -0.092702
0.08683576 -0.034126095 -0.04459038 0.00955027 0.1267085 -0.007488549 -0.016981047 0.036607012
0.016703263 -0.06274431 0.117013484 0.024840815 -0.1102592 -0.018948838 -0.059773624 0.08289485
0.018868398 -0.13681792 -0.062976375 0.0006218808 -0.14110458 0.026015293 0.03767948 0.048478357
-0.092247866 0.08673539 -0.08842739 0.0321068 0.05891412 -0.16153687 0.14001127 -0.058312178
0.07893279 0.03798426 0.052413862 0.037462335 0.14090075 -0.08109566 -0.15845978 0.12867437
-0.02949452 -0.095104046 0.16841362 0.16188024 0.025816934 0.15860802 0.096528865 -0.16016652
0.08348464 -0.05441078 0.0008837002 -0.05150741 0.08923321 -0.055242337 0.054004498 0.14106381
-0.030502474 -0.027807519 0.12405597 -0.1510413 0.049366355 0.02086681 -0.10786272 0.06893541
-0.0033879082 -0.064215854 0.026087595 0.027054496 0.01294503 0.09213801 0.014749557 -0.016196052
-0.03299903 -0.01698735 -0.09317369 0.014272693 0.06353732 -0.0738216 0.10669565 0.13786916
0.020700699 0.022458594 -0.026078219 -0.048148703 -0.017736185 0.032837324 -0.019704487 -0.0069982065
0.07848711 -0.079823375 0.124765575 0.078510486 -0.14646147 0.15386002 -0.0010760651 0.036066517
-0.007828715 -0.05965865 -0.0073417574 0.08460603 0.0035908006 0.015326081 0.012705736 -0.023850609
-0.0541294 0.019983307 -0.07545621 -0.047043405 0.13498586 0.13438317 -0.045900155 0.012121179
0.16223642 -0.14405163 0.07433604 -0.055193614 -0.0984141 -0.06616513 0.07135747 -0.007571283
0.14331628 0.1527892 -0.08229995 0.11686259 0.04728158 0.044463586 0.02489062 0.063030064
-0.08689422 0.14491989 0.11524337 -0.00017198495 -0.019029247 -0.041557707 0.027746344 0.056506835
0.13454936 -0.12599732 -0.025736343 -0.008672088 0.0045438996 -0.03583244 -0.06933343 0.057084046
0.10773629 0.105639234 -0.14149612 0.0044232076 0.11689202 -0.03496989 0.05784566 -0.0035213812
0.055436406 0.14498848 -0.061641917 -0.0867246 0.16166359 -0.06565202 0.039154176 -0.011573187
-0.07698426 0.02623164 0.081251286 0.064315975 -0.015433691 -0.02979086 0.11826932 -0.031866718
0.13390926 0.10146393 -0.01187535 0.027068673 0.13465032 0.011885346 0.09578722 -0.022562271
0.0322745 0.065874964 0.021870961 -0.07703632 -0.07494295 -0.036871172 -0.08913834 0.056890387
-0.038078092 0.034273338 -0.028624741 0.088606596 0.069075234 -0.07793219 0.0011030457 -0.12492001
0.09280664 -0.090995446 0.051436346 -0.05595024 0.14400816 -0.022777565 0.017749552 -0.055091877
0.012809786 0.020026226 0.024606638 0.05068745 0.0764545 0.06647915 -0.10818914 -0.014992398
-0.006375482 -0.065620266 -0.074413836 -0.03293675 0.092976145 0.10680322 0.08730098 -0.089774944

lstm.weight_hh_l0 f4 [256, 64]
00000000: 0cac 9d3d 8613 853d f594 6dbd af1e 20be
00000010: 38de 97bd 858b 39bc 3f83 94bd 3c35 183d
00000020: 86d8 8d3d 0f6b 1e3d 0c20 313d 376a afbd
00000030: e476 12be 6bd2 b2bd da1a e43c 58d8 d73d
00000040: 22f2 4abd 4bb0 acbd f473 8a3c ac86 893d
00000050: 22a5 91bd 3404 503d eb05 16be 691a 983d
00000060: 8d39 163c c8ad 893c fd7c 9abd a297 4ebd
00000070: 9b09 693d fa44 e73d b6a8 b43c b772 973d
00000080: 6968 6b3c 32f2 56bb b216 373b 0046 fe3c
00000090: c208 053e ef63 0b3d a5a2 54bd b08e c13d
000000a0: a75f b73d 16b6 b13d 4a07 cfbc c481 993d
000000b0: 3c1e 01be 4642 5f3d 7ec1 fa3d 411e 9b3d
000000c0: bb58 1bbe ca70 373d 15d3 47bd 2d1b d83a
000000d0: e8ee 753d 9ad9 933d 7acf 09be 5126 3abd
000000e0: 92b8 9c3d 69f2 083d da25 b13d c522 31bd
000000f0: 006d e6bc f508 8bbd d052 adbd 3d52 9d3c
00000100: f622 adbc 8a93 6fbd f48a 97bc 0cf3 453d
00000110: de2f cfbd bb73 6cbd 4c7c 78bd e67e 0bbd
00000120: 523c f93d a2ca be3d 5e17 91bd e1a8 88bd
00000130: de51 abbd 514c 9d3d b0dd 0d3d 733e 353d
00000140: b218 8bbd 65b0 ac3d ea1e 09be 4918 a1bc
00000150: 2e9c 083e 90c7 70bd 731c d9bc c4a9 bf3c
00000160: 7ab2 1b3e 0485 acbd eb39 70bc 73e9 0a3e
00000170: 47b8 15bd 24ea 9fbd c208 103e 953a 1f3e
00000180: dee7 bbbb 128a 273e 9686 df3d 5823 40bd
00000190: ad3a b0bd a617 5ebd cede e43d a747 0b3d
000001a0: bf70 633c 2532 363d 6310 b9bc 3e0b ee3d
000001b0: fd0a 1fbe cf1e 2bbe df2e cf3c 1288 2dbd
000001c0: c472 123d 8b87 8e3d 1567 5dbd 3519 633d
000001d0: d710 07be 6898 1b3e 7d4e 08bc c1c6 b1bd
000001e0: 57fb ac3d e1a8 c63c 28c2 31bc 1987 3ebc
000001f0: 6c47 c4bd 924a 6e3d 93c8 943d 1ec8 a13c
00000200: a379 4dbd 8f05 87bd a2b1 da3d b3c0 0fbd
00000210: f1d2 113d 4812 debb a10d e8bd b6b8 93bd
00000220: 3a51 57bc 0dc0 dfbd e94b 6d3d 82a7 c6bd
00000230: 609a 7cbd 8298 dcbc 150a 0dbc 556c d8bd
00000240: 3371 b33c cbf0 933d bf6c 363d 6313 d2bd
00000250: 20fe 8c3d 689d e6bc 4a32 09bd d6a9 02be
00000260: 1815 d43d b5a5 c4bd 8a9a 833d 08d2 dbbd
00000270: 8b40 04be 9511 a03d c9d7 00be f0de 4abb
00000280: 5a3a 893d e99a 11be 36ff c53d fdac 16bd
00000290: ee29 18bc f076 973d c439 8a3d 6d97 a7bc
000002a0: 3c51 ee3c 60a2 113c 6c8a 28bd 6b0c 01be
000002b0: 0983 88bd 9034 d73c b5b8 96bd 1589 b9bd
000002c0: efde a5bd d5ac 49bd 61e6 373c 483a ae3c
000002d0: c52a fa3c 07c6 07be 578f 683d 1f5a 8d3d
000002e0: f564 e3bd 3403 f0bd d5bc fa3c a085 263d
000002f0: cc7e 5d3c 17e8 923d e8d7 cbbd c155 babd
00000300: d0e0 8b3d 69c3 0fbe 88df 4ebb a37f 0fbb
00000310: 5568 e6bd 9db3 f03d b63b 5fbc 72a3 ed3d
00000320: 2c2b d8ba 0aea acbd a726 f3bc 0cf8 85bd
00000330: e4fc 14bd b04b b03c b6ac 44bd 87af c63c
00000340: a7c2 21be c1f5 c73c 00ef fbbd 92dc 3ebc
00000350: 8a9d 58bd dba3 34bd f94a f9bd abf5 c13d
00000360: 7063 153e 8f31 29be 748f 293c 0595 9cbc
00000370: f271 263e 194e 7cbd 3259 603c 31f9 633d
00000380: 0e3f 9abd 76f8 f43c 4e4f a5bd 5739 85bc
00000390: e809 37bc a4c3 95bd 2c42 3cbd 62be 183e
000003a0: 330a a23d 81ee cc3c 6f0c 0dbd 4c05 3dbd
000003b0: 7fa8 b0bd 82dd 93bd 5e7e 853d 001c 923d
000003c0: dc3b 8f3d 80cc 213c bff7 fa3d 23dc 0ebd
000003d0: 27ef 0fbe 2d6a 2a3d a623 febc 8f43 1bbe
000003e0: 316f 223d 6186 853d 2a0d 1a3e a9bd 02be
000003f0: 0dea 71bc 5348 223e 7009 03be 0e54 d4bd
0.07698831 0.064978644 -0.058003385 -0.15636705 -0.07415432 -0.011324768 -0.07251596 0.037160143
0.06926064 0.038676318 0.043243453 -0.08565181 -0.14303166 -0.0873154 0.027844835 0.10539311
-0.049547322 -0.08432063 0.016900994 0.0671514 -0.07111575 0.05078526 -0.14650695 0.07426912
0.009168995 0.016806498 -0.07543371 -0.050437577 0.056893926 0.11292453 0.022053104 0.07394927
0.014368155 -0.0032798168 0.0027937111 0.031039238 0.12991622 0.03403085 -0.051912922 0.094510436
0.08953791 0.08677308 -0.02527203 0.07495454 -0.1260919 0.054506563 0.12243937 0.0757413
-0.15170567 0.0447853 -0.048785288 0.0016487591 0.060042292 0.072192386 -0.13458052 -0.045446698
0.076523915 0.033434305 0.08649798 -0.04324605 -0.028128147 -0.06788818 -0.08463061 0.019204253
-0.021134835 -0.058490314 -0.018498875 0.04832749 -0.10116552 -0.057727557 -0.060665414 -0.034056567
0.12169708 0.09315993 -0.07084535 -0.06672836 -0.08365224 0.07680572 0.034635246 0.04424901
-0.0679182 0.08432082 -0.13390699 -0.0196649 0.13340828 -0.058784068 -0.026502823 0.02339638
0.15204802 -0.08423808 -0.014662246 0.13565616 -0.036552694 -0.07808331 0.14065841 0.15549691
-0.005734428 0.16361263 0.10914342 -0.046908706 -0.086049415 -0.05422177 0.11175309 0.03400388
0.013881861 0.044481415 -0.022590822 0.11623238 -0.15531535 -0.16710971 0.025290905 -0.042366095
0.03575398 0.069594465 -0.054053385 0.05544396 -0.13190018 0.15194857 -0.008319494 -0.086804874
0.08446377 0.02425045 -0.010849513 -0.0116288895 -0.09583935 0.058176585 0.07264819 0.019748744
-0.05016483 -0.06592857 0.10678412 -0.03509588 0.03560156 -0.0067770816 -0.113307245 -0.07212965
-0.0131419245 -0.10925303 0.05793372 -0.09699918 -0.06167066 -0.02692819 -0.008608361 -0.10567538
0.021904564 0.07223662 0.044537302 -0.10257604 0.06884408 -0.028151229 -0.033495225 -0.127601
0.10355586 -0.096019186 0.0642596 -0.1073342 -0.12915246 0.078158535 -0.12582316 -0.0030955635
0.06700583 -0.1421925 0.09667818 -0.03678607 -0.009287341 0.073957324 0.06749299 -0.020457948
0.02909147 0.008888811 -0.041147634 -0.12602393 -0.06665618 0.026270181 -0.07359449 -0.090593494
-0.08099162 -0.04923709 0.01122436 0.021268025 0.030537972 -0.13259135 0.056777325 0.06901955
-0.111032404 -0.11719361 0.03060762 0.04065478 0.013519 0.07173174 -0.0995329 -0.090983875
0.06829989 -0.14039387 -0.003156634 -0.0021896146 -0.112503685 0.117530085 -0.013625076 0.1160344
-0.0016492358 -0.08443077 -0.029681517 -0.06541452 -0.036373988 0.021520466 -0.048016272 0.02425362
-0.1579691 0.024409177 -0.12301445 -0.011649268 -0.052884616 -0.044101577 -0.12172503 0.094706856
0.14588714 -0.16522811 0.010349143 -0.019114027 0.16254404 -0.061597917 0.013693141 0.05565757
-0.07531558 0.029903632 -0.08071767 -0.016262693 -0.011171795 -0.07312706 -0.045961544 0.14916375
0.079121016 0.025016071 -0.034435686 -0.04614763 -0.08625888 -0.07219984 0.06518243 0.07134247
0.06993839 0.009875417 0.12254285 -0.034877907 -0.14056073 0.041605163 -0.031022858 -0.1516249
0.03965682 0.06519771 0.15044084 -0.12767662 -0.014765275 0.15847902 -0.12796569 -0.10367595

lstm.bias_ih_l0 f4 [256]
00000000: b08d 9b3d 86ce 223e 5153 9b3d 34d5 233d
00000010: 07e7 c4bd a730 53bd fdaf 84bd 84c1 c33c
00000020: a8c2 4dbd 52cd c73d 7540 4ebd cb05 69bc
00000030: 0ecb 9a3d 7402 8fbd 517f 53bd 4070 6dbd
00000040: 681e e13d 9d1d d5bc a797 273e f1e1 e43d
00000050: b988 013e 58e1 e03d 2f3a 973d 17ee 93bc
00000060: a836 483d e6e9 973d 2228 a83a a25f 7cbd
00000070: 9f43 033e 06c1 a4bd d87f 98bd ecbc 943a
00000080: 8d6d 53bd 872d 7f3d f951 223e 2c05 1f3e
00000090: b963 63bd 339b db3c 9c0e c63d 5181 94bd
000000a0: 8a27 a7bd 487e 7e3d 2d99 e23c e298 ac3d
000000b0: 93a5 32bd 5293 123d c913 9b3d 6499 2d3e
000000c0: 674f dc3c 21c3 8ebd 1ba8 a3bd 0eb5 023e
000000d0: 1ec8 4b3d 929e 0d3e d031 91bd 98ca c73d
000000e0: 50e5 b63d edb9 933d ba25 503d 04ac f73d
000000f0: cd13 ce3d 593c f73c 30cb 7e3d 5217 4bbd
00000100: 66e6 c03d 0cdb 0d3e 84e5 6ebd f95d d03d
00000110: 43fc 87bd 32f6 f2bc 6ef5 8ebd 5263 d13c
00000120: 3295 cb3d ad8f 46bd f08a 083d 3f42 08bd
00000130: 8e04 d13c 17d0 553b fe53 583d bc9b f7bc
00000140: ca8a d43d c536 503d 0379 8d3c ab57 72bd
00000150: 0d22 6b3d d78f 25bc 0aa1 133d 5ea8 cabd
00000160: a750 f53d bf4c b2bc 6043 13bd d556 4fbd
00000170: 5b78 143e ad55 aabd afc4 873d c02c bdbd
00000180: 5417 a93d 5005 2d3d 3923 78bd 4d60 88bd
00000190: b88d b1bc a0fd 9cbd 3e19 ed39 de53 053e
000001a0: f064 a5bd f6e2 c6bd aa7e e93d e23d 5c3d
000001b0: 33b8 293d 61b0 ff3c 81e3 823b 57de 853d
000001c0: 48ba 4abc 22fa 073e 246b 2c3c 4624 6b3d
000001d0: 841f aebd 7c67 883d dcb8 ccbd 0ed6 81b9
000001e0: bf0b 173d bf9e fa3c 90f7 163e a632 aa3d
000001f0: 05ac b7bd 967c 1abc 0031 ebbd b200 df3d
00000200: 37eb 763b 16d2 80bd a988 0abe 8f4e edbd
00000210: abdd f03d 9048 e43d 9f18 103e 4e6b 773b
00000220: 1236 84bd 865e dbbb ee48 fc3d df26 92bd
00000230: 91e2 113e f11c 13bd 5bf6 1abc 272f d5bd
00000240: 6329 81bd d664 cc3d e560 1e3d e202 ac3c
00000250: f754 d5bd c058 abbd dc05 a93d d8a8 c6bd
00000260: 34c7 fa3d 406a 71bd 16a4 16bd 55f7 da3d
00000270: 6064 8b3d 4ed2 d03d ee42 ddbc c443 f43d
00000280: d79c a23c de70 41bd feca 6f3d 0ba3 f73c
00000290: f844 03bd fc11 ffbd 1951 95bd 5e4c 3dbd
000002a0: 6e9e 413d 5611 6bbd 8196 58bd ebfc 06bd
000002b0: d386 e1bd 171d 8b3d 3f92 8bbd 3a39 f0bd
000002c0: a6cb 86bd f44e dd3d 7490 d93d efef 65bd
000002d0: b63f c93d 9148 963d 5d9b bdbd b383 c8bd
000002e0: 86a7 993d 9191 d9bd ee7b 233d d0a4 623d
000002f0: 9002 263d 9ca6 cdbc afcd 82bd bd81 543d
00000300: a7b3 bbbb 92c5 c6bc 87a3 7b3d 8d78 dd3d
00000310: e65d 013e 01f8 cbbc 0d4a 073e 02bb 0a3e
00000320: 5498 9bbd 4c3d 9dbb 6c6f d4bc 76d1 52bd
00000330: a14b a1bd 1e8b 803d 9340 eb3d 5860 323e
00000340: 667d 6ebd e41e f4bd eeb6 a4bd 4da7 cb3d
00000350: bb7e febc d176 4dbd 2ebb 153e 84f2 243d
00000360: 742f d23d be86 40ba 855c 2a3e 93fc 133c
00000370: 9918 7bbd c5c9 203e 0dc1 c23d 4915 dd3d
00000380: 6d95 c43d 02b8 32bd b45e 97bd c05d 893c
00000390: 3a52 1a3e 7807 e43d 962b 6c3c 28b6 043d
000003a0: 07c7 853d 649a 333d bf6f 073c 0f89 0b3e
000003b0: 358f ea3b c92c 7d3d c566 0d3d 800f e2bb
000003c0: 0139 92bd 70d4 123e d338 2d3e f9d8 b83c
000003d0: a614 3a3d cd86 073e cb4c 2dbd e46b b83d
000003e0: 8a59 6e3d 27af 143e ea7a c9bc 3631 c73c
000003f0: 3de3 843d 346e 2d3e 4d2a 0f3d 26e0 a3bc
0.07595384 0.15899095 0.07584251 0.03999825 -0.096143775 -0.05156007 -0.064788796 0.023895986
-0.050234467 0.097559586 -0.05035444 -0.014222573 0.07558261 -0.0698289 -0.05163509 -0.057968378
0.10992128 -0.026015097 0.16366445 0.111759074 0.12649812 0.10980481 0.073841445 -0.018057866
0.04888025 0.074176595 0.0012829343 -0.06161464 0.12818764 -0.08044629 -0.07446259 0.0011347807
-0.051618148 0.062299278 0.15851583 0.15529317 -0.055515025 0.026807403 0.09670755 -0.07251228
-0.08161838 0.06213215 0.02766093 0.084275976 -0.043614935 0.035785027 0.07572133 0.16953045
0.02689333 -0.06970812 -0.07991048 0.1276438 0.049751393 0.13830021 -0.07089579 0.097554386
0.08930457 0.07213197 0.05081723 0.12093356 0.100623704 0.030180143 0.062205493 -0.049582787
0.09418945 0.13853091 -0.058324352 0.10174174 -0.06639912 -0.02965841 -0.06980406 0.025560055
0.09940566 -0.048476864 0.033335626 -0.033266302 0.025514867 0.0032625252 0.052814476 -0.030225627
0.103780344 0.050833482 0.017269617 -0.059165638 0.05740552 -0.010105095 0.03604225 -0.09895395
0.11978274 -0.021765111 -0.035952926 -0.05061992 0.14499037 -0.083171226 0.06629311 -0.09237051
0.082564026 0.042241395 -0.060580466 -0.06658993 -0.021674022 -0.07665563 0.0004522297 0.13020274
-0.08075893 -0.09711258 0.114011124 0.053769954 0.04143543 0.031212034 0.0039944057 0.065365486
-0.0123735145 0.13279012 0.010523591 0.05740764 -0.08502105 0.06660363 -0.09996197 -0.0002476428
0.036876436 0.030593274 0.14742875 0.08310442 -0.08968357 -0.009429118 -0.114839554 0.108888045
0.003767682 -0.06290071 -0.13528694 -0.115872495 0.1176103 0.11146653 0.14071892 0.0037753168
-0.064556256 -0.0066946177 0.12318598 -0.0713632 0.14246584 -0.035916273 -0.00945815 -0.10409384
-0.06306722 0.099801704 0.038666625 0.020997468 -0.104165964 -0.08366537 0.08253071 -0.09700173
0.12245026 -0.05893922 -0.03677758 0.10691706 0.068062544 0.101963624 -0.027009454 0.11926988
0.019850178 -0.04722678 0.058543198 0.030229112 -0.032048196 -0.12454602 -0.07290859 -0.046215408
0.04727023 -0.05738958 -0.052877907 -0.032956045 -0.11012044 0.06792658 -0.068150036 -0.11729665
-0.065818116 0.10806075 0.10623255 -0.05613702 0.09826605 0.0733806 -0.09258149 -0.09790745
0.07502656 -0.10623468 0.03991311 0.05533296 0.040529788 -0.02510386 -0.06386887 0.05188154
-0.0057282033 -0.02426413 0.06143525 0.10814009 0.12633476 -0.02489853 0.13211842 0.135479
-0.07597414 -0.004798567 -0.025932036 -0.05146929 -0.07875753 0.062765345 0.11486926 0.17419565
-0.058225058 -0.119199544 -0.080427036 0.099440195 -0.03106629 -0.05016214 0.14622185 0.040270343
0.10262957 -0.0007344297 0.16636856 0.009032386 -0.061302755 0.15701969 0.09509478 0.107950754
0.09598813 -0.043632515 -0.0739111 0.016768336 0.1507043 0.11134237 0.014414689 0.03240028
0.06532102 0.04384841 0.008266388 0.13626502 0.007158185 0.06181029 0.034521837 -0.0068988204
-0.07139779 0.14338851 0.16916208 0.022564398 0.045429848 0.13235016 -0.042309564 0.090049535
0.05819086 0.1451994 -0.024594743 0.024315458 0.06488655 0.1693657 0.03495245 -0.020004343

lstm.bias_hh_l0 f4 [256]
00000000: 1cc1 873d 9f47 e03c 00dc 8e3c dfcd 0f3e
00000010: d81d 023e 0081 fc3d f202 a43d b136 51bc
00000020: 1c4c af3d 8a6d 5c3d dd95 693d 8084 bc3c
00000030: bdac 4cbd 8382 25bd 3aab 043e 7005 073e
00000040: 3f63 ac3d 8cea 7bbd 3aed b13d a353 de3d
00000050: 6dca c83d bff1 ea3d 1b17 413c 06e8 963a
00000060: dcf2 cf3c f38c 2b3c ff02 053e 995c b93d
00000070: 4b45 b33d 83a4 163d 324f 85bd 7c54 5a3d
00000080: 1475 a13c 3673 66bd 92e0 123e 5b0f 943d
00000090: 5390 5d3d 8617 453d 7ca5 bebd 9285 c1bb
000000a0: efa1 033e 900d b83d d8b0 0a3c b079 1d3e
000000b0: d60c dc3d 4c80 c93d 4ab1 b93d 7025 d43d
000000c0: 31a0 893d 4274 3dbd bffb 49bd 63f1 b53d
000000d0: 0293 873c 66a8 a6bd b2e4 c63c 5208 85bd
000000e0: cc56 82bd ce78 8cbd c58a 81bd 1173 1cbb
000000f0: c133 103e 9b73 723d 5110 853d 2f98 28bd
00000100: 8894 203e 0edf a5bd 8e97 253c 2533 433d
00000110: 2d1a a5bd 5189 8f3d c131 e73c a0f9 a5bd
00000120: f566 0f3c 93e8 82bc 56e0 58bd 660e e83d
00000130: dc8d a23c 678d 113d 6818 10bd dbc2 4b3c
00000140: 37c7 32bc 238b 85bd 4563 193e 90b7 24bd
00000150: e32f 013e 1ea8 023e c328 ec3d 80ec 99bd
00000160: 7642 be3d 5081 4abd 92b8 ecbd 2f4c 92bd
00000170: 13e2 243e 5ba4 b2bc 2a55 f23d d389 34bb
00000180: ccf7 d9bd 88a3 3b3d 63b4 383d 8092 323d
00000190: 3af6 27bd 93aa 17bd b7ad 8b3c 4c15 24bd
000001a0: a0b6 aa3d 4122 313d eca7 ec3d 7734 7fbd
000001b0: 5703 6fbd a98a 92bd b40f 02bd 62be aa3d
000001c0: 80f8 1b3b 8f33 d03c ee0a c13d 8241 c9bd
000001d0: 28b3 57bd c159 7cbc 1465 053e 8261 9fbd
000001e0: f54e b8bd 9127 84bd 8eb0 dd3d 3eaf dcbc
000001f0: 62f9 9d3d e445 7a3d 7880 a1bd 96dd b2bd
00000200: 3024 9ebd 4bb2 483c 19f0 02be b02f cb3b
00000210: a954 7e3d 195b 823c 6dec 7dbc fe12 f03d
00000220: 06bc 663d abac cfba 154d a8bd 4492 a5bd
00000230: c1e2 cbbc a04a 3338 0811 133d c148 f33d
00000240: 1756 a53d aa5c d2bd 3bb8 3cbd f83a a5bd
00000250: 367f 6ebd ad32 02be a3e0 fb3b 2422 dbbd
00000260: 5e07 993d 014a c6bd 969e 52bd 111a d23d
00000270: 164e 91bd c5bf 8bbd 7dd9 6fbd 5092 973c
00000280: 81e0 993d 0fe4 f73d 4aae 893c a18d dabd
00000290: 321f 4cbd a098 803d ed2d db3d 653c 42bc
000002a0: b574 8dbc cd88 9fbd 60dc b53b f71f bc3c
000002b0: 213c 9bbd 6dd7 bdbd 53a1 1dbb a39c 07bc
000002c0: df00 973d e44a 08be 8438 b23d c4a7 903d
000002d0: 6aac fc3d 1076 a7bc aef3 0bbd e757 c33d
000002e0: 0e07 d63d 9d2a 05bd beac da3b bb25 88bd
000002f0: 2c19 f8bd 9564 773c 2468 e03d a8bc ba3d
00000300: f8b4 1abd dba5 d5bc 46bf c83d a035 2c3e
00000310: 0b45 14bd 1643 cf3c 1a02 813d c032 84bd
00000320: c271 563c 6e7d ecbd cd2d 8abc e63e dc3d
00000330: 5560 163e 26cf 493d 9065 e93d 1288 0d3e
00000340: 0ca8 033c 1df1 7c3d 6828 cc3d 5b56 683d
00000350: c978 8fb9 c768 b73c 9b5f cd3d 8033 a9bd
00000360: 4424 e23d 4c36 303d 3bb0 c13d 6d61 2abd
00000370: 8611 d53d 76b2 cb3d 7882 2a3c 12e7 603c
00000380: 021c c83d a280 95bd 778e 6abd 70e9 50bc
00000390: e3ef 043e b285 8bbd e95c 003e 5502 013e
000003a0: ef30 f6bc 9d44 68bd 7cbc 4cbd c083 853b
000003b0: c942 d2bb b936 37bd 92a6 8d3d 67a8 e93d
000003c0: 3766 8abd c046 93bd 5e9e c7bc 0f8a 0e3e
000003d0: 2488 c93b 0d22 98bd a1f7 3ebd e9f8 653c
000003e0: 8b6f 163c 40cd 73bd 8084 8e3d 5fd8 bcbd
000003f0: 73ed c73c 5a30 fc3b 9dba 1f3d e5ef 33bc
0.066286296 0.027377902 0.017438889 0.14043377 0.12706697 0.12329292 0.08008374 -0.012769387
0.085594386 0.053815402 0.057027686 0.0230124 -0.049969424 -0.04040767 0.12955943 0.13185668
0.08417367 -0.06150298 0.086878255 0.10855796 0.09804235 0.11471891 0.011785294 0.001151324
0.025384359 0.010470617 0.12989424 0.09050865 0.08753451 0.036777984 -0.06509246 0.053303227
0.019709148 -0.056262217 0.1434348 0.07229491 0.054092716 0.048118137 -0.093089074 -0.0059058154
0.12854742 0.08986962 0.008465014 0.15378451 0.10744636 0.09838924 0.09067018 0.10358703
0.06720007 -0.04625345 -0.04931235 0.088839315 0.016549591 -0.08137588 0.024278972 -0.064957276
-0.063642114 -0.06858979 -0.06325296 -0.0023872296 0.14082243 0.05919228 0.06497253 -0.04116076
0.1568166 -0.08099185 0.010106934 0.047656197 -0.08061633 0.07008613 0.028221967 -0.08104253
0.008752574 -0.01598004 -0.05294832 0.11330871 0.019843034 0.035535242 -0.035179526 0.012436594
-0.010911754 -0.06520679 0.14979275 -0.04021412 0.12615924 0.12759444 0.11531212 -0.07515812
0.0929002 -0.04943973 -0.115586415 -0.07143437 0.16101865 -0.021806886 0.1183265 -0.002754797
-0.10642967 0.045810252 0.045093905 0.043596745 -0.041006304 -0.037027907 0.017050607 -0.040059373
0.08335614 0.043245558 0.11555466 -0.062305894 -0.058352794 -0.071553536 -0.031753257 0.08337094
0.002379924 0.02541521 0.09425913 -0.09826948 -0.05266109 -0.015402258 0.1302684 -0.0778227
-0.08999435 -0.06452859 0.10824691 -0.02693903 0.077135816 0.06110181 -0.078858316 -0.087336704
-0.07721746 0.01224954 -0.12786902 0.006200753 0.062092457 0.01591258 -0.015498263 0.117223725
0.056331657 -0.0015844306 -0.08217827 -0.080845386 -0.024888398 4.2746426e-05 0.035904914 0.11879111
0.08073061 -0.102715805 -0.046074133 -0.08067888 -0.058226787 -0.12714644 0.007686691 -0.10699871
0.07472108 -0.09682084 -0.05142077 0.10258878 -0.07094972 -0.068236865 -0.058557022 0.018502384
0.07513524 0.121040456 0.01680674 -0.10671545 -0.049834438 0.06279111 0.10702119 -0.0118552195
-0.017267564 -0.077897646 0.0055499524 0.02296446 -0.07579828 -0.09269605 -0.0024052456 -0.008277091
0.07373213 -0.13309819 0.08702186 0.07063249 0.12337573 -0.020442039 -0.034167938 0.095382504
0.10450564 -0.032511342 0.0066734245 -0.066478215 -0.12114176 0.015099664 0.10957363 0.091180146
-0.03777024 -0.026080063 0.098021075 0.16817331 -0.036198657 0.025300544 0.06299229 -0.06454992
0.013088645 -0.11547361 -0.016867543 0.107541844 0.14685185 0.049269818 0.11396325 0.13821438
0.008035671 0.06175338 0.099686444 0.05672298 -0.00027365077 0.022388829 0.10028001 -0.08261776
0.11042073 0.04302053 0.094574414 -0.04159682 0.10403733 0.09946148 0.010407083 0.013726966
0.09770967 -0.072999254 -0.05726477 -0.012750968 0.12982135 -0.0681261 0.12535442 0.12598546
-0.03005263 -0.05670606 -0.04998444 0.0040745437 -0.006416653 -0.044729922 0.069165364 0.11409073
-0.06757777 -0.07191229 -0.024367508 0.13919853 0.0061502624 -0.0742837 -0.046622876 0.014036396
0.009181867 -0.059521914 0.06958866 -0.09220957 0.024405217 0.0076961936 0.038996328 -0.010982488

lstm.weight_ih_l1 f4 [256, 64]
00000000: 8e7c a1bd d3f0 bbbb 88a5 cf3b 50ad 823d
00000010: 6c4b a63d 2bf2 dd3c 8503 59bd c46d d6bc
00000020: 6642 dd3d d20e 013d 1cab 013e 8bed 883d
00000030: c5d2 a0bd f181 acbd a05f 143d f727 273e
00000040: 25a0 08be 8da4 8d3d c2b5 843d 80a5 cd3d
00000050: 37b1 b63c 95f1 a4bd 2624 b7bb c22d 9bbd
00000060: a889 13bd 887d a7bd 9cda 923d b1c6 083e
00000070: 4940 1dbc 3a71 9d3d 3376 62bd b8fb 52bd
00000080: bd1e f43d 35c4 f53d ef2b fa3c 1323 e5bd
00000090: ca95 fb3d 9c6c 8a3d 32db 193d 4587 03bd
000000a0: 2028 223e 9b1c ec3d 1c2b 9c3d 80ab fa3d
000000b0: 7614 9c3d fd03 8d3d ba62 df3c 2020 1e3d
000000c0: 2a68 24be e616 2e3c 529b 153e eba0 16bd
000000d0: 918e 21bd ebe3 fa3d d463 f0bc 6688 2cbe
000000e0: 5edb 183e 902c 073d eab6 573c 7bb0 1cbe
000000f0: fe00 73bd d381 3bbd 18e9 f8bc 7443 29be
00000100: e0fd f7bd 0d6b a43c 34d4 e1bd f885 663d
00000110: be9c cdbd fb72 f8bc 3eba c9bd 5949 083e
00000120: 019d 99bc 07ca 823d 70a8 ea3c 304b fabd
00000130: 2867 143d 0a89 333b 3928 0bbe 2aca 2abd
00000140: cc6c a43d 6f55 1d3c 5827 fabd a6d6 043d
00000150: 8771 ddbd c680 683d aa39 313d 93e6 c53d
00000160: c8a2 173e 8e39 08bc 8342 b1bc 92bc 5c3d
00000170: ff3d 8f3c 74f9 dd3d cdcc 913d 54df 003e
00000180: b957 163d a11f 973d 15e5 f93d 2353 c0bd
00000190: dcba 753d c156 563d 3d4e 963d 4c45 0cbd
000001a0: 8c42 273d 5a11 af3d d85d 1e3d 59c5 adbd
000001b0: 00c3 c13b 3b4f c6bd eff0 12bd 8b26 9abd
000001c0: 3f82 58bd 5c9a d1bd 7e58 853b 316c 51bd
000001d0: 8ee3 bdbd a9bf 733c 1326 cbbd ef64 41bc
000001e0: fbe9 103e f506 b3bd a371 a23d 138f 4e3d
000001f0: 0f44 6abd 29f0 133e 4006 04be b3c6 dcbd
00000200: 5430 753d 0d79 19be c07c e4bd a513 9cbd
00000210: c910 1e3d 4176 123e ea5e 073e 7fe8 ec3d
00000220: 4adf a9bb 91ce 883d f7a3 de3d 1ea6 c2bd
00000230: 9880 473d 06e2 ac3d 5ebe c23a 4264 843d
00000240: 755a 023d 252d 9ebd ed26 60bd 2592 9e3d
00000250: ea8a c73d 0537 c83d 9f3c d6bb 3ec5 1f3d
00000260: a272 063d ebda afbc 5d44 dfbd 04fa fb3c
00000270: ce47 393d d821 503d 1a40 593d d230 953c
00000280: 1ee1 c23c 17db f63d 4baf d03d 51f9 44bc
00000290: 54bf 243e ad26 133d 07db 2a3e 31f3 033e
000002a0: d8b1 053e a5f3 513d 0bea 053c e27a 4fbd
000002b0: 6489 b63c 9af9 05be 1c53 7f3c 367f 20be
000002c0: ab59 03be b52e 9f3d 8976 0d3e b3c8 8ebd
000002d0: 5a71 99bc acd6 1a3e 8b3c 953d 8796 d9bd
000002e0: 3aac a13d dfb4 e8bc aae6 a63d 337a 78bc
000002f0: e8ff 693c e914 c5bb 0c06 8cbd 644c 893d
00000300: 3859 afbc b2ba d8bc e4cf 07be f348 b8bc
00000310: deb7 f53c c2b7 0dbd f56c ca3d c333 053e
00000320: e676 873c 4fe9 c8bc 3af1 fa3d 5a6b 923d
00000330: 9333 bdbc cd60 8c3d 2386 743d ba53 0b3e
00000340: 3e3d 7abd df58 073e fa88 02be 1873 1f3e
00000350: 457c fdbc b189 83bc e85a dabd ca10 2e3c
00000360: e1d5 9e3d 3759 933d 350c a8bd 9fbc 2bbd
00000370: c6bc 1e3d 6217 d03d 1b05 dd3d 2ce5 0b3e
00000380: 87ab c33d 3b7c b03c 513e a13d cbcb fdbd
00000390: 6b6d b4bb d256 773d 3c2c 0cbd 202a 163b
000003a0: 2a8e 3ebd e3ef c43d c11b 12bd 528a 033c
000003b0: 1ab2 783d 9bb3 0cbe 487b 873d f24c 87bd
000003c0: c035 0c3d 9f8b 0f3e 06c9 943c 365f 323d
000003d0: f0f6 163d 5287 123e 3a6a edbc 6793 06be
000003e0: 447c df3d 7416 9f3c bdb2 203d 52b0 e3bc
000003f0: 9e1d a13d 48ff 183d 1aa8 36bd faa7 8fbc
-0.07885085 -0.0057354956 0.0063368715 0.06380713 0.08119854 0.027093014 -0.052981872 -0.026175387
0.1080368 0.031508274 0.1266293 0.06685933 -0.07852701 -0.08423222 0.036224008 0.16323839
-0.1334234 0.06916151 0.0647998 0.10041332 0.0223013 -0.080538906 -0.005589026 -0.07577087
-0.03601995 -0.0817824 0.07170603 0.13357045 -0.009597846 0.07687612 -0.055288505 -0.05150959
0.11919925 0.12000314 0.030538527 -0.111883305 0.12284429 0.06758997 0.037562557 -0.032111425
0.15835619 0.115288936 0.0762541 0.12239742 0.0762109 0.06885526 0.027268756 0.038604856
-0.1605536 0.010625577 0.14610031 -0.036774557 -0.039442603 0.12250503 -0.029344477 -0.16848907
0.14927432 0.033001482 0.013166169 -0.15301697 -0.059327118 -0.045778107 -0.030384585 -0.16529638
-0.1210897 0.020070577 -0.11026803 0.056280106 -0.10039662 -0.030328264 -0.09849976 0.1330923
-0.018751623 0.0638619 0.02864477 -0.12221372 0.03623119 0.0027394914 -0.13589562 -0.041696705
0.08028564 0.0096028885 -0.122145355 0.032431267 -0.10812669 0.056763433 0.043267883 0.09663119
0.1480819 -0.008314503 -0.02163816 0.053890772 0.017485617 0.10838595 0.07119141 0.12585193
0.036704753 0.073790796 0.12201897 -0.09390857 0.059992656 0.05232883 0.073391415 -0.034245774
0.04083495 0.085482314 0.038663715 -0.08484907 0.0059131384 -0.09683081 -0.035874303 -0.07526883
-0.052858587 -0.1023452 0.004069387 -0.05112857 -0.09271918 0.014877238 -0.099193715 -0.01180385
0.14151756 -0.08741561 0.07931831 0.050429415 -0.057193812 0.14447083 -0.12893009 -0.10780086
0.059860542 -0.14987583 -0.11156607 -0.076209344 0.038590226 0.14302923 0.132198 0.115677826
-0.005184089 0.066800244 0.108711176 -0.095043406 0.04870662 0.08441548 0.0014857759 0.06464435
0.031824548 -0.077234544 -0.054724623 0.077427186 0.09743293 0.09776119 -0.0065379883 0.039006464
0.032824166 -0.021466693 -0.10901711 0.030758865 0.045234494 0.050813526 0.053039648 0.018211756
0.023788985 0.12053507 0.101896845 -0.012022332 0.16088611 0.035925556 0.16685115 0.12885739
0.13056123 0.05125775 0.008173476 -0.0506543 0.02228231 -0.13083497 0.01558378 -0.15673527
-0.12827174 0.077725805 0.13814749 -0.06971874 -0.018730808 0.15120953 0.07286938 -0.10624414
0.07894178 -0.028406559 0.081494644 -0.015165853 0.014282204 -0.0060144556 -0.06837091 0.067040235
-0.021404848 -0.02645621 -0.13262898 -0.022495722 0.029994901 -0.034599073 0.09884063 0.13008027
0.016536187 -0.024525313 0.122530416 0.07149382 -0.023095882 0.06854401 0.059698235 0.13606158
-0.06109356 0.13217495 -0.12747565 0.15571249 -0.030943045 -0.016056867 -0.1066187 0.01062412
0.07755638 0.07194751 -0.08205453 -0.04192793 0.038754247 0.1016071 0.107919894 0.13661641
0.095542006 0.021543613 0.07873214 -0.12392386 -0.0055062077 0.060385533 -0.034221873 0.0022913292
-0.046522297 0.09616067 -0.035671 0.008028584 0.060716726 -0.13740389 0.06615311 -0.06606473
0.034230947 0.14018105 0.018162262 0.04354783 0.03685659 0.14309433 -0.028981317 -0.13142167
0.10912374 0.019419886 0.039232958 -0.027794037 0.07866977 0.03735283 -0.044593908 -0.017536152

lstm.weight_hh_l1 f4 [256, 64]
00000000: 8301 b3bc bab4 e5bb b5ad e83b e23d 13be
00000010: f299 d2bd dc52 213d e25a 0b3d 2c48 063e
00000020: e2d5 93bd 9195 1abe 7d93 2fbb bb0c dbbc
00000030: 68c2 343d a454 86bd 8f92 2dbb 6bc5 0ebe
00000040: 4001 0bbe 56ea 0abd 7e33 563c 2467 37bd
00000050: 8c28 793c 0d56 063d bb20 993c 5f1f 6f3b
00000060: 7074 aabd e848 603d acd3 93ba 4151 3cbd
00000070: 2261 bdbd dc26 893d fac3 c43d 0598 31bd
00000080: 48b3 a43d 3a21 d6bd 1676 44bd b4f4 b93d
00000090: 9f41 a8bd 95dc b4bd 6d4d 9d3d 3429 40bd
000000a0: 54d6 32bd 7bbc b53d cdf0 993d 9c10 3abd
000000b0: c255 20be fe53 033e 60a5 273c 5fe5 a23d
000000c0: 45ef 8e3d 3aa4 403d 5cd9 ba3d 431d d63d
000000d0: 8c89 cdbd d623 1fbe f25b 293e 7498 e03d
000000e0: 7552 fb3c a41f d73d 4995 e6bd 658e 103e
000000f0: 9169 373d a6ed 5bbd 8662 9b3d dcd8 b03d
00000100: c6b2 b43d 88c3 d43d 29a0 72bd 7660 da3c
00000110: 7adc 79bd a0e7 4cbd bbab aa3d 8ed6 a4bc
00000120: 090e 0bbe c4ce 42bd d367 a8bd b1cf ebbc
00000130: d5b6 863c 86f2 903c a490 c4bd cb78 a5bd
00000140: f1b6 9b3c 5c7f a83d 29de 033d a336 22be
00000150: f83e 8bbd efb2 8ebd f01a be3d 2170 25be
00000160: f8a8 46bd c1e4 e63d 5325 b5bd 2444 c0bc
00000170: a3cb b6bd 7602 4cbd 3782 113e d1af 113e
00000180: 4098 963d 731e a23d 9da3 5d3c c948 ab3d
00000190: e3df dfbc 39c0 013e 782f a7bd 6a15 aa3d
000001a0: 837b d3bd 0c76 febd 0f04 38bc aa2e 083e
000001b0: 0c66 333d 9225 e3bc 56c1 82bd d8e7 233c
000001c0: b07d a5bd 2150 0a3c 64a0 963a 7492 a93d
000001d0: 730c 70bc be12 a1bd ef46 a73c 1347 c6bd
000001e0: 3391 cabd 8c7a cc3d dfcb 873d cadb b0bc
000001f0: 3a70 913d a2bf f6bd d828 80bd 9bca 83bc
00000200: 0aa6 6dbd 8d9c d0bd 6cc9 15be 3f5b d6bd
00000210: 83ea 8fbd 600b f0bd c7c1 e73b 9e0d 203e
00000220: 45d0 24be fc44 473b 914a d7bd 2da3 ac3c
00000230: 050e 103c ae68 e2ba e712 60bd 2519 3dbb
00000240: bac7 bcbd ed1c 1e3e 4999 c43c fe97 a7bd
00000250: f1b6 043e 210b 14be 1854 d23a 8e0e a5bc
00000260: 9a16 d93d c7f7 c23d b74c dd3d ee44 53bd
00000270: 4ef9 9dbd d005 143e 98b2 42bd ad7f c9bd
00000280: eb19 623d 9f9e f83d f58d 67bc 2f0f 8ebd
00000290: 1abb 983d 1d2c 9e3d 2f5a d9bc 4cde b0bd
000002a0: 8ad4 4abd 89ac 333d 1187 95bc f602 32bd
000002b0: 3c11 233d b5cd 093d 731d e4bc 522d f6bd
000002c0: 3633 12be eb83 ff3d 2f9c 403d 82ad 133e
000002d0: 2e3a 21be 2248 a8ba 0aa0 163e afc4 cabc
000002e0: dab7 3ebd f9f0 1d3e 77be 70bd bbfe 893c
000002f0: 62f4 e0bd 1a8b 8c3d 01a1 253e 42a8 aa3d
00000300: 822a a4bd 07a1 5c3d 4593 733d 999e 32bd
00000310: aeda 003e c50f b8bd 288d 283d 14ed 063e
00000320: b00e ddbc a512 8cbd 53a8 ee3c 9bf3 ee3d
00000330: d47f 01bd b36f 0f3d 368e 17be 0368 abbd
00000340: 48c7 fa3b ceb7 e63d 1c83 a5bd 1083 7b3d
00000350: 1c71 f13c fd72 e53a a549 41bd b629 8d3d
00000360: f419 babd bc3c d5bd 4800 32bd 8a99 b1bc
00000370: fff6 7d3d fc27 0f3e 15a3 0e3e 0092 913d
00000380: 0e7e 123e 5c93 4b3d 285b 8bbd eade e93d
00000390: 31f1 a3bd 3fef b83d 48a0 12be fb98 5dbd
000003a0: d7f1 8d3d 1f9d eb3d f7a6 fc3c f5e5 a93d
000003b0: 35b1 92bc bff7 ed3d 9052 c3bb 4696 2b3d
000003c0: 0008 d5bd c56f 783c c621 c73d 851d 833d
000003d0: c8b2 ab3d 989f 743d 4dff d73d 1e99 7fbd
000003e0: 22d5 2b39 74de 8e3d fc85 813d 26ba d63d
000003f0: d1d7 08be 2c81 d9bd bdec c03d d323 e6bc
-0.021851307 -0.0070100697 0.0071007856 -0.14379075 -0.10283269 0.03938566 0.03402222 0.13113469
-0.07218529 -0.15096118 -0.002679079 -0.026739469 0.044130713 -0.06559113 -0.002648506 -0.13942496
-0.13574696 -0.033914886 0.0130738 -0.044776097 0.015207421 0.03279691 0.018692365 0.0036487204
-0.0832299 0.05475703 -0.0011278293 -0.045975927 -0.09247042 0.06696865 0.09607692 -0.043357868
0.08042008 -0.10455556 -0.047964178 0.090798765 -0.08215641 -0.08831135 0.076807834 -0.046914294
-0.04366143 0.088738404 0.07516632 -0.045425996 -0.15657714 0.12825009 0.0102323 0.07953905
0.06979231 0.04703162 0.09123489 0.104548 -0.100360006 -0.15541014 0.1653898 0.10966578
0.030678967 0.10504082 -0.11258943 0.14116819 0.04477841 -0.053693436 0.07587151 0.08635113
0.08823161 0.10388857 -0.059234772 0.026657324 -0.06100128 -0.050025582 0.08333536 -0.020121839
-0.13579573 -0.04756047 -0.08222928 -0.028785558 0.016444603 0.01769377 -0.095979005 -0.0807968
0.019008132 0.08227417 0.03219429 -0.15841155 -0.0679912 -0.069677226 0.09282482 -0.16156055
-0.048500985 0.112741 -0.0884501 -0.023469992 -0.08925559 -0.049807034 0.1420983 0.14227225
0.07353258 0.07915964 0.013527778 0.08363492 -0.027328437 0.12670983 -0.08163351 0.08304866
-0.10326292 -0.124248594 -0.011231436 0.13299051 0.04379849 -0.027727876 -0.06384532 0.010004006
-0.080806136 0.008441956 0.0011491892 0.08279887 -0.014651406 -0.07864903 0.020419566 -0.09681525
-0.09890976 0.099843115 0.06630682 -0.021589179 0.07101484 -0.1204827 -0.0625779 -0.01608782
-0.058019675 -0.1018611 -0.14627618 -0.104666226 -0.070271514 -0.117209196 0.0070726606 0.15630195
-0.16095074 0.0030406108 -0.10512269 0.021073902 0.008792405 -0.0017273629 -0.054705527 -0.0028854099
-0.09217782 0.15440722 0.023998873 -0.08183287 0.12960412 -0.1445737 0.001604679 -0.020148542
0.10600014 0.09519916 0.10805648 -0.05157941 -0.07713567 0.14455342 -0.0475336 -0.09838805
0.0552005 0.121396296 -0.014132966 -0.0693649 0.07457562 0.07723258 -0.02653226 -0.0863615
-0.0495191 0.043865714 -0.018252881 -0.043459855 0.039811358 0.033643443 -0.027846074 -0.12020363
-0.14277348 0.12476333 0.04702395 0.14421657 -0.1574485 -0.001283888 0.14709488 -0.02475199
-0.046562053 0.15423955 -0.05877539 0.016845098 -0.10984112 0.06862469 0.161747 0.08332874
-0.0801592 0.053864505 0.05946662 -0.04360828 0.1258342 -0.08987383 0.041150242 0.13176376
-0.026984543 -0.06839494 0.029132998 0.11667558 -0.031616047 0.035018634 -0.14800343 -0.08369448
0.0076531507 0.11265527 -0.08081648 0.061404288 0.02947288 0.0017505583 -0.047189374 0.06892721
-0.090869814 -0.10411975 -0.0434573 -0.021679658 0.062003132 0.13980097 0.13929398 0.071079254
0.14305899 0.04970108 -0.06804496 0.114194706 -0.08004988 0.090300076 -0.14318955 -0.05410097
0.06930893 0.11504578 0.030841334 0.08295814 -0.017906765 0.116195194 -0.00596077 0.04189136
-0.104019165 0.015163367 0.09723239 0.06402115 0.08383709 0.059722513 0.10546742 -0.062401883
0.00016387229 0.06976023 0.063243836 0.10484724 -0.13363577 -0.10620341 0.09420154 -0.028093254

lstm.bias_ih_l1 f4 [256]
00000000: 2e2b a43d 44d5 213d a7bd 92bd 4de2 163e
00000010: b111 4f3d 8db9 903d 65b8 883d 2359 2a3d
00000020: 7d4f 9ebc aa4b 033e bed1 7e3d a74e 9a3d
00000030: 13cc 10bd 3e84 bdbc 48c4 a5bd 2be8 59bd
00000040: 5371 99bd 7264 a6bd dcb6 f43d 7eb7 33bd
00000050: df82 94bd b947 84bd 73ab 053e b009 1838
00000060: 9966 523b dc53 d63d 3aea 82bd ebc2 bb3c
00000070: 8b31 a1bd dd6b da3d ca3d 093e af0b bb3d
00000080: 7868 bb3d 9d7b d33d 6bd8 6c3d f402 aabd
00000090: ceb7 cd3d 7db2 8b3c a7a8 a1bd 470c 053e
000000a0: eaf9 b9bc 04ea c03d 31fb 1a3e 88b9 82b9
000000b0: e427 c83d e4a6 ad3c cb1a 06bd bff4 81bd
000000c0: 4d9d 793b d716 9f3d 5e41 173e b379 263e
000000d0: c2d8 e93d 1f2d 923d 3d1a d53c 5b7f 04bd
000000e0: d6f7 4dbd 7baa 1a3e c348 60bd 2ca9 8d3d
000000f0: c1a2 063e 6161 113e 8bec 013e 07db 53bd
00000100: df6b 34bd ab7a 84bd 5a9c e03b 71de 153e
00000110: a2cc 2bb9 8e46 b23d ee9d 00bc 7030 8d3c
00000120: 83a9 91bd 2122 f83d d2e6 8dbd cde7 c13d
00000130: 81b3 e43d f8ee 5ebd ba4c 96bd fac8 0b3e
00000140: 9cae c6bd 4547 c53d 7e75 a4bd 82a1 05bc
00000150: ba21 a63d e2ad c13d b66d 3dbd 0b4e 16bc
00000160: 01c1 d3bc 3faa 243b ef62 893d 707e 853d
00000170: 5d81 60bc 9ced 42bc 9a50 8f3d 1a96 533c
00000180: 9c4e b73d e6a8 433d 4acc c03d f097 0e3e
00000190: 50ab 99bd 652b 1dbd e880 aabd 969a f6bd
000001a0: 4c1c 283e 2d11 84bd 8119 d5bd d2ca ca3d
000001b0: a397 aebd b597 eabc e40f d03d ec86 a2bc
000001c0: af92 573c 33d8 a53c c730 f0bc 2bad 0d3e
000001d0: a604 fdbd 7403 a43d d9fd 80bd 7140 b7bd
000001e0: 0b02 b8bc 61eb ba3d 4481 cebd 61c5 28bd
000001f0: cc12 893d 1014 8dbc 075b b23d f1c1 183d
00000200: 9f9e 6bbd 31f8 733d 6f47 df3c a574 9dbc
00000210: dcfe 963d 07cf 72bd 20de 07bb 139d 3e3d
00000220: c098 f83c 73d8 0bbd b7e9 da3d b761 0a3d
00000230: ebe2 863d 6ac7 b23d de19 063b d0ab e2bc
00000240: fe78 48bd 4032 943d a01f 363d 1543 e63d
00000250: e346 8fbd 3fe6 3b3d 6edf 1d3d 41fc b93d
00000260: d23d d43d 2db9 62bd 7d8f a03c 0997 aa3b
00000270: d617 adbd cceb 1b3c e9cd b53d c811 873c
00000280: 7acc d3bd 1856 ddbd 8618 e93c e7c1 7ebd
00000290: 0b30 fcbd 4e81 e3bd 0e1f 62bd 84ac eebd
000002a0: b35c ff3d 3248 a33d 5337 b33d a2c5 70bd
000002b0: 9da8 d13d 8fde 463d ee32 da3d 0963 bbbd
000002c0: 8b3c fdbd 87cb d03d 3b15 83bc b54d 043e
000002d0: 76a2 febb 984d dcbd 34bc a13d 5579 b23c
000002e0: 66fe 0abe 8d73 ed3c c59b 1a3b cb64 9d3c
000002f0: a5c3 b4bd 6e94 c1bd 0ad5 d63d 5280 babd
00000300: d5c7 3cbd ee70 893c ce12 823c ff45 a4bc
00000310: d771 4cbc 54f6 0b3c 7334 053e a808 ab3d
00000320: 58d9 3fbd b9df da3d db3c af3d 796e 28ba
00000330: d356 163d 5764 ad3c 531c 3dbc 73d7 063e
00000340: d095 8f3c 0e96 9d3d 36c2 b3bd 89be 6bbd
00000350: 8011 7cbd 4d4c 153e 3a3c 5cbc 1eab de3d
00000360: efe6 cfbd 98a0 d2bd 203e ee3d cac0 31bd
00000370: 3023 7f3d 347b e93d 89fc 663d a027 043e
00000380: 0aa4 0ebe afcf 7f3d 5a9e dc3d 8ac8 d83d
00000390: a969 233d 5161 983d 6a11 fc3a 3ab0 113e
000003a0: f475 623d 89c1 de3d a249 3bbd 3081 24bd
000003b0: 03db 72bc 0575 81bd 12bd d9bd 05d5 c63d
000003c0: 614d bfbc 13bc 7abd a266 ab3b 0a89 563d
000003d0: 4d2b e43d 12f2 033e 1900 223d 54a3 163a
000003e0: 9069 363d 3ab5 433a 0dd1 8abd 3add 183c
000003f0: 53e0 f0bc b6e4 57bd 19a0 e43c f39b 193e
0.08016048 0.039510027 -0.071650796 0.14734764 0.05055398 0.07066641 0.066757955 0.041588914
-0.019325012 0.12821832 0.062211744 0.07534533 -0.03535087 -0.023134347 -0.08094078 -0.05319993
-0.07492318 -0.08124627 0.1194894 -0.043876164 -0.07251524 -0.064589925 0.13053684 3.6248646e-05
0.003210461 0.10465214 -0.063923314 0.022920093 -0.07870778 0.106651045 0.13402477 0.09133088
0.09150785 0.10326312 0.05782358 -0.083013445 0.100448236 0.017052883 -0.07893496 0.12992965
-0.022702176 0.09419635 0.15134884 -0.00024933764 0.097732335 0.021197744 -0.032740396 -0.0634551
0.0038088143 0.07768028 0.1477103 0.16257362 0.114182964 0.071375124 0.026013488 -0.03234802
-0.050285183 0.15104096 -0.05475689 0.069170326 0.13148023 0.14197303 0.1268789 -0.051722553
-0.044048186 -0.064687096 0.006854576 0.14635636 -0.00016384062 0.087048635 -0.007850153 0.01723501
-0.0711241 0.121158846 -0.06928791 0.094680406 0.1116705 -0.054427117 -0.07338853 0.13650885
-0.09701273 0.09632734 -0.08030222 -0.008156182 0.081119016 0.09456994 -0.046247207 -0.00917388
-0.025848867 0.0025125889 0.06708323 0.06518257 -0.013702718 -0.011897471 0.069977954 0.012914205
0.089505404 0.047768496 0.09413965 0.13925147 -0.075033784 -0.038371462 -0.08325368 -0.12041204
0.16417044 -0.064485885 -0.10405255 0.09901966 -0.08525016 -0.028636793 0.10159281 -0.019839726
0.013157531 0.020244693 -0.029320134 0.1383559 -0.12354402 0.08008471 -0.062984176 -0.08947838
-0.022461912 0.09126926 -0.10083249 -0.04120386 0.06693038 -0.01722148 0.08708768 0.037294332
-0.05752432 0.059562866 0.027255742 -0.01922066 0.07372829 -0.059279468 -0.0020731762 0.046536516
0.030346274 -0.03414197 0.10689109 0.033784594 0.0658625 0.087294415 0.0020462195 -0.027669817
-0.048943512 0.07236147 0.044463754 0.11243264 -0.069959424 0.045873877 0.038543157 0.09081317
0.10363354 -0.05535238 0.01959967 0.005205993 -0.08451812 0.009516668 0.08877165 0.016487971
-0.10341735 -0.10807437 0.028454076 -0.06219664 -0.12313851 -0.11108647 -0.055205397 -0.116539985
0.12468853 0.079727545 0.08750787 -0.058782227 0.102372386 0.048552092 0.10654245 -0.09149749
-0.12365063 0.1019507 -0.016001334 0.12920268 -0.0077708317 -0.10756987 0.07897225 0.021786371
-0.13573608 0.028985763 0.002359138 0.0192131 -0.08826379 -0.09452139 0.10489853 -0.091065064
-0.046089012 0.016777482 0.015878107 -0.020052908 -0.012478313 0.008542616 0.13008289 0.083512604
-0.046838135 0.10687203 0.08556529 -0.0006425153 0.036703896 0.02116601 -0.011542398 0.13168125
0.01752749 0.07694636 -0.08777277 -0.057554755 -0.061540127 0.14579888 -0.0134420935 0.10872482
-0.10151469 -0.10284537 0.11632943 -0.04339675 0.062289417 0.11400452 0.05639318 0.1290574
-0.13929763 0.062453922 0.10772391 0.10585125 0.039895687 0.07440437 0.0019231264 0.14227381
0.05528827 0.10876758 -0.04572452 -0.040162265 -0.014822724 -0.06321148 -0.106317654 0.09708599
-0.023352327 -0.061214518 0.0052307406 0.052376784 0.111410715 0.12885311 0.039550874 0.00057463837
0.044534266 0.00074656645 -0.067781545 0.009330088 -0.029403841 -0.05270835 0.027908372 0.15000896

lstm.bias_hh_l1 f4 [256]
00000000: d9f1 f63d 2a69 013d 7fdf 55bc 0741 b2bc
00000010: 4233 01bc 5975 dc3d 36bd df3d c135 e53c
00000020: fcd7 043e 0f6a 07bd fe66 103d 18c5 043e
00000030: 7660 973d e19d 2c3d efbd 87bd 3a27 283e
00000040: 4d28 fd3c d83c e23d 4aba 94bd b869 c4bd
00000050: 2061 113e 4d69 5bbb d09e 983d ab8f 003c
00000060: b802 033d 380f d13d 169e c7bd 934b b9bd
00000070: 95c2 edbd 0745 96bc c968 053e 565a 19bd
00000080: 57c1 813d 2b1d f63d 392a 993d 5c04 013e
00000090: 5dde 0cbd c467 c23d 156b 9c3d c871 913d
000000a0: 8a0a 9b3c ee66 6fbd 4698 1d3e 504a 2f3c
000000b0: ed9a bc3c 8339 fd3d 89c1 5dbc c65e adbb
000000c0: e17f 923c f5d2 e23d 1f3e df3d b4d7 0e3e
000000d0: ef88 173d 1086 f83d 5c3f 953d e5fb 55bd
000000e0: 4191 803d c8be 6abb 0c67 b6bd c5b5 c43d
000000f0: 939f 72bd c410 583d fc2c 073e a394 4c3d
00000100: c2df 8bbc 0159 8a3c a030 77bd 91de 04bd
00000110: 1a5a 023e 2001 843c c692 513c c82a b2bd
00000120: f244 7b3d f3b4 d1bd 63a4 593d 7b60 43bd
00000130: 2712 6bbc 8984 9dbd 7051 d93d 5eba 01bb
00000140: 4547 553d b14c bdbd b07d bebd 7c2a 40bd
00000150: ec47 8cbd 0eff c6bd bc0e 89bd a1ea 60bc
00000160: d5a4 e53d 68e9 ad3d b08b eb3d 2a8e f0bd
00000170: 805a fa3d a6b6 11bd e713 ba3d 6bc9 4d3d
00000180: c005 b13d ce10 bcbd b080 93bd 4a13 9cbd
00000190: ee6b cf3d 5422 383c 6844 553d 4b02 d43d
000001a0: 023c 29bd d312 c6bb 53e1 b0bd 5add 63bd
000001b0: ab61 c33c 5285 ea3d eeb9 dabd 58b4 183d
000001c0: 478a 943d 4975 2fbd fbf5 c23b 59e1 183e
000001d0: 59bb 9b3d cec0 a83d a85a 6fbc 5e24 e73c
000001e0: e5cf 1fbd 390b 0e3e e549 b53d 6cb6 e63d
000001f0: bd89 f23d 12df 05bc 4f63 8cbd 93da 96bd
00000200: e9c7 bb3d beff c1bd 5257 84bd bf67 91bc
00000210: 2724 213d ba70 a23d b1a6 c53d 8230 4bbc
00000220: 3879 63bd 4b02 b43d d3c1 743d 7021 77bd
00000230: 9f65 99bd 45e0 fa3d c2a8 81bd 9eb9 c6bc
00000240: 1741 08bd 41a6 9f3d dc2f dcbc dcc3 b33c
00000250: c521 e23d f05b d1ba d290 97bd 0528 b7bd
00000260: 0af6 68bd 14e0 8fbd 60b8 e73d 9386 733d
00000270: 7c44 9bbd 16dd 65bd a5bb 793d 8c65 aabd
00000280: 8c12 9ebd 5255 94bd f4e4 d23d ed9d 093d
00000290: fcc7 ecbc 65b9 06bd 708e e6bd 7409 6abd
000002a0: dfe2 eabc dd74 1a3c a954 d6bd 67a3 aa3d
000002b0: a384 c7bd 72fd ddbb 702f be3d ee96 b8bd
000002c0: 5b8f 1c3d db1d d1bc 0a14 a53d 19ef 543d
000002d0: fdbb e9bc a256 85bd 9c61 87ba 24fd 77bd
000002e0: dd97 00bc 91fd fabd eca0 bd3d c84e 223d
000002f0: fa96 5bbd 2400 58bd 9e4a b03d 3ce6 e03d
00000300: 66d6 f8bc 7ff0 ae3d bc56 0a3e d762 de3d
00000310: acc6 063d 51cd afbc 29c3 bebd b66c 323d
00000320: 9ef3 24bc a120 f6bc d72b 4ebc 334a 47bd
00000330: 1ac6 88bd 23fd 85bb f639 c5bd 66b7 973d
00000340: 3d3c 463d 4423 ddbd 3a99 62bc 04f3 e83d
00000350: 95c1 013e 92fe 1c3e 66e0 893b dcba da3d
00000360: 11b8 cf3d 46b1 3c3c 4c1a 5c3d 9bae 833d
00000370: 5544 afbd 4374 52bc eefa 243d fac9 f03b
00000380: af99 02be b1d5 093e 5ad3 8dbd 4b21 843d
00000390: 993b c13b e0b9 cdbc e34d 0c3d 1f4b e3bc
000003a0: 4282 c33d a21a e8bc 8b1f 193e 6953 a43d
000003b0: 7c98 353b 33ae 14bd 891c a93d 7ed1 d2bc
000003c0: dfae 4bbd 058b b33d 4e44 193e ea4e bb3d
000003d0: 5ba8 ea3d 1be4 71bd e9d5 453d 0724 063e
000003e0: d16e 583d 6f49 83bd ade5 88bd ff11 043e
000003f0: 5f7b 9b3d 9369 a1bd 69cb 053e cba6 9d3d
0.120578475 0.031594433 -0.013053774 -0.021759523 -0.007885756 0.1076457 0.10924761 0.027979733
0.12973017 -0.03306013 0.03525447 0.1296581 0.07391445 0.042142753 -0.06628024 0.16421214
0.030903006 0.11046761 -0.07262094 -0.09590477 0.14197206 -0.0033479512 0.07452166 0.007846753
0.031985015 0.10207981 -0.097469494 -0.09047618 -0.11609379 -0.018343462 0.13028254 -0.037439667
0.06335705 0.12017282 0.074787565 0.12599319 -0.03439175 0.09492448 0.07637612 0.0710178
0.018925924 -0.05844777 0.15390119 0.01069887 0.023023093 0.12364485 -0.013534912 -0.005290839
0.017883243 0.11075393 0.109005205 0.13949472 0.036995824 0.121349454 0.072874755 -0.05224218
0.06277705 -0.003581928 -0.089063734 0.09604982 -0.059234213 0.052750364 0.13200754 0.04994644
-0.01707447 0.016888143 -0.060349107 -0.03243882 0.12729684 0.016113818 0.012791341 -0.08699566
0.06134505 -0.102395914 0.053135287 -0.047699433 -0.01434759 -0.07691295 0.10611236 -0.0019794921
0.05206992 -0.09243143 -0.09301317 -0.046915516 -0.068496555 -0.097166166 -0.066922635 -0.013727815
0.1121308 0.08491784 0.11501253 -0.11745866 0.12224293 -0.035574578 0.09085827 0.050240915
0.08643675 -0.09182893 -0.072022796 -0.076208666 0.10128008 0.011238653 0.05206719 0.10352
-0.041316994 -0.0060447245 -0.08636727 -0.05563102 0.023850283 0.1145121 -0.106799945 0.037281364
0.07252937 -0.04283646 0.0059497333 0.14929713 0.07604093 0.082398996 -0.0146090165 0.028215583
-0.039016623 0.13871469 0.08851985 0.11265263 0.11842678 -0.00817086 -0.06854879 -0.073659085
0.09168989 -0.09472607 -0.064619675 -0.017749665 0.03934112 0.07931657 0.096509345 -0.012401702
-0.055535525 0.087895 0.059755158 -0.060334623 -0.07490086 0.12249807 -0.06331016 -0.024258431
-0.0332652 0.07795382 -0.02687829 0.021943979 0.11041597 -0.0015972834 -0.07400669 -0.0894318
-0.056875266 -0.070251614 0.113144636 0.05945451 -0.07581422 -0.056119047 0.060969967 -0.0832015
-0.07718381 -0.07242836 0.102975756 0.033597875 -0.028903954 -0.03289165 -0.112576365 -0.05713792
-0.028672634 0.009427276 -0.104653664 0.08331948 -0.09742095 -0.006774598 0.09286392 -0.090131626
0.038222652 -0.025526932 0.08060463 0.051985834 -0.028532023 -0.065106645 -0.0010328772 -0.060544148
-0.007848707 -0.12255395 0.09259209 0.039625913 -0.05361078 -0.05273451 0.08607982 0.10981414
-0.03037567 0.08541965 0.13509649 0.10858696 0.032904312 -0.021460207 -0.093145676 0.043560706
-0.0100678485 -0.030044856 -0.012583694 -0.048654746 -0.0667841 -0.004089014 -0.09630196 0.07408027
0.04839729 -0.10797742 -0.013830477 0.113744766 0.12671502 0.15331486 0.0042076586 0.10680172
0.1014253 0.011516875 0.053736016 0.06429788 -0.08557955 -0.012845102 0.040278368 0.007348296
-0.12753938 0.13460423 -0.06925078 0.06451663 0.005896997 -0.025113046 0.034253966 -0.027745781
0.09546329 -0.028333012 0.14953439 0.08023722 0.0027709296 -0.03629894 0.08257396 -0.02573466
-0.049727317 0.0876675 0.14967462 0.09145911 0.114578925 -0.05905543 0.048299704 0.13099681
0.052840058 -0.06410491 -0.06684432 0.1289749 0.075918905 -0.07881465 0.13065876 0.07697829
