src/Backend-Information/Clod-weather_predict/Tibet_lstm_model.pth (torch, 208379 bytes, 11 tensors)

lstm.weight_ih_l0 f4 [256, 3]
-0.037485212 -0.08443916 0.12054417 -0.10289304 0.09396538 0.11966397 -0.07105597 -0.008584097
0.16414066 -0.0458024 0.11299327 0.06726204 -0.109753706 -0.07664488 -0.08154706 -0.11152175
-0.10122563 0.029660702 -0.0049436945 -0.07652964 0.08121792 -0.100434676 0.019659534 0.01325778
-0.12581596 0.09826435 -0.016208267 -0.1337911 0.056136593 0.08958225 -0.040001396 -0.11757144
-0.014141532 0.023386141 -0.058431134 -0.035782486 -0.08907336 -0.112646 0.14318845 -0.07905825
-0.024959862 -0.029510666 0.005727959 -0.0860834 -0.043180943 -0.159512 0.03555824 0.0007894115
-0.04209344 0.01548256 -0.050408714 -0.019696932 0.00824891 -0.01592426 -0.1249409 -0.047396094
0.13782634 -0.038632758 0.04906121 -0.042590246 0.046659578 0.025160909 0.038384844 -0.053012904
-0.023649082 -0.07960161 -0.1014691 0.04125765 0.14969903 -0.041012485 0.11534001 -8.58127e-05
-0.14085956 -0.05494991 0.10899429 -0.032651253 0.10348976 -0.07447203 0.06520763 -0.06917763
-0.069472894 0.059951965 -0.058083147 -0.0024431092 -0.16172011 -0.060012624 -0.07804318 -0.14154963
0.069856 0.01106203 -0.09740097 -0.10238692 -0.043522965 0.030965371 -0.09042169 0.10364803
0.010877681 0.007239431 0.04586017 -0.10749849 0.0427804 0.07377407 -0.024541363 0.10086116
0.055757437 -0.050647914 -0.102082774 0.102599375 -0.0991374 0.05931744 -0.10132947 0.016360061
0.11212085 0.14630182 -0.03879354 0.014525056 -0.0883203 0.078060985 -0.04385428 -0.06252924
-0.0069552474 -0.08623123 0.0777496 -0.0788945 -0.011061475 0.11828995 0.0143953925 -0.005494967
0.09786671 -0.15344958 0.09724727 -0.07384173 0.06225936 0.016567275 0.05570037 0.074046604
-0.015785217 -0.071659945 -0.15219285 -0.00975275 -0.048611205 -0.14061478 -0.015239894 0.09809544
-0.07525306 -0.10741997 -0.013624283 0.07536181 0.080950215 0.13392092 0.04706642 -0.049032956
0.0045033162 0.028089708 -0.118687406 0.017747309 -0.00920592 -0.09695691 0.07489961 -0.052153543
-0.04220338 -0.020897191 -0.0496393 0.016654328 0.09290035 0.00355308 0.07420805 -0.035909396
0.010761022 -0.017320678 -0.066918805 0.005392749 -0.11946064 0.012438905 0.046150636 0.03850326
-0.03676694 -0.074061394 0.074993744 0.08418353 -0.057989135 0.11103229 0.035090055 0.106020294
0.07826777 -0.0689989 -0.06497122 -0.086189985 0.16098969 -0.013766648 -0.07786773 -0.0033585967
-0.10724497 0.06080857 0.100100115 -0.09042443 -0.11151248 -0.03506216 0.04990281 -0.014980778
-0.06779164 0.0874067 -0.04500757 0.024824124 0.16891544 -0.12252124 0.036243103 0.010259877
0.012880817 -0.012312764 0.011765772 0.015354618 -0.06470067 -0.028137 0.04750432 -0.080444016
0.08312814 0.09095129 0.05668347 -0.019225046 0.110679775 0.12882778 0.026988303 -0.058994427
-0.03893268 -0.10182727 0.09770365 0.041915603 -0.014731559 0.096137315 0.031402946 -0.13867943
0.032218352 -0.0329476 -0.09492538 -0.010099694 -0.053710062 0.08935632 -0.033532426 0.03661445
-0.017946739 0.068933845 0.0027473425 -0.1184064 0.002938658 -0.013034692 0.05805906 -0.10042822
0.094433956 -0.05374147 0.091961205 0.014609606 -0.016388014 0.040048778 0.05044568 0.098952785
00000000: 188a 19bd 70ee acbd dddf f63d 96b9 d2bd
00000010: ec70 c03d 6212 f53d cb85 91bd 50a4 0cbc
00000020: 7d14 283e 4c9b 3bbd 0469 e73d aec0 893d
00000030: 8dc6 e0bd fef7 9cbd 2502 a7bd 8465 e4bd
00000040: 624f cfbd 00fb f23c b7fe a1bb 92bb 9cbd
00000050: 9555 a63d b2b0 cdbd 080d a13c 2937 593c
00000060: e6d5 00be d23e c93d 33c7 84bc 8900 09be
00000070: 7cef 653d e676 b73d 81d8 23bd 4cc9 f0bd
00000080: e2b1 67bc 4b94 bf3c 7c55 6fbd a890 12bd
00000090: 186c b6bd f2b2 e6bd fe9f 123e 4be9 a1bd
000000a0: a078 ccbc 5ac0 f1bc 9ab1 bb3b 7e4c b0bd
000000b0: 80de 30bd 1d57 23be 84a5 113d 82f0 4e3a
000000c0: 2c6a 2cbd 90aa 7d3c 5e79 4ebd 765b a1bc
000000d0: 7026 073c 9873 82bc 04e1 ffbd 6822 42bd
000000e0: 5922 0d3e 623d 1ebd 68f4 483d 1c73 2ebd
000000f0: 1d1e 3f3d 401e ce3c 6d39 1d3d 0f24 59bd
00000100: b8bb c1bc 2b06 a3bd 08cf cfbd c8fd 283d
00000110: b44a 193e b5fc 27bd 6237 ec3d 58f6 b3b8
00000120: 7d3d 10be 2813 61bd 6638 df3d 52bd 05bd
00000130: 70f2 d33d cb84 98bd 948b 853d 00ad 8dbd
00000140: ce47 8ebd 3190 753d 98e8 6dbd 921c 20bb
00000150: f599 25be cccf 75bd 1ad5 9fbd 63f2 10be
00000160: aa10 8f3d 843d 353c 297a c7bd 3cb0 d1bd
00000170: 2345 32bd 17ab fd3c 022f b9bd 6b45 d43d
00000180: 4d38 323c c038 ed3b e0d7 3b3d 2b28 dcbd
00000190: 803a 2f3d dc16 973d f80a c9bc 4c90 ce3d
000001a0: e961 643d 3074 4fbd c610 d1bd 9f1f d23d
000001b0: 8d08 cbbd d8f6 723d d385 cfbd 8905 863c
000001c0: 9e9f e53d 25d0 153e fae5 1ebd 80fa 6d3c
000001d0: 46e1 b4bd 70de 9f3d 8ca0 33bd 550f 80bd
000001e0: d8e8 e3bb 009a b0bd 2f3b 9f3d 7193 a1bd
000001f0: 303b 35bc 0042 f23d a7da 6b3c 200f b4bb
00000200: 576e c83d e321 1dbe 9429 c73d 553a 97bd
00000210: ac03 7f3d 18b8 873c 1226 643d bfa5 973d
00000220: 0050 81bc 73c2 92bd 71d8 1bbe 00ca 1fbc
00000230: 8b1c 47bd 52fd 0fbe c0b0 79bc 43e6 c83d
00000240: 471e 9abd 00ff dbbd 6238 5fbc 4b57 9a3d
00000250: 3ac9 a53d 9122 093e b8c8 403d c8d6 48bd
00000260: 8e90 933b 631c e63c 6212 f3bd ce62 913c
00000270: 6dd4 16bc 5891 c6bd f764 993d f49e 55bd
00000280: 74dd 2cbd 9630 abbc 9452 4bbd a86e 883c
00000290: 8a42 be3d cada 683b 64fa 973d bb15 13bd
000002a0: ff4e 303c 18e4 8dbc ba0c 89bd a8b5 b03b
000002b0: c8a7 f4bd 8dcc 4b3c 7308 3d3d 98b5 1d3d
000002c0: ee98 16bd 80ad 97bd 5296 993d 6a68 ac3d
000002d0: 0486 6dbd e664 e33d 97ba 0f3d 2b21 d93d
000002e0: da4a a03d 4c4f 8dbd a20f 85bd 6084 b0bd
000002f0: 7bda 243e 828d 61bc 1e79 9fbd e71b 5cbb
00000300: 40a3 dbbd 6812 793d 4a01 cd3d 7230 b9bd
00000310: a860 e4bd 579d 0fbd e466 4c3d f071 75bc
00000320: 58d6 8abd 4902 b33d dc59 38bd f65b cb3c
00000330: 2bf8 2c3e 6aec fabd a673 143d 0b19 283c
00000340: 100a 533c 7abb 49bc 39c5 403c f091 7b3c
00000350: c981 84bd 917f e6bc e493 423d d5bf a4bd
00000360: 163f aa3d ac44 ba3d ed2c 683d d87d 9dbc
00000370: 14ac e23d 6eeb 033e 9316 dd3c 24a4 71bd
00000380: e077 1fbd d18a d0bd da18 c83d b2af 2b3d
00000390: a35c 71bc a4e3 c43d 60a0 003d fb01 0ebe
000003a0: 64f7 033d 10f4 06bd 3d68 c2bd 3079 25bc
000003b0: 15ff 5bbd 7200 b73d 4c59 09bd 09f9 153d
000003c0: 0a05 93bc 302d 8d3d c20c 343b 0e7f f2bd
000003d0: 8096 403b 768f 55bc 56cf 6d3d 50ad cdbd
000003e0: 9766 c13d 0420 5cbd 2856 bc3d 215d 6f3c
000003f0: 2840 86bc 300a 243d 21a0 4e3d c2a7 ca3d

lstm.weight_hh_l0 f4 [256, 64]
0.044972107 -0.037284337 -0.033858247 0.037393436 0.07103738 -0.07300684 -0.023088139 0.100603595
-0.08175989 -0.030629644 0.15717065 -0.03849455 -0.104178 0.07223151 -0.014737623 0.084824
-0.026088838 0.031724274 -0.12893759 0.05171771 0.02252828 0.019303927 -0.020225089 0.0048693814
0.041962646 -0.053741165 -0.015162681 -0.0343189 -0.002801893 0.07252353 -0.03476082 0.056316365
0.0017519651 0.013899038 0.017343588 0.027685856 0.07451276 0.042191613 0.09614608 -0.033415593
-0.09818975 0.06388608 -0.009953327 0.052620504 -0.08382012 -0.050480243 -0.046396445 -0.07040703
-0.051418215 -0.1308827 0.07189972 0.063886024 0.0774507 0.10412643 -0.1504483 0.05753258
0.05975342 -0.07504279 -0.015039675 -0.11545824 0.02064105 0.09671547 -0.08243318 -0.08728662
0.08687795 0.09953508 0.018346278 -0.064087406 0.020583222 -0.0974527 -0.0241231 0.083379075
0.1347632 0.03323358 -0.022339087 -0.020261029 -0.08824116 0.0016766292 -0.017646769 -0.11166817
-0.107716694 0.066167675 0.0221516 0.10365639 0.13054626 -0.051174905 -0.12797451 0.13247529
-0.017840829 0.061326366 -0.014773734 -0.06537898 0.02226704 0.10705646 0.033178885 0.09810814
-0.041097715 -0.047987074 0.08824207 0.081321575 0.02562807 -0.08913887 -0.015829079 -0.09122978
-0.06933368 -0.12947577 -0.11751559 0.0046590054 -0.06716242 0.008563178 -0.020019904 -0.10800238
-0.03578705 0.09740532 -0.00914435 0.019425381 -0.047917314 -0.03524393 0.014197544 0.03227621
-0.026859986 -0.048317704 0.011725261 0.11975352 -0.009647924 0.11768436 0.03182694 -0.05572067
-0.08816024 -0.07411312 -0.047772083 -0.043896265 0.062362235 -0.07406398 -0.0029566195 -0.08983217
0.10749281 -0.06729827 0.06618955 -0.013188283 0.13696651 0.14664875 0.009382178 0.11108132
-0.0150504885 -0.05478081 0.089115754 -0.018512396 -0.05800181 -0.063892305 -0.1422534 0.12430723
0.010992965 0.006273109 0.0010083814 0.057595808 -0.01698638 0.10763241 -0.05113725 -0.06426433
0.054366373 0.11707634 -0.13497481 0.12082615 0.024422782 0.05320769 -0.13879125 0.016170414
-0.012540418 0.059944823 -0.1235685 0.06571732 0.045088343 -0.026071172 -0.12052208 0.1526153
0.12843561 0.037820473 0.076085575 0.08174806 -0.064485446 0.11853246 0.06965989 -0.024214214
-0.116868936 -0.14813341 -0.05534715 0.15537554 0.12594242 0.023712745 -0.061192345 0.14388259
-0.05602274 0.018610729 -0.016585806 -0.09597196 0.00080757536 0.0695593 0.061875008 0.13589133
0.085278995 0.1273426 -0.07684904 -0.1341763 0.074119315 0.017306456 0.011246453 -0.09235089
0.0063137054 0.06513652 0.051671658 0.15142591 0.14523216 -0.102025025 0.01049183 0.114583634
-0.0975106 0.11574315 0.0031501984 -0.04886433 -0.07204759 0.0028311233 0.121051125 0.13435252
-0.065903835 0.12862328 -0.15714048 0.00039371033 0.08066762 -0.118982516 -0.03657277 0.023205599
0.027743954 -0.010001079 0.0016716514 -0.1256973 0.007018883 -0.071092345 0.07682146 0.054466933
0.1082258 0.10102041 0.10502357 0.11366283 0.05004596 0.11237785 -0.03156505 0.0012627
-0.1471009 0.017842049 -0.14622693 0.09435129 0.00057635363 0.096821465 -0.1459339 0.13389571
00000000: ac34 383d 76b7 18bd f2ae 0abd dc29 193d
00000010: 0c7c 913d 9c84 95bd 5623 bdbc 4209 ce3d
00000020: bb71 a7bd 05eb fabc 58f1 203e 76ac 1dbd
00000030: 465b d5bd 1dee 933d 1276 71bc 35b8 ad3d
00000040: 42b8 d5bc 50f1 013d 3708 04be f3d5 533d
00000050: 3a8d b83c 4523 9e3c 16af a5bc 558f 9f3b
00000060: 06e1 2b3d b21f 5cbd e56c 78bc fa91 0cbd
00000070: f79f 37bb 3787 943d 5d61 0ebd fdab 663d
00000080: 32a2 e53a cab8 633c 2414 8e3c 73cd e23c
00000090: 259a 983d 1dd1 2c3d 3ce8 c43d cade 08bd
000000a0: b517 c9bd b5d6 823d 4713 23bc 9988 573d
000000b0: e2a9 abbd 5fc4 4ebd 330a 3ebd 9031 90bd
000000c0: e89b 52bd 1d06 06be 2940 933d add6 823d
000000d0: 799e 9e3d 3d40 d53d 1f0f 1abe 48a7 6b3d
000000e0: 01c0 743d 09b0 99bd f868 76bc 5f75 ecbd
000000f0: 6b17 a93c c312 c63d bad2 a8bd 54c3 b2bd
00000100: 11ed b13d 0cd9 cb3d ef4a 963c 4240 83bd
00000110: 259e a83c 4895 c7bd cf9d c5bc a6c2 aa3d
00000120: 5dff 093e ef1f 083d 7600 b7bc 75fa a5bc
00000130: c8b7 b4bd 57c2 db3a f58f 90bc 48b2 e4bd
00000140: 929a dcbd eb82 873d 4677 b53c cd49 d43d
00000150: ebad 053e c79c 51bd c00b 03be 9aa7 073e
00000160: ee26 92bc 5b31 7b3d 880d 72bc 6ae5 85bd
00000170: 5e69 b63c 6b40 db3d 95e6 073d ecec c83d
00000180: 1456 28bd 188e 44bd 42b8 b43d ed8b a63d
00000190: f5f1 d13c 718e b6bd fcab 81bc aed6 babd
000001a0: d1fe 8dbd 4c95 04be 03ac f0bd 92aa 983b
000001b0: 738c 89bd 924c 0c3c c800 a4bc 5a30 ddbd
000001c0: 7195 12bd 717c c73d 2fd2 15bc fa21 9f3c
000001d0: f244 44bd f05b 10bd d19c 683c 0f34 043d
000001e0: 7909 dcbc c9e8 45bd 4f1b 403c 5541 f53d
000001f0: 5412 1ebc 7f04 f13d f75c 023d 5b3b 64bd
00000200: 5b8d b4bd 9fc8 97bd a9ac 43bd 92cc 33bd
00000210: 8b6f 7f3d dbae 97bd d8c3 41bb eef9 b7bd
00000220: 3125 dc3d add3 89bd 638e 873d ab13 58bc
00000230: f340 0c3e 172b 163e b5b7 193c 9a7e e33d
00000240: 5396 76bc d861 60bd 5282 b63d 4fa7 97bc
00000250: 4e93 6dbd f8d9 82bd e0aa 11be ca94 fe3d
00000260: d61b 343c a78e cd3b aa2b 843a 95e9 6b3d
00000270: 0527 8bbc 626e dc3d 4b75 51bd 049d 83bd
00000280: 46af 5e3d b8c5 ef3d d636 0abe b373 f73d
00000290: 4912 c83c 4ff0 593d 4b1f 0ebe d177 843c
000002a0: 5376 4dbc b488 753d 7b11 fdbd cd96 863d
000002b0: 8eae 383d 3693 d5bc 48d4 f6bd 2f47 1c3e
000002c0: a084 033e a4e9 1a3d c1d2 9b3d 876b a73d
000002d0: f210 84bd 25c1 f23d d8a9 8e3d e35c c6bc
000002e0: fb58 efbd 49b0 17be b1b3 62bd c41a 1f3e
000002f0: 0df7 003e 3b41 c23c d3a4 7abd f555 133e
00000300: 1a78 65bd 8775 983c f5de 87bc f28c c4bd
00000310: 77b3 533a 1b75 8e3d a670 7d3d 1927 0b3e
00000320: c1a6 ae3d 1966 023e 0863 9dbd 8365 09be
00000330: decb 973d 45c6 8d3c 0b43 383c 7722 bdbd
00000340: 33e3 ce3b 4c66 853d a9a5 533d 650f 1b3e
00000350: bdb7 143e 7ff2 d0bd ede5 2b3c d3aa ea3d
00000360: a3b3 c7bd bf0a ed3d 8f73 4e3b f725 48bd
00000370: b08d 93bd 5e8a 393b a7e9 f73d b593 093e
00000380: 97f8 86bd d2b5 033e 6fe9 20be e86a ce39
00000390: 1135 a53d 1bad f3bd 54cd 15bd ab19 be3c
000003a0: 4a47 e33c 91db 23bc 501b db3a cbb6 00be
000003b0: a8fe e53b dd98 91bd 9254 9d3d b818 5f3d
000003c0: 7da5 dd3d cae3 ce3d 9916 d73d 0fc8 e83d
000003d0: fefc 4c3d 5c26 e63d 5b4a 01bd 2e81 a53a
000003e0: 9ea1 16be 7d29 923c 83bc 15be 403b c13d
000003f0: 7016 173a 554a c63d b26f 15be f51b 093e

lstm.bias_ih_l0 f4 [256]
0.08026656 -0.031948946 0.073412456 0.0054745656 -0.031314533 0.08094094 0.06995144 0.059000224
0.1263725 0.14858325 -0.057794746 0.075667344 0.14097193 0.010160495 0.15019916 0.10856038
-0.016528057 0.10159541 0.08748204 0.13926686 -0.041812085 0.061318446 -0.040108513 0.083421476
0.12245703 -0.048806295 -0.07962963 -0.010163112 0.009887669 0.15637258 0.0299234 0.07827326
-0.040471263 0.017416803 -0.088356204 0.054208044 -0.040885765 -0.08222767 -0.0023012157 0.028731033
0.1451723 -0.0652266 0.06453294 -0.06621922 0.0159407 0.08077709 -0.025185768 -0.048791572
-0.0019895309 -0.08692152 -0.09543167 0.12275073 0.07928129 0.028477237 0.07272367 0.053933963
-0.028080622 0.055884324 0.06470278 0.112769224 0.1101704 0.024117764 -0.056168158 -0.07139289
-0.019306181 -0.036584973 0.0025204313 0.02775596 0.105437584 0.03378906 -0.08557945 -0.042989496
-0.025746249 0.0072852043 -0.006392869 -0.043792456 0.014620499 -0.008644274 -0.05158441 0.08281509
-0.09731554 0.019575156 0.065883264 0.062175766 -0.044185657 -0.07400546 0.1007181 -0.016202537
0.13680008 -0.02643604 -0.034977444 0.12119615 0.13305454 0.11581844 0.059949514 0.10675489
0.060190056 0.06078969 -0.054382954 0.10960973 -0.078549206 -0.089255355 -0.0827515 0.01571142
0.08650248 -0.10769491 0.024097072 0.08326798 0.07145436 -0.0012913633 0.032053668 0.0029413577
0.11171594 -0.09211125 0.10081325 -0.047492128 -0.0335762 -0.08612803 -0.07413313 0.074666545
0.051508565 -0.07043771 -0.054774195 -0.059015054 -0.0025782145 -0.027127825 0.14464052 -0.011850395
0.067677185 0.018935444 0.09173003 -0.023412783 0.05375563 -0.030657325 -0.045534063 0.010731227
0.06919665 0.12755138 0.073795564 -0.10653961 -0.079944 0.05802821 0.071890965 -0.08896705
-0.026342487 0.05500198 -0.00068866403 0.030654136 0.05060587 -0.078837775 -0.0057973578 0.115668885
0.06723197 0.07052951 -0.05701588 0.04283518 -0.060303353 0.0158584 0.10691958 0.022344213
0.022071596 0.120546564 0.069481134 -0.06147485 -0.0785006 0.03875633 -0.11799687 -0.11248265
0.12688868 -0.07073395 -0.12294615 -0.10189529 -0.10617572 -0.034851946 -0.013433145 -0.034126904
0.080240496 -0.102966376 0.05394665 -0.062438697 0.03992603 -0.00088856753 -0.04635902 -0.07340172
-0.12980157 -0.04628509 -0.06351301 0.058359727 0.08756579 0.07684356 -0.08940247 0.033542957
0.041241746 0.06011485 0.11636117 0.10236246 0.09457151 0.101329304 0.14217292 0.047560498
0.08018651 0.08791324 0.077689774 -0.00815675 -0.010628198 0.08206621 0.049135037 0.14569268
-0.10060833 -0.06205324 0.11241018 -0.03319801 -0.08136199 0.11100965 -0.043423742 -0.022721922
-0.012584063 0.01886365 -0.060498998 0.031310882 0.026491748 0.031076746 -0.028241014 -0.05995068
0.067904085 -0.03659037 0.119441375 0.048292592 0.08091168 -0.0069721304 -0.070456475 0.09042302
0.10887956 0.12240711 0.06336646 0.0034315076 0.14085843 -0.0074087437 -0.055365026 -0.021499269
-0.031925406 -0.045454144 0.13973862 0.11202478 0.081266 0.13581108 0.15860084 0.0070162117
-0.05995575 0.09736173 0.01993946 0.01809706 0.13253608 -0.050911658 0.1382746 0.025854355
00000000: cb62 a43d e6dc 02bd 4559 963d fc63 b33b
00000010: ab43 00bd 5dc4 a53d b342 8f3d 38aa 713d
00000020: cb67 013e 3526 183e 2fba 6cbd 7bf7 9a3d
00000030: f25a 103e 3478 263c cfcd 193e e854 de3d
00000040: d965 87bc 4111 d03d c929 b33d f99b 0e3e
00000050: 2643 2bbd 0d29 7b3d d348 24bd e1d8 aa3d
00000060: c0ca fa3d 1ce9 47bd dc14 a3bd 2e83 26bc
00000070: e4ff 213c 2220 203e eb21 f53c bb4d a03d
00000080: 32c5 25bd afad 8e3c 19f4 b4bd 4109 5e3d
00000090: d577 27bd fb66 a8bd fecf 16bb 585d eb3c
000000a0: 0ca8 143e 8695 85bd d929 843d f19d 87bd
000000b0: 1296 823c 756e a53d 6252 cebc acd9 47bd
000000c0: ca62 02bb e903 b2bd ae71 c3bd bc64 fb3d
000000d0: 3b5e a23d 1849 e93c 26f0 943d dce9 5c3d
000000e0: 5509 e6bc f6e6 643d e482 843d 8df3 e63d
000000f0: 05a1 e13d 9e92 c53c 9510 66bd 6f36 92bd
00000100: ff27 9ebc 20da 15bd d22d 253b 7860 e33c
00000110: a9ef d73d 6666 0a3d 4744 afbd c115 30bd
00000120: cce9 d2bc b9b8 ee3b 467b d1bb b85f 33bd
00000130: d18a 6f3c b7a0 0dbc 2d4a 53bd f59a a93d
00000140: 5f4d c7bd 145c a03c ceed 863d 04ac 7e3d
00000150: 05fc 34bd 2d90 97bd 4b45 ce3d 2fbb 84bc
00000160: 5215 0c3e 6590 d8bc 8244 0fbd b035 f83d
00000170: 733f 083e 3832 ed3d 9f8d 753d 4fa2 da3d
00000180: d989 763d 9cfe 783d a9c0 5ebd 117b e03d
00000190: 68de a0bd 83cb b6bd 9e79 a9bd 3cb5 803c
000001a0: 3628 b13d 268f dcbd 3967 c53c 6788 aa3d
000001b0: aa56 923d f642 a9ba b54a 033d cbc3 403b
000001c0: 54cb e43d d3a4 bcbd 2d77 ce3d 1b87 42bd
000001d0: 3387 09bd e563 b0bd 1cd3 97bd c6ea 983d
000001e0: a5fa 523d a541 90bd e85a 60bd c5b9 71bd
000001f0: 43f7 28bb 2c3b debc a51c 143e 2928 42bc
00000200: 569a 8a3d 811e 9b3c f4dc bb3d 2acc bfbc
00000210: dd2e 5c3d 1225 fbbc ed81 3abd 07d2 2f3c
00000220: f9b6 8d3d d49c 023e 2122 973d 7031 dabd
00000230: aeb9 a3bd fdae 6d3d 923b 933d 5b34 b6bd
00000240: 33cc d7bc c249 613d 7687 34ba 621e fb3c
00000250: 1a48 4f3d b375 a1bd c3f7 bdbb cfe3 ec3d
00000260: eab0 893d c771 903d 7c89 69bd f173 2f3d
00000270: a600 77bd 7ae9 813c a7f8 da3d 360b b73c
00000280: 7ecf b43c 1ee1 f63d 204c 8e3d 0dcd 7bbd
00000290: ecc4 a0bd f5be 1e3d 58a8 f1bd 4e5d e6bd
000002a0: 1bef 013e f6dc 90bd 31cb fbbd 7aae d0bd
000002b0: a872 d9bd eac0 0ebd b216 5cbc a7c8 0bbd
000002c0: 2155 a43d 09e0 d2bd 2af7 5c3d b8bf 7fbd
000002d0: 7a89 233d c2ee 68ba f5e2 3dbd a453 96bd
000002e0: b4ea 04be 6f95 3dbd 1c13 82bd 9c0a 6f3d
000002f0: b155 b33d 2860 9d3d a418 b7bd 5764 093d
00000300: 1bed 283d fd3a 763d c44e ee3d 69a3 d13d
00000310: b5ae c13d bd85 cf3d c795 113e ccce 423d
00000320: d338 a43d db0b b43d d11b 9f3d e4a3 05bc
00000330: e521 2ebc 5412 a83d d241 493d 7630 153e
00000340: bd0b cebd 8a2b 7ebd 4f37 e63d a3fa 07bd
00000350: 1da1 a6bd 0759 e33d 18dd 31bd 5323 babc
00000360: 632d 4ebc f187 9a3c cccd 77bd d73f 003d
00000370: 3905 d93c a994 fe3c b359 e7bc d88e 75bd
00000380: 4c11 8b3d c9df 15bd ae9d f43d 74ce 453d
00000390: 06b5 a53d 7876 e4bb 7c4b 90bd b42f b93d
000003a0: 3ffc de3d 94b0 fa3d 46c6 813d 25e3 603b
000003b0: 313d 103e 0cc5 f2bb 70c6 62bd 3c1f b0bc
000003c0: 37c4 02bd 202e 3abd a417 0f3e 3f6d e53d
000003d0: ca6e a63d 0f12 0b3e 4268 223e 40e8 e53b
000003e0: 2994 75bd 9665 c73d 1458 a33c 4940 943c
000003f0: 8ab7 073e be88 50bd db97 0d3e 83cc d33c

lstm.bias_hh_l0 f4 [256]
0.06718693 -0.065154195 0.021003023 0.09682235 -0.09662323 0.13587634 -0.025246946 0.06537892
-0.0047919806 -0.04824647 0.1023501 -0.06961402 -0.06953528 -0.07473433 0.012864233 -0.07892726
0.025333064 -0.0816757 0.044085115 -0.034423396 -0.08345295 0.008153269 -0.052961875 0.04842552
0.07836144 0.003391556 0.085076556 -0.056074176 -0.06239616 -0.04975365 0.01374901 -0.06795492
-0.0725477 0.06267099 -0.0642397 0.07298688 0.018652653 -0.08366289 0.094384626 0.072278805
0.034223337 0.08930963 -0.053625904 0.04394857 0.054538593 -0.01296361 -0.024104869 -0.033529278
0.0019440642 0.13211648 0.10908428 0.0046737585 0.05378347 0.08741102 -0.022535874 0.06637859
0.09049865 -0.0332676 0.010000612 0.024232935 0.15617903 0.0073331096 -0.030019792 -0.009294992
0.056052953 0.026349422 -0.0787227 0.04784753 -0.0051089316 0.11679585 -0.08566628 0.13302061
0.09870306 0.11966083 -0.0249217 -0.007916962 -0.06837577 0.048898228 -0.073112085 -0.025182657
0.0625753 0.03443212 -0.010553352 0.13240775 0.11156651 -0.0043771397 0.10727965 -0.059106678
0.07869442 0.12116963 0.07392587 0.0734549 -0.04083147 -0.08557427 -0.039945517 -0.050358657
-0.08742103 -0.073862985 -0.081764795 0.037108168 -0.08977119 -0.015486745 0.11588244 -0.012135425
0.002482395 0.0008963496 0.11060279 0.12836984 -0.05876199 -0.047983628 0.12901744 0.110819094
0.09922682 0.06559468 -0.03814194 -0.04485806 -0.03541908 -0.052314468 -0.07623001 -0.0011076537
0.11004408 -0.05768864 -0.009462626 0.13148884 0.12761465 -0.056112584 0.035721492 0.04233856
0.01070204 -0.08841815 0.0010302307 0.018202092 0.014421554 -0.00010791767 -0.08740498 0.10314253
0.021646837 0.0762027 0.07338587 -0.13969308 0.13260777 0.05076218 0.074094884 -0.024538318
0.025055822 0.007467237 0.0219859 0.051053952 0.117454745 0.08468277 -0.12054877 -0.05461684
-0.10867232 -0.022652445 0.09052025 0.0654298 -0.034468237 0.07174816 0.038839344 0.1076421
-0.077771895 0.047618143 -0.06284097 0.0022982515 -0.013187286 -0.08360745 -0.0025877373 -0.075394526
-0.0081825 -0.032081805 0.108610906 0.054033127 0.031707406 -0.054063603 -0.014233085 0.018835107
0.121561944 -0.0036980573 -0.062785655 0.091545194 0.09125908 0.061251566 -0.069053 0.069212966
-0.029087152 -0.06902344 -0.03895943 0.12888446 -0.011811973 0.014235407 -0.110771 -0.044311933
0.12620565 0.11456998 -0.057000156 0.095160864 0.065213144 0.039075382 0.08674842 0.14039673
0.020813026 0.06114828 -0.022439381 0.033327322 0.14270748 0.036265824 -0.09172562 0.018292073
-0.027357101 0.033309054 0.0029026791 0.12735406 0.044257246 0.067726575 -0.04805544 0.069545746
-0.007547798 0.041128583 0.086303644 -0.061977617 0.07483075 0.14762063 0.12738127 0.034638193
0.009018838 -0.044427253 -0.11090858 0.023782581 0.008417792 -0.094923146 -0.12484807 0.09485088
0.07615254 -0.008582635 0.009999213 0.0032652093 0.13164398 0.04138639 -0.01824851 0.1052423
0.080165334 0.11935126 0.074509375 0.12200723 0.017768279 0.0037229892 0.14048786 -0.031159552
0.13889411 0.13616064 -0.0034805345 0.053554285 0.030945508 -0.09131962 -0.026022995 0.084271096
00000000: 4d99 893d 906f 85bd 880e ac3c cc4a c63d
00000010: 66e2 c5bd 2b23 0b3e afd2 cebc 62e5 853d
00000020: 0c06 9dbb 179e 45bd ee9c d13d cc91 8ebd
00000030: 8368 8ebd 500e 99bd 81c4 523c 9ea4 a1bd
00000040: 4987 cf3c 9745 a7bd 9892 343d 8cff 0cbd
00000050: 61e9 aabd 4a95 053c 8dee 58bd d759 463d
00000060: f67b a03d de44 5e3b 9e3c ae3d 09ae 65bd
00000070: 1e93 7fbd 7cca 4bbd 8743 613c f32b 8bbd
00000080: e393 94bd a659 803d 1b90 83bd 257a 953d
00000090: 73cd 983c 7357 abbd ba4c c13d e906 943d
000000a0: c52d 0c3d f8e7 b63d d6a6 5bbd 6a03 343d
000000b0: dc63 5f3d 5265 54bc 9377 c5bc ff55 09bd
000000c0: f8cf fe3a 8b49 073e 9467 df3d 5426 993b
000000d0: 0e4c 5c3d 8d04 b33d 279d b8bc 80f1 873d
000000e0: 5b57 b93d 9b43 08bd 9bd9 233c 2684 c63c
000000f0: 65ed 1f3e 954a f03b 11ec f5bc 064a 18bc
00000100: c897 653d beda d73c 5e39 a1bd c6fb 433d
00000110: d368 a7bb aa32 ef3d cd71 afbd 8e36 083e
00000120: d424 ca3d bd10 f53d 9828 ccbc 25b6 01bc
00000130: 9808 8cbd 8249 483d cabb 95bd dc4b cebc
00000140: 7b27 803d b208 0d3d f7e7 2cbc e695 073e
00000150: fb7c e43d 1c6e 8fbb 6fb5 db3d d819 72bd
00000160: 8a2a a13d c827 f83d 7266 973d 866f 963d
00000170: e63e 27bd 9041 afbd e99d 23bd e144 4ebd
00000180: cc09 b3bd 7a45 97bd 4d74 a7bd bcfe 173d
00000190: f5d9 b7bd 1ebc 7dbc c653 ed3d a9d3 46bc
000001a0: adaf 223b 01f9 6a3a b783 e23d 6273 033e
000001b0: 6ab0 70bd 7b8a 44bd 261d 043e 1ff5 e23d
000001c0: 6e37 cb3d 8156 863d b93a 1cbd 16bd 37bd
000001d0: 9913 11bd b247 56bd 7b1e 9cbd b12e 91ba
000001e0: ca5e e13d ec4a 6cbd 2109 1bbc 03a5 063e
000001f0: 6aad 023e 4fd6 65bd b350 123d 336b 2d3d
00000200: 9c57 2f3c 9314 b5bd ce08 873a 8e1c 953c
00000210: 6248 6c3c dc51 e2b8 6201 b3bd 643c d33d
00000220: b554 b13c 2910 9c3d 554b 963d b40b 0fbe
00000230: 55ca 073e 01ec 4f3d 0fbf 973d 9504 c9bc
00000240: de41 cd3c b9af f43b c61b b43c f31d 513d
00000250: 1d8c f03d 296e ad3d 46e2 f6bd e8b5 5fbd
00000260: 988f debd 9f91 b9bc ae62 b93d 0f00 863d
00000270: 912e 0dbd b3f0 923d 0116 1f3d 7673 dc3d
00000280: df46 9fbd 3e0b 433d c4b2 80bd 439e 163b
00000290: 7d0f 58bc 623a abbd 0797 29bb 7268 9abd
000002a0: e40f 06bc 3668 03bd 656f de3d d751 5d3d
000002b0: a0df 013d cc71 5dbd e331 69bc 154c 9a3c
000002c0: 78f5 f83d 1b5b 72bb c495 80bd 0c7c bb3d
000002d0: 0ae6 ba3d ece2 7a3d a96b 8dbd 87bf 8d3d
000002e0: 2e48 eebc 295c 8dbd ec93 1fbd 4afa 033e
000002f0: 0187 41bc a03b 693c e8db e2bd 6e80 35bd
00000300: 0e3c 013e aaa3 ea3d ff78 69bd b3e3 c23d
00000310: 788e 853d 820d 203d 28a9 b13d 29c4 0f3e
00000320: 1480 aa3c 9e76 7a3d cbd2 b7bc 3b82 083d
00000330: e921 123e 798b 143d a4da bbbd 42d9 953c
00000340: 001c e0bc 136f 083d e03a 3e3b 1a69 023e
00000350: 1647 353d 3bb4 8a3d c8d5 44bd 006e 8e3d
00000360: 8553 f7bb 7276 283d f7bf b03d 3edc 7dbd
00000370: dd40 993d dd29 173e 3c70 023e c7e0 0d3d
00000380: c0c3 133c 5af9 35bd 0a24 e3bd b0d3 c23c
00000390: c7ea 093c 1167 c2bd 58b0 ffbd 2e41 c23d
000003a0: ddf5 9b3d 2e9e 0cbc bdd3 233c 1ffd 553b
000003b0: aecd 063e c684 293d e67d 95bc 4689 d73d
000003c0: b92d a43d 6f6e f43d 5f98 983d edde f93d
000003d0: c88e 913c 65fd 733b 0ddc 0f3e 5142 ffbc
000003e0: 423a 0e3e b26d 0b3e ae19 64bb bd5b 5b3d
000003f0: 6f81 fd3c c805 bbbd 2d2e d5bc 5396 ac3d

lstm.weight_ih_l1 f4 [256, 64]
-0.061676253 0.12235661 0.07965405 -0.11233162 -0.07631783 0.08682447 0.06657706 0.12043333
-0.05073247 0.08490997 0.04579033 -0.014932393 0.005343223 0.12706661 0.0806321 -0.014805939
-0.018245611 0.0819757 0.15572673 0.1411725 -0.061637014 -0.057872716 -0.14260165 0.11969278
-0.10152267 0.03591846 0.041760486 -0.00028943171 0.026670434 0.029495897 0.13067903 0.09828949
-0.07565854 0.14056587 -0.022878403 -0.036387227 -0.13320674 0.0010306643 -0.0526345 -0.1370725
0.041067503 -0.0072477353 -0.12640084 0.08258415 0.024876364 -0.04149538 0.0026367842 0.09472272
0.086097114 -0.0537195 0.06952914 -0.04957047 0.102875926 0.06659714 0.025735063 -0.10331113
-0.040290494 -0.07629301 0.023194427 -0.05994363 0.020924017 0.06977646 -0.008507108 0.11224667
-0.1328924 0.025307091 -0.058948375 -0.036486723 0.046544094 -0.015536956 -0.0019498506 -0.007685809
-0.06445092 0.057061657 -0.13419999 0.05776328 0.0051472774 -0.031312488 -0.026404537 0.13733302
-0.017354364 0.08469394 0.030449772 0.085644335 0.03271019 0.09980431 0.01555258 0.081483506
0.00043275722 0.04168372 -0.062382545 -0.04791919 0.06092526 -0.0021991367 -0.04148463 0.084814414
-0.035009798 0.07393128 0.07663446 0.11884875 -0.06803906 -0.027357522 -0.0019147671 0.079468295
0.09871936 -0.047296714 0.06332963 -0.023663284 -0.0047652647 -0.14702149 0.04594681 0.093326144
-0.00079795613 0.020404117 0.054130644 -0.0005799043 0.11121157 0.10317101 0.09248587 0.011675895
0.05827763 -0.0124035105 -0.01770049 -0.014118016 0.14102042 0.13370074 -0.0124172 -0.04693546
-0.09247604 0.12232066 -0.08604661 -0.024520155 0.038343657 -0.054963797 -0.07792146 0.09660461
-0.11029305 0.1153322 -0.097510844 0.06492276 -0.04451548 0.0075928913 -0.041482512 0.08914136
0.024519267 0.12616616 0.12731549 -0.013726178 0.13730866 0.01534021 -0.030079952 0.048930466
0.013786326 0.022376047 0.006440619 0.051204495 -0.006762449 0.03541148 -0.05751041 0.023916934
0.007805824 -0.03018479 0.002723302 0.120810315 0.012445351 0.13321823 -0.06739049 0.08399514
0.15136553 -0.07595462 -0.113277785 -0.102921635 0.08319777 -0.011957763 -0.14253014 0.16050652
-0.0691063 -0.0036541699 0.053992167 -0.03042929 0.11435369 0.034144353 -0.049959414 -0.11117988
0.004422345 -0.061276358 -0.0959368 0.115054496 0.025899008 -0.11599044 -0.06041586 0.1361076
-0.15316322 -0.07769428 -0.052890975 -0.03761599 -0.118302144 0.09480022 -0.061397962 0.04346733
0.06157861 0.08643804 0.08566526 -0.09745544 0.001514367 0.12024448 -0.043277044 0.13525826
-0.1312825 0.019833844 -0.046279557 -0.084488004 0.0021550858 -0.037924506 -0.059931874 0.05170397
-0.13565823 0.011189156 -0.14497638 -0.048036814 -0.05544846 0.041989353 0.04546847 0.036828123
0.038603865 0.05105086 0.010187737 -0.080005385 0.07877332 -0.035786975 -0.02902277 -0.09480621
0.15680903 0.15983732 -0.012695307 0.010466827 0.025209095 -0.02451102 -0.058881752 0.023860523
-0.057274565 0.06662657 0.10822459 -0.058365926 -0.052684806 -0.06578644 -0.04162445 -0.06609294
-0.04815356 0.014691834 0.052130587 0.14782521 0.14713177 0.09801211 -0.018266404 0.04442735
00000000: 3da0 7cbd 1a96 fa3d aa21 a33d 1f0e e6bd
00000010: 864c 9cbd 07d1 b13d 8e59 883d c0a5 f63d
00000020: dacc 4fbd 47e5 ad3d a48e 3b3d ffa6 74bc
00000030: 3416 af3b c01d 023e 7122 a53d 9c94 72bc
00000040: d277 95bc e0e2 a73d d476 1f3e 868f 103e
00000050: 1877 7cbd f10b 6dbd 2b06 12be 7d21 f53d
00000060: 1eeb cfbd 3c1f 133d 0b0d 2b3d debe 97b9
00000070: f47b da3c 61a1 f13c b9d0 053e 004c c93d
00000080: ddf2 9abd 80f0 0f3e 7d6b bbbc c60a 15bd
00000090: 5967 08be 5b17 873a 4697 57bd bc5c 0cbe
000000a0: 6636 283d 697e edbb 396f 01be e121 a93d
000000b0: 84c9 cb3c 0ff7 29bd e6cd 2c3b fcfd c13d
000000c0: af53 b03d fa08 5cbd 4b65 8e3d 680a 4bbd
000000d0: 9db0 d23d 1564 883d 57d2 d23c c994 d3bd
000000e0: a507 25bd 823f 9cbd 3d02 be3c 7487 75bd
000000f0: d868 ab3c f6e6 8e3d 6661 0bbc 95e1 e53d
00000100: f214 08be d150 cf3c da73 71bd 1a73 15bd
00000110: 05a5 3e3d b78e 7ebc 2192 ffba 3dd9 fbbb
00000120: d8fe 83bd 7cb9 693d b96b 09be 3099 6c3d
00000130: 7eaa a83b 8641 00bd 544e d8bc 07a1 0c3e
00000140: bd2a 8ebc 0474 ad3d cd71 f93c 4c66 af3d
00000150: 1ffb 053d 3466 cc3d 40d0 7e3c d3e0 a63d
00000160: b1e3 e239 8cbc 2a3d d784 7fbd ea46 44bd
00000170: c48c 793d 641f 10bb caeb 29bd 2eb3 ad3d
00000180: 6f66 0fbd 4869 973d 87f2 9c3d f966 f33d
00000190: 1058 8bbd e21c e0bc ecf8 faba 46c0 a23d
000001a0: 602d ca3d 33ba 41bd f7b2 813d 81d9 c1bc
000001b0: f025 9cbb cd8c 16be b932 3c3d c721 bf3d
000001c0: ee2d 51ba 8926 a73c 18b8 5d3d b804 18ba
000001d0: e4c2 e33d 534b d33d 3b69 bd3d 414c 3f3c
000001e0: 86b4 6e3d 1838 4bbc 9e00 91bc 404f 67bc
000001f0: a867 103e d9e8 083e 8371 4bbc 663f 40bd
00000200: 1464 bdbd 4183 fa3d 3439 b0bd 7ede c8bc
00000210: 3d0e 1d3d b821 61bd 4995 9fbd a3d8 c53d
00000220: 53e1 e1bd 4a33 ec3d c4b3 c7bd 39f6 843d
00000230: dd55 36bd cacd f83b 91e9 29bd bf8f b63d
00000240: a1dc c83c b431 013e fe5e 023e c3e3 60bc
00000250: a49a 0c3e 8155 7b3c 3b6a f6bc 506b 483d
00000260: 0be0 613c f94d b73c d40b d33b cebb 513d
00000270: 8997 ddbb a10b 113d 0990 6bbd 72ed c33c
00000280: ffc7 ff3b 1846 f7bc 6d79 323b 666b f73d
00000290: 96e7 4b3c 5c6a 083e 0604 8abd a505 ac3d
000002a0: 91ff 1a3e 198e 9bbd 2ffe e7bd 94c8 d2bd
000002b0: 9863 aa3d 7eea 43bc 6cf3 11be d25b 243e
000002c0: 9b87 8dbd cc7a 6fbb e426 5d3d d946 f9bc
000002d0: 4432 ea3d f3da 0b3d 3ea2 4cbd 47b2 e3bd
000002e0: 52e9 903b ebfc 7abd 837a c4bd b1a1 eb3d
000002f0: 282a d43c 658c edbd 9f76 77bd ca5f 0b3e
00000300: d2d6 1cbe 2e1e 9fbd 35a4 58bd 3913 1abd
00000310: 6548 f2bd 9e26 c23d 6e7c 7bbd cd0a 323d
00000320: da39 7c3d 6d06 b13d 4571 af3d b896 c7bd
00000330: b97d c63a bd42 f63d 4543 31bd 2481 0a3e
00000340: eb6e 06be 967a a23c a28f 3dbd 0c08 adbd
00000350: 573c 0d3b ba56 1bbd 207b 75bd 8bc7 533d
00000360: fee9 0abe b952 373c b074 14be 40c2 44bd
00000370: ed1d 63bd 07fd 2b3d 253d 3a3d 16d9 163d
00000380: 161f 1e3d b51a 513d 77ea 263c ddd9 a3bd
00000390: e853 a13d 5d95 12bd 29c1 edbc c229 c2bd
000003a0: 8c92 203e 65ac 233e faff 4fbc 0e7d 2b3c
000003b0: 4e83 ce3c 56cb c8bc fe2d 71bd 2577 c33c
000003c0: bc98 6abd 8373 883d dba4 dd3d 1c11 6fbd
000003d0: 06cc 57bd 0bbb 86bd 667e 2abd bc5b 87bd
000003e0: ab3c 45bd 05b6 703c e286 553d 7e5f 173e
000003f0: b6a9 163e 93ba c83d 6da3 95bc 74f9 353d

lstm.weight_hh_l1 f4 [256, 64]
0.060890365 -0.06760309 -0.020079922 0.043452084 -0.07381911 0.051760506 -0.15982082 -0.07844472
0.12792222 -0.074230716 -0.016799718 -0.07881455 0.060012676 -0.14405203 -0.018506318 -0.05479906
-0.03942572 -0.03859064 0.068287626 -0.011907911 0.07198306 -0.09364263 -0.039203264 -0.14144082
-0.088587165 -0.056200158 -0.059628148 -0.07889437 0.1190134 -0.02500016 -0.071765445 0.06961037
0.0913084 -0.091088034 0.07536943 0.09636 0.008872239 -0.030254234 -0.014516851 -0.024051333
0.012827589 -0.14166227 0.12996517 -0.026290935 0.02695025 -0.14464529 -0.08792013 0.12802291
0.05390881 -0.08470737 -0.088455826 -0.018750308 0.04424849 0.10104941 -0.014761392 -0.009215648
0.088502966 0.03878614 -0.06234839 -0.13404153 0.012515697 0.0024529654 0.020097325 -0.073878855
-0.07482934 0.062317565 0.086859375 0.066583216 0.031424116 -0.11511404 0.014610578 -0.048450217
-0.05631539 -0.14446639 -0.07900914 -0.09777362 -0.0740039 -0.11881793 -0.030822014 0.06199865
0.12882085 0.018808099 -0.020102752 -0.14129739 -0.05504202 -0.12485591 0.08610521 0.030034728
0.09149895 0.14152195 0.017439144 0.08243792 -0.011243922 0.1524221 0.05461638 -0.08985795
0.082210094 -0.11001186 -0.13461515 0.0437885 0.046498187 0.067532584 0.010600615 0.10040235
0.040151075 -0.087389015 0.053276 -0.047858983 0.04315828 -0.030341212 0.030979935 -0.027946398
0.122083105 0.0047764326 -0.038437843 0.09401201 -0.009176597 0.14881733 0.13371333 0.037487593
-0.11186556 0.044622533 0.06478558 -0.08820126 -0.07202475 -0.12510948 0.04780239 -0.072563335
-0.11171053 -0.12932366 0.068509795 0.018221453 -0.05799709 0.08577083 -0.024646077 0.0346943
-0.09411672 0.06319174 0.06410744 0.060946703 -0.09475442 -0.11773662 0.06664933 -0.031216474
0.009717563 0.09178146 -0.09422364 -0.14715244 0.018333128 -0.075785734 0.13552378 0.088087216
0.08757905 -0.06315743 0.03865078 -0.034588013 0.12609121 0.05418992 -0.084969774 -0.112209775
0.068565495 -0.03745346 0.05961599 -0.068828605 0.021325123 0.15437065 0.035485815 0.09330747
0.0146872895 -0.13043301 0.0043338346 -0.08041963 0.1455401 0.06430279 -0.054887086 0.072266676
0.01892641 0.039278943 0.05869458 -0.00092503196 -0.013646044 -0.06685614 0.058335256 -0.040990587
0.063781336 -0.067003764 0.11107062 0.007458685 0.009394484 -0.073478416 -0.044055298 -0.04373467
0.040809225 0.09564383 -0.017630596 -0.03207607 -0.06975639 -0.122557975 -0.16474587 0.074880086
-0.09503689 0.0431844 -0.107921354 -0.1549258 -0.14680769 -0.09343763 -0.0030157403 0.07457478
0.063008 0.03198911 0.012625467 0.01185635 0.02777322 -0.0039023669 0.08694684 0.016411738
0.03652605 0.15633234 -0.015390517 -0.025318574 -0.068366356 -0.10154238 0.080131784 -0.05905985
-0.033744875 -0.075223684 0.004985893 0.098414384 -0.0055982317 -0.07520876 0.02973604 0.15803963
0.05460194 -0.043080423 0.06082359 0.09036882 -0.070587166 -0.07204462 0.020638138 0.08999006
0.06384329 0.03704998 0.11444897 -0.010761175 0.04406555 0.11172475 0.12492779 -0.029662019
0.12730765 -0.07248289 0.08090259 0.010740857 0.088298485 -0.06002895 -0.009836868 -0.02597329
00000000: 2d68 793d 7d73 8abd a67e a4bc d0fa 313d
00000010: 792e 97bd d302 543d 12a8 23be a0a7 a0bd
00000020: 0bfe 023e 4606 98bd 909f 89bc 8669 a1bd
00000030: dacf 753d 6082 13be 909a 97bc fb74 60bd
00000040: dd7c 21bd 3811 1ebd 62da 8b3d 6619 43bc
00000050: db6b 933d b5c7 bfbd 9a93 20bd ddd5 10be
00000060: 306d b5bd 2332 66bd a53c 74bd 5f93 a1bd
00000070: 4cbd f33d 23cd ccbc c3f9 92bd e28f 8e3d
00000080: e6ff ba3d 5d8c babd 4a5b 9a3d 6458 c53d
00000090: de5c 113c bad7 f7bc 16d8 6dbc 4d07 c5bc
000000a0: cf2a 523c ea0f 11be 9715 053e 1660 d7bc
000000b0: c5c6 dc3c e51d 14be 780f b4bd 7018 033e
000000c0: 7ccf 5c3d 0f7b adbd 5428 b5bd 3f9a 99bc
000000d0: e83d 353d fef2 ce3d c4d9 71bc 3bfd 16bc
000000e0: 0b41 b53d 37de 1e3d 0761 7fbd 2f42 09be
000000f0: a30e 4d3c eec1 203b 25a3 a43c cc4d 97bd
00000100: 2040 99bd b440 7f3d 54e3 b13d c85c 883d
00000110: 93b6 003d e9c0 ebbd 3561 6f3c bc73 46bd
00000120: f7aa 66bd ffee 13be 8bcf a1bd 893d c8bd
00000130: 5b8f 97bd d156 f3bd 737e fcbc 4cf2 7d3d
00000140: 9de9 033e 7113 9a3c 87ae a4bc 43b0 10be
00000150: be73 61bd 75b4 ffbd ee57 b03d 640b f63c
00000160: cd63 bb3d 21eb 103e 89dc 8e3c 36d5 a83d
00000170: 6d38 38bc 8a14 1c3e 6db5 5f3d 7207 b8bd
00000180: c45d a83d e64d e1bd 8ed8 09be 925b 333d
00000190: e274 3e3d 864e 8a3d 34ae 2d3c bf9f cd3d
000001a0: 7475 243d 03f9 b2bd ef37 5a3d c807 44bd
000001b0: bdc6 303d 228e f8bc a2c9 fd3c d8ef e4bc
000001c0: b506 fa3d 9f83 9c3b 0071 1dbd 5e89 c03d
000001d0: 7059 16bc 9263 183e 26ec 083e 978c 193d
000001e0: c519 e5bd 1ec6 363d 4dae 843d dda2 b4bd
000001f0: b681 93bd b31c 00be 70cc 433d 169c 94bd
00000200: 7ec8 e4bd 6c6d 04be dd4e 8c3d 2845 953c
00000210: 5b8e 6dbd 9ea8 af3d 92e6 c9bc 9c1b 0e3d
00000220: 44c0 c0bd ac6a 813d c34a 833d 40a3 793d
00000230: 9b0e c2bd e61f f1bd 727f 883d b1b9 ffbc
00000240: 6a36 1f3c ebf7 bb3d 53f8 c0bd 21af 16be
00000250: 5b2f 963c 8d35 9bbd bfc6 0a3e 1267 b43d
00000260: a55c b33d af58 81bd 4850 1e3d 29ac 0dbd
00000270: 0e1e 013e 40f6 5d3d a204 aebd 3dce e5bd
00000280: 116c 8c3d cd68 19bd e52f 743d 03f6 8cbd
00000290: 06b2 ae3c 5713 1e3e 9359 113d fd17 bf3d
000002a0: f5a2 703c 3b90 05be d702 8e3b 0cb3 a4bd
000002b0: 7708 153e 2eb1 833d 48d1 60bd 8d00 943d
000002c0: 8f0b 9b3c f5e2 203d ba69 703d d87d 72ba
000002d0: a893 5fbc dfeb 88bd f3f0 6e3d bfe5 27bd
000002e0: ca9f 823d 4539 89bd fe78 e33d fc67 f43b
000002f0: 52eb 193c da7b 96bd 5473 34bd 2023 33bd
00000300: 9327 273d eae0 c33d 0a6e 90bc 3262 03bd
00000310: 70dc 8ebd adff fabd 24b3 28be bb5a 993d
00000320: b3a2 c2bd 20e2 303d df05 ddbd dea4 1ebe
00000330: c154 16be 3a5c bfbd baa3 45bb aaba 983d
00000340: 570a 813d 0307 033d 0cdb 4e3c 2341 423c
00000350: aa84 e33c dabe 7fbb 2f11 b23d e971 863c
00000360: 579c 153d 9615 203e 8228 7cbc e668 cfbc
00000370: a903 8cbd 74f5 cfbd 221c a43d bee8 71bd
00000380: 1138 0abd e00e 9abd b460 a33b 7b8d c93d
00000390: 5f71 b7bb 0d07 9abd ff98 f33c 24d5 213e
000003a0: 49a6 5f3d 1975 30bd 2822 793d 4a13 b93d
000003b0: 0190 90bd 218c 93bd 5011 a93c b54c b83d
000003c0: 45c0 823d b8c1 173d 3964 ea3d a44f 30bc
000003d0: 147e 343d f2cf e43d 24da ff3d c3fd f2bc
000003e0: f05c 023e e971 94bd 42b0 a53d 6bfa 2f3c
000003f0: d6d5 b43d ebe0 75bd d12a 21bc f0c5 d4bc

lstm.bias_ih_l1 f4 [256]
0.09097904 0.11244861 0.1078606 0.07076165 -0.06844146 0.076758854 -0.01512515 0.043931507
-0.05733411 0.12792884 -0.108455494 -0.0038719596 -0.08693712 0.057254277 0.09551368 -0.040782765
0.0007936842 0.054693762 -0.101982184 -0.053407207 -0.035538383 0.121199414 0.062395386 0.009872469
0.053434197 -0.0670696 0.13870186 -0.0080072675 0.12415753 0.15080154 -0.08561974 -0.010726171
-0.088479854 0.03396915 0.007707019 0.024889184 -0.028711254 0.0619685 0.08581092 0.09401315
0.0076223733 0.09921624 0.06363544 -0.06195386 0.006132648 -0.07500434 0.16046941 0.06538688
0.07076812 0.14151959 0.08459875 -0.096546896 -0.08305652 -0.033323936 -0.02498999 0.10935922
-0.031337198 -0.08536342 0.0913435 -0.057412706 -0.03965625 0.023064446 0.1505907 0.0076992526
0.06820866 0.10985174 -0.041554358 0.12422147 0.028837739 -0.030782511 0.083784826 0.06696555
0.05084626 0.069727175 -0.050075755 -0.055435084 -0.08365052 0.089130096 0.124652095 -0.062191173
0.049394365 -0.052259352 0.009159023 -0.07147746 0.057795517 0.06447068 0.121917285 0.09486906
0.06842063 -0.078424595 0.029903524 0.08252199 0.09048535 -0.035969347 0.11135876 0.115976304
-0.07665551 -0.0019251504 -0.10135915 -0.060007013 0.030420968 -0.03592512 0.055138003 -0.039907865
-0.06341425 0.006364845 0.025753072 0.14710885 -0.032338154 0.12800215 -0.08897952 0.10498145
0.11583647 0.09046066 0.03302979 -0.039559864 -0.04091642 0.11129048 0.07120554 0.08935678
0.0401766 -0.025990669 -0.07177053 0.0752627 -0.08384466 -0.019938001 0.120818526 0.02458769
-0.09279324 0.076784514 -0.10498153 -0.1217775 0.102889076 0.077445716 -0.09341653 -0.0030329176
0.117319465 -0.12884 -0.11906054 -0.13165303 -0.019684715 0.11471647 -0.045720723 -0.023120154
0.0755143 0.07086799 0.10717779 -0.11545549 0.10066665 -0.046839017 -0.041888144 0.106134824
0.003778009 0.0036675048 -0.102533355 0.056794375 0.101913795 -0.072957836 -0.06784213 -0.06022183
0.026113564 -0.09226283 -0.067465246 -0.14306504 0.0576571 0.11694809 0.13732758 0.10540669
0.092797294 0.010237501 0.12123015 -0.0007807029 0.1000433 -0.016233023 -0.099636525 -0.113437824
0.105138704 -0.08236982 0.13276498 -0.004083364 0.067933574 0.12200389 0.03141639 -0.090304084
0.03541689 0.0049841614 -0.03313164 0.030988628 -0.079389654 -0.0775375 0.054569192 -0.06142473
0.1505072 0.09841739 0.0056677796 0.08600001 -0.102379926 -0.11907641 0.12864016 0.036297318
0.08300463 0.115466066 0.12273695 0.13531142 0.036721397 0.055499434 0.11423296 0.027462706
-0.057663303 -0.013045889 -0.039788272 0.114874125 0.036983013 0.029673057 0.016660837 0.07118934
0.029798634 0.0084406 0.08457204 0.06731296 0.0475376 0.041440587 -0.03382329 -0.06658967
-0.052694943 0.077208556 -0.023137925 0.055836987 -0.052165065 0.110299364 0.107972376 0.033613715
0.11626551 -0.060801864 0.11446661 -0.0652997 -0.088740714 -0.088439174 -0.024622764 0.036073174
-0.034382727 -0.044887524 0.09991597 0.09677282 0.15461458 -0.0414358 0.040059198 0.002536587
0.059260193 -0.01400148 0.07106572 -0.060802393 -0.026159108 -0.057705462 0.1387204 0.10757968
00000000: 3853 ba3d 754b e63d 05e6 dc3d 7ceb 903d
00000010: 092b 8cbd bf33 9d3d 7acf 77bc 86f1 333d
00000020: 2cd7 6abd c7ff 023e ea1d debd b4c0 7dbb
00000030: 170c b2bd 7683 6a3d ad9c c33d d40b 27bd
00000040: 3f0f 503a 9106 603d 09dc d0bd 84c1 5abd
00000050: b290 11bd 6637 f83d 4e92 7f3d 23c0 213c
00000060: d1dd 5a3d c95b 89bd dc07 0e3e ea30 03bc
00000070: 4e46 fe3d b86b 1a3e 6759 afbd d2bc 2fbc
00000080: ed34 b5bd 3c23 0b3d 298b fc3b 67e4 cb3c
00000090: dd33 ebbc afd2 7d3d a3bd af3d f789 c03d
000000a0: 1ac5 f93b e231 cb3d 4c53 823d 55c3 7dbd
000000b0: 61f4 c83b e09b 99bd 1852 243e 8ee9 853d
000000c0: e0ee 903d 83ea 103e 1c42 ad3d 61ba c5bd
000000d0: 8919 aabd ae7e 08bd cfb7 ccbc baf7 df3d
000000e0: 6f5b 00bd 04d3 aebd 4d12 bb3d 9629 6bbd
000000f0: 986e 22bd a6f1 bc3c 7334 1a3e 034a fc3b
00000100: fbb0 8b3d f3f9 e03d e734 2abd d367 fe3d
00000110: 1f3d ec3c 9b2b fcbc 6197 ab3d 3c25 893d
00000120: 2b44 503d 1fcd 8e3d 3c1c 4dbd e60f 63bd
00000130: f750 abbd d789 b63d 9949 ff3d 2cbc 7ebd
00000140: bf51 4a3d e70d 56bd ba0f 163c c662 92bd
00000150: feba 6c3d 3409 843d c5af f93d b64a c23d
00000160: 1e20 8c3d 139d a0bd 3cf8 f43c 4a01 a93d
00000170: 6250 b93d 9854 13bd 1010 e43d fc84 ed3d
00000180: 90fd 9cbd 5455 fcba 6395 cfbd eac9 75bd
00000190: 6535 f93c 3826 13bd 63d8 613d 6e76 23bd
000001a0: 55df 81bd 3190 d03b 1bf8 d23c b4a3 163e
000001b0: 0375 04bd ff12 033e e53a b6bd 8400 d73d
000001c0: ac3b ed3d 7043 b93d 3f4a 073d 8609 22bd
000001d0: fa97 27bd 43ec e33d 36d4 913d b000 b73d
000001e0: 3890 243d 62ea d4bc 6dfc 92bd 5523 9a3d
000001f0: c0b6 abbd 0555 a3bc b46f f73d 206c c93c
00000200: 620a bebd 3341 9d3d 8e00 d7bd 7b66 f9bd
00000210: 82b7 d23d dc9b 9e3d 2a51 bfbd eac3 46bb
00000220: 3045 f03d a2ee 03be 03d6 f3bd 0dd0 06be
00000230: d741 a1bc 78f0 ea3d a745 3bbd 7a66 bdbc
00000240: 3ea7 9a3d 3d23 913d 0780 db3d ee73 ecbd
00000250: 512a ce3d 45da 3fbd e792 2bbd 375d d93d
00000260: 7998 773b 855a 703b 02fd d1bd 38a1 683d
00000270: 2eb8 d03d eb6a 95bd d1f0 8abd 2aab 76bd
00000280: 1dec d53c 4bf4 bcbd 382b 8abd a47f 12be
00000290: da29 6c3d 7b82 ef3d 9a9f 0c3e 76df d73d
000002a0: 820c be3d 31bb 273c 8347 f83d 16a8 4cba
000002b0: 80e3 cc3d 1efb 84bc 3c0e ccbd 1752 e8bd
000002c0: f652 d73d 82b1 a8bd 8bf3 073e bdcd 85bb
000002d0: c220 8b3d 2ddd f93d 79ae 003d 59f1 b8bd
000002e0: 4d11 113d 2d52 a33b 0bb5 07bd dddb fd3c
000002f0: 0b97 a2bd fbcb 9ebd f283 5f3d 7f98 7bbd
00000300: 8f1e 1a3e 0e8f c93d c8b8 b93b c620 b03d
00000310: 91ac d1bd 55de f3bd 3fba 033e 7fac 143d
00000320: 55fe a93d 7979 ec3d 835d fb3d 148f 0a3e
00000330: 2d69 163d 6053 633d f8f2 e93d 78f9 e03c
00000340: 5b30 6cbd 6dbe 55bc 07f9 22bd 2043 eb3d
00000350: 807b 173d e914 f33c 4f7c 883c b7cb 913d
00000360: 441c f43c 714a 0a3c 1b34 ad3d 61db 893d
00000370: c9b6 423d 9bbd 293d 4a8a 0abd 2a60 88bd
00000380: a7d6 57bd 851f 9e3d bf8b bdbc 53b5 643d
00000390: 09ab 55bd a2e4 e13d 9f20 dd3d 89ae 093d
000003a0: 9d1c ee3d 600b 79bd 786d ea3d d9bb 85bd
000003b0: b1bd b5bd 991f b5bd aeb5 c9bc 77c1 133d
000003c0: e7d4 0cbd fbdb 37bd bea0 cc3d d430 c63d
000003d0: 4953 1e3e 96b8 29bd 1d15 243d de3c 263b
000003e0: d1ba 723d 7766 65bc e78a 913d ee0b 79bd
000003f0: a04b d6bc 905c 6cbd b80c 0e3e bc52 dc3d
