src/Backend-Information/Clod-weather_predict/Xinjiang_lstm_model.pth (torch, 208379 bytes, 11 tensors)

lstm.weight_ih_l0 f4 [256, 3]
0.005702403 0.113119945 0.09163499 0.10767003 -0.04075712 -0.015229955 -0.080933765 -0.04711973
0.063678786 0.1101508 -0.021641454 -0.02726677 -0.128792 0.05462898 -0.114466414 -0.087753564
0.105539754 0.112189665 -0.023338325 0.13683808 -0.03983602 0.0063671055 0.10745231 0.115859106
0.08333133 -0.1170779 0.08860259 0.041319694 -0.12634526 -0.12426135 -0.011933774 0.12163467
0.023883209 0.035464693 0.06764096 -0.026526064 -0.064329185 0.0043055452 0.11662319 0.049779072
-0.03974595 0.009858966 -0.049622383 -0.019528506 0.120167255 -0.013008091 -0.114626914 0.080237016
-0.087609515 0.039858848 -0.1150199 -0.0458298 0.015601255 0.013983086 -0.059562277 0.122387424
-0.021709159 0.006078009 0.09427491 0.04843384 0.0044053965 0.0012579219 0.08492167 0.039053634
-0.065779954 0.109492436 -0.045345753 0.08589476 -0.11618672 -0.067413844 0.09230051 0.045989603
-0.09140703 -0.09342897 -0.024285182 -0.10623478 0.06660448 -0.041788295 0.121215075 0.0029943353
-0.015530974 0.03305195 -0.060639106 -0.07319492 -0.095599 -0.046739172 -0.004883796 -0.054955818
-0.07320532 -0.0005414337 -0.03798753 0.122291036 0.040123194 0.006277845 -0.03955731 -0.010664746
-0.033819687 0.018906431 0.011614263 0.042802423 0.034794085 0.059043914 0.017931309 -0.07922418
-0.10736616 0.039455514 -0.072811216 0.048328772 -0.01798443 -0.06052835 -0.011775747 0.11909311
0.12783206 0.10071476 -0.0060368464 -0.106967986 0.09426762 0.09803099 -0.07517839 0.10082145
0.08085498 0.060141135 0.1249582 -0.12248353 0.0801491 0.112734795 0.11010416 0.0455913
0.112917304 -0.05610075 -0.039302096 0.046295717 -0.1434208 0.07692756 0.09188287 0.013906501
0.033171188 0.08472046 -0.07341142 0.023539864 -0.074714065 0.058503613 0.060839653 -0.071466625
-0.015848145 -0.11358048 0.030340016 -0.06526998 -0.12977703 0.09801702 0.043628115 -0.0832465
-0.013621926 0.00855902 0.018434262 -0.07853088 0.10177 -0.044763714 0.09675409 -0.034801334
-0.12043754 0.10571246 0.03847352 0.026473327 -0.123877406 0.062627986 0.17382607 -0.009220421
0.07067759 -0.10718116 0.05234088 -0.013260812 0.06667617 -0.053712472 0.09875181 -0.10791513
0.11403689 0.09761935 0.06572983 -0.039484844 -0.005171993 0.044646807 0.087991804 0.05341036
0.07792404 -0.113433555 -0.12776653 -0.098997675 0.10871658 0.008927903 0.089929655 -0.09212543
-0.099397585 -0.039552856 -0.04489863 -0.043771673 0.0039538415 0.09012514 0.053903423 -0.009027214
-0.043216348 0.0061608274 -0.07173791 -0.08258285 -0.03548185 -0.048457574 -0.09712751 -0.10687111
-0.067248195 -0.09800327 0.011086155 -0.0049967053 0.09450059 0.13021849 0.10498584 -0.059172228
-0.05927185 -0.07278617 -0.072685316 0.043584272 -0.0097770225 -0.067654416 -0.053082686 0.15592785
-0.014243379 -0.11729793 0.047317002 -0.09037487 0.054682244 0.04156667 -0.0149947405 -0.063495345
-0.12194083 0.08604978 0.019944105 0.063029185 0.001503408 -0.05687752 0.07326899 0.03817852
0.09171422 0.1220001 -0.06993142 -0.03843754 0.0384981 -0.021762103 0.028919706 -0.06673712
-0.070144385 -0.05878905 -0.058470555 -0.12206647 -0.11724373 -0.042058427 0.11350627 0.13586149
00000000: 39db ba3b 6eab e73d 20ab bb3d 1b82 dc3d
00000010: f0f0 26bd 1087 79bc 9ac0 a5bd 9e00 41bd
00000020: 066a 823d be96 e13d 6b49 b1bc 905e dfbc
00000030: 0de2 03be a3c2 5f3d 5e6d eabd 24b8 b3bd
00000040: 3a25 d83d b2c3 e53d 0430 bfbc 481f 0c3e
00000050: 182b 23bd 27a3 d03b f50f dc3d 8a47 ed3d
00000060: 9ea9 aa3d 8ac6 efbd 4675 b53d d73e 293d
00000070: a760 01be bc7c febd e085 43bc 991b f93d
00000080: b8a6 c33c 6d43 113d 5887 8a3d 304d d9bc
00000090: 05bf 83bd 8815 8d3b 24d8 ee3d 24e5 4b3d
000000a0: a6cc 22bd 8087 213c d740 4bbd 3ffa 9fbc
000000b0: 401a f63d e31f 55bc 84c1 eabd 4e53 a43d
000000c0: 9e6c b3bd 0843 233d 8e8f ebbd 07b8 3bbd
000000d0: 689c 7f3c 5019 653c 93f7 73bd 42a6 fa3d
000000e0: 68d7 b1bc 092a c73b 3413 c13d 9062 463d
000000f0: 255b 903b dbe0 a43a 6aeb ad3d b4f6 1f3d
00000100: a4b7 86bd 923d e03d 78bc 39bd 98e9 af3d
00000110: 4ef3 edbd 4510 8abd 0d08 bd3d 985f 3c3d
00000120: 9c33 bbbd b057 bfbd b8f1 c6bc 9f91 d9bd
00000130: ee67 883d 342a 2bbd 9c3f f83d 9c3c 443b
00000140: a075 7ebc 7b61 073d b660 78bd 38e7 95bd
00000150: 69c9 c3bd 9371 3fbd 4008 a0bb 5a19 61bd
00000160: acec 95bd 00ef 0dba d098 1bbd b973 fa3d
00000170: 3858 243d 61b6 cd3b d906 22bd 30bb 2ebc
00000180: 8386 0abd a9e1 9a3c c049 3e3c 9851 2f3d
00000190: 3e84 0e3d 08d8 713d aee4 923c 4940 a2bd
000001a0: cae2 dbbd 1b9c 213d 0c1e 95bd 64f4 453d
000001b0: 1554 93bc 93ec 77bd 10ef 40bc 17e7 f33d
000001c0: 68e6 023e 8a43 ce3d bdd0 c5bb 0812 dbbd
000001d0: 620f c13d 79c4 c83d 21f7 99bd 7a7b ce3d
000001e0: 4c97 a53d 8d56 763d 16ea ff3d a5d8 fabd
000001f0: 3625 a43d 80e1 e63d 4a7e e13d f1bd 3a3d
00000200: 3041 e73d e6c9 65bd 3cfb 20bd 94a0 3d3d
00000210: e7dc 12be 328c 9d3d 162d bc3d 18d8 633c
00000220: 83de 073d ec81 ad3d ba58 96bd acd6 c03c
00000230: b003 99bd 7ca1 6f3d 0033 793d 185d 92bd
00000240: f8d3 81bc e29c e8bd a08b f83c 44ac 85bd
00000250: 45e4 04be 26bd c83d 65b3 323d 247d aabd
00000260: 802e 5fbc 223b 0c3c 7303 973c ccd4 a0bd
00000270: ca6c d03d 285a 37bd 0227 c63d d88b 0ebd
00000280: f5a7 f6bd c67f d83d 6996 1d3d 97de d83c
00000290: 70b3 fdbd 1a43 803d 76ff 313e 4011 17bc
000002a0: 6abf 903d cc81 dbbd 6463 563d e043 59bc
000002b0: 848d 883d 9c01 5cbd 643e ca3d 9c02 ddbd
000002c0: 2c8c e93d a7ec c73d 5c9d 863d dcba 21bd
000002d0: d279 a9bb 92df 363d 0c35 b43d d2c4 5a3d
000002e0: a496 9f3d da4f e8bd 3bd5 02be 4bbf cabd
000002f0: cca6 de3d 5746 123c 0a2d b83d 42ac bcbd
00000300: f690 cbbd 2d02 22bd a0e7 37bd ed49 33bd
00000310: 3a8f 813b 8893 b83d d6c9 5c3d e1e6 13bc
00000320: a003 31bd c4e0 c93b 53eb 92bd 3221 a9bd
00000330: 6b55 11bd 737b 46bd caea c6bd 3edf dabd
00000340: 6cb9 89bd f0b5 c8bd b4a2 353c 67bb a3bb
00000350: 8689 c13d ff57 053e d102 d73d 945e 72bd
00000360: 0ac7 72bd ea10 95bd 0adc 94bd 6c85 323d
00000370: ce2f 20bc 668e 8abd 3b6d 59bd 8dab 1f3e
00000380: 105d 69bc e639 f0bd 79cf 413d 7616 b9bd
00000390: 7dfa 5f3d d041 2a3d 80ac 75bc d909 82bd
000003a0: 1dbc f9bd de3a b03d d261 a33c 7215 813d
000003b0: 000e c53a 67f8 68bd 0d0e 963d 1461 1c3d
000003c0: aad4 bb3d 30db f93d 3438 8fbd af70 1dbd
000003d0: 2fb0 1d3d 7046 b2bc 05e9 ec3c 79ad 88bd
000003e0: dca7 8fbd c9cc 70bd d27e 6fbd fcfd f9bd
000003f0: 7b1d f0bd 7545 2cbd fa75 e83d 461f 0b3e

lstm.weight_hh_l0 f4 [256, 64]
0.055002064 0.0993098 -0.014227092 -0.027026264 -0.0947328 -0.034721516 0.07959508 -0.006766298
-0.01511138 0.08911206 0.0039754957 -0.06462671 -0.0944098 0.04291676 0.038527586 0.05657833
-0.05604202 -0.1069679 -0.109418824 -0.0041141515 0.06516014 -0.13997355 -0.03489351 0.038218208
0.028179549 -0.05912601 0.045350317 0.017153189 0.020814423 0.044837885 0.044419054 0.08694477
-0.08630756 0.0814003 0.006535597 0.007310066 -0.015560184 0.020405367 -0.090010606 -0.005796094
0.04533911 0.016207019 0.029962352 -0.0070677553 0.00014843716 -0.13153219 0.10163785 -0.022134023
-0.07289158 0.052922934 0.055826716 -0.011987762 0.10917811 -0.046028107 0.021631284 0.0028255396
0.10040603 -0.13543864 -0.12181904 0.008217037 -0.121808186 0.054996267 0.04427431 -0.086890176
-0.048708666 0.051116496 0.015608815 0.06288198 0.0052261455 0.015208024 -0.05170701 0.0076807095
-0.036945295 0.030307168 -0.11417331 -0.029103417 0.124193065 0.10011977 -0.033313226 0.03339405
-0.06917297 -0.068971686 0.08350571 -0.042989064 -0.05593441 0.03505604 -0.07300678 0.06116824
0.032541275 -0.041108523 -0.1093048 -0.020437298 0.11402639 0.017596066 0.020569654 0.078951664
-0.06842876 -0.1284413 -0.024965754 0.025754254 -0.104745366 -0.062837474 -0.019235546 -0.00937516
0.059296865 0.110859476 -0.03604879 -0.040891055 -0.020396292 0.001971667 -0.013465996 0.014628883
0.01420104 -0.06741526 0.09147919 -0.032473475 0.07874377 -0.0063387393 -0.10273292 0.022441475
0.014986642 -0.05200049 -0.09710901 0.08565871 0.11435002 0.104923636 0.024252579 0.102948606
0.06805314 0.000919317 -0.087326415 -0.008358693 -0.055708423 -0.103968605 0.07536526 -0.07065016
0.057608187 -0.081494085 0.004718956 0.07151136 0.04132207 -0.06625158 0.09570183 -0.06838156
-0.034610372 -0.03326486 0.08367624 -0.08843923 0.027346011 -0.10697642 0.006475196 -0.017704302
-0.08207398 -0.122844696 0.08393396 -0.045057908 0.07650702 0.0659678 0.033621248 -0.03829245
0.10702341 0.07767997 0.034009077 -0.057423722 0.02443668 0.10570704 -0.037662935 -0.008359559
-0.085036 -0.06115213 -0.11810796 0.071091495 0.11216828 0.055194527 0.027876055 -0.07359091
-0.022343015 0.052385423 -0.009441577 0.09969136 0.04725438 0.13427332 0.1319881 0.03906673
0.07945344 -0.011740226 0.045092907 0.038201746 0.07447362 0.022228172 -0.022657681 0.08141085
-0.0674469 0.111256905 -0.0605304 0.083516024 0.018885614 0.10764811 -0.024121905 0.10352353
0.033886787 -0.058604684 0.08515446 -0.03621665 -0.016542105 -0.12545727 -0.11918621 -0.023948481
-0.023033425 0.04194062 0.062075235 0.08539909 -0.03699995 0.003538719 -0.056243945 0.026581857
-0.0033105146 -0.03763034 -0.07035304 -0.08551941 -0.0823881 -0.10728738 -0.057163008 0.12258677
-0.0027762088 -0.048079338 -0.09422677 -0.116755776 -0.040444456 0.1255066 -0.0023536575 0.075662196
-0.004303997 -0.101585194 0.07470521 -0.095548354 0.047708403 -0.025725137 -0.05317754 -0.12524013
-0.012289026 -0.0993347 -0.012754152 -0.119127505 -0.013185638 0.020470554 0.029844148 0.07432235
0.13553092 -0.07054004 -0.08504149 0.05845944 -0.051542833 -0.00075185014 -0.066391125 -0.09029584
00000000: d849 613d f062 cb3d c018 69bc 2f66 ddbc
00000010: 4503 c2bd 2638 0ebd bf02 a33d d2b7 ddbb
00000020: b995 77bc 6280 b63d e044 823b 025b 84bd
00000030: ed59 c1bd 7cc9 2f3d 1acf 1d3d aebe 673d
00000040: 518c 65bd fd11 dbbd fa16 e0bd 01d0 86bb
00000050: ae72 853d 3a55 0fbe 7fec 0ebd b28a 1c3d
00000060: ccd8 e63c 1d2e 72bd 41c1 393d d884 8c3c
00000070: 0283 aa3c eea7 373d c1f0 353d 1910 b23d
00000080: 05c2 b0bd 33b5 a63d 9028 d63b 4789 ef3b
00000090: 24f0 7ebc 2829 a73c 7b57 b8bd 29ed bdbb
000000a0: 81b5 393d 95c4 843c 9b73 f53c a198 e7bb
000000b0: cca5 1b39 60b0 06be 8127 d03d 6952 b5bc
000000c0: 2e48 95bd b8c5 583d 8eaa 643d 5168 44bc
000000d0: c698 df3d f887 3cbd 1734 b13c b02c 393b
000000e0: ada1 cd3d 6db0 0abe 437c f9bd c0a0 063c
000000f0: 9276 f9bd c443 613d fb58 353d 7af3 b1bd
00000100: bd82 47bd 885f 513d 1dbc 7f3c 44c8 803d
00000110: 1640 ab3b 132b 793c bbca 53bd 76ae fb3b
00000120: f353 17bd bd46 f83c b2d3 e9bd 4a6a eebc
00000130: ef58 fe3d 980b cd3d 7373 08bd 33c8 083d
00000140: 8faa 8dbd 0741 8dbd 0b05 ab3d 4d15 30bd
00000150: 7b1b 65bd ec96 0f3d 9484 95bd 8c8b 7a3d
00000160: 004a 053d 6961 28bd 32db dfbd 1f6c a7bc
00000170: ab86 e93d a025 903c b181 a83c 69b1 a13d
00000180: 6124 8cbd 1e86 03be fb84 ccbc 96fa d23c
00000190: bd84 d6bd efb0 80bd dd93 9dbc 459a 19bc
000001a0: 45e1 723d 4b0a e33d e5a7 13bd 617d 27bd
000001b0: 2016 a7bc 1537 013b 7ba0 5cbc fcad 6f3c
000001c0: 7bab 683c 0311 8abd 7159 bb3d e802 05bd
000001d0: 6a44 a13d 33b5 cfbb a365 d2bd 2fd7 b73c
000001e0: 888a 753c 77fe 54bd 17e1 c6bd d56d af3d
000001f0: 5830 ea3d 34e2 d63d 58ad c63c b8d6 d23d
00000200: 725f 8b3d 52fe 703a 31d8 b2bd e6f2 08bc
00000210: 842e 64bd 7eed d4bd 1a59 9a3d 08b1 90bd
00000220: 90f6 6b3d 5fe6 a6bd 79a1 9a3b 8c74 923d
00000230: 5541 293d e9ae 87bd 52ff c33d a20b 8cbd
00000240: 9bc3 0dbd bc40 08bd 735e ab3d a11f b5bd
00000250: be04 e03c 7416 dbbd e22d d43b 9d08 91bc
00000260: 6716 a8bd 0096 fbbd 91e5 ab3d a48e 38bd
00000270: b6af 9c3d 201a 873d 6fb6 093d 8bd8 1cbd
00000280: 172f db3d ad16 9f3d 1a4d 0b3d 2335 6bbd
00000290: 6f2f c83c ef7c d83d 7344 1abd 88f6 08bc
000002a0: 5b27 aebd a87a 7abd 96e2 f1bd 6b98 913d
000002b0: 7cb8 e53d a813 623d 535c e43c d5b6 96bd
000002c0: b308 b7bc 1992 563d d8b0 1abc fc2a cc3d
000002d0: cf8d 413d f27e 093e e327 073e 6f04 203d
000002e0: 7cb8 a23d 145a 40bc 57b3 383d 6f79 1c3d
000002f0: a085 983d db17 b63c 9a9c b9bc bbba a63d
00000300: 9a21 8abd a9da e33d baee 77bd 730a ab3d
00000310: 01b6 9a3c 9d76 dc3d 4d9b c5bc 2504 d43d
00000320: dfcc 0a3d 770b 70bd 7665 ae3d e957 14bd
00000330: 4f83 87bc df77 00be e617 f4bd 9b2f c4bc
00000340: 98b0 bcbc edc9 2b3d 9a42 7e3d b8e5 ae3d
00000350: 428d 17bd dae9 673b 0d60 66bd 32c2 d93c
00000360: 38f5 58bb 4522 1abd 4115 90bd cd24 afbd
00000370: 18bb a8bd 7cb9 dbbd c223 6abd c60e fb3d
00000380: 0ef1 35bb d7ee 44bd f7f9 c0bd a71d efbd
00000390: 16a9 25bd cd84 003e d23f 1abb c8f4 9a3d
000003a0: 8b08 8dbb e60b d0bd 0cff 983d dbae c3bd
000003b0: e369 433d 86bd d2bc b1d0 59bd f33e 00be
000003c0: e957 49bc fe6f cbbd caf6 50bc 1ff9 f3bd
000003d0: 9308 58bc ddb1 a73c b77b f43c 5136 983d
000003e0: 9ec8 0a3e 4c77 90bd 3c2a aebd 2a73 6f3d
000003f0: 941e 53bd cf17 45ba 12f8 87bd 06ed b8bd

lstm.bias_ih_l0 f4 [256]
0.0482475 -0.110664375 0.08546969 0.108113825 0.120128244 0.13333046 0.06777148 0.09908821
0.037503555 0.0057142377 0.120041676 0.02056212 -0.050511144 -0.033852227 -0.026578337 0.06597118
-0.0488217 -0.08617013 -0.09940278 0.13709852 0.09519054 -0.044623993 -0.056674123 0.00020391995
-0.07402171 -0.05788908 0.0477858 -0.05063359 -0.037918 -0.11494223 0.024341647 -0.11292667
-0.06717791 0.0446694 0.00065551116 0.05937687 0.02029549 -0.011583811 -0.109498926 -0.100210704
-0.10788649 0.05126302 -0.10763012 0.016880918 -0.031737134 -0.09567727 0.0637665 0.11391126
0.055008814 0.044078875 -0.10072492 0.0068798205 -0.039501682 -0.003960563 -0.06599217 0.04971878
0.030516393 -0.08086351 0.07381143 -0.01871281 -0.04531291 -0.08097732 -0.10640935 0.13526627
0.0030860545 -0.066350184 0.122316636 -0.07094841 0.069710545 0.09079328 0.10626892 0.08721843
-0.08460529 -0.041249022 -0.024927659 -0.05238188 0.036195304 -0.06170827 -0.06420907 0.086515844
-0.07384597 0.12962571 -0.061103605 0.08520988 -0.07076639 -0.013066021 -0.123653635 -0.07414681
0.03848027 -0.005482761 0.114439055 0.00816471 -0.06177552 0.11202997 0.09695679 -0.046848584
0.116051525 -0.033511933 -0.027134841 -0.008998148 -0.11059558 -0.0016332178 0.0029697502 -0.08546325
-0.12613761 -0.008860046 -0.008394564 0.12164098 0.043262314 0.008545435 -0.017759034 -0.08390268
0.031186458 -0.048670046 -0.10599439 0.072426416 0.002353867 -0.0778313 -0.09658982 -0.04222681
-0.03773029 0.10936956 -0.09592938 0.11964998 0.12068311 0.10604123 -0.08487668 0.03417553
-0.13949718 0.037775204 -0.060315028 -0.030792182 -0.09701582 -0.012932266 0.04140769 0.056344535
-0.10711673 -0.024756879 0.119387366 0.025246708 0.07496158 0.06508919 -0.08735149 0.051742546
0.038504634 -0.12942226 -0.03641593 0.052647103 0.018790288 0.07242706 0.0043189186 -0.07929738
0.021025453 -0.0708414 -0.050352223 -0.09329487 -0.07462283 -0.07873044 -0.08895808 0.017926663
-0.039865788 0.05472346 0.04298131 0.059827305 0.05938309 0.07883918 -0.0057339324 -0.115037546
-0.096319735 -0.08109394 0.015622488 -0.0684485 -0.08735512 -0.03548664 0.10293101 0.018857263
0.07633922 -0.088866875 -0.12933233 -0.03649073 0.06985586 0.045334272 0.039175287 -0.0074076843
0.06306372 -0.096257 -0.1006289 -0.113498546 -0.13455103 -0.113187246 -0.03258678 -0.12951495
-0.11078095 -0.051908728 0.03929339 0.04435758 -0.03920661 0.059064467 -0.04331464 0.042218387
-0.0110578025 0.075669564 -0.029362721 -0.0046167606 0.011924538 0.11536725 0.06763238 0.0066461135
-0.06887037 0.021390872 0.022487877 -0.09590391 -0.02918466 -0.11379158 0.06836965 0.039959133
-0.1285392 -0.09627997 -0.024081398 0.10499881 -0.00809209 -0.05386441 0.05401104 -0.01858148
0.079108454 -0.08633768 0.09227615 -0.082270995 -0.033514302 -0.02522652 -0.0026199943 0.030272774
-0.08738737 0.036917925 0.04278015 0.022423271 0.1350325 -0.09293989 0.12334275 -0.05191553
-0.061439566 -0.028840968 0.11617401 0.09179347 -0.07869368 -0.11567842 -0.10585304 0.1356182
0.12366949 -0.027043192 0.028811218 0.083142824 0.09205802 0.13441665 0.12125729 0.0816398
00000000: 2c9f 453d 01a4 e2bd bc0a af3d c86a dd3d
00000010: cc05 f63d c887 083e c6cb 8a3d c2ee ca3d
00000020: 549d 193d 803e bb3b 69d8 f53d e471 a83c
00000030: c6e4 4ebd a2a8 0abd d0ba d9bc e61b 873d
00000040: 43f9 47bd f779 b0bd af93 cbbd 8e63 0c3e
00000050: 42f3 c23d a6c7 36bd 2023 68bd 58d3 5539
00000060: b298 97bd 1a1d 6dbd 0bbb 433d 2b65 4fbd
00000070: e84f 1bbd d566 ebbd 2268 c73c 1946 e7bd
00000080: 9294 89bd 43f7 363d 9cd6 2b3a 2935 733d
00000090: ba42 a63c 06ca 3dbc f940 e0bd 453b cdbd
000000a0: 98f3 dcbd 2cf9 513d 2e6d dcbd da49 8a3c
000000b0: ccfe 01bd 72f2 c3bd 0398 823d 4f4a e93d
000000c0: ec50 613d 0d8c 343d de48 cebd 1e70 e13b
000000d0: 84cc 21bd 9cc7 81bb e726 87bd eba5 4b3d
000000e0: 84fd f93c c59b a5bd 722a 973d 9b4b 99bc
000000f0: 089a 39bd 70d7 a5bd 25ed d9bd 3e83 0a3e
00000100: 673f 4a3b 9be2 87bd 2581 fa3d 664d 91bd
00000110: 67c4 8e3d d4f1 b93d 85a3 d93d 949f b23d
00000120: 8a45 adbd bcf4 28bd 1735 ccbc 628e 56bd
00000130: 8741 143d d0c1 7cbd 0b80 83bd 382f b13d
00000140: 8e3c 97bd 9abc 043e c647 7abd 8482 ae3d
00000150: f8ed 90bd dd12 56bc 1e3e fdbd 48da 97bd
00000160: 7d9d 1d3d bca8 b3bb 065f ea3d 47c5 053c
00000170: 5408 7dbd f86f e53d 4891 c63d 4de4 3fbd
00000180: 6cac ed3d cf43 09bd e349 debc f86c 13bc
00000190: ef7f e2bd b211 d6ba 24a0 423b 5b07 afbd
000001a0: 382a 01be ba29 11bc 5a89 09bc e81e f93d
000001b0: d333 313d 2702 0c3c 657b 91bc 2bd5 abbd
000001c0: be7a ff3c 3e5a 47bd 9613 d9bd 4d54 943d
000001d0: 5643 1a3b 0466 9fbd e2d0 c5bd 05f6 2cbd
000001e0: 148b 1abd 26fd df3d 9f76 c4bd 0c0b f53d
000001f0: b528 f73d 252c d93d d3d3 adbd a4fb 0b3d
00000200: 59d8 0ebe 2cba 1a3d e40c 77bd e33f fcbc
00000210: 3bb0 c6bd dbe1 53bc 1c9b 293d 87c9 663d
00000220: 0460 dbbd f0ce cabc 5d81 f43d 2fd2 ce3c
00000230: 7585 993d 7b4d 853d 57e5 b2bd feef 533d
00000240: 09b7 1d3d 4587 04be df28 15bd 7da4 573d
00000250: 17ee 993c a354 943d b785 8d3b aa66 a2bd
00000260: 923d ac3c 4c15 91bd 223e 4ebd 6111 bfbd
00000270: dbd3 98bd 6d3d a1bd a72f b6bd f0da 923c
00000280: 4f4a 23bd b525 603d 2c0d 303d 7a0d 753d
00000290: af3b 733d 7076 a13d b6e3 bbbb ce98 ebbd
000002a0: 4843 c5bd 9414 a6bd 77f5 7f3c ba2e 8cbd
000002b0: 3ee7 b2bd 705a 11bd 7ecd d23d 8c7a 9a3c
000002c0: bd57 9c3d d6ff b5bd b26f 04be 4e77 15bd
000002d0: 9710 8f3d 6eb0 393d 4476 203d 29bc f2bb
000002e0: 8d27 813d 6422 c5bd 8616 cebd ed71 e8bd
000002f0: bfc7 09be b7ce e7bd b779 05bd 919f 04be
00000300: 1fe1 e2bd 3f9e 54bd 1bf2 203d 4bb0 353d
00000310: 1c97 20bd 95ed 713d b16a 31bd 30ed 2c3d
00000320: c92b 35bc a5f8 9a3d 178a f0bc 3248 97bb
00000330: 235f 433c aa45 ec3d d882 8a3d a4c7 d93b
00000340: e90b 8dbd e93b af3c 7f38 b83c 4569 c4bd
00000350: ab14 efbc 8f0b e9bd 6305 8c3d 30ac 233d
00000360: c89f 03be 6f2e c5bd 5a46 c5bc 9e09 d73d
00000370: af94 04bc eda0 5cbd ae3a 5d3d 3038 98bc
00000380: 9d03 a23d cfd1 b0bd 47fb bc3d b27d a8bd
00000390: 4b46 09bd d9a7 cebc 36b4 2bbb 9cfe f73c
000003a0: 26f8 b2bd 4037 173d 3d3a 2f3d 02b1 b73c
000003b0: f645 0a3e 4557 bebd 209b fc3d 61a5 54bd
000003c0: 0ea8 7bbd e543 ecbc a4ec ed3d 37fe bb3d
000003d0: 272a a1bd cfe8 ecbd 7bc9 d8bd 7fdf 0a3e
000003e0: 6e46 fd3d af89 ddbc 8105 ec3c c946 aa3d
000003f0: ea88 bc3d 85a4 093e be55 f83d c432 a73d

lstm.bias_hh_l0 f4 [256]
-0.07777564 -0.105419025 -0.028125867 0.0003027829 -0.08852172 0.115488835 -0.108350776 -0.08951326
0.05700545 -0.003840192 0.08619239 -0.094956204 -0.0046033096 -0.053219587 -0.09773546 -0.003172108
-0.09675841 0.042036664 0.06968063 0.0969404 -0.008980382 -0.10801217 0.10012405 -0.009391568
0.08193475 -0.09583606 0.024629768 -0.10022069 -0.04099803 0.12193894 -0.08429469 0.085646085
-0.09173936 -0.085249 -0.059405264 -0.051103845 -0.036347453 0.07005293 0.01612132 -0.07833371
-0.08264594 0.05281736 -0.0016111992 -0.12125638 -0.06902406 0.024059443 0.075013295 -0.100472905
0.09920579 0.10955474 0.040847052 0.07185644 0.056864887 -0.09855698 0.012620553 0.09339772
0.08665609 0.032071095 -0.097505435 -0.0018361903 0.13239412 0.12818931 -0.09623294 0.06099324
0.039154015 0.021296147 -0.044994723 0.1314271 0.0759638 -0.012364465 0.09429776 0.12314054
-0.027166607 0.0424425 0.08521022 -0.041204434 -0.045777135 0.08454191 -0.03602046 0.12880868
0.110054255 0.0042776386 -0.048072156 -0.064337105 -0.0761437 -0.103999436 -0.08932365 -0.05735378
0.060808312 -0.04551343 0.04460475 -0.027522221 -0.051815297 0.076355994 0.10830062 -0.05201077
0.034804907 0.044069946 -0.06198499 -0.03030112 -0.041120056 -0.11411043 0.084079 -0.0017013247
0.0058009215 -0.004290381 0.11110617 0.02658298 0.05136376 0.02364258 0.08200863 0.06971177
0.09011254 0.07609336 -0.1064657 -0.040999155 -0.024744105 -0.07254593 0.060214043 0.09966672
-0.007795674 0.10442175 0.04993884 0.027601501 -0.052960925 0.0689534 0.0043721646 0.023453489
-0.074990384 0.08339502 -0.057627853 -0.12980735 0.03973916 -0.07803233 0.053332783 -0.1094313
-0.06869938 -0.013604094 0.12037865 -0.024161637 0.035280146 -0.0746562 -0.06375069 0.061139442
-0.007800293 0.098865494 -0.092641406 0.077894986 -0.077867374 0.018316185 0.05270981 0.005180703
-0.00228289 0.09507308 -0.10116383 0.07590183 -0.10927872 -0.07700473 0.091203816 0.003709848
0.02937566 -0.005400658 0.054837342 0.04782707 0.057005804 0.013807758 -0.08042285 0.09586834
0.03269013 -0.08616679 0.076091476 -0.10778313 0.018701367 0.06270485 0.035922736 8.6238506e-05
-0.08186801 -0.06878367 0.0791472 -0.10940459 -0.03993367 -0.08713221 -0.039946258 -0.073184654
-0.002351516 -0.09204015 -0.08973953 -0.07819148 -0.07530444 -0.1322526 0.12917995 -0.10376744
-0.07517216 0.0071415566 0.004497639 0.07005627 0.03550476 -0.027464869 0.111773804 0.01636012
-0.08917957 0.07075382 -0.06490749 -0.028539682 -0.021205613 -0.022077678 -0.024732152 -0.0725523
-0.0358392 0.010560876 0.033739198 0.10718199 -0.10259683 -0.048811357 0.028945593 0.06179061
0.051109795 -0.08477702 0.09258806 -0.06142767 -0.052265506 0.009550679 -0.0669263 0.037015498
-0.0674988 -0.08674523 -0.116895996 -0.047593128 0.028064445 -0.024385275 0.11870357 -0.06437964
-0.05542231 0.06462046 0.03892185 0.08683935 0.042551167 0.033785313 0.07000462 0.10700097
-0.090130635 0.027548525 0.12152264 -0.09574418 -0.047189668 -0.07006092 -0.054114643 0.11424623
0.121997006 -0.008285089 -0.104406245 0.06040799 0.10323261 -0.087202385 -0.023848062 -1.717703e-05
00000000: d648 9fbd eee5 d7bd 3868 e6bc d5be 9e39
00000010: e04a b5bd 6985 ec3d 03e7 ddbd ba52 b7bd
00000020: 8c7e 693d bbab 7bbb a385 b03d 6678 c2bd
00000030: 5cd7 96bb c8fc 59bd 8729 c8bd 24e3 4fbb
00000040: 4629 c6bd a32e 2c3d b8b4 8e3d b088 c63d
00000050: 7422 13bc 7c35 ddbd d70d cd3d 17df 19bc
00000060: 68cd a73d b245 c4bd 5ec4 c93c 8140 cdbd
00000070: 8ded 27bd 1fbb f93d b2a2 acbd 3767 af3d
00000080: d8e1 bbbd 0797 aebd ef52 73bd 4452 51bd
00000090: 11e1 14bd e977 8f3d dc10 843c 6d6d a0bd
000000a0: 4642 a9bd 0457 583d e02e d3ba 4455 f8bd
000000b0: 7d5c 8dbd 4f18 c53c 92a0 993d bdc4 cdbd
000000c0: 682c cb3d 3c5e e03d 3d4f 273d 7829 933d
000000d0: 28eb 683d 3ed8 c9bd 70c6 4e3c 4e47 bf3d
000000e0: c078 b13d fb5c 033d eeb0 c7bd 53ac f0ba
000000f0: 5392 073e 0f44 033e c715 c5bd 0cd4 793d
00000100: f65f 203d 4275 ae3c 634c 38bd d394 063e
00000110: e992 9b3d 5394 4abc 2f1f c13d 1c31 fc3d
00000120: 818c debc 30d8 2d3d b282 ae3d fbc5 28bd
00000130: ce80 3bbd 4f24 ad3d 318a 13bd 6ce6 033e
00000140: 2064 e13d 6f2b 8c3b 4fe7 44bd 2cc3 83bd
00000150: 3af1 9bbd a8fd d4bd 51ef b6bd cceb 6abd
00000160: 2312 793d 4a6c 3abd 78b3 363d 4876 e1bc
00000170: 473c 54bd 8860 9c3d b7cc dd3d 3f09 55bd
00000180: 978f 0e3d b082 343d f9e3 7dbd 0e3a f8bc
00000190: 816d 28bd bbb2 e9bd 9c31 ac3d fcfe deba
000001a0: a815 be3b 5396 8cbb a28b e33d 8dc4 d93c
000001b0: ce62 523d 15ae c13c 24f4 a73d 0bc5 8e3d
000001c0: ec8c b83d d6d6 9b3d b00a dabd bbee 27bd
000001d0: 26b4 cabc f692 94bd 00a3 763d 111e cc3d
000001e0: da72 ffbb 12db d53d ab8c 4c3d 8b1c e23c
000001f0: 8eed 58bd 7137 8d3d 6044 8f3b 8821 c03c
00000200: 8f94 99bd 02cb aa3d 2f0b 6cbd 38ec 04be
00000210: 88c5 223d 6acf 9fbd 7a73 5a3d 841d e0bd
00000220: 43b2 8cbd b5e3 5ebc 1589 f63d a0ee c5bc
00000230: ea81 103d 5ae5 98bd b98f 82bd 5a6d 7a3d
00000240: 9a99 ffbb fe79 ca3d c7ba bdbd 6887 9f3d
00000250: ee78 9fbd d30b 963c 3ee6 573d e3c2 a93b
00000260: 8a9c 15bb adb5 c23d fb2e cfbd 6b72 9b3d
00000270: 86cd dfbd a8b4 9dbd 11c9 ba3d ec20 733b
00000280: 39a5 f03c 01f8 b0bb 1f9d 603d 51e6 433d
00000290: eb7e 693d ef39 623c bcb4 a4bd 9f56 c43d
000002a0: 16e6 053d 3778 b0bd d9d5 9b3d 67bd dcbd
000002b0: 9c33 993c 676b 803d b823 133d f2da b438
000002c0: 6aaa a7bd 74de 8cbd ed17 a23d 840f e0bd
000002d0: 7d91 23bd 5f72 b2bd b09e 23bd d6e1 95bd
000002e0: e41b 1abb 8c7f bcbd 5cc9 b7bd db22 a0bd
000002f0: 3739 9abd 3a6d 07be c047 043e 0684 d4bd
00000300: ddf3 99bd b803 ea3b ee60 933b a979 8f3d
00000310: 706d 113d 01fe e0bc aae9 e43d a905 863c
00000320: c7a3 b6bd 61e7 903d 38ee 84bd 0dcc e9bc
00000330: 65b7 adbc 3fdc b4bc 159b cabc 4d96 94bd
00000340: 20cc 12bd 8607 2d3c 1d32 0a3d 3b82 db3d
00000350: 491e d2bd 6bee 47bd 4f1f ed3c 2718 7d3d
00000360: 8158 513d 939f adbd cf9e bd3d 959b 7bbd
00000370: 5b14 56bd 737a 1c3c a810 89bd 909d 173d
00000380: d03c 8abd 7ca7 b1bd 2b67 efbd 03f1 42bd
00000390: 68e7 e53c a1c3 c7bc db1a f33d 79d9 83bd
000003a0: 8102 63bd bb57 843d 856c 1f3d d4d8 b13d
000003b0: 224a 2e3d 7862 0a3d 955e 8f3d 5323 db3d
000003c0: 6996 b8bd 72ad e13c dde0 f83d 8615 c4bd
000003d0: f449 41bd 1a7c 8fbd 51a7 5dbd edf9 e93d
000003e0: 91d9 f93d 2fbe 07bc f1d2 d5bd 5e6e 773d
000003f0: 9e6b d33d 2a97 b2bd 035d c3bc 6417 90b7

lstm.weight_ih_l1 f4 [256, 64]
-0.070705645 0.01377549 -0.09490427 0.029968482 0.082809314 0.018923992 -0.099560656 0.028824493
0.054362077 0.11089438 0.046995822 -0.123877615 -0.050675564 -0.03497104 0.07245095 0.038947944
-0.025279313 0.06606535 0.055476796 -0.008849751 0.056824412 0.10026068 0.096725814 0.03845258
-0.0046903514 0.06312327 0.10366651 -0.001974338 -0.00613989 0.092325665 -0.08776587 -0.0723784
0.071551755 0.005417379 -0.023390882 0.0030860105 -0.13037382 0.029858205 -0.05682373 0.03219617
0.038310714 -0.05864151 -0.030136503 0.016187115 0.16092971 -0.07008731 0.049844354 0.12142493
0.02200383 0.08342038 0.05932019 -0.009935461 0.10883953 -0.121662416 -0.09855186 0.10150102
-0.069083855 -0.10680916 -0.009958376 0.13512117 -0.07209569 -0.09350723 -0.00987452 0.06518034
-0.09062659 0.007313145 0.103486106 -0.12081998 0.010714423 0.096604824 -0.08821977 -0.026755795
-0.03687084 -0.10504763 0.15166283 0.053334396 -0.11788851 0.13500889 -0.009053829 -0.070609
0.045250982 0.05578368 -0.035218544 -0.09794192 0.0026817936 0.0403452 -0.072532 0.031862285
0.08897621 0.018201742 0.025105024 -0.112188615 0.08218894 0.009229215 0.03282703 -0.03671663
0.0552837 -0.09045794 -0.027306661 -0.09976297 0.057854448 0.039936054 -0.026672512 -0.043330994
-0.14009485 -0.00886476 -0.03575486 -0.032422915 0.051869992 0.05881827 -0.07192392 0.006285156
0.022710383 -0.0062903427 -0.101802595 -0.14972924 0.0098467795 0.03117911 -0.1380722 -0.056627654
-0.0484526 -0.030869268 0.04252728 -0.02752897 -0.13525718 -0.12400051 -0.04978567 0.06964765
-0.011102364 0.13072276 -0.042453486 -0.07171553 0.084977254 -0.105792105 0.0036002225 0.09526298
-0.10619743 -0.06748554 0.107602045 -0.089093156 0.0003526963 -0.06416762 0.090186864 0.12065424
-0.13145936 -0.11704406 -0.008803469 0.035440546 -0.12529305 0.09305696 0.016627172 -0.06935015
-0.1082295 0.09119585 -0.09714266 0.067696035 0.0016041686 -0.123100795 0.031970993 -0.10342924
0.019844156 0.08540851 -0.07485568 0.060254734 0.06835014 -0.046636704 -0.1213428 0.077756815
0.08592308 -0.10004931 -0.04821953 -0.09459795 0.08913721 0.09445632 0.09527036 -0.05756851
0.096149564 -0.032007203 -0.10486471 -0.059577875 -0.07220898 -0.08017397 -0.12569803 -0.01424617
0.0021774378 -0.062202998 -0.038580127 -0.050161224 -0.011028465 -0.024232375 0.09510643 -0.098424226
-0.056225806 -0.13602275 0.064195335 0.03897791 0.11509427 0.10564039 -0.13432127 -0.11476236
0.075355336 0.0015946473 0.09023692 -0.07780667 -0.07161291 0.021808188 -0.05939707 0.047051948
0.06808031 -0.0738818 -0.10071691 -0.025822463 0.07309212 -0.0025965143 -0.0047544134 -0.037998017
0.02448066 -0.08642008 0.06675742 -0.08456361 0.10222786 0.018287601 -0.059171315 0.10115307
-0.10278326 0.1122233 0.047910344 0.10880215 0.04398313 -0.028244274 -0.10328506 -0.0878938
-0.054209866 0.120683454 -0.06861052 0.10034152 0.06800971 -0.017429749 -0.056747198 -0.09468846
0.052378938 -0.0036405304 0.06277825 -0.050032753 -0.10672944 -0.061513323 -0.024780706 -0.08209972
0.04439408 -0.05384051 -0.036903735 0.083559126 0.07607889 0.050118297 -0.031704284 -0.032974202
00000000: 1fce 90bd 98b2 613c 2b5d c2bd 7680 f53c
00000010: ee97 a93d 7d06 9b3c 75e6 cbbd 5821 ec3c
00000020: c5aa 5e3d 981c e33d b17e 403d 8cb3 fdbd
00000030: 2e91 4fbd cb3d 0fbd 2a61 943d e187 1f3d
00000040: 9016 cfbc 454d 873d a33b 633d 8cfe 10bc
00000050: b7c0 683d 7955 cd3d 2f18 c63d 7480 1d3d
00000060: 85b1 99bb c646 813d 1b4f d43d e563 01bb
00000070: 2131 c9bb 3d15 bd3d 98be b3bd 203b 94bd
00000080: ba89 923d 4584 b13b 3c9e bfbc aa3e 4a3b
00000090: b780 05be 3299 f43c 00c0 68bd 22e0 033d
000000a0: b2eb 1c3d 1432 70bd d4e0 f6bc d79a 843c
000000b0: c2ca 243e f089 8fbd 9829 4c3d a2ad f83d
000000c0: 6041 b43c 4ed8 aa3d baf9 723d 58c8 22bc
000000d0: 42e7 de3d 252a f9bd 8fd5 c9bd c4df cf3d
000000e0: d67b 8dbd c3be dabd 7528 23bc 345d 0a3e
000000f0: e8a6 93bd b880 bfbd bdc8 21bc 457d 853d
00000100: 6f9a b9bd 1ba3 ef3b 86f0 d33d 7770 f7bd
00000110: 8c8b 2f3c c0d8 c53d 91ac b4bd f82e dbbc
00000120: e105 17bd 3623 d7bd 804d 1b3e 2b75 5a3d
00000130: 886f f1bd c53f 0a3e 8356 14bc 749b 90bd
00000140: 1859 393d 6e7d 643d 5241 10bd c695 c8bd
00000150: 08c1 2f3b 0241 253d a88b 94bd 0782 023d
00000160: 2939 b63d d21b 953c 0da9 cd3c 25c3 e5bd
00000170: ad52 a83d 2236 173c a375 063d 2d64 16bd
00000180: 2971 623d 0342 b9bd 38b2 dfbc 8750 ccbd
00000190: c9f8 6c3d fd93 233d 5080 dabc d77b 31bd
000001a0: 0675 0fbe 803d 11bc b073 12bd e4cd 04bd
000001b0: a175 543d 6deb 703d d94c 93bd b6f3 cd3b
000001c0: 200b ba3c 381f cebb e17d d0bd 9f52 19be
000001d0: 6354 213c 556b ff3c cc62 0dbe 66f2 67bd
000001e0: 3c76 46bd 8ce1 fcbc 1631 2e3d 6f84 e1bc
000001f0: dc80 0abe fbf3 fdbd 0fec 4bbd 6da3 8e3d
00000200: b1e6 35bc 30dc 053e b5e3 2dbd 97df 92bd
00000210: 8e08 ae3d 88a9 d8bd b6f1 6b3b 3d19 c33d
00000220: 0a7e d9bd dc35 8abd 765e dc3d 7976 b6bd
00000230: 19ea b839 506a 83bd e4b3 b83d 9219 f73d
00000240: 489d 06be ccb4 efbd 6d3c 10bc 1b2a 113d
00000250: d24c 00be a694 be3d b535 883c 7407 8ebd
00000260: 6ea7 ddbd e4c4 ba3d bbf2 c6bd 38a4 8a3d
00000270: f742 d23a 451c fcbd 04f4 023d b6d2 d3bd
00000280: 3690 a23c a8ea ae3d ef4d 99bd abcd 763d
00000290: 28fb 8b3d 2106 3fbd 9382 f8bd f73e 9f3d
000002a0: 71f8 af3d a7e6 ccbd d881 45bd 92bc c1bd
000002b0: 928d b63d 5172 c13d 1b1d c33d f5cc 6bbd
000002c0: 10ea c43d fc19 03bd 4fc3 d6bd ee07 74bd
000002d0: 4de2 93bd 4032 a4bd fcb6 00be c568 69bc
000002e0: 58b3 0e3b 92c8 7ebd 3206 1ebd db75 4dbd
000002f0: bcb0 34bc f982 c6bc 29c7 c23d a492 c9bd
00000300: 084d 66bd 8c49 0bbe d878 833d 4da7 1f3d
00000310: 8bb6 eb3d fd59 d83d 848b 09be 8708 ebbd
00000320: e653 9a3d 7c03 d13a 22ce b83d 1a59 9fbd
00000330: caa9 92bd 16a7 b23c 584a 73bd 8bb9 403d
00000340: b16d 8b3d 574f 97bd ab44 cebd a189 d3bc
00000350: 52b1 953d 482a 2abb e9ca 9bbb cfa3 1bbd
00000360: aa8b c83c 03fd b0bd 1db8 883d b02f adbd
00000370: d75c d13d e1cf 953c 9f5d 72bd 5729 cf3d
00000380: 0880 d2bd 54d5 e53d a33d 443d a9d3 de3d
00000390: a827 343d 8960 e7bc 1e87 d3bd aa01 b4bd
000003a0: 2a0b 5ebd e328 f73d ac83 8cbd db7f cd3d
000003b0: ad48 8b3d d5c8 8ebc c06f 68bd 06ec c1bd
000003c0: 4c8b 563d f795 6ebb e291 803d 25ef 4cbd
000003d0: f794 dabd 65f5 7bbd e800 cbbc e623 a8bd
000003e0: 91d6 353d de87 5cbd 5f28 17bd 0c21 ab3d
000003f0: 40cf 9b3d d848 4d3d 5adc 01bd f50f 07bd

lstm.weight_hh_l1 f4 [256, 64]
0.0053245686 0.05592614 -0.041218676 -0.07960014 -0.12907834 -0.09371569 -0.026960699 0.013414182
-0.06312733 -0.13946924 -0.14423549 0.04440687 -0.13603663 -0.048366968 0.10326252 0.029090997
0.08005716 -0.089065164 -0.048237775 0.05844587 0.07083102 0.021428604 0.12089715 -0.006540869
-0.10097507 0.065042734 0.004420718 0.016160345 -0.011886482 0.079139926 0.0644922 0.031158648
-0.044427108 -0.07382215 0.14166667 0.0680242 -0.047578998 0.13797513 -0.08772356 -0.121047124
0.14066274 0.10822311 0.04823327 0.114945106 0.07964407 0.0062262514 -0.05757296 0.048894342
0.13572963 0.08580015 0.026859714 -0.049773574 -0.034358695 -0.134836 -0.059582002 -0.1422123
-0.042728025 0.014589468 -0.02263338 0.12654532 -0.033688545 -0.009001151 0.005491716 -0.021840181
0.020283246 -0.10367571 -0.10411654 -0.0620816 0.03423279 -0.034504656 -0.058626555 0.06441736
-0.09628444 -0.06456799 -0.06107945 0.06687917 0.04825916 0.015457624 0.095123775 -0.08043967
-0.10765175 -0.10970204 0.023860827 -0.0906519 0.08857772 0.09570948 -0.1405536 0.004303104
-0.050170727 0.11817028 0.098054506 0.099002965 -0.03874632 0.019082936 0.0580595 -0.11252742
-0.051054545 0.08834073 -0.054752152 -0.10336378 -0.06373766 0.07347857 0.03408513 0.080020994
-0.10690216 -0.0351139 0.04702158 -0.068179995 -0.057234965 -0.06990106 -0.03959335 0.051379766
-0.02112944 -0.1301455 0.00969711 -0.085053794 0.008809829 0.015402384 0.1312812 0.06843035
0.020434977 0.022588065 -0.06436392 0.11267558 -0.07791173 -0.024913859 -0.027395261 -0.103059754
-0.084220976 -0.038548775 -0.011373868 -0.12861511 -0.010326832 0.081181034 0.12786306 -0.0228534
-0.09891965 0.04448271 -0.109335296 -0.11016606 0.08219294 -0.117584564 0.07838809 -0.05800167
0.11435918 0.106341675 -0.11121841 0.028940119 -0.01979754 -0.08101153 -0.11756167 -0.09114647
-0.0848998 -0.05317145 -0.018340856 0.08651749 -0.070584275 0.018181814 0.06460975 0.023467707
-0.011237272 0.07888658 0.11346733 0.13004352 -0.029778216 -0.11163225 -0.011935496 -0.11275347
-0.027062535 -0.08200314 0.107934944 -0.109090604 0.10137652 -0.07731903 -0.056305498 -0.025950596
0.101010315 0.097988375 0.030628473 0.11413488 0.033256274 0.011759822 0.023924919 0.13537984
-0.039035313 -0.07468238 -0.081871495 0.04079428 0.10898689 0.056257658 -0.058722176 -0.12758866
0.02700779 -0.12557222 -0.09025733 -0.051299438 -0.10179026 -0.09136916 -0.052009612 0.06327014
0.094540946 -0.078864485 0.02801329 0.09404632 -0.04625197 -0.049083404 0.043374423 0.13876134
-0.058381356 0.035865452 0.08039699 0.11193362 -0.095183715 -0.08862565 0.045757893 -0.0048800753
-0.115949914 0.009669823 -0.045014754 -0.12925075 -0.060745653 -0.052531525 0.06351296 -0.102100536
-0.04398194 0.016761623 -0.044619516 0.015951026 -0.016272465 -0.035596605 0.07822984 -0.11544078
-0.024378065 0.03524092 -0.06588855 -0.08546855 0.12269977 0.12485741 0.07882374 0.058048777
0.024283344 -0.0114432415 -0.05299109 0.06900167 -0.041845456 -0.11799637 0.04299304 -0.11798799
0.094253056 -0.12961057 -0.021464204 0.015832556 0.018336337 0.026600743 -0.06874151 -0.048690975
00000000: b879 ae3b cf12 653d ead4 28bd 6605 a3bd
00000010: 1d2d 04be 03ee bfbd afdc dcbc 28c7 5b3c
00000020: e748 81bd 06d1 0ebe 78b2 13be fae3 353d
00000030: 304d 0bbe 711c 46bd 4d7b d33d 3e50 ee3c
00000040: 02f5 a33d cc67 b6bd f994 45bd f064 6f3d
00000050: db0f 913d 0a8b af3c ed98 f73d c954 d6bb
00000060: 04cc cebd 2035 853d acdb 903b b362 843c
00000070: 85bf 42bc 1d14 a23d 7d14 843d 6c40 ff3c
00000080: 33f9 35bd 1130 97bd 1111 113e 4650 8b3d
00000090: 32e2 42bd 5a49 0d3e 69a8 b3bd 8ee7 f7bd
000000a0: e509 103e 14a4 dd3d 4090 453d 5768 eb3d
000000b0: 6e1c a33d 9505 cc3b a0d1 6bbd 6f45 483d
000000c0: b5fc 0a3e fdb7 af3d e708 dc3c 60df 4bbd
000000d0: b4bb 0cbd 7312 0abe 420c 74bd 1aa0 11be
000000e0: 9503 2fbd aa08 6f3c a369 b9bc 1995 013e
000000f0: 00fd 09bd 9079 13bc daf3 b33b 2eea b2bc
00000100: 0d29 a63c ee53 d4bd 0d3b d5bd 4749 7ebd
00000110: af37 0c3d c154 0dbd 6622 70bd 40ed 833d
00000120: c730 c5bd 393c 84bd 722e 7abd f2f7 883d
00000130: 66ab 453d f941 7d3c 41d0 c23d 8ebd a4bd
00000140: 8578 dcbd 77ab e0bd c877 c33c b4a7 b9bd
00000150: 3c68 b53d 5503 c43d 48ed 0fbe 0d01 8d3b
00000160: d27f 4dbd 4203 f23d cdd0 c83d 11c2 ca3d
00000170: 76b4 1ebd d153 9c3c cccf 6d3d c774 e6bd
00000180: 921e 51bd fceb b43d cb43 60bd 64b0 d3bd
00000190: e488 82bd ef7b 963d d99c 0b3d 0ce2 a33d
000001a0: 85ef dabd 98d3 0fbd b399 403d f4a1 8bbd
000001b0: 366f 6abd 4928 8fbd a32c 22bd 9773 523d
000001c0: a617 adbc dd44 05be a1e0 1e3c af30 aebd
000001d0: 1a57 103c 485a 7c3c 946e 063e 3625 8c3d
000001e0: 4167 a73c 9b0a b93c 3bd1 83bd 74c2 e63d
000001f0: 2f90 9fbd 2618 ccbc 076c e0bc fe10 d3bd
00000200: 0c7c acbd 52e5 1dbd 7659 3abc aeb3 03be
00000210: df31 29bc 3e42 a63d 89ee 023e 0e37 bbbc
00000220: 6396 cabd 8133 363d 2feb dfbd be9e e1bd
00000230: c654 a83d 2dd0 f0bd ef89 a03d 2993 6dbd
00000240: 2535 ea3d aac9 d93d 7ac6 e3bd d413 ed3c
00000250: 732e a2bc 5fe9 a5bd 2cc4 f0bd 00ab babd
00000260: f2df adbd 4eca 59bd 903f 96bc 1530 b13d
00000270: 7d8e 90bd 07f2 943c 1e52 843d 593f c03c
00000280: 891c 38bc 4a8f a13d 8f61 e83d 212a 053e
00000290: 72f1 f3bc 739f e4bd 198d 43bc 4beb e6bd
000002a0: 40b2 ddbc 43f1 a7bd ff0c dd3d e56a dfbd
000002b0: 7e9e cf3d 7159 9ebd 98a0 66bd 5896 d4bc
000002c0: 7fde ce3d 21ae c83d 90e8 fa3c 8cbf e93d
000002d0: bb37 083d 45ac 403c 31fe c33c 03a1 0a3e
000002e0: 7ee3 1fbd 13f3 98bd 3eac a7bd e717 273d
000002f0: 8534 df3d 6e6e 663d aa86 70bd 9aa6 02be
00000300: 713f dd3c 0196 00be d6d8 b8bd 5c1f 52bd
00000310: 6977 d0bd c11f bbbd 0808 55bd c693 813d
00000320: af9e c13d b483 a1bd 217c e53c 5b9b c03d
00000330: b572 3dbd ae0b 49bd 61a9 313d 7417 0e3e
00000340: 4a21 6fbd a7e7 123d 2da7 a43d 743d e53d
00000350: aeef c2bd 5d81 b5bd a16c 3b3d 0ae9 9fbb
00000360: 2677 edbd 2d6e 1e3c 6461 38bd 4f5a 04be
00000370: 6fd0 78bd 4c2b 57bd 1513 823d 161a d1bd
00000380: 6826 34bd ac4f 893c f4c2 36bd baab 823c
00000390: d54d 85bc bfcd 11bd f736 a03d 376c ecbd
000003a0: 82b4 c7bc c858 103d 93f0 86bd 230a afbd
000003b0: 044a fb3d 3eb5 ff3d 576e a13d 8ec4 6d3d
000003c0: dded c63c 6f7c 3bbc 2f0d 59bd bf50 8d3d
000003d0: 2466 2bbd 15a8 f1bd 7819 303d b0a3 f1bd
000003e0: bf07 c13d a2b8 04be b3d5 afbc 47b3 813c
000003f0: 1636 963c cde9 d93c 59c8 8cbd 3070 47bd

lstm.bias_ih_l1 f4 [256]
0.10873342 0.06855654 0.030616937 -0.059181012 -0.03218388 0.06046299 0.059351295 -0.02498564
0.10273336 0.006222932 0.06326828 -0.04050586 0.12926574 -0.00765194 0.11807933 0.0805313
-0.049485974 0.05261222 -0.10428526 0.08989386 0.06826021 -0.04197109 0.14043619 -0.0772183
0.031382 0.09194927 -0.020461421 0.08414854 -0.09906534 0.10639205 -0.03117403 -0.05138739
0.0029470914 -0.030673059 0.098130375 -0.04716015 0.047498554 -0.015692612 -0.05154817 -0.10890462
0.06746486 0.070734724 -0.09640345 0.08130489 0.046610516 0.083415285 -0.012212182 -0.015981453
0.04467015 -0.0654886 0.12904248 0.020295402 -0.04974875 0.09799536 -0.11005365 0.113410175
-0.12437811 -0.0047425926 -0.013607809 0.03817308 0.066506654 -0.083720125 -0.03871911 0.020502852
0.011433542 -0.1106854 -0.09568766 -0.12935519 -0.067514434 -0.07143683 0.10228549 0.06119071
-0.11421929 0.095628664 0.055144183 0.019940175 0.05744021 -0.019485373 -0.08492036 0.0010843581
-0.09346244 -0.037542544 0.121581055 -0.047206514 0.09900131 -0.102274604 -0.08151978 0.10132433
0.031939827 0.05200003 -0.045188557 -0.043258667 -0.036843304 -0.044337854 0.0531186 -0.08395289
0.060749188 0.024353737 0.01661353 0.107716806 -0.06385858 0.13702264 -0.021526635 -0.052899703
-0.054030105 0.07066917 -0.074240066 -0.09522211 -0.09075299 0.07830964 -0.08939721 -0.092936695
0.104450725 -0.039361417 0.0675386 0.07570637 0.06813989 0.107083425 0.03906242 0.014139674
-0.047749422 -0.031209014 0.09559511 0.09588877 -0.10717472 0.07478349 0.042019695 0.057028703
0.055459216 0.091089755 0.031474948 0.013983841 -0.027920272 0.041333936 0.0072527532 0.05171479
-0.008166745 0.14174506 0.11387733 0.09953867 -0.029180244 -0.12749392 0.02958845 0.00038340263
-0.08474308 -0.063864626 0.051609468 -0.14458737 0.024300642 0.09571777 -0.10632608 -0.06951708
0.12519224 0.115319826 0.057423748 0.0132901035 0.042652268 -0.036401156 0.100514084 0.02867552
-0.09715974 0.06607609 -0.012965463 -0.013707793 0.09083582 -0.016898861 -0.010205331 0.024686147
0.08683662 0.032506447 -0.025801396 -0.06705427 -0.12727854 -0.11605616 0.023028208 0.1273046
-0.057098035 0.03207324 -0.14095637 -0.013565662 -0.034268208 0.13382792 0.01706316 0.06975391
0.00247981 -0.004377101 -0.087382995 -0.06705981 -0.05168065 0.12458272 -0.08237986 -0.085025385
0.039118018 0.12964168 0.06325208 -0.07923418 0.13467818 -0.06553132 -0.011715617 -0.10877455
-0.06818392 0.047256283 0.07834028 -0.10741582 -0.022509988 0.0498232 0.027359188 0.10584097
0.011130265 0.10485837 -0.045169447 0.059593543 -0.061271437 -0.06058351 0.1289539 -0.07415538
0.05322543 0.061459992 -0.10794951 -0.090086564 -0.073523186 -0.058401786 -0.05044604 -0.013796029
0.08931401 0.06481118 -0.035134118 -0.034352574 -0.039356466 0.10357002 -0.08567423 -0.047705352
0.06144827 0.039746966 0.07594666 -0.012604631 0.08483449 0.06891551 -0.044644535 0.134644
-0.015140456 0.111979075 0.12319588 0.01159266 0.050823696 -0.027890062 -0.0673261 -0.027034149
0.07855694 -0.07259817 -0.057041433 -0.114213094 -0.06562643 -0.047170997 -0.04023726 0.11537729
00000000: a1af de3d 5f67 8c3d 5fd0 fa3c ca67 72bd
00000010: 3fd3 03bd 0aa8 773d 581a 733d afae ccbc
00000020: de65 d23d bde9 cb3b cd92 813d 79e9 25bd
00000030: 3d5e 043e 20bd fabb 93d3 f13d 98ed a43d
00000040: ceb1 4abd e97f 573d 8393 d5bd 461a b83d
00000050: 02cc 8b3d e1e9 2bbd 81ce 0f3e a124 9ebd
00000060: 698a 003d e64f bc3d b69e a7bc 1256 ac3d
00000070: c5e2 cabd 13e4 d93d ae60 ffbc 957b 52bd
00000080: fd23 413b 1146 fbbc 94f8 c83d 002b 41bd
00000090: d88d 423d cb8d 80bc 2d24 53bd 6309 dfbd
000000a0: 042b 8a3d 5edd 903d 2c6f c5bd 2e83 a63d
000000b0: abea 3e3d a2d5 aa3d 9b15 48bc 89eb 82bc
000000c0: 0cf8 363d e31e 86bd b623 043e 8b42 a63c
000000d0: 58c5 4bbd cbb1 c83d cf63 e1bd 9843 e83d
000000e0: f3b9 febd c067 9bbb 4af3 5ebc 605b 1c3d
000000f0: a434 883d 7575 abbd ee97 1ebd 99f5 a73c
00000100: c053 3b3c 07af e2bd e4f7 c3bd b075 04be
00000110: 0245 8abd 794d 92bd 0e7b d13d 1ca3 7a3d
00000120: ceeb e9bd f6d8 c33d dede 613d 9459 a33c
00000130: 6d46 6b3d ca9f 9fbc baea adbd 0521 8e3a
00000140: 3c69 bfbd 36c6 19bd 7dff f83d 9e5b 41bd
00000150: 33c1 ca3d 5975 d1bd d8f3 a6bd 2183 cf3d
00000160: 56d3 023d fcfd 543d a317 39bd 0030 31bd
00000170: 01e9 16bd 9c9b 35bd e492 593d 7eef abbd
00000180: 24d4 783d 7d81 c73c 1919 883c a19a dc3d
00000190: 4ac8 82bd aa4f 0c3e a058 b0bc 5cad 58bd
000001a0: ac4e 5dbd ffba 903d 2d0b 98bd cf03 c3bd
000001b0: b4dc b9bd ce60 a03d e215 b7bd 9855 bebd
000001c0: 43ea d53d 7039 21bd ad51 8a3d f10b 9b3d
000001d0: ed8c 8b3d 8e4e db3d ebff 1f3d 17aa 673c
000001e0: e694 43bd 0caa ffbc 5ec7 c33d 5561 c43d
000001f0: 6b7e dbbd 1628 993d d81c 2c3d ee96 693d
00000200: 3429 633d 448d ba3d e0eb 003d 7b1c 653c
00000210: 0eb9 e4bc c64d 293d 81a8 ed3b e3d2 533d
00000220: d0cd 05bc 9e25 113e 8538 e93d eeda cb3d
00000230: 680b efbc c48d 02be 7a63 f23c 6e03 c939
00000240: c88d adbd 75cb 82bd 7364 533d b60e 14be
00000250: 2412 c73c ae07 c43d 7dc1 d9bd f95e 8ebd
00000260: 6532 003e cd2c ec3d 2a35 6b3d bcbe 593c
00000270: 25b4 2e3d 6119 15bd 54da cd3d ede8 ea3c
00000280: b0fb c6bd e752 873d 186d 54bc a796 60bc
00000290: 2108 ba3d 7b6f 8abc 4334 27bc 9a3a ca3c
000002a0: 66d7 b13d 7b25 053d 735d d3bc c053 89bd
000002b0: 4e55 02be daae edbd a7a5 bc3c 235c 023e
000002c0: a1df 69bd 3b5f 033d de56 10be 8342 5ebc
000002d0: d25c 0cbd 300a 093e 0ac8 8b3c 23db 8e3d
000002e0: 4f84 223b c96d 8fbb dbf5 b2bd a756 89bd
000002f0: 17af 53bd 3a25 ff3d c6b6 a8bd ca21 aebd
00000300: 373a 203d cac0 043e 4e8a 813d 8845 a2bd
00000310: 14e9 093e 4935 86bd dcf2 3fbc 31c5 debd
00000320: 03a4 8bbd ce8f 413d de70 a03d d3fc dbbd
00000330: de66 b8bc 6913 4c3d 6020 e03c 27c3 d83d
00000340: b75b 363c fcbf d63d 9903 39bd 5c18 743d
00000350: c2f7 7abd 6a26 78bd 7e0c 043e c7de 97bd
00000360: e902 5a3d 79bd 7b3d a214 ddbd 4e7f b8bd
00000370: 5393 96bd b636 6fbd 82a0 4ebd bd08 62bc
00000380: 44ea b63d b9bb 843d cbe8 0fbd 49b5 0cbd
00000390: 3f34 21bd 851c d43d f875 afbd b066 43bd
000003a0: 2eb1 7b3d b7cd 223d ec89 9b3d a783 4ebc
000003b0: b5bd ad3d 9323 8d3d 30dd 36bd 1ee0 093e
000003c0: ad0f 78bc 4955 e53d 1f4e fc3d 24ef 3d3c
000003d0: 822c 503d b379 e4bc 44e2 89bd b876 ddbc
000003e0: 76e2 a03d 59ae 94bd 47a4 69bd 8ee8 e9bd
000003f0: 2667 86bd 6036 41bd d3cf 24bd ee4a ec3d
