src/Backend-Information/Clod-weather_predict/Yunnan_lstm_model.pth (torch, 208379 bytes, 11 tensors)

lstm.weight_ih_l0 f4 [256, 3]
0.06463138 -0.12996064 0.017992754 -0.038660176 0.03680541 0.10843117 -0.077454425 -0.0008069083
0.017948639 -0.07107165 0.07021982 -0.09459986 -0.017785795 -0.04722069 -0.1062052 0.006562162
0.0009078472 0.0098596485 0.044827 -0.022447584 -0.008477361 -0.047465414 0.051528398 -0.013469965
0.050410483 0.04777983 0.025557399 0.06499519 -0.051748384 -0.08398006 0.051690888 0.052391727
0.07837228 -0.036614437 0.061866965 0.08287324 0.05212437 0.029825373 0.009155617 -0.08067367
-0.076584615 -0.091640525 -0.052494165 0.11035139 0.077812456 -0.07810781 -0.064769864 0.035137866
-0.0965408 0.085911 0.036481977 0.086654775 0.11026101 -0.0478296 -0.0025911243 -0.15064819
0.11812596 0.000957019 0.08526305 0.012965785 0.0249164 0.14421798 0.026218925 0.06873596
0.056500923 0.08312335 -0.07258101 0.016689347 -0.010506094 0.0009890839 -0.08415614 0.13187039
0.05279614 0.0998177 0.0840796 0.06776476 0.056585714 -0.10480116 0.02032044 -0.08909141
-0.06408176 -0.01795957 0.053921092 0.15496445 0.016167272 0.021035597 0.05092738 -0.051469672
0.03288081 -0.08138123 0.012106512 -0.025668241 -0.08095344 -0.057723586 0.014563762 -0.067572735
0.14776483 0.017978048 0.060311448 -0.018950215 -0.0035498934 -0.09773476 0.044074956 0.10720815
0.09744071 0.025780464 0.070026405 0.11805173 0.048662342 0.06599681 -0.056818534 -0.12659216
0.07630993 0.04509444 0.1284535 -0.04116996 -0.090627044 -0.045740444 0.020884087 0.0349987
-0.022997743 -0.04065879 0.0895334 0.0041724336 0.11659933 -0.12588346 -0.1457017 -0.02310962
-0.07720455 0.041990686 0.063691825 -0.11125858 0.017692475 -0.12701063 0.027183801 0.02260892
0.055960894 0.09249922 0.047908314 -0.03630274 -0.04626557 -0.030287672 0.07104666 0.08224391
0.08102728 -0.0109280255 -0.031037133 -4.466516e-05 -0.08686364 0.0035062074 -0.064297006 0.006930427
-0.033762448 0.06288148 0.1575114 0.014440446 -0.017071567 -0.003984192 0.012752985 -0.053186186
-0.013199563 -0.08215865 -0.08498342 0.10273734 0.032053027 0.088776976 -0.07143242 -0.039942265
-0.004251334 0.14495328 -0.03062027 0.16260135 0.13501567 -0.07670078 -0.13509877 -0.043207597
0.09252027 -0.10216959 -0.11813201 -0.023757536 -0.0954477 -0.0073551172 -0.010397659 -0.08040055
0.14790085 -0.07801412 0.0016197523 -0.051790122 0.068830736 -0.10038844 0.008005051 -0.1274518
0.009723226 -0.11884964 0.0050623966 -0.09191083 -0.083285555 0.026436616 0.08774448 0.050989833
0.02839412 0.072612196 0.008692728 -0.13416305 -0.049628858 0.11487403 -0.12732464 0.04080371
0.048220232 -0.016772278 0.0534648 0.14318356 -0.12706296 0.15213422 0.028722592 -0.12619466
-0.07819889 0.015005881 -0.03896929 0.046130273 -0.15359034 -0.08156881 -0.018616877 -0.0033925679
-0.013555278 -0.03129539 0.12878941 -0.07408687 0.09178872 -0.03706803 0.06493416 -0.058270913
-0.027742473 -0.14314869 0.10631913 0.14280365 0.06876552 -0.014485892 -0.0877861 0.082926825
0.01584265 -0.022803212 -0.06608701 0.0565803 0.10379682 -0.07602766 0.040294092 -0.054390028
-0.07007131 -0.0504071 0.004149791 0.05651346 0.102261506 0.06607809 0.034373656 0.09492776
00000000: 755d 843d 6714 05be 8a65 933c 225a 1ebd
00000010: 45c1 163d 2911 de3d 6da0 9ebd b386 53ba
00000020: 0609 933c 038e 91bd 69cf 8f3d 92bd c1bd
00000030: 84b3 91bc 7b6a 41bd 1d82 d9bd 6807 d73b
00000040: 98fc 6d3a 5d8a 213c 849c 373d ffe3 b7bc
00000050: a1e4 0abc 186b 42bd 710f 533d 21b1 5cbc
00000060: 397b 4e3d c8b4 433d c05d d13c 331c 853d
00000070: 1df6 53bd bdfd abbd d3b9 533d b598 563d
00000080: a581 a03d 05f9 15bd 3768 7d3d 72b9 a93d
00000090: 5d80 553d 5754 f43c 7101 163c 3d38 a5bd
000000a0: 65d8 9cbd 07ae bbbd 1f04 57bd e9ff e13d
000000b0: 235c 9f3d fdf6 9fbd 10a6 84bd b9ec 0f3d
000000c0: 2fb7 c5bd 1bf2 af3d 206e 153d 0f78 b13d
000000d0: 86d0 e13d f8e8 43bd dacf 29bb 8543 1abe
000000e0: 06ec f13d 75e0 7a3a 659e ae3d 726e 543c
000000f0: 7a1d cc3c e1ad 133e 12c9 d63c 70c5 8c3d
00000100: 836d 673d 933c aa3d 5aa5 94bd 19b8 883c
00000110: c121 2cbc 26a4 813a 0e5a acbd 0809 073e
00000120: c440 583d 396d cc3d ed31 ac3d 40c8 8a3d
00000130: 6cc6 673d fea1 d6bd 0d77 a63c 8f75 b6bd
00000140: 4c3d 83bd f31f 93bc 5ddc 5c3d 00af 1e3e
00000150: 3a71 843c d852 ac3c 3a99 503d ddd1 52bd
00000160: 07ae 063d 34ab a6bd 645a 463c 3446 d2bc
00000170: ebca a5bd 916f 6cbd d89c 6e3c 9363 8abd
00000180: aa4f 173e b346 933c 2309 773d 7b3d 9bbc
00000190: 54a5 68bb 2929 c8bd f187 343d f28f db3d
000001a0: ff8e c73d 8d31 d33c 016a 8f3d 1bc5 f13d
000001b0: 2a52 473d 5629 873d 8dba 68bd 60a1 01be
000001c0: 6148 9c3d f3b4 383d 5089 033e d5a1 28bd
000001d0: ac9a b9bd 555a 3bbd 1b15 ab3c cc5a 0f3d
000001e0: c365 bcbc d589 26bd 4a5d b73d e9b8 883b
000001f0: a1cb ee3d 98e7 00be d432 15be 6350 bdbc
00000200: 6b1d 9ebd 6dfe 2b3d dc70 823d 8adb e3bd
00000210: cfef 903c 130f 02be 90b0 de3c 5736 b93c
00000220: 4037 653d 3b70 bd3d 823b 443d 2fb2 14bd
00000230: f780 3dbd da1d f8bc e980 913d 7f6f a83d
00000240: a1f1 a53d 760b 33bc 9641 febc da56 3bb8
00000250: 90e5 b1bd 66c8 653b 26ae 83bd a318 e33b
00000260: 7e4a 0abd 01c8 803d ab4a 213e 9f97 6c3c
00000270: acd9 8bbc d38d 82bb e5f1 503c c2d9 59bd
00000280: fb42 58bc cb42 a8bd ca0b aebd f467 d23d
00000290: 094a 033d b4d0 b53d 294b 92bd 809a 23bd
000002a0: c64e 8bbb a26e 143e 5cd7 fabc f880 263e
000002b0: 8c41 0a3e 4c15 9dbd 5557 0abe 73fa 30bd
000002c0: 447b bd3d 4a3e d1bd 32ef f1bd 2a9f c2bc
000002d0: 157a c3bd 3203 f1bb f15a 2abc 0ba9 a4bd
000002e0: 5273 173e dec5 9fbd de4d d43a e121 54bd
000002f0: 21f7 8c3d 7498 cdbd 9e27 033c ba82 02be
00000300: 2a4e 1f3c 7167 f3bd 76e2 a53b bf3b bcbd
00000310: 9e91 aabd 9a91 d83c 61b3 b33d b7da 503d
00000320: c99a e83c b4b5 943d f26b 0e3c 0a62 09be
00000330: a147 4bbd 1343 eb3d 6461 02be cb21 273d
00000340: 9482 453d 0466 89bc e8fd 5a3d b69e 123e
00000350: cb1c 02be 13c9 1b3e a44b eb3c 2c39 01be
00000360: bd26 a0bd 3adb 753c 439e 1fbd 19f3 3c3d
00000370: c946 1dbe 8c0d a7bd 6c82 98bc d855 5ebb
00000380: f516 5ebc 982f 00bd 5fe1 033e dbba 97bd
00000390: b9fb bb3d a6d4 17bd 33fc 843d 7bad 6ebd
000003a0: 2f44 e3bc 9295 12be d8bd d93d 1f3b 123e
000003b0: f0d4 8c3d 3c56 6dbc 33c9 b3bd 8ad5 a93d
000003c0: 72c8 813c cdcd babc a058 87bd bfc0 673d
000003d0: 6d93 d43d 64b4 9bbd 6b0b 253d 14c8 5ebd
000003e0: 8c81 8fbd ad77 4ebd f8fa 873b a87a 673d
000003f0: 7b6e d13d f353 873d 64cb 0c3d 7c69 c23d

lstm.weight_hh_l0 f4 [256, 64]
0.1619011 -0.031057118 -0.098907724 -0.010713164 -0.010173185 -0.15715285 0.12234574 0.14316574
-0.00089936407 0.09191701 0.0028258848 0.038254056 0.021088364 -0.05681272 -0.078500874 0.039477367
0.028747957 0.13108322 0.10605792 -0.16357493 -0.07039064 -0.0641126 -0.16042845 -0.07617731
-0.063175514 0.024725668 0.12650168 0.123788565 -0.0067627593 0.021300219 -0.13866347 -0.10092073
0.064002134 -0.100806154 -0.054036446 -0.071464375 -0.058937628 -0.12744002 0.14247428 0.12774293
0.010592805 -0.054905098 -0.14278802 0.024726685 -0.0080375625 -0.08912067 0.0031447695 -0.035197534
0.0051045776 -0.07830446 0.05007943 0.058472447 -0.022850078 -0.02066804 0.02399599 0.001082784
-0.0328867 0.048122972 0.0035831404 0.077003755 0.099766634 0.045835506 0.07296353 0.04389384
0.116622284 -0.06823365 -0.029633082 0.14028573 -0.15124796 -0.037261467 -0.02884022 -0.1642997
0.048395228 -0.13651611 -0.16771606 0.08652614 0.050695766 0.03792974 -0.059714224 -0.022258248
-0.10943328 -0.064126365 -0.044756033 -0.06280986 0.044684205 -0.018077213 -0.043991663 0.013325765
-0.001946144 -0.075366125 -0.07097817 -0.0761758 0.08748421 -0.06449749 -0.06466489 -0.079278715
-0.057196703 -0.023997242 0.061603148 -0.0030583404 0.007867377 -0.021780014 -0.17546815 -0.04099741
0.047929365 0.035578523 0.124209076 0.16886088 0.0617056 0.08121715 0.02412357 0.06776603
-0.009380776 -0.13398995 -0.059894033 0.060908422 0.045452893 0.13170625 -0.11142438 -0.067032434
-0.07438287 0.057726104 0.11434791 0.09919402 0.100188956 -0.0013067833 -0.093229204 0.009022507
0.020648846 -0.12729828 -0.019532206 0.03801064 0.06686232 -0.006916251 -0.035308704 -0.07732635
0.056532566 0.13576551 0.04775212 0.033871364 -0.12390176 0.077873915 -0.12505831 0.007327662
-0.07481101 -0.06016857 -0.11072313 -0.011432244 0.10963559 0.12747146 0.06196539 0.08753093
-0.12015293 -0.15135764 0.033086084 -0.13060367 -0.06772584 0.09122241 -0.036941715 -0.07137176
-0.031288702 0.16705483 -0.13419794 -0.04240568 0.050732438 -0.028594907 -0.10322466 -0.14657488
0.103236124 -0.026692683 0.07611066 0.02001293 0.08942741 0.033562783 -0.034603417 -0.12810983
-0.13714255 -0.1358567 0.048097823 0.008695545 -0.12455865 -0.03020047 -0.13245386 0.12961906
0.16261601 -0.0781106 0.03024608 -0.008501043 0.14589484 -0.0701973 0.06367634 -0.121948056
0.1617807 0.07372364 -0.07238708 -0.036550205 -0.068568364 0.012148922 -0.07219533 -0.13035151
-0.009460423 0.08844489 0.048980515 0.11294582 -0.00025554636 0.030600747 -0.16402294 -0.08680953
-0.019470345 -0.06990772 0.0500439 0.0069321096 0.109380476 0.0980481 -0.08255501 0.05216728
-0.07722609 -0.110793665 -0.031528186 -0.008248657 0.055229615 -0.048528057 0.04309166 -0.03529121
-0.14835861 0.06696875 -0.010619163 -0.06661106 -0.10423037 0.16138259 -0.11753504 -0.074566096
-0.004404694 -0.026882926 -0.07993761 0.0065204706 0.14432062 0.14370298 -0.014850851 0.06396328
-0.105397515 0.06346791 0.054797154 -0.0054414654 0.0152247865 0.009344878 0.019497417 0.0076351156
0.13846967 -0.11202666 0.04365586 0.0063448073 0.11618307 0.05952096 -0.1689769 -0.08765098
00000000: 67c9 253e 7f6b febc 2290 cabd 4486 2fbc
00000010: 6ead 26bc adec 20be 6790 fa3d 0a9a 123e
00000020: 4dc3 6bba fc3e bc3d 7b32 393b 49b0 1c3d
00000030: 81c1 ac3c 74b4 68bd 11c5 a0bd 05b3 213d
00000040: d680 eb3c ae3a 063e e534 d93d 3080 27be
00000050: f828 90bd 784d 83bd 5b47 24be d902 9cbd
00000060: 2a62 81bd 7c8d ca3c a889 013e dc84 fd3d
00000070: 239a ddbb cc7d ae3c ccfd 0dbe 87af cebd
00000080: 8d13 833d 7573 cebd 5255 5dbd ea5b 92bd
00000090: 9568 71bd a37f 02be c7e4 113e 0bcf 023e
000000a0: 728d 2d3c 2be4 60bd 0637 12be 9e8f ca3c
000000b0: fbaf 03bc e684 b6bd 7a18 4e3b 4a2b 10bd
000000c0: 4d44 a73b 175e a0bd 1720 4d3d ce80 6f3d
000000d0: 1630 bbbc 0550 a9bc 3d93 c43c 34ec 8d3a
000000e0: 34b4 06bd 981c 453d 1fd3 6a3b 25b4 9d3d
000000f0: 7352 cc3d 03be 3b3d e76d 953d 07ca 333d
00000100: aad7 ee3d 15be 8bbd 14c1 f2bc 10a7 0f3e
00000110: bfe0 1abe 7b9f 18bd 5342 ecbc 2e3e 28be
00000120: 133a 463d e1ca 0bbe c2bd 2bbe 9e34 b13d
00000130: 5da6 4f3d 375c 1b3d e796 74bd ee56 b6bc
00000140: 8e1e e0bd af54 83bd 1a52 37bd 75a2 80bd
00000150: c906 373d aa16 94bc 9a30 34bd 4f54 5a3c
00000160: c215 ffba 8e59 9abd 015d 91bd 0f02 9cbd
00000170: ec2a b33d 4317 84bd 076f 84bd e15c a2bd
00000180: 1747 6abd dd95 c4bc 9553 7c3d 706e 48bb
00000190: 2ce6 003c 006c b2bc ecad 33be e6ec 27bd
000001a0: 9551 443d c9ba 113d 5461 fe3d dee9 2c3e
000001b0: 03bf 7c3d 2d55 a63d cb9e c53c ebc8 8a3d
000001c0: d4b1 19bc a934 09be 7253 75bd 1c7b 793d
000001d0: d02c 3a3d 01de 063e 7732 e4bd 4d48 89bd
000001e0: 0c56 98bd 3572 6c3d 3d2f ea3d 3c26 cb3d
000001f0: de2f cd3d 5f48 abba f4ee bebd 23d3 133c
00000200: c527 a93c 7b5a 02be 0102 a0bc 0bb1 1b3d
00000210: 1def 883d b8a1 e2bb dc9f 10bd 475d 9ebd
00000220: b18e 673d 1d06 0b3e ba97 433d b3bc 0a3d
00000230: 35c0 fdbd 5c7c 9f3d 490f 00be e21c f03b
00000240: 8436 99bd 5273 76bd cfc2 e2bd 4f4e 3bbc
00000250: a088 e03d e187 023e 6ccf 7d3d 6b43 b33d
00000260: bd12 f6bd 7ffd 1abe 4685 073d f8bc 05be
00000270: d8b3 8abd d1d2 ba3d 3250 17bd 5b2b 92bd
00000280: 9528 00bd 6c10 2b3e 2f6b 09be 94b1 2dbd
00000290: d1cc 4f3d de3f eabc 7367 d3bd ba17 16be
000002a0: 766d d33d 9daa dabc e8df 9b3d 28f2 a33c
000002b0: b825 b73d 2179 093d 50bc 0dbd 392f 03be
000002c0: 196f 0cbe 051e 0bbe 3902 453d c277 0e3c
000002d0: 9b18 ffbd fa66 f7bc fca1 07be dcba 043e
000002e0: d084 263e 73f8 9fbd a1c6 f73c f547 0bbc
000002f0: 7565 153e 9ac3 8fbd be68 823d e7bf f9bd
00000300: d7a9 253e 6bfc 963d ad3f 94bd abb5 15bd
00000310: 926d 8cbd 460c 473c 25db 93bd de7a 05be
00000320: e4ff 1abc 9822 b53d cb9f 483d 2350 e73d
00000330: dafa 85b9 6bae fa3c a1f5 27be 32c9 b1bd
00000340: 4680 9fbc c72b 8fbd d5fa 4c3d c026 e33b
00000350: df02 e03d 71cd c83d 9a12 a9bd 5cad 553d
00000360: b628 9ebd cae7 e2bd b323 01bd 6025 07bc
00000370: 7338 623d 5bc5 46bd e180 303d 848d 10bd
00000380: 52eb 17be e926 893d fffb 2dbc 616b 88bd
00000390: bb76 d5bd 7a41 253e 36b6 f0bd 1cb6 98bd
000003a0: 4055 90bb 9539 dcbc 54b6 a3bd aca9 d53b
000003b0: c9c8 133e e026 133e fc50 73bc 2eff 823d
000003c0: a7da d7bd 77fb 813d fb72 603d 524e b2bb
000003d0: 6271 793c 421b 193c 0cb9 9f3c fe2f fa3b
000003e0: feca 0d3e 3c6e e5bd 7dd0 323d 1ae8 cf3b
000003f0: 64f1 ed3d 40cc 733d 4808 2dbe 5b82 b3bd

lstm.bias_ih_l0 f4 [256]
0.003590877 0.083838336 0.14256454 -0.012605322 -0.01284155 -0.12069718 0.12322352 0.029136067
-0.07786825 -0.057291284 -0.080043696 0.10879728 0.085364185 -0.0312891 -0.0198947 0.027847705
0.13321725 0.018920397 -0.09154714 -0.06765593 0.07389421 0.094380885 0.087198615 -0.06584508
0.11857741 -0.014098585 0.104178436 -0.0047471817 0.14956614 -0.043982625 0.0037769284 -0.047174178
-0.054714214 0.06021883 0.023229524 0.005276191 -0.04854469 -0.0394363 0.15117052 0.12054236
0.04275327 0.0056223 -0.029833876 -0.018026108 0.1506 0.074045755 -0.055016194 0.1109915
-0.040546756 0.10811427 0.14667864 0.0042923214 0.058625627 0.10435157 0.08954137 -0.046951704
0.015200044 0.00868157 0.073486865 -0.030990219 -0.056582816 0.07381425 0.120001614 0.12819394
0.032277957 0.116997406 0.014736278 -0.04507737 0.10274694 0.09239456 0.11918088 0.1203647
0.048483707 0.12752266 -0.02961402 0.09742172 -0.013447257 -0.006303503 0.13374346 -0.05824622
-0.002494662 -0.05446608 -0.0123231085 0.0058589494 0.06713389 -0.00823094 -0.00961432 0.118861385
0.11466242 0.071988255 0.0027220452 0.14014122 0.11954184 0.087549396 -0.041457128 0.054393195
0.06576059 -0.004714589 0.05556812 -0.04038934 0.07186837 0.109275244 -0.07077956 -0.025610588
0.052217327 -0.08077469 0.064958885 0.0062511736 0.067064725 0.120101154 -0.041031945 0.058978006
0.05359642 0.1357427 0.146478 -0.098167576 0.1082065 -0.03133898 0.07370598 0.13259691
-0.008406496 0.05886652 -0.06454728 0.12358321 0.06590941 -0.045269728 0.043547325 -0.05189761
0.009503325 0.08908405 0.056461792 0.04558305 -0.010194688 -0.1323724 0.12326478 -0.007888309
-0.07861552 0.03902354 -0.09608739 0.02647029 -0.021077543 -0.041250102 -0.065013364 -0.00071889895
-0.006307468 0.02764057 0.057833675 0.003378124 0.10803139 0.071967036 -0.12502275 -0.09736808
-0.12291174 -0.13122834 0.09265389 -0.036111653 0.0799114 0.069666445 0.052402217 0.00888628
-0.05390647 0.036664564 -0.006704717 0.021098565 -0.056661364 0.069278836 -0.0066067097 0.081092566
-0.044485964 0.06804245 0.05663909 0.058454063 0.018912679 0.07655145 0.025374541 0.022109779
0.024324043 -0.08719788 -0.005017995 -0.11579601 -0.02981043 -0.10074574 0.059268102 0.104044415
0.01435154 -0.097645044 0.12445398 0.11658106 0.027080541 -0.067749076 -0.110014826 -0.03391974
0.017398046 0.07512713 0.0674215 0.15129267 -0.047691427 0.07022823 0.09068748 0.0053826426
-0.085803345 -0.023553835 0.04864075 0.14735413 -0.06844259 0.013837263 -0.006576123 -0.08971035
-0.039886817 -0.040061917 0.06796886 -0.039669503 0.03846089 0.08981264 0.09912106 0.12997898
-0.07049638 0.080101274 0.09268124 0.0040801493 0.03503411 0.017728513 -0.046690926 -0.028508866
0.013827822 0.15941487 0.03800869 0.14329809 -0.036031418 -0.074897304 0.015727475 -0.06606865
-0.07530725 0.032174014 0.13652112 -0.078519516 0.00021490722 0.14934976 -0.008286305 -0.07445507
0.006449568 -0.078616835 0.13232046 0.050372273 0.042383086 0.010013891 0.020889245 0.09257631
-0.011137549 0.08401874 0.070561945 -0.0065528112 -0.03143332 0.00739383 0.15360841 0.056292824
00000000: eb54 6b3b 6fb3 ab3d 70fc 113e 8d86 4ebc
00000010: 5d65 52bc 1530 f7bd 9d5c fc3d c3ae ee3c
00000020: 6479 9fbd 44aa 6abd f3ed a3bd 1cd1 de3d
00000030: 6bd3 ae3d 0029 00bd 36fa a2bc df20 e43c
00000040: 1a6a 083e f3fe 9a3c 117d bbbd 318f 8abd
00000050: d955 973d c44a c13d 3095 b23d c9d9 86bd
00000060: b7d8 f23d c0fd 66bc 815b d53d 3f8e 9bbb
00000070: de27 193e 2027 34bd 5886 773b b639 41bd
00000080: 031c 60bd 05a8 763d d84b be3c e6e3 ac3b
00000090: ccd6 46bd f587 21bd 72cc 1a3e eade f63d
000000a0: 0e1e 2f3d 453b b83b 2c66 f4bc 7dab 93bc
000000b0: e336 1a3e 4da5 973d a958 61bd 834f e33d
000000c0: 5b14 26bd 046b dd3d ed32 163e 9aa6 8c3b
000000d0: 6d21 703d 47b6 d53d 7761 b73d 6e50 40bd
000000e0: 9b09 793c 253d 0e3c 4880 963d 33df fdbc
000000f0: 62c3 67bd ed2b 973d 68c3 f53d 4645 033e
00000100: e435 043d 569c ef3d 6e70 713c 0ca3 38bd
00000110: fd6c d23d 5c39 bd3d 1b15 f43d c581 f63d
00000120: da96 463d 4d95 023e 1a99 f2bc 0a85 c73d
00000130: e251 5cbc 9e8d cebb 0cf4 083e 9793 6ebd
00000140: 7c7d 23bb d317 5fbd dde6 49bc 6efc bf3b
00000150: 7e7d 893d 11db 06bc 6185 1dbc 996d f33d
00000160: 21d4 ea3d 946e 933d 5764 323b 2e81 0f3e
00000170: 5ad2 f43d 194d b33d f3ce 29bd 66cb 5e3d
00000180: 7dad 863d d77c 9abb 669b 633d 4b6f 25bd
00000190: b92f 933d b3cb df3d e0f4 90bd 4ccd d1bc
000001a0: d6e1 553d 336d a5bd 2a09 853d a5d6 cc3b
000001b0: 3b59 893d 98f7 f53d 1d11 28bd ec92 713d
000001c0: eb87 5b3d 2200 0b3e 54fe 153e 150c c9bd
000001d0: 5f9b dd3d 4d5d 00bd 29f3 963d 7cc7 073e
000001e0: 66bb 09bc 051e 713d 5d31 84bd 3219 fd3d
000001f0: 83fb 863d c06c 39bd ae5e 323d 9792 54bd
00000200: d6b3 1b3c b371 b63d 7b44 673d 4bb5 3a3d
00000210: 9f07 27bc a18c 07be 3f72 fc3d f73d 01bc
00000220: 2c01 a1bd 26d7 1f3d 77c9 c4bd 39d8 d83c
00000230: d0aa acbc def5 28bd ba25 85bd 7e74 3cba
00000240: e0ae cebb 7a6e e23c 01e3 6c3d 8463 5d3b
00000250: 903f dd3d 7463 933d f705 00be ea68 c7bd
00000260: 26b9 fbbd b960 06be 53c1 bd3d d0e9 13bd
00000270: 97a8 a33d 48ad 8e3d b5a3 563d c297 113c
00000280: 08cd 5cbd 952d 163d 3eb3 dbbb e6d6 ac3c
00000290: bf15 68bd 10e2 8d3d 197d d8bb dc13 a63d
000002a0: ea36 36bd d759 8b3d 64fe 673d 876d 6f3d
000002b0: c3ee 9a3c 02c7 9c3d 45de cf3c 911f b53c
000002c0: 3743 c73c cd94 b2bd fe6d a4bb 7526 edbd
000002d0: 0135 f4bc c853 cebd 1cc3 723d 3d15 d53d
000002e0: b922 6b3c 20fa c7bd bae1 fe3d 0dc2 ee3d
000002f0: 03d8 dd3c 07c0 8abd 744f e1bd 6def 0abd
00000300: 5986 8e3c 41dc 993d 4914 8a3d 77ec 1a3e
00000310: 1658 43bd d1d3 8f3d 5cba b93d e160 b03b
00000320: aab9 afbd f9f3 c0bc 863b 473d 00e4 163e
00000330: a12b 8cbd b0b5 623c 857c d7bb 0fba b7bd
00000340: 5c60 23bd f717 24bd 4233 8b3d 7d7c 22bd
00000350: 2b89 1d3d b0ef b73d fbff ca3d 3619 053e
00000360: 6860 90bd 230c a43d a9cf bd3d c6b2 853b
00000370: ed7f 0f3d 633b 913c fc3e 3fbd 6d8b e9bc
00000380: 178e 623c a73d 233e 00af 1b3d bcbc 123e
00000390: ae95 13bd c263 99bd e8d6 803c 004f 87bd
000003a0: b03a 9abd e6c8 033d 31cc 0b3e d7ce a0bd
000003b0: b858 6139 25ef 183e 48c3 07bc e67b 98bd
000003c0: e656 d33b dd01 a1bd 047f 073e 2853 4e3d
000003d0: e399 2d3d 4e11 243c ec1f ab3c a698 bd3d
000003e0: 447a 36bc 0412 ac3d c882 903d f7b8 d6bb
000003f0: 3ac0 00bd f147 f23b 864b 1d3e 4e93 663d

lstm.bias_hh_l0 f4 [256]
0.09741102 -0.017752443 0.04054583 0.088284716 0.051206198 -0.031871315 -0.036474273 -0.0011227633
-0.06093381 0.06573679 0.08729418 -0.017309787 0.109124996 0.09995104 -0.014814685 0.08494921
-0.042306926 0.105970114 0.110193454 0.12987949 0.13149677 -0.0032496748 0.14205368 -0.039797068
0.11575741 0.09310441 0.10465098 -0.00273168 0.046302103 0.06592816 -0.073823586 0.04698231
0.11405798 0.123896606 0.060585216 0.04335766 0.014225287 0.05484263 0.09996452 0.030524265
0.1126374 0.05508185 -0.011025747 -0.014999203 0.13561814 -0.08039424 0.06446215 -0.067291595
0.007739161 -0.07632938 0.098227575 -0.066239305 0.03982327 0.03703873 -0.05715676 0.029507896
0.080545306 0.10241634 -0.048848886 0.16268371 -0.050717108 -0.09197096 -0.005815944 -0.013555618
0.142617 0.020248607 0.11305349 0.032075383 0.09626889 -0.030099766 -0.06508932 0.04340678
-0.08505335 0.15316178 0.14714497 0.109872855 0.10987628 0.1405554 0.033165067 -0.024289643
-0.08749021 0.042489998 0.08917473 -0.02358319 -0.0540659 0.048720833 0.025870759 -0.013765676
-0.033424836 -0.03865095 0.12812483 0.0060476707 0.118007734 -0.07168857 -0.03785571 -0.006934759
0.06287014 -0.050151292 0.14619297 0.05610941 0.08828666 0.094242595 0.033726733 -0.028228082
0.09117652 -0.035087388 0.05016406 0.038313996 -0.03571375 0.15310228 0.11397472 0.011109456
0.0642474 -0.05867302 -0.038144197 0.08257223 -0.004941695 0.08242881 0.121362045 0.16375633
0.00023359836 0.08309273 -0.046446774 -0.06404087 0.07765716 -0.06477678 0.11708693 0.064572975
0.09375468 -0.06148622 0.09805234 -0.072496 -0.114998735 -0.06611258 0.13417083 -0.011104515
-0.009913584 0.024072774 -0.04009211 0.0690355 -0.08087562 -0.07355606 -0.04372857 -0.022900786
-0.059598967 0.0005908045 -0.055481236 -0.1385825 0.06822097 0.10748739 0.039078254 0.066182345
-0.08342011 -0.12763308 0.03475585 0.05420747 -0.002520465 -0.05374644 0.058297448 0.012084532
-0.12615035 -0.08328555 0.08869962 0.00636358 -0.110227 -0.06307258 0.06810339 -0.011229387
0.011747937 0.10020125 -0.0072828913 0.10908267 -0.0024644542 0.011976062 0.11389441 0.055547226
-0.018164601 -0.014003341 0.14794676 -0.049057484 -0.012214598 0.14062469 -0.04483445 -0.118972205
0.0761057 -0.0745576 -0.079006806 0.05971661 0.10708903 -0.12874882 0.05158024 -0.0047838674
-0.049388375 0.0164772 0.001072466 0.08174498 -0.0641374 -0.12140229 -0.029405618 0.08722145
-0.00079751294 -0.06494533 0.086668484 -0.011888453 0.13168955 0.0049395165 0.021532351 -0.013603307
-0.06795033 0.11235328 0.12416958 -0.07300888 -0.096115895 0.07724893 0.040842235 0.10899489
-0.04570335 0.07271435 0.10905176 -0.030444942 0.13390426 -0.048308957 0.1622145 -0.0012749129
0.06817716 0.01711457 -0.036614843 -0.04407428 0.08067722 0.11523251 0.12915707 -0.029839989
0.083382644 -0.065519504 -0.03910015 0.121033244 0.07050795 -0.04987366 0.12738988 0.07180108
0.13339525 -0.019777708 0.013902335 -0.03789873 0.043429535 -0.02336088 0.09761323 0.011488396
-0.0696508 -0.08514635 0.0388032 0.16970491 0.019603392 0.07675225 0.11819103 0.10690356
00000000: 6e7f c73d 926d 91bc 6213 263d 9ece b43d
00000010: 97bd 513d 7f8b 02bd 0c66 15bd af29 93ba
00000020: bb95 79bd 03a1 863d 4bc7 b23d 41cd 8dbc
00000030: ed7c df3d 22b3 cc3d 4bb9 72bc daf9 ad3d
00000040: 074a 2dbd dc06 d93d 1bad e13d 21ff 043e
00000050: 17a7 063e 7ff8 54bb 8576 113e 4002 23bd
00000060: 3912 ed3d 86ad be3d 4153 d63d fc05 33bb
00000070: 46a7 3d3d 5805 873d d230 97bd 8670 403d
00000080: 3b97 e93d 81bd fd3d 3428 783d cd97 313d
00000090: 2e11 693c aaa2 603d 33ba cc3d 060e fa3c
000000a0: 70ae e63d 829d 613d 56a5 34bc 38bf 75bc
000000b0: 7bdf 0a3e bca5 a4bd bb04 843d 2dd0 89bd
000000c0: ca98 fd3b 9452 9cbd 8a2b c93d 79a8 87bd
000000d0: ba1d 233d ecb5 173d 351d 6abd 8bba f13c
000000e0: f0f4 a43d a8bf d13d c515 48bd 8f96 263e
000000f0: bebc 4fbd 455b bcbd ad93 bebb 6218 5ebc
00000100: 310a 123e 68e0 a53c 9788 e73d 7a61 033d
00000110: a028 c53d c993 f6bc 8d4d 85bd 4fcb 313d
00000120: 7330 aebd 71d6 1c3e 2cad 163e 0505 e13d
00000130: d106 e13d c1ed 0f3e 18d8 073d 13fb c6bc
00000140: 112e b3bd fe09 2e3d 3ea1 b63d 8931 c1bc
00000150: 3574 5dbd 7f8f 473d eaee d33c 6e89 61bc
00000160: 7be8 08bd 7550 1ebd 2833 033e 8a2b c63b
00000170: 0aae f13d 75d1 92bd 970e 1bbd fa3c e3bb
00000180: 0fc2 803d 716b 4dbd 9cb3 153e fbd2 653d
00000190: a3cf b43d 4302 c13d 0b25 0a3d 943e e7bc
000001a0: c1ba ba3d cbb7 0fbd d478 4d3d 23ef 1c3d
000001b0: 9548 12bd d8c6 1c3e 946b e93d 7004 363c
000001c0: 2494 833d 1f53 70bd 173d 1cbd a11b a93d
000001d0: f1ed a1bb 70d0 a83d aa8c f83d bdaf 273e
000001e0: 15f2 7439 852c aa3d f93e 3ebd dc27 83bd
000001f0: b80a 9f3d b0a9 84bd 46cb ef3d d63e 843d
00000200: 7402 c03d fad8 7bbd aacf c83d c878 94bd
00000210: 7584 ebbd 0866 87bd 1464 093e b6ef 35bc
00000220: 966c 22bc 4434 c53c a037 24bd 7c62 8d3d
00000230: 1ea2 a5bd 8fa4 96bd bb1c 33bd 6e9a bbbc
00000240: 0c1e 74bd 38e0 1a3a 4b40 63bd 92e8 0dbe
00000250: 70b7 8b3d 5922 dc3d 8510 203d 9c8a 873d
00000260: 2ad8 aabd 3fb2 02be 265c 0e3d a708 5e3d
00000270: 632e 25bb 3a25 5cbd 4ec9 6e3d 33fe 453c
00000280: 8f2d 01be 9d91 aabd 25a8 b53d 9485 d03b
00000290: b2be e1bd 322c 81bd ca79 8b3d 76fb 37bc
000002a0: 6b7a 403c 5036 cd3d 52a5 eebb bc66 df3d
000002b0: ae82 21bb 3f37 443c 7941 e93d 7d85 633d
000002c0: eecd 94bc 456e 65bc 5b7f 173e 80f0 48bd
000002d0: bd1f 48bc ebff 0f3e 54a4 37bd b3a7 f3bd
000002e0: 4edd 9b3d a8b1 98bd 52ce a1bd 6799 743d
000002f0: 7e51 db3d bbd6 03be cd45 533d fdc1 9cbb
00000300: 774b 4abd 31fb 863c fd91 8c3a e969 a73d
00000310: 785a 83bd c4a1 f8bd 0de4 f0bc 29a1 b23d
00000320: 3010 51ba 0f02 85bd 3f7f b13d c9c7 42bc
00000330: a0d9 063e abdb a13b 9d64 b03c 68e0 5ebc
00000340: 8b29 8bbd 7a19 e63d 9f4c fe3d ae85 95bd
00000350: 69d8 c4bd b034 9e3d 304a 273d b638 df3d
00000360: 7033 3bbd 43eb 943d 8756 df3d ac67 f9bc
00000370: 331e 093e 9ddf 45bd 8f1b 263e fa1a a7ba
00000380: 78a0 8b3d db33 8c3c 72f9 15bd 3b87 34bd
00000390: 193a a53d 06ff eb3d c041 043e fe72 f4bc
000003a0: 85c4 aa3d 172f 86bd 7b27 20bd 47e0 f73d
000003b0: 7966 903d 5348 4cbd 7e72 023e 720c 933d
000003c0: c498 083e dc04 a2bc 9fc6 633c b33b 1bbd
000003d0: 2be3 313d 515f bfbc 72e9 c73d d339 3c3c
000003e0: 14a5 8ebd 3661 aebd 1bf0 1e3d 20c7 2d3e
000003f0: 4b97 a03c 4930 9d3d 240e f23d 41f0 da3d

lstm.weight_ih_l1 f4 [256, 64]
-0.10864649 -0.14700142 -0.06643731 0.076351054 -0.13104863 0.085704796 0.0568265 -0.1319889
0.023376498 -0.09199077 0.027139235 0.026359841 0.009755247 -0.0052877483 -0.1632778 -0.03522875
0.032736726 -0.062333364 0.07522015 -0.13007447 0.05852147 0.1170528 -0.0002229553 -0.109330475
-0.007960511 -0.15379986 0.06056125 -0.062567726 0.07980159 0.13597846 0.05902787 0.09626825
-0.15392977 -0.07751017 -0.059110034 0.1479545 -0.0147401495 0.16078106 -0.139101 -0.00015670202
0.13776706 0.080541566 0.074923 -0.007879282 -0.17049205 0.16290085 -0.04716099 -0.015527314
-0.07805485 -0.078580596 0.05561288 -0.05444898 -0.016051454 -0.06230892 -0.035719886 0.13067418
0.07428728 -0.09664044 -0.093338326 -0.08301733 -0.04637573 -0.08820637 -0.109086916 0.06681146
-0.10078531 -0.0772693 0.09170973 0.119253635 -0.022847673 -0.10463431 -0.07407555 0.052952543
-0.00931083 -0.11226018 -0.05585057 -0.06695825 0.07882155 0.122281216 -0.11436349 0.049578346
0.098428786 0.085046716 0.04611843 -0.13845867 0.017094297 0.045032997 0.06107285 -0.16951267
0.09443573 0.081430815 0.051926784 0.01399243 0.02551477 -0.0666139 -0.08650489 -0.13355854
-0.09476058 -0.08331601 -0.15430874 0.08788732 -0.07791929 -0.112490505 0.023150288 0.0010552612
-0.030879343 -0.07683488 -0.008256361 -0.035358958 0.0021965422 -0.021269806 -0.058037065 -0.12722966
-0.09258196 -0.00036505976 -0.009594366 -0.01928884 0.061075985 0.026757449 0.085376464 0.09505957
0.008482356 -0.13874084 -0.040578287 0.06150043 -0.050482966 0.07555617 0.07286447 -0.1254623
0.04879062 -0.0868758 -0.07319748 -0.097597726 -0.050564993 -0.12301985 0.10609344 -0.017732589
0.12093605 -0.09849748 -0.020372 -0.038302857 0.015144603 -0.0036477041 -0.094902016 -0.010949553
-0.12491664 -0.0038420954 -0.032312594 -0.052263353 0.07777702 -0.05529203 0.03154965 0.009256494
0.025908532 -0.11781814 0.09109727 0.15574352 0.108387165 -0.09346069 -0.06618323 -0.14257722
0.05866671 -0.08273284 -0.053439096 0.063487865 0.040328816 -0.06689813 0.054265838 -0.02151879
0.14133862 0.09938895 0.07494558 0.063229345 0.048902456 0.0362596 -0.065947466 0.08043054
-0.020178773 -0.075163305 0.02036034 0.022265509 0.00904861 0.023187038 -0.010571064 0.11901887
0.053304885 0.01503539 0.12620543 -0.05414577 0.02766437 -0.09239992 0.031834193 -0.06430737
-0.08617855 -0.019389326 0.03447203 0.070872344 0.11985293 0.013585192 -0.020365821 0.09953528
0.06682117 0.12557752 -0.018855827 0.045858454 0.028572626 -0.04710624 0.08167081 0.02526962
-0.043674234 0.0809593 0.13300331 0.06290233 -0.037122656 0.100720845 -0.052101083 -0.09528178
0.055818316 0.11634388 -0.0727216 0.07120331 -0.12278435 -0.053128187 -0.04958372 -0.061253488
0.10004298 -0.006382298 -0.0023078988 -0.062514275 0.07897492 -0.08604783 0.04574063 0.08645777
0.11219984 -0.08869786 0.06379522 -0.03130936 -0.038742445 0.008775568 0.044866722 -0.07852162
-0.0018709883 -0.051048364 -0.060723342 0.048965134 0.10385288 0.14034446 0.02708623 0.08131063
0.029422987 0.078146376 -0.06288166 -0.025997251 0.08448736 -0.043251052 0.060507607 -0.09088185
00000000: 0d82 debd 8a87 16be 4910 88bd f15d 9c3d
00000010: 9d31 06be ff85 af3d e7c2 683d 1928 07be
00000020: 1280 bf3c a865 bcbd 1a53 de3c 98f0 d73c
00000030: 79d4 1f3c d944 adbb 4c32 27be 064c 10bd
00000040: f216 063d 4551 7fbd 060d 9a3d 3e32 05be
00000050: 35b4 6f3d 61b9 ef3d 1cc9 69b9 a8e8 dfbd
00000060: ce6c 02bc b67d 1dbe 130f 783d 8223 80bd
00000070: 046f a33d f03d 0b3e 35c7 713d 4a28 c53d
00000080: c49f 1dbe a7bd 9ebd 5d1d 72bd 6281 173e
00000090: ab80 71bc caa3 243e 7e70 0ebe 6150 24b9
000000a0: cf12 0d3e faf2 a43d 3b71 993d 1b18 01bc
000000b0: 7895 2ebe 7bcf 263e e22b 41bd 4666 7ebc
000000c0: 39db 9fbd ddee a0bd 55ca 633d e505 5fbd
000000d0: 577e 83bc a337 7fbd 044f 12bd 74cf 053e
000000e0: ee23 983d 6ceb c5bd 2a28 bfbd fd04 aabd
000000f0: 7af4 3dbd 8ba5 b4bd f668 dfbd 72d4 883d
00000100: 8768 cebd 5e3f 9ebd 50d2 bb3d 403b f43d
00000110: 0b2b bbbc 834a d6bd ecb4 97bd c4e4 583d
00000120: 748c 18bc aae8 e5bd 91c3 64bd 6821 89bd
00000130: 316d a13d 936e fa3d 6837 eabd aa12 4b3d
00000140: 0895 c93d f92c ae3d aee6 3c3d 1cc8 0dbe
00000150: 5709 8c3c 8574 383d 8627 7a3d bb94 2dbe
00000160: 8567 c13d 33c5 a63d 2eb1 543d 8140 653c
00000170: 5a04 d13c de6c 88bd 7a29 b1bd 92c3 08be
00000180: d611 c2bd 96a1 aabd 1c03 1ebe 44fe b33d
00000190: 2694 9fbd 6c61 e6bd aca5 bd3c b150 8a3a
000001a0: adf6 fcbc 9b5b 9dbd b045 07bc 8ed4 10bd
000001b0: ddf3 0f3b 043e aebc 46b8 6dbd 7e48 02be
000001c0: 9c9b bdbd 7e65 bfb9 b031 1dbc a103 9ebc
000001d0: d02a 7a3d 7032 db3c dbd9 ae3d 98ae c23d
000001e0: 94f9 0a3c 1412 0ebe 6b35 26bd e0e7 7b3d
000001f0: 3ac7 4ebd 31bd 9a3d f839 953d 3079 00be
00000200: acd8 473d f0eb b1bd 8fe8 95bd 51e1 c7bd
00000210: 3d1d 4fbd d5f1 fbbd 8447 d93d ef43 91bc
00000220: 52ad f73d 0cb9 c9bd 2ee3 a6bc 75e3 1cbd
00000230: 1221 783c 520e 6fbb fd5b c2bd c165 33bc
00000240: 4cd4 ffbd aacb 7bbb 365a 04bd 1912 56bd
00000250: 8f49 9f3d e579 62bd 353a 013d 8da8 173c
00000260: 213e d43c a34a f1bd 3591 ba3d 3b7b 1f3e
00000270: 17fa dd3d 5168 bfbd 138b 87bd c3ff 11be
00000280: 814c 703d d66f a9bd f4e2 5abd ed05 823d
00000290: d42f 253d e301 89bd db45 5e3d 2c48 b0bc
000002a0: 12bb 103e 6f8c cb3d 117d 993d 637e 813d
000002b0: f14d 483d f284 143d 770f 87bd c4b8 a43d
000002c0: f44d a5bc 38ef 99bd baca a63c 2866 b63c
000002d0: 9f40 143c bef2 bd3c 4232 2dbc 2ac0 f33d
000002e0: 3956 5a3d ff56 763c ff3b 013e f4c7 5dbd
000002f0: 64a0 e23c 2b3c bdbd 9264 023d 95b3 83bd
00000300: 617e b0bd 5dd6 9ebc 8b32 0d3d 8525 913d
00000310: 7475 f53d 6d94 5e3c 39d6 a6bc 27d9 cb3d
00000320: 8ad9 883d 6597 003e 8977 9abc 13d6 3b3d
00000330: 2411 ea3c 79f2 40bd 0743 a73d 3c02 cf3c
00000340: c1e3 32bd fdcd a53d 0532 083e f0d2 803d
00000350: ed0d 18bd bb46 ce3d f267 55bd 1823 c3bd
00000360: bfa1 643d b345 ee3d 10ef 94bd 0ad3 913d
00000370: 5c76 fbbd f19c 59bd 4c18 4bbd f0e4 7abd
00000380: 55e3 cc3d 9922 d1bb 1e40 17bb 7c07 80bd
00000390: 9abd a13d d839 b0bd 875a 3b3d c510 b13d
000003a0: 08c9 e53d 39a7 b5bd 11a7 823d 3e3e 00bd
000003b0: 66b0 1ebd 66c7 0f3c 2bc6 373d f1cf a0bd
000003c0: f33b f5ba 1718 51bd 0ab9 78bd aa8f 483d
000003d0: d2b0 d43d 75b6 0f3e f1e3 dd3c 3086 a63d
000003e0: 7a08 f13c 350b a03d 1ac8 80bd 30f8 d4bc
000003f0: b607 ad3d 0428 31bd d3d6 773d 4320 babd

lstm.weight_hh_l1 f4 [256, 64]
0.16542417 0.062193062 0.082877845 -0.005854502 -0.051392622 0.064121 0.0035927093 -0.14757337
0.08763688 -0.09900645 -0.062360674 0.08438223 0.008111328 -0.054775544 -0.15035409 -0.16299047
-0.14155288 -0.046034 -0.06270538 0.00038159842 -0.07662134 0.121244945 -0.08119851 0.03834854
-0.052830476 0.042554863 -0.080079146 -0.072334595 -0.089944534 -0.08738561 -0.05388832 0.06946211
0.08437516 -0.07898104 0.14700276 0.06750337 -0.0282369 -0.07904979 -0.003295449 0.028384268
-0.08970045 -0.056224592 0.09448904 0.0028791607 -0.08429913 -0.014903676 0.050534543 0.10623293
-0.07882016 -0.07060773 -0.018504508 -0.09636528 0.035630897 0.12645698 -0.09656885 -0.14799339
-0.068527594 -0.059489436 -0.08058591 -0.039960504 0.016539272 0.041515827 -0.13980845 0.11461744
0.14406325 -0.053827256 -0.14173894 -0.05796009 0.11191277 0.16414568 -0.05681603 -0.063001074
-0.09918465 -0.07145261 -0.024125138 0.071167834 0.1714875 -0.0792957 0.06214113 -0.09782032
-0.0049510566 -0.09570714 -0.06966454 -0.023084028 -0.110394806 -0.008993453 -0.09063049 0.051251248
-0.16845179 -0.002371897 0.08357393 -0.12625034 0.11600065 -0.09918364 -0.00050390954 0.0048811864
-0.032878254 0.03549991 -0.05660561 -0.0050554583 -0.02264815 0.055283163 -0.056000873 -0.08784456
-0.10029308 -0.064667426 0.08000742 0.032310992 0.0844094 0.097575285 0.03577669 0.01855916
0.08148837 0.021488827 -0.13063282 0.026665164 -0.0059416797 0.11479677 0.045330662 0.022970157
-0.047340646 0.1425365 0.12632293 -0.07889017 0.06863053 0.1683474 -0.043914285 0.10834365
0.09888511 -0.07088555 0.06545212 -0.10017714 0.03801732 -0.039246406 0.019568779 -0.038174246
0.03497744 -0.1358799 -0.10054988 0.034966554 0.09457904 -0.032029245 -0.016487692 -0.09371025
-0.009465726 -0.09999682 0.059028115 -0.08010399 0.04862499 -0.008890084 -0.08089767 0.02413214
-0.014349178 -0.058672454 -0.10337173 0.073859334 0.1560633 -0.015123095 -0.033568818 -0.046605475
-0.03803681 -0.13908148 -0.05803247 0.14805782 0.03209032 -0.008907748 -0.09431154 0.0049329447
0.086277924 0.012122494 -0.042824358 0.03291044 -0.029437697 0.023475332 0.016801741 0.06556442
0.08870206 -0.047908507 0.050411087 -0.05569216 -0.13484357 -0.073726505 -0.115661845 -0.11403891
0.10033123 0.11963117 0.1190813 -0.003353714 0.013913209 -0.054287028 -0.13025077 -0.0153981
-0.043692876 -0.11019223 -0.03229822 0.06569456 0.05581665 -0.004555652 0.03190776 -0.143586
0.07450456 -0.028279059 -0.019754516 -0.10004251 -0.047550093 -0.05442146 -0.119291455 0.09782219
-0.11053707 -0.012851611 0.066274315 -0.12191614 -0.034610245 0.09238128 0.049575794 0.03627801
-0.020658 0.066823274 0.094482295 -0.052878838 0.108965956 -0.10882757 0.1639296 0.05568244
-0.020510351 0.06948562 0.1320185 -0.025583334 -0.093877204 -0.08885437 -0.025516793 -0.13919201
0.00607525 0.027052935 0.112802625 0.012949624 0.11341728 -0.059988026 0.023445388 -0.03728288
0.08032342 0.05022285 0.08048411 0.00079226866 -0.11508333 -0.09024108 0.0067561385 -0.081397995
-0.100676335 0.103457876 -0.075385116 0.036633745 -0.052988883 0.07560152 0.012830011 0.11670834
00000000: f464 293e 27be 7e3d dcbb a93d 1fd7 bfbb
00000010: 1281 52bd df51 833d a973 6b3b 791d 17be
00000020: f77a b33d e5c3 cabd e86d 7fbd 97d0 ac3d
00000030: 60e5 043c 525c 60bd 6cf6 19be f9e6 26be
00000040: 3df3 10be 268e 3cbd ae6b 80bd 4611 c839
00000050: a6eb 9cbd 454f f83d 684b a6bd 5c13 1d3d
00000060: c564 58bd 024e 2e3d 8900 a4bd 2924 94bd
00000070: d734 b8bd 3af7 b2bd 00ba 5cbd 2742 8e3d
00000080: e2cc ac3d d0c0 a1bd e487 163e 353f 8a3d
00000090: 1251 e7bc dbe4 a1bd 76f8 57bb 2086 e83c
000000a0: dfb4 b7bd c24b 66bd 7883 c13d 4db0 3c3b
000000b0: 06a5 acbd 8c2e 74bc 4ffd 4e3d a790 d93d
000000c0: 776c a1bd c99a 90bd c496 97bc 295b c5bd
000000d0: b4f1 113d f07d 013e e4c5 c5bd 948b 17be
000000e0: 3258 8cbd 32ab 73bd 3a0a a5bd a0ad 23bd
000000f0: 5e7d 873c 800c 2a3d f229 0fbe 8cbc ea3d
00000100: 5185 133e f879 5cbd 0324 11be 8f67 6dbd
00000110: 8632 e53d ce15 283e edb7 68bd b506 81bd
00000120: 5221 cbbd bf55 92bd 15a2 c5bc 71c0 913d
00000130: 6b9a 2f3e c965 a2bd b387 7e3d 0556 c8bd
00000140: 793c a2bb 1b02 c4bd 48ac 8ebd b71a bdbc
00000150: ac16 e2bd 4759 13bc 7a9c b9bd d4ec 513d
00000160: a07e 2cbe d471 1bbb cf28 ab3d c547 01be
00000170: c091 ed3d cb20 cbbd cc18 04ba 5cf2 9f3b
00000180: 59ab 06bd 5b68 113d 49db 67bd 42a8 a5bb
00000190: 9d88 b9bc 9970 623d 2c61 65bd d9e7 b3bd
000001a0: 7566 cdbd 5b70 84bd eeda a33d 8858 043d
000001b0: d6de ac3d 8dd5 c73d 948a 123d 6109 983c
000001c0: 60e3 a63d 5609 b03c 9cc4 05be e770 da3c
000001d0: 6cb2 c2bb 921a eb3d a5ac 393d e92b bc3c
000001e0: 44e8 41bd 17f5 113e cc5a 013e 2b91 a1bd
000001f0: 2a8e 8c3d 4363 2c3e 77df 33bd 47e3 dd3d
00000200: 4784 ca3d 712c 91bd c30b 863d ac29 cdbd
00000210: 0db8 1b3d d7c0 20bd b44e a03c 995c 1cbd
00000220: 8144 0f3d 1a24 0bbe 18ed cdbd 1739 0f3d
00000230: a8b2 c13d 1931 03bd 3211 87bc 29eb bfbd
00000240: 2216 1bbc 22cb ccbd 77c7 713d 900d a4bd
00000250: ff2a 473d b7a7 11bc adad a5bd c4b0 c53c
00000260: d118 6bbc 8752 70bd 8fb4 d3bd 9043 973d
00000270: 0fcf 1f3e dcc6 77bc 757f 09bd 62e5 3ebd
00000280: 7ccc 1bbd 606b 0ebe 75b3 6dbd 789c 173e
00000290: 2471 033d cef1 11bc 6926 c1bd 8aa4 a13b
000002a0: 7bb2 b03d 6d9d 463c 9868 2fbd 19cd 063d
000002b0: 5327 f1bc 574f c03c cea3 893c a346 863d
000002c0: 6da9 b53d b63b 44bd db7b 4e3d 761d 64bd
000002d0: 6f14 0abe ecfd 96bd 1ee0 ecbd 3b8d e9bd
000002e0: 767a cd3d 3001 f53d e6e0 f33d fcc9 5bbb
000002f0: 3af4 633c 135c 5ebd 7560 05be 5048 7cbc
00000300: 4df7 32bd 77ac e1bd 234b 04bd df8a 863d
00000310: 00a0 643d 9447 95bb b6b1 023d 3508 13be
00000320: d995 983d 7ca9 e7bc 39d4 a1bc 16e3 ccbd
00000330: e3c3 42bd 09e9 5ebd 144f f4bd 0057 c83d
00000340: 4261 e2bd 908f 52bc d4ba 873d 2baf f9bd
00000350: 79c3 0dbd 6632 bd3d fd0f 4b3d 4098 143d
00000360: f73a a9bc a4da 883d ef7f c13d 7b97 58bd
00000370: 8b29 df3d fde0 debd 29dd 273e 4513 643d
00000380: 5305 a8bc 7a4e 8e3d dc2f 073e 2494 d1bc
00000390: b142 c0bd 48f9 b5bd 9808 d1bc 5a88 0ebe
000003a0: e412 c73b 1e9e dd3c 1005 e73d a92a 543c
000003b0: 5247 e83d 01b6 75bd 8b10 c03c efb5 18bd
000003c0: 9b80 a43d 7ab6 4d3d dad4 a43d 40b0 4f3a
000003d0: cfb0 ebbd 51d0 b8bd 9962 dd3b feb3 a6bd
000003e0: 652f cebd b9e1 d33d 8363 9abd 440d 163d
000003f0: df0a 59bd f8d4 9a3d f734 523c c804 ef3d

lstm.bias_ih_l1 f4 [256]
-0.04950212 -0.0047060368 -0.08978685 0.052109547 0.15324256 0.0110821575 -0.087074354 0.13404134
0.07597832 0.13600352 0.14166553 0.06508 0.09498743 -0.010494288 -0.018048704 0.006522842
0.081592485 -0.10664181 0.07673749 -0.11618231 0.12185309 0.05927749 -0.06623583 -0.022066245
0.019588081 0.082048886 -0.036796268 0.123004384 -0.07907961 -0.10309376 0.035654478 0.03955257
-0.074138105 0.09309748 -0.011674247 0.13539635 0.09406968 0.09344864 -0.032406483 0.123107
0.08892062 0.107182086 -0.10324612 0.07539445 -0.017892187 -0.030461356 0.0700403 -0.07025079
0.07363548 -0.097998686 -0.089428365 0.028234499 0.115695596 0.121169545 -0.13774571 -0.045704603
0.0881681 0.019947676 0.11303288 -0.0793413 -0.020689366 -0.067282446 0.022458661 0.11251206
-0.09488551 -0.07407165 0.052582037 0.06868269 -0.04754243 0.11487879 0.036521055 0.08047448
0.12023299 -0.096610025 0.027822096 0.080110334 -0.0837479 0.040527295 0.042235117 0.055877917
0.05253242 0.017296925 0.052544814 -0.07128298 0.0033416792 -0.035768684 -0.049096826 0.07879991
-0.07026517 -0.10882147 -0.05362579 0.11095943 0.092109166 -0.051449724 0.14431173 0.08909839
-0.094117664 -0.0624198 0.029412234 0.055682294 -0.0005828674 0.06652098 -0.10061593 0.072787404
0.026369004 0.06536623 -0.0822061 0.08905915 -0.0062857773 -0.091279894 -0.06564248 -0.088208586
-0.034325764 -0.08821008 0.12799713 -0.05187858 0.024526078 0.10199201 0.03176263 -0.07572292
-0.10499519 0.12731215 0.12606187 0.056342628 -0.048956163 -0.1175502 0.062389564 -0.09285511
0.05326919 -0.018355187 0.11323191 -0.004626303 0.08838244 -0.059310265 0.066194065 -0.09970077
0.012094789 0.050701365 0.060642615 -0.11544221 0.044653036 0.07541438 -0.06812308 0.0039822794
-0.09546001 0.0044107703 -0.1265913 0.031325683 -0.032578267 0.07281443 0.046557453 -0.07657396
0.09604769 -0.012575939 0.1052927 -0.0791002 -0.053778127 0.0651734 0.04612137 -0.098575234
0.014834539 -0.007395101 0.12280285 -0.04270767 0.07537811 -0.024691345 -0.023020804 -0.06290547
0.009853817 -0.00019269824 0.034483515 -0.11313617 0.08256777 -0.07774157 -0.09814263 0.1074755
0.01955153 -0.0036085355 0.011826216 -0.08168125 0.07220277 -0.067973204 -0.1200867 -0.06433123
-0.03301056 -0.002308606 0.09492831 0.03751355 -0.050852846 0.04802252 0.025979513 0.07386753
0.098635584 0.052055463 -0.029949795 0.0594638 -0.06878743 0.049311623 0.0050113965 -0.048109017
-0.052326947 0.011753039 -0.030349955 0.03649511 -0.011171325 -0.08628929 0.08491747 0.076434605
0.03592697 -0.046459045 -0.061535217 -0.076984115 0.0813063 -0.043193795 -0.05182596 0.010844304
0.028886005 0.071765736 -0.06926994 -0.10135562 0.09471214 0.073186874 0.12270454 -0.072120644
-0.11457733 0.09506347 -0.11788729 -0.060286094 0.051700138 -0.091988795 -0.0006502128 -0.040376376
0.15854579 0.09258221 -0.092569046 -0.07922096 0.09113623 -0.11075659 -0.011439378 0.02816029
0.0060330504 0.01816825 -0.03048664 0.08018038 0.03305478 -0.0662661 -0.08103097 0.11019536
0.030135902 -0.0018492029 -0.091649376 0.1282369 0.10251802 -0.030548794 0.07144111 -0.013561643
00000000: bcc2 4abd 1935 9abb 2be2 b7bd d270 553d
00000010: 9eeb 1c3e f091 353c 0a54 b2bd 2242 093e
00000020: 859a 9b3d 8244 0b3e c510 113e aa48 853d
00000030: c588 c23d 3cf0 2bbc e0da 93bc 91bd d53b
00000040: f619 a73d 0567 dabd 8c28 9d3d fef0 edbd
00000050: 1d8e f93d f4cc 723d a7a6 87bd 45c4 b4bc
00000060: 2f77 a03c 3f09 a83d afb7 16bd b9e9 fb3d
00000070: 7ef4 a1bd d222 d3bd 6e0a 123d e001 223d
00000080: b8d5 97bd e4a9 be3d 5745 3fbc 57a5 0a3e
00000090: 9ba7 c03d 0062 bf3d a9bc 04bd 861f fc3d
000000a0: 041c b63d 4882 db3d b472 d3bd 6868 9a3d
000000b0: a392 92bc 188a f9bc 4a71 8f3d a5df 8fbd
000000c0: 33ce 963d 89b3 c8bd 3826 b7bd 094c e73c
000000d0: d0f1 ec3d bd27 f83d 360d 0dbe c034 3bbd
000000e0: 7a91 b43d 4f69 a33c c87d e73d b17d a2bd
000000f0: bf7c a9bc 61cb 89bd 3afb b73c b96c e63d
00000100: 5653 c2bd e1b2 97bd 4360 573d 83a9 8c3d
00000110: dabb 42bd 9245 eb3d 1a97 153d cecf a43d
00000120: b73c f63d 7adb c5bd 2aeb e33c e310 a43d
00000130: 0584 abbd f3ff 253d bbfe 2c3d 3ee0 643d
00000140: 3c2c 573d 48b2 8d3c 3b39 573d d0fc 91bd
00000150: 1300 5b3b 2f82 12bd c119 49bd d961 a13d
00000160: 2fe7 8fbd cadd debd b7a6 5bbd b33e e33d
00000170: bba3 bc3d f2bc 52bd 74c6 133e 3779 b63d
00000180: c3c0 c0bd e7ab 7fbd edf1 f03c 1e13 643d
00000190: 92cb 18ba 273c 883d ba0f cebd 9011 953d
000001a0: cf03 d83c bbde 853d ac5b a8bd a564 b63d
000001b0: ecf8 cdbb f4f0 babd 916f 86bd b4a6 b4bd
000001c0: 2c99 0cbd 7da7 b4bd ae11 033e a27e 54bd
000001d0: eaea c83c 30e1 d03d 8819 023d 9e14 9bbd
000001e0: b807 d7bd 1e5e 023e 5d16 013e 87c7 663d
000001f0: 4286 48bd 29be f0bd 338c 7f3d d22a bebd
00000200: cb30 5a3d 9e5d 96bc 22e6 e73d 3e98 97bb
00000210: da01 b53d 52ef 72bd c190 873d eb2f ccbd
00000220: 3929 463c 3cac 4f3d 6464 783d f76c ecbd
00000230: 1ae6 363d db72 9a3d 1d84 8bbd c87d 823b
00000240: 8a80 c3bd 3988 903b 26a1 01be 5c4f 003d
00000250: ca70 05bd bb1f 953d 07b3 3e3d cfd2 9cbd
00000260: a7b4 c43d 500b 4ebc b3a3 d73d 49ff a1bd
00000270: 7446 5cbd a279 853d c3e9 3c3d d0e1 c9bd
00000280: 910c 733c 9a52 f2bb 1080 fb3d 3dee 2ebd
00000290: d75f 9a3d 8145 cabc 2096 bcbc 95d4 80bd
000002a0: e771 213c 0a0f 4ab9 963e 0d3d f0b3 e7bd
000002b0: 4a19 a93d f936 9fbd 01ff c8bd 1d1c dc3d
000002c0: 882a a03c 2e7d 6cbb bfc2 413c 8048 a7bd
000002d0: 0cdf 933d 8935 8bbd 04f0 f5bd 18c0 83bd
000002e0: 1536 07bd fb4b 17bb c669 c23d cfa7 193d
000002f0: 134b 50bd 43b3 443d fdd2 d43c dc47 973d
00000300: 7401 ca3d 1c38 553d 4659 f5bc 5090 733d
00000310: 6de0 8cbd fcfa 493d a436 a43b f60d 45bd
00000320: c854 56bd d28f 403c 78a0 f8bc e57b 153d
00000330: ef07 37bc 70b8 b0bd 36e9 ad3d bf89 9c3d
00000340: 2928 133d d74b 3ebd 5a0c 7cbd d9a9 9dbd
00000350: eb83 a63d faeb 30bd 7547 54bd 4fac 313c
00000360: 58a2 ec3c eaf9 923d 66dd 8dbd 8993 cfbd
00000370: 70f8 c13d 00e3 953d 854c fb3d fdb3 93bd
00000380: 85a7 eabd a3b0 c23d e46e f1bd 8dee 76bd
00000390: 86c3 533d 9f64 bcbd 0b73 2aba b361 25bd
000003a0: d459 223e be9b bd3d d794 bdbd 993e a2bd
000003b0: a2a5 ba3d 5ad4 e2bd 3b6c 3bbc 69b0 e63c
000003c0: e5b0 c53b 95d5 943c 1ebf f9bc 9c35 a43d
000003d0: 7364 073d 85b6 87bd 91f3 a5bd 1bae e13d
000003e0: 91df f63c f460 f2ba abb2 bbbd 8950 033e
000003f0: f8f4 d13d 7741 fabc b74f 923d a731 5ebc
