src/Backend-Information/Clod-weather_predict/Zhejiang_lstm_model.pth (torch, 208379 bytes, 11 tensors)

lstm.weight_ih_l0 f4 [256, 3]
00000000: 1e2d 863d cae6 0b3e 804f de3c 49e9 683d
00000010: b038 dd3d 2063 a23d 776d eabd 9aba 1cbd
00000020: 7201 c2bd 2876 43bd 2a2f f73d d07c 643d
00000030: 2465 77bd d0d9 acbd 20d6 c3bb 013e 4cbd
00000040: 1413 e7bd a4aa 833d 240a 40bc 34ad 70bd
00000050: 3229 e23d acc7 fe3d 0d82 9d3d c08e 833b
00000060: 56ed 773d 6786 03bd 10f6 f23c a6de b0bd
00000070: 0b52 b93d bedb 82bd d95e fa3d 1fbc 943d
00000080: 2014 e3bb b0b9 473d 3d29 adbd dc44 87bd
00000090: a411 8a39 0011 a93d 70bf 08bd 55e8 4a3d
000000a0: 78a6 8fbd bcfb 2ebd 887d 843d 0fe2 fc3c
000000b0: 402f 1f3b 1b0f 863d 1bc5 edbd 601b a53d
000000c0: 27e4 513d 7b9b 00bd 7c2f 73bd 8354 68bd
000000d0: b301 57bd 200c e93c b24b 243d 7a5e d63d
000000e0: 8ae4 873d 8415 aabc 52c0 673d 50df 013c
000000f0: a421 ae3d 43a9 85bd 302a 68bc 4775 d13d
00000100: 81a6 aabc 344b 3abd 4fb2 92bd a260 0dbc
00000110: 581f 37bd 44f8 5abd 9a96 1c3e 08b0 cbbc
00000120: 4518 e63c 7b83 a8bd d2eb e83d 0c13 8abd
00000130: c640 ec3d 7456 663d 9194 50bb 46bf c9bd
00000140: 004a d3bb 082e a4bd 3413 fdbb 8c09 3fbd
00000150: fc45 11bc 47bd 993d 045a 61bd f20d 41bd
00000160: 572f 03be 2894 35bd 98d1 c3bc 1002 07bd
00000170: 6c97 893d 849e 3cbc d094 28ba bceb fa3d
00000180: 3289 b7bd 57fa 453b 0050 97bb dc99 dabd
00000190: 1e0a 093e e0ad 4ebc 731b 043e f285 373d
000001a0: c03f bf3b f39d 59bd eb85 f4bd ec14 2c3d
000001b0: 0ecb f03d 352f 2e3d 98b4 a3bd 9548 dcbc
000001c0: b017 43bd 4a14 f53d be85 8f3c f9e9 77bd
000001d0: b6d6 fd3d 5797 903c d991 a9bd 460a 873d
000001e0: 8202 a73d 3c6c a8bd e25c aebd b89c 163e
000001f0: 079d 26bc 6074 1abd e0da 6dbd c625 aebd
00000200: 00c8 b5bb 9586 23bd 339c fa3c c8b7 c93c
00000210: 143f 8f3d bb43 b2bd e87d f23d 367e 46bd
00000220: 62f6 ef3c c067 603d 8ed4 8c3b 0bc3 403d
00000230: 0095 bcba 20d9 fc3c be04 ba3d 7a8d e6bd
00000240: cfc4 bebd 15b5 a33c 88f8 c33d fd9f 5dbc
00000250: 64b8 683d ea67 96bd c45f b43d 782d a6bd
00000260: 5067 65bd b363 023e 084c 823d 782d 80bc
00000270: acc2 21bd adec de3c ee1c a6bd d550 e33d
00000280: 2a50 193d 4476 fe3d 3dfd f7bb 26d3 58bd
00000290: 5477 223d 20d1 963d fb54 b8bd e6bf f5bd
000002a0: 328a b43d 7eca d83c 40f5 e6bc eebe 683d
000002b0: 19e4 9e3d 401d acbb 5fa5 1bbd 95bd 133d
000002c0: ba87 dcbd a821 5ebc d8d9 fc3d 1455 ccbd
000002d0: e71f 613d 5a9a 36bd 705c 803d 03c6 9fbd
000002e0: 4149 a6bd 10e3 16bc fc96 f2bd 6891 8cbd
000002f0: e078 373c 1712 c7bd 255c b43d 3004 ddbc
00000300: d78a d7bc 1fee 88bd c8de 9abc b7ae 10be
00000310: 88ba 5f3a c449 b8bd 0af8 a5bd 5531 c9bc
00000320: dcc5 2a3d 7524 16bd b482 a13d 0ae3 cabd
00000330: bfc6 a63b e5d7 62bd 6aaf f2bd 894c 163e
00000340: f4f6 25bd 86ec dabd d653 20bd 7607 103e
00000350: 68b4 883d 7855 afbc dbca 90ba 161f d43d
00000360: 18dc d6bd 2d91 e33d 0ec3 82bd 42b4 623d
00000370: afa7 483d a0ff 993d 0d07 de3d 747b 4e3d
00000380: 148b 39bd 97af e43d 3ea4 713d dcde edbd
00000390: 3269 0cbe b624 c0bb ec02 dd3d 46cc f23c
000003a0: 5c9f 133e 605c 753d 0ae8 b63d 7d62 c43d
000003b0: a416 b9bd f841 873d 3a20 f13c a05c 843c
000003c0: ada0 eebc 297b ddbd 325a a5bd 5594 dcbc
000003d0: 6a06 073e 9824 50bd e3bf 2fbe 9a60 093d
000003e0: 40fd 163d d1a2 fc3d 7163 97bd 2e21 d7bd
000003f0: e7cb 8b3c 68da 063e 80e4 e9ba bf04 9cbc
0.06551574 0.13662258 0.027137518 0.056863103 0.10801828 0.07929063 -0.1144666 -0.038263895
-0.09472932 -0.047720104 0.12069543 0.055783093 -0.06039919 -0.08439982 -0.0059764534 -0.04986382
-0.11282936 0.064290315 -0.011721168 -0.05875893 0.11043014 0.12440428 0.07690821 0.00401482
0.060529076 -0.032110598 0.029658347 -0.08636217 0.090488516 -0.06389569 0.12225122 0.07262444
-0.0069298893 0.04876107 -0.08455131 -0.06604931 0.00026334554 0.082551956 -0.033385694 0.049537975
-0.07014173 -0.04272054 0.06469256 0.030869512 0.0024289638 0.0654585 -0.116098605 0.08061862
0.051242974 -0.031398278 -0.059371457 -0.05672122 -0.052491855 0.028448164 0.04011125 0.10467239
0.06635387 -0.020762213 0.056579895 0.007926777 0.0850251 -0.06526425 -0.0141702145 0.10227447
-0.020831348 -0.045481876 -0.07162916 -0.008628996 -0.044707626 -0.05345942 0.15291825 -0.024864212
0.028087744 -0.08228203 0.11373104 -0.06741914 0.11535792 0.056234792 -0.0031826834 -0.09850936
-0.0064480305 -0.08016592 -0.0077232365 -0.046639964 -0.008866783 0.07506805 -0.055017486 -0.04713244
-0.12811027 -0.044330746 -0.023903653 -0.03296095 0.067183346 -0.011512402 -0.0006430866 0.12251994
-0.08961715 0.0030209029 -0.004617691 -0.106738776 0.13382766 -0.012614697 0.12901096 0.044805475
0.005836457 -0.053129148 -0.11939605 0.04201214 0.117574796 0.04252549 -0.0799343 -0.026890079
-0.047630012 0.119667605 0.017519828 -0.060525868 0.123944685 0.01765029 -0.08279771 0.065937564
0.08154775 -0.08223769 -0.0851381 0.14708221 -0.010169274 -0.03770864 -0.058070064 -0.085032985
-0.0055475235 -0.03992327 0.03059206 0.024623767 0.06994453 -0.08704325 0.11840421 -0.048460208
0.02929229 0.054786444 0.0042977994 0.047061007 -0.0014387667 0.030865252 0.09082936 -0.11257453
-0.09314882 0.019983808 0.09568888 -0.013526914 0.056816474 -0.07344039 0.08807328 -0.08114141
-0.05600673 0.12733345 0.06362158 -0.015646681 -0.039492294 0.027212465 -0.08110987 0.11099402
0.037429966 0.12424901 -0.00756803 -0.05293574 0.03966458 0.07364106 -0.09000584 -0.11999492
0.08815421 0.026463743 -0.028193116 0.05682271 0.0775835 -0.0052525103 -0.037999507 0.03606947
-0.10768075 -0.013557829 0.12346238 -0.09977165 0.054962065 -0.044580795 0.06267631 -0.078014396
-0.08119441 -0.009209409 -0.11845204 -0.068636715 0.011198252 -0.09720247 0.08806638 -0.026979536
-0.026311321 -0.06686043 -0.018905059 -0.14129148 0.000853457 -0.08998445 -0.0810395 -0.024559656
0.0416926 -0.036655862 0.07886258 -0.099065855 0.0050896103 -0.055381674 -0.11849864 0.14677633
-0.040518716 -0.106896445 -0.039142452 0.14065346 0.06675035 -0.02140306 -0.0011046784 0.10357492
-0.10491198 0.111116745 -0.0638486 0.05534769 0.04898804 0.0751946 0.108411886 0.050410703
-0.04529865 0.111663036 0.058994524 -0.11614773 -0.13712004 -0.0058637513 0.10791573 0.02963842
0.1441626 0.05990255 0.08930977 0.09589098 -0.090375215 0.066043794 0.029434312 0.016157448
-0.02912935 -0.108145066 -0.08073844 -0.026926199 0.1318604 -0.05081615 -0.17163043 0.033539392
0.03686261 0.12335742 -0.07392014 -0.105043754 0.017065002 0.13169253 -0.0017844588 -0.019045232

lstm.weight_hh_l0 f4 [256, 64]
00000000: a23e 1bbe 1048 1dbc 9c2a af3d 4f10 cebb
00000010: 940e fdbd 8f72 d93d 5129 a13d 0134 8ebd
00000020: 30ee 5e3d eef4 d1bc c8cf 96bd 815c dabc
00000030: 0d96 223e c6b0 0c3d 206e 013e cffc 88bd
00000040: 1617 0fbc e302 863c 772a 9abd 4741 f23d
00000050: e4a0 af3d afb0 9c3d 41d5 e63c 9507 e53d
00000060: 0de8 133e 45b0 7b3d 252a a2bc c396 58bc
00000070: 987e 39bd 98b7 f3bc 1299 c7bc f06b 21bd
00000080: 0880 fabc 2651 90bd 9eb2 703d 82cf cc3c
00000090: 16f5 d1bd ae1c 223e 5b0b 283c ca9a edbd
000000a0: 79f8 953d 4e8a b0bd e85d d7bc 2f94 d23c
000000b0: ec6c c73d 1e13 04bd 84d1 05be 7e6b 8f3d
000000c0: 27ef 673d 26cc 0ebe b1d6 06bd cfbd b7bd
000000d0: 1480 ba3c 0ce6 bb3d 698b 8b3d f0c8 823c
000000e0: 691a 15bd 0953 e03d 0328 c33d 743a 47bd
000000f0: c7f2 d1bd 5e93 72bd 678d e33b 4079 68bd
00000100: 55dc fdbd ac8e 183d feb2 1f3d eece 5bbd
00000110: 7d19 b2bd f373 f4bd 1f5d 48bd 258c a9bd
00000120: 349d c1bd 7b55 ea3c 3f7d f8bc 5096 fe3d
00000130: 5077 aabd d420 b2bc ff0e 9cbd fae4 0e3e
00000140: 640b eb3b 7700 893c e691 1ebd a02b cbbc
00000150: a125 1f3b d101 6c3d 33d6 8c3d 9d98 1c3d
00000160: 9051 00bd f042 29bd 3772 63bd 59ba 1f3e
00000170: 1bc1 70bc 52de 77bd 9927 16bd 7dd3 e8bc
00000180: 3de3 d93d 0038 f1bd 8032 ba3d b562 0d3e
00000190: 8307 d4bc bbbc 6a3c 640b cabd 3627 203d
000001a0: dbbb 43bd 6cf5 a0bd c4bf cf3c ded6 cbbc
000001b0: 4de5 ee3d fd34 e0bd b826 97bd 4b04 9abd
000001c0: 28b6 ff3d 90c7 b4bd 76a4 e9bd 6652 c83d
000001d0: 866d 603d f57d 3dbc 5642 c23c 1a29 bf3c
000001e0: e1a6 16be 0e92 00bd a344 ebbd 4370 b73a
000001f0: 8de0 b23b 9294 053e 62d1 b93d 153c c33d
00000200: 7663 f2bd 1f86 923d 3e6e 233e a2cc a73d
00000210: 53cc e2bc c7bc 03be ade3 5abd 31fe bb3b
00000220: bd8f b0bd 651e ce3d 967b 9ebc 353c 913d
00000230: f568 9bbd 7763 24bc 1b0d 9dbd 2815 7f3d
00000240: dc99 8c3d d445 0c3e 6251 c5bd 883e 193d
00000250: 0c47 d3bd b231 00bd aee5 5d3d 6ee9 903c
00000260: dc66 6ebd f6d9 fabb bc21 2b3c 29fb 84bc
00000270: b835 12be 1df6 8abd 6dfd a23d d0c9 a53d
00000280: fe6b 94bd fa52 79bb 720c e3bb f2ab 4a3d
00000290: 8bf2 05bd c313 7e3d d02e 95bd baa6 353b
000002a0: cbce 92bd 02a1 a03d adc9 a7bd 85a9 a93b
000002b0: b70a 8ebd e7e8 20be f5d6 ae3d e1fc d73d
000002c0: ccad 39ba 7063 cfbc b1c0 0bbe 3287 b2bc
000002d0: 8157 81bd 2ed8 073e 0efa a7bd 85ff 113e
000002e0: 8e0b 983d fef5 8e3c 19c6 7e3d 9f1f 9b3d
000002f0: 1411 af3d a6e1 1abd f45f c8bd 0aa3 b43d
00000300: ac68 ebbc 41e7 98bd faac bb3d 746f 3bbd
00000310: f13f afbd c30b ef3d e2e4 b53c 125a bdbc
00000320: 56ab 08be f148 c23d d472 9d3c 0135 a8bc
00000330: a382 2dbd 54a4 3cbd 6173 fa3d 2175 a1bd
00000340: 3a5a 043e 5172 623d 29f0 9d3c a700 433d
00000350: ed83 073e d8e8 6f3c 6647 ba3c 40b8 61bd
00000360: 8955 383c 638d 683d 8233 9f3d 9963 2fbe
00000370: 7c11 f3bb 3469 8e3d fc03 26be 2b27 19be
00000380: 0267 033e 42eb 2dbd 9f93 8bbd 36f5 94bd
00000390: 8dce 4ebd 1cb6 dc3d cee7 71bd 5a0a 26be
000003a0: 0db0 ccbc a563 93bc b4e2 0ebe 317e 84bd
000003b0: f181 b03d 0398 aa3d b5d6 243b cc95 42bd
000003c0: 3eca e43c 802b 623d e9e3 81bb d39d b9bd
000003d0: 0424 5ebd 2e3c 273d c463 933d f574 95bc
000003e0: 43d9 1dbc 1f0c 20bd 38d1 023d 7f69 8d3b
000003f0: 956c acbd a3a5 e73d 600a 133e 70bb 8f3b
-0.15160611 -0.009599701 0.08553049 -0.006288565 -0.12356296 0.106175534 0.078692086 -0.06943513
0.054426372 -0.025629487 -0.0736385 -0.026655437 0.15877552 0.03434827 0.12639666 -0.066888444
-0.008733531 0.016358798 -0.07527631 0.11828857 0.08575609 0.07650887 0.02817786 0.11183087
0.14443989 0.0614474 -0.019795487 -0.013219538 -0.045286745 -0.02975063 -0.024364982 -0.039409578
-0.030578628 -0.07046728 0.058764093 0.025001291 -0.102518246 0.15831253 0.010256614 -0.11601789
0.07322783 -0.086201295 -0.026289895 0.025705425 0.09737572 -0.032244794 -0.13068205 0.070029244
0.056624558 -0.13945064 -0.03291959 -0.0897175 0.02276615 0.09174737 0.068137 0.015964955
-0.03640214 0.10953338 0.09529116 -0.04863973 -0.10251384 -0.05922257 0.0069443467 -0.056756258
-0.123955406 0.037245438 0.03898906 -0.05366414 -0.08696268 -0.11936178 -0.048916932 -0.082786836
-0.09453812 0.028605213 -0.03033316 0.124310136 -0.08323538 -0.02174417 -0.07620048 0.13954535
0.0071729887 0.016723854 -0.03871336 -0.024801075 0.0024283903 0.05761892 0.06876793 0.03823148
-0.031327784 -0.041323602 -0.055528846 0.1559843 -0.014694477 -0.060514756 -0.036658857 -0.028421158
0.106390454 -0.11778259 0.09091663 0.13807185 -0.025882488 0.014327223 -0.09865454 0.039099894
-0.047786575 -0.078593105 0.025359996 -0.02488273 0.116648294 -0.10947607 -0.07380432 -0.0752035
0.124859154 -0.08827126 -0.114083216 0.09781341 0.05479195 -0.011565675 0.023713272 0.023335028
-0.14712097 -0.03138929 -0.11487701 0.0013995249 0.0054588974 0.13044956 0.0907314 0.09532944
-0.11835377 0.07154488 0.15960023 0.081933275 -0.02768532 -0.12864982 -0.053439785 0.005737089
-0.08621166 0.10064391 -0.01934604 0.07091562 -0.07588378 -0.01003348 -0.07668515 0.062276036
0.06865284 0.13698512 -0.09634663 0.03741315 -0.103162855 -0.031297393 0.054174118 0.017689433
-0.058203563 -0.0076553775 0.010445055 -0.016233044 -0.14278305 -0.06785224 0.079584934 0.08095133
-0.072471604 -0.0038043843 -0.006928974 0.049480386 -0.03270201 0.062030565 -0.072843194 0.0027717785
-0.07168349 0.0784321 -0.081927635 0.005177679 -0.069356374 -0.15713845 0.085370935 0.1054628
-0.00070830877 -0.02531597 -0.13647725 -0.021792982 -0.06315518 0.1326606 -0.08201991 0.14257629
0.07424079 0.017451283 0.06220064 0.075743906 0.08548179 -0.03781285 -0.097839266 0.0882016
-0.028736435 -0.07465983 0.09163852 -0.045760587 -0.08557118 0.11672165 0.022203866 -0.023114238
-0.1334661 0.09486569 0.019219793 -0.020533087 -0.042360913 -0.046055153 0.12229038 -0.07883669
0.12925044 0.055284802 0.019279556 0.047608044 0.1323392 0.014642917 0.022739124 -0.055107355
0.011250862 0.056775462 0.07773496 -0.17127837 -0.007417856 0.0695366 -0.16212457 -0.14956348
0.12832263 -0.042460687 -0.06815266 -0.07273333 -0.05048995 0.10776922 -0.059058957 -0.16214886
-0.024986291 -0.01799185 -0.13953668 -0.064693816 0.08618534 0.08329775 0.002515239 -0.04750614
0.027928468 0.055217266 -0.0039639366 -0.09063306 -0.054233566 0.040828876 0.07196763 -0.018244246
-0.009634319 -0.03907406 0.031937808 0.0043155546 -0.08419148 0.113108896 0.14359426 0.004386358

lstm.bias_ih_l0 f4 [256]
00000000: 8986 813d 6894 45bc 204d 24bd 5866 fc3d
00000010: ee69 e83d 355b cf3d 6893 b1bd 91fe 95bd
00000020: 25ce 80bd f40c a5bd 9866 f0bc b919 1bbd
00000030: a910 d73d d7b2 14bb f50b 31bd b720 0dbd
00000040: 00a7 903d e27b 81bd fe5c a4bd f598 14bd
00000050: 3b75 383d e37d e73d a606 04bd b00a db3c
00000060: 0b8b 083e bcf2 03bd 9c3e 5f3d 25ea 00bb
00000070: f3b8 a83d b361 5abd 4d61 0b3e 6db8 89bd
00000080: a81a eabd ff3f afbc 6ee7 043e 13d6 d03d
00000090: 0586 0e3e 18e4 c6bc c381 9abc bfa7 153e
000000a0: d48e 133d 9dbc 203e 95e3 e03d 7969 00bc
000000b0: f24b fc3c 9460 fe3d 08ab c2bd fd1d 4dbd
000000c0: 54d2 05bb 8df0 9fbd 22bf e03c cc02 f3bc
000000d0: df51 06bd b37c bebd 8edc 403d 51e5 39bc
000000e0: 7565 4d3d 4cf2 793d 91b1 e73d b244 493d
000000f0: a5dd a03c 6aa3 103e 9362 d93d 9db0 14bd
00000100: ea8b c3bd 5ebc 8e3c e795 f83d 3134 eabc
00000110: dd6f bd3d 4204 1abd 1086 223e 76fc babc
00000120: b3ab 3f3d 4a3a e83d d613 e43d 13d5 0d3d
00000130: a5aa 6e3d 7d0e 033e 174c 63bc 0037 02bc
00000140: 4e12 953d 6ded e33d efd4 5abd 2aa5 443c
00000150: 16e7 acbc c6cb a93d a76f 753d 77e0 7bbd
00000160: 30d2 8e3d 2ade 9a3d e221 ce3d fed1 d43d
00000170: ec65 a0bd f8a9 0c3e 5a46 603d e341 e53d
00000180: 2e75 ac3d e513 d93c fe7e 8e3d ad99 09bd
00000190: 4242 2cbd d7ad 7bbd e802 a33d 11fc a53c
000001a0: 53f1 96bd 8658 9b3d fff5 233d 3111 5e3d
000001b0: 503c 253c 829e 093d d7b3 073e ffe7 c13d
000001c0: 83b6 173e 1c72 243e b24b f93c d8ce b03d
000001d0: d4db b3bc 92d2 913d 0b45 9ebc 30b4 dc3d
000001e0: 3be5 abbd 4fed 0d3e bcf2 1d3d eff1 5b3c
000001f0: a696 ef3c 3faa 98bd 8b08 7fbd e205 86bd
00000200: 2749 a5bd c3a8 c7bd dfd4 5e3d 06d6 123d
00000210: 79c6 b8bc 729c 27bd da54 59ba c568 41bd
00000220: 927e b0bd a668 f7bc f739 683d 8c86 133e
00000230: e682 7e3d 0e71 6c3d 5338 ad3d 21f8 21bc
00000240: 9a9c 91bd 0cdf edbd 661c d33c b189 1dbd
00000250: 6aa7 8b3d 0512 843d af3c 5d3d 19f2 b7bc
00000260: 5ca3 803d 927f fbbd f56d cabd 0d73 b73c
00000270: 409e 0fbd 94b9 853c ca82 433c 5590 903d
00000280: 139b 0e3d e7f1 d33d 8c1d 3bbd b68b c33d
00000290: f4c0 ac3d 7b7f 283d a51a 3fbc 3858 05bd
000002a0: 36c7 a23d 84f2 703c 7d2b db3d 42cb 183b
000002b0: b717 723c 5b4c 263d ecd6 d13c 45dd 7e3d
000002c0: f83e 903d eaf4 c43c 845c f7bd 0ed0 5c3d
000002d0: 37d8 a73c 1aaf a93d b85e cb3b deac d43d
000002e0: 9501 0cbe 73c6 353d 422d 823c bb5c c1bc
000002f0: e7a9 fdbb 280b 863d 51d0 5e3d 1cef 083e
00000300: 369c 91bb 2227 813d 1be0 f63c b4d8 893b
00000310: 91e8 da3d c68c 66bd facd ae3c 3758 7b3d
00000320: e41c fd3d a287 813d 837a d03d 606c 59bd
00000330: 1bd5 963d ea97 42bd 4f41 cabd 64f5 09bc
00000340: 874a b3bc cdc2 65bd 7b62 f23c bc13 49bd
00000350: 22c1 0cbb 1594 9abd 49bc bd3d a604 c53c
00000360: e358 a2bc 4043 3b3d 1d80 d33d 2330 dc3c
00000370: ac55 193d f414 afbc ffe7 af3d f55b 1e3e
00000380: e0f7 c93c 4b8d 043d d7c0 3bbd 5eea a33b
00000390: 6d62 8b3d ae88 db3d 6fa7 48bc aa1e 8b3d
000003a0: 9673 d3bd 8bd8 cf3d 4768 c43c 3235 a93c
000003b0: 4b88 b43c c8e2 a73d 80db 83bd 2844 40bd
000003c0: 6810 aa3d bd5e a23d d71e 1e3d dc35 013e
000003d0: 4b76 9fbd 953a 57bd eeb0 8abd 22e2 00bd
000003e0: b6cc cd3d 1826 80bd 100c b6bd d791 5fbc
000003f0: 617d 9bbd 2f7f f6bc a95c a93d a197 30bd
0.06324489 -0.012059309 -0.040112615 0.12324208 0.113483295 0.10124818 -0.08670694 -0.07323945
-0.06289319 -0.08059111 -0.029345796 -0.037866328 0.105012245 -0.0022689605 -0.043224294 -0.034455027
0.07063103 -0.06322457 -0.08025549 -0.036278684 0.045033675 0.11303308 -0.032232903 0.026738495
0.1333429 -0.03221391 0.05450307 -0.001967081 0.08238401 -0.05331583 0.13611336 -0.067246296
-0.114308655 -0.02139282 0.12978908 0.101970814 0.13918312 -0.024278685 -0.018860703 0.14614771
0.036024883 0.1569695 0.10980908 -0.007837647 0.030797932 0.124207646 -0.09505278 -0.050077427
-0.0020419555 -0.07809553 0.02743489 -0.02966442 -0.032792922 -0.09301128 0.047085337 -0.011346177
0.050145585 0.061022088 0.11313165 0.04913778 0.019636938 0.14124838 0.10614505 -0.036301244
-0.09548171 0.017423805 0.121379666 -0.02858934 0.09249852 -0.037601717 0.15871453 -0.02282546
0.046794605 0.11339243 0.11136596 0.03462703 0.058268208 0.12798496 -0.013873122 -0.007947683
0.07278882 0.1112927 -0.053425726 0.012002269 -0.021106284 0.0829082 0.059920933 -0.061493363
0.06973684 0.07561906 0.100650564 0.10391615 -0.0783194 0.13736713 0.054754592 0.111942075
0.08420788 0.026498744 0.069578156 -0.033593822 -0.042055376 -0.061445083 0.07959539 0.020261796
-0.07370248 0.07585244 0.040029522 0.054215614 0.01008518 0.03359843 0.13252197 0.09468078
0.14815716 0.16059154 0.030431602 0.08633202 -0.021955408 0.07120241 -0.019320032 0.107765555
-0.083933316 0.13860057 0.038561568 0.013424381 0.02924664 -0.07454347 -0.062264007 -0.06544091
-0.08070593 -0.097489856 0.05440223 0.03584864 -0.022555577 -0.040920682 -0.0008290537 -0.047219057
-0.08617891 -0.030201267 0.056695905 0.14406794 0.062136553 0.057725005 0.084580086 -0.009885819
-0.071099475 -0.116148084 0.025770377 -0.03846139 0.06819041 0.064487495 0.05401295 -0.022454308
0.06281158 -0.122801915 -0.09884254 0.022393728 -0.03506303 0.016323842 0.011933038 0.07058779
0.03481586 0.103488736 -0.045682475 0.09548132 0.084352404 0.0411372 -0.011664067 -0.032554835
0.07948153 0.014706258 0.10701654 0.002331451 0.014776162 0.040600162 0.025615178 0.062222738
0.0704326 0.024042565 -0.12078193 0.053909354 0.020488841 0.08285351 0.0062063597 0.10384534
-0.13672478 0.04437871 0.015890721 -0.023603788 -0.007741201 0.06545097 0.054397885 0.13372463
-0.0044436706 0.06306292 0.030136159 0.004206741 0.1068889 -0.056286596 0.021338452 0.061363425
0.12359026 0.06324698 0.10179617 -0.05308187 0.073648654 -0.047508158 -0.09875738 -0.008420322
-0.021886123 -0.05609398 0.029587975 -0.049091086 -0.002147742 -0.07547776 0.09264428 0.024050068
-0.019817775 0.04571843 0.1032717 0.026878422 0.03743522 -0.021372296 0.085891716 0.15464766
0.024654329 0.03236131 -0.045838203 0.005002304 0.068058826 0.10719429 -0.0122469505 0.06792958
-0.10324781 0.10148724 0.023975505 0.020655248 0.022037646 0.08197552 -0.06438351 -0.04694
0.083039105 0.07928226 0.03860363 0.12618202 -0.077862345 -0.052546103 -0.06772028 -0.031465657
0.10048811 -0.06257266 -0.088890195 -0.013645611 -0.075922735 -0.030089943 0.08269627 -0.043113355

lstm.bias_hh_l0 f4 [256]
00000000: 4d80 00bd ae36 e93d 1770 9b3d cbae a23d
00000010: 5bdd e9bc 5212 47bd dff6 763d 6708 8bbd
00000020: 3023 eabc c33e 163c 9bf0 4ebb ac01 8ebd
00000030: 49ce 1f3e 5710 d03c 109b c4bd e957 e0bd
00000040: 06ed 02bc cc44 1d3d 450f 543c a853 a5bd
00000050: 2696 22bc eb51 4fbd 4677 0d3e e7d1 e7bb
00000060: b85a 52bd dfea b93d 24d7 f739 2525 04bd
00000070: f018 0b3e 065b 133d fb05 aebc 762d 6c3d
00000080: 80b6 afbd 313b d63d 4ae1 e53d e03a bcbd
00000090: af8d 173e e90a 84bd e727 a63c 02c6 bb3c
000000a0: c104 0b3e f0ef d93d 27e8 a53b 93d9 5bbd
000000b0: 3fba 92bc 9857 393d c845 fdbb 677f c83d
000000c0: b0a4 5f3d 0730 23bd 897b c13d 7ef4 a7bd
000000d0: c2bd ffbc fd15 b23d aa27 d33c 4280 1d3e
000000e0: d4bd 783a e44f a93d bdb2 82bd c52f c43c
000000f0: b02b 85bd ab8f fc3d 052a cfbd 28b9 c83d
00000100: 9299 3abd 7cc0 213e a8b1 81bc 7978 b23c
00000110: 4a9c 223d 5950 76bc 97e9 683d 13a8 b33a
00000120: 853c d1bb b129 273d b57b c4bc 7c4b f03b
00000130: 4adf aebd a7ed 9dbd fee4 da3d 00b2 3d3d
00000140: c610 c5bc ebbe 493d 4a32 5f3d 1c23 a93d
00000150: f209 b2bd 7903 3a3d e902 e73b fe17 5abd
00000160: d53d 8cbc 5898 82bd a4bd eebd a9e3 1b3e
00000170: 60b0 93bc aa2e a73d dd05 9f3d aaed cebc
00000180: 6867 c93d fe4d 373d c7b4 3a3c 6bfd 0b3e
00000190: ad27 a5bc 9e8e 153c 67a9 1a3d 5df2 043d
000001a0: 6512 42bd 572a 873c 2447 563d 1a31 5abd
000001b0: 7202 e63d bb81 923c b2c5 893a c903 fd3b
000001c0: 4b06 37bd ce70 81bd 65a1 923d 168c ff3c
000001d0: bd99 e43c 9d66 7ebd cdda bf3d 4cf3 493d
000001e0: 953c 133c e932 8bbd 7f12 e43d 4c74 893d
000001f0: ad29 b13d ad56 7bbd 9bf6 31bd 77c6 0c3e
00000200: 82f9 fb3b 8ccc f93d 549b 893d 86e6 663d
00000210: 3c00 7dbd 5ea1 c3bd 448a d03d 6d7e f4bb
00000220: deff babd ff65 903d c697 f3bd 59c5 733d
00000230: d33e 923d a0a9 663d 964c 33bd f37f 363d
00000240: 5281 ca3c f1db 403c 4a21 f73d f963 94bb
00000250: 4863 b03c 158e 883d 7d7e cebd 76a8 f13d
00000260: ec93 e5bd 1831 aebd a399 8e3d 6a49 8b3d
00000270: fcc7 97bd 9650 a6bb 4bf0 0e3c 1aee d33d
00000280: 0563 8fbd c2c2 01be 2531 0a3e f4fb f3bc
00000290: 5b32 ad3b 676e 013d 0e91 bfbd 0cc3 55bd
000002a0: f257 f1bd c17e d33d 9815 dcbd 6d82 59bd
000002b0: 147c 803d c46e 5ebd 891a 543d 4615 36bd
000002c0: 82fb 033e 9ad3 e03c 260c 0f3d 93c9 ce3d
000002d0: 399f fcbd 8fa3 0cbd 454b f0bd 1b3b 07ba
000002e0: 2a88 04be 14d2 4abc 86f7 f33b 23a3 1b3d
000002f0: 8b82 253d 6b34 d83d 7a1e 7b3d 5b82 9b3d
00000300: 2555 0d3e 25da 923d 9fe4 c33d d198 623d
00000310: a4e7 8dbd 825a 7e3d 7508 803d 48fb f13d
00000320: 7b25 e83c c834 dd3d f9b3 64bc 616a 473d
00000330: 9f4f 253d b195 c83c ac30 94bd d3bc 8dbd
00000340: 16bd ae3d b05d 06bd 9774 173e 4e01 ef3d
00000350: fcb3 1b3e c26c 193d aec1 0e3d 6080 86bc
00000360: 0c80 403c 2dbe e4bd 7e63 fcbc ae73 463d
00000370: 1292 32bd a2cc 833d 7c2e 523d 23d1 5fbd
00000380: b4b8 bfbd 984f d6bc cb13 c4bd de39 e43d
00000390: 504e 2ebd c431 533d 6699 ad3d b3fd bb3d
000003a0: 2731 d83d 77ce 843d 7144 883c cb00 87bc
000003b0: 5e24 0c3e fe3d 42bd ee13 68bd 3e84 9e3d
000003c0: dbed e73d 7a1c cf3d edea b53d 25a8 82bc
000003d0: f4be 46bd 0692 b53d 6441 6f3d bd86 483d
000003e0: be65 d93d 9cda 863d eac5 0ebd f5d8 00bd
000003f0: e62d 123e 2eed 073e 3f7d 97bd 1342 583d
-0.031372357 0.113873824 0.07589739 0.07943495 -0.028547933 -0.048601456 0.06029403 -0.06788712
-0.028581232 0.009170237 -0.0031576518 -0.06933913 0.15606035 0.025398416 -0.09599888 -0.109542675
-0.007991081 0.038395688 0.012943094 -0.08072597 -0.0099234935 -0.050615232 0.1381503 -0.007074583
-0.051356047 0.09078001 0.00047271803 -0.032261986 0.13583732 0.03597548 -0.021243086 0.057660542
-0.08579731 0.104605086 0.11224611 -0.09190917 0.14800142 -0.064473934 0.020282699 0.022921566
0.13576032 0.106414676 0.005063075 -0.05367429 -0.017911075 0.04524955 -0.007729266 0.09789925
0.054600418 -0.039840724 0.094473906 -0.0820093 -0.031218413 0.086956 0.02577575 0.15380958
0.0009488736 0.08267191 -0.06381748 0.02394856 -0.06502473 0.1233209 -0.101154365 0.09800941
-0.045556612 0.15796083 -0.015831783 0.021785961 0.03969983 -0.015033805 0.056863394 0.0013706706
-0.0063853883 0.040811244 -0.02398477 0.007333217 -0.08538683 -0.07711344 0.10688208 0.046312332
-0.02405585 0.04925434 0.05449132 0.0825865 -0.08693303 0.045413468 0.0070499075 -0.053245537
-0.017119328 -0.063767135 -0.11657265 0.15223564 -0.018028438 0.08163197 0.0776479 -0.025259811
0.09834176 0.044752114 0.01139564 0.1367089 -0.02016052 0.009128241 0.03775921 0.032457698
-0.047380824 0.016499681 0.05231394 -0.053269483 0.11230935 0.017884126 0.0010511188 0.0077213985
-0.044683736 -0.06320344 0.0715969 0.031194728 0.02790534 -0.06210958 0.09367905 0.04930429
0.008986612 -0.0679682 0.1113634 0.06711635 0.08650527 -0.061361957 -0.043448072 0.13747583
0.0076896558 0.12197217 0.067190796 0.056372188 -0.0617678 -0.09552263 0.10182622 -0.00746136
-0.09130834 0.07050704 -0.11894183 0.059514377 0.07140889 0.05631411 -0.04377421 0.044555616
0.024719868 0.011771188 0.12066896 -0.004528519 0.021531716 0.06667725 -0.100827195 0.117997095
-0.112098545 -0.08505458 0.06962898 0.06801112 -0.07411191 -0.0050755246 0.0087242825 0.10348149
-0.07001308 -0.1267195 0.1349531 -0.029783227 0.005285544 0.03159943 -0.09353839 -0.052187964
-0.11784352 0.10326911 -0.10746306 -0.0531029 0.06273666 -0.054304853 0.05178312 -0.04445388
0.12888911 0.02744465 0.034923695 0.10097041 -0.12335057 -0.03433567 -0.117331065 -0.0005158649
-0.12942567 -0.012379188 0.0074452786 0.037997376 0.0404077 0.10556873 0.06130836 0.07593223
0.13802011 0.07170514 0.095650904 0.05532152 -0.069289476 0.062098034 0.06251613 0.11815506
0.028338185 0.10801083 -0.013958924 0.048685435 0.040359136 0.02448544 -0.07235846 -0.06920781
0.08532159 -0.03280419 0.14790569 0.11670171 0.15205377 0.037457235 0.034852676 -0.016418636
0.011749279 -0.11169086 -0.03080916 0.048450164 -0.043596335 0.06435515 0.051313862 -0.054642808
-0.09361401 -0.026161 -0.09574088 0.1114385 -0.042555153 0.051561132 0.08476524 0.09179249
0.1055625 0.064846925 0.016634198 -0.01647987 0.13685748 -0.0474224 -0.05665963 0.07740067
0.11324664 0.10112853 0.08882699 -0.015949318 -0.04852195 0.088657424 0.05841197 0.04895662
0.10615109 0.06584665 -0.034856714 -0.031456906 0.14275321 0.1327407 -0.07396936 0.05279739

lstm.weight_ih_l1 f4 [256, 64]
00000000: 0e48 d8bd d738 833d e711 21bd dfbe b43d
00000010: a86b 11bc 6ea7 9bbd 1168 41bd 37e3 8ebd
00000020: 1b82 adbc b2cd 893d 9a66 22bd 11eb a6bd
00000030: f790 d53d f293 c4bc 11c2 053e bd27 c7bd
00000040: 05d2 98bd 1548 78bd d50a 45bd b8df b2bd
00000050: c9dd a43d 6cf6 45bd 7103 6f3c 5911 aa3d
00000060: 6cd0 d3bb c1c2 3cbd 8e66 173d 2b36 a3bd
00000070: 22f7 dc3d d7ec f0bd 849e a33d 5be6 e1bd
00000080: 42da b9bb 3af2 f6bd 30a9 9cbd 685f 443c
00000090: e3a6 893d 760a c8bd 10d1 14bc f5a1 873d
000000a0: 1bdb 86bd a2aa 09be fac7 81bd de05 2d3d
000000b0: dcdd 963d aa09 d1bd f224 c33d a231 7f3c
000000c0: 5ce5 0a3e 65aa 5fbd 4c81 ffbb de06 f33d
000000d0: 3dec 0abe 8af3 7f3d 9476 753d 1ede 12be
000000e0: acde 903d 2e48 dbbc 8d61 103d ca1e f03c
000000f0: a514 22bd c3c6 e93c a5b4 193d a874 d23d
00000100: e7aa 0ebe ee58 c43c ad51 72bc a8e9 953c
00000110: a550 a13b e8ca b53d 2ba8 363d 4fb9 c93d
00000120: 8b46 6c3d 155d b3bd 9966 17bc d2c9 c2bd
00000130: edb9 c83d e726 1b3e 1d0e 743d 28f4 c6bb
00000140: 7256 093d 1922 15be 5af5 c43d aecd a1bd
00000150: bad4 f43d 27f7 e2bd f0f7 00bd b31a fc3d
00000160: 15ae a3bd 9c31 67bc 975e 9d3d 5f76 cdbd
00000170: 175a 953d 3610 a93d 5f7e 533c 7202 553d
00000180: f3dd 973c 2be8 12be ebbf 99bd e81d 3d3c
00000190: 3f54 523c 6dad 99bd b6cb 1f3e 4014 20be
000001a0: b790 f93b 9c7f 5ebd d0a3 a73a 76ff 97bd
000001b0: f6fb efbd e017 023d b2f4 30be ad45 9e3c
000001c0: 188e cbbc 133f 523d 7492 ffbc 4f0b 19be
000001d0: e281 a6bd b48e c13d 23ea c33c 7d8b 673d
000001e0: 5705 803d 51b2 433d 3b11 ac3d 02fb 4fbd
000001f0: 038e 933c 7faf 283d 0327 293d 1b8c 233e
00000200: afbf 973d 2999 5dbd d216 65bd d476 1d3e
00000210: 012f 92bd 916e 843d 7676 3dbd 721f 173e
00000220: d972 cebd 3f92 d4bd b33a 99bd a7db 123c
00000230: fc45 b3ba d97f 853d 2270 c43c 809b 163d
00000240: dc8b 8c3d 98f0 113d a65c 9dbd 74d1 be3d
00000250: 4983 203d 8e32 093d 0574 1cbe 5834 a33d
00000260: b945 1b3e adf5 4f3c 1183 e3bd ce9e b53d
00000270: af5f a9bd 791f 95bb 0fbf 24bd d9a1 813d
00000280: 2e40 bbbc 3ba8 7d3d 6e7c 683d 3929 4e3d
00000290: 3dd3 e4bd aaca c03d a26b b0bd ee35 16be
000002a0: 8583 57bd cf32 4dbd e330 24be 3e44 fbbd
000002b0: c859 57bd 3c95 a43d 626d 01be 38de 14be
000002c0: d3af 503d 2cdd 9a3d 4480 d93c 2467 4b3c
000002d0: f501 e4bc 30bc 2bbc 5412 c53d eb9e fdbb
000002e0: 29fd 0dbe 1ed5 1a3e 9829 8fbd f405 b4bd
000002f0: 42f5 7f3d bda4 7a3d f669 68bd 45fe 88bd
00000300: 0825 10be 51a2 bd3d f56d c03d 860a d1bc
00000310: d8b2 643d 355e 1e3e 15c7 033e 7f3f 393d
00000320: 0dd0 293d 562f d83c 95ca 0d3e 84cf da3d
00000330: 12af a2bd a422 073c a063 3bbd d52b 88bd
00000340: e238 073c 55b4 303d cf37 b03d 70e2 e13d
00000350: a215 96bd 0535 d83c 6eeb 10be e2f1 e2bc
00000360: 5b44 85bd e47e c0bd 6342 01be 01b4 483d
00000370: 9e9a 9c3d 933f e13d 588b a9bd 3504 fd3c
00000380: 0efa 413c b671 01be c13e dabc d08d abbd
00000390: b02a 09bd 90de 4b3d a9b4 7abd f4cf 04be
000003a0: 7a4d 89bd 723f c5bd 9159 41bd 5e85 22be
000003b0: d4d7 c43d 98c1 07be b029 903d cfa6 173d
000003c0: efb7 f33d 81c7 57bc 78a4 26bd da56 a4bd
000003d0: 6fcb ffbd b46e c23d 4769 943c a2b1 9a3d
000003e0: 5159 b63d a299 023e 3a9b e3bc a40c 07be
000003f0: fa29 98bc 339c 81bc a1bb c5bd 6d0a 1c3e
-0.10560618 0.06407326 -0.039323714 0.08825468 -0.008875765 -0.07600294 -0.047218386 -0.069769315
-0.021180203 0.067286864 -0.03964863 -0.08150304 0.104280405 -0.023996327 0.13062312 -0.09724376
-0.07461933 -0.060615618 -0.048106033 -0.08734077 0.08050115 -0.04833071 0.014588223 0.0830409
-0.006464055 -0.04608417 0.03696304 -0.07969316 0.10789324 -0.117639236 0.07989219 -0.11030265
-0.0056717703 -0.1205792 -0.076494575 0.011985637 0.06721284 -0.0976762 -0.0090830475 0.06622688
-0.0658476 -0.13443998 -0.063369706 0.042241924 0.07366535 -0.102069214 0.09528531 0.015575798
0.13564056 -0.05460586 -0.007797396 0.11866544 -0.1356668 0.062488116 0.059927538 -0.14342543
0.07073721 -0.026767816 0.03524928 0.029311556 -0.03957047 0.02853716 0.03752579 0.10276157
-0.13932382 0.023968186 -0.014789981 0.018299893 0.0049229437 0.08876592 0.04459397 0.09849798
0.057684463 -0.08757988 -0.00924077 -0.095111504 0.098010875 0.15151559 0.059583772 -0.006071586
0.033529706 -0.14563788 0.096171096 -0.079005584 0.11954637 -0.11082297 -0.03148645 0.1230978
-0.07992188 -0.014110949 0.07684057 -0.10032343 0.07292574 0.08255045 0.012908547 0.052004285
0.01853845 -0.14346378 -0.075073086 0.011542775 0.012837469 -0.075037815 0.15605053 -0.15632725
0.0076161283 -0.054320917 0.0012789909 -0.07421772 -0.117179796 0.03176105 -0.17280844 0.019320333
-0.024848029 0.051329684 -0.031197764 -0.1494572 -0.08130242 0.094510466 0.023915356 0.05652951
0.062510185 0.047777478 0.08401724 -0.05077649 0.018012052 0.04118299 0.04129697 0.15971415
0.074096076 -0.054101143 -0.055929966 0.1537736 -0.071378715 0.06466401 -0.04625555 0.14758089
-0.10080499 -0.10379457 -0.07481899 0.008963502 -0.0013677473 0.06518526 0.02397925 0.03676939
0.068626136 0.03562984 -0.07683687 0.09317294 0.039187703 0.03349548 -0.15278633 0.07968968
0.15163316 0.012692851 -0.11108983 0.0886818 -0.08270203 -0.004550871 -0.04022127 0.06329698
-0.022857752 0.061928015 0.05675929 0.05033228 -0.11173103 0.09413655 -0.08614279 -0.1466901
-0.05261566 -0.050097283 -0.16034274 -0.122688755 -0.052575856 0.08036277 -0.12639382 -0.14537895
0.05094893 0.075617164 0.02655042 0.012414727 -0.027832964 -0.010481879 0.096226364 -0.0077398918
-0.13866104 0.1512036 -0.06990355 -0.08790198 0.062489755 0.061192263 -0.056741677 -0.06689123
-0.14076626 0.09259475 0.09395973 -0.025517713 0.05583462 0.15465625 0.12868913 0.04522657
0.04145818 0.026389759 0.1384681 0.10684112 -0.07943548 0.008248005 -0.045749307 -0.06648985
0.008253308 0.043140728 0.08604395 0.11029518 -0.07328345 0.02639247 -0.1415231 -0.02770323
-0.065071784 -0.093992025 -0.12622981 0.04899979 0.076466784 0.10998454 -0.08278531 0.030885795
0.011839403 -0.12641034 -0.026641252 -0.08376658 -0.033487976 0.0497728 -0.061207447 -0.12969953
-0.067042306 -0.09631242 -0.047204558 -0.15871188 0.096114784 -0.13257444 0.07039201 0.037024315
0.11900317 -0.013170124 -0.040684193 -0.08024378 -0.12489974 0.09493771 0.018116606 0.07553412
0.089037545 0.12753919 -0.027783979 -0.13188416 -0.018574703 -0.015821552 -0.09654928 0.15238352

lstm.weight_hh_l1 f4 [256, 64]
00000000: 30ba f73d 6b2a 703d 75b5 ae3d 329c fcbd
00000010: 743d acbb 850d 08be e798 1e3d eeda 74bc
00000020: e492 823d 1b30 903d 633f 033e 5d36 b63d
00000030: 25cf 333d aa6d 89bd 85b5 f93d 963c 533d
00000040: f0c9 debd cc04 ab3d 70ff 68bd 29b0 d7bd
00000050: 0042 7b3d 136c 863d dd60 f8bc ee3a 983c
00000060: 1797 743c 5336 813d b618 063d 141a adbd
00000070: 414e 0dbe d498 fc3c 44e1 d1bd 58f3 f33c
00000080: 2a28 31bc 0cc4 8c3d b341 23bd 0949 743c
00000090: 4366 f5bc 779e 9bbd e742 dbba 2d06 5cbd
000000a0: b418 b23d 69e8 0cbd bde1 79bd 8160 94bd
000000b0: 7877 fa3d c090 b4ba 6609 a63d 49fe deba
000000c0: f19e 2ebe ec7c e43d 8733 973d 1c93 053d
000000d0: 420c 423d a21f e73b b4b4 03bd 0a7c 023d
000000e0: f53a 173e e154 e63d 7cf4 c9bd 3657 d83d
000000f0: 1f66 c7bc ee58 193e 8a2e 0abd c176 883d
00000100: a632 acbd 48bf 663d e2a2 7cbb 7c05 653d
00000110: 0132 7e3d 06de 0dbd 620f 98bb 0d42 d33c
00000120: e467 c6bd a68b 01be bfa3 b93d 9e67 c9bc
00000130: 9d84 53bc 6831 5abd 13b6 8fbd 3774 25be
00000140: 8861 3fbd d34c 1e3d 733c a4bd 4e3b 1f3c
00000150: bbb0 053c 26fe 173e 448d 6a3d 3ead d3bd
00000160: 1c70 f03d 2455 40bd 434a 0b3e 433c ca3d
00000170: 8a74 af3d 025c 1f3c 9e9a a3bd 7ad9 58bd
00000180: d011 f03d b959 b43d c5e8 6d3d 1dd4 9a3d
00000190: 8ed3 743d 1702 923c 36c4 a93c 9305 ebbd
000001a0: df04 1ebe 897a b53b cf3a a83d 7f4a 9f3d
000001b0: fcdb 0c3d af10 3f3d 5388 0fbe 7e35 d83b
000001c0: f9e8 07be f6fc af3d 7c95 b23d 67d1 ed3d
000001d0: 4821 05be 9f86 1bbd 5c3b 8b3d debf da3d
000001e0: 2c54 0dbd 1ca5 a73d e9a0 bbbd 575e 9abc
000001f0: f171 29bd 18f7 113e d685 cebd 85d3 e3bc
00000200: 1483 b93d e58d bf3a f117 6dbd 2c64 5abd
00000210: 0422 d53d 49ef 8dbd 209f 2d3e d439 8d3c
00000220: 4db3 f4bd 532b 25bc 47cb 1f3e 0853 50bd
00000230: 4dcb 24be a1b7 273e 4c82 6ebd b6e0 61bd
00000240: 11c5 19be 5576 07bd eaa9 4dba 24f4 98bd
00000250: 1d93 f63d b495 053a e49b 203d f0d1 58bd
00000260: 1287 5fbd 9159 a7bd 6eaa 853c 29a3 0cbe
00000270: 980e d8bd 5099 c7bd 4a4d ba3a 1f30 393d
00000280: 78bd 663d 666e 0d3e c3c0 6c3d b993 26bd
00000290: 89cc 17bd 4a91 0abd 43bd 303e d8cc f5bc
000002a0: ddaa 8d3d c82f 36bc c4ea 253e 9404 c0bd
000002b0: 622b f03c e2aa 86bd ee62 fbbd 5b64 9cbc
000002c0: 6ab1 fcbd cba7 18bd 9873 2a3e b0e6 9a3d
000002d0: 7519 7bbd 1d65 68bd 207a 98bd 7414 aabc
000002e0: 1e1f 203c f456 cbbc 8859 693d 5b85 2a3c
000002f0: 1601 8d3c ed13 de3d 928e aebd a571 243d
00000300: f42b 193d 5ee2 383d a372 b8bd c7a0 1e3d
00000310: 7226 1f3c 7df7 f2bc f853 113d c06c 44bd
00000320: f0fa 0ebc 4d55 bebd 5fe9 263d 4482 babb
00000330: 199f 17be af3d 10bd 874a c93d 3105 a6bd
00000340: f75b ab3c 551e a3bd 00a6 f1bd 39f5 a93d
00000350: f7a1 bcbc a6ff 843d 37ba 43ba efbd d63c
00000360: c3c2 1b3e 7194 e43d 115c 493d f3d0 bf3d
00000370: 3068 293d 78a2 e3bd 6655 1cbd 0830 07be
00000380: 7fa8 89bd 6bcb 86bc 1023 1fbe 7a59 003e
00000390: bcea a8bd 8e85 333a 7953 8dbd 25dc 95bd
000003a0: 1f4d 13be de4b 753c 4ed1 82bd 2a13 11bb
000003b0: 4925 053e b134 b2bc 00f3 ccbd af51 a63d
000003c0: 171d c7bd 3acd 8abd e1db 883d 5486 e23d
000003d0: fc57 53bd f551 01bd 8f58 d4bd cc0f 803d
000003e0: de15 7f3d b6ac 7abd 0650 57bb d9f0 e23c
000003f0: f405 853d d63d b43d 0f77 82bd a5c6 95bc
0.12096059 0.058634203 0.08530704 -0.123344794 -0.005256349 -0.13286407 0.038720038 -0.014944775
0.063756734 0.070404254 0.12817149 0.08897088 0.04389872 -0.0671037 0.12192825 0.05157145
-0.1087836 0.08350524 -0.05688423 -0.10531647 0.06134224 0.06563582 -0.030319626 0.018582787
0.014928601 0.0630919 0.03273841 -0.0845224 -0.13799383 0.030834593 -0.10248044 0.029779121
-0.0108127985 0.068733305 -0.039857578 0.014909991 -0.029955989 -0.07598584 -0.0016728312 -0.053716827
0.08696118 -0.03440133 -0.061006296 -0.07244969 0.12229818 -0.0013776049 0.08107261 -0.0017013039
-0.17052819 0.111566395 0.07382875 0.032610998 0.04737497 0.0070533315 -0.032154754 0.031856574
0.14768584 0.11246658 -0.09861085 0.10563509 -0.024340687 0.1497533 -0.03373579 0.066632755
-0.08408098 0.056334764 -0.0038549234 0.055913433 0.062059406 -0.034635566 -0.0046405056 0.025788331
-0.09687784 -0.12650928 0.09064435 -0.024585541 -0.012910035 -0.053269774 -0.0701715 -0.16157614
-0.046723872 0.038647484 -0.08019342 0.009718729 0.008159812 0.14843044 0.057263628 -0.10335778
0.11740133 -0.046956196 0.13602547 0.09874775 0.0856715 0.009726526 -0.07988475 -0.052941777
0.117221475 0.08806176 0.058083314 0.07559989 0.059772067 0.017823262 0.020723443 -0.114756726
-0.15431546 0.005538289 0.08214342 0.07777881 0.03438948 0.04664677 -0.14016847 0.0065981736
-0.13272466 0.0859317 0.08719918 0.11612206 -0.13000977 -0.03797018 0.06798431 0.10681127
-0.0345041 0.08185789 -0.091615506 -0.018843813 -0.04136843 0.14254415 -0.10084121 -0.027810821
0.09058204 0.0014614431 -0.05788416 -0.053318188 0.104068786 -0.06930406 0.16955233 0.017239489
-0.119482614 -0.01008113 0.15604888 -0.050860435 -0.16093178 0.16378643 -0.05822973 -0.05514594
-0.15016581 -0.033071835 -0.00078454486 -0.07468441 0.120397784 0.0005095855 0.03921117 -0.052934587
-0.054572172 -0.0817138 0.016316619 -0.13734116 -0.105496585 -0.09746039 0.0014213708 0.045211907
0.056333035 0.13811645 0.05780102 -0.040668223 -0.037060294 -0.033829965 0.17259698 -0.030004904
0.06917355 -0.01111979 0.16202837 -0.09375873 0.029317562 -0.06575562 -0.12274729 -0.019090822
-0.123385265 -0.037269395 0.16645658 0.075635314 -0.061303575 -0.056737054 -0.074451685 -0.020761706
0.009773044 -0.024821736 0.05697015 0.010407771 0.017212432 0.10843644 -0.08523287 0.040147442
0.037395433 0.045137756 -0.0900624 0.038727548 0.009713756 -0.029659027 0.03548047 -0.047955275
-0.00872682 -0.092936136 0.040749904 -0.0056917984 -0.14806785 -0.035215076 0.09828668 -0.08106459
0.020917876 -0.0796477 -0.1179924 0.08298726 -0.02302645 0.064940736 -0.0007466408 0.026213614
0.15211014 0.111611255 0.049160067 0.09366026 0.041359127 -0.11114973 -0.03816738 -0.13201916
-0.06721591 -0.01645442 -0.15540719 0.12534133 -0.08247897 0.00068482093 -0.06900687 -0.0731738
-0.14384888 0.014971701 -0.06387578 -0.0022136667 0.13002504 -0.02175364 -0.10007286 0.08121049
-0.09722345 -0.06777425 0.066825636 0.11060777 -0.05159758 -0.0315723 -0.10368454 0.06253013
0.062276714 -0.061199866 -0.0032854094 0.027702736 0.06495276 0.08800857 -0.06370365 -0.018283198

lstm.bias_ih_l1 f4 [256]
00000000: b26d f63d 040e 4b3d 4c1d 4f3b bbbb b1bd
00000010: 2249 94bd 223d c83d 1aad 233d c2e9 353d
00000020: 49a9 1c3c 5ec7 dcbd d04e 7d3d 1da6 a6bd
00000030: 1c21 4abb dd52 983d d760 c63d 4e9d 753d
00000040: 40d6 4dbd 72a3 e7bd d30a ea3d b438 213d
00000050: f1cd 59bd 8a43 49bd 8594 dc3d 974d 143e
00000060: 0e39 3c3d 9feb e63d 01f8 143d 547c fa3d
00000070: d6da 02be 3bd7 af3d 53de 66bd 3e37 133e
00000080: 06bf f23d 3ebb 1abc 40c7 1b3d fcb1 e93d
00000090: b5ed 443c a1ed 643d 9fe2 af3d 11ff 35bd
000000a0: fbab 5f3d 9d21 85bd 2bbd 5b3d 7643 873d
000000b0: 80d6 793d fd32 6abd 4f02 87bc c663 95bc
000000c0: 3915 a9bd aa88 bebc c456 d63d dc55 54bd
000000d0: 27da d53c f2a9 60bc b191 183d 31d3 013d
000000e0: e4a7 d1bd 6e6d e03d 1f93 45bd 701b ea3d
000000f0: fa17 bc3c c515 d83d c32d f73d 1d25 a5bd
00000100: 839f e5bc 1c01 5b3d 7540 80bd 32e9 14bd
00000110: 42e9 a2bc e13f 263c 8e65 bd3d d469 f03d
00000120: 0f52 c23d a9a2 9c3b b1ee 533c 3bd3 01be
00000130: b66b cebd 3881 0e3d e435 9bbd a5ae 6dbd
00000140: b048 8a3d fb03 063d 6ab9 4cbd d20a 273b
00000150: 80d8 b5bd 93ba bb3d 98ff 483d bb25 ac3c
00000160: 07ef 82bc 72a9 7b3d 8dcd a0bd 9ef5 82bd
00000170: 1a63 0cbe 070c 983d 1158 c03d 86d5 933d
00000180: 9f2f 7ebc f154 553d 65b5 9a3c ea92 973c
00000190: 39eb 46bd 1d5d 91bc 92b9 6c3d 0ce5 b9bd
000001a0: d348 133d 3622 013e a6f9 0d3e 6343 253d
000001b0: f292 ff3c f19b c0bc b55e 7bbd 19d1 eb3d
000001c0: f0a2 44bd 31ae e43d 38b6 e53d 9f1f b53c
000001d0: a10f 7cbd 8946 9cbd 5fb7 473d 7343 24bd
000001e0: daed ea3d b783 dd3d 056a e23d 47e6 ae3d
000001f0: 46bd 13bd d7dd 8bbb adb8 a73d a439 183c
00000200: 5b4a c43d f0dc 733c 5c7d 19bd 3271 cebd
00000210: 09e8 51bd ebe8 a5bd 7872 8a3d 200b 06be
00000220: e9b1 b93c f5d7 393d 4f4b 6bbd 6b50 0fbc
00000230: cef0 80bd 3856 433d ea2e 65bd c162 90bd
00000240: f57c 6dbd d484 123d db7a 133d 7ebb b4bd
00000250: 644b a03d 0813 8fbd 57ce 3a3d ba20 4c3d
00000260: 1f55 123b 3ab8 c23d e6a5 d1bd 96b3 bbbd
00000270: a480 f6bc bb55 87bc edef 273d e151 fdbd
00000280: 8efd 793d 1771 c73d 1ea7 653d 1658 b23c
00000290: 4e82 68bc 978a febd 82e9 aabd 6001 7ebd
000002a0: 49ef 82bd d10d eb3d 720e 933d 3c94 803d
000002b0: 0a5c 0a3d b7e5 ac3d 461c aa3d 6817 2b3d
000002c0: 3114 12bd e8f9 e0bd f5c8 8d3d c6c0 323d
000002d0: 5295 aabd 2c94 483d 6e07 b93c b77d 883d
000002e0: aea3 35bd 7328 c0bd abd1 d73d b615 193d
000002f0: 424b 9cbd dc36 b43c 072c 3e3d f48f 7abc
00000300: 6ed7 0b3c 28c6 acbc 26db 043e 68cb aa3d
00000310: f446 a4bd f42b 773d 86ae 09bd 059e 233d
00000320: 5785 2dbd 61db b53c 6f1c 87bd 88a0 b1bd
00000330: a9f4 63bb c9db 30bd 1941 603d 0281 683d
00000340: 2e58 b2bd 1abd 9abd 4cd3 d43b 3e45 843d
00000350: 5bb2 d23d fc9f 46bd 9a56 98bc 4518 69bd
00000360: cb76 f73c 9d6b 083e c523 be3d 9d31 a2bd
00000370: 23d7 a53d a657 ee3d b348 bdbc ba15 a83c
00000380: 30e1 6b3d 9b40 78bd 73a8 723c 64a5 aebd
00000390: 9207 2c3d f4b5 a4bd 984c 013c 916f d6bd
000003a0: 4824 e83c 4bdf 96bd 05e7 5d3c 1e53 52bd
000003b0: 7ee1 d8bd ea51 813d 29f8 d93d aa2c 6bbd
000003c0: acf9 963d 0b42 b3bd 2671 b43d c8e8 2a3c
000003d0: 0ec4 c0bd 95dd eb3d c119 02bd a4aa a53d
000003e0: 442e 9fbc 52cf d93d 7450 103d 607b 973d
000003f0: 3ffa f93d e55e f6bb 02f2 b83d 8b99 cbbd
0.120326415 0.049573913 0.0031603156 -0.08678385 -0.072405115 0.09777285 0.039960004 0.044412382
0.009561845 -0.10780214 0.06184274 -0.08137152 -0.0030842489 0.0743768 0.096864395 0.05996447
-0.050253153 -0.113104716 0.11427846 0.039360717 -0.053174917 -0.049136676 0.10770515 0.14482723
0.04595285 0.1127541 0.036369327 0.12230745 -0.12778792 0.08585974 -0.05636437 0.14376542
0.11852841 -0.009444056 0.038031816 0.11410901 0.012019564 0.055890683 0.085881464 -0.044432703
0.054607373 -0.06500552 0.0536472 0.06604664 0.06099558 -0.057177532 -0.016480593 -0.018236052
-0.08256001 -0.023258526 0.10465768 -0.051839694 0.026105 -0.013712393 0.037248317 0.03169555
-0.10237101 0.10958372 -0.04823601 0.114310145 0.022960652 0.10551027 0.12069275 -0.080637194
-0.028030163 0.053467855 -0.06262294 -0.036355205 -0.019886617 0.010147066 0.09247886 0.11738935
0.09488308 0.004780133 0.012935326 -0.12678234 -0.10079138 0.0347912 -0.07578638 -0.058027882
0.06752145 0.03271864 -0.049981512 0.0025488627 -0.08879185 0.091664456 0.04907188 0.021014085
-0.015983118 0.061440893 -0.07851706 -0.06394504 -0.13709679 0.07424169 0.09391797 0.07218461
-0.015514283 0.05208296 0.018885324 0.018502671 -0.04856417 -0.017744595 0.05779416 -0.0907689
0.035958122 0.12610707 0.13864765 0.040347468 0.031197999 -0.023511859 -0.061369617 0.115144916
-0.04800695 0.11166037 0.11216396 0.022109805 -0.061538342 -0.07630641 0.04875886 -0.040103387
0.11471148 0.10816138 0.11055378 0.08540016 -0.036069177 -0.0042683887 0.08189521 0.009291086
0.09584495 0.014884219 -0.037473068 -0.10080184 -0.051246677 -0.08101066 0.067601144 -0.13090181
0.022667842 0.04537197 -0.057444867 -0.0087472005 -0.0629593 0.047689646 -0.055952944 -0.07050086
-0.057980496 0.035771206 0.036005836 -0.08824824 0.078268796 -0.06986052 0.045606937 0.049835898
0.0022328568 0.09507795 -0.10236721 -0.09165113 -0.030090638 -0.016520372 0.041000295 -0.12369133
0.061032824 0.09738367 0.05606758 0.021770518 -0.014191223 -0.12428778 -0.08345319 -0.06201303
-0.06393296 0.11477245 0.071804896 0.062782735 0.03377918 0.08442252 0.08306174 0.04177037
-0.035663787 -0.10985166 0.06923095 0.043640874 -0.08329262 0.048969433 0.02258655 0.06664603
-0.04434555 -0.09382715 0.10538038 0.03737422 -0.07631542 0.021998815 0.046428706 -0.01529311
0.008535249 -0.021090582 0.12974223 0.08339578 -0.08021346 0.06034465 -0.033613704 0.03994562
-0.04236349 0.022199335 -0.0659722 -0.08673197 -0.003478328 -0.043178353 0.054749582 0.056763656
-0.08708225 -0.075555995 0.006494915 0.064585194 0.10287925 -0.048492417 -0.018595982 -0.05690791
0.030208012 0.13322301 0.09284166 -0.07919619 0.08097675 0.11637811 -0.023105955 0.020518173
0.057587802 -0.060608488 0.014810669 -0.085276395 0.041999407 -0.08042517 0.0078917965 -0.10470498
0.028337613 -0.073668085 0.013543849 -0.051348798 -0.10589884 0.06314452 0.10643036 -0.05741564
0.0737184 -0.08752831 0.08810644 0.010431476 -0.094123945 0.11516873 -0.031762842 0.08089188
-0.01943124 0.10635246 0.035232976 0.07396579 0.12205934 -0.0075186365 0.09030534 -0.09941395
